Pytorch/model_data/CIFAR10_EPOCH12.pth (torch, 588839 bytes, 10 tensors)

weight f4 [32, 3, 5, 5]
-0.02738644 -0.05451153 -0.073982045 -0.14418934 -0.045735717 -0.16500808 -0.12984474 0.088643864
-0.059520327 -0.09128519 -0.15196341 -0.056066632 0.13004752 0.08988558 -0.16470954 0.0721511
-0.090304516 0.08899201 0.14499022 -0.12130638 0.051421 -0.007468789 0.1605782 0.12870389
-0.10685094 -0.11132725 0.042545225 0.093459874 -0.06895039 -0.16836211 -0.067498416 0.08754284
-0.099682786 0.054325167 -0.1660882 -0.04698524 -0.034861747 0.055800866 0.09826795 0.05462984
0.037527263 -0.09283551 0.015196469 0.14421561 0.024404252 0.031061456 0.120147265 0.18943079
0.16514613 0.047259726 -0.06196904 -0.06399323 -0.12958598 -0.06369135 -0.1824119 -0.022354484
0.044147275 -0.024469214 0.052730504 -0.15370472 0.04350768 0.05501565 -0.00051525724 0.086803764
-0.124322526 -0.0106332395 0.047060214 0.15200873 -0.022142578 -0.13089974 0.0564769 0.040112656
0.164764 0.16270554 0.09916622 0.086309254 0.10043218 0.14401531 0.07174161 -0.0110445395
-0.026386678 0.069748566 0.034993492 -0.13768214 -0.12417692 0.11981016 -0.14511758 0.037576076
-0.14581126 0.06807045 0.039401274 0.004778149 0.013393472 0.117975175 -0.057897713 0.042651076
0.027000219 0.023526259 0.09446458 0.0071426174 0.06495748 0.09487818 0.06712379 0.036566284
-0.1747203 0.09558732 0.008320103 0.027867565 -0.18952699 -0.19722036 -0.080243215 -0.14978905
-0.041616112 0.019571252 -0.15204778 -0.017319044 -0.009888611 -0.0013741866 -0.027508272 -0.010378573
-0.030153092 0.04196032 0.080778 -0.013379431 -0.062306806 0.0047075283 0.06664336 0.14651187
-0.08128904 0.033644397 0.025470026 -0.019778814 -0.06918115 -0.13222672 0.060524497 0.023898412
0.0046766177 -0.012923065 0.020037577 0.05633491 -0.034438 -0.058073513 0.11292934 0.051205967
0.04610736 -0.06130697 -0.07442115 0.11530744 -0.0894817 0.013770882 0.09895578 0.015184588
-0.12571685 -0.029150832 -0.12258143 -0.020075664 0.027918007 -0.18278058 -0.1721076 -0.12427262
-0.113673076 0.047300406 0.010405803 -0.06415485 -0.028015332 -0.16058058 -0.0980613 -0.11025868
-0.0761252 -0.12562199 0.026965337 -0.19340016 -0.20019633 -0.16661301 -0.15261473 -0.027939025
-0.12421717 0.038887773 0.035032842 0.04492676 0.042528905 -0.043329652 0.0092771165 0.023223499
-0.10113731 0.02398753 -0.034859855 0.087110355 0.12925191 -0.013486969 -0.078887664 0.1484735
0.1320337 0.07701553 0.0026674923 0.06989753 -0.07730696 -0.14785308 -0.08632744 -0.068261996
-0.1058383 -0.021913763 0.09867489 0.039156873 0.1182326 -0.0481827 0.020830333 0.10746364
-0.047352683 0.15196215 0.10773944 0.11066761 0.08779684 0.23316577 0.20329298 0.063176565
0.19709782 0.23745583 0.15211996 0.14184518 0.09090762 0.041272722 -0.075352706 0.08951273
0.10676099 0.06862487 0.01822086 -0.024858424 0.035093587 -0.087151125 0.049747854 -0.057048183
0.05502333 0.0882894 0.03822993 0.08078452 -0.10121158 -0.011286727 -0.023252148 0.1291107
0.05024564 0.043730132 0.049044322 0.14929032 0.07414593 -0.03485695 -0.12540118 -0.10941137
0.14543788 -0.017803311 -0.010280258 0.029071089 -0.07880647 0.1071209 -0.06417629 -0.029080907
00000000: 8759 e0bc 7b47 5fbd e683 97bd 5fa6 13be
00000010: 6055 3bbd e1f7 28be 05f6 04be ea8a b53d
00000020: 96cb 73bd bbf3 babd 4c9c 1bbe 20a6 65bd
00000030: 2d2b 053e ee15 b83d 9ea9 28be f5c3 933d
00000040: 93f1 b8bd 7141 b63d 5178 143e 7b6f f8bd
00000050: d49e 523d bebc f4bb 9d6e 243e f4ca 033e
00000060: aad4 dabd 8bff e3bd e743 2e3d e467 bf3d
00000070: dd35 8dbd 1e67 2cbe 9c3c 8abd a949 b33d
00000080: 7d26 ccbd 1184 5e3d 0613 2abe 9873 40bd
00000090: 31cb 0ebd 738f 643d b540 c93d 8ac3 5f3d
000000a0: 30b6 193d 8b20 bebd 9cfa 783c 42ad 133e
000000b0: 6deb c73c 9874 fe3c c50f f63d 25fa 413e
000000c0: 111c 293e 6a93 413d 40d3 7dbd e20e 83bd
000000d0: 30b2 04be 9c70 82bd 2fca 3abe c020 b7bc
000000e0: c6d3 343d a973 c8bc f1fb 573d c564 1dbe
000000f0: 1c35 323d 1758 613d 5412 07ba 2cc6 b13d
00000100: cf9c febd 0a37 2ebc 36c2 403d 2da8 1b3e
00000110: 5a64 b5bc 950a 06be 5254 673d 2b4d 243d
00000120: e5b7 283e 489c 263e a917 cb3d e8c2 b03d
00000130: 63af cd3d c078 133e 44ed 923d 28f4 34bc
00000140: e028 d8bc 56d8 8e3d 5655 0f3d 8cfc 0cbe
00000150: 7850 febd 075f f53d b499 14be 5fe9 193d
00000160: 8c4f 15be 8568 8b3d 3b63 213d 0592 9c3b
00000170: 4b70 5b3c f89c f13d 2726 6dbd e5b2 2e3d
00000180: 902f dd3c 24ba c03c a576 c13d 9e0c ea3b
00000190: 6d08 853d 7e4f c23d 3378 893d 87c6 153d
000001a0: e1e9 32be 49c3 c33d 0b51 083c 854a e43c
000001b0: 5d13 42be 22f4 49be 8e56 a4bd 4d62 19be
000001c0: a875 2abd e453 a03c 6ab2 1bbe abe0 8dbc
000001d0: d703 22bc 0d1e b4ba 0759 e1bc e40a 2abc
000001e0: 9e03 f7bc 96de 2b3d f06e a53d 6735 5bbc
000001f0: 6c35 7fbd 9c41 9a3b 507c 883d 3507 163e
00000200: de7a a6bd b5ce 093d 84a6 d03c 2e07 a2bc
00000210: d9ae 8dbd 7166 07be 89e8 773d 9ac6 c33c
00000220: 503e 993b 43bb 53bc d825 a43c 6fbf 663d
00000230: dc0e 0dbd 7ede 6dbd 7f47 e73d 59bd 513d
00000240: 12db 3c3d 041d 7bbd 1e6a 98bd 4f26 ec3d
00000250: 2e42 b7bd 449f 613c 54a9 ca3d c7c8 783c
00000260: ebbb 00be bacd eebc f90b fbbd b875 a4bc
00000270: 4eb4 e43c d52a 3bbe fa3c 30be a582 febd
00000280: 6ecd e8bd 12be 413d 1a7d 2a3c 9e63 83bd
00000290: 6980 e5bc 3c6f 24be 5dd4 c8bd 4ecf e1bd
000002a0: 87e7 9bbd 0da3 00be 69e6 dc3c b10a 46be
000002b0: 4400 4dbe 9a9c 2abe 0947 1cbe 62e0 e4bc
000002c0: 9265 febd c948 1f3d 997e 0f3d 1f05 383d
000002d0: ca32 2e3d 6f7a 31bd 0cff 173c 353f be3c
000002e0: 1421 cfbd 7f81 c43c 35c9 0ebd ea66 b23d
000002f0: 9d5a 043e 73f8 5cbc db8f a1bd 7009 183e
00000300: d833 073e 51ba 9d3d 18d1 2e3b 7026 8f3d
00000310: 1d53 9ebd cc66 17be 71cc b0bd f2cc 8bbd
00000320: c0c1 d8bd 7e84 b3bc 1016 ca3d f562 203d
00000330: ef23 f23d 395b 45bd 60a4 aa3c e615 dc3d
00000340: e3f4 41bd f79b 1b3e 7fa6 dc3d b3a5 e23d
00000350: d4ce b33d 02c3 6e3e 092c 503e b762 813d
00000360: 03d4 493e 9f27 733e 56c5 1b3e dd3f 113e
00000370: c62d ba3d 960d 293d 8552 9abd 7352 b73d
00000380: 82a5 da3d 328b 8c3d ea43 953c e5a3 cbbc
00000390: 4bbe 0f3d 4a7c b2bd 68c4 4b3d 5bab 69bd
000003a0: 2560 613d 13d1 b43d fd96 1c3d 5b72 a53d
000003b0: 0448 cfbd f7eb 38bc 4a7b bebc 9835 043e
000003c0: 5fce 4d3d 5e1e 333d b3e2 483d 90df 183e
000003d0: d2d9 973d 29c6 0ebd 2b69 00be 1113 e0bd
000003e0: abed 143e 40d8 91bc 876e 28bc 7e26 ee3c
000003f0: 4965 a1bd 3462 db3d dc6e 83bd 153b eebc

bias f4 [32]
-0.15063265 -0.0045881476 0.049029797 -0.07555244 -0.016422108 0.23050363 -0.32208967 -0.36009833
-0.085204564 -0.012240043 0.16869861 -0.057890844 -0.053019047 -0.09895428 -0.009781459 -0.097263396
0.0012265944 -0.3523953 -0.03249246 -0.09406995 0.008484887 0.081977665 0.08700295 0.14440188
-0.28804055 0.026352262 -0.1381096 0.27268967 -0.24977852 0.04327985 -0.09587133 0.07905152
00000000: 723f 1abe 2c58 96bb 78d3 483d 3dbb 9abd
00000010: a887 86bc 2509 6c3e f0e8 a4be cf5e b8be
00000020: bb7f aebd 768a 48bc 54bf 2c3e f31e 6dbd
00000030: 802a 59bd 8ba8 cabd 6a42 20bc 0832 c7bd
00000040: aec5 a03a 286d b4be d016 05bd bfa7 c0bd
00000050: 3204 0b3c e8e3 a73d 9a2e b23d 16de 133e
00000060: 0d7a 93be b3e0 d73c 9a6c 0dbe fb9d 8b3e
00000070: f1c5 7fbe 3646 313d 3058 c4bd c3e5 a13d

weight f4 [32, 32, 5, 5]
-0.00054694747 -0.0076902173 -0.004888629 -0.0030125359 -0.024795912 0.036312655 0.0093838405 0.040776055
0.037722576 0.031569738 0.026438823 0.012832216 -0.011798316 0.0132921245 0.0405777 -0.006814621
-0.0068373336 -0.04835284 -0.027743021 -0.024174947 0.02941655 0.026452698 0.030764129 0.03258676
0.013140063 -0.03805904 0.014527128 -0.020127507 0.024411313 -0.008126035 -0.020780107 0.023028806
0.011644303 0.008588861 -0.025065027 0.043479744 -0.011639677 0.013189461 0.011673092 0.027116863
0.016583588 0.042203102 -0.012114532 0.010303093 0.02810179 0.0023611425 0.053602695 0.044793904
0.04367442 -0.023714155 0.030125333 0.04128711 0.0045808414 0.023013812 0.03625923 0.016122518
0.00072321395 -0.022847699 0.022840988 0.02427469 -0.043994457 -0.009084601 0.022929976 0.021291357
-0.018487452 0.012265576 0.008477447 -0.04024331 0.004119584 0.009316405 -0.036133297 0.012631888
-0.011327174 -0.009545188 0.027341453 -0.0038874855 0.02050244 -0.019481914 0.0059182076 -0.022349201
0.016318992 -0.011563304 -0.003040028 -0.0022642203 0.00063257036 0.008957839 0.002621165 0.039131355
0.017861841 0.0057371752 -0.004148816 0.03664774 0.037778698 0.02201973 0.019607477 0.011022078
0.02382568 -0.018423554 0.00519666 0.031805262 0.023832204 -0.01865277 -0.028938016 -0.0033011565
-0.007559563 -0.017391285 -0.014147512 -0.007249188 -0.046793204 -0.0024113755 -0.0046423636 -0.028143823
-0.02940058 0.0015195217 -0.00059567834 -0.025958208 0.026427295 0.025743466 0.0104957605 -0.011408106
0.009400071 0.010042436 0.0191727 -0.023171056 -0.0010283182 0.012060349 -0.0036595142 0.024161976
0.046632856 -0.022999268 0.020502647 0.018249495 0.04084998 0.018299446 -0.00082749536 -0.0008215261
0.033953097 -0.02120004 -0.026440188 -0.023674563 0.048788555 -0.01727891 -0.048639867 -0.040109873
0.01985766 0.0009586672 -0.04829541 0.009579599 0.051661085 -0.0028092768 0.007644244 0.042095225
0.021959884 0.0008393775 0.04427185 0.011153312 0.032299474 0.03453597 -0.00892222 0.017903266
0.0051259412 0.015931029 0.012708115 0.021939745 0.0023486954 0.020836115 -0.0071403966 0.036225513
0.0027303924 -0.002291127 -0.005787712 0.035933085 0.030995162 -0.026703596 0.035276983 -0.02801965
-0.035952274 -0.025181608 0.026649784 -0.038149692 -0.017115448 -0.0014430769 -0.004916638 0.022125717
-0.030572176 -0.0015115972 -0.0042843744 0.045559995 0.034052644 0.051188353 0.039727733 0.018276341
0.051179744 0.06628536 0.047684126 0.055332154 0.069520056 0.037996534 0.046543915 0.049844794
0.009956471 0.029140547 0.0043137497 -0.03626895 -0.010915916 0.018868592 0.005535094 -0.024945626
-0.050979774 0.0014110083 0.005601002 0.0013311153 -0.01639664 -0.040571135 -0.035141196 -0.01631043
0.03414842 -0.0035560126 0.061670333 -0.007938355 -0.033621516 0.041156944 0.012623185 -0.00020610748
0.00024111664 0.016374135 -0.0064723417 -0.034467675 -0.033748657 0.016650865 0.027189983 0.0038085005
0.015567031 -0.02338793 -0.018089453 -0.0044321357 0.033743817 0.011119907 0.011712383 0.037449874
-0.018850256 0.018241532 0.0065230853 0.058249176 0.04697918 0.0338652 0.0131301945 0.016358513
0.056500014 0.041941807 -0.0022611439 -0.017265014 -0.018363284 -0.0072594546 -0.04146752 0.05311763
00000000: 0661 0fba 38fe fbbb cb30 a0bb f76d 45bb
00000010: cc20 cbbc 94bc 143d aebe 193c cb04 273d
00000020: fd82 1a3d 454f 013d 3b96 d83c 373e 523c
00000030: b94d 41bc 36c7 593c cd34 263d 2f4d dfbb
00000040: b60b e0bb a10d 46bd 5545 e3bc 8a0a c6bc
00000050: fafa f03c 54b3 d83c 0e05 fc3c b279 053d
00000060: 6b49 573c cce3 1bbd 3103 6e3c 71e2 a4bc
00000070: 3cfa c73c 1023 05bc 0b3b aabc e8a6 bc3c
00000080: bfc7 3e3c 4bb8 0c3c 2c55 cdbc d117 323d
00000090: 58b4 3ebc 9c18 583c 7f40 3f3c 2f24 de3c
000000a0: 4eda 873c 29dd 2c3d 087c 46bc 4ece 283c
000000b0: ba35 e63c 66bd 1a3b 808e 5b3d d079 373d
000000c0: f3e3 323d 3044 c2bc 67c9 f63c ac1c 293d
000000d0: e21a 963b 7687 bc3c 8f84 143d 5f13 843c
000000e0: 1196 3d3a 192b bbbc 061d bb3c b7db c63c
000000f0: 8833 34bd 94d7 14bc a5d7 bb3c 366b ae3c
00000100: ff72 97bc 8ef5 483c fde4 0a3c 2bd6 24bd
00000110: 93fd 863b d6a3 183c 8200 14bd faf5 4e3c
00000120: 9c95 39bc 6c63 1cbc 2ffb df3c 2fc5 7ebb
00000130: bcf4 a73c 8998 9fbc 86ed c13b ac15 b7bc
00000140: 68af 853c 0374 3dbc 353b 47bb 5063 14bb
00000150: 14d3 253a e6c3 123c dac7 2b3b 3348 203d
00000160: ff52 923c eafe bb3b cbf2 87bb f11b 163d
00000170: d6bd 1a3d b962 b43c dc9f a03c f295 343c
00000180: 132e c33c feec 96bc be48 aa3b 3c46 023d
00000190: c13b c33c b2cd 98bc 6b0f edbc 3758 58bb
000001a0: 36b6 f7bb 2b78 8ebc f7ca 67bc 998a edbb
000001b0: 3baa 3fbd 2b08 1ebb f81e 98bb e08d e6bc
000001c0: 7cd9 f0bc b02a c73a 4c27 1cba 4fa6 d4bc
000001d0: 0e7e d83c f6e3 d23c 69f6 2b3c 11e9 3abc
000001e0: c102 1a3c 0889 243c 1110 9d3c 3ad1 bdbc
000001f0: a2c8 86ba c598 453c 76d4 6fbb 56ef c53c
00000200: 1802 3f3d f668 bcbc 2bf5 a73c f77f 953c
00000210: 4f52 273d b8e8 953c 46ec 58ba af5b 57ba
00000220: 6712 0b3d b5ab adbc 1899 d8bc 28f1 c1bc
00000230: 82d6 473d 808c 8dbc 993a 47bd 404a 24bd
00000240: 88ac a23c 114f 7b3a 68d1 45bd c0f3 1c3c
00000250: 939a 533d d81b 38bb 917c fa3b 0b6c 2c3d
00000260: 37e5 b33c ac09 5c3a 6656 353d 62bc 363c
00000270: 744c 043d 9775 0d3d 812e 12bc dfa9 923c
00000280: 83f7 a73b ca81 823c b335 503c fbba b33c
00000290: 92ec 193b 80b0 aa3c fdf9 e9bb 3461 143d
000002a0: 62f0 323b bc26 16bb d9a6 bdbb 922e 133d
000002b0: 91e9 fd3c 80c1 dabc 997e 103d 7789 e5bc
000002c0: b142 13bd a949 cebc a650 da3c da42 1cbd
000002d0: b235 8cbc a025 bdba c01b a1bb fe40 b53c
000002e0: 8072 fabc c920 c6ba f063 8cbb 1e9d 3a3d
000002f0: c97a 0b3d e1aa 513d 8cb9 223d 44b8 953c
00000300: daa1 513d 9ec0 873d 6e50 433d f8a3 623d
00000310: 8860 8e3d 41a2 1b3d d5a4 3e3d 0e2a 4c3d
00000320: 7720 233c 28b8 ee3c 5b5a 8d3b c08e 14bd
00000330: acd8 32bc 4e92 9a3c bc5f b53b c55a ccbc
00000340: 2bd0 50bd 95f1 b83a 9c88 b73b d178 ae3a
00000350: 3f52 86bc eb2d 26bd 37f0 0fbd 739d 85bc
00000360: 37df 0b3d fe0b 69bb 089a 7c3d e00f 02bc
00000370: b7b6 09bd 2f94 283d 7ad1 4e3c 8e1e 58b9
00000380: 41d4 7c39 0d23 863c f015 d4bb fa2d 0dbd
00000390: 083c 0abd 6567 883c 87bd de3c 0998 793b
000003a0: dc0c 7f3c 0b98 bfbc 5530 94bc 733b 91bb
000003b0: f536 0a3d 4530 363c 4be5 3f3c 0a65 193d
000003c0: da6b 9abc 446f 953c 9bbf d53b b096 6e3d
000003d0: 3e6d 403d 3cb6 0a3d 0720 573c 4a02 863c
000003e0: 8f6c 673d 2ccb 2b3d b32f 14bb 5c6f 8dbc
000003f0: 996e 96bc b8e0 edbb d9d9 29bd df91 593d

bias f4 [32]
-0.022848409 0.017854435 -0.09608785 -0.07297302 0.020273468 -0.019521244 0.011480738 0.034691125
-0.09779687 -0.015094031 -0.18461514 -0.03293787 0.12822859 -0.05054504 -0.11877043 -0.010306547
-0.018054867 0.027999181 -0.117099434 -0.081548505 -0.06592931 0.015433275 -0.0125965765 0.018819146
-0.026711144 -0.023051353 -0.029694367 -0.07147724 -0.074427985 -0.012730187 -0.0828804 -0.07930101
00000000: 962c bbbc 7743 923c b5c9 c4bd e172 95bd
00000010: 8b14 a63c 04eb 9fbc b519 3c3c 4818 0e3d
00000020: ba49 c8bd f44c 77bc c00b 3dbe dce9 06bd
00000030: 5b4e 033e 5108 4fbd e93d f3bd cbdc 28bc
00000040: cde7 93bc 8a5e e53c d4d1 efbd e702 a7bd
00000050: f205 87bd d9db 7c3c df61 4ebc 9c2a 9a3c
00000060: 54d1 dabc 31d6 bcbc 9a41 f3bc a962 92bd
00000070: b36d 98bd 4692 50bc 33bd a9bd 9168 a2bd

weight f4 [64, 32, 5, 5]
-0.01717501 0.03305945 0.016379325 0.011534536 0.02224624 -0.0014831178 0.018434295 -0.008666401
-0.023859108 -0.0057481127 -0.017674074 0.0055353497 0.01719739 -0.024572197 0.011516147 -0.020993639
0.014385519 -0.0381146 0.007471681 -0.020497251 0.030090261 0.04115889 -0.0036109937 -0.00712845
-0.023792515 0.019282943 -0.046732187 0.023505036 0.0029937783 -0.007470387 0.018136324 -0.008712283
0.00040957483 0.015795013 -0.019710721 0.0048280656 0.0014097203 0.009136318 0.0012690536 -0.012506319
0.023614993 -0.021145023 -0.018383559 -0.0024728933 -0.015859192 -0.027516464 0.009271505 -0.027302083
0.04438075 0.033017375 -0.00917099 0.012759109 0.0276209 -0.036598377 -0.006067231 -0.053675685
-0.046847966 0.007969425 0.0060094832 -0.028498659 -0.032676425 -0.0058678742 -0.005388584 0.030941725
0.0145166265 -0.05630735 0.019728525 0.017410086 0.03604868 0.02956706 -0.002832974 0.011823695
0.045864325 0.054935 0.039886873 -0.030388383 -0.0034622105 0.007686368 -0.010526747 0.035070755
0.01041084 -0.040628053 0.0024470587 0.033947043 -0.00069900515 -0.0012246498 -0.0076640975 -0.019671591
-0.044265065 -0.04120251 0.016767258 0.001409694 0.019993326 -0.019074412 -0.02984351 0.011043208
-0.027028834 -0.04044014 0.005654939 -0.03287985 -0.002020658 0.003505614 0.023490774 0.029909618
-0.017080367 -0.01566018 0.03883826 0.028727345 -0.01752502 0.016398305 -0.01671691 -0.030511508
-0.0032870476 0.029264444 0.0057962257 -0.009225068 -0.0158988 0.00062415015 -0.0022872826 -0.010547439
-0.018595995 -0.007549131 -0.009247685 -0.02808439 -0.0074274857 -0.011076064 0.019075718 -0.024580972
-0.02964934 0.02589064 -0.017208073 -0.010003249 -0.04318556 -0.0032011988 -0.012303472 -0.031202847
0.019356465 -0.030006519 -0.010929323 -0.02212233 0.007707407 0.022559725 -0.014454448 -0.026043354
-0.0148344785 -0.016418817 -0.03629148 -0.027899 -0.019028844 0.007646434 -0.016791912 0.0071376036
0.016798532 -0.004300234 0.0019819054 -0.03165583 0.017871331 0.030265396 0.0006233338 -0.019799136
-0.031874172 -0.0066208364 -0.032284953 -0.007247151 -0.020756848 -0.029217957 -0.013421322 0.006573578
-0.007062335 0.03649002 0.024254497 -0.005519093 0.012981121 -0.022662602 -0.026288245 -0.0063853767
-0.009981126 0.007623626 -0.022139318 -0.01994776 0.027538855 0.013822357 0.009038218 0.019236682
0.015397738 0.0075390516 0.015186509 -0.0017697819 0.006576675 -0.016909288 0.0006123164 0.025383653
0.034445878 0.024971088 -0.012817597 -0.024213737 0.006120604 0.03378316 0.008461158 -0.008631258
0.018628381 0.037157677 -0.01106112 -0.00029066487 -0.010399931 -0.0075841937 -0.0064998264 -0.0107488595
-0.018372675 0.019671015 -0.035757553 -0.018782083 -0.03198782 0.0027324534 -0.025616357 -0.033562936
0.032244492 0.003413281 -0.014678953 0.043307003 -0.04594417 0.024747938 0.00107997 -0.0029659027
-0.01654079 0.016889684 -0.03803682 0.013408163 -0.008039247 -0.0038303428 -0.012797838 -0.012697928
-0.004216913 -0.041171625 -0.009924835 0.03480335 -0.020003932 0.010872773 -0.016181633 0.014728363
0.04068951 -0.03896413 0.020838227 0.009777063 -0.023016023 -0.0020897277 -0.05507208 0.011521875
-0.0035818554 -0.04859175 -0.00063246716 -0.033760674 -0.008621932 0.042231362 -0.011729731 -0.014595734
00000000: 9bb2 8cbc 5969 073d ef2d 863c 5afb 3c3c
00000010: bf3d b63c 2d65 c2ba 8503 973c 85fd 0dbc
00000020: 2d74 c3bc aa5a bcbb 38c9 90bc e161 b53b
00000030: 8ae1 8c3c a24b c9bc 39ae 3c3c dafa abbc
00000040: 3db1 6b3c 0e1e 1cbd 01d5 f43b dae9 a7bc
00000050: da7f f63c 3996 283d 6ca6 6cbb c695 e9bb
00000060: 85e8 c2bc 43f7 9d3c 406a 3fbd a28d c03c
00000070: 4433 443b 26ca f4bb a192 943c f7bd 0ebc
00000080: 34bc d639 8b64 813c 6178 a1bc c034 9e3b
00000090: 5dc6 b83a 7fb0 153c 5f56 a63a 4ee7 4cbc
000000a0: 3b74 c13c 5438 adbc 1e99 96bc 4410 22bb
000000b0: 23eb 81bc 356a e1bc 83e7 173c 9ea8 dfbc
000000c0: 97c8 353d 3a3d 073d ec41 16bc 950b 513c
000000d0: 3a45 e23c 2ee8 15bd 9fcf c6bb 09db 5bbd
000000e0: a7e3 3fbd 3192 023c 33eb c43b 0576 e9bc
000000f0: b7d7 05bd 4c47 c0bb b892 b0bb 8079 fd3c
00000100: 25d7 6d3c 89a2 66bd b79d a13c 999f 8e3c
00000110: c8a7 133d 9e36 f23c 6ba9 39bb 2cb8 413c
00000120: 3bdc 3b3d 8603 613d 6b60 233d 0ff1 f8bc
00000130: 41e6 62bb eedd fb3b 6178 2cbc 5aa6 0f3d
00000140: 3a92 2a3c 9a69 26bd d55e 203b 0e0c 0b3d
00000150: 713d 37ba 6e84 a0ba 1c23 fbbb 5126 a1bc
00000160: 494f 35bd f7c3 28bd 7d5b 893c 7bc5 b83a
00000170: 0bc9 a33c f141 9cbc 607a f4bc 92ee 343c
00000180: 936b ddbc 8fa4 25bd 114d b93b 06ad 06bd
00000190: 046d 04bb 71be 653b b96f c03c 0405 f53c
000001a0: 20ec 8bbc c749 80bc de14 1f3d 9c55 eb3c
000001b0: a190 8fbc bd55 863c e7f1 88bc 45f3 f9bc
000001c0: 826b 57bb fdbb ef3c 44ee bd3b bd24 17bc
000001d0: 333e 82bc 029e 233a 3ce6 15bb 2acf 2cbc
000001e0: a156 98bc b35e f7bb 9a83 17bc 3c11 e6bc
000001f0: 4462 f3bb 6178 35bc ae44 9c3c 095e c9bc
00000200: 2ce3 f2bc 9c18 d43c f2f7 8cbc abe4 23bc
00000210: 57e3 30bd 34cb 51bb 8094 49bc 1d9d ffbc
00000220: 7391 9e3c 3bd0 f5bc e710 33bc e339 b5bc
00000230: 6b8e fc3b 2ccf b83c 59d2 6cbc df58 d5bc
00000240: 500c 73bc c180 86bc 60a6 14bd 728c e4bc
00000250: 61e2 9bbc f08e fa3b 318f 89bc 8fe2 e93b
00000260: 139d 893c fae8 8cbb dbe2 013b 8ba9 01bd
00000270: e666 923c 23ef f73c 3967 233a cc31 a2bc
00000280: 7e8e 02bd 9af3 d8bb 3a3d 04bd 8279 edbb
00000290: 440a aabc 7f5a efbc 1be5 5bbc 2b67 d73b
000002a0: 296b e7bb 8f76 153d 5eb1 c63c 82d9 b4bb
000002b0: c5ae 543c eca6 b9bc 725a d7bc 6c3c d1bb
000002c0: e087 23bc 9ccf f93b 845d b5bc 7c69 a3bc
000002d0: 2a99 e13c 2b77 623c 0915 143c 3f96 9d3c
000002e0: cb46 7c3c 260a f73b d6d0 783c 07f8 e7ba
000002f0: 2681 d73b 5985 8abc dc83 203a 61f1 cf3c
00000300: 1f17 0d3d 2b90 cc3c e600 52bc e35b c6bc
00000310: 598f c83b 3660 0a3d aba0 0a3c 1f6a 0dbc
00000320: 8c9a 983c a632 183d b339 35bc 6164 98b9
00000330: 7964 2abc d484 f8bb 7ffc d4bb fc1b 30bc
00000340: 4b82 96bc 1c25 a13c 8376 12bd e2dc 99bc
00000350: a905 03bd f612 333b 65d9 d1bc 4a79 09bd
00000360: cd12 043d 5ab1 5f3b fe7f 70bc af62 313d
00000370: f42f 3cbd 30bc ca3c c88d 8d3a 975f 42bb
00000380: 8d80 87bc 3c5c 8a3c 7fcc 1bbd e9ad 5b3c
00000390: 0cb7 03bc 7d06 7bbb 06ae 51bc f80a 50bc
000003a0: 082e 8abb 94a3 28bd c69b 22bc f58d 0e3d
000003b0: 49df a3bc b723 323c 588f 84bc 3b4f 713c
000003c0: 0baa 263d da98 1fbd eeb4 aa3c f92f 203c
000003d0: 198c bcbc d0f3 08bb 4393 61bd 3fc6 3c3c
000003e0: 90bd 6abb 2508 47bd 27cc 25ba a248 0abd
000003f0: 0143 0dbc cbfa 2c3d 0f2e 40bc f222 6fbc

bias f4 [64]
-0.06484416 0.042394523 -0.037417043 -0.0030328897 -0.12692797 -0.026887974 -0.048931666 -0.048070267
0.013437028 0.017405031 -0.059985057 -0.02112735 -0.07260302 -0.036840297 0.04509507 -0.025203662
-0.029344376 -0.025058376 -0.02661282 -0.03122195 -0.010565678 0.01816963 -0.01150487 0.0020604043
-0.0056900494 -0.086509265 -0.023531316 -0.030651907 -0.058075733 -0.014406923 0.0099198185 -0.031564627
-0.041078538 0.011863322 -0.061348658 -0.024512347 -0.027831532 -0.0073563918 0.01048652 -0.028603062
-0.048071582 -0.12415655 -0.099806465 -0.04750676 0.00069024594 -0.07697412 0.0006269693 -0.049283173
-0.020021219 -0.065197386 -0.06806973 -0.10825436 -0.07003334 0.005375496 -0.05220428 -0.023840502
0.006889467 -0.058303807 -0.04053563 -0.046344332 -0.020229803 -0.05422104 -0.029742723 -0.02574411
00000000: 04cd 84bd e1a5 2d3d 9d42 19bd 72c3 46bb
00000010: 68f9 01be 2b44 dcbc 926c 48bd 54e5 44bd
00000020: fb26 5c3c ff94 8e3c e4b2 75bd 4413 adbc
00000030: e4b0 94bd dae5 16bd 9cb5 383d e977 cebc
00000040: 9e63 f0bc 3947 cdbc 2103 dabc 2dc5 ffbc
00000050: aa1b 2dbc 7ad8 943c ec7e 3cbc d907 073b
00000060: 9873 babb c52b b1bd bfc4 c0bc b519 fbbc
00000070: d2e0 6dbd 040b 6cbc bc86 223c e949 01bd
00000080: f841 28bd 615e 423c bb48 7bbd 1ece c8bc
00000090: f4fe e3bc e30d f1bb a7cf 2b3c f850 eabc
000000a0: b5e6 44bd ca45 febd 5567 ccbd 7396 42bd
000000b0: 9ff1 343a 9ca4 9dbd 335b 243a 27dd 49bd
000000c0: 8a03 a4bc 3586 85bd 2568 8bbd 76b4 ddbd
000000d0: a46d 8fbd ee24 b03b 28d4 55bd 284d c3bc
000000e0: 0ac1 e13b f9cf 6ebd b008 26bd 8ed3 3dbd
000000f0: f9b8 a5bc e216 5ebd 03a7 f3bc 50e5 d2bc

weight f4 [64, 1024]
-0.006253454 0.042978365 0.020921549 0.014362911 0.049173836 0.043120813 0.017459467 -0.011443082
0.0050067944 -0.0055701863 0.04002148 0.0015295565 -0.016518936 -0.005610752 -0.0008846312 -0.0044815587
-0.025247209 -0.0044527706 -0.0010129433 -0.0044136154 -0.038722184 -0.009955552 0.03524433 0.010781238
-0.01422057 -0.04444262 -0.025715584 -0.04293983 0.03112495 -0.017902493 -0.00032268694 0.0023056092
0.011372461 0.02592934 -0.0152975265 -0.007007804 0.014701432 -0.023311023 0.0008910243 -0.003373585
0.016578857 -0.014086597 0.044131875 0.002124845 0.014743614 0.0036716184 -0.010807064 0.028166538
-0.014322883 -0.019570002 0.02990039 -0.013799779 0.026962157 0.0015813393 -0.0029139263 -0.007728417
0.05966714 -0.005068741 0.0030923353 0.030951897 0.046028927 0.027102666 0.03805521 0.04361142
-0.0116022 0.05398593 -0.008764893 0.024792371 0.031340495 0.027813882 0.004739608 0.04986748
-0.020041939 0.0024623987 0.043050837 0.0057663023 0.012971154 -0.028495487 0.0052079936 -0.035310164
-0.004508192 0.02764058 0.013313776 0.030009223 -0.022113595 0.026727142 0.010584656 0.013957081
0.009269426 0.011163084 0.0103767 -0.02574102 -0.01710201 -0.0029611723 0.013950962 0.026680093
-0.0032276167 0.030338213 0.018197471 0.007655208 -0.020933293 0.0029727393 -0.038311947 -0.053802162
0.013926587 0.03343184 -0.011759188 0.04284645 -0.0016367666 0.046340052 0.0028803977 0.011059176
0.010617491 0.003895345 0.011096394 -0.0015878195 -0.016282823 -0.019844757 -0.014041242 0.016125668
0.005169287 -0.03250635 0.0027715045 -0.0064402637 -0.021423439 0.031910833 -0.008611622 0.015693905
0.01578642 -0.035084702 -0.03787933 -0.030131554 0.047382034 0.0035867072 -0.009882991 -0.04796304
-0.0007216959 0.010696496 -0.022269206 0.02824213 -0.0022269185 -0.04057183 -0.018276652 0.043221246
0.024307301 -0.0148621695 0.025454924 -0.02158187 0.0024564713 0.0024381306 0.013255141 0.010380637
0.020493865 -0.0022965807 0.00036172845 -0.016417991 0.0033641579 0.0077010817 -0.021698566 -0.0010658683
-0.015538226 -0.046097055 -0.0037811357 -0.017354386 -0.024239171 -0.0030639542 0.02805337 -0.00290265
0.020872943 0.0183092 0.03624524 0.0035256932 0.013127713 0.010319028 0.055969317 -0.017861769
0.023881756 -0.0145344585 -0.020204887 0.015203774 -0.01297273 0.070486695 -0.02117844 0.029313402
0.005033106 0.024659563 -0.0087590655 0.024829388 0.013507641 0.016433803 0.045556765 0.022424381
0.015637197 0.05040796 0.020847749 0.00866618 0.012083638 0.0020828422 0.034758184 -0.032953013
0.01841342 0.028595787 -0.015544067 -0.021753933 0.026642857 -0.020978251 0.021690898 -0.03301286
-0.035603613 0.006303464 0.0037770094 0.051313967 -0.024566948 0.0487443 0.012775125 0.015045216
0.0036284453 -0.027771654 -0.028543467 0.013676893 0.012155331 -0.021093804 -0.010179021 0.009509698
-0.03476733 -0.007338969 -0.032326177 -0.0044540376 0.010568766 0.0015699514 -0.011289833 -0.018151473
0.030453486 0.0146838045 -0.020070609 -0.011638751 0.012906911 0.023561744 0.013909446 0.021426914
-0.0031983391 0.023703303 0.0035894564 -0.00046589447 0.0011494657 0.0017876478 -0.02545297 -0.00456315
-0.010828944 -0.023705732 0.018372988 0.0116081685 0.0314163 0.06068211 0.070691675 0.004398939
00000000: c6e9 ccbb 150a 303d ab63 ab3c 6a52 6b3c
00000010: 816a 493d 739f 303d 2807 8f3c c47b 3bbc
00000020: 0910 a43b 1c86 b6bb 90ed 233d 667b c83a
00000030: b852 87bc 66da b7bb 98e6 67ba 0ada 92bb
00000040: 3cd3 cebc 8ce8 91bb bdc4 84ba 17a0 90bb
00000050: 279b 1ebd 9d1c 23bc 5c5c 103d caa3 303c
00000060: 65fd 68bc 7709 36bd 7da9 d2bc ade1 2fbd
00000070: c0f9 fe3c 40a8 92bc 4f2e a9b9 b419 173b
00000080: 8f53 3a3c c469 d43c 7aa2 7abc b8a1 e5bb
00000090: 46de 703c c2f6 bebc a193 693a 5d17 5dbb
000000a0: 62d0 873c 78cb 66bc a0c3 343d fc40 0b3b
000000b0: 338f 713c 899f 703b 1d10 31bc 83bd e63c
000000c0: 87aa 6abc 4551 a0bc aaf1 f43c 7818 62bc
000000d0: bedf dc3c f144 cf3a 92f7 3ebb a93e fdbb
000000e0: 8865 743d ae17 a6bb c7a8 4a3b d58e fd3c
000000f0: d488 3c3d 6906 de3c c8df 1b3d e3a1 323d
00000100: 2717 3ebc 5a20 5d3d a09a 0fbc 5f19 cb3c
00000110: e45e 003d f0d9 e33c b74e 9b3b d841 4c3d
00000120: fe2e a4bc 3260 213b 1356 303d 40f3 bc3b
00000130: f784 543c 5e6f e9bc d1a7 aa3b 64a1 10bd
00000140: 75b9 93bb 7f6e e23c 0622 5a3c e7d5 f53c
00000150: 9227 b5bc e1f2 da3c 446b 2d3c 3eac 643c
00000160: cade 173c 5ee5 363c 0903 2a3c d5de d2bc
00000170: 8419 8cbc 3a10 42bb 9392 643c 3690 da3c
00000180: 6c86 53bb d887 f83c dd12 953c 8ad8 fa3b
00000190: 4c7c abbc 4ad2 423b fdec 1cbd a85f 5cbd
000001a0: 572c 643c d3ef 083d 9ca9 40bc c27f 2f3d
000001b0: c688 d6ba 11cf 3d3d 0ec5 3c3b 8c31 353c
000001c0: fcf4 2d3c 0b49 7f3b a6cd 353c 621e d0ba
000001d0: 8e63 85bc 7991 a2bc 3d0d 66bc fa19 843c
000001e0: 1f63 a93b 6125 05bd 21a2 353b d908 d3bb
000001f0: 3580 afbc efb4 023d c317 0dbc 8190 803c
00000200: 8652 813c fab4 0fbd 5b27 1bbd 73d6 f6bc
00000210: aa13 423d f60e 6b3b 45ec 21bc e574 44bd
00000220: 3130 3dba 5b40 2f3c e96d b6bc 0a5c e73c
00000230: 7ef1 11bb a62e 26bd ebb8 95bc c308 313d
00000240: 1b20 c73c 7580 73bc d886 d03c 76cc b0bc
00000250: c0fc 203b 0bc9 1f3b 172c 593c 8c13 2a3c
00000260: c0e2 a73c 3b82 16bb 5fa6 bd39 067f 86bc
00000270: 3479 5c3b 5b59 fc3b 31c1 b1bc 9bb4 8bba
00000280: 0b94 7ebc 44d0 3cbd eecc 77bb c92a 8ebc
00000290: 3a91 c6bc 9fcc 48bb 2ed0 e53c 633a 3ebb
000002a0: bcfd aa3c 2dfd 953c e475 143d 510f 673b
000002b0: 9f15 573c 2411 293c 1540 653d d852 92bc
000002c0: aca3 c33c f021 6ebc b884 a5bc 4019 793c
000002d0: 938b 54bc 545b 903d 687e adbc a922 f03c
000002e0: c1ec a43b da02 ca3c 2f82 0fbc 0067 cb3c
000002f0: 274f 5d3c 2fa0 863c bb99 3a3d 56b3 b73c
00000300: 9419 803c 9478 4e3d e6c8 aa3c 98fc 0d3c
00000310: 74fa 453c 4b80 083b 995e 0e3d bdf9 06bd
00000320: bed7 963c b641 ea3c 8bac 7ebc 4e35 b2bc
00000330: 1f42 da3c 95da abbc 1cb1 b13c 7e38 07bd
00000340: 18d5 11bd 4a8d ce3b b487 773b 982e 523d
00000350: a040 c9bc 1aa8 473d c24e 513c 3680 763c
00000360: 36cb 6d3b 6181 e3bc fdd3 e9bc 0c15 603c
00000370: 2727 473c eacc acbc e9c5 26bc 90ce 1b3c
00000380: 3068 0ebd bc7b f0bb 7468 04bd 2df3 91bb
00000390: 9e28 2d3c d4c6 cd3a fef8 38bc 66b2 94bc
000003a0: 9779 f93c 5794 703c 1e6b a4bc 76b0 3ebc
000003b0: 8277 533c 8f04 c13c 72e4 633c 7f87 af3c
000003c0: 3a9b 51bb 6e2d c23c 163d 6b3b 4c43 f4b9
000003d0: aba9 963a 824f ea3a bf82 d0bc 7a86 95bb
000003e0: e26b 31bc 8632 c2bc f382 963c 3030 3e3c
000003f0: 61ae 003d ce8d 783d ccc6 903d fa24 903b

bias f4 [64]
-0.015862681 -0.0010301939 -0.039788544 -0.011192275 0.014210689 0.016487822 0.0043024207 -0.030893818
0.016419057 -0.048842438 0.004148372 0.0012856678 0.0021973832 0.037447967 -0.0139569845 -0.010893441
0.022920376 0.021323565 -0.064928114 -0.0034919954 -0.0016677439 -0.008737058 -0.012304156 0.047043655
0.023641419 0.04661675 0.022109354 0.024806835 0.045596436 0.032107737 -0.018306384 0.0012665926
-0.03964223 0.02975144 -0.0016092821 -0.017638676 -0.015876235 0.022964157 -0.048998613 -0.0005404609
-0.04768416 -0.011458823 -0.006599401 0.023711365 0.0006521188 0.0011242065 0.042839643 -0.02953192
0.06711075 0.017688805 -0.010990012 -0.026045036 -0.035480086 0.003990891 0.007705516 0.014765248
0.057187285 -0.022591215 -0.010609137 0.016977675 -0.056901146 -0.0029001925 0.00848403 -0.051073633
00000000: 74f2 81bc 9207 87ba 50f9 22bd ce5f 37bc
00000010: f3d3 683c 7811 873c 52fb 8c3b 0815 fdbc
00000020: 4281 863c 020f 48bd 11ef 873b da83 a83a
00000030: f901 103b 0a63 193d d6ab 64bc 677a 32bc
00000040: 83c3 bb3c c2ae ae3c 08f9 84bd f6d9 64bb
00000050: 3398 daba e125 0fbc 5f97 49bc d9b0 403d
00000060: a6ab c13c 35f1 3e3d ad1e b53c b437 cb3c
00000070: 54c3 3a3d 6783 033d 45f7 95bc cc03 a63a
00000080: e45f 22bd 4bb9 f33c 8cee d2ba fc7e 90bc
00000090: e10e 82bc 541f bc3c c5b2 48bd b8ad 0dba
000000a0: 7750 43bd cabd 3bbc ca3f d8bb 563e c23c
000000b0: f4f2 2a3a 1c5a 933a 9f78 2f3d edec f1bc
000000c0: 5c71 893d 1de8 903c 740f 34bc 665c d5bc
000000d0: 9153 11bd 05c6 823b 8e7e fc3b f0e9 713c
000000e0: 373d 6a3d 3611 b9bc f2d1 2dbc c414 8b3c
000000f0: 2d11 69bd 2811 3ebb 9a00 0b3c 9632 51bd

weight f4 [10, 64]
0.057627738 0.06447188 0.11910341 -0.19156514 -0.14147398 0.16980177 -0.24265133 0.25403464
-0.096132755 0.014774118 -0.12595981 0.04655796 0.01293049 -0.08995013 -0.026611276 -0.026617685
0.028797453 -0.21489912 0.022033153 0.041605834 -0.032878675 -0.086979486 -0.015211989 0.041413344
0.008746586 -0.1406947 -0.12595893 0.15772203 -0.23254585 -0.14840522 -0.04305868 0.023575552
-0.09580233 0.11708699 0.00033066372 0.27786085 0.17017962 0.11464429 0.059244033 -0.284614
0.15431015 -0.08221319 -0.14594498 -0.118643545 0.081465565 0.060446795 -0.14073984 -0.13476135
-0.22240916 -0.02215208 0.13956085 0.15644138 -0.15584813 -0.083335415 -0.028896792 0.004132926
-0.051872697 -0.012425482 -0.065823406 -0.091530316 0.11928006 -0.23495929 0.09961425 0.21197917
0.21563183 -0.1803448 -0.18772145 0.20499402 -0.026814973 -0.12034926 -0.08809871 0.08981997
0.16488604 -0.11127583 -0.09394801 -0.12806213 0.02401801 -0.1913129 -0.12212992 -0.05661237
0.013216877 -0.21071239 0.039309558 0.15539153 -0.14608409 0.27760231 0.10206898 0.18165636
0.23445176 0.035342325 0.15602335 -0.11571239 -0.170163 0.11700934 -0.029276086 0.05559653
-0.09357652 -0.22532988 -0.104891874 -0.2749303 0.08285313 0.21949491 -0.16777173 -0.20340382
-0.13712846 0.17763866 0.20851657 0.16802143 -0.21309128 0.0072855214 -0.042160094 0.026404137
-0.17576872 -0.06531282 0.01673858 -0.1939845 -0.12059764 0.26779094 0.16178304 0.21454495
-0.27359575 -0.12558733 0.2586906 -0.055548366 -0.0667689 -0.014831554 0.19415565 -0.18731554
-0.17833403 0.02272797 -0.02127055 -0.11205795 -0.20360976 0.2680871 0.059270985 0.14727373
-0.07168081 0.02475754 0.031676225 -0.012790736 -0.15005036 0.05373296 0.049890384 0.2079676
-0.1032178 -0.08129336 0.2072022 -0.19936348 0.064719625 -0.008114058 -0.013615097 -0.07134387
0.06002879 -0.15700279 -0.2231806 -0.22747026 0.028441308 0.074362226 -0.027904686 0.049477924
-0.1364357 -0.060413506 0.01714261 0.2645875 -0.15979114 0.032964304 0.023945762 0.20556945
0.21133193 -0.19838999 0.19302514 0.12382474 0.2312528 -0.043277543 -0.040165927 -0.1305088
0.0024383091 -0.09435199 -0.03916413 -0.075643376 -0.10803799 -0.13473648 0.14131825 -0.21572669
0.2312062 -0.012472132 -0.12275483 -0.036034264 -0.09149499 0.18347819 0.088643365 -0.11060901
0.14799945 0.03184885 0.1288857 0.064861014 0.13202217 0.056217972 0.21313399 0.0034960534
0.048537735 0.0711052 0.1020095 -0.1363011 0.08859776 0.10091303 0.07819917 -0.07504343
-0.119619854 0.035161905 0.051456302 0.16980544 -0.11983211 -0.21634082 0.007412698 -0.17361684
0.12974128 -0.010236505 -0.12691642 0.15368375 0.008100694 -0.016655313 -0.10064407 0.1066884
-0.11704092 0.09465021 -0.07818832 -0.1407887 -0.08255377 -0.068632394 -0.0020636246 -0.0077010295
0.026086308 -0.017134285 -0.12540574 0.10373179 0.01134045 -0.006936004 -0.072197445 -0.14473042
0.05438314 0.088427484 -0.18216456 -0.11085613 0.099052444 -0.044562664 0.0519226 -0.18097758
0.13636228 -0.1540453 -0.19716688 -0.12534751 -0.058135863 0.117552735 -0.056561444 0.02711909
00000000: 100b 6c3d d509 843d 7dec f33d a729 44be
00000010: 8ede 10be 84e0 2d3e 9779 78be d410 823e
00000020: 40e1 c4bd 240f 723c 9cfb 00be 8fb3 3e3d
00000030: 68da 533c c637 b8bd e4ff d9bc 550d dabc
00000040: a3e8 eb3c 840e 5cbe df7e b43c e16a 2a3d
00000050: caab 06bd 4d22 b2bd b53b 79bc 0aa1 293d
00000060: d74d 0f3c 4512 10be 61fb 00be e281 213e
00000070: 8020 6ebe 8af7 17be 4c5e 30bd 8421 c13c
00000080: 0334 c4bd 4ecb ef3d ef5c ad39 c743 8e3e
00000090: 9143 2e3e a0ca ea3d dfa9 723d edb8 91be
000000a0: 7b03 1e3e 645f a8bd 9a72 15be 63fb f2bd
000000b0: 6bd7 a63d 0f97 773d 1b1e 10be e1fe 09be
000000c0: 3abf 63be 4778 b5bc 0ae9 0e3e 2b32 203e
000000d0: a796 1fbe c2ab aabd f7b8 ecbc 7f6d 873b
000000e0: 7778 54bd 4094 4bbc 6cce 86bd 3f74 bbbd
000000f0: 1b49 f43d 2b99 70be 8e02 cc3d 1111 593e
00000100: 97ce 5c3e 4fac 38be 0d3a 40be f4e9 513e
00000110: 13ab dbbc ac79 f6bd 196d b4bd 88f3 b73d
00000120: e3d7 283e 95e4 e3bd d067 c0bd b822 03be
00000130: 6bc1 c43c 87e7 43be 401f fabd 5fe2 67bd
00000140: 9a8b 583c fdc4 57be 0f03 213d f51e 1f3e
00000150: 1197 15be e421 8e3e 8b09 d13d 2004 3a3e
00000160: 1f14 703e 1dc3 103d 96c4 1f3e 9efa ecbd
00000170: 363f 2ebe 98a2 ef3d 67d4 efbc 30b9 633d
00000180: 0ca5 bfbd e0bc 66be 8dd1 d6bd aac3 8cbe
00000190: e7ae a93d 46c3 603e 5acc 2bbe 1749 50be
000001a0: 676b 0cbe e9e6 353e 5e85 553e cf0d 2c3e
000001b0: 9a34 5abe 62bb ee3b 10b0 2cbd 7d4d d83c
000001c0: b7fc 33be bac2 85bd 591f 893c dfa3 46be
000001d0: e5fb f6bd e51b 893e 74aa 253e acb1 5b3e
000001e0: be14 8cbe f799 00be 1873 843e af86 63bd
000001f0: 22be 88bd 0c00 73bc bdd0 463e a5cf 3fbe
00000200: 329d 36be 0230 ba3c 943f aebc a37e e5bd
00000210: 147f 50be b642 893e 22c6 723d edce 163e
00000220: 63cd 92bd 53d0 ca3c eebe 013d 3c90 51bc
00000230: cda6 19be 1817 5c3d dc59 4c3d 75f5 543e
00000240: db63 d3bd 227d a6bd d02c 543e f125 4cbe
00000250: b98b 843d d3f0 04bc db11 5fbc bc1c 92bd
00000260: c0e0 753d 57c5 20be 7589 64be f7ed 68be
00000270: bffd e83c 394b 983d 5e98 e4bc 5da9 4a3d
00000280: cdb5 0bbe 2774 77bd a96e 8c3c 0378 873e
00000290: 4aa0 23be 9405 073d e729 c43c cc80 523e
000002a0: 6667 583e bf26 4bbe 62a8 453e d397 fd3d
000002b0: 89cd 6c3e cb43 31bd 0785 24bd 19a4 05be
000002c0: 0acc 1f3b 9e3b c1bd 916a 20bd eaea 9abd
000002d0: 0643 ddbd 5cf8 09be bbb5 103e 75e7 5cbe
000002e0: 51c1 6c3e ea57 4cbc e266 fbbd aa98 13bd
000002f0: ba61 bbbd b5e1 3b3e a78a b53d fa86 e2bd
00000300: 2b8d 173e f173 023d 9dfa 033e dad5 843d
00000310: d230 073e d144 663d cc3f 5a3e 0b1e 653b
00000320: 81cf 463d 9a9f 913d 5bea d03d 8492 0bbe
00000330: be72 b53d 7eab ce3d e326 a03d 5fb0 99bd
00000340: 41fb f4bd ee05 103d d8c3 523d 7ae1 2d3e
00000350: 8a6a f5bd 7388 5dbe 38e6 f23b 9dc8 31be
00000360: e6da 043e 04b7 27bc 61f6 01be 465f 1d3e
00000370: c6b8 043c b970 88bc 7a1e cebd 737f da3d
00000380: 26b3 efbd f8d7 c13d 3321 a0bd ea2a 10be
00000390: f311 a9bd 248f 8cbd e03d 07bb eb58 fcbb
000003a0: f4b2 d53c 335d 8cbc 5d6a 00be 5571 d43d
000003b0: 4bcd 393c 6b47 e3bb 41dc 93bd 3634 14be
000003c0: dbc0 5e3d 7819 b53d 5989 3abe 8a08 e3bd
000003d0: 02dc ca3d 5787 36bd cbac 543d 3052 39be
000003e0: 8ea2 0b3e 0dbe 1dbe 1de6 49be 195b 00be
000003f0: df1f 6ebd 7dbf f03d f9ac 67bd db28 de3c

bias f4 [10]
-0.22832882 -0.05209839 0.11160245 0.098729804 0.14999114 -0.14532189 0.13476224 0.073296
-0.08726131 0.02192808
00000000: 08cf 69be 1f65 55bd d38f e43d da32 ca3d
00000010: 4797 193e 43cf 14be 1dff 093e 371c 963d
00000020: 0fb6 b2bd 84a2 b33c
