Pytorch/model_data/CIFAR10_EPOCH14.pth (torch, 588839 bytes, 10 tensors)

weight f4 [32, 3, 5, 5]
-0.026881324 -0.051391218 -0.06331896 -0.13718364 -0.045158707 -0.16605632 -0.13126181 0.09613315
-0.055317815 -0.09908312 -0.15269144 -0.060057636 0.13698633 0.094667256 -0.17485592 0.07065545
-0.09575367 0.09409109 0.14857751 -0.13198394 0.0501914 -0.013016362 0.16426536 0.1312994
-0.11554076 -0.11287492 0.043642506 0.10235313 -0.06471566 -0.17255111 -0.068337575 0.0868625
-0.091316275 0.058346514 -0.17617027 -0.046144623 -0.03619387 0.06530147 0.10504112 0.04510668
0.038390297 -0.09497633 0.024102088 0.15122844 0.016266657 0.030973617 0.116787545 0.19625558
0.17050071 0.04055422 -0.06431176 -0.06494776 -0.1244584 -0.06256247 -0.1878403 -0.02241569
0.04262944 -0.019454122 0.054158118 -0.16402568 0.04677905 0.054799125 0.007179197 0.09185127
-0.13268065 -0.0078106327 0.04609419 0.15946195 -0.01711126 -0.13796665 0.056811888 0.03689983
0.16966875 0.16579162 0.09307814 0.08270998 0.102388814 0.15109007 0.070190355 -0.020733694
-0.019860864 0.071014285 0.02917169 -0.15050068 -0.12945636 0.12283887 -0.1535015 0.028303888
-0.14924768 0.07651464 0.034441385 -0.004095699 0.013547554 0.12213386 -0.052554987 0.036302716
0.024348453 0.026037795 0.09254819 0.0036963888 0.066584975 0.10111972 0.07727727 0.037393555
-0.18244107 0.10516525 0.0123261055 0.024533045 -0.19990769 -0.20040348 -0.07590745 -0.15661973
-0.048648328 0.018176958 -0.14252284 -0.020302203 -0.01572464 0.0023520854 -0.02061265 -0.0034348958
-0.03360473 0.04346602 0.08757058 -0.01198035 -0.063066036 0.0037110257 0.07039627 0.15496276
-0.07884882 0.030341573 0.032727413 -0.016903233 -0.07206552 -0.13897765 0.06263107 0.026700588
-0.0024354886 -0.019267155 0.021234933 0.069355145 -0.03909088 -0.06475148 0.11624911 0.058609407
0.054595053 -0.066593125 -0.0741118 0.12148347 -0.0879948 0.014062543 0.1063347 0.019122658
-0.12327556 -0.028078686 -0.12184628 -0.021153383 0.022740683 -0.19039434 -0.17935592 -0.12894492
-0.12477532 0.041319408 0.0043907296 -0.07025083 -0.03690487 -0.1689086 -0.097310856 -0.11329779
-0.08324547 -0.13510974 0.02908216 -0.19800925 -0.21353136 -0.17602164 -0.15706894 -0.024539877
-0.12307599 0.0434237 0.039333444 0.047539316 0.042536356 -0.045897193 0.008682918 0.023863915
-0.09990787 0.018720493 -0.03267033 0.09266393 0.13484576 -0.01323365 -0.078991376 0.16044486
0.14316191 0.08332084 0.0035847218 0.07774885 -0.074193254 -0.1512721 -0.086351335 -0.065695055
-0.110839926 -0.026623527 0.10042346 0.041472767 0.11833264 -0.054628227 0.014479773 0.106019415
-0.046976667 0.15221861 0.09902969 0.111500725 0.094493754 0.24053659 0.20451705 0.059702057
0.2075786 0.24979061 0.16029559 0.14353208 0.09308407 0.040659502 -0.07984975 0.08789619
0.10636105 0.07099949 0.015935706 -0.030423103 0.037169795 -0.09258702 0.052490033 -0.06153732
0.052400358 0.09032875 0.033356477 0.082867645 -0.10552739 -0.014308932 -0.024733402 0.12765296
0.051838692 0.041682724 0.043602284 0.15343913 0.07709269 -0.033516753 -0.12863964 -0.11232187
0.15383956 -0.021442136 -0.0049414285 0.029427547 -0.08209275 0.1123637 -0.065671965 -0.024875006
00000000: 3936 dcbc 997f 52bd 5fad 81bd de79 0cbe
00000010: 56f8 38bd ab0a 2abe 7f69 06be 75e1 c43d
00000020: ef94 62bd 17ec cabd 255b 1cbe fffe 75bd
00000030: 2546 0c3e e8e0 c13d 6e0d 33be ceb3 903d
00000040: 801a c4bd d4b2 c03d b424 183e cc26 07be
00000050: 7f95 4d3d 9442 55bc 2e35 283e 5a73 063e
00000060: a2a0 ecbd f72a e7bd 7cc2 323d 859e d13d
00000070: a589 84bd 3db1 30be 92f4 8bbd f7e4 b13d
00000080: 0704 bbbd c1fc 6e3d fb65 34be 2502 3dbd
00000090: 0640 14bd c7bc 853d cc1f d73d c8c1 383d
000000a0: 253f 1d3d f382 c2bd be71 c53c a1db 1a3e
000000b0: a741 853c 62bc fd3c 4f2e ef3d 39f7 483e
000000c0: bd97 2e3e 2f1c 263d e2b5 83bd 5503 85bd
000000d0: 0ce4 febd c120 80bd 3559 40be 1ca1 b7bc
000000e0: 359c 2e3d 405e 9fbc e7d4 5d3d 59f6 27be
000000f0: 649b 3f3d 0c75 603d 783f eb3b 851c bc3d
00000100: 70dd 07be 56f0 ffbb 43cd 3c3d fe49 233e
00000110: ea2c 8cbc 2147 0dbe 95b3 683d 4724 173d
00000120: a5bd 2d3e 47c5 293e c09f be3d da63 a93d
00000130: 3ab1 d13d 5bb7 1a3e f6bf 8f3d b5d9 a9bc
00000140: 40b3 a2bc f06f 913d 78f9 ee3c da1c 1abe
00000150: 3590 04be f292 fb3d 7f2f 1dbe 8edd e73c
00000160: 62d4 18be b5b3 9c3d 6912 0d3d 3735 86bb
00000170: 8ff6 5d3c 5121 fa3d e643 57bd 28b2 143d
00000180: 6876 c73c 374d d53c e889 bd3d 1d3f 723b
00000190: b45d 883d db17 cf3d 8c43 9e3d fc29 193d
000001a0: d5d1 3abe e160 d73d 6ff3 493c 86f9 c83c
000001b0: 9ab4 4cbe 9236 4dbe 5d75 9bbd ec60 20be
000001c0: 7843 47bd d8e7 943c 82f1 11be ce50 a6bc
000001d0: f6d0 80bc 7225 1a3b dcdb a8bc fd1b 61bb
000001e0: 1da5 09bd 6d09 323d 3458 b33d 3b49 44bc
000001f0: c428 81bd ae34 733b eb2b 903d 8fae 1e3e
00000200: 7d7b a1bd e48e f83c 2e0d 063d a678 8abc
00000210: 1697 93bd 2850 0ebe b844 803d 31bb da3c
00000220: b89c 1fbb 27d6 9dbc e2f4 ad3c 120a 8e3d
00000230: c21d 20bd 6d9c 84bd 0314 ee3d 6b10 703d
00000240: 109f 5f3d fa61 88bd edc7 97bd 53cc f83d
00000250: 9e36 b4bd 9566 663c 02c6 d93d 1fa7 9c3c
00000260: e677 fcbd 4605 e6bc 8b8a f9bd dc49 adbc
00000270: ab4a ba3c bcf6 42be 14a9 37be 230a 04be
00000280: 348a ffbd 8a3e 293d 1ce0 8f3b abdf 8fbd
00000290: 9029 17bd 60f6 2cbe ea4a c7bd ac08 e8bd
000002a0: 9a7c aabd 355a 0abe b63d ee3c f0c2 4abe
000002b0: f7a7 5abe 043f 34be aed6 20be da07 c9bc
000002c0: 440f fcbd 0ddd 313d 1b1c 213d 96b8 423d
000002d0: 9a3a 2e3d b2fe 3bbd cc42 0e3c 427e c33c
000002e0: 7f9c ccbd b85b 993c 53d1 05bd 96c6 bd3d
000002f0: 0215 0a3e f3d1 58bc 3bc6 a1bd a84b 243e
00000300: 0999 123e 1ea4 aa3d a7ed 6a3b ca3a 9f3d
00000310: a2f2 97bd 13e7 1abe f8d8 b0bd 218b 86bd
00000320: 0b00 e3bd 9519 dabc d1aa cd3d 59df 293d
00000330: 6258 f23d d9c1 5fbd 923c 6d3c b520 d93d
00000340: 9b6a 40bd 32df 1b3e 14d0 ca3d 7e5a e43d
00000350: f185 c13d 394f 763e eb6c 513e 258a 743d
00000360: 7c8f 543e 1cc9 7f3e 8724 243e 13fa 123e
00000370: dca2 be3d 948a 263d 4488 a3bd eb02 b43d
00000380: d2d3 d93d 2e68 913d 998b 823c df39 f9bc
00000390: 5b3f 183d 439e bdbd caff 563d 8f0e 7cbd
000003a0: c2a1 563d 48fe b83d cda0 083d 83b6 a93d
000003b0: bf1e d8bd 0370 6abc b49d cabc 75b7 023e
000003c0: cf54 543d 81bb 2a3d 4f98 323d 261f 1d3e
000003d0: c6e2 9d3d dd48 09bd 1cba 03be 0209 e6bd
000003e0: 1e88 1d3e 6ba7 afbc b5eb a1bb 0a12 f13c
000003f0: 3e20 a8bd f11e e63d 067f 86bd abc6 cbbc

bias f4 [32]
-0.1542543 -0.011921335 0.045818657 -0.08368758 -0.016051551 0.21606737 -0.3288704 -0.36932996
-0.08854814 -0.015588463 0.15585162 -0.06356776 -0.05898026 -0.09754829 -0.009897367 -0.09735418
-0.0016391432 -0.3542488 -0.034282546 -0.092686735 0.0033724806 0.07939418 0.08244101 0.14601724
-0.2949816 0.017592695 -0.14781739 0.27075294 -0.25587794 0.03992591 -0.09752043 0.08615384
00000000: d7f4 1dbe b451 43bc 58ac 3b3d 6564 abbd
00000010: 8b7e 83bc c440 5d3e b361 a8be d118 bdbe
00000020: ba58 b5bd c166 7fbc 9197 1f3e d02f 82bd
00000030: 4995 71bd 66c7 c7bd 9128 22bc a161 c7bd
00000040: 85d8 d6ba 1960 b5be db6b 0cbd 8bd2 bdbd
00000050: d604 5d3b 6a99 a23d d5d6 a83d 8b85 153e
00000060: d407 97be 8e1e 903c 715d 17be 21a0 8a3e
00000070: 6f02 83be 5a89 233d cbb8 c7bd 6d71 b03d

weight f4 [32, 32, 5, 5]
-0.0007437591 -0.0089418655 -0.010458825 -0.005402715 -0.026174502 0.035041794 0.009208659 0.03948131
0.03732788 0.029875394 0.025414715 0.012831602 -0.014841849 0.010451569 0.0376216 -0.0058564483
-0.009221487 -0.052493796 -0.028946964 -0.02370981 0.030793946 0.025991106 0.02901514 0.03198948
0.01222024 -0.039069608 0.012794745 -0.02078098 0.024791189 -0.009523406 -0.021082336 0.02374225
0.013019313 0.0089041665 -0.025388863 0.044463407 -0.011362242 0.011795611 0.012599809 0.028152434
0.01634371 0.041785095 -0.011274557 0.013001545 0.028782437 0.0018929497 0.056613386 0.046613615
0.043687288 -0.023613065 0.030375637 0.04231713 0.005777237 0.023838347 0.036881983 0.014275629
-0.0024268415 -0.024855305 0.02045298 0.0223817 -0.046849806 -0.010902794 0.020749751 0.016969798
-0.023070002 0.010046246 0.008084805 -0.041064806 0.0029089795 0.00945519 -0.038708188 0.010439047
-0.011591008 -0.008939454 0.029487947 -0.003577342 0.021773119 -0.020185234 0.00697609 -0.02182272
0.01674805 -0.011223626 -0.0037489878 -0.0027124526 0.0008092751 0.011029132 0.0035841938 0.037130114
0.015998293 0.006190634 -0.002313543 0.037370365 0.037465848 0.022829456 0.020064041 0.011768467
0.023292458 -0.017838523 0.00680804 0.032451473 0.025323935 -0.018147647 -0.029345598 -0.0037616245
-0.0067873728 -0.01853668 -0.016856274 -0.011247269 -0.049133968 -0.003656927 -0.0053318436 -0.029665252
-0.031003185 -0.0001317202 -0.003824139 -0.02501835 0.028636195 0.027311416 0.010739026 -0.011947769
0.010041314 0.009327447 0.018135216 -0.023049286 -0.0003287266 0.014651179 -0.0023837332 0.021614768
0.05034664 -0.022055866 0.022708282 0.020609489 0.0430505 0.020372935 -6.649781e-05 0.007039042
0.040388532 -0.020701211 -0.02811808 -0.02106626 0.056460857 -0.0144325895 -0.049873356 -0.040205542
0.022976456 0.0028624486 -0.051346496 0.012560494 0.05716019 -0.0007369303 0.008570616 0.044055395
0.026761485 0.00472556 0.04728007 0.012444881 0.033100534 0.035797525 -0.0077029904 0.019055009
0.0033848507 0.013520441 0.012459254 0.020443004 0.00030113963 0.020626437 -0.0040346095 0.040666096
0.0040627522 -0.0017806645 -0.006245848 0.036633085 0.033274714 -0.024883693 0.0370057 -0.028672898
-0.035378437 -0.024838623 0.02771999 -0.037155587 -0.01726642 -0.0015802111 -0.005363239 0.02361478
-0.02951891 -0.0021872034 -0.0032732477 0.047585975 0.037741758 0.053978205 0.039813504 0.02197591
0.055804692 0.06979728 0.051390048 0.05678733 0.07321082 0.040004574 0.04729345 0.052306097
0.009528162 0.029312368 0.0056622894 -0.035416454 -0.010052319 0.018825445 0.004815921 -0.026503194
-0.05369805 0.0013043649 0.0038444968 -0.0033090864 -0.020295272 -0.04245944 -0.03633679 -0.017576965
0.034631643 0.00012154324 0.06396023 -0.008400178 -0.03588437 0.040897544 0.013874338 -0.0004953227
-0.0005891384 0.014038865 -0.009006981 -0.035342187 -0.034462452 0.0151645215 0.026660308 0.003813391
0.016018603 -0.024020733 -0.017442761 -0.0022200255 0.03408597 0.011842514 0.014108415 0.040554006
-0.017143505 0.020081166 0.010801186 0.06274641 0.049780753 0.03451008 0.015253686 0.018779393
0.05777911 0.043608 0.00027762278 -0.01778167 -0.019962434 -0.008262727 -0.04148765 0.05451433
00000000: d4f8 42ba e780 12bc 7e5b 2bbc 4209 b1bb
00000010: e96b d6bc fc87 0f3d eadf 163c 27b7 213d
00000020: 1ee5 183d 3ebd f43c 8532 d03c a43b 523c
00000030: 3a2b 73bc 0f3d 2b3c 1b19 1a3d 73e7 bfbb
00000040: b815 17bc bc03 57bd 2f22 edbc 133b c2bc
00000050: 9643 fc3c 4deb d43c 29b1 ed3c 6707 033d
00000060: 6737 483c 7407 20bd 0da1 513c e03c aabc
00000070: e416 cb3c 0f08 1cbc ddb4 acbc 1b7f c23c
00000080: f54e 553c c8e2 113c 4efc cfbc 431f 363d
00000090: b228 3abc 6142 413c 6e6f 4e3c ef9f e63c
000000a0: 3ee3 853c d926 2b3d ebb8 38bc 6f04 553c
000000b0: 25c9 eb3c da1c f83a 70e3 673d ebed 3e3d
000000c0: 71f1 323d 3070 c1bc 54d6 f83c ba54 2d3d
000000d0: fa4e bd3b a348 c33c 9011 173d 54e4 693c
000000e0: a50b 1fbb 5a9d cbbc 028d a73c d459 b73c
000000f0: 95e5 3fbd a2a1 32bc 62fb a93c 3f04 8b3c
00000100: 4dfd bcbc 0399 243c 2176 043c 9233 28bd
00000110: 94a4 3e3b f1e9 1a3c 7a8c 1ebd 8908 2b3c
00000120: 36e8 3dbc ca76 12bc b590 f13c d771 6abb
00000130: 8a5d b23c 815b a5bc af97 e43b 90c5 b2bc
00000140: 3533 893c 4de3 37bc 94b1 75bb 67c3 31bb
00000150: 8825 543a 88b3 343c cbe4 6a3b bf15 183d
00000160: da0e 833c cdda ca3b d09e 17bb ab11 193d
00000170: ca75 193d d704 bb3c 585d a43c 87d0 403c
00000180: d3cf be3c 1822 92bc fb15 df3b d6eb 043d
00000190: 2474 cf3c 60aa 94bc 2e66 f0bc 9685 76bb
000001a0: 9c68 debb 3cda 97bc 2b16 8abc 7746 38bc
000001b0: b340 49bd 0ea9 6fbb bfb6 aebb 8b04 f3bc
000001c0: 64fa fdbc 5f1e 0ab9 689e 7abb 48f3 ccbc
000001d0: 7496 ea3c 31bc df3c bdf2 2f3c 93c0 43bc
000001e0: 5384 243c 26d2 183c 4e90 943c dbd1 bcbc
000001f0: f058 acb9 800b 703c 6838 1cbb 7411 b13c
00000200: 4738 4e3d 81ae b4bc b806 ba3c 3bd5 a83c
00000210: b955 303d 24e5 a63c bd74 8bb8 c4a7 e63b
00000220: 726e 253d 9695 a9bc e357 e6bc 2693 acbc
00000230: 8043 673d ab76 6cbc 0148 4cbd 91ae 24bd
00000240: 1f39 bc3c eb97 3b3b b450 52bd 88ca 4d3c
00000250: ce20 6a3d 8e2e 41ba c56b 0c3c 6e73 343d
00000260: e73a db3c dfd8 9a3b bfa8 413d 9de5 4b3c
00000270: 6d94 073d 6da0 123d 5e69 fcbb 4019 9c3c
00000280: 5fd4 5d3b d784 5d3c e621 4c3c 1678 a73c
00000290: 47e2 9d39 c6f8 a83c c234 84bb 7e91 263d
000002a0: d620 853b 3065 e9ba f8a9 ccbb 930c 163d
000002b0: 114b 083d e3d8 cbbc 4a93 173d 6de3 eabc
000002c0: fbe8 10bd 5e7a cbbc 0815 e33c 7530 18bd
000002d0: 4f72 8dbc 161f cfba 1cbe afbb c873 c13c
000002e0: a4d1 f1bc 2f57 0fbb fc83 56bb 83e9 423d
000002f0: 1a97 1a3d 4018 5d3d 7c13 233d d306 b43c
00000300: 7693 643d e0f1 8e3d 5f7e 523d d599 683d
00000310: 8eef 953d d6db 233d c7b6 413d eb3e 563d
00000320: 021c 1c3c 7e20 f03c ba8a b93b d810 11bd
00000330: 7bb2 24bc d237 9a3c e0ce 9d3b 3a1d d9bc
00000340: 7df2 5bbd 39f7 aa3a f4f3 7b3b 42dd 58bb
00000350: 4542 a6bc f3e9 2dbd e3d5 14bd 91fd 8fbc
00000360: e9d9 0d3d 08e5 fe38 95fd 823d e6a0 09bc
00000370: 7dfb 12bd 2f84 273d 3151 633c 8bd8 01ba
00000380: 6970 1aba 4503 663c 0492 13bc f8c2 10bd
00000390: 8028 0dbd 9d74 783c b866 da3c 16ea 793b
000003a0: 7239 833c 21c7 c4bc 1fe4 8ebc d97d 11bb
000003b0: bb9d 0b3d 1b07 423c fb26 673c f51b 263d
000003c0: 8970 8cbc 4281 a43c 75f7 303c 3181 803d
000003d0: e7e6 4b3d 715a 0d3d 99ea 793c 3ed7 993c
000003e0: caa9 6c3d 4d9e 323d e68d 9139 ddaa 91bc
000003f0: 4288 a3bc 6460 07bc f4ee 29bd 6b4a 5f3d

bias f4 [32]
-0.024851965 0.021171734 -0.10431625 -0.07485659 0.020606829 -0.0142105995 0.017041052 0.02855915
-0.1160823 -0.026842654 -0.20115416 -0.04186284 0.1298943 -0.052884076 -0.13087642 -0.017789187
-0.027594298 0.024387022 -0.12527668 -0.09572095 -0.08246095 0.017204957 -0.024674248 0.025993379
-0.026397346 -0.026700571 -0.031444464 -0.08461312 -0.09291166 -0.018473785 -0.09207402 -0.09350417
00000000: 5996 cbbc 5870 ad3c c2a3 d5bd 694e 99bd
00000010: a7cf a83c 93d3 68bc ad99 8b3c e1f4 e93c
00000020: 8fbc edbd 20e5 dbbc 5bfb 4dbe 5f78 2bbd
00000030: 0303 053e f99c 58bd 7804 06be a1ba 91bc
00000040: 700d e2bc 4bc7 c73c 8848 00be 5809 c4bd
00000050: 49e1 a8bd 69f1 8c3c a621 cabc 11f0 d43c
00000060: 3f3f d8bc 28bb dabc e9cb 00bd a549 adbd
00000070: 7848 bebd 5656 97bc 4e91 bcbd 1d7f bfbd

weight f4 [64, 32, 5, 5]
-0.02233955 0.030330066 0.017322283 0.015212817 0.027122322 -0.00061780825 0.018628625 -0.0106526995
-0.025245737 -0.0068505025 -0.01654011 0.0060848654 0.018439673 -0.022316525 0.01076485 -0.023146799
0.012593288 -0.037751127 0.010637972 -0.017598681 0.029828396 0.041953012 -0.0035872124 -0.010211057
-0.025839737 0.018038545 -0.051638365 0.0248608 0.00798639 -0.0055223755 0.018411733 -0.009956306
-0.0015736514 0.012399561 -0.019360846 0.0024533332 -0.00082970114 0.009657283 0.0020981731 -0.015783701
0.021342639 -0.02261511 -0.017745981 0.0016938192 -0.012631843 -0.027837107 0.0075715203 -0.029050961
0.045863297 0.03165216 -0.01250246 0.012350343 0.024773883 -0.040896237 -0.0065350193 -0.056284286
-0.05102232 0.0044420315 0.0051859487 -0.02814348 -0.036577024 -0.0076346137 -0.0060761846 0.030509273
0.018851278 -0.060829177 0.02103266 0.017081613 0.036484003 0.034372292 -0.007294106 0.01200663
0.048123777 0.057963774 0.04745329 -0.033959094 -0.0052336664 0.0039414205 -0.012803694 0.03568267
0.010705096 -0.038885113 0.004264437 0.040178623 0.002995491 -0.0010770203 -0.006171056 -0.019499836
-0.045596927 -0.04411537 0.018361278 0.0006973679 0.019231414 -0.01881409 -0.03457288 0.009186063
-0.030178893 -0.043320093 0.0020956304 -0.03609048 -0.0016830564 0.0024423609 0.02131553 0.026878394
-0.020788899 -0.01883713 0.041597027 0.032542743 -0.013646932 0.019855397 -0.016650124 -0.028430728
-0.0021206709 0.030576486 0.003990921 -0.009475633 -0.015428386 -0.0012936043 -0.0037917076 -0.01347874
-0.0191604 -0.009307567 -0.011894144 -0.029576477 -0.005766588 -0.011739733 0.019386012 -0.028260022
-0.029142959 0.028243026 -0.018977879 -0.008970527 -0.04647408 -0.0064726635 -0.014652371 -0.031303957
0.01859205 -0.030402672 -0.014122743 -0.023819935 0.0070742657 0.02190278 -0.019136993 -0.02805395
-0.017054822 -0.015971433 -0.035342697 -0.02850827 -0.018757856 0.0077479286 -0.0224958 0.0063415575
0.013547754 -0.004473221 0.0016071 -0.03357796 0.018433934 0.030932281 0.0031843109 -0.019679008
-0.034016356 -0.0067118276 -0.03327885 -0.0073411064 -0.023252621 -0.031132761 -0.011542833 0.008928317
-0.0015862994 0.039435867 0.024533251 -0.004717769 0.013283269 -0.020832222 -0.022867184 -0.0067940806
-0.011111864 0.010756759 -0.021965183 -0.021778125 0.02851798 0.01846566 0.013517924 0.01971266
0.017108914 0.0059788576 0.018245086 0.0018500935 0.0077953856 -0.018245181 0.0005486917 0.027973523
0.036106516 0.025980096 -0.014362906 -0.025675898 0.0062356913 0.034009032 0.0067930687 -0.0131108295
0.018800354 0.033719122 -0.012400256 -0.0018513076 -0.008036927 -0.009312295 -0.008464264 -0.010220123
-0.018159116 0.02202331 -0.03785897 -0.020124605 -0.031087214 0.0008306477 -0.021590006 -0.03452852
0.029762445 0.0055040233 -0.014814062 0.04419819 -0.050080378 0.024492877 -0.0005253948 -0.0063400385
-0.015435763 0.01340513 -0.03659928 0.0077331197 -0.011300043 -0.002488542 -0.011992821 -0.009017977
-0.010272448 -0.04230959 -0.008849337 0.034682915 -0.022189688 0.00042413946 -0.021153027 0.011454169
0.038300954 -0.04002704 0.014880414 0.007564311 -0.018506654 -0.0018346531 -0.05519087 0.0043382496
-0.0018185953 -0.050057355 -0.0062390445 -0.03973888 -0.012145068 0.041476347 -0.0090657165 -0.017031206
00000000: 6f01 b7bc c276 f83c 76e7 8d3c 2e3f 793c
00000010: a22f de3c 69f4 21ba 0f9b 983c a988 2ebc
00000020: 26d0 cebc 2e7a e0bb 207f 87bc 8d63 c73b
00000030: cc0e 973c 25d1 b6bc 0e5f 303c 5b9e bdbc
00000040: 1454 4e3c eda0 1abd e34a 2e3c 1c2b 90bc
00000050: ae5a f43c ecd6 2b3d 7017 6bbb 474c 27bc
00000060: dbad d3bc 92c5 933c c082 53bd e0a8 cb3c
00000070: 59d9 023c 0bf5 b4bb 34d4 963c c61f 23bc
00000080: fb42 ceba 8727 4b3c a39a 9ebc 1ac8 203b
00000090: 4d80 59ba 9539 1e3c 8181 093b d24c 81bc
000000a0: c2d6 ae3c 5343 b9bc 0560 91bc 2403 de3a
000000b0: caf5 4ebc a50a e4bc 841a f83b 48fc edbc
000000c0: 27db 3b3d b2a5 013d 1ed7 4cbc 1859 4a3c
000000d0: 99f2 ca3c d082 27bd b723 d6bb 5a8a 66bd
000000e0: c8fc 50bd 768e 913b e4ee a93b 288d e6bc
000000f0: cad1 15bd c82b fabb bb1a c7bb 95ee f93c
00000100: ff6d 9a3c 0428 79bd af4c ac3c bdee 8b3c
00000110: 4070 153d f6c9 0c3d 6503 efbb 75b7 443c
00000120: 701d 453d 6c6b 6d3d 625e 423d b118 0bbd
00000130: 2d7f abbb 0827 813b 96c6 51bc fe27 123d
00000140: 6d64 2f3c ff45 1fbd b1bc 8b3b 5792 243d
00000150: 0050 443b ce2a 8dba 9236 cabb 1fbe 9fbc
00000160: d8c3 3abd 51b2 34bd 646a 963c 91cf 363a
00000170: 338b 9d3c 0220 9abc 4b9c 0dbd 2481 163c
00000180: ba39 f7bc 6970 31bd d856 093b 9cd3 13bd
00000190: 009a dcba 0410 203b e89d ae3c 1430 dc3c
000001a0: 7b4d aabc 5350 9abc a561 2a3d 8a4b 053d
000001b0: 6297 5fbc c9a7 a23c d765 88bc 8fe7 e8bc
000001c0: f4fa 0abb 8a7b fa3c 46c6 823b af3f 1bbc
000001d0: 57c7 7cbc 288e a9ba 4c7e 78bb efd5 5cbc
000001e0: 45f6 9cbc c47e 18bc a8df 42bc 5e4a f2bc
000001f0: a5f5 bcbb 0258 40bc 6acf 9e3c 9081 e7bc
00000200: 37bd eebc eb5d e73c 7f77 9bbc 1ef9 12bc
00000210: 9b5b 3ebd a318 d4bb 8010 70bc 9438 00bd
00000220: 5b4e 983c 060f f9bc 1463 67bc 0622 c3bc
00000230: 3ecf e73b 756d b33c 2fc5 9cbc 66d1 e5bc
00000240: 8eb6 8bbc 86d6 82bc 81c3 10bd 2d8a e9bc
00000250: 13aa 99bc 56e2 fd3b 1d49 b8bc d7cc cf3b
00000260: 66f7 5d3c 1994 92bb 54a5 d23a 0b89 09bd
00000270: c302 973c b265 fd3c dfaf 503b df35 a1bc
00000280: bc54 0bbd e4ee dbbb 674f 08bd aa8d f0bb
00000290: 487c bebc 220a ffbc 271e 3dbc 1348 123c
000002a0: 60eb cfba 8187 213d f5f9 c83c 8497 9abb
000002b0: 11a2 593c 56a8 aabc f653 bbbc e1a0 debb
000002c0: 890e 36bc 1e3d 303c 54f0 b3bc 0a68 b2bc
000002d0: 8a9e e93c 4c45 973c 487a 5d3c 727c a13c
000002e0: fe27 8c3c 4bea c33b b876 953c d67e f23a
000002f0: 6f70 ff3b eb76 95bc 14d6 0f3a bb28 e53c
00000300: 6de4 133d 36d4 d43c 6552 6bbc 4356 d2bc
00000310: c554 cc3b 0e4d 0b3d 6498 de3b cece 56bc
00000320: 3303 9a3c 101d 0a3d 712a 4bbc 93a7 f2ba
00000330: 51ad 03bc 9992 18bc b2ad 0abc 4e72 27bc
00000340: 6dc2 94bc 3b6a b43c 0212 1bbd 5bdc a4bc
00000350: 9daa febc d3bf 593a 86dd b0bc c76d 0dbd
00000360: 5fd0 f33c 185b b43b aeb6 72bc 2909 353d
00000370: 1521 4dbd 49a5 c83c a6ba 09ba 19c0 cfbb
00000380: 48e6 7cbc 31a1 5b3c 20e9 15bd 1c66 fd3b
00000390: d123 39bc cf16 23bb 897d 44bc 23c0 13bc
000003a0: c54d 28bc d24c 2dbd cffc 10bc ac0f 0e3d
000003b0: 26c7 b5bc 095f de39 1d49 adbc 44aa 3b3c
000003c0: 76e1 1c3d 65f3 23bd fbcc 733c 0ade f73b
000003d0: 449b 97bc be78 f0ba d20f 62bd e027 8e3b
000003e0: ef5d eeba f108 4dbd e670 ccbb 3cc5 22bd
000003f0: 1bfc 46bc 1ae3 293d 5f88 14bc 0785 8bbc

bias f4 [64]
-0.07317467 0.037715822 -0.044002503 -0.0059867767 -0.13624105 -0.033678472 -0.0543254 -0.05183659
0.008187534 0.015352304 -0.06520993 -0.027678585 -0.07833926 -0.04389648 0.04459774 -0.029391088
-0.0371458 -0.030601904 -0.031981677 -0.03463345 -0.016617024 0.014070798 -0.012030459 -0.0031798014
-0.008273188 -0.091641545 -0.02650551 -0.035511762 -0.06350564 -0.021281982 0.008314189 -0.03663896
-0.04566256 0.008348985 -0.06602943 -0.02841512 -0.032374028 -0.013422878 0.007020542 -0.035252847
-0.050857637 -0.12979247 -0.111488655 -0.051767476 -0.0025252956 -0.07769121 -0.0011508501 -0.056557752
-0.02209447 -0.071952954 -0.07482879 -0.11980118 -0.07613825 0.0036242409 -0.058169156 -0.023999814
0.0029048896 -0.06392257 -0.04905452 -0.05100687 -0.022389362 -0.061707586 -0.036585588 -0.03252212
00000000: 9adc 95bd e87b 1a3d f83b 34bd b92c c4bb
00000010: c682 0bbe 70f2 09bd 5084 5ebd 9b52 54bd
00000020: 0225 063c 3b88 7b3c c98c 85bd 33be e2bc
00000030: 5570 a0bd cccc 33bd 1fac 363d 94c5 f0bc
00000040: 3226 18bd d8b0 fabc 38ff 02bd cedb 0dbd
00000050: 6d20 88bc 3489 663c 671b 45bc 3764 50bb
00000060: 448c 07bc 90ae bbbd 1522 d9bc c874 11bd
00000070: 3f0f 82bd 8d57 aebc 3c38 083c bc12 16bd
00000080: aa08 3bbd 2eca 083c 703a 87bd d3c6 e8bc
00000090: a19a 04bd a2eb 5bbc 930c e63b 4a65 10bd
000000a0: 1950 50bd 51e8 04be 2a54 e4bd 220a 54bd
000000b0: 6e7f 25bb 921c 9fbd 1fd8 96ba 1aa9 67bd
000000c0: 76ff b4bc 125c 93bd d63f 99bd 525a f5bd
000000d0: 5fee 9bbd ac84 6d3b c842 6ebd 429b c4bc
000000e0: f65f 3e3b d6e9 82bd 64ed 48bd 94ec 50bd
000000f0: e569 b7bc 18c1 7cbd c5da 15bd ea35 05bd

weight f4 [64, 1024]
-0.0059859483 0.04463592 0.025050197 0.012843901 0.052001968 0.04287493 0.022273108 -0.008397447
0.0033533517 -0.0068996814 0.040660616 0.0022600917 -0.01689056 -0.007374702 -0.0014293068 -0.0036164836
-0.025792433 -0.0016541274 0.0010951891 -0.002690193 -0.040945955 -0.0097184 0.036347535 0.012674266
-0.014177152 -0.043960743 -0.028585192 -0.0447999 0.029508894 -0.018920058 -0.0011002208 0.0021383537
0.012012878 0.025374398 -0.014979618 -0.0025224944 0.014353748 -0.025832348 0.00031208777 -0.0007924511
0.017103061 -0.013219181 0.04405881 0.003943856 0.017407801 0.0055965013 -0.00967576 0.032010682
-0.013530602 -0.0198955 0.030464912 -0.013005406 0.027638646 0.0021090396 -0.0058760354 -0.007418741
0.064077795 -0.003990252 -0.00013497594 0.03292085 0.049105957 0.026212966 0.0397859 0.046235733
-0.01475018 0.05662849 -0.0090180375 0.024674952 0.03099544 0.025363566 -0.0002812337 0.048827145
-0.016319335 0.0035048267 0.044659443 0.007379849 0.016483914 -0.02933072 0.0053000688 -0.036671754
-0.004424293 0.029710151 0.014196131 0.030810518 -0.024103208 0.024344893 0.011102232 0.013092651
0.011516978 0.010064857 0.007836311 -0.025772078 -0.01682923 9.901924e-05 0.014011053 0.026181303
-0.0051564244 0.031325415 0.025565853 0.008612889 -0.02241592 0.00043780834 -0.038162284 -0.05514873
0.013146937 0.03335218 -0.013491186 0.043595143 -0.00048284495 0.04986795 0.0020273596 0.015325129
0.013320613 0.0046283966 0.011508723 -0.0028704149 -0.016510958 -0.022946998 -0.01831489 0.012815063
0.0013838517 -0.03967893 0.0038885884 -0.008062706 -0.021775777 0.030420706 -0.010634962 0.018185316
0.015307876 -0.03852678 -0.043091528 -0.03322883 0.053186655 0.0038832792 -0.0125826 -0.049057603
-0.0018251904 0.007215549 -0.024532957 0.028061757 -0.00058081956 -0.04608134 -0.01961645 0.04389812
0.023091925 -0.01814791 0.026458083 -0.023061927 0.0023403114 0.0010319735 0.00971159 0.008910182
0.022254493 -0.0029323772 -0.0047856113 -0.018931195 0.003684093 0.006355292 -0.0245508 -0.0015573794
-0.019192949 -0.048503026 -0.0023978117 -0.01984095 -0.024950195 -0.0035147446 0.029046487 -0.0039842934
0.022055792 0.017397476 0.03481509 0.0029646223 0.013403686 0.015274952 0.060231715 -0.017729867
0.02519363 -0.012974771 -0.018908393 0.017686063 -0.014467467 0.07584251 -0.02000775 0.031581063
0.005645918 0.026295494 -0.008991618 0.024806334 0.01605848 0.014735661 0.047363956 0.022796039
0.015169363 0.05263988 0.020295063 0.008240879 0.013924519 0.0014055418 0.035294365 -0.03242753
0.018658692 0.02765873 -0.0143922055 -0.02208281 0.02787187 -0.022495702 0.019709472 -0.033750445
-0.036126975 0.0057117757 0.0013109391 0.054867472 -0.025447026 0.046605878 0.011939439 0.01477915
0.0027414954 -0.023582265 -0.030303614 0.016364286 0.008910666 -0.020926453 -0.0050241747 0.010916621
-0.03452776 -0.0055611935 -0.03233618 -0.008220995 0.007685405 -0.00036596882 -0.012766884 -0.0192758
0.03539312 0.014492177 -0.017738502 -0.012669889 0.01562572 0.023765 0.0146860005 0.021656051
-0.003920221 0.028536718 0.004668576 0.00068670954 0.0031519486 0.00069523393 -0.02392451 -0.005324322
-0.005842893 -0.026720505 0.017751345 0.00964779 0.032452233 0.06294847 0.07458204 0.007872075
00000000: c625 c4bb 28d4 363d 1236 cd3c 3a6f 523c
00000010: 0400 553d 9f9d 2f3d 1876 b63c 7295 09bc
00000020: e8c3 5b3b b916 e2bb bf8b 263d 0c1e 143b
00000030: 125e 8abc 7ca7 f1bb 9457 bbba 8702 6dbb
00000040: a74a d3bc 4ecf d8ba 738c 8f3a f34d 30bb
00000050: f2b6 27bd ed39 1fbc 27e1 143d b9a7 4f3c
00000060: 4947 68bc 2e10 34bd 7e2b eabc 1a80 37bd
00000070: a3bc f13c 3dfe 9abc 4935 90ba 9f23 0c3b
00000080: aad1 443c f8dd cf3c 126d 75bc 6f50 25bb
00000090: fc2b 6b3c 5c9e d3bc b69f a339 7ebc 4fba
000000a0: b81b 8c3c 4495 58bc 0377 343d 763b 813b
000000b0: ce9a 8e3c db62 b73b 1487 1ebc a21d 033d
000000c0: 75af 5dbc e3fb a2bc 8d91 f93c a014 55bc
000000d0: 716a e23c d037 0a3b c28b c0bb e918 f3bb
000000e0: 383b 833d a9c0 82bb 5488 0db9 03d8 063d
000000f0: 5423 493d 93bc d63c 8af6 223d ae61 3d3d
00000100: bdaa 71bc 47f3 673d 64c0 13bc 2023 ca3c
00000110: 26ea fd3c 41c7 cf3c 8c72 93b9 f9fe 473d
00000120: 20b0 85bc 3cb1 653b d2ec 363d a9d2 f13b
00000130: 4609 873c fa46 f0bc 33ac ad3b 1f35 16bd
00000140: a9f9 90bb b462 f33c e496 683c 5766 fc3c
00000150: 1774 c5bc f16e c73c 23e6 353c 8f82 563c
00000160: b5b1 3c3c 12e7 243c df63 003c f71f d3bc
00000170: 74dd 89bc 8da8 cf38 9e8e 653c 2c7a d63c
00000180: 39f7 a8bb 144f 003d 7b6f d13c 131d 0d3c
00000190: 97a1 b7bc a489 e539 0e50 1cbd a2e3 61bd
000001a0: 4066 573c 4c9c 083d 230a 5dbc d290 323d
000001b0: 5a26 fdb9 5642 4c3d 73dd 043b 4016 7b3c
000001c0: b33e 5a3c cea9 973b 158f 3c3c 921d 3cbb
000001d0: fd41 87bc 58fb bbbc 1c09 96bc 45f6 513c
000001e0: 5c62 b53a 6086 22bd b0d7 7e3b 7119 04bc
000001f0: 1d63 b2bc d834 f93c 433e 2ebc 5ff9 943c
00000200: e3cd 7a3c 42ce 1dbd be80 30bd f41a 08bd
00000210: 40da 593d 9d7e 7e3b 4027 4ebc a0f0 48bd
00000220: 3a3b efba 6970 ec3b 57f9 c8bc c5e1 e53c
00000230: 2442 18ba cabf 3cbd adb2 a0bc 84ce 333d
00000240: 472b bd3c edaa 94bc 9fbe d83c 5eec bcbc
00000250: e95f 193b 4943 873a 5c1d 1f3c 03fc 113c
00000260: 0e4f b63c 202d 40bb 9ed0 9cbb 9815 9bbc
00000270: d370 713b 0e40 d03b c21e c9bc fb20 ccba
00000280: 883a 9dbc 1cab 46bd 9b24 1dbb 7d89 a2bc
00000290: 5a64 ccbc a157 66bb e6f2 ed3c ad8e 82bb
000002a0: 59ae b43c 2785 8e3c 459a 0e3d 1c4a 423b
000002b0: 229b 5b3c cb43 7a3c 88b5 763d 3a3e 91bc
000002c0: df62 ce3c 2294 54bc c6e5 9abc 5de2 903c
000002d0: f408 6dbc 5153 9b3d 4be7 a3bc 255b 013d
000002e0: 6501 b93b a669 d73c 9451 13bc a736 cb3c
000002f0: 138d 833c d86d 713c b500 423d c2be ba3c
00000300: eb88 783c ea9c 573d d541 a63c c004 073c
00000310: aa23 643c 283a b83a d390 103d bbd2 04bd
00000320: 1dda 983c 9094 e23c 49cd 6bbc 02e7 b4bc
00000330: 8c53 e43c e848 b8bc c275 a13c e83d 0abd
00000340: e1f9 13bd d929 bb3b d1d3 ab3a b7bc 603d
00000350: 4876 d0bc cee5 3e3d a39d 433c 3f24 723c
00000360: a9aa 333b 982f c1bc 493f f8bc 650e 863c
00000370: 0bfe 113c f46d abbc d5a1 a4bb a1db 323c
00000380: fb6c 0dbd ac3a b6bb f172 04bd 5ab1 06bc
00000390: dad5 fb3b 81df bfb9 312c 51bc 48e8 9dbc
000003a0: 60f8 103d 9970 6d3c 5650 91bc 5e95 4fbc
000003b0: 8301 803c d1ae c23c 8d9d 703c 0868 b13c
000003c0: 3275 80bb d6c5 e93c dbfa 983b 4c04 343a
000003d0: ec90 4e3b 5c40 363a 56fd c3bc a677 aebb
000003e0: bd75 bfbb f6e4 dabc 456b 913c c411 1e3c
000003f0: a2ec 043d 21eb 803d 78be 983d e0f9 003c

bias f4 [64]
-0.019132622 -0.0011254745 -0.040812906 -0.0133062685 0.012436909 0.016613737 0.0029392194 -0.031121612
0.016090007 -0.05097161 0.0042015472 0.0020250105 0.003014319 0.03877468 -0.014492056 -0.011013071
0.02255779 0.023450544 -0.067372255 -0.0042269 -0.0018933626 -0.009505104 -0.012241826 0.04918881
0.02142762 0.046979044 0.0229716 0.026815685 0.046794564 0.032560147 -0.017685324 0.0020461706
-0.03963208 0.032659404 0.0004983795 -0.0156978 -0.01479864 0.024693685 -0.04983409 -0.0023551746
-0.048915043 -0.011588493 -0.006370121 0.023198644 0.00071490824 0.0002461511 0.04425 -0.030114017
0.0689136 0.017095832 -0.01030246 -0.026363313 -0.03626269 0.0036119078 0.005708082 0.014939926
0.058880117 -0.02185039 -0.009987892 0.018261233 -0.05802578 -0.0031070695 0.008886713 -0.05202348
00000000: 04bc 9cbc a884 93ba 6f2b 27bd 8902 5abc
00000010: 2dc4 4b3c 8819 883c eb9f 403b c0f2 febc
00000020: 31cf 833c 9bc7 50bd 22ad 893b 0ab6 043b
00000030: e28b 453b 33d2 1e3d 1770 6dbc 2b70 34bc
00000040: 1dcb b83c 5b1b c03c 77fa 89bd cf81 8abb
00000050: b52a f8ba 4cbb 1bbc f191 48bc 357a 493d
00000060: fa88 af3c 196d 403d f02e bc3c 91ac db3c
00000070: a8ab 3f3d ca5d 053d d0e0 90bc 0c19 063b
00000080: 3f55 22bd dec5 053d afa5 023a ac98 80bc
00000090: ff75 72bc 694a ca3c d51e 4cbd 4659 1abb
000000a0: 245b 48bd aadd 3dbc 73bc d0bb 150b be3c
000000b0: ae68 3b3a d70d 8139 7d3f 353d acb1 f6bc
000000c0: 9322 8d3d 8f0c 8c3c a6cb 28bc e0f7 d7bc
000000d0: 3088 14bd c2b5 6c3b dd0a bb3b 97c6 743c
000000e0: 472c 713d 97ff b2bc 41a4 23bc 9598 953c
000000f0: 71ac 6dbd fa9f 4bbb 9399 113c 9316 55bd

weight f4 [10, 64]
0.061971743 0.060046725 0.12683243 -0.19927116 -0.15423611 0.17201649 -0.25417745 0.26781246
-0.10052991 0.012653104 -0.12674017 0.04753755 0.011016698 -0.09760065 -0.02890466 -0.032188345
0.028717073 -0.22670287 0.024495834 0.04591255 -0.023127 -0.08898401 -0.019115021 0.04662205
0.0063316897 -0.15230194 -0.12472319 0.16560394 -0.24249485 -0.1581379 -0.04377019 0.022709493
-0.099232234 0.121448666 -0.0013972116 0.29155755 0.17679769 0.11971908 0.05779375 -0.29672846
0.16011362 -0.086156406 -0.1493845 -0.13022175 0.08319426 0.06790336 -0.1478545 -0.13323681
-0.2355136 -0.02201202 0.14254841 0.16300407 -0.16370443 -0.088611595 -0.021284932 0.010322849
-0.05317047 -0.009749675 -0.06411368 -0.096983925 0.12595406 -0.23901029 0.10335137 0.22665296
0.22152017 -0.18584765 -0.19606441 0.2120461 -0.029260376 -0.12478592 -0.090685725 0.088995904
0.16780545 -0.114181414 -0.09250239 -0.12750149 0.02289778 -0.19710052 -0.12418539 -0.05686566
0.0135916015 -0.21654247 0.04104033 0.15752973 -0.14902894 0.2914051 0.10541438 0.18801875
0.24596407 0.03802746 0.16561687 -0.122172825 -0.17737529 0.12172465 -0.03247248 0.05524751
-0.095563635 -0.23189446 -0.10654313 -0.28560203 0.08504642 0.22414954 -0.17551616 -0.20256516
-0.1426726 0.18419342 0.21669817 0.1734962 -0.22402556 0.005554014 -0.04411263 0.03037216
-0.18535645 -0.06765257 0.017141687 -0.20290677 -0.124199815 0.27880248 0.16992149 0.22499306
-0.2790707 -0.13106206 0.26719335 -0.058441807 -0.06676074 -0.015553338 0.19674581 -0.19401808
-0.18881759 0.02359694 -0.02085397 -0.12050623 -0.21057896 0.2849269 0.06133976 0.15755409
-0.07421119 0.026412847 0.030510142 -0.012543891 -0.15690756 0.046242237 0.056502756 0.22596137
-0.10088305 -0.08924687 0.21593507 -0.21668577 0.06975567 -0.009643916 -0.008373302 -0.07350898
0.060458537 -0.16602165 -0.2376587 -0.24688034 0.02581692 0.078462526 -0.025923045 0.04583596
-0.14557621 -0.0666996 0.01572257 0.28206313 -0.1726247 0.03795433 0.018642731 0.21933153
0.22440581 -0.21025698 0.20654656 0.13223161 0.2422389 -0.04204176 -0.046023045 -0.13546178
0.0033817813 -0.096693344 -0.036872275 -0.07785086 -0.121252224 -0.13726284 0.14754978 -0.22910026
0.24387412 -0.015565454 -0.1289582 -0.034846302 -0.095801376 0.18817563 0.096076846 -0.118385576
0.16372518 0.033285014 0.14170739 0.073392436 0.1466736 0.05601685 0.22117515 -0.0023912904
0.05632063 0.07928567 0.10267334 -0.14020176 0.09820105 0.10274752 0.08880255 -0.077307254
-0.121297725 0.037928123 0.054184634 0.18012637 -0.13278547 -0.22658609 0.008783726 -0.18329093
0.14264876 -0.0015684088 -0.13339967 0.16551177 0.009056572 -0.0148853855 -0.10138202 0.111834735
-0.12271857 0.09569604 -0.08336648 -0.15572484 -0.084343776 -0.073330685 0.004520622 -0.012659787
0.030498872 -0.013410521 -0.13521403 0.10827764 0.010741645 -0.008413114 -0.077305295 -0.15123999
0.062433254 0.09395291 -0.18427095 -0.116135426 0.10188809 -0.044267282 0.05009776 -0.18379024
0.13162328 -0.16037177 -0.19899827 -0.12661639 -0.06463824 0.11861037 -0.060196657 0.02860906
00000000: 15d6 7d3d 8ef3 753d 5ce0 013e bd0d 4cbe
00000010: 12f0 1dbe 1725 303e 8c23 82be b71e 893e
00000020: a0e2 cdbd f74e 4f3c 2dc8 01be bcb6 423d
00000030: 617f 343c d9e2 c7bd 77c9 ecbc edd7 03bd
00000040: 1140 eb3c cc24 68be 7dab c83c cc0e 3c3d
00000050: d674 bdbc 403d b6bd 1b97 9cbc c3f6 3e3d
00000060: 107a cf3b 0af5 1bbe df6e ffbd 1494 293e
00000070: 9250 78be e7ee 21be 5f48 33bd 4209 ba3c
00000080: 453a cbbd 14ba f83d a422 b7ba 0847 953e
00000090: 740a 353e 472f f53d 24b9 6c3d cbec 97be
000000a0: d3f4 233e c572 b0bd 40f8 18be da58 05be
000000b0: c161 aa3d eb10 8b3d 2c67 17be 3b6f 08be
000000c0: 7a2a 71be 8d52 b4bc 36f8 113e 8aea 263e
000000d0: 22a2 27be ff79 b5bd bd5d aebc 2b21 293c
000000e0: 47c9 59bd 1abd 1fbc 084e 83bd 829f c6bd
000000f0: 1afa 003e 1dbf 74be e2a9 d33d b717 683e
00000100: 2fd6 623e d94e 3ebe 1cc5 48be 9d22 593e
00000110: 75b3 efbc c38f ffbd 70b9 b9bd 7c43 b63d
00000120: 31d5 2b3e f2d7 e9bd e571 bdbd c08f 02be
00000130: 2094 bb3c b8d4 49be e954 febd f7eb 68bd
00000140: 4faf 5e3c 4fbd 5dbe e819 283d 794f 213e
00000150: 0b9b 18be 0d33 953e 7fe3 d73d fd87 403e
00000160: 01de 7b3e afc2 1b3d 7897 293e bf35 fabd
00000170: dea1 35be c64a f93d dd01 05bd 374b 623d
00000180: deb6 c3bd be75 6dbe 4933 dabd 6e3a 92be
00000190: d12c ae3d 7587 653e 82ba 33be 3e6d 4fbe
000001a0: c418 12be 339d 3c3e 20e6 5d3e fda8 313e
000001b0: f566 65be 72fe b53b 72af 34bd 09cf f83c
000001c0: 15ce 3dbe 6e8d 8abd b96c 8c3c cbc6 4fbe
000001d0: 795c febd 33bf 8e3e e6ff 2d3e 9564 663e
000001e0: 5be2 8ebe 2235 06be 91cd 883e ad60 6fbd
000001f0: dbb9 88bd 6ed3 7ebc bc77 493e adac 46be
00000200: 6659 41be 5f4e c13c f2d5 aabc f8cb f6bd
00000210: 03a2 57be f0e1 913e 663f 7b3d dc55 213e
00000220: 09fc 97bd c15f d83c 68f0 f93c e484 4dbc
00000230: 60ac 20be 8068 3d3d 6f6f 673d 6b62 673e
00000240: c69b cebd 10c7 b6bd 151e 5d3e e0e2 5dbe
00000250: 10dc 8e3d 8401 1ebc 2d30 09bc e08b 96bd
00000260: 5fa3 773d 9401 2abe cd5c 73be 33ce 7cbe
00000270: 017e d33c f6b0 a03d 915c d4bc 7dbe 3b3d
00000280: ee11 15be cd99 88bd 9ecc 803c 946a 903e
00000290: 88c4 30be 0076 1b3d a4b8 983c 7298 603e
000002a0: a3ca 653e 9b4d 57be f180 533e b967 073e
000002b0: 790d 783e fb33 2cbd a982 3cbd 7eb6 0abe
000002c0: e0a0 5d3b 2907 c6bd 6207 17bd 4670 9fbd
000002d0: 1653 f8bd a18e 0cbe 4a17 173e 4299 6abe
000002e0: 23ba 793e 3f06 7fbc 9e0d 04be ffba 0ebd
000002f0: 8333 c4bd 1db1 403e f0c3 c43d 2374 f2bd
00000300: 93a7 273e de55 083d be1b 113e c64e 963d
00000310: 9b31 163e ed71 653d bd7b 623e 32b7 1cbb
00000320: 76b0 663d 8660 a23d 6646 d23d 0d91 0fbe
00000330: a21d c93d 4b6d d23d 1dde b53d 4453 9ebd
00000340: f16a f8bd 855a 1b3d b5f0 5d3d 0c73 383e
00000350: eaf8 07be 2f06 68be 9ee9 0f3c 9eb0 3bbe
00000360: 8412 123e 1193 cdba ec99 08be eb7b 293e
00000370: 0462 143c d5e1 73bc 60a1 cfbd 9c09 e53d
00000380: e053 fbbd 49fc c33d 0cbc aabd 5576 1fbe
00000390: 6ebc acbd 662e 96bd ba21 943b ff6a 4fbc
000003a0: c5d8 f93c cdb7 5bbc 8c75 0abe abc0 dd3d
000003b0: b9fd 2f3c 28d7 09bc 3d52 9ebd a8de 1abe
000003c0: 03ba 7f3d 626a c03d 86b1 3cbe 69d8 edbd
000003d0: b4aa d03d 9c51 35bd 4f33 4d3d 8233 3cbe
000003e0: 41c8 063e 7f38 24be 34c6 4bbe baa7 01be
000003f0: 0e61 84bd fee9 f23d c590 76bd 8c5d ea3c

bias f4 [10]
-0.22765987 -0.055097375 0.10988643 0.09531357 0.15482873 -0.14741689 0.14056015 0.07248352
-0.08861051 0.023010852
00000000: ab1f 69be c9ad 61bd 230c e13d c333 c33d
00000010: 6c8b 1e3e 74f4 16be 00ef 0f3e 3d72 943d
00000020: 6d79 b5bd 4181 bc3c
