Pytorch/model_data/CIFAR10_EPOCH6.pth (torch, 588827 bytes, 10 tensors)

weight f4 [32, 3, 5, 5]
00000000: faf3 bbbb 9099 32bd fce7 a7bd d7c2 06be
00000010: 3c3b 8abc 809b 08be a2c4 e1bd 18d2 a33d
00000020: ca24 52bd cdfb 27bd a363 ffbd 6919 02bd
00000030: efbd e83d 6d58 a83d 48b7 e9bd 734e b23d
00000040: b00b 91bd d597 893d 940a 043e 971c a2bd
00000050: 8466 733d 0e8b 243b 392c 093e 261b dd3d
00000060: fa65 a7bd 4653 c7bd 80aa 373d 8ef0 9b3d
00000070: d957 7ebd c71e 0fbe 2a82 49bd 9fc6 bc3d
00000080: 762c fdbd 3f61 4c3d d350 fdbd 8106 14bd
00000090: 7666 edbc 381c b13c ca54 963d 8968 b83d
000000a0: e202 203d 6670 b4bd 7035 b3bc 40f5 e63d
000000b0: 7d6a 533d 788d 083d 9a9f fc3d 62d4 1e3e
000000c0: 1082 0b3e f419 833d 1aeb 35bd 17e5 5dbd
000000d0: abc7 0bbe 2c4f 4bbd 2f3c 1abe ec98 a3bb
000000e0: 917e 593d c5de 1bbd c9fe 633d e472 e2bd
000000f0: a22d 533d 8204 7f3d 473b d0bc 99e8 903d
00000100: 8022 b7bd c3b0 21bc a809 5c3d 46af fe3d
00000110: 5709 32bd 1f30 d5bd c9f0 763d 8397 403d
00000120: 478f 0e3e 9ec7 113e 2dc6 eb3d c712 aa3d
00000130: 8c76 aa3d aa52 e53d 81b0 a53d 1ba0 a13c
00000140: 16a6 2cbd 996b 873d 9789 123d ea6f c8bd
00000150: b5c5 bbbd 290f f03d 9ba0 f9bd d674 433d
00000160: 8f36 04be 3c18 923d 5b03 513d f8c5 d23c
00000170: 32f9 b23a 3526 e73d 9eb7 63bd c36c 643d
00000180: 73a8 103d adb8 523c a261 d43d f16c cf3c
00000190: 6abc 473d 56b2 893d f760 f03c 8397 313d
000001a0: fb62 14be 8b6b 943d 0953 6eba 8f68 d03c
000001b0: 5aa5 1bbe 5402 2abe a063 aebd f255 03be
000001c0: eca3 09bd 1abb 0c3d a335 18be 95eb 0ebc
000001d0: 48d8 de3b ccdf 95bc e6b3 12bd 92c1 14bc
000001e0: 4502 b6bc 8b5d 313d 3841 833d 6462 00bc
000001f0: fedd 3fbd f41a c8bb f342 303d 2f67 e13d
00000200: c866 aabd 61b9 3b3d a952 c63b 834d eebc
00000210: 6f85 9cbd 45e8 dfbd 00e9 903d 5f72 a23c
00000220: 222f ba3c 6a73 35bc 6330 b63c b9ab 2f3d
00000230: bd9c d3bc f7e5 35bd 5c90 bd3d 001f 113d
00000240: cb29 103d 6172 5bbd 9c18 9bbd 4614 c33d
00000250: a6ed b9bd 0c03 943c 7f27 be3d 8e8c d33c
00000260: 3c6b ecbd bb3c 74bc 9846 e6bd 0675 0fbc
00000270: 949b 543d 572c 1dbe 3b17 0dbe ba03 ccbd
00000280: 88f6 a5bd 25d2 8a3d 9bfc c53c 705f 48bd
00000290: beb6 40ba c3f2 07be 56eb b5bd fcb9 cdbd
000002a0: 8171 69bd c1f5 c4bd 6b0d f73c 83e1 1fbe
000002b0: 29ac 11be c52c 00be 9536 05be e54b 1ebd
000002c0: b434 fcbd d653 e73c 6d21 d03c eca6 0d3d
000002d0: f1ed 003d bb14 42bd 1977 7338 4684 893c
000002e0: b317 e5bd 8b38 863c 4faf 7fbd 1ed6 373d
000002f0: c5d1 b43d 9860 0fbd 75ed c8bd e092 cf3d
00000300: e71e a33d 262f 153d 2458 9ebc 8c2d 113d
00000310: e3ec aabd 65f9 0bbe 432d b7bd a043 acbd
00000320: c833 acbd b50c 433b 4cb4 d43d 1e71 313d
00000330: fe65 f83d f479 fdbc 5ea4 163d 21c0 e23d
00000340: 9a78 33bd ea6f 1a3e 5cc5 f73d a121 ca3d
00000350: 8007 653d 1e87 4c3e 4337 413e acb6 833d
00000360: 8142 2a3e 4532 483e a648 f53d 2ba3 043e
00000370: 989e a53d ae4e 603d 9385 4fbd aa30 ce3d
00000380: 60c2 dd3d e184 943d ab90 043d ef0d 5cbb
00000390: a05a db3c 9604 80bd d29b 403d 55ac 17bd
000003a0: ec94 833d 65f8 983d 0ddb 553d 5269 a53d
000003b0: 2631 a2bd 7aa0 6e3b e797 adbc 3fef 033e
000003c0: 324f 4e3d 4ad0 503d d585 863d e62a 073e
000003d0: b71f 683d d829 b0bc dc25 d0bd 3cc1 c0bd
000003e0: d97d f13d 38f0 f0bb fc8d 65bc eb1a 163d
000003f0: 986a 81bd 6af1 b73d 390c 52bd 3646 06bd
-0.0057358714 -0.04360348 -0.081985444 -0.13160263 -0.016873948 -0.13340569 -0.11023833 0.079990566
-0.051304616 -0.04101162 -0.12470176 -0.031762514 0.11364352 0.08219991 -0.11411911 0.08706369
-0.07082307 0.06718413 0.1289466 -0.07915609 0.05942394 0.0025107297 0.13395776 0.10796194
-0.08173747 -0.0973268 0.044840336 0.076142415 -0.062095497 -0.13976584 -0.0491964 0.092175715
-0.12361996 0.04989743 -0.123689316 -0.036139015 -0.028979521 0.021619901 0.07340391 0.090043135
0.03906525 -0.08810501 -0.021876067 0.112772465 0.051615227 0.03333804 0.12335129 0.15510705
0.13623834 0.064014345 -0.044413663 -0.054173555 -0.13650386 -0.04963605 -0.1506202 -0.004992595
0.05309922 -0.038054246 0.055662904 -0.1105707 0.05155719 0.06226016 -0.02541889 0.070756145
-0.08942127 -0.009868803 0.053720146 0.124357745 -0.04346594 -0.10409569 0.060288224 0.047019493
0.13921843 0.14236304 0.115124084 0.08304363 0.08323392 0.111974075 0.08090306 0.019729665
-0.04215058 0.066123195 0.035775747 -0.09786971 -0.09168569 0.117216416 -0.12188836 0.047718845
-0.12911437 0.071335286 0.05102859 0.025729164 0.0013654588 0.11286584 -0.055595033 0.055767786
0.035316896 0.012861413 0.103701845 0.025320502 0.04876367 0.06723468 0.029343111 0.043357383
-0.14490883 0.07247075 -0.00090913527 0.025440482 -0.15199795 -0.1660245 -0.08515096 -0.12825754
-0.033603594 0.03435812 -0.14864211 -0.008723159 0.006800685 -0.018295191 -0.035816096 -0.009079354
-0.02221788 0.0433021 0.06408924 -0.007835958 -0.046842568 -0.0061067287 0.043032598 0.11006009
-0.08320385 0.045831088 0.0060523343 -0.029089695 -0.07642638 -0.10932974 0.07075691 0.019829927
0.022727553 -0.01107488 0.02223987 0.042888377 -0.025831575 -0.044408765 0.0925605 0.035429955
0.035196107 -0.053575877 -0.07573053 0.09525351 -0.09078531 0.01806786 0.09284877 0.025823858
-0.11543891 -0.014907057 -0.112439334 -0.008755928 0.051906183 -0.15348946 -0.13778393 -0.09961648
-0.08103663 0.06778363 0.024168303 -0.04891914 -0.00073514495 -0.132762 -0.088827774 -0.10045239
-0.05699301 -0.09617186 0.030157765 -0.1561337 -0.1422583 -0.12517078 -0.13009103 -0.038646597
-0.1231474 0.028238218 0.025406564 0.034583017 0.03147692 -0.04738305 5.8046633e-05 0.016786706
-0.11186161 0.016384384 -0.062423047 0.044881932 0.08829073 -0.03500423 -0.09810916 0.10135436
0.079648785 0.036421917 -0.019329138 0.035443828 -0.08345964 -0.13669355 -0.0894418 -0.08411336
-0.08408314 0.0029762213 0.103859514 0.043320768 0.121288285 -0.03094194 0.036777847 0.11071802
-0.043816186 0.15081754 0.1209819 0.098696955 0.055915356 0.19973418 0.18868737 0.06431326
0.16626932 0.19550426 0.11976747 0.12952869 0.0808689 0.054762535 -0.050664496 0.10067876
0.1082809 0.07251907 0.03236453 -0.003357764 0.026776612 -0.06250875 0.0470236 -0.037029583
0.06424889 0.074692525 0.052210856 0.08076729 -0.079195306 0.003641157 -0.021190597 0.12884234
0.050368495 0.05097989 0.06568495 0.13199958 0.05667087 -0.021504328 -0.10163471 -0.094118565
0.11791582 -0.007352855 -0.0140109025 0.036646765 -0.06319159 0.08981593 -0.051281188 -0.032781802

bias f4 [32]
00000000: 1d8f 02be 4d36 523c 9328 2f3d 74c5 00bd
00000010: 0660 04bd 78f2 823e 4400 94be 87f1 90be
00000020: 2c7a c0bd 42fd 5f3b adf0 323e f3ed dcbc
00000030: 8deb 80bd 283d c9bd 54d7 a3bc b01b bcbd
00000040: e992 433c 8011 a1be f1c1 7dbd 7bfb 9cbd
00000050: 6b4b 533b 9af9 6f3d f7ef a83d 2642 c73d
00000060: 286a 78be f76a 313d e975 e3bd 98bd 653e
00000070: 2c08 6cbe 94da 6d3d 44cb c4bd 75c4 903d
-0.12749906 0.012830329 0.042763304 -0.031438306 -0.032318138 0.25575614 -0.28906453 -0.2830927
-0.093983024 0.0034178053 0.17474623 -0.026968932 -0.06294928 -0.09826118 -0.020000137 -0.091849685
0.011936882 -0.31458664 -0.061952535 -0.076651536 0.0032240998 0.058587648 0.08248895 0.09729414
-0.24259245 0.0433149 -0.11106474 0.22435606 -0.23049992 0.05806978 -0.09609082 0.07068721

weight f4 [32, 32, 5, 5]
00000000: 71ec 1ebb 55f1 f8bb c6d1 90ba ac8c c9bb
00000010: 09a0 eabc 0c71 103d 8c0e 3e3b 46b6 063d
00000020: dca9 fa3c 7e6c c73c 1c71 8a3c 0393 6f39
00000030: b2d2 69bc 8e25 943c 028b 3b3d 438c 8cbc
00000040: 6aa8 39bb 0cac 14bd f315 9ebc a939 adbc
00000050: 8b2c d33c 6a86 cc3c 7b53 eb3c 9155 d03c
00000060: 47a7 1f3c 00e5 0cbd 7f92 8d3c 8fb4 97bc
00000070: 95b7 d53c c31d 98bb 92b9 cabc 7429 863c
00000080: 65cc f23b 2a75 003c 674c e1bc bd41 143d
00000090: 2ca9 7fbc f275 743c 3e0e 323c 8377 cb3c
000000a0: f1de 783c 22e1 203d af37 99bc 425f 553a
000000b0: 7fd7 b03c 28fa 57ba 11cf 203d b584 0c3d
000000c0: 829d 203d e2ce c4bc bb5e da3c c2b3 183d
000000d0: 9808 2eba 31cb 913c eccd 073d 21a4 ab3c
000000e0: 7947 1b3c 72b5 86bc fb80 ed3c 94ec f43c
000000f0: ae5e 0bbd d689 f3ba 4590 f53c b42c f33c
00000100: 21cc 1fbc f765 943c 5ebd 2b3c 5870 13bd
00000110: 429e 223c d494 473c 038f efbc ebae 9d3c
00000120: 1a82 10bc a66f 2dbc 3d14 bb3c 5165 01bb
00000130: 31ee b43c f998 86bc ef15 cf3b b84a 9bbc
00000140: 7163 843c 0d97 2dbc 86af 8aba 6515 f9ba
00000150: 677c 2e3b 46a5 393b 789c b13a 5b01 313d
00000160: ade7 9d3c 564e 7f3b 9765 1bbc 4faf 1b3d
00000170: 806b 223d ca5c 9f3c b9e4 893c 4a15 f53b
00000180: ec86 db3c 23f4 94bc 1515 793b 8882 fe3c
00000190: 9d7b a53c 440c a3bc 5199 efbc 9920 5fbb
000001a0: 7d9a 10bc 8491 72bc 9626 94bb 13e9 313b
000001b0: 8b31 26bd 6c0d 633b a203 c0ba 4cf5 b7bc
000001c0: 3402 d6bc 8fb2 643b a5e4 413b 12dd e8bc
000001d0: 51a8 b43c 180c b03c a938 193c 528d 31bc
000001e0: 86c0 f73b e369 803c 90e1 d53c cf1f a0bc
000001f0: 70ac ae39 fe75 3f3c b125 02bb 77eb bf3c
00000200: d81e 043d e506 e3bc 0338 a23c 62ee 4a3c
00000210: 220d f63c 2fc7 0f3c 3f37 cbba bb51 b4bc
00000220: a827 ad3c d049 b9bc 86b3 d5bc 1c86 cabc
00000230: 8976 e93c ccc0 65bc 98a4 2cbd f603 2dbd
00000240: ebb6 363c 3155 783a 9cc7 08bd ca1c 963b
00000250: 63b3 193d fb64 53bc 2e23 963b f96d 163d
00000260: 8071 403c d4ce eabb e2c2 173d 22b8 1a3c
00000270: 575c 113d 8fc7 173d f687 e8bb 0d78 a63c
00000280: 5629 4e3c 0005 cb3c 2f8f 6d3c 70c6 c63c
00000290: 984f b63b 4e6e bc3c 1a40 82bc 927f b83c
000002a0: 0700 b2bb 34c5 c1bb d122 d8bb 6c32 0a3d
000002b0: f475 ea3c e2d9 dabc a175 113d 7f21 e4bc
000002c0: 6c53 18bd 184c c4bc dbbc db3c ce61 31bd
000002d0: bdda 8cbc d64b 40ba ff62 96bb 524f 9f3c
000002e0: 560a 19bd a82a 25bb c81e 4bbc 4090 033d
000002f0: 5d91 aa3c 3629 1e3d d81f 063d 3d3c b5ba
00000300: e03d f73c 7f86 4b3d 65f3 0b3d 3d95 323d
00000310: 0b5c 543d 3d78 db3c f14a 233d 90b8 303d
00000320: c734 5f3c 1715 f93c d999 9c3b 1edc 00bd
00000330: b238 d9bb 266a 7b3c 1f89 1d3c 63a5 78bc
00000340: 6319 24bd 2f75 1a3c e5e3 103c 3950 7f3c
00000350: c0ab b0bb 399c 14bd 8288 08bd 2895 38bc
00000360: c0fc fc3c ffc4 88bc 29e7 4c3d 1db8 6dbc
00000370: 1858 f7bc 3751 273d 636e 5c3c 1e03 da3b
00000380: d317 153c 1d8f ca3c 0fb0 75ba c120 00bd
00000390: bcf8 02bd 117b 9d3c 977d d13c ade0 db3a
000003a0: d612 5f3c c2e4 c5bc 3d6d b2bc fa5f 79bc
000003b0: 2c49 e63c 0d0e 343b e193 c4ba becf c03c
000003c0: 5588 ddbc d507 a03b ea04 7bbc 7680 0c3d
000003d0: 0432 e43c e5ba d93c d5b1 433a c87f 5e3b
000003e0: 8f5f 3e3d 2d7d 033d 88cc ebbb 2039 73bc
000003f0: a1eb 97bc 8466 24bc ade1 2cbd c5bb 333d
-0.0024249817 -0.0075971284 -0.0011048845 -0.0061508026 -0.028640764 0.03526406 0.002900037 0.032888673
0.030598573 0.024343725 0.016899638 0.00022847582 -0.014271425 0.018084314 0.045786865 -0.017156726
-0.0028329142 -0.03629689 -0.019297576 -0.021145659 0.025778076 0.024966437 0.02872633 0.025431426
0.009744472 -0.03439808 0.017281769 -0.018518714 0.026088515 -0.0046422197 -0.02474669 0.016377188
0.0074096196 0.007840434 -0.027502252 0.036195505 -0.015604299 0.0149206985 0.010867653 0.024837261
0.015189872 0.039277203 -0.01870331 0.00081394997 0.021587132 -0.00082388753 0.039259974 0.034306247
0.03921271 -0.02402443 0.0266565 0.037280805 -0.0006638854 0.017797085 0.033155367 0.020952286
0.00947749 -0.016443942 0.028992167 0.029897965 -0.03402584 -0.0018580507 0.02997602 0.029684402
-0.009753258 0.018115027 0.01048216 -0.03599581 0.009925427 0.0121814795 -0.029242998 0.019248446
-0.008820081 -0.010585701 0.022836799 -0.0019744227 0.022086235 -0.016430365 0.0063197534 -0.018956527
0.016160699 -0.010595095 -0.0010580875 -0.0019003568 0.0026624443 0.002832727 0.001355066 0.043214183
0.01927551 0.0038956604 -0.00948467 0.038008984 0.0396533 0.019453425 0.016832696 0.0074793445
0.026797734 -0.01818282 0.003800695 0.031068102 0.020200545 -0.01990331 -0.029247912 -0.003404653
-0.008825895 -0.014805201 -0.0045212014 0.002714698 -0.04057459 0.0034645451 -0.001464952 -0.022455834
-0.026124097 0.0034896468 0.0029585746 -0.028425727 0.022052916 0.021490142 0.009351888 -0.010836916
0.0075607924 0.01567549 0.026108533 -0.019546418 0.00033316342 0.011685846 -0.0019858892 0.023427708
0.032255977 -0.027713249 0.0198021 0.012385936 0.03003556 0.008775516 -0.0015504136 -0.022011628
0.021137074 -0.022618204 -0.02608658 -0.024722151 0.028498905 -0.014023017 -0.042149156 -0.042240106
0.0111520095 0.0009473144 -0.033393487 0.0045810686 0.037524592 -0.012902494 0.0045818305 0.03672597
0.0117458105 -0.007165769 0.03705109 0.009443315 0.035488453 0.03705555 -0.007096286 0.020320917
0.012583097 0.024782658 0.01449947 0.024264544 0.0055636875 0.023001816 -0.015899707 0.022521768
-0.005432132 -0.005913401 -0.0065959473 0.033739492 0.028620698 -0.026715223 0.03551257 -0.027848003
-0.037188932 -0.023962066 0.026823452 -0.043306164 -0.017194146 -0.0007335519 -0.004589438 0.019447003
-0.037363373 -0.0025202427 -0.012397476 0.03211999 0.020821268 0.03861352 0.032745212 -0.0013827157
0.030180871 0.049688812 0.034167666 0.043599356 0.05184559 0.026790733 0.03986639 0.043144763
0.013623423 0.030405564 0.0047790823 -0.03145992 -0.006629073 0.015345132 0.009615212 -0.01517615
-0.040063273 0.009427353 0.008843397 0.015583091 -0.005391568 -0.036281798 -0.03333331 -0.01126603
0.03088224 -0.016695498 0.05002514 -0.014509228 -0.030193374 0.040848937 0.013454053 0.0066532036
0.009099918 0.024726445 -0.0009372243 -0.031281237 -0.031975493 0.019223722 0.025572581 0.0016775333
0.013615331 -0.024156932 -0.021780604 -0.0152206365 0.028111063 0.0027474195 -0.0014997685 0.02353656
-0.027042547 0.004883746 -0.015320996 0.034302197 0.02785588 0.026578376 0.00074651587 0.0033950675
0.04647785 0.0321018 -0.007196013 -0.014845163 -0.018544974 -0.010034207 -0.04220741 0.043880243

bias f4 [32]
00000000: 0c8e 45bc 1521 373c 7b20 a0bd 53ed 51bd
00000010: 8d8b 453c bdf5 10bd 4b9e 6ebb da15 2f3d
00000020: 686a 5dbd 2c10 4e3c 0e47 febd bb43 68bc
00000030: 795e d13d f2bd 20bd d973 a4bd 2320 dc3b
00000040: c040 853c 4848 1d3d 801e afbd a438 3ebd
00000050: 1038 46bc 1fcf 783b 34fc fa3b e71b e5ba
00000060: 99fe 02bd 86d6 70bc 1d33 04bd 6ee1 d6bc
00000070: 0909 98bc 010d 6aba b701 55bd 72be ecbc
-0.012057792 0.011177321 -0.07818695 -0.05125172 0.012057197 -0.035390604 -0.0036410268 0.04274545
-0.054056555 0.012577098 -0.12415896 -0.014176304 0.10223097 -0.039243646 -0.08029909 0.006717698
0.016266227 0.03839901 -0.08550739 -0.046440735 -0.012098327 0.003796525 0.0076594595 -0.0017479629
-0.031981084 -0.014699584 -0.032275308 -0.02623054 -0.018558996 -0.00089283293 -0.05200359 -0.028899405

weight f4 [64, 32, 5, 5]
00000000: f32d 6dbb 7fef 123d 408e 253c 0703 83ba
00000010: 0588 043c 42d2 2bba 0f51 bb3c 7e40 e539
00000020: 0116 88bc 3497 bc3b af27 81bc fc7a 483c
00000030: 18bd ab3c fef5 b8bc aa1d a03c b8cf 61bc
00000040: 3ae9 b03c 3310 08bd de67 573b fa5f c0bc
00000050: 6c05 063d e201 263d eb90 3abb 083b 51b8
00000060: 2be7 69bc a8fe bf3c 007d 20bd 1f95 c43c
00000070: 1377 10bc 5b19 6bbc 85d4 a63c 987d a5bb
00000080: 3f7f 8e3b dd6a a23c 80e0 a2bc b966 503c
00000090: 9fa0 0f3c a2e3 583c 4c60 6db9 6ba5 b4bb
000000a0: 0a3a ee3c 3a4b a8bc 88b2 b7bc 8922 4abc
000000b0: b58c c1bc 4e89 e5bc acb2 073c 2aaf e5bc
000000c0: 363a 183d 9663 103d f9ac 593a e947 853c
000000d0: 0bac 0d3d ba3d 9ebc 36f0 303c 4878 17bd
000000e0: 6d25 17bd 9a51 8b3c 7080 543c 38a9 c7bc
000000f0: 2f39 66bc 1ad4 5d3a 50d7 a43b 7953 1e3d
00000100: 9ece aa3c d3b8 16bd 581f df3c c2bb 023d
00000110: a81b 193d 6a9e b23c 58be 9a3c c9d4 9b3c
00000120: 2260 383d 5c1a 5c3d 834a d33c 0dc7 bfbc
00000130: aa56 8bb9 af0c 013c 24ae 58bc 3002 dd3c
00000140: da42 f63b b280 20bd 1f81 033b bb1f c43c
00000150: cdd0 0ebc a713 263b 4562 a23b fb49 62b9
00000160: f53c 06bd 9fa5 cabc 917d a93b b23f 603b
00000170: 4e87 d33c fee6 b5bc 3779 afbc 12cf 113c
00000180: 0fdb 88bc 3953 fcbc 83b7 3a3c 67ac b5bc
00000190: a636 553b 011d e43b 5132 cc3c e1cc fc3c
000001a0: 72d6 5bbc e611 48bc 9b62 ef3c f1e7 6e3c
000001b0: 1515 d8bc 520e 013c 5b1d 89bc c9c2 fbbc
000001c0: 8905 1c3a b231 0b3d 80c1 6d3c 6fad 3dbc
000001d0: 3ead 4cbc 21f6 f03b 45ab b739 074b dfbb
000001e0: a61d aabc ce79 7cbb e816 4aba 6303 c1bc
000001f0: 6e97 0cbc dedc 1ebc a480 9d3c 1a03 a0bc
00000200: b242 fabc 60c9 a33c 2659 59bc 4211 05bc
00000210: 4d1e fbbc 1688 ce3b 5370 81bb 71b9 08bd
00000220: 9b3a 833c 20c2 04bd 71c5 25bc 7c39 b4bc
00000230: 244f 143c f134 e03c 33f9 c1bb 78a0 afbc
00000240: 7726 17bc 18af b7bc bf3f 16bd bea9 ecbc
00000250: c0c4 d4bc 755b 143c 753a 223b bbcd 5b3c
00000260: 185f a93c 8d10 94bb 696d e63b e778 c6bc
00000270: a55f a43c b4a4 f53c 5867 bfbb eeef 9fbc
00000280: d970 89bc 712b 993b 7575 b1bc 66d0 673b
00000290: f163 48bb 4a94 b2bc 18c0 11bc f56e 103c
000002a0: 7e91 4bbc 0cc1 0c3d 029a e83c e4d9 22bc
000002b0: 4ff8 523c abdb d4bc aea7 e5bc 1aff 5fbb
000002c0: 1c8b 77bb 91aa 1d3c ac09 92bc cf80 0ebc
000002d0: 1d3e c13c 4661 cdba f6c3 c1bb 5e61 443c
000002e0: 2e9b 223c bab0 403c 21b3 d23b cdeb 28bc
000002f0: d65c 103c 94ee 50bc 85b6 163a aaf8 8d3c
00000300: c794 e53c b14d cf3c 094e 05bc d3a1 e6bc
00000310: 6c2a dc3a 312d fa3c ba33 893c 98e1 8e3b
00000320: ab6e ae3c d602 0b3d 0a22 29bc 4c08 49bb
00000330: 5ef1 a4bc 7b14 2ebb d195 cfbb b264 19bc
00000340: 9095 d2bc 9429 413c ff31 fdbc 87d5 a1bc
00000350: 81f1 02bd 5e01 9b3b c55b 01bd eb7a ddbc
00000360: 1ee3 013d 5d7f 433b a316 a9bc 436f 0d3d
00000370: 9731 f4bc 7a2e a53c 3720 2b3c 2d21 643a
00000380: ab53 9bbc 8d14 343c 366b 24bd 1104 9f3c
00000390: 210b cf3a 5530 0bba b812 e4bc db4d f9bc
000003a0: 3731 fc3b c058 07bd 341f 77bc 455f d73c
000003b0: c7d0 a5bc da14 023d f335 1ebc 6d64 793c
000003c0: 4d0c 143d 9f02 13bd b644 123d 4ba4 513c
000003d0: f2f5 f6bc 96a0 1abc bd2e 27bd 69ef bc3c
000003e0: 81a9 f4ba da9d 30bd f451 403c 0572 89bc
000003f0: d565 123b 4364 3f3d 98e9 19bc e7de a6bb
-0.0036190718 0.035872933 0.010104716 -0.0009995409 0.00808907 -0.0006554463 0.0228658 0.00043726334
-0.016612055 0.0057553295 -0.015765993 0.012236353 0.02096419 -0.022578236 0.019545395 -0.013782434
0.021595586 -0.033218574 0.0032868306 -0.023483265 0.032720014 0.04052914 -0.0028467725 -4.988446e-05
-0.014276306 0.02343686 -0.03918171 0.023996888 -0.008817452 -0.014349307 0.02036501 -0.0050503723
0.004348665 0.019826347 -0.01988244 0.0127198035 0.008766322 0.013237866 -0.00022637955 -0.0055128834
0.02908041 -0.020543683 -0.022423998 -0.012337335 -0.023626665 -0.028019574 0.008282345 -0.028037626
0.03716489 0.035251223 0.0008303668 0.016269641 0.0345879 -0.019316543 0.010799458 -0.036979944
-0.036900926 0.017006684 0.012970075 -0.024372682 -0.01405172 0.00084620866 0.00503055 0.038653824
0.020850476 -0.036797356 0.027236626 0.03191734 0.03737989 0.021804053 0.018889591 0.019022362
0.045013554 0.053736076 0.025792366 -0.023410344 -0.00026576716 0.007876559 -0.013225112 0.026978582
0.0075152935 -0.039185233 0.0020065976 0.023940912 -0.008716774 0.0025341304 0.0049555623 -0.000215806
-0.032772977 -0.024737177 0.0051724394 0.0034217653 0.025821354 -0.022204872 -0.021420104 0.008899467
-0.016706018 -0.030801402 0.011396292 -0.022176934 0.0032533794 0.0069614653 0.024926336 0.030859413
-0.013417827 -0.012211299 0.029221823 0.014581666 -0.02637724 0.007876949 -0.01673763 -0.03073253
0.00059517525 0.03398294 0.014511466 -0.011576994 -0.012492476 0.0073535596 0.00035032086 -0.006814364
-0.02076609 -0.003852475 -0.0007709102 -0.023561185 -0.0085810255 -0.0096962135 0.01922638 -0.019532729
-0.03054938 0.019993484 -0.013265884 -0.00812179 -0.030654097 0.006302844 -0.0039501577 -0.033379976
0.016019156 -0.032411695 -0.0101178745 -0.022000067 0.009052072 0.027368994 -0.0059195994 -0.021438822
-0.009225479 -0.022422358 -0.036681887 -0.028889533 -0.025972724 0.009055008 0.0024754081 0.013415749
0.020675227 -0.0045185746 0.0070320857 -0.024227573 0.020065138 0.029985763 -0.005841177 -0.019523587
-0.016777443 0.004674368 -0.021662453 0.0035372018 -0.0030577148 -0.021799225 -0.008895896 0.008815517
-0.012424825 0.03436379 0.02839375 -0.0099396445 0.012876584 -0.025983652 -0.028034057 -0.0034179152
-0.0037772125 0.009623186 -0.017826878 -0.008697703 0.023589188 -0.0015669249 -0.005913253 0.011986105
0.009924693 0.011760885 0.0064300452 -0.010310126 0.008811196 -0.012752194 0.00057492434 0.017330486
0.028025044 0.0253056 -0.008136281 -0.028153336 0.0016797311 0.030539127 0.016748298 0.004360389
0.021293005 0.03393825 -0.010323057 -0.0030675111 -0.020134624 -0.00265625 -0.006334998 -0.009362387
-0.025706083 0.011789698 -0.030907629 -0.019755138 -0.031968597 0.0047303876 -0.03158166 -0.02703615
0.031710736 0.0029830553 -0.020640677 0.034529936 -0.029808803 0.020163763 0.010444692 0.00087024533
-0.018960794 0.010991228 -0.040141307 0.019411119 0.0015796163 -0.0005309631 -0.027840957 -0.030432632
0.0076962966 -0.033043623 -0.015083123 0.026290545 -0.020241154 0.031758167 -0.009656417 0.015221697
0.036144543 -0.03589117 0.03571006 0.012795518 -0.030146573 -0.009437701 -0.040816057 0.023063378
-0.0018666239 -0.04311929 0.011738289 -0.016778002 0.0022338529 0.046726476 -0.009394072 -0.00509249

bias f4 [64]
00000000: 8349 2bbd 7278 4a3d 29d1 f9bc 6337 61bb
00000010: 724f afbd c60f efbb 5e9a edbc 9c24 1bbd
00000020: 47ff fd3c 1193 ee3c 3e9b 39bd 414c 86ba
00000030: 324d 5cbd 492f 02bc 755b 0f3d 9c30 82bc
00000040: 1db9 8fba 4940 dcbb 52d2 3abc c4fd 91bc
00000050: f255 273c 7347 bf3c c0bc 12bc 2cca 823c
00000060: 2da8 6ab9 1400 87bd 9343 2abc 22df 60bc
00000070: 1dfc 14bd d437 353b 8b1b 713c 1292 a5bc
00000080: 1a39 fbbc 960f 8f3c b64b 33bd 6e25 09bb
00000090: f08e 33bc ec9c 123c d539 bf3c a16f 1dbc
000000a0: abd4 27bd d5c0 dabd 4d4f 73bd 3af8 13bd
000000b0: 1da8 0e3c 33b2 96bd e04b 183c cce1 d1bc
000000c0: 08e7 6ebc b09a 3dbd f210 4abd 34c0 88bd
000000d0: 6e00 40bd 96a8 613c dbd9 cbbc 210a c6bc
000000e0: fe6e ee3c 808c 30bd 76b8 a6bc 8d7b f3bc
000000f0: a89c 89bc 9032 18bd e23c 60bc f082 58bb
-0.041818153 0.04943127 -0.030495243 -0.0034365288 -0.08560075 -0.0072955815 -0.029004272 -0.03787671
0.031005515 0.029122861 -0.045314066 -0.0010246114 -0.053784557 -0.007945844 0.03499933 -0.01589232
-0.0010965202 -0.0067215306 -0.011402683 -0.0178212 0.010213362 0.0233495 -0.008956134 0.015965544
-0.0002237863 -0.06591812 -0.0103920875 -0.013725074 -0.036373246 0.0027651684 0.014716039 -0.020211253
-0.030666877 0.017463487 -0.043773375 -0.002092685 -0.010959372 0.008948546 0.023343006 -0.009609134
-0.0409743 -0.10681311 -0.0594018 -0.0361254 0.0087070735 -0.073582076 0.009295434 -0.025620364
-0.014581449 -0.0462901 -0.049332567 -0.06677285 -0.04687541 0.013773104 -0.024884155 -0.024174752
0.02910566 -0.04310274 -0.02035163 -0.029722 -0.016798332 -0.037157595 -0.013686391 -0.003303703

weight f4 [64, 1024]
00000000: 82f7 3abc 4e68 193d a924 053c 1e0c 913c
00000010: 4690 2e3d 4355 313d 128d 133b caf8 87bc
00000020: eb32 c83b 1b0d ffbb ee2f ee3c 5af6 c6b8
00000030: 08b1 80bc b37a baba bdcf b8ba 87a6 54bb
00000040: bb54 d3bc 888d 8ebc 591d 49bc 3b19 37bc
00000050: 0a9c ddbc e3f1 25bc 9bdb a13c 3212 c23b
00000060: 3702 33bc d625 03bd 7182 61bc 94dd 26bd
00000070: d26d 053d 5cf6 cdbc a8bd 1dbb 4653 db3a
00000080: 0b7b 2a3c bc0d 033d 60e3 8ebc bead 73bc
00000090: 391b 453c e81c fabb 7e9a 103c ed42 94bc
000000a0: 8ff8 d53b 43be 80bc c76b 1e3d c7f1 d3bb
000000b0: ae39 403c 3662 4a3b d649 a4bc 77e6 983c
000000c0: a5f1 b2bc f952 ccbc 5497 a53c e8c4 87bc
000000d0: ed4f d73c ff40 8a3c ef1a 013c d5e0 7fbc
000000e0: 3839 273d 2ec8 58b9 8a73 b43c 8a96 853c
000000f0: ed50 e83c a6ed 7c3c c3e9 f73c e2f8 1e3d
00000100: 6344 f03a a533 333d 89e7 50bc 397e 5e3c
00000110: 045e 123d e677 c63c 2f51 2c3c e668 253d
00000120: e7ad b8bc 8ce3 2ebb 6757 2a3d cfa5 1d3b
00000130: 8940 463b a0bd e4bc a401 313c 70d0 ccbc
00000140: 2bce 4ebc bcb5 903c c6dc 233c 143e e23c
00000150: 1eea 87bc 774d 1c3d 914c 873b 29ee 4a3c
00000160: af72 cf3b 83bb 883c 7ab6 2e3c 2ce2 dfbc
00000170: 8858 89bc 8545 f7bb 26ba 413c 7852 e03c
00000180: 0a4b da3b 4964 113d 5175 b53b 0bd0 cd3b
00000190: 5a1c 2cbc c8d5 9b3c 43e3 d9bc f780 40bd
000001a0: db05 aa3c d7f3 f33c 2d77 63bb 12df 163d
000001b0: 013a d0bb f1ee f03c 7293 503b f24a 81bb
000001c0: da25 223c 3957 0c3c 4478 3a3c d1ed b13a
000001d0: a284 2bbc bb58 16bc d09b 81bb da7b c03c
000001e0: 0d22 843c a0b7 4ebc 3e83 42bb 5cd7 eabb
000001f0: 73b5 98bc adae 193d fc22 52ba 0f91 923c
00000200: 428f a23c 0546 a1bc 9b7e 84bc 72bf a0bc
00000210: cc3f e53c 862d 4fba 901b f83b f4a6 24bd
00000220: 1acf 543b 4a22 9f3c acb2 6fbc dd03 e23c
00000230: f2b8 a4bb c309 0bbd ec30 c6bc 0614 1b3d
00000240: 4d62 f33c e56e 62bb fc9f c53c dd2b aabc
00000250: 11b6 0b3b c3e1 a13a 9bd7 753c fedf 343c
00000260: 2c82 943c 1102 c2ba 047e f23b d862 07bc
00000270: 3db4 c13b 5fef 963c 6755 5abc 7efb 4e3b
00000280: a430 e0bb e172 08bd 4386 b2bb 3619 8abc
00000290: c99f debc 657b c43b 1675 fd3c 1e52 8cba
000002a0: 53ce 533c f287 b63c fa27 f63c 1b13 23bb
000002b0: 9973 523c 1b97 50ba 4aed 1a3d 9d74 b0bc
000002c0: 3ffd b13c 3535 66bc fe2b b4bc 0f2e 203c
000002d0: 77eb 6dbc 841c 4c3d 06bc dcbc 0a7d b53c
000002e0: 0f93 c23b 6aed a43c 27e5 6dba c7a4 c83c
000002f0: a095 963b 8828 413c 6687 f03c 4e38 a03c
00000300: d823 493c dc50 333d 82bf 833c 0953 283c
00000310: 3440 1d3c 0882 3c3c 2743 e63c 7204 1abd
00000320: b063 af3c 97f9 023d 87ad 65bc 3333 b0bc
00000330: 6cda c03c 953f 9ebc 3f5e c43c cef2 08bd
00000340: e4e5 e3bc 30ae ea3b e176 713b 1eac bd3c
00000350: c207 38bc 0c42 3d3d 7ef3 8b3c 2600 b63c
00000360: 5c9d 0f3c 91ac 0ebd fee2 81bc 8f63 683c
00000370: 1590 cb3c 06d5 12bc f1bd 50bc bde0 c33b
00000380: fc83 0bbd 1935 80bc 8eda e3bc 7087 e03a
00000390: 8915 913c 5cdc 8b3c d855 d6bb 6069 c8bc
000003a0: bd1f 8d3c 5209 f53c e343 5fbc d8c0 4dbc
000003b0: b7e0 cc3a 75e6 333c 3c54 50bb 884f 623c
000003c0: 613e cf3b c6fd 133c 1f18 28bb d5c8 a9bb
000003d0: 1555 4cba fab7 273c 82d4 dabc 3bbe 4ebb
000003e0: f0a2 babc dfab 30bc 7e63 443c 1c5b 803c
000003f0: edea c53c 7f82 163d e129 2e3d f140 f3bb
-0.0114115495 0.03745299 0.008126416 0.017705973 0.04261806 0.043294203 0.0022514504 -0.016598124
0.0061095855 -0.0077835447 0.029075589 -9.487262e-05 -0.015709415 -0.0014227241 -0.0014099997 -0.003244789
-0.025797239 -0.017401472 -0.012275063 -0.011175449 -0.027051944 -0.010128471 0.019758036 0.005922579
-0.010925821 -0.032018505 -0.01376401 -0.040738657 0.032575436 -0.025141887 -0.0024069343 0.0016733191
0.010405312 0.03199552 -0.017442405 -0.014872966 0.012030416 -0.0076328404 0.008825896 -0.018098319
0.0065298746 -0.015715724 0.038677003 -0.006468031 0.011732502 0.0030881292 -0.020054739 0.018664582
-0.02184374 -0.024941908 0.02021376 -0.016573384 0.026283229 0.016876696 0.007879957 -0.015617569
0.040826052 -0.00020673938 0.02202775 0.016307134 0.0283589 0.015437519 0.030262833 0.038811572
0.0018330928 0.043750424 -0.012750515 0.0135798985 0.03573419 0.024227094 0.010517403 0.040383242
-0.02254386 -0.0026685921 0.04158726 0.0024055128 0.0030250868 -0.027922451 0.010803614 -0.025001734
-0.012622396 0.017664783 0.010001367 0.027617492 -0.016591128 0.038159814 0.0041290005 0.012385883
0.00633081 0.016690975 0.010663623 -0.027329527 -0.016765848 -0.007546129 0.011824166 0.027383074
0.0066617774 0.03549603 0.005537667 0.006280904 -0.010504806 0.019022837 -0.026597625 -0.04699799
0.020754745 0.029779358 -0.0034708485 0.03683383 -0.006354571 0.029410811 0.0031826166 -0.0039457018
0.00989672 0.008565717 0.011381213 0.0013574903 -0.010468634 -0.009176428 -0.003955342 0.023496557
0.016129518 -0.012617022 -0.0029680277 -0.007166786 -0.01864121 0.0375201 -0.00080160773 0.017891435
0.019843701 -0.019686708 -0.016173651 -0.019622538 0.027984522 -0.0007903207 0.007571645 -0.04019828
0.0032472075 0.01942553 -0.014630001 0.027589733 -0.00502693 -0.033944856 -0.02419325 0.037860893
0.02970996 -0.0034550962 0.024124138 -0.020772869 0.0021318237 0.0012350607 0.015005018 0.011039732
0.018128477 -0.0014801641 0.007400276 -0.008263312 0.0059113787 0.018424688 -0.013326026 0.0031583006
-0.006841736 -0.033312682 -0.005448134 -0.016857725 -0.0271758 0.005996155 0.03093962 -0.0010705625
0.0129276095 0.02228162 0.03004836 -0.0024883214 0.012844943 -0.0007957087 0.037823953 -0.02153998
0.021727202 -0.0140507715 -0.021993633 0.009776606 -0.014521471 0.049831882 -0.026945125 0.02215435
0.005937941 0.02013274 -0.0009074979 0.024492634 0.0045954734 0.011789449 0.029361438 0.019558098
0.012276612 0.043778285 0.016082529 0.010273703 0.009597827 0.011505611 0.028108193 -0.037601896
0.02140984 0.03197631 -0.014018423 -0.021508789 0.023541652 -0.019317428 0.023970721 -0.03343468
-0.027819581 0.007161878 0.003684454 0.023153361 -0.011232318 0.046205565 0.01708388 0.022216868
0.008765545 -0.03483254 -0.015855309 0.014183893 0.024848977 -0.008961922 -0.012740598 0.0059777186
-0.034061417 -0.015650319 -0.027814176 0.0017130207 0.017710464 0.017072849 -0.006540995 -0.02446431
0.017227048 0.02991167 -0.013627025 -0.012558185 0.0015630935 0.010980238 -0.003178849 0.013812907
0.006324575 0.009032672 -0.0025649143 -0.0051814117 -0.00077946606 0.0102367345 -0.02671266 -0.0031546492
-0.022782773 -0.010783165 0.011986611 0.015668444 0.024159873 0.036745545 0.042520408 -0.007423513

bias f4 [64]
00000000: 221c 6abb a411 ac3a c211 03bd 55bd 7fbb
00000010: 851a c13c 20eb 883c 7480 cd3b ad8b 01bd
00000020: e6c9 683c 402a 1fbd c6dd 2d3b fd1d f9ba
00000030: 63f8 5bbb be9d 073d 63e8 2fbc 658b c3bb
00000040: 9561 b63c 1022 753c 3c30 5dbd 5476 82ba
00000050: c3b0 273b 6c3b f1bb 4eef 4fbc 099a 163d
00000060: ace6 e53c 8bec 323d 36b7 4f3c 42bd 943c
00000070: 854d 363d 1139 e03c 3048 93bc f4c4 a1ba
00000080: 5c76 1fbd d887 943c 33d6 19bc 40e8 a9bc
00000090: ece7 9dbc 6b5b 5e3c d1a1 26bd 6bd3 253c
000000a0: 59e1 30bd a056 4cbc b17a 09bc 75fc ba3c
000000b0: e4ed b43b cd96 943b 80d8 1d3d d270 d6bc
000000c0: f6a9 793d 500e aa3c ecc4 39bc f2c5 9abc
000000d0: 5392 07bd dd23 a93a eb33 163c 1e89 403c
000000e0: 028d 4d3d 15c7 a4bc a665 53bc f319 633c
000000f0: 99c7 5bbd dae1 93ba 8ed3 063c 06e2 3abd
-0.0035722335 0.0013127816 -0.031999357 -0.0039022763 0.023572216 0.016713679 0.0062714163 -0.031627346
0.014208293 -0.038858652 0.0026529892 -0.001900613 -0.0033564798 0.03310942 -0.010736558 -0.005967545
0.022263328 0.014961734 -0.054001078 -0.0009953477 0.0025587536 -0.00736182 -0.012691332 0.036767993
0.028064094 0.043682616 0.012677958 0.018156651 0.044507522 0.027370961 -0.017978758 -0.0012342022
-0.038931236 0.018131182 -0.009389448 -0.020740628 -0.019275628 0.0135716 -0.040681664 0.010121207
-0.04318366 -0.012471825 -0.008391068 0.022825459 0.005521523 0.0045345784 0.03853655 -0.026176844
0.060953103 0.020758778 -0.011338454 -0.018893216 -0.03309853 0.0012904365 0.009167652 0.011751441
0.050183304 -0.020114461 -0.012902653 0.013861167 -0.053657148 -0.0011282519 0.0082291495 -0.04562571

weight f4 [10, 64]
00000000: 14a5 273d 3a11 8d3d 7623 843d e3ce 14be
00000010: 9e53 dcbd 9105 203e 8761 42be e925 463e
00000020: 34ff adbd aafe 823c 63a0 eebd 4acc 263d
00000030: 5e97 573c 865d 7bbd 7b2f 00bd 511b b6bc
00000040: 4b8f 2d3d fcb2 40be 1f77 da3c 0c04 c73c
00000050: 710f 6fbd 5933 82bd d289 17bc 0107 2c3d
00000060: e2dd ab3c 4d36 d2bd 8383 b6bd 2c8d e33d
00000070: be02 4cbe 9f1e dcbd 2038 23bd f2fb 123d
00000080: 56db 70bd e769 a73d 3d38 38bc 28f4 503e
00000090: 3ca6 153e 2013 b63d 982d 523d d9cf 6cbe
000000a0: f7e5 fe3d 66ac 77bd 769c 19be aeea a2bd
000000b0: e1a0 463d a296 2f3d 26ed e6bd c97f 09be
000000c0: 89f4 3fbe 5082 b4bc af30 ed3d a64f f73d
000000d0: 9ecd f5bd eaad 64bd 4658 2ebd acb6 8cbc
000000e0: 158f 41bd b025 96bc 3bd4 7abd 09fb 98bd
000000f0: a122 e33d 62ac 59be 0eb2 b03d 7447 213e
00000100: 73d1 423e 4816 14be cdb9 18be 4f52 373e
00000110: 3303 eebc e298 afbd d674 87bd 7dae d73d
00000120: fed2 083e b92d b8bd f37f b5bd ea31 dfbd
00000130: 1a66 153c c5bd 2fbe 1d30 ebbd 3435 58bd
00000140: 1c16 773c cb17 3fbe 5e4d 3c3d c7c2 fd3d
00000150: 9ded 11be 1785 673e 9bc9 aa3d b58b 1c3e
00000160: 5fd2 483e 1f82 9e3c 2ced ff3d 7cfe d3bd
00000170: 7120 12be f1a8 c23d 6536 bcbc 3bfe 703d
00000180: 8c1f 9ebd 021a 4bbe 3439 cbbd 2be3 65be
00000190: 5350 a63d 7c52 3e3e 2398 0abe 25ad 40be
000001a0: 0a8a d7bd d63f 0d3e 7deb 343e cb6c 093e
000001b0: 2260 31be 9298 a23c f8fd 1bbd 828f 293c
000001c0: 2873 24be 354a 49bd a35c 493c d465 2cbe
000001d0: 708f fbbd b7da 603e 8636 113e 10d1 2a3e
000001e0: aada 74be a5de d3bd 1837 623e 5975 4bbd
000001f0: 5c54 30bd 8e35 4fbc 4834 2c3e 748c 14be
00000200: a8ec 05be aa1b c93c fc80 f8bc bc30 8ebd
00000210: 47e3 22be 419e 583e a166 333d ab25 c13d
00000220: f639 64bd 8ace 343d c8dd 6f3c 30ca c1bc
00000230: 3fb7 08be b4ec 873d 0360 0b3d 9570 1b3e
00000240: 44e2 b0bd 38a7 75bd b536 2e3e 0665 1dbe
00000250: 7122 383d 4b48 413c 66b9 f1bc 09cb 58bd
00000260: 352c 903d 3611 dabd 93f5 41be 896d 2fbe
00000270: 1526 163d 87ca 663d 2b24 b0bc 14c4 573d
00000280: 7ebb f5bd 6a06 85bd 664b 273c 2937 4a3e
00000290: 23eb e6bd 4b91 673c 0eb7 533d fcda 263e
000002a0: 3a58 203e 7a28 1bbe cd44 013e dd69 c83d
000002b0: 3014 453e ad1b 2abd 7f3c 4ebc fdd8 e3bd
000002c0: 1c38 1ebc 2085 adbd beb4 0abd a487 56bd
000002d0: 93b9 8bbd f587 dabd 4e78 a83d cee9 2ebe
000002e0: f604 133e b147 093a 2047 b0bd da4d f0bc
000002f0: 29e7 9dbd e01f 093e 5c80 a13d fa7c b6bd
00000300: 0949 f13d a4e4 c43c 4c8d c83d 96c2 333d
00000310: 3059 eb3d d45b 823d 10b4 303e cae9 673c
00000320: b633 d63c 1f15 553d 9168 ac3d 1ba2 03be
00000330: f444 7b3d ccb5 c93d ec9e 5e3d 1109 2dbd
00000340: eaa8 f3bd 457b 0d3d f8e7 203d ce78 173e
00000350: bab8 b0bd 8771 47be 9a22 273c 2e2e 21be
00000360: 4d7f d13d 8093 11bd 26e0 febd cc0f fb3d
00000370: 23f9 e33c a8ca e1ba bb3d cbbd 8a54 cc3d
00000380: 3ff5 fabd 0493 c53d 780e 74bd 6c9c d5bd
00000390: 16ec aabd cee1 37bd 1c49 66bc afc0 bf3c
000003a0: 3bf3 253c ac57 f9bc bcf6 c6bd 8a2a bf3d
000003b0: 36cf d83c 30f5 92bc bf07 5abd d8c4 00be
000003c0: d8aa 373d 74ec 843d 9b6f 34be f8a7 bcbd
000003d0: 38c2 b63d 52b3 11bd a68c 1e3d 0550 2dbe
000003e0: 4fc7 153e 5b44 05be 57d0 3dbe a4aa f6bd
000003f0: 10cc 83bd 8ed8 053e 7ca4 12bd 2400 953b
0.040928915 0.06888051 0.06452076 -0.14532046 -0.10758136 0.15627123 -0.18982516 0.19350399
-0.08495942 0.015990574 -0.11651685 0.04072217 0.013158647 -0.061368488 -0.03129528 -0.022229822
0.042372983 -0.18818277 0.02666813 0.024293922 -0.058364335 -0.0635745 -0.0092491675 0.041998867
0.020979825 -0.10264263 -0.089118026 0.11110911 -0.19922921 -0.10748028 -0.039848447 0.035884805
-0.058802925 0.08174496 -0.011243877 0.20405638 0.14614195 0.088903666 0.051313013 -0.23126163
0.12446206 -0.060467146 -0.15001091 -0.07954918 0.04849327 0.042868264 -0.11275701 -0.13427652
-0.18745627 -0.022034794 0.11581551 0.120757386 -0.12002109 -0.05582992 -0.042564653 -0.017176948
-0.047255594 -0.018328518 -0.061237555 -0.07469756 0.11090589 -0.21257165 0.08627711 0.15749913
0.19025211 -0.14461625 -0.14914627 0.17902492 -0.02905426 -0.08574082 -0.066140816 0.10531328
0.13361737 -0.08993096 -0.08862295 -0.10898192 0.009118581 -0.17162235 -0.11483786 -0.052785113
0.015080955 -0.1866142 0.04597222 0.123906665 -0.14250799 0.22609363 0.083392344 0.15287669
0.196115 0.019349156 0.12496409 -0.103512734 -0.14270188 0.09504879 -0.022975156 0.058836203
-0.07720861 -0.1983414 -0.0992302 -0.22449939 0.081207894 0.18586153 -0.13534598 -0.1881605
-0.10524376 0.13793883 0.17667957 0.13420407 -0.17321828 0.019848142 -0.038084 0.010349156
-0.16059554 -0.049143035 0.012290153 -0.1683572 -0.12283218 0.21958433 0.14180955 0.16681314
-0.23911539 -0.103452004 0.22091329 -0.04967246 -0.0430492 -0.012647046 0.16816819 -0.14506704
-0.13078558 0.024549324 -0.030334942 -0.06942889 -0.15907012 0.21154119 0.043799046 0.09431013
-0.05571934 0.044142283 0.014640279 -0.02365598 -0.13351153 0.066369444 0.03402711 0.15179665
-0.08636907 -0.059973925 0.17013057 -0.15370569 0.04495472 0.011797021 -0.02950735 -0.052928004
0.07039682 -0.10647814 -0.18941335 -0.17131628 0.03665741 0.05634549 -0.021501621 0.05267723
-0.11998652 -0.06495364 0.0102108475 0.19747604 -0.112753175 0.014133762 0.051688246 0.16294473
0.15658656 -0.1515216 0.12623902 0.09785817 0.19245982 -0.0415303 -0.012587666 -0.111253716
-0.009656932 -0.08472657 -0.033863775 -0.05237545 -0.06822505 -0.10670463 0.08226071 -0.17081377
0.14357361 0.0005236818 -0.08607316 -0.029333998 -0.07710106 0.13391066 0.07885811 -0.08910556
0.117815085 0.024034806 0.09792575 0.043886743 0.114916205 0.06365171 0.17256188 0.014154861
0.026147705 0.052022096 0.08418382 -0.12854807 0.061345056 0.09849128 0.05435078 -0.042244975
-0.11897452 0.034541387 0.039283723 0.14792177 -0.08628984 -0.19476901 0.010201121 -0.15740272
0.10229359 -0.035541058 -0.12445097 0.122588724 0.027828759 -0.0017226534 -0.099238835 0.09977062
-0.12253808 0.09647182 -0.05958411 -0.10430226 -0.08345811 -0.04489308 -0.014055517 0.023407308
0.010128791 -0.030437313 -0.097150296 0.093342856 0.026465993 -0.01793918 -0.053230044 -0.1257509
0.044840664 0.06490412 -0.17620699 -0.09211725 0.08923763 -0.035571404 0.03870835 -0.16925056
0.14626811 -0.13014357 -0.18536507 -0.12044266 -0.06435406 0.1307089 -0.035801396 0.004547136

bias f4 [10]
00000000: a884 6bbe 7166 59bd 7a9f f63d 6a50 e73d
00000010: 4e8d 093e 177e 09be 5908 d33d e535 a33d
00000020: eb15 aebd cc55 ef3c
-0.22999823 -0.05307621 0.120421365 0.11294635 0.1343281 -0.13427006 0.103043266 0.07969264
-0.08500274 0.029215716
