Pytorch/model_data/CIFAR10_EPOCH7.pth (torch, 588827 bytes, 10 tensors)

weight f4 [32, 3, 5, 5]
00000000: 3720 42bc cbde 44bd a194 aebd b34c 0ebe
00000010: 309a d6bc a354 10be 136e ebbd 1a29 a13d
00000020: e6b2 63bd cc0b 57bd 7df6 05be e83e 16bd
00000030: 3946 ec3d de12 aa3d b6ff fcbd 7410 ae3d
00000040: 9c81 96bd e774 923d 96ea 073e fa93 afbd
00000050: 1cf5 723d 9adc 233b a228 0f3e ad83 e73d
00000060: 1636 adbd 49e1 cbbd 5d8e 363d 6780 9e3d
00000070: 1ac0 85bd 180a 15be 606d 56bd 6dad bc3d
00000080: 3bce f5bd 45f2 4d3d 760a 06be 4755 1abd
00000090: 4c01 efbc 1b44 e63c a81f a23d 4a4d af3d
000000a0: 1016 253d 7a0e b3bd 1803 66bc 9080 f63d
000000b0: 2531 493d c6d4 0e3d 05e4 ff3d fa9c 263e
000000c0: 6fd5 123e 3d28 823d 6110 44bd 1fa5 66bd
000000d0: 64ae 0cbe a2a7 5ebd c341 21be abcc 0ebc
000000e0: eba8 533d d934 16bd e667 5e3d 6cd1 f2bd
000000f0: be8a 493d 4886 783d c3d8 b0bc 8517 973d
00000100: 23dd c2bd f259 20bc bb89 583d c792 043e
00000110: 1823 1fbd 8103 ddbd 25e9 783d 1a24 413d
00000120: 9e17 143e ffcc 163e 8f14 e93d cd27 af3d
00000130: 6ed2 b33d 6b6a f03d a84c a13d 19b2 6d3c
00000140: f277 21bd 67aa 8a3d 2b2d 163d 2c5e d6bd
00000150: 712e c9bd b999 f03d b0be ffbd 1961 413d
00000160: e977 07be ebe0 8b3d a3cc 4a3d fe89 bd3c
00000170: d453 743b ec07 e83d ea8d 6bbd 31bb 5d3d
00000180: 64ba 0b3d 2fa2 703c b2b3 d13d 7e71 b43c
00000190: 9b66 583d da68 953d b399 0f3d ece9 273d
000001a0: a60e 1abe 0c71 9b3d 7406 623a f595 d43c
000001b0: 7f13 23be c433 31be 4c6d aebd 480c 07be
000001c0: 1191 0ebd 096f fa3c 700f 1cbe c11b 30bc
000001d0: 8333 6b3b 41c4 87bc d1e7 13bd 86c9 41bc
000001e0: 7dc7 c5bc 5ae8 2a3d 7a7c 853d 97fe 24bc
000001f0: 9203 51bd 70b1 33bb 0ae9 453d 5dda ec3d
00000200: eedd acbd 9129 2e3d 74f0 193c 0ff7 dbbc
00000210: 1d89 99bd 8623 eabd dbc3 883d b27d a63c
00000220: 0e3d a63c 1291 33bc a18f a83c e12a 2b3d
00000230: 614c dcbc f023 3dbd f3bb c33d df2e 173d
00000240: 887a 0e3d 3dbf 5dbd f3dd 9abd 7c7f c83d
00000250: 568d babd cdc6 853c 49c2 bc3d 2a7e b23c
00000260: 9833 f4bd 60aa 9bbc dc77 ebbd 22e9 3abc
00000270: 2684 3f3d b02c 23be 7f53 14be 649d d6bd
00000280: bff8 b0bd a439 823d 7863 b53c 8f68 51bd
00000290: 03bb 95bb 572d 0fbe b95a c0bd 28b4 d4bd
000002a0: ec47 7bbd 21b1 cfbd 5167 d73c a6ea 29be
000002b0: 82b5 1dbe c5b9 09be 799b 0abe b9c1 13bd
000002c0: a2c7 fbbd 1e61 f83c 58c8 e23c 4370 1b3d
000002d0: a9ae 0f3d 5a24 39bd 1665 463b 55ba 9a3c
000002e0: 7788 debd f6bd aa3c ff17 63bd 4ca6 613d
000002f0: 7267 c93d c61c e3bc d6a0 c0bd 22f5 de3d
00000300: 5838 b73d e092 373d 8607 57bc 3599 263d
00000310: 5db9 aabd 6caf 0dbe f67f b6bd 4935 a5bd
00000320: fd80 b4bd e180 fdba bccd d03d 477c 2b3d
00000330: 7a7f f73d 3034 07bd 847f 0e3d eb5a e23d
00000340: bf63 36bd a5c5 1a3e d153 f83d 63c9 d13d
00000350: 54eb 813d d16b 543e 9b49 463e 0b02 853d
00000360: 8d37 2f3e 8425 503e e74f 013e 5aae 083e
00000370: 9664 a83d 6734 543d ef03 60bd a5a7 c93d
00000380: b73c de3d 5338 903d 0c37 f13c a70a febb
00000390: 0812 e03c 8557 8bbd d6ec 3d3d 3117 26bd
000003a0: da1e 813d 5e0d 9f3d 9b35 4e3d a7ca a23d
000003b0: 0b77 aabd a175 a03a 5a94 adbc e7da 043e
000003c0: 81a9 4c3d 007c 503d 8c8c 833d 8fdf 0a3e
000003d0: 52a1 783d 2be8 d5bc 849b d9bd 617b c5bd
000003e0: 9145 fa3d 005a 19bc d48b 6abc 7e0c 113d
000003f0: 0830 87bd 9463 bd3d 9096 5dbd dbdb 07bd
-0.011848501 -0.048064034 -0.085244425 -0.13896446 -0.02619657 -0.14094786 -0.11495604 0.078691676
-0.055590533 -0.052501485 -0.13082309 -0.036681086 0.115368314 0.0830438 -0.123534605 0.08499232
-0.0734894 0.071512036 0.13273081 -0.08573146 0.059315786 0.0025003315 0.13980344 0.11304412
-0.08457582 -0.09955079 0.044569362 0.077393346 -0.06530781 -0.14554632 -0.052350402 0.09212766
-0.12002226 0.050279874 -0.13089928 -0.037678983 -0.029175423 0.028108647 0.07916194 0.085596636
0.040304244 -0.087429956 -0.014038824 0.1203624 0.049119134 0.034870885 0.12494663 0.1627082
0.14339231 0.06355331 -0.047867183 -0.056309815 -0.137384 -0.054359086 -0.15747742 -0.008715789
0.051674765 -0.036671493 0.054298304 -0.1185635 0.04920458 0.060674936 -0.021587735 0.07377533
-0.09514835 -0.00978707 0.052865725 0.12946616 -0.038851827 -0.10791684 0.06076922 0.04715357
0.14462134 0.14726637 0.11380874 0.08552513 0.08780371 0.117390476 0.07875949 0.014507794
-0.03942103 0.06770783 0.03666417 -0.104671806 -0.09823311 0.1174807 -0.12487543 0.04721174
-0.13229336 0.06830009 0.049511563 0.023137089 0.003728141 0.11329636 -0.057508387 0.054133598
0.034113303 0.014687105 0.10239352 0.022026774 0.052832227 0.072953895 0.03505869 0.04099457
-0.1504465 0.07589921 0.00086221774 0.025950411 -0.15925406 -0.17304903 -0.085169405 -0.13188279
-0.034806315 0.030570524 -0.15240264 -0.010748805 0.0035888858 -0.016573073 -0.03610975 -0.011827832
-0.024142975 0.041725494 0.06517883 -0.010070465 -0.051028796 -0.0027418993 0.048317946 0.11565087
-0.08440767 0.04252011 0.009395707 -0.026851205 -0.074968554 -0.11432557 0.066779815 0.020323608
0.020292785 -0.01095988 0.0205763 0.04178894 -0.026891889 -0.04617685 0.09557333 0.036909934
0.034784824 -0.054137457 -0.07561865 0.09789941 -0.09108989 0.016330147 0.092167445 0.021788675
-0.11923903 -0.01900214 -0.11497471 -0.011408122 0.046756886 -0.15935016 -0.14484976 -0.10479239
-0.086411946 0.0635865 0.022142157 -0.051125105 -0.0045694127 -0.1398214 -0.09392304 -0.103859246
-0.061347887 -0.101412065 0.026294382 -0.16593418 -0.15401271 -0.13449772 -0.1353587 -0.03607342
-0.12293936 0.030319747 0.027683422 0.037948858 0.03507868 -0.045200683 0.0030272654 0.018887678
-0.10865872 0.020842534 -0.055442806 0.055090234 0.09834184 -0.027723681 -0.09405677 0.10886599
0.089462936 0.044817805 -0.013124352 0.040673453 -0.083361365 -0.1383645 -0.08911125 -0.08066804
-0.08813665 -0.0019340777 0.10195491 0.041866567 0.12084861 -0.033008754 0.034789577 0.110524975
-0.04452872 0.15114458 0.12125362 0.102434896 0.063437134 0.20744254 0.19364016 0.0649453
0.17111035 0.20326811 0.12628137 0.1334776 0.0822231 0.051807787 -0.05469125 0.09846429
0.10851424 0.07041993 0.029445194 -0.0077527347 0.027352348 -0.068038024 0.046368442 -0.04054946
0.063047126 0.077662215 0.05034409 0.07948809 -0.08323487 0.0012242087 -0.021188904 0.1297413
0.04996634 0.050899506 0.064232916 0.13561843 0.060700722 -0.026111683 -0.106253654 -0.09642673
0.122203 -0.009359837 -0.014315564 0.035412304 -0.06600958 0.09247509 -0.054098666 -0.033168655

bias f4 [32]
00000000: 89d4 06be 80fd 403c 45f9 443d a891 38bd
00000010: 00fd d7bc 8c0c 873e bb60 98be 0f2f 9cbe
00000020: 254a b9bd 09b6 d63a a582 383e bce7 fabc
00000030: 9c8c 7bbd 6f3c cfbd 0c4b 95bc 8173 c2bd
00000040: 2d3a 5b3c 1eae a7be a1c8 4bbd fc7e a6bd
00000050: a80a 0e3c f075 8b3d aaf3 af3d 469a ec3d
00000060: 6e88 83be bdf9 373d 74b4 eebd 3fa9 803e
00000070: 748f 70be ad2f 6b3d 1a23 c4bd 9cc4 913d
-0.13167013 0.011779189 0.048089284 -0.045060784 -0.026365757 0.2637676 -0.297613 -0.30504653
-0.09047345 0.0016381155 0.18018587 -0.030628078 -0.061413392 -0.10118949 -0.018224262 -0.09494687
0.013380569 -0.32750028 -0.04975188 -0.08129689 0.008669533 0.06809604 0.08591397 0.11552863
-0.25690025 0.044915903 -0.116555125 0.25129125 -0.23492223 0.057418514 -0.095770076 0.071175784

weight f4 [32, 32, 5, 5]
00000000: 67f3 3ebb e3c0 f7bb 4fec 0bba 3aee 97bb
00000010: 75cd debc e90d 173d 25d4 ab3b f214 123d
00000020: 427b 063d 29ef d83c 42e0 a83c 6b3c 693b
00000030: bfb4 51bc c9e7 923c b648 393d 3406 7dbc
00000040: 16f4 6fbb 23f2 1cbd d694 b0bc b6af b7bc
00000050: 2604 d33c e5f4 cb3c 3ba0 f13c d840 de3c
00000060: bf20 263c da4a 0fbd 1831 8d3c f067 99bc
00000070: a60f d23c 4fce adbb 8d89 c0bc ce32 913c
00000080: d033 063c 823a 063c 95c3 ddbc be18 193d
00000090: 01fd 73bc 7759 773c 7bc0 333c 837c ce3c
000000a0: 83a4 803c ed3d 243d c2ca 8dbc d8f3 233b
000000b0: f5f3 ba3c 6ff7 cc39 eeee 2c3d fee4 163d
000000c0: 8f39 263d 0d82 c2bc ea82 e13c 77d7 1c3d
000000d0: 9294 053a 9ac1 9b3c b3e8 0a3d 2c9c a43c
000000e0: be6c 0e3c 9988 8cbc a69b e73c a669 ee3c
000000f0: e207 11bd a0a4 3abb 0fd1 eb3c b22b e83c
00000100: 9fbc 37bc 405d 8e3c 77f9 253c 139a 18bd
00000110: f36d 043c 0f8c 343c 3eb4 f9bc 18d2 913c
00000120: c692 28bc 329a 3dbc e675 b83c 481b 22bb
00000130: 784e b03c afd3 8abc 72df c03b 03e3 a1bc
00000140: 4b4c 813c f322 39bc 00f1 bdba 2c0d f7ba
00000150: a1e2 163b 4ce0 5b3b 4f93 6e3a 73cf 2e3d
00000160: 1a34 a03c 75d4 943b 8e93 0ebc 7764 193d
00000170: f748 213d 77f2 a53c 7e9b 923c 8dbc fd3b
00000180: 2e42 d33c 388d 99bc 4a4c 563b 4afd fd3c
00000190: 4e04 af3c 01c4 9cbc 10e1 ebbc b9a7 46bb
000001a0: 837f 0abc 98ee 7bbc 9117 c1bb 788b df3a
000001b0: 04e3 29bd ef25 273b 9a04 0ebb df4e c2bc
000001c0: 5a32 d9bc c9da 613b cc67 363b 5269 e4bc
000001d0: 71ed b73c 79b4 b63c e062 1e3c 291f 2cbc
000001e0: 2055 fe3b a3b0 6c3c f96e c93c 6cad abbc
000001f0: 32c2 acb8 4caa 553c a774 3aba 128d d23c
00000200: 6d83 103d 95fe d5bc b94f af3c a184 6d3c
00000210: e6f2 063d 72e3 2c3c 899e 80ba ba57 99bc
00000220: b4ce b83c 7e85 b4bc 218f d3bc 9279 cbbc
00000230: 124c fc3c 235d 7ebc 68aa 30bd 600d 2abd
00000240: a109 4c3c c3b5 a739 33ed 13bd dc2e a43b
00000250: 69ab 203d e26f 38bc 394c a13b 7916 193d
00000260: 8594 513c f7ee cebb 6b2c 1a3d 72cc 113c
00000270: a8fd 0c3d 5f48 143d 56e5 00bc 7b95 9e3c
00000280: a445 2c3c 15f2 be3c c103 693c c60f c53c
00000290: 1e3f a63b c1a7 bb3c ec03 69bc 6c97 c93c
000002a0: 7ac6 88bb 26d0 b9bb 7ff3 c2bb 77af 0b3d
000002b0: 65e1 e33c 13e5 e5bc f607 0d3d 9b6a ecbc
000002c0: 3a60 1bbd 2d46 ccbc ffc4 d63c 3a29 31bd
000002d0: 7bca 94bc 1766 c7ba e38e 9ebb f6ae a13c
000002e0: 4888 15bd 29b7 2abb 5805 34bc 0c21 0e3d
000002f0: 2078 bd3c 3272 263d b92d 0e3d 53fc 223b
00000300: 2df5 0b3d b4bb 583d 59bb 153d 6a0a 3e3d
00000310: cdc2 623d f166 ee3c 141f 2a3d ec6b 353d
00000320: c561 5e3c b1fd f83c ddb3 8a3b f92f 06bd
00000330: 29d9 03bc 76df 7d3c c489 093c d738 8ebc
00000340: c896 2cbd 1579 f03b dd28 e13b 330a 4c3c
00000350: 8e7b f1bb 9c7d 16bd 16a1 08bd 3402 46bc
00000360: d71b 013d 87df 6cbc cce8 563d b69b 4ebc
00000370: a92d f7bc e4cd 283d b595 523c 941d 9e3b
00000380: 2af0 f13b 1f49 c23c e66f b7ba b040 02bd
00000390: 9dd7 04bd 5955 983c f96f d43c 1de4 fa3a
000003a0: a2fe 5e3c cc76 c6bc 1a39 b1bc b717 66bc
000003b0: 6b6a ed3c b8b8 8c3b b3f6 363a d650 d33c
000003c0: f3d4 d0bc c7bf f43b fc23 38bc c090 1f3d
000003d0: 097c 013d 9571 eb3c 6f54 803b ef05 d43b
000003e0: 55ee 473d 15e9 0c3d 7794 cbbb c0da 6dbc
000003f0: c27a 90bc 63d4 12bc 9e1d 2abd f222 423d
-0.0029136778 -0.0075608357 -0.0005337642 -0.004636553 -0.027197579 0.0368785 0.0052437955 0.035664506
0.03283239 0.026481228 0.020614747 0.003558899 -0.012799441 0.01793279 0.04523536 -0.0154433735
-0.0036613992 -0.038316857 -0.021555346 -0.022422653 0.025758814 0.024897048 0.02949535 0.02713053
0.010139643 -0.034983493 0.017235324 -0.01872632 0.025642227 -0.005304135 -0.02350309 0.01772442
0.008191064 0.00819266 -0.0270708 0.03737711 -0.014891864 0.015097014 0.010971184 0.025205856
0.015703445 0.04009812 -0.017308597 0.0025017168 0.022821406 0.00039094265 0.04222005 0.036839478
0.040582236 -0.023743654 0.027528245 0.03829142 0.0005095686 0.019013215 0.033913326 0.020094
0.008692918 -0.017154979 0.028272461 0.029103111 -0.03540791 -0.0028479472 0.02878621 0.028341148
-0.011214404 0.01737845 0.010130278 -0.03725631 0.008082855 0.011019721 -0.030481454 0.017800376
-0.0102889 -0.011572408 0.022517156 -0.00247355 0.021521792 -0.016946642 0.0058860118 -0.019761568
0.01578345 -0.011299836 -0.0014491379 -0.001884853 0.0023023265 0.003355044 0.000910093 0.042678308
0.019556094 0.0045419284 -0.008702172 0.037449326 0.039376225 0.020257218 0.01789641 0.0077434243
0.025788393 -0.018744096 0.003269928 0.031004567 0.021364357 -0.01913643 -0.028793842 -0.0030312373
-0.008453253 -0.015376709 -0.005892702 0.0017055115 -0.041476265 0.0025504788 -0.0021670223 -0.02371925
-0.026513267 0.0034462682 0.0027832864 -0.027882252 0.022452088 0.022302853 0.009667128 -0.010505476
0.0077616125 0.01444641 0.024589049 -0.020956717 -8.237771e-05 0.01304109 -0.00071127195 0.025702033
0.035281587 -0.02612237 0.02140032 0.014496953 0.03294649 0.010552274 -0.0009812872 -0.01871859
0.022559501 -0.02203631 -0.025825085 -0.024838243 0.030797992 -0.015525135 -0.043131262 -0.04151666
0.012453468 0.00031988145 -0.036114883 0.005010469 0.03922597 -0.011257144 0.0049224165 0.037374947
0.0127917575 -0.006315108 0.037640017 0.008898841 0.034421593 0.03620183 -0.007867178 0.019358387
0.0105146505 0.023308793 0.014222086 0.024055373 0.005073442 0.02290714 -0.014222126 0.024608336
-0.004174051 -0.005670565 -0.005949437 0.034102883 0.027817437 -0.028063333 0.03443142 -0.028859427
-0.037933566 -0.024935806 0.026216982 -0.043252207 -0.018162956 -0.001521292 -0.004838811 0.019736748
-0.03650692 -0.0026049113 -0.010987602 0.034699485 0.02312857 0.04063625 0.034711573 0.0024869635
0.034169365 0.052913383 0.03655562 0.04639665 0.055361558 0.02910182 0.041533545 0.044292375
0.013573115 0.030394407 0.004232867 -0.032760594 -0.0080473805 0.015495172 0.008394662 -0.017361088
-0.042135984 0.007338653 0.0068713264 0.012453604 -0.007369465 -0.036740884 -0.03335675 -0.012085486
0.03152069 -0.01445759 0.052468106 -0.012610367 -0.03017314 0.041211978 0.012853076 0.0048253033
0.007383366 0.023716507 -0.001399514 -0.031799972 -0.032432187 0.018595384 0.025932299 0.0019141469
0.013610514 -0.024226569 -0.021633673 -0.01404374 0.028981408 0.004294481 0.000697951 0.025795382
-0.025492167 0.0074691507 -0.011239048 0.038956404 0.03161243 0.028740684 0.0039163153 0.006470434
0.048811276 0.03440197 -0.0062127667 -0.014517486 -0.01763666 -0.00896177 -0.04153215 0.047396608

bias f4 [32]
00000000: e60d 74bc 0822 453c 9d72 a8bd 101a 63bd
00000010: a5ed 783c 1281 09bd 9c47 82bb 491d 3e3d
00000020: 1f60 78bd 1766 2b3c 81f4 0abe 5e76 5dbc
00000030: 43bf e23d 488c 2cbd a698 b0bd cf00 aa3b
00000040: 8914 243c fe90 193d e4a3 bbbd 2dd2 4dbd
00000050: e5cd a6bc 55e9 a23b 45f3 283c a0b2 093b
00000060: 4818 06bd 3c8b 7ebc b70e 0cbd accd 0dbd
00000070: ebdf d5bc 0546 15bb 9ded 6bbd 5215 15bd
-0.014895892 0.012032039 -0.08224986 -0.055444777 0.015193378 -0.033570357 -0.0039758217 0.046414647
-0.060638543 0.010461352 -0.13569833 -0.0135169905 0.110716365 -0.04212597 -0.086228654 0.0051880847
0.010014662 0.03749179 -0.09162119 -0.050249267 -0.02036185 0.004971663 0.010311906 0.002101101
-0.032738 -0.015536126 -0.03419372 -0.034619972 -0.026107749 -0.002277733 -0.057599653 -0.036397286

weight f4 [64, 32, 5, 5]
00000000: 9ebf c5bb 103d 0e3d ccfe 223c 3abd a2b9
00000010: 726b 0d3c e579 b7ba ee21 b73c 4eb0 36b9
00000020: 0beb 88bc 5ecf 7d3b 4cde 86bc 7697 3a3c
00000030: 1fe4 a33c 524c c4bc 9e64 8c3c 959b 78bc
00000040: 31f5 ab3c f867 0dbd 7ac0 6f3b a99e bfbc
00000050: 1818 043d 7ffd 273d 9824 03bb 9cf6 fe37
00000060: 5b13 7fbc 9e45 b43c e46b 26bd 5397 bc3c
00000070: 1cb0 f8bb f49e 5cbc ef2b 9f3c 1482 9abb
00000080: 54c0 a13b 0540 a83c efab a0bc 1181 373c
00000090: 7bea 003c b450 443c 78b7 c4b9 223a dcbb
000000a0: 830f e93c b78a a3bc 0104 b3bc d76d 33bc
000000b0: 19ad bcbc 7b2d e0bc 688c 283c 31b8 d6bc
000000c0: c2fc 1f3d 153b 133d 5b50 9d39 852a 863c
000000d0: b48a 0c3d 1e51 b2bc c306 e13b 210d 20bd
000000e0: d2e5 1cbd b49d 763c 6c7a 443c d845 d0bc
000000f0: 910e 89bc a632 9239 6d44 813b 76f4 173d
00000100: 851d 963c 2d0c 23bd d3a8 d43c d4b1 e93c
00000110: 3528 193d 5a6e ba3c 7cc7 693c 9f01 813c
00000120: 6516 313d 6886 613d 38cf df3c 183c bbbc
00000130: 9313 0d3a 57ae 173c 3b2c 4bbc 7d4d e53c
00000140: 2449 fd3b 73b1 29bd 03b4 05b9 24b7 bc3c
00000150: a91a 16bc d7fe a43a 0b33 603a 19a7 a5bb
00000160: 4e9c 15bd a499 edbc a30e e93b f232 283b
00000170: 1f8e c73c 11bd b7bc 4688 bbbc 6f03 153c
00000180: 3752 9abc 6d1a 04bd 4254 313c 1cc1 c2bc
00000190: ecf5 3e3b a510 f43b 5f5d d93c 6490 043d
000001a0: 6c8f 5abc 357a 4cbc af3a f93c 8690 883c
000001b0: dc61 cebc 7a3b 053c db75 8dbc f118 02bd
000001c0: 3e8e 95ba b5b1 053d 6ee0 593c f70d 36bc
000001d0: 234e 5bbc fc1c d23b 8276 23b9 77b0 04bc
000001e0: b6c1 a5bc 96c2 95bb e39a eaba 46b5 c9bc
000001f0: db1a 1fbc 64cc 23bc 52fc 963c 8fa2 a8bc
00000200: 831e febc e606 a73c 141e 6bbc 1f83 10bc
00000210: 97dc 01bd 3e23 af3b 46cd 9ebb 3e1b 08bd
00000220: 912f 883c a318 00bd 2343 1dbc e5fb b2bc
00000230: 16ea 0c3c 00db d63c 4ca8 f6bb 1af9 b6bc
00000240: 0791 22bc 91a1 aebc be37 16bd 0ff3 e7bc
00000250: 083f cfbc ca60 103c 2ff4 263a 9d2f 553c
00000260: c260 a53c 98c5 9ebb fb56 ba3b 37f7 d3bc
00000270: ed36 9d3c b7c8 f23c a530 a5bb 194f 9ebc
00000280: 126b 9bbc 4f47 413b f6ef c3bc bfaa 833a
00000290: be68 e5bb 54d3 bfbc 9e8f 30bc 59ae df3b
000002a0: 60f3 51bc 4acc 0b3d 2571 db3c e787 28bc
000002b0: 3eb4 483c b463 d4bc 3183 e9bc d3d2 85bb
000002c0: 6ae1 afbb 7731 073c ba9b 9abc 2247 28bc
000002d0: 7134 c53c df95 3739 cb9e 73bb e402 513c
000002e0: aa7a 213c 9e7f 383c 2003 cd3b 2462 20bc
000002f0: ac84 043c a6c5 54bc 1ae7 1d3a c1d9 903c
00000300: a78a e93c 24fd c93c c3a7 11bc 8628 dcbc
00000310: 6cc7 543b ae60 033d 5a65 823c f18e 413b
00000320: 64aa a83c df95 0c3d 0869 44bc ecb0 34bb
00000330: c9ad 9dbc 5326 70bb 9af4 c1bb e279 22bc
00000340: c8cf bbbc 7c02 573c 129a 00bd 0196 9cbc
00000350: 565a 05bd f81d b63b 5577 02bd afa2 e4bc
00000360: 746c 023d b5a9 193b b6b3 94bc 2159 133d
00000370: f39b 01bd 27a7 a83c d915 233c b3fd 0b3b
00000380: c16d 94bc 6742 5a3c 3b82 21bd e9d1 a83c
00000390: 5a26 953a 40a3 0abb 2b48 c9bc 3330 e7bc
000003a0: 7e30 f83b c40a 10bd 8d2e 80bc 270a e53c
000003b0: 48a9 a7bc 34ae fe3c 08af 26bc 64dc 7e3c
000003c0: 8de6 173d cd7d 13bd 356f 0f3d 2a24 3e3c
000003d0: 4bf2 fdbc 275b 00bc 4825 2bbd 2689 b73c
000003e0: 2adf 1abb 3d30 38bd 55da 2d3c ab72 99bc
000003f0: 9984 9539 8c8a 3a3d d843 47bc 1dca c2bb
-0.0060348054 0.034726202 0.009948444 -0.00031040033 0.008631574 -0.0013998119 0.022355046 -0.00017422551
-0.01671364 0.0038728337 -0.016463421 0.01138865 0.020006238 -0.023962174 0.017137822 -0.015173812
0.02099094 -0.03452298 0.003658323 -0.023391085 0.03224954 0.041013237 -0.0020010825 3.0393996e-05
-0.01556858 0.022005852 -0.040630236 0.023021376 -0.0075893532 -0.013465632 0.019430129 -0.0047152136
0.0049362574 0.02053834 -0.019613234 0.011200205 0.0078684045 0.011982132 -0.00037520728 -0.006720797
0.02844978 -0.019963605 -0.021852495 -0.010951481 -0.023031758 -0.027365437 0.010287382 -0.026210876
0.039059408 0.035945017 0.00030005243 0.016377697 0.034311965 -0.021767195 0.006867261 -0.03907502
-0.03830511 0.015052248 0.011992078 -0.02542393 -0.016730579 0.00027885026 0.0039449246 0.03709837
0.018324623 -0.039806534 0.025959408 0.028527178 0.03739186 0.022757698 0.014268752 0.015747843
0.043234248 0.05505982 0.02732049 -0.022855803 0.000538164 0.009257874 -0.012400682 0.02799105
0.0077296663 -0.041428994 -0.00012750928 0.023036547 -0.00916163 0.0012588155 0.0008552528 -0.00505532
-0.036526017 -0.029003926 0.0071123405 0.0025665131 0.02435976 -0.022429021 -0.022892129 0.009095057
-0.018838031 -0.032251764 0.010823311 -0.023773722 0.002913828 0.0074482732 0.02653378 0.032364264
-0.0133398585 -0.012480308 0.03042349 0.016670477 -0.025193147 0.008131856 -0.017268112 -0.031762067
-0.0011410189 0.032640178 0.013298137 -0.011111728 -0.013385328 0.0064121466 -0.00015589039 -0.008098713
-0.02023397 -0.0045703156 -0.0017898943 -0.02462257 -0.009710993 -0.009997461 0.018430863 -0.020585326
-0.031020408 0.020389032 -0.014350433 -0.008820324 -0.03170451 0.0053447774 -0.004846248 -0.033229105
0.016624244 -0.031273495 -0.009598526 -0.021848628 0.008600732 0.026227474 -0.007527387 -0.022335578
-0.0099222725 -0.021317275 -0.036674254 -0.028314142 -0.02529861 0.008812139 0.00063687837 0.01301184
0.02018774 -0.0048453324 0.0056866384 -0.025874717 0.01919123 0.029636724 -0.0050411993 -0.019324826
-0.018971954 0.0029491966 -0.023918133 0.0010045393 -0.0070010116 -0.023416199 -0.0107764285 0.006826204
-0.012814373 0.034130372 0.02678735 -0.010286308 0.012250004 -0.025926448 -0.02850494 -0.00408397
-0.0053674476 0.008251539 -0.018873084 -0.010270866 0.024072858 0.00017508071 -0.0037173505 0.012757037
0.009855906 0.011260895 0.006256476 -0.009789024 0.008088272 -0.012986576 0.00060235115 0.017681958
0.028508497 0.02465684 -0.008890095 -0.026874792 0.0032467498 0.032074623 0.015917469 0.0029534663
0.020589061 0.034322616 -0.011987932 -0.0027571274 -0.019247906 -0.0036643937 -0.0059190514 -0.009916754
-0.022926226 0.013123151 -0.031396933 -0.019114496 -0.032556854 0.005557772 -0.031852085 -0.027909605
0.03184171 0.00234471 -0.0181521 0.03597367 -0.031642865 0.020587517 0.009953939 0.0021360933
-0.018118741 0.013321496 -0.039430838 0.020607905 0.0011379228 -0.0021154433 -0.024570545 -0.028221225
0.00757414 -0.035166517 -0.015647197 0.027958943 -0.020466462 0.031088926 -0.010173567 0.015555475
0.037085105 -0.036008645 0.035018165 0.011605302 -0.030999323 -0.007834232 -0.0417836 0.022404265
-0.0023631551 -0.04496788 0.010611136 -0.018731436 0.00028518288 0.045542285 -0.012162171 -0.005944504

bias f4 [64]
00000000: f270 36bd fd4a 4c3d 55c5 01bd ce98 48bb
00000010: 9764 c1bd 46b7 2fbc 8dd2 01bd ba15 21bd
00000020: 590c f13c 363f df3c 0655 3ebd bf18 3bbb
00000030: 00da 64bd f278 50bc b367 1d3d bb3f 8bbc
00000040: 3546 edbb b36d 0fbc 6eb7 64bc 2903 9fbc
00000050: 6e83 e23b 27de bd3c 0342 14bc b98a 463c
00000060: 0de4 09ba a0b6 8fbd c6e9 4ebc a050 83bc
00000070: 7545 29bd 8a25 4738 b83f 733c b97b bfbc
00000080: 994b 03bd c548 8c3c 35db 41bd 6bbc c0bb
00000090: 1980 58bc 9fbc f63b 5abd b23c a9ae 45bc
000000a0: da12 2bbd f481 e3bd 67bb 83bd 805c 1abd
000000b0: d320 fb3b ad3b 99bd b15c f83b 31b6 f0bc
000000c0: bffd 6fbc 5bd6 49bd 260f 55bd f65c 97bd
000000d0: 532e 4dbd 1cc2 343c ff22 f6bc f0db c0bc
000000e0: 4760 c93c 0f75 3abd 1278 b3bc a658 04bd
000000f0: e785 93bc ecec 1fbd 5a9e 81bc 26c6 c2bb
-0.044541307 0.049876202 -0.03168233 -0.0030608657 -0.09443014 -0.010724848 -0.031694937 -0.03932736
0.029424833 0.027251821 -0.046467803 -0.0028548685 -0.055871964 -0.012724148 0.038428973 -0.016998162
-0.0072410353 -0.008754182 -0.013959749 -0.019410687 0.0069126403 0.02317722 -0.009048942 0.012118035
-0.00052601175 -0.07017255 -0.012628978 -0.016029656 -0.041326005 4.748026e-05 0.014846735 -0.023374425
-0.032054517 0.017124543 -0.047328193 -0.005881836 -0.013214135 0.0075298096 0.021818805 -0.012065568
-0.041766025 -0.11108771 -0.064322285 -0.03768587 0.007663825 -0.074820854 0.007579409 -0.02938375
-0.0146479 -0.04927669 -0.0520164 -0.07390778 -0.050093006 0.011032607 -0.030045984 -0.023542374
0.024582041 -0.045521792 -0.02190784 -0.032311104 -0.018008186 -0.039044306 -0.015822578 -0.0059440313

weight f4 [64, 1024]
00000000: 4d5d 24bc f1f8 213d 3a87 353c c481 933c
00000010: a36a 363d 6d00 333d 333e 8a3b ca5a 85bc
00000020: c683 f93b 717e e9bb 4e20 ff3c 802a f7b8
00000030: a516 7ebc 132e 11bb 3515 ebba 05ab 7cbb
00000040: 288c d5bc b593 6cbc ff3b 16bc ea61 1ebc
00000050: a603 e8bc dce6 1abc 3d7e be3c b568 e03b
00000060: d3a9 34bc b66c 0ebd 93dd 86bc bca7 27bd
00000070: 10fe 043d e881 bebc 4742 b6ba ba7f 003b
00000080: 2173 0b3c 7881 ee3c 3dd2 95bc fb35 85bc
00000090: 66b1 3f3c 4cef 46bc 1069 e23b 316a 82bc
000000a0: 4f45 f73b df60 84bc e7b7 223d befd babb
000000b0: 1a68 353c 98f5 063b 44e0 9cbc 2f17 a13c
000000c0: a1af afbc bb5e c5bc 9ba4 ba3c da1e 90bc
000000d0: 1823 d63c 527e 443c efc3 a63b 0b22 63bc
000000e0: d478 343d e5b3 1bbb 249c 9b3c 49b1 a03c
000000f0: fa61 003d 5a27 9a3c 78e6 063d 6b26 213d
00000100: 8cad f0b9 1b8d 3f3d cb74 3fbc 7156 853c
00000110: 3e30 123d 81db d73c 3ec3 223c 29f5 2d3d
00000120: 7ccd c1bc d702 e9ba 65ae 2a3d 4278 143b
00000130: 005c 843b 4079 e0bc c929 223c 9f24 debc
00000140: 309d 34bc 4a66 a13c 6974 323c 583f ed3c
00000150: 65af 8dbc 1a52 153d 9e38 bd3b ac69 5d3c
00000160: 833b c93b 9e36 813c 35db 303c c59b dbbc
00000170: d6b9 8cbc 9a1d f8bb 9859 433c 7b2b df3c
00000180: 87eb a13b 6a2c 083d 0b22 c13b 6ff0 993b
00000190: b148 61bc 74bc 833c e793 f3bc a5e1 45bd
000001a0: 9a7f a23c 85b2 003d b3cf 81bb 96b1 1e3d
000001b0: 3f5f 97bb 547d 083d 19e8 983b a385 4eba
000001c0: e069 0c3c a80e d93b ebc1 283c 0c9c e039
000001d0: ca73 47bc 072a 33bc 8107 b4bb 905a be3c
000001e0: 289d 623c 3d01 7cbc 6f8d 1abb c191 e8bb
000001f0: 3b44 9dbc f536 143d 5887 14bb b8f6 8a3c
00000200: 62e7 973c fcf0 b5bc 37c2 a1bc 6b85 afbc
00000210: 04e5 fc3c 62bf 8539 56a5 a03b a39c 2ebd
00000220: 1a25 f53a fc7a 993c 1d75 85bc e569 e33c
00000230: d19d b1bb 5a63 0cbd c0b5 b8bc 367d 1e3d
00000240: 83d1 e83c 8152 afbb 07ba b93c 22db a7bc
00000250: 8413 fb3a fce1 083b 8c5a 813c 623d 423c
00000260: 72bc 8f3c 20b1 f4ba 74f3 e03b 7ada 1fbc
00000270: e65e a33b 7977 883c 8ad6 6ebc 36de fb3a
00000280: db39 09bc 60ec 15bd 91fc bcbb 560c 88bc
00000290: 4047 ddbc 4425 863b 98e5 f73c 649d 86ba
000002a0: 2697 763c 19b4 b83c 2168 053d 02f9 05ba
000002b0: 7726 503c 27d1 9339 72aa 233d f78e aebc
000002c0: 02ee b43c 75ed 79bc a9f6 aebc 82d4 273c
000002d0: 0e3e 6cbc 72ae 593d e91f d1bc cf80 c43c
000002e0: 0d8d ab3b c57f a03c 0ae8 73bb 6fbe c73c
000002f0: cf3a c63b 1c46 5f3c 75ac 063d 933b a43c
00000300: 45ec 513c e142 323d f243 863c a310 193c
00000310: 879e 223c 8d2a 253c 09dd f93c a202 18bd
00000320: f042 a53c 873d fa3c 40ce 78bc d0d0 b2bc
00000330: 5c6c c43c 9b7a 9ebc e346 c83c fc6e 08bd
00000340: 35b0 f3bc bccd 213c 52c3 993b 1d37 ec3c
00000350: 1f0f 62bc 64f9 433d 040a 903c 1836 a83c
00000360: 71d9 fa3b 3e3d 0ebd 9c45 92bc 4fcb 6f3c
00000370: 7419 b53c 5188 44bc bb1c 5fbc c482 033c
00000380: d4a3 0fbd 4537 6fbc 56a2 eebc 1418 603a
00000390: b0ad 823c 4b1c 483c 0a9b f5bb 107d c8bc
000003a0: e1bf 923c ce74 d63c 4faf 82bc fc82 48bc
000003b0: a29f 7d3b c497 683c bc8c ef39 c00d 803c
000003c0: 75f6 683b 02cd 373c efaf d5ba c722 a6bb
000003d0: 009f 07bb 3dc0 0a3c d0cc e0bc 4eb2 5fbb
000003e0: 11fd b6bc d9ac 58bc 2d2d 5f3c e953 6f3c
000003f0: a99b d23c e185 2b3d 071c 453d a0e5 d0bb
-0.01003201 0.03954405 0.011079604 0.018006213 0.04453529 0.043701578 0.0042188405 -0.016278643
0.0076145856 -0.0071256687 0.031143334 -0.00011785794 -0.015508329 -0.0022152707 -0.0017935397 -0.0038554084
-0.026067808 -0.014439513 -0.009169578 -0.009666899 -0.028322052 -0.009454455 0.023253554 0.0068484196
-0.011026817 -0.034771644 -0.016463077 -0.04093145 0.032468855 -0.023255304 -0.001390525 0.001960738
0.008511336 0.02911447 -0.018288726 -0.016261091 0.01170001 -0.012142014 0.006909497 -0.015919777
0.007546104 -0.016159473 0.039726164 -0.005706518 0.011072183 0.0020593163 -0.019149907 0.019664375
-0.021446051 -0.024093023 0.022783568 -0.017592836 0.02613978 0.011993008 0.005089275 -0.013863097
0.044060543 -0.0023758349 0.018995352 0.019615786 0.031343438 0.018817592 0.032934636 0.03934328
-0.0004590567 0.046765428 -0.01168556 0.01627657 0.03569054 0.026349785 0.009934245 0.04247013
-0.023657553 -0.0017777336 0.04167022 0.0022654687 0.0040392876 -0.027401567 0.009897658 -0.027117072
-0.011023805 0.019702096 0.010892012 0.028960869 -0.017295549 0.03645525 0.0057745716 0.013513964
0.0061411276 0.015773114 0.0107944505 -0.026807675 -0.017178457 -0.007571888 0.011923216 0.027242413
0.004941407 0.03324548 0.005893951 0.0046978514 -0.013750241 0.016081072 -0.029733611 -0.048310895
0.019836236 0.03142025 -0.0039615273 0.038743578 -0.0046195085 0.033322647 0.00466634 -0.000787819
0.008570164 0.0066240616 0.01030014 0.00042840873 -0.012173602 -0.010935313 -0.0054940586 0.023236543
0.013831414 -0.015381155 -0.0023582836 -0.0070974533 -0.019197574 0.036185224 -0.002266368 0.016963348
0.01854295 -0.022209637 -0.01974593 -0.021425923 0.030870922 0.00025510328 0.004902522 -0.04262985
0.0018703074 0.018735401 -0.016291196 0.027760455 -0.0054204245 -0.034274437 -0.022547603 0.03869363
0.028420215 -0.0053504114 0.022671713 -0.020490233 0.0019155596 0.002088665 0.015790246 0.011855455
0.017545912 -0.001866851 0.0068649594 -0.009756679 0.004985678 0.016658532 -0.014577517 0.0019216004
-0.00837561 -0.036602378 -0.005767413 -0.016607445 -0.027011514 0.004093798 0.030260846 -0.0010270295
0.015050685 0.022546815 0.03257001 -0.00051106524 0.012704483 0.00028193856 0.03995747 -0.021308405
0.022086147 -0.015254368 -0.021357851 0.010243537 -0.014419092 0.05314488 -0.025527911 0.023987202
0.0052353204 0.019592175 -0.0037217163 0.024382798 0.006049491 0.013627555 0.03287931 0.020047938
0.012812679 0.043520812 0.01638982 0.009342345 0.009925491 0.010080946 0.030500906 -0.037111886
0.02017352 0.030546917 -0.015185893 -0.021828085 0.023977451 -0.019345572 0.024447864 -0.033308968
-0.029747108 0.009875711 0.0046924734 0.028834874 -0.01379755 0.04784526 0.0175829 0.020533606
0.0076553156 -0.034726374 -0.017855458 0.014635875 0.022106864 -0.011995391 -0.01361769 0.008026782
-0.035068348 -0.01460058 -0.029130142 0.000854851 0.015951961 0.012213777 -0.0074952887 -0.024473697
0.01791376 0.026178744 -0.015952734 -0.01223826 0.0038699885 0.01419634 0.00045690488 0.015631557
0.003554729 0.011218311 -0.0016303043 -0.0050700638 -0.0020694137 0.008468685 -0.027441412 -0.0034133377
-0.022337468 -0.013224804 0.013621611 0.014607408 0.02570899 0.041875724 0.048122432 -0.0063750297

bias f4 [64]
00000000: cb7d b4bb 332b 8b3a d1e4 09bd 2997 a2bb
00000010: 0a83 b73c 7efc 8b3c 0621 cb3b b886 04bd
00000020: 6019 6c3c fc05 26bd abb3 3c3b bcb5 d0ba
00000030: ebd1 ebba 1841 0b3d 71b2 34bc 8a97 d3bb
00000040: b6c8 bc3c 6bf6 873c dff7 67bd 13fb b0ba
00000050: bf21 a83a 32d9 01bc 4497 50bc eb97 1d3d
00000060: cc9e e73c 3f6b 393d b6c8 6e3c 3121 a43c
00000070: a14f 383d 155d e93c d0a3 93bc 67f6 92b9
00000080: d54b 21bd d1ef a73c 0f3d 02bc c5e8 aebc
00000090: abad 96bc 5486 7b3c 5971 2dbd 3863 043c
000000a0: 19a9 36bd e31a 46bc 099a 19bc c642 c43c
000000b0: 4a12 6e3b 7264 653b 3035 223d b5fb dfbc
000000c0: 3e3b 7e3d 7fb4 a73c 105b 37bc e3fe abbc
000000d0: 8e7f 0bbd 1901 3d3b 44b5 053c 1221 4d3c
000000e0: 6b93 513d ff83 acbc d117 44bc 17a1 6d3c
000000f0: 7a31 5fbd 70d8 edba faec 083c ec10 40bd
-0.0055081598 0.0010617733 -0.033665482 -0.0049618674 0.022401351 0.017088171 0.006199005 -0.03235504
0.014410347 -0.04053305 0.0028793614 -0.0015923302 -0.0017991638 0.033997625 -0.011028872 -0.006457274
0.023044925 0.016596993 -0.056632873 -0.001350256 0.001282744 -0.007925319 -0.012731377 0.03847496
0.028273962 0.045268293 0.01457422 0.020035358 0.044997815 0.028486768 -0.018022448 -0.00028030874
-0.03937896 0.020500096 -0.007949128 -0.021351228 -0.018393358 0.015351851 -0.042344425 0.008080296
-0.044594858 -0.012091371 -0.009375104 0.023957621 0.003632682 0.0035002497 0.039601505 -0.027341703
0.062068217 0.02047181 -0.011191145 -0.020995563 -0.034057193 0.0028839766 0.008160893 0.012520092
0.05116598 -0.021059034 -0.011968569 0.014503739 -0.054490544 -0.0018146168 0.008357281 -0.046891138

weight f4 [10, 64]
00000000: 5c7c 2b3d ee1d 903d b11d 9c3d f26b 1fbe
00000010: 293b e4bd 5a27 253e 9259 46be ec24 543e
00000020: 0973 abbd 804b 873c 17eb efbd 820b 2e3d
00000030: 092f 433c fdf6 89bd a270 ecbc 7e48 bfbc
00000040: 1076 1c3d 3fb0 42be e689 cc3c e558 ea3c
00000050: d6e1 71bd 6a76 94bd fd89 0dbc b241 213d
00000060: 5a35 903c 6b43 e1bd 93ac ccbd cb87 f53d
00000070: 9430 52be 57e3 e7bd d5b3 27bd 6615 0b3d
00000080: 0a96 8dbd 0bb7 bc3d 314a 19bc a3cb 5f3e
00000090: c77c 183e 2b29 b93d 598e 573d 7498 77be
000000a0: 70bf 053e 78de 89bd 20c2 14be 59d0 abbd
000000b0: e5ca 623d 00c4 323d 8931 f3bd ea45 0bbe
000000c0: 24fe 45be 6023 aebc d577 f03d 4a6e ff3d
000000d0: f80f 01be f9f8 7bbd 5886 22bd 1fe3 7bbc
000000e0: 60f4 2ebd 1c89 aabc 9adb 88bd da70 a3bd
000000f0: 4751 e53d 2488 5bbe fdb9 b23d cd37 2b3e
00000100: 0472 483e 2562 1ebe 90df 20be 3a0f 3f3e
00000110: 66f3 e2bc d68b bfbd 1101 94bd 4823 cf3d
00000120: a577 0e3e e099 c5bd 798a bbbd 25c3 ebbd
00000130: b40a 2c3c 9e63 36be 56f6 efbd 14f9 4cbd
00000140: 46b5 603c a2bd 46be e8ea 3f3d 1860 063e
00000150: 065e 10be 307c 753e e50a b93d ed37 233e
00000160: 9952 503e 09d6 bb3c ac66 053e 097c dbbd
00000170: 1832 15be 5fdc cd3d db2e abbc 4eae 743d
00000180: 4e23 a7bd 4974 54be a62a d3bd f08a 72be
00000190: 9a18 a73d 8187 473e 9e0d 13be ef4b 44be
000001a0: 7309 e7bd 0210 163e 9c7d 3e3e e7af 123e
000001b0: a21d 39be 7db7 803c b8f7 17bd 59d7 633c
000001c0: 8e42 27be 4853 53bd afb8 583c 1111 32be
000001d0: 00c9 ffbd c446 6c3e 63d1 153e bae4 343e
000001e0: 2a10 7ebe 894d dabd f869 6f3e c40f 4abd
000001f0: b807 48bd 3e20 04bc 62c8 333e ebe2 1fbe
00000200: 8051 0cbe ede6 be3c 1ea4 e4bc 6c0e 9dbd
00000210: 95de 2abe 1759 623e 262a 433d 5dcd d23d
00000220: cf79 72bd a3f0 213d f7b2 993c c718 9cbc
00000230: 0b49 09be 02ff 863d c619 133d 8c2b 223e
00000240: 10f4 b4bd 8c12 82bd 057b 343e 3e08 25be
00000250: f6d7 3f3d 0573 ee3b ff42 dbbc 368c 5fbd
00000260: a8df 8d3d f5bd e9bd c3c4 43be 66b6 36be
00000270: 61fb 083d 6519 7a3d afd0 c5bc fcfd 573d
00000280: 9db6 f3bd ad8e 81bd 14c6 443c c86d 543e
00000290: 3e9e f2bd 8e8f 803c 567f 463d 336e 2b3e
000002a0: c9bd 283e c943 22be 62ae 093e acae cf3d
000002b0: 9848 483e 095d 2fbd a191 86bc c497 eabd
000002c0: 1632 c7bb 9fe3 b1bd 9dab 0dbd f6ed 77bd
000002d0: c3f9 96bd 9d4c e5bd 2da8 bf3d 7cce 32be
000002e0: 65aa 223e 337a 63bb 26ba bebd bba9 03bd
000002f0: d83c 9fbd 298f 123e 4d2a a23d 3d70 b7bd
00000300: 1f65 f23d 55a2 eb3c 0d66 d13d 4df7 303d
00000310: 709d e63d a4d9 843d b4b4 383e 27df 5a3c
00000320: 73d7 dc3c 551b 5c3d fdbe b53d c4fa 01be
00000330: 1238 823d d783 c63d 2b99 663d d4d6 42bd
00000340: be6a edbd 0786 0a3d 5aed 293d ad6e 193e
00000350: dd44 bdbd 4868 4cbe a798 0e3c d4be 21be
00000360: 5353 d33d 29ff 0bbd 5d8a fdbd d4bc 033e
00000370: 87d2 af3c 3d75 06bc 3225 cabd c72b d03d
00000380: 9d50 f5bd 1d49 c93d 2ece 81bd f61c d8bd
00000390: 1aa5 a8bd 9faa 4bbd e178 5ebc 5293 883c
000003a0: e40f 583c 06f1 f7bc 0049 d3bd a4cf bf3d
000003b0: 4c83 be3c d167 7dbc 3271 64bd a963 05be
000003c0: f430 2c3d a064 8f3d 1d1c 35be df3a c0bd
000003d0: 7284 b53d 968d 20bd 3e96 213d cb65 30be
000003e0: a1c6 163e 7188 07be 0749 40be 2a6f f8bd
000003f0: 24fc 66bd 6ae1 003e cd8f 28bd 6bee 383c
0.041866645 0.07036959 0.07622851 -0.15568522 -0.111440964 0.16128293 -0.19370106 0.2071721
-0.083715506 0.016515493 -0.11714762 0.042491443 0.0119130695 -0.067365624 -0.028862301 -0.023349997
0.03819853 -0.19012545 0.024968099 0.028606841 -0.059053265 -0.07249148 -0.008638856 0.039369293
0.017603565 -0.10999187 -0.099938534 0.11988791 -0.20526344 -0.113226585 -0.040942986 0.033955954
-0.06913383 0.092146 -0.0093560675 0.21855025 0.14891349 0.09041055 0.052625988 -0.2417925
0.13061309 -0.06731886 -0.14527178 -0.083893485 0.055369277 0.04364395 -0.118746825 -0.13600889
-0.19335228 -0.021257102 0.11741606 0.12472208 -0.12603748 -0.061516736 -0.0396789 -0.015373974
-0.042713523 -0.020817332 -0.06682511 -0.07980509 0.11197143 -0.21438652 0.08726881 0.16720505
0.19574744 -0.15467127 -0.15710282 0.18658152 -0.027703952 -0.093528435 -0.07226766 0.10114151
0.13912828 -0.0964849 -0.09157271 -0.1151183 0.010500599 -0.17811438 -0.11716907 -0.050042227
0.013715094 -0.19408277 0.046854883 0.13122594 -0.14098367 0.23973155 0.09035281 0.15939303
0.20344009 0.022929208 0.13027447 -0.10717017 -0.1456989 0.10051798 -0.020896366 0.059736542
-0.08161031 -0.20747484 -0.10310869 -0.23685813 0.08158989 0.19485284 -0.14360663 -0.19169591
-0.11281099 0.14654544 0.18602604 0.14324914 -0.1807771 0.015712494 -0.037101477 0.013906323
-0.16333982 -0.051593095 0.013227626 -0.17389323 -0.124895096 0.2307387 0.14630656 0.17665377
-0.24810854 -0.1065932 0.23380268 -0.04933144 -0.048835486 -0.008064328 0.17556909 -0.15613906
-0.13702965 0.023303473 -0.027910288 -0.076687664 -0.16686471 0.22104298 0.047647618 0.10293076
-0.059198197 0.03953613 0.018762095 -0.019054784 -0.1340677 0.06591608 0.03591325 0.15836924
-0.08835614 -0.06351194 0.17625053 -0.16116425 0.046836816 0.007276895 -0.026765345 -0.054577075
0.06927425 -0.114131846 -0.19118027 -0.17843017 0.03344286 0.061059374 -0.02414736 0.052732453
-0.11900065 -0.06326041 0.012010116 0.20745003 -0.118465886 0.015693452 0.04846128 0.16741256
0.16478647 -0.1584617 0.13445428 0.10140738 0.19558942 -0.042813335 -0.016426863 -0.11454728
-0.0060789688 -0.086859934 -0.03458749 -0.06052967 -0.07371857 -0.111962534 0.09358249 -0.1746158
0.15885313 -0.0034710288 -0.09312849 -0.03214429 -0.07775277 0.14312424 0.079182245 -0.08956955
0.118356936 0.02876393 0.10224543 0.043204594 0.112604976 0.06486824 0.18037683 0.013358868
0.026958203 0.053737003 0.08874319 -0.12693316 0.06358351 0.09693115 0.056298416 -0.047568157
-0.11592625 0.033819225 0.04148612 0.14983626 -0.0924165 -0.19961655 0.008703387 -0.15795451
0.10318627 -0.034178887 -0.12379906 0.12865001 0.021462692 -0.008206663 -0.09870376 0.101646
-0.119782664 0.098283984 -0.06338154 -0.10552399 -0.082346156 -0.049723264 -0.013578624 0.01667181
0.013187382 -0.030266296 -0.10316658 0.09365776 0.023255967 -0.015466646 -0.055772014 -0.13026299
0.042038873 0.070016146 -0.17686506 -0.09386229 0.088631526 -0.039197527 0.039449923 -0.17226331
0.14724208 -0.13235642 -0.18777858 -0.12130578 -0.056392804 0.12585989 -0.041152764 0.011287312

bias f4 [10]
00000000: a9a3 6cbe ecde 54bd b334 ef3d c099 e63d
00000010: 8661 0f3e f65d 0dbe fdba dd3d 0410 a03d
00000020: 623e acbd 0290 da3c
-0.23109306 -0.051970407 0.116799735 0.11259794 0.14002046 -0.13805375 0.10826681 0.07815555
-0.08410336 0.026679996
