Pytorch/model_data/CIFAR10_EPOCH21.pth (torch, 588839 bytes, 10 tensors)

weight f4 [32, 3, 5, 5]
-0.018893225 -0.04574687 -0.044549637 -0.12246771 -0.04128736 -0.16147321 -0.13874437 0.10934563
-0.04572294 -0.117265835 -0.14377843 -0.07350727 0.15008226 0.10704265 -0.19830607 0.075037576
-0.11531527 0.10091683 0.15287334 -0.16233885 0.05172828 -0.03563779 0.16089997 0.12985098
-0.14131603 -0.11088567 0.04337244 0.117791325 -0.055597898 -0.18159927 -0.06373581 0.081354976
-0.07451521 0.06824534 -0.20181072 -0.034475442 -0.042847306 0.085748516 0.12269941 0.02130914
0.048182137 -0.10480846 0.043545906 0.16626395 -0.008245443 0.03652564 0.10324962 0.20646659
0.18018839 0.021092653 -0.06433274 -0.06984408 -0.11764554 -0.06137078 -0.20095827 -0.01477362
0.03662715 -0.009470856 0.057968326 -0.1909199 0.06723266 0.05456349 0.026374629 0.106551945
-0.15412852 0.010278172 0.04404005 0.18062294 -0.004235974 -0.15918985 0.06564385 0.027617492
0.18016921 0.17298573 0.07647751 0.06132687 0.11110538 0.17147392 0.06552025 -0.049977336
3.6586258e-05 0.08606732 0.0043524154 -0.19288704 -0.13538647 0.13688909 -0.17312975 -0.008649614
-0.15470532 0.11672071 0.018028775 -0.032295283 0.011785431 0.1445031 -0.03570621 0.018310964
0.023400363 0.036612783 0.090618476 -0.011338293 0.061004292 0.122636795 0.106018506 0.040884543
-0.20216544 0.1329046 0.0341484 0.0064126602 -0.23345622 -0.19733787 -0.060933765 -0.17454123
-0.08050574 0.019397609 -0.0986129 -0.034305144 -0.037866164 0.0088972775 0.009383316 0.017791186
-0.045180984 0.052641813 0.1094453 -0.0039572753 -0.07026417 -0.007281395 0.08383036 0.17562032
-0.07473483 0.017996691 0.055306226 0.0017343503 -0.089819066 -0.1638197 0.076186225 0.039386135
-0.020201975 -0.049544953 0.02709656 0.116503395 -0.05630011 -0.088961564 0.12089021 0.08649766
0.07357416 -0.08320939 -0.068788484 0.14118218 -0.08211799 0.0058013797 0.14313722 0.045119997
-0.10551454 -0.019855708 -0.11621731 -0.010651331 0.01616047 -0.20901652 -0.20044085 -0.14202766
-0.1490745 0.026379919 -0.016686393 -0.092076994 -0.060903285 -0.19623394 -0.10136286 -0.12981182
-0.10725176 -0.15813598 0.03203708 -0.20817368 -0.24796827 -0.19805989 -0.16040471 -0.009329163
-0.113057114 0.06501602 0.05698855 0.05741562 0.04412446 -0.05334325 0.007501935 0.024903627
-0.0985143 -9.278386e-05 -0.03174659 0.10108633 0.14416893 -0.01503595 -0.09129337 0.18376076
0.16613741 0.09830222 0.009206323 0.08751638 -0.06981222 -0.16252653 -0.084766194 -0.052351207
-0.12112714 -0.03393449 0.114303805 0.052163035 0.11691309 -0.07135519 -0.0021530674 0.10516023
-0.046749912 0.14685032 0.07457821 0.11434832 0.11383568 0.25963688 0.20564465 0.04419821
0.23512305 0.28684536 0.18906467 0.1553614 0.092606425 0.041953396 -0.08600622 0.09121592
0.113802984 0.079179615 0.014250873 -0.045311227 0.040573 -0.10936317 0.06184632 -0.06847345
0.04531415 0.09308377 0.0145697165 0.088422306 -0.11166317 -0.019316416 -0.027266087 0.122127086
0.056117166 0.0411447 0.032165624 0.16905323 0.08560594 -0.027493907 -0.12830892 -0.11530132
0.1759435 -0.036898352 0.013425919 0.03613887 -0.090646654 0.1261319 -0.06889348 -0.011033928
00000000: f7c5 9abc 1261 3bbd ae79 36bd 5ad0 fabd
00000010: ef1c 29bd 3c59 25be 0113 0ebe 9af0 df3d
00000020: fa47 3bbd 1229 f0bd a73a 13be fb8a 96bd
00000030: 2aaf 193e 2d39 db3d bf10 4bbe 4dad 993d
00000040: 6a2a ecbd 7cad ce3d d48a 1c3e 283c 26be
00000050: 08e1 533d eef8 11bd f6c2 243e a8f7 043e
00000060: 26b5 10be 0718 e3bd 4da7 313d 943c f13d
00000070: 9fba 63bd 29f5 39be ec87 82bd 709d a63d
00000080: 6e9b 98bd 36c4 8b3d 78a7 4ebe 1f36 0dbd
00000090: a880 2fbd eb9c af3d d449 fb3d 8190 ae3c
000000a0: a25a 453d d1a5 d6bd 315d 323d 1941 2a3e
000000b0: e517 07bc e99b 153d 8974 d33d fa6b 533e
000000c0: 4e83 383e 80ca ac3c e2c0 83bd 6a0a 8fbd
000000d0: 25f0 f0bd ed5f 7bbd 01c8 4dbe 0e0d 72bc
000000e0: 5a06 163d a62b 1bbc 3270 6d3d 8280 43be
000000f0: 47b1 893d f77d 5f3d 9b0f d83c e837 da3d
00000100: ded3 1dbe c765 283c 5763 343d 38f5 383e
00000110: edcd 8abb aa02 23be 4870 863d 143e e23c
00000120: 477e 383e 2c23 313e 3ea0 9c3d e231 7b3d
00000130: 388b e33d dc96 2f3e 7b2f 863d 09b5 4cbd
00000140: 3274 1938 1044 b03d b59e 8e3b 2e84 45be
00000150: c0a2 0abe a72c 0c3e ed48 31be 1cb7 0dbc
00000160: 126b 1ebe 450b ef3d 15b1 933c 0f48 04bd
00000170: ae17 413c 9ff8 133e ad40 12bd e000 963c
00000180: 1eb2 bf3c 49f7 153d 2e96 b93d 3fc4 39bc
00000190: a3df 793d 0029 fb3d 3b20 d93d 8d76 273d
000001a0: 7504 4fbe 2518 083e 31df 0b3d 4b21 d23b
000001b0: 260f 6fbe f012 4abe af95 79bd f0ba 32be
000001c0: 32e0 a4bd bce7 9e3c 8ff5 c9bd 8d83 0cbd
000001d0: 8d19 1bbd e3c5 113c 7bbc 193c d2be 913c
000001e0: b20f 39bd f19e 573d dc24 e03d 08ac 81bb
000001f0: a9e6 8fbd c598 eebb 40af ab3d d0d5 333e
00000200: 930e 99bd cc6d 933c c888 623d 2453 e33a
00000210: 0ff3 b7bd 5ac0 27be 8607 9c3d 5b53 213d
00000220: 9d7e a5bc a6ef 4abd 9bf9 dd3c 5599 ee3d
00000230: f29a 66bd 7b31 b6bd 4995 f73d af25 b13d
00000240: 0dae 963d af69 aabd fae0 8cbd 1092 103e
00000250: 7a2d a8bd 8019 be3b 9092 123e bfcf 383d
00000260: 0218 d8bd 70a8 a2bc 5703 eebd ec82 2ebc
00000270: f662 843c 6d08 56be 5e40 4dbe b36f 11be
00000280: fca6 18be b31a d83c e7b1 88bc dd92 bcbd
00000290: b975 79bd 8df1 48be 5597 cfbd 64ed 04be
000002a0: d0a6 dbbd 66ee 21be 5039 033d 7b2b 55be
000002b0: 65eb 7dbe 36d0 4abe 2241 24be 58d9 18bc
000002c0: 7d8a e7bd 1e27 853d d36c 693d a42c 6b3d
000002d0: dabb 343d 747e 5abd cbd2 f53b b102 cc3c
000002e0: dec1 c9bd f594 c2b8 b608 02bd 5a06 cf3d
000002f0: 05a1 133e 5859 76bc 05f8 babd c82b 3c3e
00000300: ed1f 2a3e ad52 c93d 1ed6 163c ca3b b33d
00000310: b6f9 8ebd 5b6d 26be e699 adbd 386e 56bd
00000320: 8211 f8bd e4fe 0abd 1d18 ea3d e8a8 553d
00000330: 2170 ef3d ab22 92bd 7a1a 0dbb 3f5e d73d
00000340: d67c 3fbd ee5f 163e 76bc 983d 742f ea3d
00000350: ae22 e93d 20ef 843e 8394 523e 2f09 353d
00000360: 19c4 703e 65dd 923e 2b9a 413e 0f17 1f3e
00000370: 70a8 bd3d 53d7 2b3d 0724 b0bd 6acf ba3d
00000380: 8a11 e93d ec28 a23d 7e7c 693c 4498 39bd
00000390: e02f 263d ccf9 dfbd 9152 7d3d cf3b 8cbd
000003a0: 559b 393d b4a2 be3d d2b5 6e3c c116 b53d
000003b0: a9af e4bd 763d 9ebc 215d dfbc c41d fa3d
000003c0: 1ddb 653d 5887 283d 1ac0 033d 4a1c 2d3e
000003d0: 2b52 af3d e73a e1bc 6a63 03be 1923 ecbd
000003e0: 882a 343e ba22 17bd 63f8 5b3c 5a06 143d
000003f0: f4a4 b9bd b928 013e 0618 8dbd a6c7 34bc

bias f4 [32]
-0.17248696 -0.030715328 0.037853654 -0.11224499 -0.017279528 0.1781243 -0.3441465 -0.39346752
-0.10222591 -0.017058846 0.112457804 -0.07376142 -0.08505526 -0.10082602 -0.012579041 -0.091116086
0.00074802234 -0.36043343 -0.034670338 -0.077454105 -0.007514745 0.06439953 0.067506365 0.14649682
-0.31069282 -0.0017732305 -0.1731346 0.2759193 -0.27258816 0.040482003 -0.10208064 0.09985033
00000000: 6ca0 30be b69e fbbc 6f0c 1b3d b4e0 e5bd
00000010: cc8d 8dbc 3766 363e f833 b0be 9374 c9be
00000020: d15b d1bd febe 8bbc 4750 e63d 3a10 97bd
00000030: 7431 aebd df7d cebd 5218 4ebc 129b babd
00000040: ee16 443a bb8a b8be 7c02 0ebd 42a0 9ebd
00000050: 403e f6bb e7e3 833d c740 8a3d 4303 163e
00000060: 2113 9fbe be6b e8ba 324a 31be 4b45 8d3e
00000070: ad90 8bbe 75d0 253d a80f d1bd 547e cc3d

weight f4 [32, 32, 5, 5]
-0.0017421255 -0.017345535 -0.027968802 -0.011780984 -0.031395033 0.03553979 0.0060459105 0.030669594
0.03282417 0.02232881 0.025719535 0.008482346 -0.022601815 0.003911448 0.036452238 -0.0018825099
-0.017330825 -0.06014816 -0.036528993 -0.022497512 0.032216847 0.025363073 0.026362289 0.024074655
0.006761424 -0.037505496 0.010139603 -0.019054275 0.027362034 -0.011901974 -0.022233466 0.02361083
0.016023647 0.010777249 -0.026363311 0.045309715 -0.012102053 0.0076990454 0.011921196 0.029759197
0.018467134 0.042649243 -0.006476797 0.019123308 0.029027374 4.1193507e-05 0.068014316 0.052686825
0.042091496 -0.020580104 0.031994246 0.042299658 0.008987375 0.02745733 0.037496258 0.009638355
-0.012719198 -0.030995201 0.009042724 0.011264734 -0.047566447 -0.011878111 0.017554857 0.004751336
-0.034083918 0.0029736103 0.0035030628 -0.04718712 -0.0010546198 0.011081449 -0.047706112 0.0010036416
-0.012045609 -0.009420652 0.033405762 -0.0074974564 0.023916926 -0.02262256 0.0065539163 -0.021109652
0.012979446 -0.01299421 -0.008365309 -0.005065863 0.0016090273 0.013792909 0.0038903514 0.029205237
0.012542178 0.008988024 -0.00022969682 0.036897548 0.03700701 0.025933325 0.021174314 0.01200592
0.021472 -0.017980017 0.009436578 0.033665013 0.03082584 -0.018009923 -0.029464938 -0.0033149696
-0.005067134 -0.020887243 -0.02641468 -0.0231275 -0.057554312 -0.010789797 -0.004283549 -0.0338307
-0.03260823 -0.0009423799 -0.010928153 -0.02532137 0.03294712 0.03344106 0.013712815 -0.008702129
0.009427245 0.006551302 0.016104745 -0.020471163 0.002397533 0.02246176 0.0012272913 0.017297884
0.059166387 -0.019629184 0.024958586 0.026439192 0.050709315 0.028208949 0.002690367 0.02411414
0.061162464 -0.017981963 -0.02228081 -0.009941268 0.07490338 -0.0061737807 -0.047004595 -0.031467393
0.032332677 0.0056538307 -0.06259837 0.023367167 0.07437682 0.0025938174 0.0092826355 0.048155695
0.03585076 0.012858994 0.05099271 0.015547565 0.03542439 0.037502054 -0.007391536 0.017194072
0.00063485577 0.00860029 0.011372776 0.012982905 -0.011435831 0.022077058 0.0074250875 0.052828345
0.007002811 0.0020353878 -0.0064524193 0.035142343 0.03368946 -0.024300609 0.04091203 -0.029886954
-0.036436364 -0.02736661 0.029498687 -0.0398534 -0.016990528 -0.0017657955 -0.008016131 0.026693413
-0.029664906 -0.0041634375 -0.0013145371 0.049849268 0.04337711 0.06100877 0.03960809 0.032664612
0.06708619 0.07461 0.06284141 0.06118076 0.08321416 0.045836248 0.04351275 0.058374066
0.010529966 0.030302366 0.009096811 -0.036396228 -0.011640867 0.014673059 8.829484e-05 -0.031536665
-0.05967958 0.001710302 -0.0075990832 -0.021160936 -0.035120316 -0.050632875 -0.04423008 -0.021584854
0.036063865 0.011241278 0.07149618 -0.008253304 -0.041230552 0.037219044 0.015983995 4.5948593e-05
-0.0014225327 0.009897453 -0.013953553 -0.04050423 -0.040373597 0.0078066136 0.025569998 0.0028598874
0.017380327 -0.025553914 -0.018190965 0.0020143008 0.03244718 0.011025041 0.01610752 0.046694756
-0.013048586 0.022735026 0.02052555 0.07087493 0.051870808 0.034333024 0.021076664 0.02374083
0.057902616 0.04531721 0.009096785 -0.020778956 -0.021107722 -0.013373643 -0.042308312 0.060193766
00000000: 0858 e4ba 3918 8ebc d41e e5bc 0705 41bc
00000010: 1498 00bd 2c92 113d c61c c63b cd3e fb3c
00000020: a372 063d e9ea b63c c6b1 d23c 8af9 0a3c
00000030: 7127 b9bc 9b2b 803b f14e 153d 8dbe f6ba
00000040: 60f9 8dbc eb5d 76bd 6d9f 15bd b44c b8bc
00000050: d0f5 033d 38c6 cf3c baf5 d73c 3638 c53c
00000060: ef8e dd3b 5d9f 19bd 9420 263c b617 9cbc
00000070: 5826 e03c 7f00 43bc f522 b6bc 806b c13c
00000080: 0644 833c 0f93 303c dff7 d7bc ae96 393d
00000090: b047 46bc 4648 fc3b 1f51 433c 8fc9 f33c
000000a0: 6348 973c f9b0 2e3d 503b d4bb 7ca8 9c3c
000000b0: d1ca ed3c 31c7 2c38 174b 8b3d 24ce 573d
000000c0: 2268 2c3d 9b97 a8bc 660c 033d 6842 2d3d
000000d0: c83f 133c 32ee e03c ad95 193d 31ea 1d3c
000000e0: 2f64 50bc a6e9 fdbc ef27 143c b88f 383c
000000f0: 09d5 42bd 699c 42bc 34cf 8f3c 18b1 9b3b
00000100: 949b 0bbd e7e0 423b a493 653b 4847 41bd
00000110: 2b3b 8aba f78e 353c 7c67 43bd a08c 833a
00000120: f25a 45bc 1459 1abc 7bd4 083d 39ad f5bb
00000130: 6eed c33c f252 b9bc 3cc2 d63b 26ee acbc
00000140: bea7 543c abe5 54bc a60e 09bc 8aff a5bb
00000150: ffe5 d23a a7fb 613c 44f5 7e3b d23f ef3c
00000160: b57d 4d3c 8142 133c c5da 70b9 e221 173d
00000170: aa94 173d 2072 d43c c175 ad3c 7ab4 443c
00000180: 0ce6 af3c d44a 93bc e09b 1a3c 53e4 093d
00000190: 7986 fc3c 8c89 93bc 7460 f1bc f63f 59bb
000001a0: 330a a6bb b91b abbc 9963 d8bc e275 bdbc
000001b0: 12be 6bbd b0c7 30bc 035d 8cbb 0f92 0abd
000001c0: 3590 05bd 0b0a 77ba ff0b 33bc c36e cfbc
000001d0: 8ff3 063d 7ef9 083d b7ab 603c 6093 0ebc
000001e0: bb74 1a3c 4eac d63b 19ee 833c 24b3 a7bc
000001f0: ee1f 1d3b ba01 b83c 10dd a03a 4bb4 8d3c
00000200: 7458 723d 62cd a0bc f375 cc3c 0197 d83c
00000210: 92b4 4f3d 7416 e73c de50 303b 048b c53c
00000220: 7e85 7a3d e94e 93bc 3f86 b6bc b3e0 22bc
00000230: f166 993d 6d4d cabb e487 40bd f4e3 00bd
00000240: 456f 043d c543 b93b 9333 80bd 806c bf3c
00000250: e052 983d 09fd 293b 3216 183c e83e 453d
00000260: 3fd8 123d 88ae 523c bbdd 503d 37bb 7e3c
00000270: 2a19 113d c19b 193d b334 f2bb 95da 8c3c
00000280: 736c 263a 3be8 0c3c e154 3a3c 40b6 543c
00000290: 5a5d 3bbc f2da b43c 264e f33b 8962 583d
000002a0: d677 e53b 2464 053b d16e d3bb 6bf1 0f3d
000002b0: f6fd 093d 1212 c7bc 5f93 273d 7cd5 f4bc
000002c0: 4c3e 15bd f12f e0bc 3ba7 f13c 523d 23bd
000002d0: b82f 8bbc 4472 e7ba 1756 03bc 25ac da3c
000002e0: d103 f3bc 726d 88bb 8c4c acba bf2e 4c3d
000002f0: 32ac 313d 55e4 793d 183c 223d 54cb 053d
00000300: 7c64 893d 21cd 983d ffb2 803d ad98 7a3d
00000310: 2f6c aa3d cabe 3b3d 6d3a 323d a519 6f3d
00000320: e185 2c3c ab3c f83c ca0a 153c 3614 15bd
00000330: 56b9 3ebc 4567 703c ee2a b938 972c 01bd
00000340: 9372 74bd 362c e03a bb01 f9bb b359 adbc
00000350: 52da 0fbd 6b64 4fbd 9a2a 35bd b8d2 b0bc
00000360: b4b7 133d 562d 383c 976c 923d de38 07bc
00000370: 5ee1 28bd ff72 183d def0 823c edb8 4038
00000380: 4774 baba ed28 223c 719d 64bc c3e7 25bd
00000390: c95e 25bd 9fce ff3b 2c78 d13c f36c 3b3b
000003a0: 3061 8e3c 7156 d1bc 3805 95bc 5c02 043b
000003b0: 56e7 043d 60a2 343c ebf3 833c 0043 3f3d
000003c0: bdc9 55bc ce3e ba3c 3325 a83c e026 913d
000003d0: 7c76 543d c9a0 0c3d f8a8 ac3c 217c c23c
000003e0: 4b2b 6d3d 8a9e 393d af0a 153c a138 aabc
000003f0: 1aea acbc 201d 5bbc 7b4b 2dbd bd8d 763d

bias f4 [32]
-0.027543325 0.025964295 -0.13947608 -0.07302449 0.021259703 -0.0029157156 0.025823735 0.018986218
-0.16763169 -0.07590568 -0.2499195 -0.07056046 0.12629424 -0.057929702 -0.16346571 -0.04972269
-0.051941726 0.009830315 -0.14330196 -0.15307881 -0.12021531 0.017152451 -0.05591607 0.051228203
-0.0373285 -0.043202005 -0.053327978 -0.1222229 -0.14880614 -0.034837864 -0.122096896 -0.13516898
00000000: 8aa2 e1bc 13b3 d43c d1d2 0ebe dd8d 95bd
00000010: d428 ae3c 9715 3fbb 4c8c d33c fc88 9b3c
00000020: a4a7 2bbe 7074 9bbd e6ea 7fbe 0182 90bd
00000030: 4753 013e b247 6dbd 8e63 27be 05aa 4bbd
00000040: d9c0 54bd 540f 213c c0bd 12be b1c0 1cbe
00000050: 7233 f6bd 4c83 8c3c 4008 65bd aad4 513d
00000060: c5e5 18bd 96f4 30bd 706e 5abd 0050 fabd
00000070: a360 18be 26b2 0ebd f00d fabd bd69 0abe

weight f4 [64, 32, 5, 5]
-0.041070245 0.018681465 0.019840304 0.015663538 0.033373524 0.0012283061 0.01876416 -0.019447533
-0.029485554 -0.0103147775 -0.021807881 0.0042951587 0.022666119 -0.019046964 0.0073004737 -0.028034035
0.01445863 -0.030282581 0.024280047 -0.0074196453 0.025915101 0.04733371 -0.0030975463 -0.016304346
-0.031950936 0.010081572 -0.06606283 0.031402197 0.020892428 -0.0036380906 0.018653568 -0.0067897807
-0.0032710652 0.0075274464 -0.020809818 -0.009251048 -0.0011244887 0.019211376 0.0065770596 -0.03235666
0.017923977 -0.021803236 -0.016509937 0.018168565 -0.008361737 -0.031415623 -0.00052114006 -0.031795613
0.05106116 0.02511855 -0.023970857 0.0037645912 0.017686738 -0.04834769 -0.00038462188 -0.06149804
-0.066766575 -0.0017996359 0.0071668606 -0.023331817 -0.03975987 -0.015690466 -0.0046470566 0.038571894
0.03137599 -0.071788676 0.033414822 0.020285293 0.03863778 0.04095941 -0.011517787 0.010932499
0.059167203 0.060861845 0.0714488 -0.040338002 -0.008803251 -0.0048752488 -0.022737226 0.037441388
0.008622917 -0.031609405 0.011165652 0.053062864 0.009813957 -0.0010932931 0.0048404518 -0.013161463
-0.052114904 -0.049697503 0.021103675 -0.0040365006 0.012107921 -0.027867043 -0.05285043 0.003480597
-0.032760452 -0.041905932 -0.012783397 -0.041173078 0.00020778795 0.0006908027 0.011523593 0.014701484
-0.031717982 -0.03398882 0.048944775 0.044890087 -0.0037080874 0.026136266 -0.025720071 -0.021577235
0.0011765686 0.036761045 0.0047091916 -0.009797166 -0.010976001 -0.007248761 -0.0061832936 -0.02862702
-0.019369265 -0.014783597 -0.019620944 -0.03783389 -0.004327733 -0.012099072 0.023785932 -0.039198305
-0.027610326 0.029943591 -0.025782688 -0.0020713082 -0.05583507 -0.016687779 -0.02177287 -0.035361767
0.013391534 -0.031571377 -0.026485823 -0.03742694 0.0016158916 0.014544315 -0.033102423 -0.039336737
-0.026831932 -0.01742724 -0.036496863 -0.03584886 -0.020868545 0.0031371515 -0.027315814 0.013639519
0.007734954 0.0007195676 0.0022167522 -0.04037607 0.021611411 0.035592236 0.0037726157 -0.02242798
-0.037903994 -0.0027064816 -0.030184735 -0.005954505 -0.030142864 -0.030995114 0.008355462 0.016316721
0.007009971 0.04247986 0.033161853 -0.0016129696 0.0059534097 -0.019959431 -0.012941604 -0.011718072
-0.014113547 0.02119663 -0.018843736 -0.023103414 0.032451417 0.035945725 0.028701192 0.018654905
0.026731696 0.00055548846 0.027708877 0.012423994 0.0080615245 -0.018254243 0.0024953445 0.042398527
0.04448392 0.035887897 -0.009832299 -0.031028613 0.007577072 0.038011882 0.007883616 -0.014830993
0.016021408 0.015993735 -0.020537084 -0.010446703 -0.0026488302 -0.016503667 -0.008972714 -0.01662934
-0.016548969 0.022178555 -0.045370758 -0.0247003 -0.032949127 0.007980541 -0.019585766 -0.034579292
0.015276547 0.0041759564 -0.010818365 0.035416868 -0.06212108 0.027066225 -0.0075380453 -0.011359727
-0.014587376 0.0025745772 -0.0343709 -0.002818799 -0.0061680344 0.00034912126 -0.016618138 0.0070091602
-0.013348509 -0.04846504 -0.0034008713 0.029912813 -0.03654642 -0.01648209 -0.042101696 4.3095664e-05
0.01902133 -0.05209304 0.011847499 -0.007845346 -0.013929098 -0.001903724 -0.052781563 -0.002092129
0.0004544905 -0.06184792 -0.0213623 -0.053584155 -0.029146438 0.033320807 0.0028817318 -0.028205222
00000000: 4639 28bd df09 993c 2288 a23c d250 803c
00000010: adb2 083d 1dff a03a 4cb7 993c 6f50 9fbc
00000020: b08b f1bc 50ff 28bc 71a6 b2bc 67be 8c3b
00000030: 4cae b93c 6108 9cbc d038 ef3b a2a7 e5bc
00000040: e4e3 6c3c 2d13 f8bc f3e6 c63c 7f20 f3bb
00000050: e84b d43c fee0 413d 3400 4bbb b190 85bc
00000060: fcde 02bd 2e2d 253c f34b 87bd 979f 003d
00000070: 9926 ab3c 086d 6ebb 5ecf 983c cf7c debb
00000080: 5e5f 56bb cca8 f63b 5a79 aabc b591 17bc
00000090: 9463 93ba 2d61 9d3c 6084 d73b 6b88 04bd
000000a0: 4ed5 923c b39c b2bc d93f 87bc 3ed6 943c
000000b0: abff 08bc abad 00bd 1e9d 08ba 1e3c 02bd
000000c0: 8225 513d 6bc5 cd3c 885e c4bc 5cb7 763b
000000d0: c7e3 903c 3a08 46bd 13a7 c9b9 5ee5 7bbd
000000e0: eabc 88bd c3e1 ebba fcd7 ea3b 5e22 bfbc
000000f0: 3fdb 22bd 4b89 80bc 5646 98bb 90fd 1d3d
00000100: 1c84 003d f105 93bd fbdd 083d 582d a63c
00000110: a642 1e3d 0ec5 273d 1ab5 3cbc 391e 333c
00000120: 4f59 723d 454a 793d c053 923d 7639 25bd
00000130: 833b 10bc 8dc0 9fbb 6b43 babc 245c 193d
00000140: 2347 0d3c dd78 01bd 24f0 363c 7258 593d
00000150: b8ca 203c d44c 8fba a79c 9e3b 2da3 57bc
00000160: 7076 55bd 9c8f 4bbd 9de1 ac3c 9f44 84bb
00000170: 4d60 463c 6d49 e4bc b179 58bd ba1a 643b
00000180: d32f 06bd 8ea5 2bbd 7471 51bc 1aa5 28bd
00000190: a7e1 5939 fc16 353a 74cd 3c3c 7ede 703c
000001a0: b7ea 01bd dc37 0bbd 517a 483d abde 373d
000001b0: 6203 73bb b91b d63c e6b2 d2bc bec2 b0bc
000001c0: 1737 9a3a c092 163d 904f 9a3b 4b84 20bc
000001d0: afd4 33bc 0487 edbb 3a9d cabb 3683 eabc
000001e0: 4bac 9ebc e636 72bc 1abc a0bc b6f7 1abd
000001f0: a8cf 8dbb 303b 46bc b7da c23c 678e 20bd
00000200: 0d2f e2bc 434c f53c 3736 d3bc c9be 07bb
00000210: 50b3 64bd cfb4 88bc 055d b2bc 80d7 10bd
00000220: 2a68 5b3c fd50 01bd ccf8 d8bc fe4c 19bd
00000230: 53cc d33a 474b 6e3c 6896 07bd 8f1f 21bd
00000240: a4ce dbbc 92c3 8ebc bc7d 15bd 41d6 12bd
00000250: 83f4 aabc ab98 4d3b 6ac5 dfbc 4a78 5f3c
00000260: 7f75 fd3b 5da1 3c3a ee46 113b 6161 25bd
00000270: 6a0a b13c 2ac9 113d fd3d 773b e2ba b7bc
00000280: 3841 1bbd 3a5f 31bb fa45 f7bc 021e c3bb
00000290: 2bee f6bc 77e9 fdbc 59e5 083c a5aa 853c
000002a0: e6b3 e53b 5dff 2d3d b9d4 073d 476a d3ba
000002b0: d214 c33b f681 a3bc 0509 54bc 28fd 3fbc
000002c0: 823c 67bc 8ea4 ad3c 2e5e 9abc 5f43 bdbc
000002d0: c7eb 043d d33b 133d c31e eb3c 2cd2 983c
000002e0: 6efc da3c 339e 113a bafd e23c 028e 4b3c
000002f0: 7c14 043c ec89 95bc ef88 233b 14aa 2d3d
00000300: c534 363d 30ff 123d a717 21bc b82f febc
00000310: 1649 f83b 59b2 1b3d 482a 013c b1fd 72bc
00000320: 543f 833c 4b05 833c 633d a8bc a628 2bbc
00000330: ff97 2dbb b332 87bc 4a02 13bc 413a 88bc
00000340: b491 87bc cdaf b53c b0d6 39bd 4958 cabc
00000350: aaf5 06bd d1c0 023c 5472 a0bc 04a3 0dbd
00000360: 7b4a 7a3c 76d6 883b 833f 31bc 4711 113d
00000370: ac72 7ebd fdb9 dd3c b501 f7bb 261e 3abc
00000380: e4ff 6ebc 3dba 283b 80c8 0cbd 9abb 38bb
00000390: 391d cabb 430a b739 c322 88bc 19ad e53b
000003a0: b4b3 5abc 4783 46bd 27e1 5ebb b70b f53c
000003b0: b3b1 15bd 7305 87bc d472 2cbd 9ec1 3438
000003c0: 9fd2 9b3c 835f 55bd 031c 423c c489 00bc
000003d0: df36 64bc 6186 f9ba 7b31 58bd 1a1c 09bb
000003e0: af48 ee39 3f54 7dbd fdff aebc 0f7b 5bbd
000003f0: 83c4 eebc 667b 083d 70db 3c3b a30e e7bc

bias f4 [64]
-0.09748222 0.021022351 -0.067445554 -0.025474697 -0.15709373 -0.05630001 -0.06814581 -0.06361256
-0.008201096 0.0076279193 -0.07926278 -0.04770799 -0.08969778 -0.06556313 0.032799024 -0.046052273
-0.055862173 -0.04604739 -0.047096696 -0.04572392 -0.03283565 -0.0033979926 -0.015393908 -0.01996839
-0.015673 -0.10239382 -0.037443474 -0.049672734 -0.0816533 -0.042625442 0.0061598397 -0.057235394
-0.05650431 -0.002303814 -0.08284342 -0.036242716 -0.04314624 -0.029515108 -0.00042046112 -0.057912584
-0.06281611 -0.14579687 -0.14062154 -0.06361322 -0.015486094 -0.08318935 -0.006154561 -0.0779407
-0.023524692 -0.09347659 -0.098138005 -0.14965129 -0.09182496 -0.0047135614 -0.068861924 -0.024309449
-0.0013569641 -0.08273418 -0.07496002 -0.06227454 -0.029942427 -0.08219771 -0.05833255 -0.048544254
00000000: c2a4 c7bd 1137 ac3c e520 8abd 50b0 d0bc
00000010: 2edd 20be d79a 66bd 0890 8bbd 4d47 82bd
00000020: e45d 06bc a0f3 f93b 8654 a2bd 7469 43bd
00000030: 78b3 b7bd f645 86bd 4558 063d 4fa1 3cbd
00000040: bccf 64bd 309c 3cbd 77e8 40bd 0149 3bbd
00000050: ad7e 06bd dbb0 5ebb bb36 7cbc c094 a3bc
00000060: aa64 80bc dab3 d1bd 545e 19bd a375 4bbd
00000070: d839 a7bd 0498 2ebd 7bd8 c93b a96f 6abd
00000080: 1071 67bd 96fb 16bb d0a9 a9bd 3e73 14bd
00000090: 1dba 30bd abc9 f1bc 5671 dcb9 bf35 6dbd
000000a0: bca5 80bd c64b 15be 18ff 0fbe a647 82bd
000000b0: 63b9 7dbc 2e5f aabd 33ac c9bb 609f 9fbd
000000c0: dbb6 c0bc a870 bfbd 94fc c8bd 303e 19be
000000d0: ba0e bcbd 3874 9abb 7b07 8dbd 9c24 c7bc
000000e0: 29dc b1ba 8a70 a9bd a484 99bd 9713 7fbd
000000f0: d249 f5bc 4657 a8bd 1dee 6ebd 57d6 46bd

weight f4 [64, 1024]
-0.010821858 0.053557273 0.03872422 0.010196208 0.06552632 0.043282848 0.02956888 -0.0026668243
-0.0026915276 -0.010352082 0.038952835 0.006450171 -0.020005038 -0.011488199 -0.0012776696 -0.002484896
-0.025027575 0.008584239 0.0078084 0.0066609024 -0.04373699 -0.0052910196 0.041059837 0.015095445
-0.01302375 -0.03689573 -0.038529374 -0.056790065 0.024636395 -0.02501464 0.00082759355 0.003336934
0.013369044 0.018849738 -0.0115189515 0.0072668367 0.008079713 -0.034948196 0.0016224736 0.0032042733
0.015850231 -0.015763668 0.042351786 0.0093573285 0.029039145 0.012267167 -0.013690018 0.049509503
-0.013090703 -0.02267223 0.03162507 -0.01361577 0.032005683 0.0076835467 -0.012012188 -0.0030884317
0.07764395 0.008103176 0.00040147215 0.032533992 0.054128304 0.027303528 0.051724654 0.056983568
-0.024449736 0.0616338 -0.014353761 0.01781048 0.038110558 0.013999448 -0.024879117 0.04011911
-0.0052527017 -0.002424889 0.050934024 0.012994748 0.03030713 -0.032792274 0.0066032703 -0.038416762
-0.009942083 0.03586957 0.017262554 0.038337108 -0.026943766 0.022797866 0.013195067 0.016578764
0.020998044 0.011497793 -0.0040691355 -0.022955071 -0.014599796 0.011022451 0.0065319003 0.023656745
-0.0048710927 0.03324659 0.043359652 0.0052518956 -0.024962746 -0.005189458 -0.031343892 -0.059790753
0.017700724 0.0334336 -0.014224785 0.045704283 0.00654492 0.061209504 -0.00338457 0.027023528
0.024743743 0.006516148 0.010360822 -0.0030947053 -0.015154138 -0.032797057 -0.028212585 0.007514917
-0.011697554 -0.061462317 -0.00027294658 -0.016876439 -0.01917616 0.021658802 -0.020210428 0.031579956
0.012813423 -0.04237993 -0.054089595 -0.041933395 0.065314345 0.009963148 -0.016742188 -0.04814822
-0.007089823 0.0060073333 -0.033533115 0.021145662 0.0026935749 -0.06727464 -0.03141637 0.0381103
0.013993862 -0.021904053 0.029339965 -0.029714867 0.0011686897 -0.00086568226 -0.004274124 0.0036296668
0.02875324 -0.0069433865 -0.02618595 -0.02078374 0.0049969642 -0.0025803172 -0.03292279 -0.0031612536
-0.02515436 -0.05061399 0.0029723858 -0.032144383 -0.02922897 -0.004329863 0.033270553 -0.00062377163
0.020124061 0.013713681 0.030118698 -0.0011367901 0.008637264 0.028562902 0.06530835 -0.021116046
0.03287283 -0.010235022 -0.01190299 0.026624389 -0.020786783 0.08333446 -0.020123089 0.043790855
0.009384927 0.02781053 -0.0065060123 0.02628251 0.023905544 0.009473025 0.04834742 0.024629116
0.016376557 0.058077544 0.01371494 0.0059024515 0.015570739 -0.005101474 0.03261252 -0.0380119
0.019004513 0.021610102 -0.009653117 -0.024424335 0.032136537 -0.025057612 0.015938418 -0.03672403
-0.034363415 0.0073004193 -0.0044406787 0.057146046 -0.02009522 0.03888528 0.014455862 0.013081288
0.008600786 -0.00865734 -0.03668404 0.028295998 -0.0023051526 -0.021009047 0.010534124 0.015191313
-0.031381957 0.0015650869 -0.030520452 -0.024522813 0.003175667 0.00048529796 -0.015737586 -0.029678982
0.046013337 0.023052432 -0.005072205 -0.012414325 0.02560352 0.027953014 0.011165812 0.017794015
-0.00507357 0.039668903 0.002926328 0.0039964165 0.004953742 -0.004442414 -0.018675845 -0.005501128
0.005283418 -0.03436428 0.015116122 0.0040131225 0.03419886 0.06783756 0.08485746 0.020357355
00000000: 2a4e 31bc df5e 5b3d 4a9d 1e3d ff0d 273c
00000010: aa32 863d 5b49 313d 703a f23c e3c5 2ebb
00000020: 5764 30bb c79b 29bc 028d 1f3d f55b d33b
00000030: 9be1 a3bc 0039 3cbc 7a77 a7ba a3d9 22bb
00000040: a106 cdbc e8a4 0c3c 9bdd ff3b b343 da3b
00000050: 8f25 33bd 4a60 adbb 5c2e 283d e352 773c
00000060: 9161 55bc fa1f 17bd fad0 1dbd b39c 68bd
00000070: 44d2 c93c 81eb ccbc ddf2 583a 76b0 5a3b
00000080: d609 5b3c c46a 9a3c fcb9 3cbc a51e ee3b
00000090: c660 043c d725 0fbd 2ea9 d43a c9fe 513b
000000a0: 58d8 813c cf22 81bc 1179 2d3d 7b4f 193c
000000b0: 80e3 ed3c 3afc 483c 194c 60bc 7aca 4a3d
000000c0: 637a 56bc 1dbb b9bc 4a89 013d ae14 5fbc
000000d0: 6418 033d 43c6 fb3b c5ce 44bc 4967 4abb
000000e0: cb03 9f3d 2fc3 043c ae7c d239 5d42 053d
000000f0: a4b5 5d3d a6ab df3c 3bdd 533d 9a67 693d
00000100: d04a c8bc b973 7c3d 0a2c 6bbc 49e7 913c
00000110: d119 1c3d f15d 653c 4acf cbbc f053 243d
00000120: db1e acbb e3ea 1ebb 32a0 503d ece7 543c
00000130: a946 f83c 3151 06bd 3f60 d83b e55a 1dbd
00000140: 1ee4 22bc f8eb 123d 336a 8d3c 5f07 1d3d
00000150: 2cb9 dcbc 97c2 ba3c 1f30 583c 30d0 873c
00000160: 1704 ac3c 3d61 3c3c 6256 85bb 460c bcbc
00000170: fc33 6fbc 8397 343c 8d09 d63b cacb c13c
00000180: b09d 9fbb 942d 083d e499 313d 1818 ac3b
00000190: ac7e ccbc 540c aabb 7462 00bd 26e7 74bd
000001a0: 1c01 913c acf1 083d 130f 69bc 6a34 3b3d
000001b0: c576 d63b d1b6 7a3d a9cf 5dbb 7260 dd3c
000001c0: 64b3 ca3c 6985 d53b 70c0 293c 8ad0 4abb
000001d0: 1049 78bc 3556 06bd 141e e7bc b13f f63b
000001e0: 19a7 3fbc e9bf 7bbd 451a 8fb9 7540 8abc
000001f0: 5317 9dbc cd6d b13c 5790 a5bc fc59 013d
00000200: 64ef 513c 9496 2dbd 0d8d 5dbd 5ac2 2bbd
00000210: 87c3 853d 793c 233c ea26 89bc 1137 45bd
00000220: bf51 e8bb 2ad9 c43b 055a 09bd ab39 ad3c
00000230: b086 303b 49c7 89bd 74ae 00bd 8c19 1c3d
00000240: 8346 653c 2170 b3bc 5e5a f03c 986c f3bc
00000250: b82e 993a f4ee 62ba f30d 8cbb b4df 6d3b
00000260: ea8b eb3c 5985 e3bb eb83 d6bc a942 aabc
00000270: 93bd a33b 8a1a 29bb 0cda 06bd 092d 4fbb
00000280: 8410 cebc 9d50 4fbd 5ccc 423b d4a9 03bd
00000290: 9871 efbc 86e1 8dbb b446 083d 9b84 23ba
000002a0: 37db a43c 59af 603c 7dbb f63c 5900 95ba
000002b0: 5083 0d3c bffc e93c 62c0 853d 8ffb acbc
000002c0: a9a5 063d cbb0 27bc c204 43bc 641b da3c
000002d0: 0b49 aabc 42ab aa3d 2dd9 a4bc 0a5e 333d
000002e0: 3dc3 193c e9d2 e33c 6330 d5bb 6b4e d73c
000002f0: 8fd5 c33c bf34 1b3c f207 463d 00c3 c93c
00000300: 2128 863c b8e2 6d3d a1b4 603c 5a69 c13b
00000310: 6a1c 7f3c 442a a7bb b594 053d 5eb2 1bbd
00000320: 5aaf 9b3c ab07 b13c 1b28 1ebc 8b15 c8bc
00000330: 9aa1 033d 9f45 cdbc 4991 823c f06b 16bd
00000340: a7c0 0cbd 5b38 ef3b 1d83 91bb f911 6a3d
00000350: bb9e a4bc 2c46 1f3d 48d8 6c3c e652 563c
00000360: 50ea 0c3c 84d7 0dbc 0142 16bd 02cd e73c
00000370: 0b12 17bb 2a1b acbc 5297 2c3c fce4 783c
00000380: 5e8a 00bd 9a23 cd3a 0706 fabc 11e4 c8bc
00000390: da1e 503b 976f fe39 1cec 80bc 5621 f3bc
000003a0: 7b78 3c3d 74d8 bc3c bd34 a6bb 7465 4bbc
000003b0: 79be d13c b8fd e43c cff0 363c c1c4 913c
000003c0: 3140 a6bb dc7b 223d a3c7 3f3b 5ff4 823b
000003d0: 0053 a23b ab91 91bb 16fe 98bc ce42 b4bb
000003e0: 8620 ad3b 8fc1 0cbd 9ca9 773c 8380 833b
000003f0: 1b14 0c3d 6bee 8a3d bfc9 ad3d 78c4 a63c

bias f4 [64]
-0.025398863 -0.0002049611 -0.03937945 -0.018936187 0.010861347 0.020207584 -0.00089266687 -0.032313727
0.012994797 -0.054612152 0.0036572875 0.00276086 0.0042190934 0.041414592 -0.0126805045 -0.007274206
0.021075064 0.02975283 -0.07176398 -0.004504033 -0.0025839708 -0.014387513 -0.011338844 0.05141982
0.016613804 0.04713191 0.02012705 0.03455476 0.05158077 0.032421958 -0.013871254 0.0061615612
-0.042085815 0.04055018 0.0046587214 -0.010056701 -0.011909344 0.027165975 -0.049180415 -0.005571789
-0.05164013 -0.013571296 -0.008422129 0.023074746 0.0027371277 -0.0028019324 0.0470268 -0.03385258
0.07255535 0.017118184 -0.008375953 -0.026461786 -0.041421004 0.00177755 -0.0027138293 0.012767306
0.06337636 -0.019598484 -0.0077973907 0.020758592 -0.06202886 -0.0022873702 0.01085383 -0.054214213
00000000: 4711 d0bc d4ea 56b9 594c 21bd 1020 9bbc
00000010: cbf3 313c 608a a53c dc01 6aba 665b 04bd
00000020: 21e8 543c feb0 5fbd 1aaf 6f3b 8bef 343b
00000030: 5240 8a3b 59a2 293d e4c1 4fbc 765c eebb
00000040: 9da5 ac3c 35bc f33c fef8 92bd 9196 93bb
00000050: d657 29bb 9ab9 6bbc 8fc6 39bc 979d 523d
00000060: ac19 883c 640d 413d 7ce1 a43c 4b89 0d3d
00000070: 5c46 533d e3cc 043d 4244 63bc ece6 c93b
00000080: 2d62 2cbd f217 263d 30a8 983b dcc4 24bc
00000090: 691f 43bc 2e8b de3c 6771 49bd 8e93 b6bb
000000a0: 9a84 53bd 245a 5ebc f8fc 09bc 4007 bd3c
000000b0: 6261 333b a0a0 37bb 2d9f 403d 01a9 0abd
000000c0: e697 943d 6f3b 8c3c 4b3b 09bc 63c6 d8bc
000000d0: 12a9 29bd aefc e83a 80da 31bb f62d 513c
000000e0: 77cb 813d 008d a0bc 4181 ffbb ec0d aa3c
000000f0: f911 7ebd b4e7 15bb 43d4 313c b90f 5ebd

weight f4 [10, 64]
0.07470472 0.050841037 0.14007446 -0.2205631 -0.18570353 0.18057917 -0.28683725 0.31106728
-0.10700732 0.015865285 -0.1352888 0.05263727 0.0023539588 -0.11077505 -0.032917734 -0.045100283
0.030130181 -0.26978847 0.032746334 0.052631043 -0.00417405 -0.09382228 -0.03293357 0.059545767
-0.0021432915 -0.1770791 -0.12273788 0.17567907 -0.27550605 -0.18235874 -0.048455585 0.019097919
-0.09924988 0.12623946 -0.0072492147 0.33127943 0.1897843 0.1267029 0.05602968 -0.33214712
0.18203813 -0.09920728 -0.15723273 -0.15181023 0.081114836 0.088968344 -0.165649 -0.13293932
-0.27962527 -0.018263122 0.15166193 0.1860592 -0.17739882 -0.10014017 -0.0046500275 0.02320999
-0.056196783 -0.004284926 -0.06596982 -0.107607275 0.14889598 -0.2577185 0.11683968 0.27196383
0.2398044 -0.20005898 -0.21939923 0.23725322 -0.04205442 -0.13454331 -0.09703615 0.09475623
0.18086861 -0.12969075 -0.08818513 -0.12445705 0.0154539 -0.22615972 -0.13617383 -0.061139196
0.0096912505 -0.24288736 0.05741766 0.16829969 -0.16412613 0.33559972 0.11629541 0.20213158
0.2798725 0.043549582 0.1976109 -0.14468524 -0.19587354 0.14305237 -0.042101234 0.05640188
-0.10418609 -0.2571692 -0.11418425 -0.32006904 0.08997943 0.23693128 -0.20332186 -0.21010631
-0.15787546 0.20293814 0.24655136 0.18875645 -0.2574763 0.00165025 -0.05581299 0.043265685
-0.21089493 -0.07081671 0.012872406 -0.2341002 -0.14075671 0.3119073 0.20564261 0.2593444
-0.29872817 -0.15514828 0.29640493 -0.06984198 -0.059874285 -0.010071539 0.20966844 -0.21748154
-0.21474548 0.023767475 -0.02500228 -0.13763212 -0.22861594 0.32513875 0.07490074 0.17545837
-0.079367325 0.035007194 0.02951483 -0.013426306 -0.1658982 0.026235875 0.0757594 0.2591715
-0.08857069 -0.10003639 0.23659177 -0.26282844 0.07559645 -0.012710954 0.0021970177 -0.075442076
0.072541825 -0.18180282 -0.26635367 -0.28646237 0.013211272 0.096191585 -0.025115948 0.037108764
-0.16554339 -0.082052745 0.0038635333 0.3149941 -0.20469493 0.04988755 -0.0017968128 0.2577286
0.2500572 -0.2417903 0.22372276 0.15301944 0.26107952 -0.03487139 -0.054630868 -0.15284355
0.015020306 -0.10412059 -0.03869702 -0.084077306 -0.14815025 -0.13654502 0.15742461 -0.2529542
0.2604896 -0.03733751 -0.14154613 -0.033653546 -0.10853258 0.20012052 0.10415149 -0.13897689
0.20882596 0.042260688 0.17526428 0.092044644 0.18102589 0.053761486 0.2417718 -0.016303264
0.07127063 0.09567633 0.094582304 -0.15052547 0.12051118 0.10852925 0.11087651 -0.08667928
-0.13490815 0.050548285 0.060934056 0.21811073 -0.16421504 -0.2514385 0.014857224 -0.210135
0.16153267 0.0052418387 -0.1581414 0.2024958 0.015492747 -0.014364459 -0.10183288 0.12189494
-0.1420684 0.10833384 -0.09333412 -0.19092582 -0.10054049 -0.08814601 0.017059617 -0.015907753
0.039963238 0.0010323463 -0.16046862 0.111431755 0.020158827 -0.0069061154 -0.08807864 -0.1589597
0.07808397 0.10513592 -0.19619656 -0.121090084 0.11673403 -0.050228555 0.05349825 -0.1892885
0.12888266 -0.16686714 -0.21004549 -0.13087745 -0.07809973 0.123437986 -0.07781442 0.030043839
00000000: cafe 983d b13e 503d ae6f 0f3e 4bdb 61be
00000010: 1129 3ebe bfe9 383e 55dc 92be 3644 9f3e
00000020: a726 dbbd eaf7 813c 2689 0abe 2e9a 573d
00000030: e044 1a3b 08de e2bd bfd4 06bd 13bb 38bd
00000040: 92d3 f63c b721 8abe 0521 063d a693 573d
00000050: 78c6 88bb e525 c0bd 5ae5 06bd 43e6 733d
00000060: 7776 0cbb 3954 35be ff5d fbbd 37e5 333e
00000070: 210f 8dbe 40bc 3abe 5d79 46bd 3d73 9c3c
00000080: 8543 cbbd eb44 013e d28a edbb 759d a93e
00000090: d156 423e 68be 013e 617f 653d 300f aabe
000000a0: 3468 3a3e 302d cbbd 9e01 21be 2474 1bbe
000000b0: 891f a63d 0935 b63d e49f 29be 3f21 08be
000000c0: 0b2b 8fbe 8b9c 95bc 444d 1b3e 4e86 3e3e
000000d0: 09a8 35be 4a16 cdbd 425f 98bb e022 be3c
000000e0: 992e 66bd 9168 8cbb 2f1b 87bd 3461 dcbd
000000f0: 3078 183e aef3 83be a449 ef3d d83e 8b3e
00000100: 498f 753e 43dc 4cbe 31aa 60be 82f2 723e
00000110: 4141 2cbd b9c5 09be e4ba c6bd 8e0f c23d
00000120: 9f35 393e a7cd 04be 689a b4bd 56e3 febd
00000130: 5b32 7d3c 6a96 67be 2771 0bbe 186d 7abd
00000140: 0dc8 1e3c 77b7 78be c82e 6b3d c156 2c3e
00000150: ae10 28be bad3 ab3e 4a2c ee3d 95fb 4e3e
00000160: 734b 8f3e 0c61 323d 835a 4a3e 5e28 14be
00000170: 1393 48be 527c 123e 5872 2cbd a805 673d
00000180: 845f d5bd aeab 83be 6fd9 e9bd 17e0 a3be
00000190: 2347 b83d 1d9e 723e 9b33 50be 1c26 57be
000001a0: 1baa 21be 04cf 4f3e f677 7c3e 5f49 413e
000001b0: efd3 83be 344d d83a 299c 64bd 5c37 313d
000001c0: d7f4 57be 5a08 91bd c9e6 523c f6b7 6fbe
000001d0: 8722 10be 50b2 9f3e fa93 523e cac8 843e
000001e0: e6f2 98be 31df 1ebe 63c2 973e 5009 8fbd
000001f0: bd3e 75bd 1903 25bc 53b3 563e 7bb3 5ebe
00000200: 3de6 5bbe 02b4 c23c 95d1 ccbc 6fef 0cbe
00000210: 4c1a 6abe 9678 a63e 8f65 993d 5cab 333e
00000220: 568b a2bd b463 0f3d 16c9 f13c 02fa 5bbc
00000230: 38e1 29be 9eec d63c bf27 9b3d 20b2 843e
00000240: 8d64 b5bd e1df ccbd 1d45 723e 7391 86be
00000250: 50d2 9a3d 9b41 50bc d7fb 0f3b 6081 9abd
00000260: cf90 943d 852a 3abe 825f 88be 32ab 92be
00000270: 1774 583c 1800 c53d f6bf cdbc 5cff 173d
00000280: 3584 29be 450b a8bd 5533 7d3b e846 a13e
00000290: 8c9b 51be e356 4c3d 0883 ebba 01f5 833e
000002a0: 7f07 803e e097 77be 9417 653e 21b1 1c3e
000002b0: 37ac 853e 4dd5 0ebd 9ec4 5fbd 0583 1cbe
000002c0: bb17 763c 2d3d d5bd c480 1ebd b930 acbd
000002d0: b3b4 17be 75d2 0bbe eb33 213e 3783 81be
000002e0: e55e 853e 38ef 18bd 78f1 10be 4dd8 09bd
000002f0: 5446 debd 65ec 4c3e 604d d53d f54f 0ebe
00000300: 79d6 553e 8b19 2d3d 7b78 333e e781 bc3d
00000310: da5e 393e 0135 5c3d 0793 773e 6c8e 85bc
00000320: 56f6 913d f4f1 c33d 5eb4 c13d 5923 1abe
00000330: 91ce f63d 9544 de3d 3913 e33d e884 b1bd
00000340: 5d25 0abe b80b 4f3d fd95 793d 6b58 5f3e
00000350: fd27 28be 8cbc 80be b76b 733c a12d 57be
00000360: d268 253e bbc3 ab3b d2ef 21be 0f5b 4f3e
00000370: 4ad5 7d3c e858 6bbc c28d d0bd 0ea4 f93d
00000380: 617a 11be 22de dd3d f625 bfbd 0f82 43be
00000390: 2ce8 cdbd e585 b4bd 9cc0 8b3c fa50 82bc
000003a0: 7eb0 233d cb4f 873a e351 24be 5536 e43d
000003b0: 2024 a53c b24c e2bb 9362 b4bd 55c6 22be
000003c0: 7dea 9f3d 8051 d73d c0e7 48be 14fe f7bd
000003d0: 4012 ef3d 75bc 4dbd fb20 5b3d d8d4 41be
000003e0: d1f9 033e 38df 2abe 2a16 57be bd04 06be
000003f0: c0f2 9fbd 0ecd fc3d 2b5d 9fbd 7f1e f63c

bias f4 [10]
-0.22563648 -0.0673106 0.10803689 0.09744775 0.17049466 -0.15648504 0.14676781 0.06797332
-0.09350007 0.029509582
00000000: 400d 67be 24da 89bd 7242 dd3d b092 c73d
00000010: 2796 2e3e 9d3d 20be 4d4a 163e 9935 8b3d
00000020: f77c bfbd 14be f13c
