Pytorch/model_data/CIFAR10_EPOCH23.pth (torch, 588839 bytes, 10 tensors)

weight f4 [32, 3, 5, 5]
00000000: e16c 8cbc 6c13 3abd a0a7 2bbd ed52 f7bd
00000010: a6b0 29bd 180e 24be dd9a 11be 21ee e33d
00000020: a06d 34bd 5384 f9bd a7ca 0fbe 7a0c a0bd
00000030: 77c4 1b3e 658d e03d 9afa 50be b9d2 9d3d
00000040: 9fcb f8bd 7fd0 d03d f02b 1d3e d00f 2ebe
00000050: 0710 573d 3803 2ebd 394d 233e c0ff 043e
00000060: 7152 16be fcb4 e1bd e024 2e3d 95c0 f53d
00000070: 8d9f 5fbd 5616 3dbe 3c3d 7dbd cb91 a13d
00000080: 13aa 91bd f3a1 903d eb11 55be a9ea f7bc
00000090: 5752 3bbd efd1 b73d 80b9 013e e2ac 723c
000000a0: cdd2 523d eb1f debd 39b6 433d da70 2d3e
000000b0: e220 7bbc 23df 1c3d 0e54 ca3d 1d51 553e
000000c0: e107 3b3e d88a 863c 793e 82bd 2a66 91bd
000000d0: 8608 efbd f3ea 7dbd 6eaf 51be 183c 3dbc
000000e0: 835e 0f3d 66c9 dcbb 3bb8 723d 143d 4abe
000000f0: 7193 973d 2b5b 5d3d 0e56 fc3c 8a78 e13d
00000100: 3308 24be 4bd9 813c ce42 2f3d 053c 3e3e
00000110: 02f4 c0ba dcab 29be 3c98 8b3d 2c84 c53c
00000120: 0979 3a3e ffc7 323e c7f8 923d aef0 5b3d
00000130: cf37 ea3d 572c 363e 45bd 833d 37db 6abd
00000140: 1706 913b d2e1 bc3d 254a 03bb db2d 51be
00000150: adb4 0abe df9f 113e e043 34be 1da0 96bc
00000160: 74fc 1ebe 49b3 023e 62fb 663c 4254 21bd
00000170: 5cf4 383c adbe 1a3e a289 09bd 67f0 623c
00000180: 788f c53c b694 1f3d 1672 b73d 84de 85bc
00000190: 0144 693d 65dd 033e 72bf e83d 7079 2a3d
000001a0: de75 53be 4a12 0e3e 0ae7 293d 5d0b 833a
000001b0: 676b 78be 675d 47be 5326 67bd 1e93 36be
000001c0: 6ffa b8bd 7581 a33c b88b b2bd 3aad 1fbd
000001d0: 7848 37bd 1285 163c 6df4 8b3c c4a5 a53c
000001e0: 250c 49bd 7f31 603d bb97 e83d 89b9 43bb
000001f0: c795 97bd 7c8b 41bc 4211 b43d 8a7e 393e
00000200: 5cce 96bd 2a0a 773c 2978 773d 64ce 093c
00000210: 4d03 c2bd 5552 2ebe bb6f a53d 69b1 333d
00000220: 51b7 bebc db7c 6ebd 7352 ef3c b6db 023e
00000230: 7140 7bbd 315f c4bd 9b0d f83d 85ee bf3d
00000240: 668c 983d 693f b4bd effc 89bd e995 143e
00000250: 3c41 a7bd 404f a73a 6729 1e3e dcdc 553d
00000260: 6014 cdbd f232 92bc 33cb e9bd c0a7 b2bb
00000270: 15ae 733c 32d3 5abe 86de 52be 0909 14be
00000280: 96ba 1bbe 2325 bb3c 2c89 b6bc a092 c9bd
00000290: c66f 87bd 0f08 50be 3c39 d7bd 4e21 0bbe
000002a0: fcc2 eabd dcb7 27be 6bfb 043d 13e1 57be
000002b0: 01d6 82be 6d37 4fbe 934f 23be 7ab7 9fbb
000002c0: 294a e3bd 79e7 913d 03f7 7b3d 9002 763d
000002d0: 5fa0 383d 1317 66bd 0c77 e53b 1e7d cb3c
000002e0: 6c33 c9bd c404 78bb 27d5 05bd a0b7 d13d
000002f0: e1cf 143e 51d8 80bc 3860 c4bd b4a3 3e3e
00000300: 9d46 2e3e 4d3a cf3d cd1e 2d3c 4047 b33d
00000310: c377 90bd ca49 29be 5b68 abbd 3154 44bd
00000320: 1710 fbbd 3bd9 10bd dab5 f43d 3074 623d
00000330: 37da ee3d e047 99bd b364 dcbb 20bb d73d
00000340: 12e7 40bd d21e 143e ba03 8f3d 5cf8 ea3d
00000350: b773 f33d c7ec 863e bd16 523e 8855 233d
00000360: a5c7 753e a385 973e 67e4 483e 1a5f 223e
00000370: 16ce b93d a460 283d e1a3 b1bd 4f81 be3d
00000380: 0e83 ee3d 6723 a33d b7f7 5f3c cd93 45bd
00000390: c253 2a3d a8c0 e9bd 0177 813d 1ed3 8ebd
000003a0: ea97 343d 86fc bf3d ed73 163c 579e b63d
000003b0: 9445 e7bd bb5b a5bc b4ae e3bc 976c f73d
000003c0: 2d45 683d 0733 293d 8dea fa3c f88d 323e
000003d0: d0c1 b63d 8028 debc a11c 03be d172 edbd
000003e0: 35ca 383e f054 2abd 2eef 863c 5db9 193d
000003f0: 3e92 bcbd ed21 053e 873f 8fbd 31ae 0dbc
-0.017141761 -0.04542868 -0.041907907 -0.12076364 -0.04142823 -0.16021001 -0.14219232 0.11129404
-0.04404986 -0.12183442 -0.1404215 -0.0781488 0.15211664 0.10964469 -0.20408097 0.07706208
-0.12148213 0.101960175 0.15348792 -0.1699822 0.05250552 -0.04248354 0.15947427 0.12988186
-0.14679886 -0.11020848 0.042515635 0.11999623 -0.05459552 -0.18465552 -0.061825976 0.07889136
-0.07112517 0.07062139 -0.20807616 -0.030263262 -0.045732822 0.089755885 0.12668419 0.014811726
0.051470567 -0.108459316 0.047781203 0.1693758 -0.015327664 0.038298737 0.098793134 0.20831724
0.18264724 0.016423628 -0.06359572 -0.070995644 -0.116715476 -0.061991643 -0.20477077 -0.011549972
0.035002243 -0.0067378758 0.059257727 -0.19749862 0.07401169 0.054042023 0.030802753 0.11009319
-0.16018753 0.015850684 0.04278832 0.18577583 -0.0014721157 -0.16569465 0.06816146 0.024110876
0.18210234 0.17459105 0.07176357 0.053696327 0.11436426 0.17790352 0.06432585 -0.057337966
0.004425775 0.09222759 -0.0020033207 -0.20427649 -0.13545485 0.14221142 -0.17604017 -0.018386895
-0.1552599 0.12763704 0.01409802 -0.039386995 0.011288729 0.151118 -0.033578523 0.013851262
0.024116263 0.03896018 0.08957307 -0.016341455 0.05694962 0.12877424 0.1136464 0.041619718
-0.20650432 0.13874164 0.0414801 0.0009997893 -0.2425972 -0.19469224 -0.056433033 -0.17829558
-0.090321414 0.01995919 -0.087180555 -0.03898356 -0.044746846 0.009187 0.017084325 0.020220645
-0.049083848 0.054734703 0.11357065 -0.0029865226 -0.07401615 -0.011813041 0.08792354 0.18114677
-0.07363579 0.015078107 0.060417328 0.008411024 -0.09473286 -0.17023595 0.080779515 0.043870363
-0.023280771 -0.05822454 0.02921412 0.12779126 -0.061340753 -0.09588469 0.1211197 0.09371666
0.07448654 -0.08801157 -0.067376964 0.14510311 -0.08166739 0.0012764707 0.15445481 0.05221258
-0.10013652 -0.017846558 -0.1141571 -0.0054521263 0.014873047 -0.21369627 -0.20592698 -0.14456572
-0.15207896 0.022844857 -0.022282206 -0.098424196 -0.06613116 -0.20315574 -0.105089635 -0.13586923
-0.114629716 -0.1637873 0.032466333 -0.21081953 -0.25553897 -0.20235987 -0.15948324 -0.004874167
-0.11098129 0.07124228 0.061514866 0.060061038 0.045074817 -0.05617435 0.007002717 0.024839934
-0.09824261 -0.0037844637 -0.03267398 0.10240102 0.14532425 -0.015728148 -0.09588665 0.18617135
0.17019124 0.10118542 0.0105664255 0.08753824 -0.07054093 -0.16532055 -0.083695136 -0.047931854
-0.12258928 -0.035363417 0.11948748 0.055286586 0.11662715 -0.07484412 -0.0067258715 0.10533738
-0.047095366 0.14464882 0.06983133 0.11473152 0.11887305 0.26352522 0.20516486 0.03987649
0.2400194 0.29594144 0.19618379 0.15856591 0.09072511 0.04110779 -0.086738355 0.093020074
0.116460904 0.07965737 0.0136699 -0.048236657 0.041583784 -0.114136994 0.06321526 -0.06973861
0.04409019 0.09374337 0.009182912 0.0891692 -0.11292568 -0.020185342 -0.027793266 0.12081259
0.056706596 0.04130843 0.03062942 0.1743697 0.089236856 -0.027118921 -0.1280389 -0.11594165
0.18045886 -0.04158491 0.016471472 0.03753029 -0.09207581 0.13001223 -0.06994539 -0.0086474875

bias f4 [32]
00000000: ad76 37be 5d9f 06bd f73c 113d 6a06 f4bd
00000010: f6c0 96bc 1448 2e3e f744 b2be 2582 ccbe
00000020: c5fe d8bd e246 84bc ed68 d53d 7b7d 97bd
00000030: 1b96 bcbd 931a d2bd 19f8 6dbc 67b9 b7bd
00000040: 6870 373b fa14 babe d23b 10bd b93d 96bd
00000050: 070f fdbb d32a 793d 29ff 823d 2365 173e
00000060: 48df a0be 51fe ddbb b466 33be a3bd 8e3e
00000070: 5f5c 8dbe deff 2a3d 2825 d5bd 78d6 ca3d
-0.17916365 -0.032866824 0.03545853 -0.11915286 -0.018402558 0.17019683 -0.3481824 -0.39943042
-0.105954684 -0.01614708 0.10420404 -0.073969804 -0.09208318 -0.10258975 -0.014524483 -0.089709096
0.0027990583 -0.3634413 -0.0352133 -0.073359914 -0.0077227387 0.060831856 0.06396324 0.14784674
-0.3142035 -0.0067747016 -0.17519647 0.27879056 -0.27609536 0.04174792 -0.104074776 0.09904188

weight f4 [32, 32, 5, 5]
00000000: d20b 58bb eec1 a5bc 1f88 08bd f6a8 64bc
00000010: d47d 07bd a787 0e3d ee11 9b3b bef7 e53c
00000020: 2441 033d a6a1 a63c e0fa d53c 83af f83b
00000030: f412 ccbc e3b7 4a3b 8af5 1b3d 1bc2 58ba
00000040: 8a2a 9fbc b019 7ebd 715d 1dbd 4d1c a6bc
00000050: fdea 033d 0092 cd3c 330b d43c 5416 b53c
00000060: a7d8 ca3b aafb 15bd 688b 223c 2d29 92bc
00000070: 3fb8 ee3c a470 4dbc ba15 babc b915 c03c
00000080: 7e79 8a3c b56e 363c 3ed2 dfbc 4e48 373d
00000090: 351a 45bc fb90 c33b d875 2f3c 9d72 f53c
000000a0: 6ec0 933c ceb6 2e3d 0a41 acbb 302c a93c
000000b0: 1417 e63c 6eb0 89ba 26b4 913d 5805 5f3d
000000c0: 0bff 273d 0257 a6bc 7350 033d 9f4d 2e3d
000000d0: 0315 293c 77ba e53c 330d 193d a75c 013c
000000e0: 27c6 82bc 1457 04bd 75a7 be3b 044e 033c
000000f0: 1916 42bd 86dd 37bc 3881 8f3c b6e0 ed3a
00000100: 1a53 1abd 0cea 0e3b 2b73 313b 65ff 46bd
00000110: dee6 abba 1e8d 383c deb5 4bbd 6542 4fba
00000120: a87d 2fbc 8e7d 20bc 7bee 0a3d 9fde 11bc
00000130: 638e bd3c 2229 c7bc 94c1 bd3b 791c a4bc
00000140: e807 363c f2c4 68bc b98d 29bc 9d88 c7bb
00000150: 4ac0 0a3b 97e6 683c 30c6 093b 0432 d83c
00000160: ee2c 313c ff28 233c afc5 64ba cbe2 0e3d
00000170: 8158 173d af50 d43c 4cbb ab3c 78e9 233c
00000180: 0029 9e3c 63a8 96bc 82d1 183c e3a9 083d
00000190: c895 093d 7e96 94bc d121 ecbc c632 50bb
000001a0: 8075 62bb 0c03 a6bc fa52 edbc 2fca d6bc
000001b0: 42ef 72bd 97d5 4fbc 457c 45bb e536 0ebd
000001c0: 26c0 07bd eb45 55b9 8873 46bc f593 ccbc
000001d0: 11b6 0a3d 6340 123d 6cd3 773c a20c dbbb
000001e0: 1dab 043c 5f24 c53b 2023 843c 90c1 a3bc
000001f0: e27d 5f3b fbd3 ca3c 04ea 0aba cafc 5d3c
00000200: 04cc 7f3d fa38 8fbc 1485 c73c 5e92 c93c
00000210: a02f 533d 469e f93c eac8 933b 49ec f03c
00000220: 9645 833d e804 8abc d990 adbc dbb1 e4bb
00000230: e24f a53d 43c0 dfbb e32a 35bd e0f7 eebc
00000240: 706b 103d f739 9a3b dc47 8abd 1f5e e73c
00000250: 6712 a33d 0a58 253b b529 0e3c c379 493d
00000260: 139d 183d e149 5a3c 4cac 4d3d 58ab 833c
00000270: 0ac4 143d 661c 183d 96bb 08bc dc39 7c3c
00000280: 7673 81b6 8644 eb3b c0e4 333c e227 353c
00000290: df39 79bc 3acd c03c bbd9 373c f4aa 653d
000002a0: 848c ec3b ffd0 e33a f5a8 a8bb edf8 123d
000002b0: 5c09 073d 6e0b c9bc 5872 2a3d 8c5d f8bc
000002c0: c751 13bd 99eb ebbc 09ad e93c b30c 2ebd
000002d0: ae21 8bbc bde4 4fba a97e 23bc e698 df3c
000002e0: a7d7 f8bc 13ed a5bb ba35 60b9 e2ac 4a3d
000002f0: 51cd 353d 3723 7f3d 0703 213d f294 123d
00000300: 93b7 8d3d 58aa 983d ce89 853d c998 803d
00000310: 25d7 af3d 00ff 3b3d ffd9 283d b50c 703d
00000320: 9219 423c 791f fc3c b153 3d3c 1433 17bd
00000330: 7c80 43bc f9ea 783c bcbf 5b39 df47 01bd
00000340: 342c 78bd a3ca 2e3b 2ff8 28bc 4f3a d0bc
00000350: 604f 21bd 12fc 53bd 4271 38bd a2f9 bebc
00000360: 6bf1 153d a151 733c 893c 973d e093 0fbc
00000370: 177a 35bd a2d5 153d de7d 893c 9f84 ae39
00000380: 34ca 8cba a7ff 103c 18a3 7fbc 727d 2fbd
00000390: 0539 30bd 0bf3 8b3b 381d d63c 5141 3c3b
000003a0: 04f5 8f3c 88e8 d7bc 8945 99bc f8c0 553b
000003b0: c10c 043d 8815 2d3c 5a6b 803c ba93 433d
000003c0: 4c19 55bc 4000 bf3c ef4c ba3c b3e7 933d
000003d0: 7e35 503d fdea 0b3d fc41 ba3c 2bd4 cd3c
000003e0: d2d0 683d cbf8 383d 91d9 3a3c 6b0f bebc
000003f0: ecb8 b4bc cd5d 7abc 1374 2ebd 8c6d 7a3d
-0.003296603 -0.020234074 -0.03333294 -0.013956299 -0.033078983 0.034797337 0.004732362 0.028072234
0.032044545 0.020340752 0.026120603 0.007589282 -0.024911381 0.003093236 0.03807596 -0.000826867
-0.019429464 -0.062036216 -0.03841919 -0.020277167 0.032206524 0.025094032 0.025884246 0.022105373
0.0061903778 -0.03661696 0.009920932 -0.0178419 0.02914059 -0.012539063 -0.022715438 0.023447858
0.016903635 0.011134793 -0.027321931 0.04474669 -0.012030174 0.0059682108 0.0107092485 0.029961878
0.018036094 0.042654805 -0.0052567767 0.020650953 0.028087176 -0.0010504851 0.07114439 0.054448456
0.041014712 -0.02030516 0.032059144 0.042554494 0.010319951 0.028043015 0.037366103 0.007895625
-0.015963627 -0.032309607 0.0058183023 0.008014206 -0.047384355 -0.011222249 0.017517671 0.0018148634
-0.037676908 0.0021806983 0.0027076702 -0.048583407 -0.0013115068 0.011264114 -0.04973399 -0.0007906317
-0.010711111 -0.00979556 0.03391884 -0.008903175 0.023139184 -0.024311606 0.0057908986 -0.020033108
0.011110283 -0.014207112 -0.010348731 -0.0060892836 0.0021171742 0.014215133 0.002102267 0.026391037
0.010813935 0.009958505 -0.0008726967 0.034884255 0.03694964 0.02591738 0.020963334 0.010004394
0.01930666 -0.01839084 0.009327294 0.03336514 0.03359011 -0.018138167 -0.028824719 -0.0031768545
-0.0034554899 -0.020265125 -0.02897023 -0.026219456 -0.059310205 -0.012685201 -0.0030133885 -0.03472032
-0.03314223 -0.0002033931 -0.012112506 -0.024972895 0.03386504 0.035705935 0.0151260905 -0.0066848556
0.008097437 0.0060162987 0.01613003 -0.019989759 0.0034102132 0.024759283 -0.0005299153 0.013549039
0.062450424 -0.017483223 0.024355449 0.024605926 0.05155909 0.030470978 0.004510035 0.029409545
0.06409757 -0.016848043 -0.021187233 -0.00697921 0.08071877 -0.0068283393 -0.044230353 -0.02917093
0.03525871 0.004706617 -0.06751987 0.028243123 0.07962494 0.0025229477 0.008676936 0.049188387
0.037259173 0.013323278 0.050213143 0.016072914 0.03631977 0.037136458 -0.008345505 0.015394654
-3.857941e-06 0.0071797995 0.010979831 0.011056872 -0.015211551 0.02353536 0.011221345 0.056071237
0.007218899 0.0017381011 -0.0051470944 0.035881925 0.03296791 -0.024541583 0.041612953 -0.030318044
-0.03596666 -0.028798865 0.028524892 -0.04249258 -0.016983833 -0.0007930508 -0.009978929 0.027294587
-0.030376269 -0.005063662 -0.0002138232 0.04948128 0.044385258 0.062289443 0.039309528 0.035786577
0.0691978 0.074543655 0.06520425 0.062791415 0.085859574 0.045897484 0.041223522 0.05860587
0.011846917 0.030776726 0.011555598 -0.036913946 -0.0119324885 0.015192741 0.00020956894 -0.031562682
-0.06058903 0.0026671074 -0.010313078 -0.025418429 -0.03938234 -0.051754065 -0.045029886 -0.023312394
0.036607187 0.014851005 0.07384593 -0.0087632835 -0.044305887 0.03658069 0.016783651 0.00033286677
-0.0010741414 0.008850015 -0.015602849 -0.042844243 -0.043023128 0.0042709163 0.02613698 0.0028725455
0.017572887 -0.026355997 -0.018709915 0.003261624 0.032238726 0.0105642155 0.01567619 0.047748305
-0.0130065195 0.023315549 0.022741763 0.072219275 0.050832264 0.03415965 0.022736542 0.025125584
0.05683977 0.045159142 0.011404411 -0.023200711 -0.022060834 -0.015281153 -0.042591166 0.06113963

bias f4 [32]
00000000: b2e2 e8bc 8647 d73c 18aa 17be 4812 95bd
00000010: 474a b03c c89b ffba c4c0 e43c 4acb 823c
00000020: 5114 35be d1e5 b4bd 5a4e 86be b63d a5bd
00000030: 0c3a 003e cf4e 74bd f7d8 2ebe 0ad8 72bd
00000040: 920b 64bd 55d3 cd3b 69ea 16be 41cd 2bbe
00000050: a73b 03be e896 893c c877 84bd d001 653d
00000060: 617d 2fbd 562c 4bbd d85d 78bd 44be 04be
00000070: 2dc7 24be 1744 20bd b9a9 04be 3a86 14be
-0.02842841 0.026279222 -0.1481098 -0.072788775 0.021519793 -0.0019501382 0.027923949 0.015966076
-0.17683531 -0.088328965 -0.26231652 -0.08068411 0.12522143 -0.05964547 -0.17074953 -0.059288062
-0.055675097 0.0062812963 -0.14737858 -0.16777517 -0.12815724 0.01679559 -0.06468159 0.05590993
-0.04284418 -0.04960283 -0.06063637 -0.12963206 -0.16091605 -0.039127436 -0.12955369 -0.14504328

weight f4 [64, 32, 5, 5]
00000000: f71a 39bd 3849 783c f352 a83c 66df 5e3c
00000010: 398d 063d 61a2 22ba c0b0 953c 6770 b5bc
00000020: ce97 03bd d845 32bc 541e ccbc 1086 163b
00000030: 244c c23c 9422 92bc 52c6 cc3b 9a4c f5bc
00000040: 056f 8b3c 8907 eebc aceb e63c daab c3bb
00000050: 3151 d53c 69a2 443d e85b 88bb 42b4 91bc
00000060: ee50 0abd 2afe 113c a500 8dbd 1242 0b3d
00000070: d5a0 b93c 3560 98ba 9707 9e3c ffe2 80bb
00000080: 6f3c 4dbb fe63 b13b 8342 bbbc 9b61 51bc
00000090: dfbb f139 5549 b63c e188 ee3b 796d 24bd
000000a0: 30d4 973c 47ae b6bc 8029 82bc 26b8 ba3c
000000b0: 14f1 06bc 1241 03bd 3f19 34bb 30ca 05bd
000000c0: ee3c 523d e52d aa3c 1f1f d8bc f6fb bc3a
000000d0: 0e93 713c d3eb 51bd 09c8 5839 fe33 83bd
000000e0: d81c 94bd 954d 49bb db82 033c aba7 b0bc
000000f0: 848f 2fbd 682a 9ebc 2e50 82bb e635 2a3d
00000100: b73f 0e3d b07f 9bbd 112c 1d3d a1db b63c
00000110: 9ad2 153d 021e 2a3d fc7a 20bc eec3 293c
00000120: 4c99 723d 50c0 703d a784 9f3d 513e 25bd
00000130: 6e81 1dbc 9dbc c0bb 202c c5bc ff68 203d
00000140: 24b9 0c3c 0700 ecbc bc46 653c 1ff4 663d
00000150: 29f2 283c 2c7b feb9 ce08 163c 42fa 28bc
00000160: 5e04 5abd 1cf8 4dbd 15b3 b23c f717 fabb
00000170: ef66 0b3c ed86 01bd 41df 6dbd c605 263b
00000180: 5c21 0cbd 1c7d 27bd 43b2 87bc 4e18 2ebd
00000190: 29e2 713a ee65 dc3a cfab 193c ea37 683c
000001a0: 606f 08bd 1084 17bd b5c2 523d 9ca9 413d
000001b0: 0e9a dbba fb4c d33c 5b4d ffbc 7dde 9cbc
000001c0: 5f51 313b 0a21 1b3d 3359 c63b 0939 17bc
000001d0: 5678 14bc 2b25 06bc 473b 00bc 64d7 03bd
000001e0: 1e8d a6bc 859b 9bbc 7f13 b6bc 720e 23bd
000001f0: 0e3f acbb 0d7e 27bc 1b6f d33c 483f 2fbd
00000200: 5c27 d7bc b455 e73c 1725 e0bc 7013 9db9
00000210: d53f 70bd 9639 90bc 6245 bebc feec 09bd
00000220: 1eb8 403c c17c 01bd e772 f3bc 3886 2cbd
00000230: 7200 2c3a 3f89 553c f2f9 15bd 44bb 30bd
00000240: e0db f8bc df3a 90bc 203f 13bd ac45 18bd
00000250: e87b aebc eae3 1a3a c008 dbbc dc5f 843c
00000260: 1810 af3b 768a 513b 4f64 213b e6b7 2ebd
00000270: c11b bb3c 18d5 183d faa9 8c3b 7d51 b6bc
00000280: 8e6d 22bd d869 05ba 0b3a ecbc 433a c3bb
00000290: 2ba0 01bd 5569 f4bc 05c3 903c 6212 923c
000002a0: 186b 053c 09ca 2e3d acb9 0d3d 7d85 7cbb
000002b0: eda3 003b c3a5 a1bc 6894 31bc e291 3abc
000002c0: 31f6 70bc bdf0 b83c 1536 85bc 2ed7 a6bc
000002d0: 2db1 103d 0307 2b3d 9c13 f83c 5c54 963c
000002e0: 9e79 ee3c b7dc d43a 6a86 003d 4bf6 4d3c
000002f0: 716a f33b e2bf 97bc 381f 423a fbef 3f3d
00000300: a1f5 333d 19e5 1c3d 53e0 a7bb a9ab 07bd
00000310: bbef 273c e86b 293d 9a42 203c e9cf 6dbc
00000320: fa12 743c 518c 463c 76af a9bc 981c 7abc
00000330: 26de d8b9 556b 9bbc 38a4 fdbb d9f6 97bc
00000340: 6caa 91bc e301 b43c 337c 3abd 8dbf d8bc
00000350: 4bcc 00bd f6dc 193c 4fab b0bc 1a74 04bd
00000360: 07ce 303c 0f55 833b 01af 2bbc 0de7 003d
00000370: baff 79bd bfc0 d13c 036a 19bc bea4 46bc
00000380: 5d6b 78bc 476d 593a 149e 14bd 689f 6cbb
00000390: 1044 89b9 11e5 49bb 0c49 88bc a589 283c
000003a0: 9a18 48bc 5255 50bd 5995 63bb 7816 ed3c
000003b0: eeb9 1bbd c288 a2bc b7e3 36bd 5ef4 e2ba
000003c0: e984 493c 2ae2 5fbd 42ff 6b3c 622c 34bc
000003d0: fc81 6dbc 4b43 b7ba 47fa 4cbd aa7d a63a
000003e0: 5ebd d739 2504 89bd 43ab c4bc ffb9 65bd
000003f0: 363a 06bd f128 f13c 4b99 e03b 5f0a 06bd
-0.04519173 0.015154175 0.020547366 0.013603067 0.032849524 -0.0006204006 0.018272758 -0.022148324
-0.032127194 -0.01088091 -0.024916805 0.002296809 0.023717947 -0.017838754 0.0062492276 -0.029943753
0.017020712 -0.029056327 0.028188549 -0.005971414 0.026039692 0.04800645 -0.0041613467 -0.017786149
-0.033768587 0.008910695 -0.068848886 0.033998556 0.022659699 -0.0011625352 0.019290728 -0.00393331
-0.0031316539 0.0054135313 -0.022858864 -0.012779619 0.00046107077 0.022251764 0.007279501 -0.040143464
0.018533796 -0.022299899 -0.01588893 0.022792887 -0.008236188 -0.032044478 -0.0027480868 -0.032663524
0.05132764 0.020773837 -0.026382027 0.0014418352 0.014744533 -0.05125029 0.00020673884 -0.06406401
-0.07232064 -0.0030716409 0.008026804 -0.021564325 -0.042861477 -0.01930733 -0.0039768433 0.041555308
0.034728732 -0.07592714 0.038372103 0.022321524 0.0365778 0.041532524 -0.009794947 0.010361655
0.059228227 0.058777153 0.07788973 -0.040342633 -0.009613378 -0.0058818595 -0.024068892 0.039162632
0.008589063 -0.028808607 0.013993915 0.056385156 0.010311642 -0.00048538425 0.009157373 -0.010313572
-0.05322682 -0.050285444 0.021813909 -0.0076322514 0.008508428 -0.031622816 -0.05807424 0.002533303
-0.0342115 -0.040890798 -0.016564494 -0.042503648 0.0009227121 0.0016815045 0.009379341 0.014173487
-0.03330934 -0.03699118 0.05145522 0.047280893 -0.0016754286 0.025793543 -0.031164816 -0.01914906
0.0027056558 0.037873305 0.006053114 -0.009229907 -0.009061893 -0.0081875725 -0.007826633 -0.032187834
-0.020330962 -0.018995056 -0.022226093 -0.039808698 -0.00525654 -0.010222924 0.025809815 -0.04278496
-0.026263885 0.028239109 -0.027361436 -0.00029959856 -0.058654625 -0.017605584 -0.023226444 -0.03367328
0.011762647 -0.031613115 -0.029717876 -0.04212019 0.00065613457 0.01303321 -0.03661532 -0.04314734
-0.030378282 -0.017606197 -0.035948873 -0.03717582 -0.021299317 0.00059085956 -0.02673757 0.01615899
0.0053424947 0.0031973398 0.002462644 -0.042655848 0.022840383 0.037312597 0.0042927237 -0.022255654
-0.03965526 -0.00050893193 -0.02883627 -0.005957873 -0.03164689 -0.029835382 0.017671118 0.017831031
0.008143209 0.042673144 0.0346009 -0.0038531714 0.0019628957 -0.019732362 -0.010838605 -0.01138732
-0.014707134 0.02257573 -0.01626114 -0.020366278 0.035325218 0.041754734 0.030282788 0.018350773
0.029110726 0.0016240095 0.031378187 0.012570928 0.0074284603 -0.018524114 0.00074051647 0.046859723
0.04393542 0.038304422 -0.005123177 -0.033122692 0.010250027 0.041362673 0.009781504 -0.014514902
0.0148971025 0.012118415 -0.02071355 -0.015265606 -0.00041364244 -0.018972078 -0.0077405237 -0.018550323
-0.017781459 0.021973556 -0.0455286 -0.026458526 -0.03144483 0.00939106 -0.021566061 -0.032337286
0.010791308 0.0040079425 -0.010478736 0.031470347 -0.061034895 0.025604604 -0.009363654 -0.012124239
-0.015162316 0.00082941767 -0.036283568 -0.0036105756 -0.00026181387 -0.00308067 -0.016636394 0.010286723
-0.012212897 -0.050862618 -0.003472647 0.028941378 -0.038019113 -0.019840602 -0.04465076 -0.0017315259
0.012299755 -0.054659046 0.01440412 -0.01099691 -0.014496323 -0.0013981847 -0.05004337 0.0012702246
0.00041149085 -0.06690244 -0.024007445 -0.056085583 -0.032770358 0.029438468 0.0068542114 -0.032724734

bias f4 [64]
00000000: f575 d6bd 2daa 8b3c f0fb 95bd 1d09 03bd
00000010: 1257 25be a718 81bd 432a 94bd f858 8bbd
00000020: ca44 49bc b852 a73b e449 abbd 5951 59bd
00000030: 5bb7 bbbd c536 90bd a30a e63c 547e 4fbd
00000040: 928e 74bd e44d 4bbd 22f6 4fbd a4cb 47bd
00000050: 9379 19bd 22cd 03bc 6dfa 8bbc 7e84 c2bc
00000060: 582d 94bc fa73 d8bd 2a19 27bd e610 56bd
00000070: 1d7d b0bd 073c 45bd 1aca c33b b074 80bd
00000080: c8e6 72bd 8eed 86bb fe06 b3bd 041d 1ebd
00000090: bfed 3bbd 9052 08bd 0570 17bb 072f 84bd
000000a0: 64ab 87bd c730 19be 93d3 16be 99b4 89bd
000000b0: 48e4 9dbc 72e3 adbd 8ab8 05bc 60e5 aabd
000000c0: c1b3 c1bc 5868 cabd 70db d5bd 3197 20be
000000d0: 5159 c3bd 6e44 ecbb e8c7 91bd be3c c9bc
000000e0: 0554 ecba 3d55 b4bd 7b43 a6bd 303c 86bd
000000f0: a3ce 05bd 5113 b3bd e766 83bd 7b71 58bd
-0.10471717 0.01704892 -0.07323444 -0.031991113 -0.16146496 -0.0630353 -0.07234623 -0.06804079
-0.012284467 0.0051062964 -0.08363703 -0.053056095 -0.09165832 -0.070416965 0.028081244 -0.050657585
-0.05970628 -0.04963483 -0.05077184 -0.04877819 -0.037469458 -0.008044513 -0.017087186 -0.023744818
-0.018088028 -0.10568996 -0.040795483 -0.05226221 -0.086176135 -0.04815295 0.00597502 -0.062722564
-0.05930212 -0.004117674 -0.08741568 -0.03860189 -0.04588103 -0.033281863 -0.002310754 -0.06454282
-0.06624487 -0.14960013 -0.14729147 -0.067238994 -0.019273892 -0.084906474 -0.008161673 -0.08344531
-0.023645284 -0.09883183 -0.10442245 -0.15682675 -0.0953852 -0.007210306 -0.07118207 -0.024565097
-0.0018030411 -0.088053204 -0.0811834 -0.065544486 -0.032667767 -0.08743919 -0.064161114 -0.0528426

weight f4 [64, 1024]
00000000: 8eef 55bc 7980 643d 8585 283d bf06 1c3c
00000010: 5f6f 8d3d b116 2d3d 00ad ed3c ad19 3abb
00000020: 9552 93bb ce94 18bc e7c1 1c3d 4d43 183c
00000030: 5e71 b4bc de5b 40bc 82c8 29ba 904e 36bb
00000040: 9573 c1bc 1ac0 3c3c 548d 193c fe16 163c
00000050: 550c 33bd 7d9b 8cbb f083 2e3d 8036 733c
00000060: f5df 54bc 4744 0cbd 6deb 27bd ca03 77bd
00000070: 77ca ca3c b573 d5bc cd62 443b 2ee9 903b
00000080: 3301 783c cb4a 8a3c 0855 36bc cc4b 183c
00000090: d1a9 f33b 9854 19bd a83d e23a fad9 603b
000000a0: c60d 753c 0ceb 9cbc f111 263d 46e9 2f3c
000000b0: 060a 073d 5307 533c 9eae 88bc bc2a 5e3d
000000c0: 439f 53bc 2f73 c3bc 2f91 fc3c f527 6cbc
000000d0: 8523 063d fe99 0c3c c3a9 4cbc 2ecb ddba
000000e0: 6975 a53d af39 423c c4e3 813a aad0 023d
000000f0: 4454 613d 33d3 e13c 9222 653d 41d4 773d
00000100: 6da3 e0bc 894d 803d 47d6 81bc e4d1 873c
00000110: 6ddd 253d 3c5c 3a3c 7f68 fabc 03b2 1e3d
00000120: 69c3 50bb 8af9 9ebb 9cb6 573d 02c4 6f3c
00000130: aee1 113d 08a4 06bd 75b9 d03b 813d 21bd
00000140: 5bd3 51bc 7496 153d f469 8e3c 8a8a 253d
00000150: 546c dbbc 6495 bf3c c206 643c 0e72 983c
00000160: 8c29 c33c c11b 3f3c 5a8a e3bb 2813 b7bc
00000170: f460 5cbc 3604 7f3c 7130 313b 5178 c23c
00000180: c9d6 8cbb 1b13 063d 212d 3d3d 289d 6a3b
00000190: d3b4 cabc 64e9 fbbb 6479 f6bc 7f75 79bd
000001a0: 44d4 993c be96 093d 73e8 72bc 1af7 3b3d
000001b0: 200f 103c 2d6c 853d c93b 9fbb 7159 e93c
000001c0: 7b8f e23c 13d0 a93b eece 343c 74d8 1cbb
000001d0: 2941 5cbc 20e0 0ebd b90c ecbc 6565 133c
000001e0: 0756 57bc c667 83bd f160 9dba 9ef1 92bc
000001f0: b5d3 88bc 912d 9d3c ea2e b4bc 1959 103d
00000200: 33a5 413c 1641 2bbd af8d 61bd 8930 33bd
00000210: d437 8a3d 3458 5e3c cb3a 93bc 89c8 3fbd
00000220: b3b9 15bc be5b f03b 9442 13bd d590 903c
00000230: 8701 6e3b b21a 96bd 5d50 13bd 5f4a 0f3d
00000240: 2c30 213c 5a59 a7bc 373e 003d 632e febc
00000250: 74ff 133a 0b3a 8cb8 aa4c 04bc a06d 1a3b
00000260: f713 013d 5892 0bbc 27ec f5bc 7ee9 9ebc
00000270: 9bf9 a53b 1d87 c2bb d423 0cbd a947 8dbb
00000280: 4a16 cdbc bada 52bd f362 9f3b 1cae 13bd
00000290: 6b84 fbbc cfbe 96bb 162b 0d3d 043b 0f3b
000002a0: eee8 983c f356 4d3c 020a ef3c af06 12bb
000002b0: c767 e43b 572d 023d e21a 853d a013 b5bc
000002c0: 11fc 0e3d 61ae 2fbc c234 27bc 6eab eb3c
000002d0: 7f37 b5bc 48fb ab3d bb3d b9bc a368 403d
000002e0: ce42 273c 9250 e73c fb8e bdbb 5470 e23c
000002f0: 9977 cb3c 15c1 113c d678 443d 5508 d73c
00000300: f6ea 8c3c c6d4 733d 9f54 383c 3b54 933b
00000310: b6f8 7c3c febc dabb 0d5c 003d c45f 27bd
00000320: a15f a03c e424 a03c 3230 febb fe2b cbbc
00000330: 1103 093d d9dc d1bc 944e 6c3c fba6 18bd
00000340: 1c73 0bbd c26d ec3b 3bfd a6bb a9df 693d
00000350: 81e8 94bc 6b8e 133d 3db9 7b3c 6b5a 403c
00000360: 236d 343c c80b b4bb 109e 1ebd 0b48 fb3c
00000370: 08d0 d6bb 5e23 bbbc 60ee 6e3c f400 803c
00000380: 58d1 f0bc a1bb 5f3b e7b7 f9bc 82ad f1bc
00000390: 5570 553b 1cfb cb3a 8e6e 92bc 9639 03bd
000003a0: 9b53 443d f7e4 df3c b9bc 09bb 13c7 2bbc
000003b0: debf e13c 2c24 f63c c62a 2a3c 666f 8c3c
000003c0: d723 a0bb 0eb1 293d 8ea0 193b 4c1b c63b
000003d0: f007 9a3b 8360 93bb 8895 8abc 7414 b5bb
000003e0: 5d83 f03b 0782 0fbd b3ad 703c e802 583b
000003f0: a830 0f3d 4d78 8e3d 4b00 b23d 926d c63c
-0.013057603 0.055786584 0.04114296 0.009523093 0.06906008 0.04225797 0.029013157 -0.0028396652
-0.0044959285 -0.009312822 0.038270857 0.0092933895 -0.022026714 -0.011740653 -0.00064767164 -0.0027817823
-0.023614684 0.01152041 0.009372074 0.009160755 -0.043712933 -0.0042909966 0.042606294 0.014844537
-0.012992849 -0.0342448 -0.040996004 -0.060306348 0.024754746 -0.02605615 0.0029966116 0.0044223284
0.015137005 0.016881367 -0.0111286715 0.009295415 0.007436015 -0.03743419 0.0017260807 0.0034309612
0.014956897 -0.019155048 0.040544454 0.010736769 0.032968543 0.012880164 -0.016684826 0.054239973
-0.012916389 -0.023858635 0.030830948 -0.014413823 0.032748718 0.0085816365 -0.012491646 -0.0016921514
0.08079035 0.011854573 0.0009909798 0.03193728 0.055012003 0.027566528 0.055941172 0.060505155
-0.027421677 0.06264789 -0.015849246 0.016579576 0.04049437 0.011374529 -0.030567406 0.038743984
-0.0031854755 -0.0048515247 0.052664384 0.014634134 0.035615616 -0.032871276 0.0063697645 -0.039365295
-0.012806739 0.036520436 0.017384507 0.040415324 -0.026785053 0.023386665 0.013917627 0.018609073
0.023823522 0.011664332 -0.006943983 -0.022348002 -0.01345085 0.015564969 0.002703693 0.023739012
-0.0042980653 0.032733064 0.046185616 0.0035799239 -0.024744427 -0.0076877344 -0.03008718 -0.06090307
0.018777974 0.033591025 -0.014825928 0.04588995 0.008792669 0.065147735 -0.004859422 0.028485032
0.027656307 0.005182275 0.011035664 -0.0023932727 -0.01344327 -0.03488171 -0.02881466 0.008996342
-0.013143069 -0.064162776 -0.001200704 -0.017937478 -0.016702512 0.019186767 -0.021995027 0.03524122
0.011819172 -0.041810118 -0.05506676 -0.04374746 0.067489296 0.013570834 -0.01797237 -0.046822105
-0.009138512 0.0073351553 -0.035952166 0.017647186 0.0036316828 -0.073293105 -0.035965312 0.034983035
0.009838145 -0.020428348 0.031309333 -0.031027978 0.00056456705 -6.6865316e-05 -0.008074919 0.0023563877
0.03151318 -0.008518778 -0.030019833 -0.019398447 0.0050651557 -0.005936517 -0.034213856 -0.004311521
-0.025035042 -0.051478125 0.0048640906 -0.036054716 -0.03070279 -0.004600383 0.034464918 0.0021855244
0.018665757 0.012532937 0.029179577 -0.0022281816 0.006970379 0.03178152 0.06499268 -0.022104084
0.034908358 -0.0107227275 -0.01020545 0.028768267 -0.02212119 0.083975375 -0.022612443 0.04697479
0.010208799 0.028236661 -0.005784867 0.027641453 0.024837302 0.008896132 0.0479668 0.02624909
0.017201882 0.05952909 0.011250644 0.004496125 0.015440157 -0.0066753617 0.031337786 -0.040862814
0.01957685 0.01954884 -0.00775721 -0.02480125 0.03345019 -0.025618004 0.014423031 -0.03726862
-0.034045324 0.0072152326 -0.0050961054 0.057098065 -0.018177273 0.036024492 0.0153639885 0.011740307
0.011012348 -0.0054945685 -0.03872496 0.030674001 -0.006555561 -0.022844013 0.0145832 0.015625454
-0.029396698 0.0034138935 -0.0304832 -0.02950168 0.0032568176 0.0015562507 -0.017874982 -0.03203734
0.047931295 0.027330859 -0.0021017028 -0.010484475 0.02755731 0.030046545 0.010386175 0.017142963
-0.004887085 0.041428618 0.0023441645 0.0060457345 0.0047006533 -0.004497589 -0.016917005 -0.00552612
0.0073398785 -0.035036113 0.014689851 0.0032960717 0.03495851 0.06956539 0.08691462 0.02422217

bias f4 [64]
00000000: 1daa d9bc 85ae 8a38 ec52 1fbd 6779 a3bc
00000010: 9e44 303c 814c ad3c f022 c8ba 9065 06bd
00000020: 05d6 473c 4bb7 61bd 263f 6a3b c95e 283b
00000030: 6e85 913b dd66 2c3d 8ffb 42bc ae73 c8bb
00000040: 31ee a83c 7929 003d f04c 94bd 156b 90bb
00000050: bba8 2cbb 0964 7fbc a0ea 36bc f4b4 523d
00000060: 637e 813c 1b43 413d 8a1a 9b3c e78d 143d
00000070: 37c6 583d ab90 043d dfe8 52bc 99fb ea3b
00000080: 3b54 2fbd 5f7b 2c3d aad2 b43b 2602 14bc
00000090: 25e1 3cbc 3b02 e13c 5dd2 47bd 815d bbbb
000000a0: 24f4 55bd 10bd 66bc f39f 13bc 6dcd be3c
000000b0: eac9 5b3b 29f8 67bb dc9f 423d 635c 0ebd
000000c0: 6735 963d f428 8d3c afd4 03bc 5f63 d9bc
000000d0: 6935 2ebd 7919 b43a 2eb1 97bb 8285 443c
000000e0: 1ade 833d 5b19 9cbc bdd2 f0bb 8f02 ae3c
000000f0: b149 81bd 9600 edba 34d0 383c 66ed 60bd
-0.026570374 6.6128596e-05 -0.03889744 -0.01995535 0.010758547 0.021154644 -0.0015269201 -0.0328117
0.012197022 -0.055106442 0.0035743206 0.0025691262 0.004440955 0.042090286 -0.011900797 -0.0061173057
0.020621391 0.03128955 -0.07241237 -0.0044072964 -0.0026345688 -0.015587815 -0.011164337 0.0514421
0.015807336 0.047183137 0.018933553 0.03626814 0.052923407 0.03236453 -0.012872904 0.007171106
-0.042804938 0.042109843 0.005518277 -0.009033715 -0.011528288 0.027466884 -0.048784602 -0.0057179336
-0.052234784 -0.014083162 -0.009010303 0.023291314 0.0033537098 -0.0035395718 0.047515735 -0.034756076
0.073344044 0.017231442 -0.008046313 -0.026536642 -0.042531405 0.0013740502 -0.0046292758 0.011994721
0.06438847 -0.01905506 -0.0073493407 0.021241454 -0.06312884 -0.001808184 0.011280108 -0.0549139

weight f4 [10, 64]
00000000: 2fdc a13d 788a 4a3d d3c6 123e a2f8 67be
00000010: 7d1e 44be 9ac5 3b3e 40bc 97be 4f4c a53e
00000020: 770f dcbd 4333 9c3c 28b6 0dbe 164c 633d
00000030: 03e7 6eba d41f e8bd 1df0 07bd 448f 3ebd
00000040: 594a 023d 17c8 8fbe cf1b 0e3d d21d 5d3d
00000050: 1da0 e5ba 9594 c1bd 6df7 0dbd 5893 7e3d
00000060: 383b 7fbb 0185 3abe cbd2 fbbd 6d63 353e
00000070: 7741 92be 488b 40be c38d 4cbd e32e 8e3c
00000080: 4cff cabd c4d3 023e 71e4 00bc e914 af3e
00000090: 95a2 453e 3aff 023e cdf3 683d 8fd3 aebe
000000a0: 125c 423e d112 d2bd bf9e 22be 0de1 1ebe
000000b0: 8e4a a53d 3b53 bf3d 77cc 2dbe 2562 0abe
000000c0: 741e 95be 5a75 8ebc b2ad 1e3e 7215 463e
000000d0: c2fe 38be 55bf d0bd addd 07bb ac63 db3c
000000e0: e612 6fbd dc0a 29bb e961 89bd f2f5 e2bd
000000f0: 84a1 1e3e c328 88be 5d2f f63d 92fc 903e
00000100: 6df5 7a3e 9adc 50be 8996 67be 5239 7a3e
00000110: 8ba2 3ebd 64b6 0bbe 415f cabd 8706 c73d
00000120: 007b 3c3e d395 0abe 5605 b4bd 74ca ffbd
00000130: 2466 633c 8d44 71be 7fe6 0ebe 1126 82bd
00000140: cd4a 073c 499c 80be d6a3 7d3d b567 303e
00000150: 851f 2dbe 04bf b13e ffb1 f23d 6ef4 513e
00000160: 169e 933e 197f 333d 716c 523e 0a97 18be
00000170: 412e 4ebe 2e19 183e 3040 34bd 4fcc 683d
00000180: fe1a dfbd 0833 87be 22cf edbd 0319 a8be
00000190: 6c63 b93d f0d3 763e 483e 58be 966c 5bbe
000001a0: cdf0 24be 85cc 543e a117 823e 171b 453e
000001b0: 07f0 87be 9894 c73a c675 77bd ace6 3c3d
000001c0: 989b 5ebe 6f95 91bd 6eb6 4a3c af96 78be
000001d0: bb90 14be 1f3e a43e 4516 5e3e c5a4 893e
000001e0: 8ede 9bbe 82c9 27be 06bb 9b3e 423d 95bd
000001f0: dc9c 6bbd 70d4 11bc 6fed 5a3e e4dd 65be
00000200: 7bfb 61be f035 cb3c 7b25 cdbc ec33 10be
00000210: 15bc 6fbe 94ff aa3e d866 a53d 44f6 373e
00000220: f758 a7bd 3515 113d 5f22 f83c db0e 57bc
00000230: bbdb 2bbe 88bb a73c f98c a23d 7b91 873e
00000240: f503 b0bd 247a cebd d7c8 773e 44e8 8bbe
00000250: de37 9c3d 3a97 55bc d892 713b 1d31 9ebd
00000260: bf2c 9d3d 33cd 3ebe 0fd3 8abe 93df 95be
00000270: 474b 233c b4b6 cd3d 1c17 d6bc c3c5 103d
00000280: bf2f 2ebe d4d7 aabd 9cc4 043a 2793 a43e
00000290: 4b40 59be a74f 513d d2f7 ccbb c0a7 883e
000002a0: 1716 823e b70b 80be 9792 673e fa29 203e
000002b0: 27f5 863e 79ae 06bd 8571 64bd c6c3 21be
000002c0: 8373 873c 1e37 d8bd 7043 28bd bb90 afbd
000002d0: 043d 1dbe f3af 0cbe 5bd8 243e 190a 84be
000002e0: 5fde 863e 9df8 34bd c152 12be 5ac1 0bbd
000002f0: b1e1 e1bd f520 513e 21bf d23d 94e6 12be
00000300: 605b 5e3e f0ef 313d 50c2 3a3e 3b0b c23d
00000310: 4b68 3f3e 6f55 5f3d df9b 7d3e a595 a6bc
00000320: 8fa0 993d 4616 ca3d 0aec bc3d fd9d 1fbe
00000330: 66fe 003e 6b95 e33d c364 ee3d 036b b6bd
00000340: 44b5 0fbe 6703 5c3d c3bb 803d 0443 6a3e
00000350: b206 2ebe 3b0a 84be 8044 823c 5613 5ebe
00000360: 0161 273e f980 933b fe34 2abe cf5d 573e
00000370: f906 863c a8a5 81bc 4c4d cfbd ebdd fb3d
00000380: 72cb 17be 859a e83d bc1b c3bd 2788 49be
00000390: 0133 dabd c330 bcbd eb2f 963c 2cb5 6cbc
000003a0: 24d7 283d a842 533b e0bd 29be 9548 e53d
000003b0: d7c8 b43c a5f8 99bb 1078 bbbd 4e63 23be
000003c0: 46ea a73d 1b5e da3d 6014 4dbe ad0e f9bd
000003d0: 41df f73d 7644 54bd 8dc1 653d 21f9 43be
000003e0: aeb0 053e aa6e 2cbe 38c6 5bbe cc49 08be
000003f0: afe1 a4bd 4835 ff3d 4c7f a9bd 1ece f33c
0.07903325 0.04944846 0.14333658 -0.2265344 -0.19152255 0.18337098 -0.2963581 0.3228478
-0.10745137 0.019067412 -0.13839018 0.055492483 -0.0009113403 -0.11334196 -0.033187974 -0.046523347
0.031809185 -0.28082344 0.03469449 0.053983517 -0.0017519031 -0.09452168 -0.03465979 0.062152237
-0.003894521 -0.182148 -0.12296065 0.17713709 -0.2856557 -0.18803132 -0.049939882 0.017356342
-0.09911975 0.12776095 -0.007866965 0.3419564 0.19300301 0.12792674 0.05687313 -0.3414578
0.18980435 -0.10257495 -0.1588087 -0.15515538 0.08070861 0.09342047 -0.16972528 -0.13514002
-0.29124796 -0.017389942 0.15495947 0.19344118 -0.18065932 -0.10192744 -0.0020731494 0.026780926
-0.058367632 -0.0025793826 -0.06708128 -0.110820666 0.15491301 -0.265936 0.120207526 0.28317696
0.24507685 -0.20396653 -0.22616018 0.24435928 -0.04654173 -0.13643795 -0.098814495 0.09718042
0.18406296 -0.13533716 -0.0879008 -0.12489787 0.013879333 -0.23561306 -0.13955115 -0.06354917
0.00825758 -0.25119236 0.061923824 0.17227061 -0.16906555 0.34716046 0.11850356 0.20503399
0.28831547 0.04382238 0.2054918 -0.14901367 -0.20134832 0.14853355 -0.044006526 0.05683547
-0.1089382 -0.2640612 -0.11611773 -0.32831582 0.09052166 0.24104285 -0.21117508 -0.21428141
-0.16107483 0.20781143 0.25408652 0.19248615 -0.26550314 0.001522678 -0.060415052 0.046118423
-0.21739042 -0.0710858 0.012372596 -0.24276231 -0.14508335 0.32078645 0.21688183 0.26883522
-0.30443233 -0.16385463 0.30416125 -0.072870746 -0.05752264 -0.008900747 0.21379636 -0.22447926
-0.22068588 0.024805993 -0.025042286 -0.14082307 -0.23411591 0.33398116 0.080762565 0.17965037
-0.081712656 0.035420615 0.030289827 -0.0131261 -0.1678304 0.020475164 0.07937045 0.2647818
-0.08594505 -0.1008189 0.24197708 -0.27325642 0.07627843 -0.0130365435 0.0036861207 -0.07724211
0.0767455 -0.18632965 -0.2711415 -0.29272136 0.009966678 0.100446135 -0.026134066 0.03534485
-0.17010401 -0.08341947 0.00050646975 0.32143518 -0.21215932 0.051101353 -0.0062551284 0.26690483
0.25407478 -0.25008938 0.22614513 0.15641013 0.2635891 -0.032881234 -0.055772323 -0.15797338
0.016534572 -0.10557388 -0.04107994 -0.08572527 -0.15355307 -0.13738994 0.16098158 -0.25788954
0.2634153 -0.04418241 -0.1428938 -0.03411994 -0.11029375 0.20422728 0.10290361 -0.14345771
0.21714544 0.043441713 0.18238187 0.09474798 0.18692128 0.054524835 0.24766491 -0.020335028
0.07501327 0.098675296 0.092247084 -0.15587611 0.12597045 0.111124836 0.116403125 -0.089071296
-0.14033991 0.053714182 0.06285813 0.22877127 -0.16994742 -0.25789055 0.015901804 -0.21687064
0.16345598 0.0045014587 -0.16621777 0.21031879 0.016360747 -0.015826061 -0.10122165 0.12298187
-0.14823702 0.11357597 -0.09526774 -0.19680844 -0.106542595 -0.09188988 0.018333396 -0.014447492
0.0412208 0.0032235775 -0.16576338 0.111954845 0.022068424 -0.00469883 -0.091537595 -0.1595585
0.08198981 0.106624804 -0.20027304 -0.12161002 0.12103129 -0.051823102 0.056092788 -0.19138004
0.13055679 -0.1683909 -0.21462333 -0.13309401 -0.08050858 0.124613345 -0.08276233 0.02976137

bias f4 [10]
00000000: cc37 67be e74c 8fbd 519e dd3d 02b0 ca3d
00000010: ba22 323e e517 22be b6b3 163e de1c 893d
00000020: 1206 c2bd 22a1 fc3c
-0.22579879 -0.0699709 0.10821212 0.09896852 0.1739606 -0.15829428 0.14716992 0.06694959
-0.09473814 0.030838553
