Pytorch/model_data/CIFAR10_EPOCH0.pth (torch, 588699 bytes, 10 tensors)

weight f4 [32, 3, 5, 5]
-0.05108985 -0.04110883 0.018975338 -0.07425009 -0.01527553 0.09307711 0.006035007 -0.014815948
0.024274018 -0.073693134 -0.06067952 -0.00029219658 0.06116563 -0.116386116 -0.015793975 -0.035382275
-0.10538984 -0.03629897 -0.030459736 0.04121278 0.06627054 0.003626554 -0.12161494 -0.072700866
-0.12491813 0.030708116 0.089339584 -0.07508557 0.1007198 0.10683003 0.023748487 -0.086695805
-0.0908971 0.046079937 -0.08568694 0.04532781 -0.11104117 -0.0027220694 -0.12888482 -0.06663113
-0.06957578 0.035320688 -0.1313609 -0.024272576 -0.10942661 -0.108610876 0.04064291 0.017494515
-0.002219129 -0.08841963 -0.06682385 0.07356235 -0.09215965 0.11683613 0.11516832 0.038925137
0.025260795 -0.011270205 0.08086792 -0.07637034 0.026866922 -0.09193888 -0.10888753 -0.058962457
0.11276304 0.037427958 0.02096588 -0.017577745 0.012786635 -0.073420756 0.08402702 -0.0054295766
0.08342294 0.10095486 -0.020101417 0.04369682 0.08638781 0.1085431 0.07168431 0.10667146
-0.030067576 -0.01718444 0.08041505 0.0021751504 -0.08852893 0.017875353 -0.07115964 -0.0854072
0.012622483 0.025379894 0.10599082 0.03472412 -0.085028216 -0.10917342 -0.06953391 0.010356492
0.0036633909 0.034646187 0.10299673 -0.07547595 0.07132312 0.03170256 -0.02379732 0.07481608
0.035887524 -0.091778584 -0.012544349 0.09732503 -0.107337 -0.07849664 -0.068925686 -0.004609071
0.07368738 -0.03416802 -0.072162785 0.008334154 -0.01568022 -0.115719005 -0.029617839 -0.029319331
0.105254315 -0.019241748 -0.07916303 0.027196828 0.03724471 0.05558168 0.049633 -0.08309019
0.030974193 -0.052789122 0.0814784 -0.040273383 -0.013964471 0.11626794 0.033434164 0.07742398
-0.108468875 -0.005646638 -0.071414225 0.026622264 0.079377435 -0.031024663 0.09071418 0.09381113
-0.007604797 -0.019468313 0.07617519 0.067186706 0.02167872 -0.060478445 0.055235673 -0.01800251
0.06673881 0.07226528 -0.10092431 -0.04334116 -0.026685884 -0.10181838 0.09233203 -0.002595734
-0.060249604 -0.076782025 0.0151419295 0.005329213 -0.040961582 0.03352454 0.1213656 -0.0112056555
-0.036642183 0.07939453 0.041633572 0.07956026 -0.07702986 0.023721969 0.05610452 -0.088044666
0.01599459 -0.08868281 0.012326502 -0.106459156 0.050628375 -0.09317034 -0.0863633 0.09557546
0.0075703748 0.11447978 -0.051039662 -0.078675576 0.06299283 -0.089923985 -0.02530979 0.058914367
-0.009752209 -0.037338484 -0.09559382 -0.09157652 0.097541794 0.0039458927 -0.07353548 0.008126508
-0.04096604 -0.13768336 -0.14433344 -0.12133213 0.025010943 -0.015790477 0.0630777 -0.1398102
-0.107970975 -0.10212008 -0.0098949075 0.07512467 -0.061354574 -0.14336166 0.08026796 0.08473088
-0.0023427624 -0.10228964 -0.13553722 -0.06379667 -0.119536325 -0.057385415 -0.13408957 -0.11051934
-0.09292004 0.058437478 0.013588775 -0.02763227 0.03134695 -0.11096941 -0.053192254 0.0983306
0.06565092 0.006855945 -0.079094306 0.001151278 0.027558714 -0.034454994 -0.021871775 0.07441244
0.03389783 -0.04453922 -0.064425975 0.010477217 0.09660888 0.068379425 -0.10434304 -0.11135591
0.05799085 0.051588323 -0.10420945 0.016696827 0.11285655 -0.0061500366 -0.074036725 0.07933392
00000000: 9743 51bd bc61 28bd 2b72 9b3c 6e10 98bd
00000010: 3746 7abc 369f be3d 4fc1 c53b 97be 72bc
00000020: 4eda c63c 6dec 96bd 178b 78bd f631 99b9
00000030: d088 7a3d d85b eebd 5e62 81bc 01ed 10bd
00000040: a1d6 d7bd 3bae 14bd b286 f9bc bbce 283d
00000050: d9b8 873d 7bab 6d3b 4111 f9bd 31e4 94bd
00000060: 14d5 ffbd 968f fb3c acf7 b63d 77c6 99bd
00000070: 2f46 ce3d b4c9 da3d 308c c23c 928d b1bd
00000080: 4228 babd 51be 3c3d a27c afbd a7a9 393d
00000090: 8e69 e3bd bf64 32bb 62fa 03be e775 88bd
000000a0: bf7d 8ebd 6dac 103d 7983 06be 48d7 c6bc
000000b0: 0f1b e0bd 616f debd 2e79 263d a850 8f3c
000000c0: ce6e 11bb 5a15 b5bd f1da 88bd dba7 963d
000000d0: 33be bcbd c847 ef3d 5edd eb3d f76f 1f3d
000000e0: baef ce3c aaa6 38bc 149e a53d 0e68 9cbd
000000f0: 0518 dc3c 744a bcbd 6d00 dfbd 9e82 71bd
00000100: 4ff0 e63d 0f4e 193d a3c0 ab3c 34ff 8fbc
00000110: 097f 513c 9f5d 96bd 5c16 ac3d 97ea b1bb
00000120: a5d9 aa3d 6cc1 ce3d baab a4bc 70fb 323d
00000130: 18ec b03d d84b de3d 39cf 923d 9176 da3d
00000140: 4750 f6bc 62c6 8cbc a5b0 a43d f88c 0e3b
00000150: a84e b5bd 556f 923c 25bc 91bd f8e9 aebd
00000160: 88ce 4e3c 7fe9 cf3c b711 d93d e13a 0e3d
00000170: 4623 aebd 5096 dfbd cb67 8ebd 47ae 293c
00000180: 8015 703b 29e9 0d3d f3ef d23d 2393 9abd
00000190: db11 923d 8bda 013d 99f2 c2bc 2c39 993d
000001a0: ccfe 123d 69f6 bbbd d086 4dbc 5852 c73d
000001b0: 80d3 dbbd d9c2 a0bd e928 8dbd b107 97bb
000001c0: 69e9 963d c4f3 0bbd 15ca 93bd fa8b 083c
000001d0: ce73 80bc 16fe ecbd 1ca1 f2bc 182f f0bc
000001e0: 938f d73d dfa0 9dbc 3a20 a2bd e2cb de3c
000001f0: e98d 183d 9ea9 633d f94b 4b3d 312b aabd
00000200: 97bd fd3c 6839 58bd 26de a63d b4f5 24bd
00000210: 3dcb 64bc e31d ee3d 43f2 083d 7790 9e3d
00000220: ee24 debd 6f07 b9bb 9f41 92bd ef16 da3c
00000230: a390 a23d 6f27 febc 5bc8 b93d 0d20 c03d
00000240: a931 f9bb 037c 9fbc bd01 9c3d 2f99 893d
00000250: 9297 b13c 3fb8 77bd cd3e 623d 007a 93bc
00000260: 5bae 883d d2ff 933d 68b1 cebd 8086 31bd
00000270: 5b9c dabc 2886 d0bd 9318 bd3d 311d 2abb
00000280: 4ac8 76bd e53f 9dbd db15 783c aea0 ae3b
00000290: 55c7 27bd 0751 093d 878e f83d ed97 37bc
000002a0: 1d16 16bd 9999 a23d f787 2a3d 7df0 a23d
000002b0: d5c1 9dbd 9354 c23c dacd 653d c350 b4bd
000002c0: 1607 833c 559f b5bd 19f5 493c 4207 dabd
000002d0: b35f 4f3d 17d0 bebd 3edf b0bd 11bd c33d
000002e0: e810 f83b 6074 ea3d f70e 51bd a920 a1bd
000002f0: 6302 813d 112a b8bd 7a56 cfbc 3150 713d
00000300: bbc7 1fbc 3df0 18bd b1c6 c3bd 788c bbbd
00000310: fec3 c73d 8c4c 813b c599 96bd 0c25 053c
00000320: 02cc 27bd defc 0cbe 25cc 13be fb7c f8bd
00000330: c0e3 cc3c 085b 81bc e22e 813d 682a 0fbe
00000340: e31f ddbd 5524 d1bd 401e 22bc f7da 993d
00000350: ef4e 7bbd 66cd 12be 8763 a43d 6287 ad3d
00000360: 0889 19bb 3b7d d1bd 45ca 0abe d4a7 82bd
00000370: 76cf f4bd f80c 6bbd c74e 09be f757 e2bd
00000380: dd4c bebd 235c 6f3d 74a3 5e3c 125d e2bc
00000390: a965 003d ee43 e3bd 1fe0 59bd 8e61 c93d
000003a0: fd73 863d d6a7 e03b 32fc a1bd 7be6 963a
000003b0: d0c2 e13c ae20 0dbd 702c b3bc 8d65 983d
000003c0: 73d8 0a3d c26e 36bd c4f1 83bd a2a8 2b3c
000003d0: e0da c53d 830a 8c3d ceb1 d5bd 910e e4bd
000003e0: d087 6d3d 474e 533d c46b d5bd c9c7 883c
000003f0: 5621 e73d 3f86 c9bb 91a0 97bd d279 a23d

bias f4 [32]
-0.04322725 0.027100986 -0.0049618855 -0.091260955 0.037148904 0.047028225 -0.11160494 -0.0036634142
0.021420162 -0.09582624 0.03011168 -0.030238746 0.031981908 -0.038391575 0.0748594 -0.047321416
0.14368518 -0.030691653 0.014257001 0.05530437 0.021519123 0.1348134 -0.084576234 0.02574514
0.1129967 0.15004869 -0.065116026 0.009919986 -0.032545038 0.071155615 -0.05793549 -0.06516402
00000000: 0f0f 31bd e302 de3c 5097 a2bb 06e7 babd
00000010: 7329 183d aba0 403d 2191 e4bd e415 70bb
00000020: 5679 af3c 8c40 c4bd c5ac f63c 3fb7 f7bc
00000030: 76ff 023d 7c40 1dbd e34f 993d 1ad4 41bd
00000040: 3522 133e 106d fbbc 3296 693c d686 623d
00000050: df48 b03c 860c 0a3e 4e36 adbd 79e7 d23c
00000060: d06a e73d 5da6 193e 8d5b 85bd 7087 223c
00000070: f24d 05bd 09ba 913d c44d 6dbd b774 85bd

weight f4 [32, 32, 5, 5]
-0.033259004 -0.020800173 0.0034973945 0.0155908605 -0.02565329 -0.030294588 0.03313141 -0.022754211
-0.02467618 0.021687947 0.015117215 -0.013641775 -0.011757638 0.02466165 -0.023829497 0.018327774
-0.0317063 0.0051679257 0.03655388 0.03757844 -0.024477556 0.007158953 -0.008174913 -0.029699579
0.00812688 0.027135786 0.0006043983 -0.03282941 0.021683995 0.017286286 -0.027913949 0.012958454
0.0028954905 0.004963347 -0.020017952 -0.020609261 -0.025430424 0.027052639 0.033733495 -0.022795532
-0.01133547 -0.03080504 0.021046832 0.025383316 -0.028410668 -0.0061183805 0.0074498164 0.015954837
-0.016088776 0.016888771 -0.024007991 0.032787852 0.028858831 0.01822819 -0.008586521 -0.0010567304
0.024014909 -0.0341317 0.02206443 -0.01662353 0.001001679 -0.010829357 -0.0350111 -0.03266556
-0.005224745 0.019915031 -0.0074320473 -0.031078931 0.012420726 0.022613117 0.035388768 0.022704909
-0.031501386 0.020097956 -0.023123397 0.018092636 0.0047593922 -0.0005121152 0.033764336 0.028551437
0.017379355 0.03198972 0.01605411 -0.00096864015 0.032881796 -0.0002589757 -0.02316766 0.014485682
0.008404406 -0.025681922 0.0184574 -0.0084779905 0.030317292 -0.0031342928 0.003755419 0.027371166
-0.025874414 -0.006182072 0.03196562 0.035052262 -0.034301482 0.01977659 0.025010372 -0.028030343
-0.018521097 0.019934112 -0.02080552 0.027753925 0.024636008 -0.016094115 -0.0027868643 -0.003175683
0.008386688 -0.023882587 0.032067433 0.020562451 -0.0072971475 0.01035755 -0.021601755 0.036079757
-0.012836281 -0.025380261 0.023795549 0.01963261 -0.0012964483 -0.02313336 0.0019862368 -0.029095987
0.007241094 -0.005754719 0.031282052 0.022988195 -0.0046778293 0.029689407 0.022005055 -0.01541971
-0.0032300162 -0.016079435 0.023019202 0.011373128 0.036861084 -0.018416164 0.021011548 0.004365691
-0.026060522 -0.016320862 0.017925512 -0.024970006 0.03311563 0.015264497 0.026909024 -0.012405835
-0.027199138 -0.014212669 -0.011080437 -0.015949368 -0.02413854 0.014098723 0.037125826 0.01989737
-0.005520411 -0.029938024 0.011042125 0.011128575 0.022378335 -0.008015912 -0.010474124 0.010424156
0.007078386 0.009422243 0.016012536 -0.036919683 -0.020024598 -0.006632379 0.033394415 0.030940352
-0.0202637 -0.024631148 0.0149005 0.027146103 0.023011249 0.007833069 -0.010735594 0.029800327
0.0251019 0.024047144 0.0274174 -0.010975271 0.03408806 -0.013415376 0.005044122 -0.018475564
-0.009162204 0.010434133 0.0016052482 0.017007895 -0.024854088 -0.028187532 0.032126773 0.018269835
-0.02056579 0.025413282 0.019914938 0.035135567 -0.027037764 -0.010027748 -0.0071048806 0.016044395
0.019892083 -0.026737353 0.02804804 0.035542898 -0.0061844084 0.018522473 -0.02903148 0.00020087473
0.032435637 -0.020669991 -0.029481879 0.023598976 -0.021355134 0.013736813 -0.021383235 -0.0022501617
0.030176016 0.0030932443 -0.019501215 0.035866845 -0.024283307 0.026089866 0.032459293 0.025660137
-0.031555336 0.011652964 0.014572188 0.011944126 -0.021953136 -0.0077152797 0.005371894 -0.009769868
0.014553806 0.036784563 0.02994129 -0.028124712 -0.019411357 0.022945063 -0.024368409 -0.017056245
-0.007719981 0.016214043 -0.013639167 0.022214802 0.024931787 -0.028343733 -0.021268776 -0.0025437763
00000000: 983a 08bd 2065 aabc 8b34 653b cf70 7f3c
00000010: d926 d2bc 5b2c f8bc cdb4 073d 0a67 babc
00000020: b325 cabc ecaa b13c 32ae 773c c081 5fbc
00000030: 1ca3 40bc 3b07 ca3c 1436 c3bc 2124 963c
00000040: 77de 01bd b457 a93b 85b9 153d daeb 193d
00000050: 2885 c8bc a795 ea3b 12f0 05bc 884c f3bc
00000060: 9b26 053c de4b de3c 7c70 1e3a 2278 06bd
00000070: a2a2 b13c f89b 8d3c cbab e4bc b24f 543c
00000080: 45c2 3d3b 93a3 a23b b0fc a3bc c1d4 a8bc
00000090: 7753 d0bc 7f9d dd3c 222c 0a3d b2bd babc
000000a0: 68b8 39bc da5a fcbc 686a ac3c acf0 cf3c
000000b0: 7dbd e8bc b27c c8bb 971d f43b b8b3 823c
000000c0: 9ccc 83bc 525a 8a3c 68ac c4bc 8e4c 063d
000000d0: 5b69 ec3c 4953 953c 7bae 0cbc fd81 8aba
000000e0: eaba c43c aecd 0bbd 77c0 b43c 122e 88bc
000000f0: c54a 833a 9e6d 31bc cd67 0fbd 52cc 05bd
00000100: 5634 abbb d924 a33c 8888 f3bb 3e99 febc
00000110: 4d80 4b3c 253f b93c d0f3 103d a5ff b93c
00000120: 9907 01bd 78a4 a43c 476d bdbc 0237 943c
00000130: adf4 9b3b 783f 06ba 794c 0a3d b4e4 e93c
00000140: 265f 8e3c a707 033d e983 833c 57ec 7dba
00000150: 10af 063d 21c7 87b9 1bca bdbc 5b55 6d3c
00000160: a2b2 093c e562 d2bc f933 973c 45e7 0abc
00000170: f85b f83c b568 4dbb 7a1d 763b 7f39 e03c
00000180: 94f6 d3bc fb92 cabb 62ee 023d f692 0f3d
00000190: b67f 0cbd 8402 a23c 8de2 cc3c e49f e5bc
000001a0: 8eb9 97bc dd4c a33c 5670 aabc 335c e33c
000001b0: 74d1 c93c ced7 83bc d3a3 36bb 1f1f 50bb
000001c0: 5268 093c 6aa5 c3bc 2459 033d 9672 a83c
000001d0: e91c efbb b7b2 293c 2af6 b0bc 5ec8 133d
000001e0: 444f 52bc 44ea cfbc e2ee c23c 91d4 a03c
000001f0: 96ed a9ba 2c82 bdbc 862b 023b b55a eebc
00000200: b346 ed3b 1592 bcbb 9c21 003d bd51 bc3c
00000210: 7a48 99bb 3337 f33c f243 b43c f4a2 7cbc
00000220: aeae 53bb 05b9 83bc c492 bc3c 5b56 3a3c
00000230: a6fb 163d 7fdd 96bc 6920 ac3c 120e 8f3b
00000240: e07c d5bc 54b3 85bc 86d8 923c e68d ccbc
00000250: 41a4 073d f117 7a3c 5070 dc3c d841 4bbc
00000260: bad0 debc 41dc 68bc b98a 35bc 40a8 82bc
00000270: 30be c5bc 55fe 663c 4011 183d cfff a23c
00000280: 90e4 b4bb 9640 f5bc 07ea 343c a054 363c
00000290: c552 b73c 2c55 03bc a99b 2bbc 14ca 2a3c
000002a0: cef1 e73b c05f 1a3c b92c 833c 1839 17bd
000002b0: a00a a4bc 6d54 d9bb 95c8 083d 9f76 fd3c
000002c0: 0f00 a6bc 43c7 c9bc 3a21 743c 8161 de3c
000002d0: 1682 bc3c 4656 003c 58e4 2fbc d11f f43c
000002e0: 80a2 cd3c 84fe c43c 759a e03c a0d1 33bc
000002f0: ec9f 0b3d 2acc 5bbc 2a49 a53b 115a 97bc
00000300: 121d 16bc edf3 2a3c 3167 d23a 2454 8b3c
00000310: cd9a cbbc 8ae9 e6bc 5d97 033d 9faa 953c
00000320: 9679 a8bc 842f d03c a724 a33c 50ea 0f3d
00000330: 4d7e ddbc 6c4b 24bc 0fd0 e8bb 896f 833c
00000340: b9f4 a23c 4b08 dbbc 01c5 e53c 6e95 113d
00000350: 94a6 cabb 71bc 973c 6dd3 edbc e6a1 5239
00000360: 3bdb 043d 1d54 a9bc fb83 f1bc a452 c13c
00000370: f6f0 aebc 5f10 613c e52b afbc 7377 13bb
00000380: b133 f73c 07b8 4a3b 03c1 9fbc 1de9 123d
00000390: c9ed c6bc 6aba d53c 09f4 043d 3535 d23c
000003a0: 2b40 01bd 13ec 3e3c 30c0 6e3c 4cb1 433c
000003b0: 10d7 b3bc 75d0 fcbb b706 b03b cc11 20bc
000003c0: 1673 6e3c 69ab 163d 7047 f53c cc65 e6bc
000003d0: 9104 9fbc 49f7 bb3c 42a0 c7bc 8ab9 8bbc
000003e0: e5f7 fcbb 50d3 843c d076 5fbc d1fb b53c
000003f0: bf3d cc3c 1e31 e8bc db3b aebc 7cb5 26bb

bias f4 [32]
-0.024905248 -0.032759372 -0.020439183 -0.015316581 -0.014634908 0.016857464 -0.010910972 -0.0033422334
-0.0020070376 0.021562478 -0.010403882 -0.009804092 0.043406304 0.012838816 -0.0047611496 -0.021351343
0.0132447705 0.046525046 -0.007912271 0.03561418 -0.009652371 0.024732808 0.008635046 0.0029144757
0.015576655 -0.011482162 -0.018795568 0.04740684 0.023739694 0.017559832 0.00244423 0.0137197
00000000: 1706 ccbc b12e 06bd 1370 a7bc 66f2 7abc
00000010: 41c7 6fbc aa18 8a3c efc3 32bc 5f09 5bbb
00000020: 8188 03bb cba3 b03c 0b75 2abc 58a1 20bc
00000030: cfca 313d e659 523c 6b03 9cbb 03e9 aebc
00000040: 9800 593c 0c91 3e3d 78a2 01bc 2de0 113d
00000050: fa24 1ebc 759c ca3c 027a 0d3c ca00 3f3b
00000060: 3a35 7f3c ae1f 3cbc 2af9 99bc ad2d 423d
00000070: bf79 c23c a3d9 8f3c 602f 203b 98c8 603c

weight f4 [64, 32, 5, 5]
0.013706112 -0.011510317 0.03184984 0.0010065662 0.008427004 -0.018173268 -0.016993867 0.0020359862
-0.037000466 0.012582087 0.026736833 0.008507386 0.0068697324 0.0026410616 0.008698218 -0.006285432
-0.032953836 0.02786419 0.02029125 -0.031799577 -0.009871315 -0.007020309 0.034757264 0.015603421
0.010691837 -0.0026878268 0.031897847 0.025779663 -0.0062308675 0.029723095 0.03960399 -0.0117839575
0.040436927 0.020088093 0.041296903 0.0029932447 0.0029575212 0.021436086 0.033137616 0.021143207
0.037365176 0.004508069 -0.021942269 -0.008151106 -0.0134616755 -0.030951137 0.027494647 0.035020843
0.018016206 -0.005108867 -0.02020588 0.017889436 0.017973604 0.025419446 0.0074112206 -0.026473256
-0.0060918867 -0.02336642 -0.0057238317 0.014794909 0.022326432 -0.014125889 -0.008842665 0.011213297
0.011295606 -0.028291663 0.012470963 -0.009096754 0.03453337 0.016529022 0.032864522 0.018836673
-0.02151443 -0.016371135 0.008084128 -0.007752849 0.012676827 -0.022069704 0.020586373 -0.014363438
-0.024293317 -0.002587797 0.027865957 0.035001263 -0.0068177725 0.02006207 -0.014061282 -0.020648997
-0.0037424974 0.027411748 0.0056042927 -0.0029083793 -0.029739028 -0.0012560859 0.034376312 -0.007134598
-0.013094375 -0.021014286 -0.019724814 -0.02444712 0.024200987 0.026820047 -0.0021488385 -0.01934465
-0.01620877 0.029119033 -0.024018979 -0.02174953 -0.034347456 -0.026002446 0.02564569 -0.024974898
-0.029591259 -0.026544137 0.00987404 -0.013909135 0.013960279 -0.0262471 -0.021541214 0.028772362
-0.024694027 0.033328097 -0.015300806 -0.011214331 0.018282592 0.006282164 -0.026678134 0.02352917
0.002343399 -0.011028474 -0.02091646 0.022435088 0.013618341 0.012211474 0.0041520027 0.018102298
0.0096973535 0.021326656 0.012728753 -0.028504808 0.012201197 -0.013076661 0.01081807 0.0013380123
0.03174241 -0.022677273 -0.01730729 0.018573232 0.016579289 -0.029184408 0.015497302 0.021940764
-0.023313008 0.02594128 0.008950969 -0.034199014 -0.03405293 0.003617185 -0.025303176 -0.0039463076
0.009427304 -0.039104957 0.0031503232 -0.025463987 -0.03175949 0.004371482 0.0011595816 -0.020669647
0.02087052 0.031685505 0.0029449677 -0.020779507 0.019388128 0.0011127546 -0.0008354349 0.0021882348
-0.012752221 0.035340127 -0.008883549 0.009070288 0.00058929966 -0.020197801 -0.025172312 0.03507574
-0.023475861 -0.018715372 -0.023292499 -0.02284853 0.021385426 0.008648048 -0.006283641 0.009925274
-0.02549317 0.027374616 -0.022422383 0.016786467 0.016426262 0.012643522 0.022748625 -0.01299283
0.018174177 -0.027721854 0.004022088 -0.023412244 -0.030000005 0.016956458 -0.010025925 -0.035957504
-0.010587721 -0.014683007 0.02690645 -0.02476172 -0.0033181235 -0.020693762 0.0039687483 -0.0077036736
0.012587243 0.016530449 -0.0008679645 0.030204887 0.002966938 -0.022169843 -0.027054636 -0.005718384
0.033199467 0.036595263 -0.030799715 -0.018962663 -0.026223037 0.0052392357 -0.0016315402 -0.03198216
-0.013715845 0.03657113 0.037317812 -0.023689888 -0.0033070866 0.037861675 -0.008954476 0.017197018
-0.023092795 -0.0074570994 -0.028461754 0.018918406 0.01564256 0.019859882 -0.027701933 0.014559177
-0.02680519 -0.013829991 0.020814544 0.018609662 0.022656469 -0.030806426 -0.023101704 0.01797843
00000000: 9a8f 603c c595 3cbc fa74 023d c2ee 833a
00000010: 6b11 0a3c 1be0 94bc b936 8bbc 2e6e 053b
00000020: cd8d 17bd 1925 4e3c 3407 db3c 9062 0b3c
00000030: 7e1b e13b a915 2d3b f882 0e3c 06f6 cdbb
00000040: 9afa 06bd 7143 e43c d639 a63c 4640 02bd
00000050: 4cbb 21bc 9f0a e6bb a25d 0e3d 7ea5 7f3c
00000060: d12c 2f3c 4026 30bb 51a7 023d df2f d33c
00000070: 4e2c ccbb d97d f33c cb37 223d 8011 41bc
00000080: 31a1 253d c98f a43c f126 293d 502a 443b
00000090: f9d2 413b bb9a af3c 4fbb 073d 8534 ad3c
000000a0: 3a0c 193d 6cb8 933b 46c0 b3bc 378c 05bc
000000b0: 5c8e 5cbc 3d8d fdbc 743c e13c 0472 0f3d
000000c0: b996 933c 4868 a7bb cd86 a5bc de8c 923c
000000d0: 613d 933c 713c d03c d3d9 f23b 71de d8bc
000000e0: 739e c7bb ef6a bfbc fb8e bbbb 5966 723c
000000f0: ece5 b63c 4670 67bc d3e0 10bc fab7 373c
00000100: 3511 393c ebc3 e7bc 0353 4c3c 8d0a 15bc
00000110: dd72 0d3d df67 873c f39c 063d 5e4f 9a3c
00000120: 083f b0bc c21c 86bc 4a73 043c 9c0b febb
00000130: 77b2 4f3c 86cb b4bc c1a4 a83c a054 6bbc
00000140: c702 c7bc 0798 29bb 2647 e43c 7c5d 0f3d
00000150: 9f67 dfbb 3659 a43c 4b61 66bc 1628 a9bc
00000160: b044 75bb 9a8e e03c 37a4 b73b 829a 3ebb
00000170: 439f f3bc 40a3 a4ba 2dce 0c3d 59c9 e9bb
00000180: ca89 56bc 2726 acbc ef95 a1bc 5445 c8bc
00000190: 2641 c63c b7b5 db3c 87d3 0cbb ac78 9ebc
000001a0: 41c8 84bc 0a8b ee3c 73c3 c4bc 122c b2bc
000001b0: ebaf 0cbd 1503 d5bc e916 d23c 2898 ccbc
000001c0: 5e69 f2bc 1773 d9bc bac6 213c 24e3 63bc
000001d0: a7b9 643c 2904 d7bc 3377 b0bc 04b4 eb3c
000001e0: 214b cabc 0b83 083d 3bb0 7abc 50bc 37bc
000001f0: 60c5 953c 9cda cd3b 1a8c dabc 3fc0 c03c
00000200: b693 193b c6b0 34bc ff58 abbc cac9 b73c
00000210: 761f 5f3c a212 483c 860d 883b 454b 943c
00000220: a6e1 1e3c 3db5 ae3c 428c 503c ea82 e9bc
00000230: 88e7 473c 7e3f 56bc 463e 313c 3e60 af3a
00000240: 5404 023d b0c5 b9bc 05c8 8dbc e426 983c
00000250: 4ad1 873c 2414 efbc 65e8 7d3c 1ebd b33c
00000260: ecfa bebc cf82 d43c 16a7 123c 4414 0cbd
00000270: 167b 0bbd 4b0e 6d3b 9b48 cfbc 0750 81bb
00000280: fb74 1a3c 852c 20bd a775 4e3b da99 d0bc
00000290: 3d16 02bd a63e 8f3b 1afd 973a 6453 a9bc
000002a0: a7f8 aa3c a9c8 013d 5c00 413b c939 aabc
000002b0: dad3 9e3c d9d9 913a 1601 5bba 7d68 0f3b
000002c0: b1ee 50bc cfc0 103d 4e8c 11bc 8c9b 143c
000002d0: 3b7b 1a3a dc75 a5bc 2a36 cebc 94ab 0f3d
000002e0: 7350 c0bc fb50 99bc e9cf bebc d72c bbbc
000002f0: 7d30 af3c 8bb0 0d3c 00e7 cdbb 9e9d 223c
00000300: 0dd7 d0bc bb40 e03c 25af b7bc c683 893c
00000310: 5e90 863c c626 4f3c 535b ba3c e1df 54bc
00000320: 03e2 943c f118 e3bc b8cb 833b 09cb bfbc
00000330: 92c2 f5bc 45e8 8a3c c743 24bc 2d48 13bd
00000340: 1f78 2dbc ff90 70bc ea6a dc3c 17d9 cabc
00000350: e074 59bb f785 a9bc 460c 823b 196f fcbb
00000360: b93a 4e3c dd6a 873c 1d88 63ba 3d70 f73c
00000370: f670 423b 889d b5bc afa1 ddbc 4861 bbbb
00000380: 2afc 073d eae4 153d af4f fcbc 9657 9bbc
00000390: b2d1 d6bc e5ad ab3b 68d9 d5ba baff 02bd
000003a0: 6cb8 60bc 9ccb 153d 90da 183d 4c11 c2bc
000003b0: b5bb 58bb d814 1b3d cbb5 12bc c3e0 8c3c
000003c0: 1a2d bdbc af5a f4bb a028 e9bc c6fa 9a3c
000003d0: d324 803c 31b1 a23c 2aef e2bc 9d89 6e3c
000003e0: 8f96 dbbc 3097 62bc 4383 aa3c 4a73 983c
000003f0: 0f9a b93c c25d fcbc c93f bdbc 8047 933c

bias f4 [64]
-0.05361299 -0.027450923 0.015699288 0.042612292 0.012779559 -0.047510654 -0.025921786 0.03981837
-0.018928062 0.027038397 0.020041129 -0.012607472 -0.0018243152 0.034801103 0.012476992 0.031916846
0.024555303 0.01917344 -0.0054654423 0.04134518 -0.021178532 -0.02751314 0.03614378 0.027513513
-0.011345736 -0.036777537 0.033714943 -0.024998503 -0.030896317 -0.023469036 0.012397128 -0.028242903
-0.022929944 -0.01237324 0.04876002 -0.011306647 -0.019932332 0.014314236 0.03733752 0.013451136
0.029045448 -0.036157776 -0.0029151218 -0.015426449 -0.015219933 -0.0065916195 -0.0076815053 0.0017645964
-0.032533962 0.040514365 -0.002965843 -0.030497234 0.008508018 -0.018493658 -0.024935884 -0.0054276194
0.013625192 -0.012326829 -0.009790459 0.002123465 0.014783817 0.009374557 -0.0042938017 0.017539939
00000000: 4b99 5bbd c2e0 e0bc cb9b 803c 3a8a 2e3d
00000010: 5b61 513c 889a 42bd ed59 d4bc 9618 233d
00000020: 060f 9bbc a17f dd3c 4b2d a43c 928f 4ebc
00000030: dc1d efba 9a8b 0e3d 4c6c 4c3c 3dbb 023d
00000040: 3428 c93c 9e11 9d3c 7417 b3bb 9059 293d
00000050: 9a7e adbc 3d63 e1bc 800b 143d 0564 e13c
00000060: 77e3 39bc 0ba4 16bd ae18 0a3d a9c9 ccbc
00000070: 461a fdbc 2342 c0bc 531d 4b3c a95d e7bc
00000080: 94d7 bbbc 21b9 4abc 96b8 473d 843f 39bc
00000090: 2149 a3bc 4286 6a3c 3aef 183d 2762 5c3c
000000a0: b8f0 ed3c 2d1a 14bd a10b 3fbb 37bf 7cbc
000000b0: 075d 79bc 83fe d7bb 23b5 fbbb 084a e73a
000000c0: 5542 05bd 64f2 253d 975e 42bb 56d5 f9bc
000000d0: 3765 0b3c 0380 97bc 5746 ccbc 2cda b1bb
000000e0: 333c 5f3c 78f6 49bc 2968 20bc d529 0b3b
000000f0: d337 723c be97 193c 05b3 8cbb ebaf 8f3c

weight f4 [64, 1024]
-0.013517545 -0.022429187 -0.0232571 -0.0016377667 -0.01683637 0.015778719 0.020648453 0.011344537
-0.02683639 0.003929472 0.014246013 0.009387843 0.008936279 0.006296402 0.012507445 -0.0075897453
0.027195055 0.026006524 -0.030717675 -0.029882027 -0.015208215 -0.03168921 0.0034001614 -0.008472968
-0.010239186 0.001159101 0.02636378 -0.008187718 0.015441603 0.030390458 0.002818647 -0.015331069
-0.0016813701 -0.023140324 0.011960155 -0.030652555 -0.026683576 0.0036710002 0.011906456 -0.0070112273
0.017340185 0.02081468 -0.0075984574 0.001909069 -0.018994452 -0.009890881 -0.0065060463 -0.013013031
-0.026124869 -0.017704124 0.023778783 0.029409807 0.011813905 0.031164091 0.007881962 -0.006409637
0.027590482 0.0058888565 0.010300144 -0.017891584 -0.0052086385 0.02212925 -0.023593688 0.013613031
0.016917739 0.012662931 0.0032668773 -0.022550698 -0.020098632 -0.027360499 -0.02376613 0.02047255
-0.025240501 -0.0034189597 -0.02249364 -0.0119423475 -0.013224673 -0.010920534 -0.017791977 0.0127673065
0.017301334 -0.027013155 0.0012142127 -0.0023274864 0.026096314 0.023082923 0.004606912 0.0017921993
-0.0013920635 0.018759722 -0.019955212 0.019896515 0.031988114 -0.017404143 -0.001923134 0.006875476
0.014118671 -0.02225894 -0.013011722 0.0020060525 0.018880406 0.010073565 0.010620866 -0.005847995
0.009240841 0.018399404 -0.015496212 -0.0033517668 0.0017223461 -0.011962725 0.020676252 -0.02215765
0.021795435 0.008883042 -0.0037503934 -0.0046717036 0.012262277 -0.0075894827 0.004642522 -0.022400344
0.03031643 -0.008661156 0.025492989 -0.014500826 0.015259132 -0.025928594 0.018570548 0.010278634
-0.020311443 0.009621421 0.013131832 -0.0039805844 0.026061712 -0.028136877 -0.00861845 -0.0048694117
-0.005835729 0.006672198 0.0013658778 0.021814171 -0.0069884476 0.010235243 -0.016643142 -0.029893402
-0.016848713 -0.028463446 0.024479643 -0.024088394 -0.0033291315 0.0011496046 0.029701117 0.007882938
-0.02033023 -0.026548985 -0.01191557 -0.010066086 0.019680273 0.019980153 0.019914648 0.0014194462
-0.024685133 0.018761862 -0.02404178 0.019106356 -0.029828046 -0.008708938 -0.018846447 -0.024975186
0.025318293 -0.01978187 -0.021643177 -0.018381702 0.006151551 0.009686935 0.030673092 -0.0065092375
-0.014764145 -0.005317675 0.020701053 -0.017829183 0.02503708 -0.02410703 0.018557262 -0.023161452
0.015669348 -0.0010394608 0.02308448 -0.0089552635 0.021679645 -0.011604953 -0.01815707 -0.00197149
-0.02883816 -0.005815089 -0.009367916 0.0011025235 0.010074371 0.009379901 0.02154901 0.00041362704
0.017252814 0.002575992 -0.027867699 -0.027234664 -0.0024886488 0.009377858 -0.01789646 0.022159312
-0.003934165 0.0069209454 -0.0063735307 -0.020017795 0.020483395 -0.023385435 0.012614303 -0.021810336
-0.0026743014 -0.0044531804 -0.005608801 0.02604261 0.013464948 -0.012764282 -0.020838333 -0.011988477
-0.008423009 -0.010229214 -0.0071992837 -0.0137392655 0.02247046 -0.0076979506 -0.004575218 0.01833282
-0.004188132 0.018904295 -0.002749171 -0.02109417 0.0026265627 0.02641623 -0.02534962 -0.020369746
0.022554778 0.016148236 -0.026064625 0.03041149 0.024700787 0.01992403 -0.021780577 -0.01868922
-0.021421108 -0.0072838143 0.011855662 -0.020471903 0.031639572 -0.027204523 -0.026504146 0.017797217
00000000: b178 5dbc 6abd b7bc ac85 bebc 55aa d6ba
00000010: 6dec 89bc 5f42 813c f226 a93c 70de 393c
00000020: fdd7 dbbc cdc2 803b 1c68 693c 78cf 193c
00000030: 7969 123c 0c52 ce3b 07ec 4c3c 66b3 f8bb
00000040: 2ac8 de3c a20b d53c a2a3 fbbc 27cb f4bc
00000050: e12b 79bc 8ccc 01bd 3ed5 5e3b 34d2 0abc
00000060: 42c2 27bc faec 973a dbf8 d73c c725 06bc
00000070: c7fe 7c3c 69f5 f83c 0db9 383b 2a2f 7bbc
00000080: 6b61 dcba c790 bdbc 87f4 433c 111b fbbc
00000090: 8497 dabc 2a95 703b 4c13 433c 70be e5bb
000000a0: 010d 8e3c 8c83 aa3c 7bfc f8bb ba39 fa3a
000000b0: 419a 9bbc 5d0d 22bc ac30 d5bb 9c34 55bc
000000c0: d203 d6bc 3d08 91bc b9cb c23c d6ec f03c
000000d0: 1c8f 413c d64b ff3c 5823 013c ef07 d2bb
000000e0: 6f05 e23c 4ff7 c03b efc1 283c 5f91 92bc
000000f0: 3aad aabb 6748 b53c 8d47 c1bc 3109 5f3c
00000100: 1297 8a3c 2f78 4f3c 1b19 563b 3ebc b8bc
00000110: e3a5 a4bc 2023 e0bc 30b1 c2bc 0db6 a73c
00000120: 2bc5 cebc a010 60bb 9544 b8bc d6a9 43bc
00000130: 4dac 58bc 0aec 32bc 7bc0 91bc f72d 513c
00000140: 87bb 8d3c b14a ddbc 3826 9f3a be88 18bb
00000150: f0c7 d53c 6618 bd3c 94f5 963b 3be8 ea3a
00000160: e675 b6ba fdad 993c 1d79 a3bc 04fe a23c
00000170: f805 033d 2293 8ebc ab11 fcba ac4b e13b
00000180: 0052 673c 6158 b6bc 1e2f 55bc fa77 033b
00000190: 15ab 9a3c 980b 253c 2403 2e3c 8aa0 bfbb
000001a0: e566 173c 59ba 963c d3e3 7dbc 51a9 5bbb
000001b0: 58c0 e13a 4eff 43bc 3e61 a93c f683 b5bc
000001c0: 578c b23c 2e8a 113c 29c9 75bb 1715 99bb
000001d0: b8e7 483c 32b1 f8bb 4c20 983b ed80 b7bc
000001e0: 295a f83c 85e7 0dbc acd6 d03c df94 6dbc
000001f0: 7001 7a3c 3468 d4bc 4321 983c b767 283c
00000200: 2f64 a6bc 2aa3 1d3c e526 573c 906f 82bb
00000210: 5f7f d53c 4f7f e6bc 6634 0dbc 968f 9fbb
00000220: a539 bfbb 74a2 da3b 4107 b33a a2b3 b23c
00000230: 59ff e4bb b8b1 273c 3357 88bc 02e3 f4bc
00000240: 5006 8abc 2c2c e9bc 8889 c83c 0655 c5bc
00000250: 8f2d 5abb 54ae 963a c24f f33c 7027 013c
00000260: 958b a6bc 427d d9bc 8639 43bc 3aec 24bc
00000270: 8638 a13c 6bad a33c 0b24 a33c b60c ba3a
00000280: 7a38 cabc 7ab2 993c 44f3 c4bc ef84 9c3c
00000290: f259 f4bc efaf 0ebc dd63 9abc c398 ccbc
000002a0: 4f68 cf3c 970d a2bc 084d b1bc 3995 96bc
000002b0: f392 c93b f3b5 1e3c 2346 fb3c 714b d5bb
000002c0: 50e5 71bc e43f aebb 4195 a93c 820e 92bc
000002d0: 901a cd3c 1b7c c5bc 6605 983c 16bd bdbc
000002e0: 015d 803c 843e 88ba aa1b bd3c 19b9 12bc
000002f0: 8399 b13c b322 3ebc 23be 94bc 1d34 01bb
00000300: 013e ecbc 818c bebb e37b 19bc 8d82 903a
00000310: f90e 253c 28ae 193c 8d87 b03c 15dc d839
00000320: c655 8d3c f9d1 283b cd4a e4bc 3b1b dfbc
00000330: 9918 23bb 96a5 193c 999b 92bc 7287 b53c
00000340: 2bea 80bb 19c9 e23b 0dd9 d0bb 5cfc a3bc
00000350: cbcc a73c d092 bfbc 39ac 4e3c 97ab b2bc
00000360: 5543 2fbb fceb 91bb 08ca b7bb 5057 d53c
00000370: 169c 5c3c 4721 51bc 27b5 aabc 516b 44bc
00000380: a900 0abc 6f98 27bc f8e7 ebbb a81a 61bc
00000390: f813 b83c 173f fcbb b6eb 95bb b62e 963c
000003a0: 993c 89bb 2edd 9a3c 702b 34bb aecd acbc
000003b0: 6922 2c3b d966 d83c 02aa cfbc 74de a6bc
000003c0: ccc4 b83c 4e49 843c 7b85 d5bc 8421 f93c
000003d0: 4e59 ca3c b837 a33c 2e6d b2bc 231a 99bc
000003e0: 527b afbc 10ad eebb 403e 423c b1b4 a7bc
000003f0: 7f98 013d 05dc debc 391f d9bc 78cb 913c

bias f4 [64]
0.0075426083 0.016108457 0.038819358 -0.03846348 0.02835519 -0.003948006 -0.015417386 0.0032857491
0.02829024 -0.00772607 -0.03596986 0.00081334927 0.0139279375 -0.019867418 0.014871599 -0.011114081
0.022700982 -0.012933808 0.026421173 0.031712234 -0.045799166 0.024146648 -0.019201286 -0.016562365
0.01025591 -0.0046513462 0.008118304 0.02560361 0.00488258 0.010342085 0.025366334 0.01929478
0.03373155 0.021042539 0.014904356 -0.020719834 -0.023185864 -0.03900712 -0.010544805 0.029385947
0.010369518 0.020557448 -0.01328334 -0.011414261 -0.015171883 0.025211092 0.004233312 -0.0017329329
-0.016864395 -0.00659376 0.0013493969 0.027761519 -0.015972564 0.006872644 0.011152279 0.038350668
-0.010222086 -0.04917855 -0.0017685799 0.047262166 0.039321642 -0.017560216 -0.030598624 0.026757795
00000000: fc27 f73b e2f5 833c 0c01 1f3d e28b 1dbd
00000010: 2549 e83c 465e 81bb 3499 7cbc b955 573b
00000020: efc0 e73c f92a fdbb 2255 13bd f236 553a
00000030: 0132 643c ffc0 a2bc 02a8 733c d617 36bc
00000040: 69f7 b93c 53e8 53bc 3771 d83c b0e4 013d
00000050: e897 3bbd 31cf c53c 044c 9dbc ccad 87bc
00000060: 6808 283c 526a 98bb a302 053c a9be d13c
00000070: 0dfe 9f3b d971 293c 0fcd cf3c 1610 9e3c
00000080: 182a 0a3d 6761 ac3c 6631 743c a4bc a9bc
00000090: 48f0 bdbc eec5 1fbd 1ec4 2cbc ccba f03c
000000a0: e9e4 293c 1868 a83c 5ea2 59bc e102 3bbc
000000b0: 7d93 78bc 7e87 ce3c 98b7 8a3b 9423 e3ba
000000c0: 3327 8abc 7810 d8bb 3fde b03a 206c e33c
000000d0: e5d8 82bc eb33 e13b 0cb8 363c 9715 1d3d
000000e0: 897a 27bc 726f 49bd b2cf e7ba f995 413d
000000f0: bb0f 213d 71da 8fbc f7a9 fabc 2a33 db3c

weight f4 [10, 64]
-0.1288155 -0.10633421 0.023302576 0.10186969 -0.045756634 0.0028214352 -0.041884832 0.014145021
0.055123143 0.0537751 0.06556935 0.040949635 0.047132343 0.0021868846 0.092949964 0.033980157
0.09888159 0.10825144 0.017976223 -0.08486128 0.08211299 -0.036725473 -0.12096326 -0.06362526
0.012641399 -0.101451896 0.056067877 -0.065625966 0.06774886 -0.121019974 -0.075902425 0.032069027
-0.07867068 -0.032419927 0.069368534 -0.10817299 -0.08171821 0.13456348 -0.083003506 -0.029757485
-0.08195001 0.01790537 -0.07910239 0.013742406 -0.07243833 -0.07261886 0.006934739 -0.045289285
-0.02768979 -0.12072607 0.112796 -0.065992355 0.01801367 -0.059083436 0.08456661 -0.12092975
-0.010289211 0.11817191 0.1219634 -0.116987266 -0.15378302 -0.026354555 0.0101548955 -0.09408282
-0.0015193438 -0.10656194 0.056275196 -0.0056013297 0.10135015 0.03923377 0.09510387 -0.047614586
-0.008017921 -0.046472434 0.12098769 0.00546902 -0.04141013 -0.13703696 0.054011356 0.115614444
0.08651808 -0.024234584 -0.067745104 0.06378323 -0.09670253 0.13181962 0.02689912 -0.05473303
0.072709456 0.055371385 0.10071247 -0.080350354 -0.11441029 0.014530472 0.13332105 0.0133028235
-0.0004450265 0.04954051 0.09162338 -0.07287534 -0.011588132 -0.11845609 -0.0943247 -0.10444877
-0.099916846 -0.0045721624 0.1146593 0.1283922 0.037896704 -0.06551963 -0.031082975 0.0826342
-0.058367092 0.03059423 -0.057469994 0.029797563 -0.04418026 0.08635453 -0.084473625 0.04768468
-0.07863515 -0.13191757 -0.1602908 0.0066705802 -0.0727212 0.10899485 0.061682515 0.03732613
-0.11124351 -0.012449192 0.111851946 0.08333132 0.11540516 -0.10400257 0.048591964 -0.05529818
-0.048664525 -0.12208212 -0.01372914 -0.0844145 0.001283045 -0.013803953 -0.032066848 0.10066024
-0.007823669 -0.13111003 -0.03864607 -0.060505588 -0.021631803 0.10913665 0.039905477 -0.012108185
0.008366994 0.11478431 -0.12449858 -0.13166395 0.052901205 -0.11089103 -0.12425275 -0.093648374
-0.057834763 0.051849287 -0.10652722 0.08387796 0.07899367 -0.10712449 0.039735276 -0.06607823
-0.031012738 0.13922848 -0.084232405 0.10762929 0.10650113 -0.02992474 0.12624323 0.08612752
-0.009078962 -0.011152491 0.077474974 0.07909142 0.036653 0.061996303 -0.0214842 -0.10048689
-0.07228728 -0.037715185 0.08836297 -0.07422265 -0.024887353 -0.11824331 0.09721228 0.048093714
0.1202783 0.122392796 -0.09308205 0.075759605 0.010247347 -0.044347394 -0.07942102 -0.011851438
-0.055719044 -0.12804812 -0.02067238 -0.003972742 0.027646786 0.061533757 -0.026235767 0.012226559
0.0826766 0.025098883 0.07953157 -0.08812358 0.060689226 -0.090722755 -0.12368608 0.05717921
0.117246516 0.030532876 -0.07148647 0.045069832 -0.067800134 4.0258456e-05 -0.050873406 0.049845874
-0.09495764 -0.06920143 0.0734065 -0.07307267 0.07095761 -0.04877484 0.11786324 -0.098520756
-0.0763379 -0.11194215 -0.10091488 -0.009045738 0.031999182 0.017716503 -0.010595905 0.09182128
-0.10214803 -0.10134246 -0.069817856 0.060137372 -0.10415741 -0.1075566 0.12252067 0.112319544
-0.023657866 -0.03359857 -0.041475568 0.12643233 0.11487813 0.12084771 0.040767908 -0.04146633
00000000: 36e8 03be c0c5 d9bd 0be5 be3c 0ea1 d03d
00000010: 4f6b 3bbd d4e7 383b 6e8f 2bbd 85c0 673c
00000020: cec8 613d 4743 5c3d 3949 863d ceba 273d
00000030: d80d 413d d651 0f3b 8d5c be3d c72e 0b3d
00000040: 6e82 ca3d eeb2 dd3d df42 933c c0cb adbd
00000050: db2a a83d 736d 16bd 96bb f7bd f64d 82bd
00000060: df1d 4f3c 03c6 cfbd 6ea7 653d e866 86bd
00000070: eabf 8a3d 52d9 f7bd bb72 9bbd d05a 033d
00000080: 181e a1bd c2ca 04bd 1711 8e3d cd89 ddbd
00000090: e05b a7bd 02cb 093e befd a9bd f8c5 f3bc
000000a0: 68d5 a7bd 48ae 923c 6f00 a2bd d427 613c
000000b0: 8c5a 94bd 32b9 94bd cf3c e33b 4281 39bd
000000c0: b3d5 e2bc 3b3f f7bd 9701 e73d 0027 87bd
000000d0: 6791 933c 7901 72bd 4231 ad3d 04aa f7bd
000000e0: 1494 28bc 1d04 f23d f2c7 f93d 0597 efbd
000000f0: 4c79 1dbe 82e5 d7bc b860 263c 7eae c0bd
00000100: b824 c7ba 253d dabd d280 663d 5c8b b7bb
00000110: ab90 cf3d 97b3 203d d1c5 c23d 8307 43bd
00000120: 995d 03bc e159 3ebd 65c8 f73d 7735 b33b
00000130: ab9d 29bd 6b53 0cbe 033b 5d3d 44c7 ec3d
00000140: 6430 b13d 9b87 c6bc f2bd 8abd c8a0 823d
00000150: fa0b c6bd b9fb 063e 8b5b dc3c be2f 60bd
00000160: b2e8 943d 1bcd 623d 5742 ce3d ba8e a4bd
00000170: f14f eabd 3811 6e3c 5085 083e 16f4 593c
00000180: 7252 e9b9 fdea 4a3d 0aa5 bb3d ab3f 95bd
00000190: 26dc 3dbc 1b99 f2bd 4f2d c1bd 3de9 d5bd
000001a0: 34a1 ccbd 14d2 95bb 7fd2 ea3d 3f79 033e
000001b0: 9339 1b3d 282f 86bd b9a1 febc 1f3c a93d
000001c0: 5512 6fbd c0a0 fa3c a865 6bbd 051a f43c
000001d0: 5cf6 34bd a5da b03d 8200 adbd 0351 433d
000001e0: 770b a1bd 6615 07be 4523 24be e294 da3b
000001f0: daee 94bd b138 df3d cea6 7c3d 49e3 183d
00000200: a3d3 e3bd b2f7 4bbc a212 e53d 9ca9 aa3d
00000210: 8a59 ec3d 4dff d4bd 5e08 473d 5880 62bd
00000220: 7454 47bd 3106 fabd 30f0 60bc 82e1 acbd
00000230: d92b a83a fa29 62bc 8758 03bd f526 ce3d
00000240: d92e 00bc b541 06be 574b 1ebd b5d4 77bd
00000250: 2e35 b1bc 0983 df3d ed73 233d 6961 46bc
00000260: b715 093c 0914 eb3d 1df9 febd ead2 06be
00000270: efae 583d d61a e3bd 3a78 febd b8ca bfbd
00000280: 25e4 6cbd eb5f 543d f12a dabd 35c8 ab3d
00000290: 6fc7 a13d 1664 dbbd 75c1 223d 0654 87bd
000002a0: 6d0e febc e991 0e3e 0a82 acbd bf6c dc3d
000002b0: 441d da3d ba24 f5bc e845 013e a063 b03d
000002c0: edbf 14bc f0b8 36bc 33ab 9e3d affa a13d
000002d0: 7521 163d d6ef 7d3d a2ff afbc 12cc cdbd
000002e0: 5a0b 94bd 3d7b 1abd a5f7 b43d 0b02 98bd
000002f0: 90e0 cbbc 8c29 f2bd 3b17 c73d eafd 443d
00000300: 7854 f63d 13a9 fa3d cda1 bebd da27 9b3d
00000310: 7de4 273c 9da5 35bd 7da7 a2bd 892c 42bc
00000320: a739 64bd 0c1f 03be 2059 a9bc c62d 82bb
00000330: 837b e23c d20a 7c3d 64ec d6bc e851 483c
00000340: 5952 a93d 2c9c cd3c 73e1 a23d 237a b4bd
00000350: 4495 783d dacc b9bd 214f fdbd bf34 6a3d
00000360: f11e f03d 1520 fa3c 8067 92bd 259b 383d
00000370: ccda 8abd 30db 2838 a260 50bd 302b 4c3d
00000380: 2779 c2bd 7bb9 8dbd 2656 963d 20a7 95bd
00000390: 3952 913d 20c8 47bd 4862 f13d 40c5 c9bd
000003a0: 0b57 9cbd ed41 e5bd 76ac cebd 9334 14bc
000003b0: 9311 033d 3322 913c 729a 2dbc cc0c bc3d
000003c0: fd32 d1bd a38c cfbd aafc 8ebd 9b52 763d
000003d0: 7b50 d5bd a246 dcbd 1eec fa3d ca07 e63d
000003e0: 24ce c1bc a79e 09bd 49e2 29bd 7a77 013e
000003f0: 3a45 eb3d 017f f73d 40fc 263d 99d8 29bd

bias f4 [10]
-0.09309393 0.0468637 0.09286601 0.094846986 -0.0435102 -0.02183847 -0.060447585 0.031884037
0.057859138 -0.036723204
00000000: 08a8 bebd 27f4 3f3d 8930 be3d 233f c23d
00000010: c037 32bd 97e6 b2bc e397 77bd d698 023d
00000020: b4fd 6c3d 126b 16bd
