Pytorch/model_data/CIFAR10_EPOCH4.pth (torch, 588827 bytes, 10 tensors)

weight f4 [32, 3, 5, 5]
0.008357665 -0.032349292 -0.07112827 -0.11401628 0.0044951295 -0.11617483 -0.09853887 0.08618676
-0.04130112 -0.017463371 -0.1117534 -0.021672549 0.1118899 0.08061154 -0.09680552 0.090121105
-0.06758795 0.058079675 0.120514534 -0.06804833 0.057243913 -0.0004451633 0.12057648 0.09534252
-0.07885015 -0.09510042 0.043454017 0.073456734 -0.05746457 -0.13011163 -0.043836113 0.09138071
-0.13062325 0.04708187 -0.11222627 -0.034304395 -0.030246645 0.008029682 0.059622884 0.09510461
0.034644358 -0.092312455 -0.039190862 0.09533043 0.053255323 0.027670687 0.117152154 0.13768773
0.11880239 0.061578233 -0.038635366 -0.050832555 -0.1338573 -0.040756132 -0.13770069 0.0026027593
0.055981137 -0.039561052 0.057776738 -0.09612147 0.05680095 0.065429896 -0.031898562 0.064597204
-0.07948738 -0.010254732 0.05425798 0.11428677 -0.052935213 -0.09754314 0.05771559 0.044681635
0.1273048 0.1307863 0.11609213 0.077639796 0.07597187 0.10304072 0.08448329 0.028758164
-0.047253717 0.064182505 0.034548353 -0.08595661 -0.07922741 0.11558455 -0.11721045 0.04794041
-0.1240878 0.07759847 0.051405188 0.028211014 -0.004590861 0.110846385 -0.052825775 0.056540947
0.036045067 0.007338068 0.103264555 0.0289386 0.041811284 0.059177037 0.021201298 0.048660528
-0.13411471 0.06778951 -0.0015131094 0.026645089 -0.13757429 -0.15114094 -0.083859175 -0.12012787
-0.029810911 0.042792365 -0.13892485 -0.0043169297 0.013500087 -0.020135231 -0.033647057 -0.0020672246
-0.017450927 0.048284084 0.06337372 -0.0032446259 -0.03833617 -0.011642647 0.035751536 0.102525674
-0.07928369 0.05383903 0.0010803108 -0.031153068 -0.07710603 -0.09886729 0.08076048 0.019513732
0.027812406 -0.0102055855 0.026550118 0.04805212 -0.024234109 -0.041621123 0.08736031 0.033564627
0.037705418 -0.05294643 -0.07561512 0.090390034 -0.09079101 0.021383809 0.09715747 0.034374185
-0.10486445 -0.0036723057 -0.10462225 -0.0014634982 0.06391384 -0.1392516 -0.1212769 -0.08605457
-0.0709892 0.077434115 0.029553987 -0.04304733 0.0069102896 -0.11589735 -0.0742491 -0.08947756
-0.044166565 -0.08450816 0.04531796 -0.13411143 -0.11883918 -0.10307016 -0.11680988 -0.04298949
-0.1250013 0.02503028 0.021403728 0.02771485 0.024656735 -0.05140079 -0.0048777694 0.013054612
-0.117280476 0.005042614 -0.07655214 0.02446601 0.06792645 -0.05147299 -0.1054189 0.0888478
0.06247155 0.021817455 -0.032452106 0.03074152 -0.08284381 -0.13490292 -0.08820497 -0.08974707
-0.07561963 0.0107384715 0.10789406 0.0459814 0.12186732 -0.027814595 0.039427448 0.11039702
-0.04364838 0.15006194 0.115773164 0.08836656 0.038084686 0.18157652 0.17519167 0.06020342
0.15485601 0.17803112 0.10498296 0.11770247 0.08042128 0.057752915 -0.047975674 0.1032862
0.10578381 0.08330642 0.04240406 0.0076731616 0.028285202 -0.05015683 0.05454853 -0.027202543
0.06823648 0.07018441 0.05617505 0.08791962 -0.06939222 0.008782328 -0.021988166 0.12765764
0.053299177 0.051618997 0.066435605 0.12305561 0.0486824 -0.008964766 -0.09100672 -0.08951828
0.11030279 -0.0029582076 -0.0071949326 0.042828068 -0.05628267 0.086207196 -0.04501573 -0.0245498
00000000: 96ee 083c b180 04bd b3ab 91bd 5e81 e9bd
00000010: e14b 933b 12ed edbd bfce c9bd af82 b03d
00000020: 5d2b 29bd 580f 8fbc f7de e4bd a18a b1bc
00000030: 8826 e53d aa17 a53d f941 c6bd 6a91 b83d
00000040: 8d6b 8abd f4e4 6d3d 53d0 f63d ec5c 8bbd
00000050: 9878 6a3d cf64 e9b9 cdf0 f63d f042 c33d
00000060: 307c a1bd 02c4 c2bd d7fc 313d 7c70 963d
00000070: f85f 6bbd fc3b 05be 7f8d 33bd cf25 bb3d
00000080: 1ac2 05be ebd8 403d e3d6 e5bd c482 0cbd
00000090: d0c7 f7bc ed8e 033c 2037 743d 35c6 c23d
000000a0: 3ee7 0d3d 500e bdbd 9986 20bd 9a3c c33d
000000b0: 4122 5a3d a3ad e23c 78ed ef3d 03fe 0c3e
000000c0: ab4e f33d 7539 7c3d 1e40 1ebd cc35 50bd
000000d0: e311 09be e7ef 26bd 6901 0dbe 0e93 2a3b
000000e0: 7a4c 653d c50a 22bd 4da7 6c3d 55db c4bd
000000f0: 1da8 683d 1c00 863d 11a8 02bd 8a4b 843d
00000100: 48ca a2bd 7703 28bc 9e3d 5e3d 2f0f ea3d
00000110: 98d2 58bd b3c4 c7bd 2f67 6c3d 1704 373d
00000120: 315c 023e d8ec 053e b6c1 ed3d 9d01 9f3d
00000130: 2497 9b3d 0307 d33d 9305 ad3d 3e96 eb3c
00000140: 1d8d 41bd 1e72 833d 9382 0d3d 050a b0bd
00000150: fb41 a2bd 98b7 ec3d 080c f0bd 2a5d 443d
00000160: bf21 febd f2eb 9e3d 3f8e 523d c91a e73c
00000170: ef6e 96bb 6e03 e33d d75f 58bd 7b97 673d
00000180: fea3 133d 2d74 f03b 5e7c d33d a510 ed3c
00000190: 4f42 2b3d 9f63 723d 58ae ad3c 4350 473d
000001a0: 5e55 09be 3ad5 8a3d 8753 c6ba cd46 da3c
000001b0: 46e0 0cbe b1c4 1abe 5cbe abbd 9a05 f6bd
000001c0: 0336 f4bc 0c47 2f3d 5142 0ebe 0875 8dbb
000001d0: 782f 5d3c a4f2 a4bc 7fd1 09bd 467a 07bb
000001e0: 3ff5 8ebc 88c5 453d 15ca 813d caa3 54bb
000001f0: 6306 1dbd cdc0 3ebc 3470 123d fbf8 d13d
00000200: 7d5f a2bd 5186 5c3d 3799 8d3a b834 ffbc
00000210: c4e9 9dbd ef7a cabd c065 a53d 43db 9f3c
00000220: d8d6 e33c 5435 27bc a27f d93c 4dd2 443d
00000230: 9c86 c6bc e97a 2abd f6e9 b23d 107b 093d
00000240: ff70 1a3d 5bde 58bd 1adc 9abd 691e b93d
00000250: a3f0 b9bd 192d af3c 7ffa c63d f2cb 0c3d
00000260: 2cc3 d6bd 11ab 70bb 3144 d6bd dad2 bfba
00000270: 42e5 823d f997 0ebe 0660 f8bd 613d b0bd
00000280: c962 91bd c795 9e3d 341b f23c 6652 30bd
00000290: b66f e23b 975b edbd ea0f 98bd 0340 b7bd
000002a0: 00e8 34bd 9d12 adbd 539f 393d 8254 09be
000002b0: f561 f3bd 7316 d3bd 053a efbd bf15 30bd
000002c0: 5700 00be 4d0c cd3c df56 af3c 410a e33c
000002d0: ecfc c93c a389 52bd b2d5 9fbb 03e3 553c
000002e0: bf30 f0bd 833c a53b 5ec7 9cbd f16c c83c
000002f0: 061d 8b3d 58d5 52bd dde5 d7bd d6f5 b53d
00000300: 2be2 7f3d 85ba b23c 80ec 04bd a4d5 fb3c
00000310: 04aa a9bd fe23 0abe cfa4 b4bd 50cd b7bd
00000320: 77de 9abd 6af0 2f3c 90f7 dc3d fe56 3c3d
00000330: 9395 f93d 6fdb e3bc ad7e 213d d517 e23d
00000340: a5c8 32bd d6a9 193e 7b1a ed3d 87f9 b43d
00000350: b0fe 1b3d 32ef 393e 7265 333e dd97 763d
00000360: 9392 1e3e ca4d 363e 4e01 d73d fe0d f13d
00000370: e9b3 a43d 528e 6c3d 2482 44bd b787 d33d
00000380: 2fa5 d83d 8e9c aa3d e1af 2d3d 256f fb3b
00000390: 5eb6 e73c 4071 4dbd 486e 5f3d ded7 debc
000003a0: 91bf 8b3d d8bc 8f3d cf17 663d 340f b43d
000003b0: 821d 8ebd c1e3 0f3c 8720 b4bc afb8 023e
000003c0: 3d50 5a3d 716e 533d 640f 883d 9404 fc3d
000003d0: 3267 473d f4e0 12bc bb61 babd 5c55 b7bd
000003e0: 6ee6 e13d 7dde 41bb 78c3 ebbb 7c6c 2f3d
000003f0: a888 66bd 668d b03d 6a62 38bd aa1c c9bc

bias f4 [32]
-0.11683142 0.016502272 0.021718903 0.0061615556 -0.050138894 0.22461283 -0.2726059 -0.22351448
-0.107278675 0.005556661 0.15859194 -0.020717327 -0.063943215 -0.08182973 -0.021876015 -0.07499907
0.00434836 -0.2835238 -0.09659318 -0.06656463 -0.013441141 0.031141134 0.07672388 0.045470063
-0.2036418 0.03901736 -0.09440827 0.14566593 -0.21712619 0.05524759 -0.0937217 0.07492325
00000000: 5045 efbd c62f 873c d7eb b13c e0e6 c93b
00000010: 715e 4dbd e800 663e 0093 8bbe fbe0 64be
00000020: ecb4 dbbd a714 b63b ed65 223e 62b7 a9bc
00000030: a9f4 82bd 5896 a7bd 5435 b3bc 1d99 99bd
00000040: b07c 8e3b 082a 91be a5d2 c5bd 0953 88bd
00000050: 3b38 5cbc b11b ff3c 6921 9d3d d13e 3a3d
00000060: 7a87 50be abd0 1f3d 2059 c1bd 7329 153e
00000070: 5456 5ebe 4c4b 623d 2af1 bfbd 5c71 993d

weight f4 [32, 32, 5, 5]
-0.0003203122 -0.0072057536 -0.0025183945 -0.009087322 -0.02933828 0.032750547 -0.00020707703 0.028450705
0.02559205 0.02132613 0.008972335 -0.006524452 -0.01836317 0.014768443 0.044207714 -0.020009298
-0.001709449 -0.03209556 -0.015330273 -0.01795905 0.027080165 0.026549932 0.029401552 0.025188848
0.012011878 -0.033063505 0.017828686 -0.01749354 0.027593702 -0.0021778466 -0.026355278 0.01479377
0.006598831 0.006900638 -0.027428098 0.034710947 -0.016450165 0.015036281 0.010379579 0.02499785
0.014302537 0.037930496 -0.019954083 -0.0016155919 0.020203404 -0.0031709906 0.034394577 0.03031686
0.036546137 -0.024458645 0.02590914 0.035592042 -0.0035004495 0.015000049 0.031083984 0.023441937
0.011046037 -0.015136832 0.030469518 0.031505536 -0.031368766 0.00037281876 0.032359608 0.031829808
-0.007636229 0.019804249 0.011673695 -0.03356411 0.012848047 0.014024996 -0.026488664 0.022367094
-0.005241735 -0.0072922376 0.024956003 -0.0016051222 0.022548247 -0.015971608 0.00742342 -0.017866408
0.017392663 -0.00866663 -0.00085283496 -0.0011444817 0.003996693 0.0034236428 0.0028597477 0.042492267
0.018004296 0.0026906172 -0.010779437 0.038890865 0.03848722 0.016677562 0.013165032 0.0070152855
0.029007806 -0.017171225 0.0045144367 0.030214006 0.017790915 -0.021746581 -0.030595118 -0.0045395438
-0.010576746 -0.014094307 -0.0031422535 0.0036894137 -0.038894244 0.0050607985 0.00059933896 -0.01992742
-0.025546858 0.004055541 0.0044005834 -0.029000038 0.021782605 0.019833827 0.008005659 -0.011574821
0.007430742 0.017706355 0.028430663 -0.017304894 0.0011144882 0.007468346 -0.005775417 0.018521693
0.02825972 -0.031392008 0.015416289 0.00790608 0.024124304 0.007663185 -0.003507072 -0.026652459
0.019029034 -0.0251462 -0.024798624 -0.023968603 0.02656881 -0.010591377 -0.042193405 -0.042676993
0.009444045 0.0027282308 -0.02863628 0.003467818 0.03552351 -0.0164396 0.0048801512 0.036197163
0.01010368 -0.0093267495 0.034892414 0.011526697 0.037264545 0.038509987 -0.005836452 0.021662174
0.017647274 0.02809365 0.016293878 0.026015585 0.008019334 0.023605201 -0.017722702 0.020270739
-0.0069348225 -0.0061124912 -0.007344648 0.033446386 0.03023276 -0.024423497 0.037336785 -0.023891898
-0.033814784 -0.020452471 0.029107105 -0.041260544 -0.013496995 0.001974649 -0.0025053064 0.019528406
-0.036916167 -0.0007699181 -0.01341932 0.02974694 0.017605215 0.037035692 0.029278608 -0.007351401
0.02440948 0.044125456 0.030627742 0.038439408 0.045827843 0.022873873 0.036459755 0.04082778
0.012483449 0.029754784 0.0049972245 -0.030287154 -0.006093906 0.014841407 0.010608662 -0.012824556
-0.03758696 0.011678577 0.014166537 0.021820305 -0.0014155543 -0.034063112 -0.031045344 -0.009248289
0.030623542 -0.019728322 0.04546441 -0.018200858 -0.03018426 0.040471695 0.014194303 0.008286998
0.010041852 0.026785858 0.0005978832 -0.028878229 -0.029203469 0.02183858 0.025536012 0.001934862
0.014548833 -0.02252168 -0.020390887 -0.01573141 0.02770333 0.0014968992 -0.002724349 0.022618817
-0.029190734 0.00080052787 -0.021848666 0.027102029 0.022591924 0.022204377 -0.0052798907 -0.0028597084
0.041286997 0.027656883 -0.009131611 -0.016136909 -0.020811269 -0.011161613 -0.042332646 0.03696777
00000000: 93ef a7b9 3e1e ecbb a60b 25bb fee2 14bc
00000010: d556 f0bc 7025 063d d122 59b9 7411 e93c
00000020: 6ba6 d13c 23b4 ae3c b300 133c 12cb d5bb
00000030: 5c6e 96bc 57f7 713c 2613 353d 8aea a3bc
00000040: 970f e0ba a276 03bd d32b 7bbc dc1e 93bc
00000050: 39d7 dd3c 3e7f d93c 86db f03c d858 ce3c
00000060: 78cd 443c 996d 07bd 770d 923c 9d4e 8fbc
00000070: 300c e23c 34ba 0ebb 06e7 d7bc 9261 723c
00000080: 023b d83b bf1e e23b e4b0 e0bc 112d 0e3d
00000090: 7fc2 86bc bc5a 763c 1c0f 2a3c 4bc8 cc3c
000000a0: 3055 6a3c 025d 1b3d bf76 a3bc 45c2 d3ba
000000b0: 9c81 a53c 65d0 4fbb 54e1 0c3d 105b f83c
000000c0: 67b1 153d 7f5d c8bc 683f d43c f6c8 113d
000000d0: cc67 65bb c4c2 753c d7a3 fe3c 4e09 c03c
000000e0: 70fa 343c 7a00 78bc 369b f93c f30b 013d
000000f0: 897c 00bd e376 c339 828b 043d f95f 023d
00000100: 5539 fabb 853c a23c 0743 3f3c 857a 09bd
00000110: 9d80 523c 19c9 653c c1fe d8bc 323b b73c
00000120: dcc2 abbb b9f3 eebb 8870 cc3c f762 d2ba
00000130: 1ab7 b83c e4d6 82bc 2940 f33b 935c 92bc
00000140: 0f7b 8e3c 7bfe 0dbc c990 5fba 6f02 96ba
00000150: b1f6 823b 325f 603b 9b6a 3b3b 5f0c 2e3d
00000160: bf7d 933c 1155 303b 3c9c 30bc 074c 1f3d
00000170: c6a4 1d3d 629f 883c 25b2 573c 7be0 e53b
00000180: c7a1 ed3c abaa 8cbc d7ed 933b 5d83 f73c
00000190: 41be 913c e325 b2bc 9da2 fabc 74c0 94bb
000001a0: 174a 2dbc cfeb 66bc 44ee 4dbb 17ca 713b
000001b0: 924f 1fbd 0ed5 a53b f51c 1d3a d43e a3bc
000001c0: a547 d1bc 58e4 843b c532 903b 7d91 edbc
000001d0: 6f71 b23c 8d7a a23c 2b2a 033c 51a4 3dbc
000001e0: 957d f33b eb0c 913c 6ce7 e83c fec2 8dbc
000001f0: 0514 923a 07b9 f43b b63f bdbb ceba 973c
00000200: ee80 e73c e894 00bd 9a94 7c3c 8188 013c
00000210: 55a0 c53c 741b fb3b e8d6 65bb 4256 dabc
00000220: c7e2 9b3c 67ff cdbc 7c26 cbbc ce59 c4bc
00000230: d5a6 d93c 7487 2dbc fed2 2cbd 12ce 2ebd
00000240: 32bb 1a3c 1ecc 323b a296 eabc 5544 633b
00000250: 1a81 113d 57ac 86bc ade9 9f3b 7a43 143d
00000260: e889 253c 39cf 18bc 59eb 0e3d 79da 3c3c
00000270: b5a2 183d a6bc 1d3d b53f bfbb df74 b13c
00000280: 0491 903c a724 e63c bd7a 853c a31e d53c
00000290: 8663 033c b25f c13c 332f 91bc d20e a63c
000002a0: 823d e3bb 4b4b c8bb 5fab f0bb 14ff 083d
000002b0: b1aa f73c c913 c8bc 75ee 183d f1b8 c3bc
000002c0: 5f81 0abd f18b a7bc 0672 ee3c d100 29bd
000002d0: 8022 5dbc 1d69 013b 1130 24bb 09fa 9f3c
000002e0: 6835 17bd 54d4 49ba b5dc 5bbc dbaf f33c
000002f0: d038 903c bdb2 173d b1d9 ef3c 05e4 f0bb
00000300: 64f6 c73c e5bc 343d 08e7 fa3c a472 1d3d
00000310: fab5 3b3d fd61 bb3c d356 153d 083b 273d
00000320: 6187 4c3c 4ec0 f33c c2bf a33b c41c f8bc
00000330: 63af c7bb 5f29 733c f4cf 2d3c 161e 52bc
00000340: c9f4 19bd 8157 3f3c c31a 683c 7fc0 b23c
00000350: 1f8a b9ba c385 0bbd ce52 febc 2386 17bc
00000360: 39de fa3c 4a9d a1bc e438 3a3d f719 95bc
00000370: fb44 f7bc a6c5 253d 398f 683c 30c6 073c
00000380: 9486 243c 046e db3c 43bb 1c3a 0992 ecbc
00000390: 1d3c efbc d2e6 b23c e630 d13c 329b fd3a
000003a0: 3a5e 6e3c 637f b8bc ca0a a7bc 28df 80bc
000003b0: 18f2 e23c 9a33 c43a fe8a 32bb 194b b93c
000003c0: 6821 efbc 84da 513a f9fb b2bc 1305 de3c
000003d0: b312 b93c f4e5 b53c ef02 adbb f269 3bbb
000003e0: 8e1c 293d b090 e23c c19c 15bc 8d31 84bc
000003f0: 657c aabc 33df 36bc ff64 2dbd 846b 173d

bias f4 [32]
-0.005699151 0.010063787 -0.072742306 -0.04418706 0.0022007746 -0.034901384 -0.0019783548 0.02854549
-0.038453408 0.015733061 -0.0978661 -0.017044332 0.075164095 -0.03174328 -0.067110375 0.006839699
0.029884387 0.037147768 -0.07180348 -0.039501302 0.001362549 0.003765355 -0.0071647135 -0.0120727755
-0.0290204 -0.012001121 -0.024562797 -0.009156864 -0.004984437 -0.0010368373 -0.04016234 -0.014509199
00000000: f2bf babb 95e2 243c ebf9 94bd 7efd 34bd
00000010: df3a 103b c1f4 0ebd 49a7 01bb 3bd8 e93c
00000020: 5281 1dbd 9fe2 803c 066e c8bd 8ea0 8bbc
00000030: a2ef 993d 3e05 02bd 2a71 89bd 8e1f e03b
00000040: 1ad0 f43c 4228 183d b40d 93bd 1ecc 21bd
00000050: 8f97 b23a 2dc4 763b f9c5 eabb e4cc 45bc
00000060: 31bc edbc 5aa0 44bc eb37 c9bc ac06 16bc
00000070: 7d54 a3bb 7de6 87ba 4481 24bd feb7 6dbc

weight f4 [64, 32, 5, 5]
0.0013799362 0.03807975 0.010145825 -0.0025996796 0.007458166 0.00079729187 0.022762235 0.0003645938
-0.01784284 0.006598547 -0.015087097 0.011326657 0.021816889 -0.022031782 0.020902932 -0.00984788
0.022643661 -0.030173518 0.0034758125 -0.022922253 0.032892343 0.038935672 -0.0044793934 -0.0011471094
-0.014026318 0.02622828 -0.035654526 0.026347738 -0.0100498255 -0.01604549 0.021758938 -0.005820379
0.0035239449 0.018664796 -0.021380272 0.015401713 0.009915812 0.015279693 0.0002942685 -0.0040648445
0.031484187 -0.020569112 -0.022272607 -0.012610697 -0.023057321 -0.029959327 0.004722102 -0.031239245
0.033484455 0.031592663 0.002395808 0.01734973 0.034630097 -0.01719378 0.018254556 -0.034241553
-0.033934597 0.018835593 0.013419663 -0.02085114 -0.011032481 0.0025905443 0.0074800863 0.041312557
0.024081917 -0.03336412 0.030373342 0.037817042 0.037391998 0.021323966 0.025273891 0.02582649
0.048273977 0.05109773 0.025090192 -0.024932863 -0.0030965041 0.0033357334 -0.01608269 0.026225202
0.009033139 -0.034712948 0.0045893006 0.024102792 -0.006928246 0.004449873 0.0115601225 0.0051491526
-0.030335102 -0.021018058 0.0042348276 0.0073442524 0.029461348 -0.022094714 -0.019580487 0.008189545
-0.01349097 -0.027962599 0.013082221 -0.017901516 0.0032336665 0.005632595 0.02254971 0.02881013
-0.01375515 -0.0118085155 0.027378127 0.010301143 -0.029578643 0.0067800665 -0.014535308 -0.027798072
0.002152979 0.033547588 0.015747098 -0.0115614915 -0.009494368 0.00894266 0.00042174562 -0.0053378
-0.021218697 -0.0015991178 0.0017120976 -0.020464163 -0.005507368 -0.0082879225 0.021386262 -0.01835747
-0.030311348 0.018217495 -0.0121333385 -0.0074219555 -0.02979438 0.0068438128 -0.0046548094 -0.03269331
0.015422341 -0.033667658 -0.010570756 -0.022392849 0.010596392 0.029242426 -0.004035115 -0.019593637
-0.008020853 -0.023694132 -0.03604502 -0.028655753 -0.025566522 0.00936444 0.004930439 0.013385538
0.021128312 -0.0046189628 0.009527884 -0.02098081 0.021031981 0.030468496 -0.0068943077 -0.019153407
-0.01400631 0.005866913 -0.018350096 0.0060153487 0.0011725401 -0.018382885 -0.004815342 0.013758324
-0.0117189605 0.034714006 0.032142676 -0.008522038 0.01497904 -0.025639676 -0.026744744 -0.0032813624
-0.0008644014 0.012299177 -0.015532172 -0.006141561 0.021994766 -0.0032472622 -0.00872789 0.0118152825
0.010248625 0.012726903 0.008557185 -0.012097111 0.009153296 -0.011722758 0.0008416741 0.018284857
0.025961416 0.025218803 -0.007112887 -0.029728988 -0.00047085245 0.025991132 0.015540323 0.004429453
0.023359504 0.03367341 -0.008556651 -0.0027539867 -0.020546328 -0.000605503 -0.007765492 -0.007972406
-0.029501522 0.009789755 -0.03086568 -0.022277221 -0.029442156 0.002710012 -0.03237336 -0.025638362
0.030267831 0.0045145163 -0.025703076 0.031861395 -0.028419636 0.017920716 0.010806668 -0.003046711
-0.021707604 0.007216396 -0.040810846 0.018103527 0.0009772741 0.0008799351 -0.031941473 -0.03290434
0.0057088244 -0.03151443 -0.015001278 0.024849162 -0.01802927 0.027288215 -0.008672571 0.014698793
0.03546499 -0.03442046 0.033023413 0.015710259 -0.02721434 -0.01171108 -0.039614897 0.022400536
0.0010593926 -0.03815398 0.013552846 -0.014200616 0.005002071 0.048188847 -0.0052482015 -0.00451375
00000000: fade b43a 83f9 1b3d ad3a 263c 635f 2abb
00000010: a263 f43b 5a01 513a de77 ba3c f426 bf39
00000020: 262b 92bc a038 d83b df2f 77bc 7193 393c
00000030: 55b9 b23c ff7b b4bc a03c ab3c 0159 21bc
00000040: 337f b93c 742e f7bc 75ca 633b 73c7 bbbc
00000050: 1fba 063d 037b 1f3d e0c7 92bb 9b5a 96ba
00000060: a4ce 65bc b1dc d63c 7b0a 12bd 36d7 d73c
00000070: 06a8 24bc d571 83bc cd3f b23c e1b8 bebb
00000080: fcf1 663b eae6 983c ae25 afbc 7757 7c3c
00000090: ee75 223c ad57 7a3c 0d48 9a39 6332 85bb
000000a0: 90f5 003d 8e80 a8bc 0b75 b6bc 199d 4ebc
000000b0: b5e2 bcbc 436d f5bc ddbb 9a3b 72e9 ffbc
000000c0: ff26 093d 4f67 013d fd02 1d3b 0521 8e3c
000000d0: 4ad8 0d3d f8d9 8cbc 948a 953c df40 0cbd
000000e0: 01ff 0abd 1a4d 9a3c 25de 5b3c 03d0 aabc
000000f0: 94c1 34bc 1fc6 293b 831b f53b 5b37 293d
00000100: 7147 c53c d1a8 08bd 84d1 f83c 0be6 1a3d
00000110: 5a28 193d 99af ae3c 310b cf3c 1392 d33c
00000120: efba 453d da4b 513d f289 cd3c 0140 ccbc
00000130: b8ee 4abb 529c 5a3b d8bf 83bc 3cd6 d63c
00000140: bbff 133c 2a2f 0ebd d861 963b 3873 c53c
00000150: 5706 e3bb 3ed0 913b ab66 3d3c 39ba a83b
00000160: 5281 f8bc 102e acbc 4fc4 8a3b 0ea8 f03b
00000170: ed58 f13c f9ff b4bc 4267 a0bc 712d 063c
00000180: 3b09 5dbc d211 e5bc d056 563c 33a6 92bc
00000190: eceb 533b a291 b83b 2bba b83c 3903 ec3c
000001a0: 485d 61bc 8178 41bc 1848 e03c 20c6 283c
000001b0: e94e f2bc 522b de3b 8025 6ebc c8b8 e3bc
000001c0: fe18 0d3b 3269 093d 0f00 813c 696c 3dbc
000001d0: 448e 1bbc 3c84 123c bd1d dd39 b6e8 aebb
000001e0: d5d2 adbc 7d99 d1ba 7668 e03a 76a4 a7bc
000001f0: 2777 b4bb 11ca 07bc 3e32 af3c 6862 96bc
00000200: 814f f8bc db3c 953c e9ca 46bc e033 f3bb
00000210: 5813 f4bc 1042 e03b 5f87 98bb 6ce9 05bd
00000220: fdad 7c3c 19e7 09bd f730 2dbc 3571 b7bc
00000230: 7d9c 2d3c d08d ef3c ff38 84bb d682 a0bc
00000240: e569 03bc 321a c2bc f1a3 13bd 78bf eabc
00000250: e270 d1bc 4f6d 193c 858f a13b 044f 5b3c
00000260: 4815 ad3c ab5a 97bb d81a 1c3c f3df abbc
00000270: 434b ac3c 1199 f93c a5e9 e1bb 9be7 9cbc
00000280: b97a 65bc 3c3f c03b f152 96bc 671c c53b
00000290: ebaf 993a b497 96bc 04ca 9dbb 986a 613c
000002a0: e200 40bc 4630 0e3d 0aa8 033d 05a0 0bbc
000002b0: a66a 753c 4c0a d2bc cb17 dbbc 200c 57bb
000002c0: ff98 62ba 7d82 493c a77a 7ebc 263f c9bb
000002d0: 5e2e b43c 05d0 54bb 6dff 0ebc e394 413c
000002e0: d9e9 273c 8084 503c 6f33 0c3c f632 46bc
000002f0: b5f7 153c d010 40bc cba3 5c3a 20ca 953c
00000300: 09ad d43c aa97 ce3c 3913 e9bb 358a f3bc
00000310: bfdc f6b9 5beb d43c d79c 7e3c f224 913b
00000320: 6e5c bf3c 21ed 093d 3231 0cbc 3b7c 34bb
00000330: c650 a8bc 9eba 1eba ab75 febb b29e 02bc
00000340: 2dad f1bc 3565 203c 06da fcbc b87e b6bc
00000350: ad30 f1bc 759a 313b ee99 04bd 8b07 d2bc
00000360: 3ef4 f73c 82ee 933b 428f d2bc 1881 023d
00000370: 4cd0 e8bc 77ce 923c 730e 313c 54ab 47bb
00000380: 25d4 b1bc 8477 ec3b 4629 27bd d94d 943c
00000390: e117 803a 72ab 663a 10d5 02bd b4c6 06bd
000003a0: 1711 bb3b 4615 01bd ecc7 75bc 7890 cb3c
000003b0: 1fb2 93bc 898b df3c 6617 0ebc 35d3 703c
000003c0: bd43 113d 78fc 0cbd 8f43 073d cdb2 803c
000003d0: 9cf0 debc d4df 3fbc 3b43 22bd 5481 b73c
000003e0: 51db 8a3a 5947 1cbd c20c 5e3c b3a9 68bc
000003f0: 6ae8 a33b ab61 453d 1bf9 abbb 14e8 93bb

bias f4 [64]
-0.036820907 0.04431783 -0.023459561 -0.00259229 -0.061279126 3.031125e-05 -0.025352888 -0.033349935
0.0329931 0.032501113 -0.043181002 0.0009969763 -0.049245328 0.00081256934 0.026806017 -0.013309129
0.018874677 -0.005757977 -0.0064616813 -0.016751135 0.017482307 0.024249356 -0.008591681 0.024146993
-0.00023667447 -0.05612163 -0.0050344313 -0.009026543 -0.024751924 0.008188047 0.011054373 -0.009173985
-0.02919664 0.016599625 -0.035415042 0.0049888645 -0.0075609135 0.008575489 0.024941485 -0.0036569866
-0.037946023 -0.09395333 -0.04835953 -0.03187679 0.011762355 -0.06896012 0.013113304 -0.019285446
-0.016400347 -0.03953038 -0.04329292 -0.053360272 -0.041635398 0.020975644 -0.016621158 -0.02587577
0.0376339 -0.03612667 -0.021783605 -0.02597899 -0.015301131 -0.034656566 -0.009166434 -0.0007660022
00000000: 85d1 16bd 9d86 353d 442e c0bc 69e3 29bb
00000010: d2ff 7abd ea44 fe37 dcb0 cfbc f199 08bd
00000020: c623 073d e31f 053d 90de 30bd f9ac 823a
00000030: 78b5 49bd 9b02 553a 4b98 db3c 880e 5abc
00000040: 119f 9a3c 69ad bcbb 83bc d3bb ad39 89bc
00000050: 0e37 8f3c 96a6 c63c 1fc4 0cbc eacf c53c
00000060: d22b 78b9 cbdf 65bd dff7 a4bb 11e4 13bc
00000070: 8cc4 cabc 2927 063c 671d 353c 7b4e 16bc
00000080: cb2d efbc f0fb 873c 5d0f 11bd a179 a33b
00000090: 8ac1 f7bb 3580 0c3c 1652 cc3c 0eaa 6fbb
000000a0: 4a6d 1bbd 9a6a c0bd a414 46bd 3d91 02bd
000000b0: e5b6 403c f73a 8dbd 2fd9 563c 83fc 9dbc
000000c0: 055a 86bc 9cea 21bd eb53 31bd 4d90 5abd
000000d0: e189 2abd 1dd5 ab3c 1829 88bc 6cf9 d3bc
000000e0: 0126 1a3d 8ff9 13bd 8873 b2bc e4d1 d4bc
000000f0: 98b1 7abc 0bf4 0dbd d02e 16bc 8acd 48ba

weight f4 [64, 1024]
-0.01376862 0.031298496 0.0015685463 0.017251685 0.036862925 0.04133619 -0.00027132625 -0.016336156
0.0010110321 -0.006673017 0.026258493 0.0002629655 -0.017882457 0.00024983214 -0.0019555867 -0.0032560832
-0.024695395 -0.023123326 -0.020169292 -0.01246278 -0.025985103 -0.011893517 0.014262891 0.0045963745
-0.012226946 -0.026991649 -0.009536956 -0.039295208 0.033302072 -0.027660206 -0.004266113 0.0012589701
0.013988683 0.037615426 -0.012107914 -0.007309901 0.009034282 -0.00058925175 0.010318178 -0.021816608
0.0049043163 -0.015455871 0.03525252 -0.0066551724 0.016083026 0.0068752263 -0.019082682 0.018700892
-0.019693771 -0.024064153 0.01716536 -0.011565107 0.027097324 0.023653047 0.014060533 -0.017217183
0.033835307 0.0013936709 0.023948792 0.009424294 0.024326252 0.009229992 0.023765374 0.03597774
0.007865543 0.037181333 -0.013306622 0.009386051 0.036620267 0.018668087 0.012317768 0.03603871
-0.01670055 -0.004807133 0.039382335 0.0011206008 0.00261936 -0.028005512 0.013435762 -0.020942084
-0.013277937 0.015516135 0.008087342 0.024376055 -0.015133381 0.040046774 -0.00044706254 0.011277234
0.006859672 0.017142046 0.010208482 -0.02749248 -0.016387805 -0.0069215875 0.013043789 0.027257323
0.009465043 0.040008537 0.0056179687 0.011976589 -0.005016387 0.022671951 -0.01734616 -0.04262762
0.020103492 0.026784252 -0.003430592 0.033298302 -0.010380072 0.02051216 -0.0044862865 -0.011533394
0.014170798 0.012414988 0.014330336 0.005496861 -0.009224004 -0.005752036 -0.0013333887 0.022690125
0.019142877 -0.009153254 -0.00337019 -0.0081641935 -0.019266067 0.037309345 -9.9817895e-05 0.01950664
0.022552362 -0.014334597 -0.011648722 -0.014636811 0.023096437 -0.0017484477 0.008774031 -0.03167361
0.005887631 0.02043751 -0.01028057 0.025071317 -0.004389998 -0.03169313 -0.026123965 0.03578839
0.033215664 -0.00041728013 0.029784 -0.0191584 0.0023474228 0.0011396727 0.012842007 0.008452999
0.02057152 0.0011098075 0.008149659 -0.00492631 0.00755495 0.02029519 -0.010950339 0.0060484456
-0.0010236525 -0.024072774 -0.0031987105 -0.015324165 -0.026529945 0.007029786 0.03158757 -0.0001799693
0.0062041176 0.017546806 0.021663578 -0.007834813 0.012914713 -0.0027841835 0.03533391 -0.021439053
0.021647368 -0.011091675 -0.0233515 0.009903828 -0.013261104 0.043944787 -0.029094482 0.018969934
0.0074079433 0.021481248 0.005153292 0.02441373 0.0021662062 0.009037272 0.024004092 0.018677631
0.01155194 0.043947075 0.017420107 0.013836991 0.006340509 0.011173087 0.023299035 -0.036387276
0.02177976 0.03337949 -0.013618849 -0.020427555 0.023513975 -0.017234553 0.022016725 -0.033077814
-0.023271194 -0.002469699 -0.0014974804 0.014203133 -0.0064821383 0.04411382 0.0137930345 0.026291985
0.011217933 -0.033878062 -0.009077176 0.014098715 0.028292878 -0.0054756464 -0.010966865 0.00020488986
-0.031608455 -0.016190585 -0.025448762 0.0038283395 0.023082823 0.027653111 -0.0045030876 -0.020482259
0.017276846 0.03362447 -0.009815157 -0.012035588 -0.0005407878 0.0070270333 -0.0074739293 0.011564265
0.0109207025 0.0061127455 -0.003960924 -0.0038249097 0.0022684955 0.012680742 -0.024480674 -0.0023204687
-0.022459742 -0.008378621 0.00810417 0.0190598 0.02204644 0.02831447 0.034503683 -0.008448574
00000000: c795 61bc da32 003d ae97 cd3a 6853 8d3c
00000010: 94fd 163d 2350 293d cb40 8eb9 67d3 85bc
00000020: 9c84 843a 53a9 dabb 0d1c d73c a2de 8939
00000030: 3b7e 92bc e7fb 8239 4d29 00bb 0364 55bb
00000040: ff4d cabc 216d bdbc 123a a5bc b030 4cbc
00000050: b6de d4bc 07dd 42bc e7ae 693c 2f9d 963b
00000060: 8753 48bc 971d ddbc e540 1cbc 03f4 20bd
00000070: c167 083d a897 e2bc c0ca 8bbb 0704 a53a
00000080: ca30 653c a212 1a3d 4660 46bc e587 efbb
00000090: 8604 143c 0478 1aba 930d 293c beb8 b2bc
000000a0: 63b4 a03b 9f3a 7dbc f264 103d a213 dabb
000000b0: 8dc0 833c 9449 e13b 4953 9cbc 9d32 993c
000000c0: d554 a1bc 3022 c5bc 5e9e 8c3c 937b 3dbc
000000d0: 35fb dd3c 09c4 c13c 265e 663c 0d0b 8dbc
000000e0: e496 0a3d d6ab b63a 4230 c43c 5b68 1a3c
000000f0: d947 c73c 6439 173c 9aaf c23c 655d 133d
00000100: 7ade 003c 744b 183d 0504 5abc f4c7 193c
00000110: 22ff 153d d1ed 983c 77d0 493c 549d 133d
00000120: 98cf 88bc 2885 9dbb 5f4f 213d 20e1 923a
00000130: 92a9 2b3b d16b e5bc ac21 5c3c bc8e abbc
00000140: b48b 59bc 6337 7e3c c580 043c 4bb0 c73c
00000150: 00f2 77bc 1608 243d b863 eab9 26c4 383c
00000160: 19c7 e03b 7a6d 8c3c 7a41 273c e937 e1bc
00000170: b83f 86bc 7cce e2bb 9eb5 553c c04a df3c
00000180: 4513 1b3c fedf 233d f016 b83b 7539 443c
00000190: 8160 a4bb 87ba b93c 8919 8ebc 4d9a 2ebd
000001a0: 14b0 a43c a66a db3c c8d3 60bb cd63 083d
000001b0: 2d11 2abc 1e09 a83c b301 93bb 90f6 3cbc
000001c0: a22c 683c 3c68 4b3c c9c9 6a3c 031f b43b
000001d0: 4720 17bc 937b bcbb 1ac5 aeba a4e0 b93c
000001e0: 86d1 9c3c 88f7 15bc 68de 5cbb 1cc3 05bc
000001f0: dfd3 9dbc afd1 183d 5355 d1b8 64cc 9f3c
00000200: bbbf b83c a8db 6abc 48da 3ebc 3ccf 6fbc
00000210: bd34 bd3c 2b2c e5ba f4c0 0f3c 30bc 01bd
00000220: 07ed c03b 916c a73c d66f 28bc 5d62 cd3c
00000230: f9d9 8fbb a8d0 01bd ed01 d6bc d996 123d
00000240: 260d 083d 64c6 dab9 93fd f33c 14f2 9cbc
00000250: 38d7 193b 1261 953a 4867 523c 737e 0a3c
00000260: 9b85 a83c f676 913a 2686 053c e26c a1bb
00000270: 848f f73b 1942 a63c 0d69 33bc 0a32 c63b
00000280: 142c 86ba 4434 c5bc 75a1 51bb 3512 7bbc
00000290: 5455 d9bc 1e5a e63b f861 013d 24b6 3cb9
000002a0: e94b cb3b 52be 8f3c d177 b13c 965d 00bc
000002b0: 3b98 533c d976 36bb 4aba 103d f4a0 afbc
000002c0: d255 b13c dbb9 35bc a54b bfbc aa43 223c
000002d0: 1a45 59bc 73ff 333d 8d57 eebc d666 9b3c
000002e0: 55be f23b 71f9 af3c f2dc a83b 4dff c73c
000002f0: e9f6 0d3b 1111 143c 3ba4 c43c d501 993c
00000300: 5944 3d3c d901 343d 9db4 8e3c 8cb4 623c
00000310: 0bc4 cf3b 530f 373c 9edd be3c d30a 15bd
00000320: 786b b23c efb8 083d 9821 5fbc b057 a7bc
00000330: 61a0 c03c 7a2f 8dbc 6b5c b43c 9a7c 07bd
00000340: 3ba3 bebc acda 21bb 1b47 c4ba 42b4 683c
00000350: 1e68 d4bb b1b0 343d 2efc 613c 4a62 d73c
00000360: 6ccb 373c b9c3 0abd 70b8 14bc 4cfe 663c
00000370: 77c6 e73c 0d6d b3bb 5eae 33bc b4d7 5639
00000380: de77 01bd 1ea2 84bc ec79 d0bc e1e4 7a3b
00000390: 3018 bd3c c788 e23c a38e 93bb 69ca a7bc
000003a0: 2c88 8d3c d0b9 093d c1cf 20bc ea30 45bc
000003b0: a8c3 0dba 0743 e63b dde7 f4bb 0b78 3d3c
000003c0: bfec 323c 6d4d c83b a4ca 81bb 56ab 7abb
000003d0: 0aab 143b e3c2 4f3c b28b c8bc 0113 18bb
000003e0: 7efd b7bc 7c46 09bc 5ac7 043c 4c23 9c3c
000003f0: bc9a b43c bff3 e73c bc53 0d3d e36b 0abc

bias f4 [64]
0.00095034554 0.0008624654 -0.029215166 -0.0020765963 0.022745095 0.015875129 0.0031748714 -0.028134087
0.013339683 -0.03566299 0.0007829387 -0.003823294 -0.0074025397 0.030084146 -0.010060233 -0.005596012
0.019156568 0.008751952 -0.045840446 0.0009732256 0.0072218413 -0.0040245308 -0.013051465 0.033848803
0.02658216 0.037559472 0.0069358307 0.013761357 0.041937336 0.023606412 -0.016833797 -0.0044291816
-0.03875276 0.011863365 -0.011668592 -0.016472217 -0.020951731 0.011548979 -0.036974553 0.013984777
-0.038724206 -0.013778578 -0.003852603 0.018537804 0.011878438 0.008390262 0.033730723 -0.022623247
0.056198046 0.020466441 -0.009460481 -0.011924072 -0.031328417 -0.0030942354 0.013535267 0.010499382
0.046915926 -0.016954573 -0.014760405 0.012075944 -0.051087383 -0.0008282793 0.009284637 -0.04355284
00000000: 9c20 793a 1317 623a a554 efbc 8117 08bb
00000010: ec53 ba3c 8f0c 823c 8111 503b 7579 e6bc
00000020: b08e 5a3c 5b13 12bd 203e 4d3a 3b90 7abb
00000030: 0191 f2bb 0773 f63c add3 24bc c05e b7bb
00000040: 3cee 9c3c 5964 0f3c 31c3 3bbd 1020 7f3a
00000050: 32a5 ec3b 36e0 83bb d0d5 55bc 0ba5 0a3d
00000060: d4c2 d93c f6d7 193d f745 e33b 5177 613c
00000070: 7cc6 2b3d 3c62 c13c 08e7 89bc ab22 91bb
00000080: 37bb 1ebd 8f5e 423c 9f2d 3fbc bef0 86bc
00000090: f7a2 abbc ee37 3d3c a172 17bd 6820 653c
000000a0: 469d 1ebd 8bbf 61bc f47b 7cbb 98dc 973c
000000b0: c89d 423c 4f77 093c 3a29 0a3d 6354 b9bc
000000c0: ec2f 663d 3da9 a73c 2200 1bbc 2f5d 43bc
000000d0: 3a52 00bd a8c8 4abb 06c3 5d3c 9a05 2c3c
000000e0: ea2a 403d 51e4 8abc a0d5 71bc 2eda 453c
000000f0: 0141 51bd e220 59ba 971e 183c 7664 32bd

weight f4 [10, 64]
0.04123319 0.07069303 0.05248173 -0.12442072 -0.09209088 0.14373058 -0.18576461 0.16308528
-0.094617285 0.016622717 -0.117146894 0.039453782 0.013228311 -0.046623837 -0.036583856 -0.012184576
0.04793868 -0.18327436 0.0310469 0.012088811 -0.046864375 -0.045982268 -0.009980311 0.038424324
0.028134778 -0.08668856 -0.0763289 0.09671075 -0.18353166 -0.100975856 -0.038869824 0.039445523
-0.029043758 0.05819768 -0.018810108 0.17821501 0.13947175 0.0821853 0.055425636 -0.20421614
0.11515727 -0.04657315 -0.16344644 -0.07773444 0.04169691 0.041674353 -0.09658964 -0.12736589
-0.1738659 -0.018333718 0.1162938 0.12099569 -0.105012946 -0.04909656 -0.055368803 -0.017883234
-0.05935183 -0.0064205066 -0.049655467 -0.059948098 0.107351795 -0.20821473 0.08077862 0.14759454
0.17611575 -0.12771292 -0.13970892 0.1597947 -0.035915736 -0.07230208 -0.052679006 0.11316692
0.13377601 -0.07486378 -0.08118797 -0.10230424 0.011929837 -0.15121366 -0.1090183 -0.06306247
0.014951797 -0.17024133 0.034132883 0.108452626 -0.14484012 0.1959738 0.06234549 0.13865818
0.1787896 0.015327769 0.11322089 -0.09466371 -0.13791245 0.08593119 -0.030291028 0.05279934
-0.07056212 -0.1778436 -0.08233366 -0.19687851 0.07791722 0.17264865 -0.114005685 -0.1848623
-0.08701573 0.12380877 0.15561298 0.118523434 -0.15629782 0.030900521 -0.04229308 0.005931048
-0.14613639 -0.05076951 0.014813189 -0.15761621 -0.10699659 0.1985338 0.13019465 0.14649896
-0.21960205 -0.099972285 0.18827897 -0.04923307 -0.03746535 -0.025969137 0.15740383 -0.12634665
-0.12515439 0.030062769 -0.036592092 -0.056674585 -0.1497422 0.19843335 0.038733687 0.081979096
-0.05384632 0.050218545 0.008430548 -0.03724519 -0.13203101 0.06441429 0.033030406 0.14543022
-0.08596603 -0.051164817 0.16209863 -0.13633399 0.04257404 0.015426325 -0.03610894 -0.054096304
0.0752137 -0.095315516 -0.1852741 -0.15688021 0.0448574 0.04815722 -0.020199662 0.057754528
-0.1273744 -0.0605197 0.008707472 0.1761554 -0.1060511 0.015704764 0.048555475 0.15766896
0.14676374 -0.14574319 0.107696146 0.09963478 0.19129822 -0.03971373 -0.0134884445 -0.10764746
-0.022171384 -0.07985934 -0.03805823 -0.041659936 -0.059174303 -0.09412028 0.06870594 -0.16893892
0.12210345 0.0049187792 -0.076627836 -0.028251285 -0.073683746 0.1238464 0.070583686 -0.09412211
0.12253002 0.014303895 0.09346922 0.047213376 0.12380845 0.057257175 0.16112581 0.018160166
0.028077533 0.049544055 0.07938918 -0.12907055 0.056006856 0.10026259 0.050851576 -0.03933806
-0.12723179 0.030724255 0.037884258 0.14890102 -0.0771468 -0.18309976 0.016348291 -0.15595767
0.103373505 -0.03828943 -0.12362148 0.111737266 0.035078343 0.009205458 -0.09979961 0.09351912
-0.12637557 0.09055764 -0.056249723 -0.10630562 -0.08597187 -0.0391941 -0.017241077 0.033779893
0.002093052 -0.029168218 -0.08060279 0.09112203 0.03197896 -0.020784462 -0.04782616 -0.11532966
0.04760314 0.05731605 -0.179694 -0.09041285 0.091198534 -0.032508366 0.04514874 -0.16545558
0.142773 -0.1293935 -0.1820865 -0.123778336 -0.077307686 0.14078906 -0.027954753 -0.0027642867
00000000: 22e4 283d 82c7 903d 15f7 563d 4ad0 febd
00000010: 259a bcbd 1c2e 133e 1439 3ebe d4ff 263e
00000020: b5c6 c1bd 5d2c 883c b6ea efbd 4a9a 213d
00000030: 8fbb 583c a3f8 3ebd f4d8 15bd d1a1 47bc
00000040: 595b 443d 46ac 3bbe 1256 fe3c 2610 463c
00000050: dcf4 3fbd e757 3cbd 7584 23bc d362 1d3d
00000060: e87a e63c c689 b1bd 5452 9cbd 4910 c63d
00000070: b9ef 3bbe 6ecc cebd f735 1fbd a191 213d
00000080: 2ded edbc b160 6e3d a817 9abc ff7d 363e
00000090: afd1 0e3e c450 a83d fe05 633d 091e 51be
000000a0: 93d7 eb3d 7dc3 3ebd 815e 27be 3c33 9fbd
000000b0: 61ca 2a3d bab2 2a3d cad0 c5bd 346c 02be
000000c0: e709 32be 9830 96bc 722b ee3d 97cc f73d
000000d0: 0711 d7bd 7919 49bd 66ca 62bd dc7f 92bc
000000e0: e81a 73bd 1d63 d2bb 8863 4bbd 238c 75bd
000000f0: 42db db3d 3e36 55be 436f a53d 0623 173e
00000100: b057 343e 2dc7 02be db0f 0fbe 39a1 233e
00000110: 611c 13bd 1d13 94bd f1c5 57bd 0fc4 e73d
00000120: 94fc 083e 2e52 99bd e145 a6bd e384 d1bd
00000130: 5d75 433c c1d7 1abe fd44 dfbd e526 81bd
00000140: 62f8 743c be53 2ebe ecce 0b3d 691c de3d
00000150: f850 14be 5bad 483e fc5d 7f3d 69fc 0d3e
00000160: 9f14 373e 5321 7b3c 5be0 e73d 0cdf c1bd
00000170: ec38 0dbe b1fc af3d e424 f8bc 1f44 583d
00000180: df82 90bd a21c 36be 8d9e a8bd 859a 49be
00000190: 1093 9f3d cfca 303e d07b e9bd 8b4c 3dbe
000001a0: 4e35 b2bd 748f fd3d 0259 1f3e 6abc f23d
000001b0: 890c 20be 1723 fd3c 823b 2dbd 3d59 c23b
000001c0: c7a4 15be b1f3 4fbd 05b3 723c 2566 21be
000001d0: 0721 dbbd 724c 4b3e bf51 053e d303 163e
000001e0: 5cdf 60be 45be ccbd 34cc 403e 9ea8 49bd
000001f0: 4475 19bd 3abd d4bc 782e 213e 0461 01be
00000200: 7928 00be 3246 f63c 97e1 15bd 9c23 68bd
00000210: 0556 19be 1d32 4b3e 37a7 1e3d a8e4 a73d
00000220: f58d 5cbd f6b1 4d3d 4820 0a3c 6a8e 18bd
00000230: 2333 07be a4eb 833d e44a 073d a9eb 143e
00000240: f50e b0bd 3392 51bd 2ffd 253e 239b 0bbe
00000250: 1e62 2e3d b2be 7c3c f8e6 13bd 1694 5dbd
00000260: a409 9a3d c834 c3bd 7eb8 3dbe 35a5 20be
00000270: 65bc 373d 8140 453d c379 a5bc 0390 6c3d
00000280: 6f6e 02be 81e3 77bd c9a9 0e3c 1562 343e
00000290: 5231 d9bd 47a7 803c 1be2 463d f973 213e
000002a0: 3c49 163e b43d 15be cc8f dc3d 520d cc3d
000002b0: aee3 433e ddaa 22bd a3fe 5cbc 4676 dcbd
000002c0: c3a0 b5bc 4b8d a3bd f2e2 1bbd 9ca3 2abd
000002d0: c160 72bd 22c2 c0bd b3b5 8c3d 53fe 2cbe
000002e0: 6011 fa3d b62d a13b 0eef 9cbd 3d6f e7bc
000002f0: 81e7 96bd 2ea3 fd3d 2e8e 903d 18c3 c0bd
00000300: 05f1 fa3d e25a 6a3c ca6c bf3d d062 413d
00000310: 498f fd3d 8086 6a3d 2afe 243e a1c4 943c
00000320: db02 e63c b5ee 4a3d cb96 a23d 122b 04be
00000330: 7267 653d 7956 cd3d be49 503d f220 21bd
00000340: 0d49 02be 6fb1 fb3c 862c 1b3d 8279 183e
00000350: 24ff 9dbd 817e 3bbe daec 853c 5eb3 1fbe
00000360: 7db5 d33d 61d5 1cbd 422d fdbd 82d6 e43d
00000370: 4fae 0f3d 7dd2 163c bd63 ccbd f486 bf3d
00000380: 9968 01be 4976 b93d 1c66 66bd c3b6 d9bd
00000390: 0512 b0bd fe89 20bd 293d 8dbc c95c 0a3d
000003a0: 962b 093b 30f2 eebc 1313 a5bd 309e ba3d
000003b0: 5ffc 023d 2d44 aabc 5de5 43bd f531 ecbd
000003c0: 83fb 423d 3cc4 6a3d b401 38be 5f2a b9bd
000003d0: 4cc6 ba3d 7e27 05bd e3ed 383d 306d 29be
000003e0: 1633 123e bb7f 04be e274 3abe 7f7f fdbd
000003f0: 7e53 9ebd 022b 103e 5e01 e5bc 0929 35bb

bias f4 [10]
-0.21912953 -0.052807897 0.1328983 0.104819454 0.11841961 -0.120949715 0.09013856 0.08201234
-0.09541383 0.037313197
00000000: 7e63 60be 184d 58bd 7e16 083e 95ab d63d
00000010: fb85 f23d 7cb4 f7bd 919a b83d 16f6 a73d
00000020: 5368 c3bd b9d5 183d
