Pytorch/model_data/CIFAR10_EPOCH15.pth (torch, 588839 bytes, 10 tensors)

weight f4 [32, 3, 5, 5]
00000000: 85df d6bc 31e0 4dbd 550b 73bd c063 09be
00000010: d7d3 36bd fdaf 29be 9632 07be 3003 ca3d
00000020: 5860 5bbd e96b d1bd 975e 1bbe ea29 7dbd
00000030: 70ee 0e3e 962f c63d 3f18 37be 4458 913d
00000040: 4f74 c9bd 3b1c c43d 8145 193e 000a 0cbe
00000050: b91e 4d3d 7cb5 84bc c28f 283e 71b4 063e
00000060: 2738 f5bd 83a4 e7bd 3711 343d 9b9a d83d
00000070: f3a1 80bd 334c 32be be15 8bbd ca27 b13d
00000080: a9b6 b4bd 59d6 753d cfd3 38be db6c 36bd
00000090: fd4c 16bd c891 8d3d 622e dd3d 9b30 293d
000000a0: 04ee 223d d28d c4bd dcec e23c 99ab 1d3e
000000b0: 3b35 4e3c c31f 013d 944d eb3d 6a3a 4b3e
000000c0: d963 303e e9f2 183d 484b 85bd df9d 86bd
000000d0: 37b5 fbbd 7212 7fbd 28d8 42be a09c b2bc
000000e0: c6e8 2a3d f6aa 93bc 7c1a 5f3d 07d5 2cbe
000000f0: 76ba 4a3d 1664 603d 2fdd 263c 9761 c03d
00000100: f67b 0bbe f7a1 b2bb 7a41 3b3d ce76 263e
00000110: 0eab 78bc cea0 10be 75e4 6b3d 1f48 103d
00000120: 9762 2f3e 5db2 2a3e 91b1 b83d d223 a43d
00000130: 7b2e d33d 5ad8 1d3e 2f60 8e3d 9a44 d0bc
00000140: 28d8 88bc cba8 933d 6f66 d33c 4599 20be
00000150: ed82 06be 7ad1 fe3d 3e38 21be 5647 be3c
00000160: c51b 1abe f881 a73d dcae 013d 3deb 0ebc
00000170: 02be 5a3c 1b9f ff3d f3e8 4abd 2705 073d
00000180: 8b80 be3c 9483 e03c d672 bc3d 851c 0b3b
00000190: c278 883d 4ef1 d43d 57af a73d f6b7 1b3d
000001a0: 4364 3ebe cac0 e03d 3af5 703c d268 b73c
000001b0: b2d4 51be 38e8 4dbe 034d 97bd 2dc5 23be
000001c0: 29d5 57bd 3e2b 933c 44f8 0bbe 2c8c b7bc
000001d0: 4e45 9cbc 6881 753b c89c 88bc 2a2c 9b39
000001e0: 895c 12bd 6542 353d cd48 ba3d 9ec6 32bc
000001f0: 9dbe 81bd d299 273b 4276 933d dd52 223e
00000200: 5c57 9fbd 8772 e93c 8f02 143d 73a9 78bc
00000210: 8b03 98bd 9efa 11be 1e21 833d cb2e e53c
00000220: c321 c3bb f9f3 bdbc 7a3a b33c 2f46 9c3d
00000230: 5d08 2cbd d985 8cbd 2524 f03d f19d 7f3d
00000240: 4ad3 6f3d 0fa0 8ebd fe9c 97bd 93e3 fe3d
00000250: da71 b2bd 862c 643c 8263 e23d 3b40 b43c
00000260: d28a f8bd 53f3 dfbc 6772 f8bd c5af a9bc
00000270: 2c87 ac3c fd32 46be b429 3bbe e522 06be
00000280: 1143 04be b0c6 1f3d 5278 bb3a b25b 96bd
00000290: 3897 27bd 6e51 30be 1bb3 c5bd 1efa eabd
000002a0: d4ab b1bd 8a86 0ebe f293 f83c 045a 4cbe
000002b0: 8295 60be 6594 38be 926f 22be aa19 bcbc
000002c0: f95d fabd 628c 3c3d 1d2c 2a3d 3e3c 483d
000002d0: 3945 2e3d 8632 41bd 0288 093c b919 c43c
000002e0: 519a cbbd a345 833c 4d1d 03bd db98 c13d
000002f0: a6fb 0b3e 4f81 5bbc 0898 a2bd 46b8 293e
00000300: 795d 173e 6986 af3d 12bd 823b c86f a53d
00000310: f855 95bd 76aa 1cbe ab6d b1bd d8dc 83bd
00000320: 50cd e7bd c190 e9bc 4089 d03d 4862 2f3d
00000330: eb71 f23d 68d0 6bbd 601c 3e3c 6a47 d83d
00000340: 3dd7 3fbd bedb 1b3e b27c c23d 932e e53d
00000350: 55a5 c73d 0392 793e 46f5 513e 7bdf 6d3d
00000360: e7c7 593e baef 823e 7537 283e 072e 143e
00000370: 6b5c c03d 59d9 263d c1c8 a6bd 1e2f b33d
00000380: 678a da3d e6a6 943d 6d97 783c 0a87 07bd
00000390: ba8f 1b3d 6988 c2bd 6425 5d3d f982 81bd
000003a0: 5146 513d 8064 ba3d b0e7 fc3c fed3 ab3d
000003b0: 48fe dabd 079b 7bbc ddd4 cebc 1d1d 023e
000003c0: f8e7 573d 0736 293d a351 293d 4540 1f3e
000003d0: 23b2 a03d 2e3b 04bd 89f2 03be 1e45 e7bd
000003e0: 2dbf 213e 5951 bebc 74e8 d9ba 1342 f73c
000003f0: 7a02 abbd cb4e eb3d 52fd 86bd fcd0 b7bc
-0.02622963 -0.050262634 -0.05933698 -0.13416958 -0.04463562 -0.1657104 -0.13202891 0.09863889
-0.053558677 -0.1022566 -0.15172802 -0.06180755 0.13958144 0.09677045 -0.17880343 0.070969135
-0.09836637 0.09575697 0.1496792 -0.1367569 0.050078128 -0.01619982 0.16461089 0.1315477
-0.11973601 -0.11310675 0.04396173 0.10576364 -0.06280889 -0.1741188 -0.06791256 0.08650167
-0.08823902 0.06001887 -0.18049549 -0.044537406 -0.036694515 0.06912571 0.107998624 0.04130612
0.03977777 -0.095973626 0.027700834 0.1539749 0.012585933 0.03152443 0.11489406 0.19846502
0.17225589 0.037341032 -0.065084994 -0.0657308 -0.12290423 -0.06227345 -0.1902777 -0.0218032
0.041725896 -0.018025856 0.054468617 -0.16878138 0.04949423 0.05478295 0.01018457 0.09393614
-0.13621506 -0.0054514366 0.04571674 0.16256258 -0.015177501 -0.14123842 0.05759092 0.03522503
0.17127453 0.16669603 0.09018243 0.08014645 0.103116 0.15414563 0.06951939 -0.025423337
-0.016704634 0.07209929 0.02580568 -0.15683468 -0.13135882 0.12442298 -0.15744111 0.023227375
-0.15049656 0.081790864 0.0316609 -0.008723077 0.013350965 0.12481519 -0.049538564 0.032963898
0.023254653 0.027406491 0.09201591 0.0021226716 0.06663658 0.10397588 0.0818774 0.038017236
-0.18592934 0.109742716 0.014706904 0.02238885 -0.20491293 -0.20108116 -0.07387736 -0.15993185
-0.05269352 0.017964955 -0.13668925 -0.022405706 -0.019076016 0.0037461165 -0.016676322 0.0002959681
-0.03573278 0.044252772 0.09095917 -0.010911612 -0.06335185 0.0025573862 0.0720029 0.15851922
-0.07780334 0.028496994 0.036135253 -0.015177119 -0.07422551 -0.14255759 0.06402801 0.027976414
-0.0059549524 -0.023187624 0.02187847 0.07630574 -0.042000163 -0.06861467 0.11725644 0.062406484
0.05855111 -0.069641225 -0.07402991 0.1244575 -0.08713122 0.013926631 0.11054136 0.022003284
-0.12135853 -0.027337706 -0.121311955 -0.020713696 0.021060549 -0.19355388 -0.18277627 -0.13099249
-0.12916209 0.039007843 0.0014302826 -0.07341708 -0.040915698 -0.17218563 -0.09653302 -0.11473487
-0.08675352 -0.1391851 0.030343983 -0.19956213 -0.21932033 -0.18025358 -0.15862873 -0.022961456
-0.12224955 0.046032317 0.041545976 0.048885576 0.042546485 -0.047167324 0.008394243 0.023938047
-0.09941543 0.016024416 -0.032010365 0.09452983 0.13670215 -0.013397529 -0.07939154 0.16574201
0.1478175 0.085705586 0.003989824 0.08077961 -0.07291788 -0.152994 -0.08663496 -0.06438607
-0.11318457 -0.028511407 0.10182428 0.042818338 0.118381344 -0.0575718 0.011603445 0.10560496
-0.046836127 0.15220544 0.0949644 0.11190524 0.097483315 0.24372105 0.2050372 0.058074456
0.21267663 0.25573522 0.16427405 0.14470683 0.09392627 0.040734623 -0.081437595 0.08749221
0.106709294 0.07258396 0.0151728215 -0.033087768 0.037978865 -0.094986744 0.053990737 -0.06323809
0.05109245 0.091012 0.030872196 0.08390044 -0.106930315 -0.015356786 -0.025247985 0.12706418
0.052711457 0.04131129 0.04133762 0.1555186 0.07846477 -0.032283 -0.12885489 -0.1129248
0.15795584 -0.023232149 -0.0016625063 0.030182874 -0.08350082 0.11489638 -0.06591286 -0.022438519

bias f4 [32]
00000000: d504 20be 341b 7cbc 8896 353d 19ef b3bd
00000010: 410f 82bc f2ef 563e 8c3d aabe d352 bfbe
00000020: 82fb b8bd ae57 86bc 0a62 183e f86a 87bd
00000030: 5ff7 80bd e4c4 c7bd d1b3 27bc 8aa6 c5bd
00000040: 4c1a 05bb c5b8 b5be 1c1b 0fbd ff86 babd
00000050: 0f7a 883a 6554 9f3d d34d a43d 1ef2 153e
00000060: c07a 98be d06e 6b3c 0174 1cbe 59ef 8a3e
00000070: 899c 84be a349 223d c665 c8bd 5b43 b93d
-0.15626843 -0.015387345 0.04433301 -0.08785839 -0.015876414 0.2098997 -0.33250082 -0.37367877
-0.09032346 -0.01639923 0.14881149 -0.066121995 -0.06297182 -0.09754351 -0.010235743 -0.096509054
-0.0020309864 -0.3549253 -0.034937963 -0.0910778 0.0010412353 0.07779769 0.08022656 0.14643142
-0.2978115 0.0143696815 -0.15278627 0.27135733 -0.25900677 0.039621007 -0.09785037 0.0904605

weight f4 [32, 32, 5, 5]
00000000: e02a d9b9 5c28 19bc 34b9 51bc f9cf d8bb
00000010: a561 dbbc d6f7 0f3d 2f60 183c 53d8 1d3d
00000020: cd33 173d 984a ed3c b1c9 cc3c 3f17 543c
00000030: fd06 85bc fb53 193c c3b4 153d c139 acbb
00000040: 6061 25bc 2aff 5dbd e5ad f0bc c233 c1bc
00000050: 9d52 013d 35dc d43c fbbe e73c de9f 003d
00000060: 2d29 3d3c b35b 20bd b20d 473c a53c abbc
00000070: dd77 cc3c 5698 25bc 782f aebc 1055 c33c
00000080: 25c1 5d3c d4b6 143c cb10 d1bc aa62 363d
00000090: 9423 39bc 5161 383c 06db 4f3c 35cc e93c
000000a0: e570 883c 03cd 2b3d 37ce 2dbc 718b 6c3c
000000b0: 8328 ee3c e33a e43a 926a 6e3d 7c4f 423d
000000c0: 2c18 323d 3315 bfbc e367 f73c 8fd5 2c3d
000000d0: 9ee7 cc3b dc18 c73c d1c5 173d aec7 5c3c
000000e0: 1294 77bb 5341 d3bc 434c 9c3c 912e ad3c
000000f0: 04c3 42bd 2e19 37bc b260 a63c f6f0 793c
00000100: 2018 cbbc e4b3 0f3c bcab f73b 18da 2bbd
00000110: 230b 043b 4cc3 1b3c 0905 24bd 226e 133c
00000120: 9eb5 43bc 800c 11bc 83b4 f83c a3b6 6cbb
00000130: 872f b63c 4e27 a8bc db61 f33b 17a6 b1bc
00000140: b7d4 893c 8c0b 3ebc 0de1 8fbb b60e 45bb
00000150: d4be 753a 0e08 453c eebe 813b e040 143d
00000160: 6ff8 783c aa75 d73b da18 d1ba 835d 193d
00000170: f779 193d 8697 bf3c 18e3 a53c e990 473c
00000180: 9708 bd3c 5872 8fbc 41cf fc3b e965 063d
00000190: dc5d d23c d0cd 95bc e0ee f0bc b5e5 7cbb
000001a0: 34bb d8bb 3e42 9cbc 94ec 96bc 12c7 58bc
000001b0: af69 4ebd 2ec7 8ebb 38d0 b2bb c395 f6bc
000001c0: 1356 01bd 7413 0eba c1a8 a9bb 3578 cdbc
000001d0: a362 f13c 0e2c e43c 2599 303c 60ff 49bc
000001e0: 9239 253c 8485 103c 1225 903c 0607 bbbc
000001f0: dc94 11b9 7b50 843c ee12 c1ba 68c9 ab3c
00000200: 5cea 543d 2339 b3bc 8d82 c33c f7e6 ad3c
00000210: 925e 353d 8f75 b23c 1fcb a439 fe3d 293c
00000220: 6654 303d e5d5 a7bc 4a96 e5bc 4860 a0bc
00000230: 6b23 743d 7617 5abc 5f7d 4cbd a2ba 22bd
00000240: 0e66 c73c e731 5b3b ab30 5abd 89e6 653c
00000250: f70a 753d 221b 9db9 1e1f 0e3c 18e0 363d
00000260: c8dc ea3c 19c0 cd3b 5384 453d 9082 503c
00000270: f72e 083d 64e5 143d 9a42 e8bb 5993 9f3c
00000280: 45cb 473b cb4b 523c 70df 4b3c 59ef a13c
00000290: 0910 6dba e394 a93c 3490 17bb b75a 2f3d
000002a0: c512 9b3b 1acd 9fba 3bc3 d2bb 70c1 153d
000002b0: 8cfc 093d 0c07 c9bc faa5 1a3d 44df ebbc
000002c0: fe50 10bd 3d4e cbbc 156a e63c 120b 18bd
000002d0: cb01 8dbc af39 caba 6535 b3bb 1729 c63c
000002e0: 8d70 efbc bb63 23bb f096 2abb fa6a 453d
000002f0: 1dc4 203d a3bf 613d 9ab6 233d 541f c33c
00000300: 9063 6c3d 97d6 913d 12ea 593d 3a67 6c3d
00000310: b561 993d ffff 263d 7c5a 413d 9c96 5b3d
00000320: 57ed 193c 04b8 ef3c 534c c93b de2e 10bd
00000330: bcb1 26bc 60ca 943c d784 6e3b 8d13 e2bc
00000340: 0e14 60bd b9df ba3a 06ca 1f3b e246 babb
00000350: 7518 b8bc f45b 33bd 1a28 19bd 59c9 94bc
00000360: 6ad2 0e3d af00 ff3a d04b 853d 7bd6 0bbc
00000370: d52f 17bd adc3 253d 8678 673c 0381 57ba
00000380: 2b27 93ba 961c 5a3c c899 21bc 8dfe 12bd
00000390: 1091 0fbd 0198 683c b52e d83c 0327 713b
000003a0: e0ee 843c 2574 c7bc 285f 8ebc df86 c1ba
000003b0: c7e7 0a3d 3629 413c dcec 703c b6d0 2a3d
000003c0: b472 86bc a533 aa3c 2fdb 4c3c 39fd 833d
000003d0: 3d12 4f3d fd5e 0d3d eb61 833c ac53 9f3c
000003e0: e4e8 6c3d a6c4 333d 6212 d83a 42a2 8fbc
000003f0: 0513 a5bc 7c8e 0dbc af92 29bd 83a7 623d
-0.0004142141 -0.009348001 -0.0128005035 -0.006616589 -0.026779959 0.035148464 0.009300276 0.03853638
0.036914635 0.028966233 0.024998518 0.012944995 -0.016238684 0.009358401 0.03654934 -0.0052559082
-0.010094017 -0.05419842 -0.029379794 -0.02358425 0.031572927 0.02598391 0.028289309 0.03140246
0.011545462 -0.03914995 0.012149261 -0.020902941 0.024959499 -0.0101071205 -0.02126287 0.023844272
0.013534819 0.009076793 -0.025520703 0.044527687 -0.011299986 0.011253671 0.012686497 0.028539756
0.016655395 0.04194356 -0.0106082475 0.014437542 0.029072052 0.0017412569 0.058207102 0.047439083
0.043480083 -0.023325538 0.030200904 0.042195853 0.006253197 0.024303846 0.037053887 0.013475342
-0.0037777466 -0.025787985 0.019079333 0.021140369 -0.047549263 -0.011175437 0.02030978 0.0152552035
-0.024791777 0.008770917 0.007558314 -0.041956037 0.002014824 0.009507012 -0.040043864 0.008998426
-0.011945156 -0.008853078 0.030359512 -0.0036119602 0.02223946 -0.020526554 0.0074274368 -0.021685643
0.016825063 -0.011599433 -0.004390842 -0.0030068583 0.0009374444 0.012025846 0.003959528 0.036194682
0.01519595 0.006575306 -0.0015952841 0.037442695 0.03746983 0.023387682 0.020249888 0.012180545
0.023075385 -0.017510578 0.0077151363 0.032812033 0.025679521 -0.018286616 -0.02941078 -0.0038589064
-0.006614113 -0.019074555 -0.018423356 -0.013231056 -0.050393756 -0.00435724 -0.0054569505 -0.030100709
-0.031576227 -0.0005419769 -0.0051775877 -0.025081733 0.029465979 0.027853038 0.0107787 -0.012328953
0.010084527 0.008820895 0.017595802 -0.022830497 -0.00013883732 0.016151657 -0.0014730373 0.020970061
0.051981315 -0.02187783 0.023865962 0.021228297 0.044279642 0.021784572 0.00031431855 0.0103297215
0.04304924 -0.020487735 -0.028025765 -0.01957716 0.05960409 -0.013311258 -0.04992425 -0.03972877
0.024340656 0.0033446492 -0.05326907 0.014032015 0.05982491 -0.0002996559 0.008674411 0.044647306
0.02866973 0.0062790033 0.048221897 0.012726441 0.033247914 0.036351576 -0.0070880176 0.01947944
0.0030486148 0.012835453 0.012443408 0.01976745 -0.0009043222 0.020700878 -0.0023126723 0.04281112
0.004732462 -0.0012191862 -0.0064319647 0.03656143 0.033688113 -0.024539493 0.037755944 -0.028792985
-0.03523349 -0.02481758 0.028126756 -0.037119932 -0.017212769 -0.0015428568 -0.0054690116 0.024189515
-0.029228473 -0.002493127 -0.0026029907 0.048197724 0.03924953 0.0551144 0.039969064 0.02381865
0.057712138 0.07121008 0.053201742 0.057715632 0.07489339 0.04077148 0.047205433 0.05361043
0.009394965 0.02926255 0.0061431318 -0.035200946 -0.010174211 0.018162906 0.0036395097 -0.027597213
-0.054706626 0.0014257348 0.002438189 -0.0056847194 -0.0224726 -0.043788865 -0.03739176 -0.018162416
0.034868635 0.001945516 0.06508601 -0.008535023 -0.03691085 0.040469814 0.014127856 -0.00082208234
-0.0011226883 0.0133124795 -0.009863324 -0.03588729 -0.03505045 0.014196397 0.02638946 0.0036796934
0.016227186 -0.024347374 -0.017379358 -0.0014764926 0.033912446 0.011789611 0.014704909 0.04170295
-0.016412117 0.02077658 0.012503429 0.06444783 0.050554503 0.034514416 0.016037902 0.019449078
0.05783929 0.04388871 0.0016484971 -0.017533425 -0.02015067 -0.008639928 -0.041399654 0.055335533

bias f4 [32]
00000000: 668c d0bc cad1 b93c 90eb dfbd 2f96 99bd
00000010: d7bc aa3c 4f0a 3fbc 32ee 9b3c d8f1 d93c
00000020: ac0f 00be 98fc 07bd acbe 55be 48ac 3cbd
00000030: db62 053e e31e 5cbd e2f4 0bbe da39 b2bc
00000040: 5e16 04bd cb06 b93c e0db 03be 2f1b d4bd
00000050: 8820 b7bd 42b9 8d3c 2f86 f3bc 3795 f63c
00000060: 6b2e dabc 9fb3 eabc 1c21 08bd c15a babd
00000070: 683e d0bd 5211 acbc d03f c6bd 4a8f ccbd
-0.025457572 0.022683043 -0.10933602 -0.07499348 0.020841999 -0.011660173 0.019034479 0.026604578
-0.12505978 -0.033199877 -0.20873517 -0.046062738 0.13025992 -0.053740393 -0.13667634 -0.021756101
-0.032247894 0.022586247 -0.12876844 -0.10356747 -0.08941752 0.017300252 -0.02972707 0.030100448
-0.026633462 -0.028650103 -0.0332347 -0.09099341 -0.10168153 -0.021004353 -0.0968014 -0.09988268

weight f4 [64, 32, 5, 5]
00000000: 6ef4 cdbc 2c90 ec3c c860 943c 2d8a 8b3c
00000010: 79df f03c b719 69b9 8f80 983c a143 3ebc
00000020: 29e4 d5bc b77b f0bb 3556 89bc 404a ba3b
00000030: 2600 9a3c 79ce b0bc d3db 213c 6c88 c3bc
00000040: 3315 4e3c 78b1 15bd d6e6 513c 13d3 83bc
00000050: faf3 f13c 0e4c 2f3d ea0f 52bb f93c 34bc
00000060: d325 d7bc bfea 8a3c 85bf 5bbd 1de3 d73c
00000070: b2c5 353c 9457 8ebb 1d05 963c 8d65 2cbc
00000080: 8903 29bb 9679 363c 0b53 9abc bcf6 8b3a
00000090: 8c53 caba a548 2c3c 0d6c 3c3b 67b0 92bc
000000a0: b500 a93c 0a8a b7bc 05cc 8cbc 4575 893b
000000b0: e024 39bc 4408 e6bc da6b dc3b 6fb6 f3bc
000000c0: e6b0 3f3d 84c0 003d 22b3 6ebc dc71 303c
000000d0: 8b5b be3c fe32 2fbd 7fd1 d3bb 536f 69bd
000000e0: 6cc3 58bd b357 683b 975c ad3b 9bc4 e2bc
000000f0: fea3 19bd cbcb 10bc a676 d8bb 1595 fa3c
00000100: 3965 aa3c f4c7 80bd 1a69 b43c ed37 8b3c
00000110: 7ae4 163d eea9 123d 8b81 13bc ca41 3a3c
00000120: c1f7 4c3d 3b40 733d 867b 513d 6a31 11bd
00000130: 3dc5 cabb af2a 073b e38b 6bbc 6084 103d
00000140: 5823 2d3c 9af8 1bbd 7d8e a33b 7cf8 2e3d
00000150: 6ac3 863b 1ff7 acba 3a5c b1bb a7cd 9fbc
00000160: cfab 3fbd 329c 3bbd 9b63 9a3c 2750 4a3a
00000170: e727 9b3c c319 9fbc e211 16bd 0713 073c
00000180: 0e05 fdbc 29cf 34bd 8a37 84b5 7438 19bd
00000190: d789 dbba f2c0 fa3a f5c5 a53c 7a8f ce3c
000001a0: 2bc2 b8bc ae77 aabc 2e13 2f3d 7f70 0c3d
000001b0: 52af 3fbc f498 ab3c 4a58 8abc 975a e0bc
000001c0: c7e5 c0ba 0345 013d 16a5 4a3b 882e 19bc
000001d0: d343 77bc edf0 23bb 63f5 9bbb d999 7dbc
000001e0: 1ba3 9fbc fe1e 1cbc 9d03 5dbc 273f 00bd
000001f0: 9173 a4bb 80f4 47bc f5a4 a13c 14bb f6bc
00000200: b983 eabc 7164 f13c c965 a4bc 4e2b 09bc
00000210: 03bb 44bd cdb0 00bc db51 7fbc ab8a 02bd
00000220: 060b 933c d5ff fabc 2335 84bc 5acf ccbc
00000230: 1422 c83b 872e ac3c 175a adbc 60a4 f0bc
00000240: 6530 93bc c104 81bc 4caf 0fbd 95d0 eebc
00000250: a6a9 96bc 22f1 033c c69c ccbc be6f c53b
00000260: 5671 483c 33d1 8fbb e553 d93a c74b 0cbd
00000270: d880 9e3c 767c 023d 1725 8e3b 4e1f a4bc
00000280: 0078 0fbd a8bc dfbb aeaa 0abd d6db f7bb
00000290: 9ce3 c7bc 7b56 01bd 2bd2 21bc 2a7e 2c3c
000002a0: 6668 4c3a b8f7 253d 00c4 d03c 4eea 82bb
000002b0: 0cbb 543c 786f a6bc 3c17 abbc 93ae f7bb
000002c0: 3da1 36bc 331f 4d3c f44f aebc 3c08 b6bc
000002d0: 2293 e93c 0bca ad3c 9aa1 813c 9a7e a13c
000002e0: d214 913c 65b0 9a3b d6af a03c f263 8e3b
000002f0: ed6e 053c 8a1d 9cbc 17de 313a 4f90 f03c
00000300: 2b8e 163d 9f66 dd3c 3fcb 75bc fced d5bc
00000310: e5e3 c53b 9346 083d 0330 d43b af13 74bc
00000320: 9921 9b3c 36ae fb3c 0c9e 51bc 3730 4bbb
00000330: ff19 f1bb 8731 24bc bd1e 1abc 7749 22bc
00000340: b5dc 95bc da7d bc3c e938 1fbd 1e2f abbc
00000350: bd7f febc 6e66 a93a afba a3bc 2f5d 0ebd
00000360: 89fa e43c 347f d83b 0cf6 69bc 788f 333d
00000370: 06dc 55bd adbb c93c abfb 29ba 8b06 07bc
00000380: a840 78bc 5ffb 383c bb5a 10bd d78a a83b
00000390: 0676 43bc 4c45 caba 3117 44bc ac90 eebb
000003a0: 9500 47bc b70d 2fbd d873 11bc 3c26 0c3d
000003b0: 29db c6bc d9d1 6fbb f018 cdbc 9204 193c
000003c0: 9b46 103d 01b7 28bd 26ce 4c3c c63f bf3b
000003d0: 577d 8bbc 58e0 11bb afdb 5fbd 5dad cc3a
000003e0: 565e 00ba 79ee 4cbd c1e4 10bc c580 2fbd
000003f0: 0201 72bc ec85 253d 6af0 fcbb d796 95bc
-0.025140967 0.02887734 0.018112555 0.01703366 0.029403435 -0.00022230191 0.018615989 -0.011612804
-0.026109772 -0.0073389667 -0.01676474 0.005685121 0.018798899 -0.021582829 0.00987907 -0.023868762
0.0125782965 -0.0365462 0.012811383 -0.016091859 0.029535282 0.04279714 -0.0032052943 -0.011000865
-0.026263153 0.016957639 -0.053649444 0.026353413 0.0110944975 -0.004343936 0.018312985 -0.0105222585
-0.002578946 0.011137387 -0.018838426 0.0010678391 -0.0015436276 0.010515367 0.0028750927 -0.01790638
0.02063022 -0.02240469 -0.017187128 0.004194888 -0.011300296 -0.028080113 0.006726724 -0.029750077
0.046799563 0.031433597 -0.014569076 0.010769334 0.02323701 -0.04277324 -0.006464183 -0.056990933
-0.052920744 0.0035452663 0.0052905786 -0.02768164 -0.03750991 -0.0088376505 -0.006605941 0.030588666
0.02080022 -0.06288138 0.022022773 0.01699444 0.036838986 0.03580659 -0.009003053 0.011368224
0.050040964 0.059387427 0.05114319 -0.035447516 -0.0061880634 0.0020624807 -0.014376613 0.035282493
0.010567509 -0.03807888 0.004991351 0.042717442 0.0041126506 -0.0013196206 -0.0054126056 -0.019507242
-0.04679471 -0.045803256 0.018846324 0.0007717632 0.018939925 -0.019421464 -0.036638148 0.008244283
-0.0308862 -0.044142876 -9.85093e-07 -0.037407354 -0.0016749453 0.0019130989 0.020235995 0.0252149
-0.022553524 -0.02080902 0.0427429 0.034286972 -0.011699514 0.020946957 -0.016887803 -0.027386947
-0.0014716916 0.031559955 0.0030921153 -0.009349473 -0.015091854 -0.002501543 -0.004759477 -0.015478575
-0.019486954 -0.0095288735 -0.013489631 -0.031310227 -0.0050186594 -0.012204289 0.019731978 -0.030118503
-0.028627263 0.02946684 -0.020068066 -0.008372141 -0.04802991 -0.007854653 -0.015583481 -0.031870525
0.017949592 -0.030639568 -0.016138619 -0.025001217 0.006107578 0.02101828 -0.021161122 -0.029375255
-0.017967412 -0.015749337 -0.035079286 -0.029152194 -0.018391442 0.008053096 -0.0249771 0.0060252836
0.012234053 -0.004388952 0.0016580789 -0.034251954 0.019348547 0.031856976 0.0043379175 -0.020034458
-0.03502655 -0.0068279095 -0.03385418 -0.0075640483 -0.024400525 -0.031576615 -0.009876768 0.010528127
0.0007797539 0.040519446 0.025484085 -0.0039952165 0.012984049 -0.020316824 -0.020885102 -0.0075586527
-0.011146841 0.0125196455 -0.021278359 -0.022220723 0.028512541 0.021214506 0.015824128 0.019713689
0.017710123 0.004720735 0.019615095 0.0043454105 0.008144123 -0.019057054 0.0006785108 0.029365687
0.036756676 0.027026473 -0.015002071 -0.026114456 0.00603913 0.03327043 0.00647545 -0.014897271
0.018936919 0.030722719 -0.012794029 -0.003100408 -0.0073578353 -0.010021574 -0.009406743 -0.009905211
-0.018293718 0.02300923 -0.038872633 -0.02089649 -0.03106677 0.0012924203 -0.019986479 -0.034756836
0.027951496 0.0066069607 -0.014279854 0.043837994 -0.052211784 0.024625624 -0.000648434 -0.008241306
-0.015152134 0.0112904 -0.035242777 0.005143504 -0.011929994 -0.0015432029 -0.01196842 -0.00728043
-0.012146135 -0.04273769 -0.008877717 0.03421615 -0.024274426 -0.0036593585 -0.025036305 0.009339469
0.035223585 -0.04119015 0.0125003215 0.00583646 -0.01702754 -0.0022258963 -0.054652866 0.0015615631
-0.00048968697 -0.050032113 -0.008843602 -0.042847414 -0.014770748 0.04041092 -0.0077190893 -0.018260403

bias f4 [64]
00000000: 938f 9dbd 1b93 103d 7b56 42bd 5a23 04bc
00000010: f76e 0fbe b621 17bd e7c5 67bd b9d9 5abd
00000020: b823 ba3b 7573 6c3c ae30 8abd 8344 fcbc
00000030: c132 a5bd 1a13 41bd 0627 333d b3b9 01bd
00000040: bd4e 26bd b0a7 07bd 521f 0dbd 5694 14bd
00000050: b6ff 9dbc ffd7 403c ca2c 49bc 0a0f bdbb
00000060: 183f 19bc e2a5 bfbd 22c0 e5bc 552f 1bbd
00000070: f97c 87bd 2ca3 c9bc a449 ff3b d472 21bd
00000080: d3f1 42bd a9ad d83b 78ec 8bbd e4cc f3bc
00000090: 1a49 0cbd 1766 84bc 746a b93b 6c94 1dbd
000000a0: 268a 56bd 438e 07be 45dd eebd 58c9 5bbd
000000b0: 7339 8bbb 581a a0bd b795 edba f48d 75bd
000000c0: 6030 babc cb0d 9abd 2231 a0bd 8fb1 ffbd
000000d0: e96f a1bd 72c2 2d3b 065b 77bd e22a c5bc
000000e0: c134 cf3a 67a5 88bd a4b7 59bd 05bb 58bd
000000f0: c367 bfbc a14f 85bd 64b8 23bd 685a 10bd
-0.076934 0.03529654 -0.047445755 -0.008065069 -0.14007173 -0.036897384 -0.05658522 -0.053430293
0.0056805275 0.014431824 -0.06747566 -0.030794388 -0.08066321 -0.047137357 0.043738388 -0.031671237
-0.040602434 -0.033118904 -0.034453698 -0.036274277 -0.019286972 0.0117702475 -0.012278745 -0.005769615
-0.009353422 -0.093578115 -0.028045718 -0.037886936 -0.066156335 -0.02461394 0.007790761 -0.03941615
-0.047593903 0.006612499 -0.06832212 -0.029760785 -0.034249403 -0.016161961 0.005658442 -0.038471624
-0.052377842 -0.13237862 -0.116632976 -0.053658813 -0.004248792 -0.07817525 -0.0018126284 -0.05994983
-0.022728145 -0.07522162 -0.07821871 -0.124850385 -0.07882673 0.0026513604 -0.06038954 -0.0240683
0.0015808569 -0.06672173 -0.05315365 -0.05291273 -0.023364907 -0.06509329 -0.03997077 -0.035242468

weight f4 [64, 1024]
00000000: b41d cabb 438c 3b3d 3daa df3c bbc7 4a3c
00000010: d94e 5c3d 746a 303d f2a1 c73c 14a1 e3bb
00000020: 3b45 273b 642c fdbb c102 273d b5c8 293b
00000030: fdd6 8bbc 75a3 07bc c19a d8ba 2d72 56bb
00000040: 4343 d6bc cae5 60b9 6ed7 133b 741e caba
00000050: a0df 2abd 4b8b 18bc aa2d 173d 6461 5e3c
00000060: 9b47 64bc a479 31bd 9c4a f6bc a757 3cbd
00000070: 2e60 e93c f5ec a1bc 88b8 acba 9f58 093b
00000080: 4c80 433c 1387 ca3c d789 72bc 43d9 deb9
00000090: d6a5 5b3c 3f82 e0bc e4d8 7439 5c45 6739
000000a0: 3028 8b3c cb04 58bc 35b6 333d fd09 a03b
000000b0: e3ec 9a3c 9934 e13b 473f 19bc 915a 0c3d
000000c0: b88a 5abc 5bfb a5bc 268b fb3c fb0e 54bc
000000d0: 5c6f e53c 65fe 303b 0f6e f0bb f640 e6bb
000000e0: d4ae 873d 3293 37bb 9e15 5eba 7306 0a3d
000000f0: c403 4e3d 508a d33c b941 283d c7e7 423d
00000100: 9804 84bc 1c89 6c3d 1dc5 1abc 92f2 c43c
00000110: 7633 003d b99b c13c 4698 62bb 69d2 423d
00000120: 2d58 6ebc 2f37 5e3b 3b68 3a3d ea27 053c
00000130: 30e2 933c 5575 f4bc ce04 b93b b528 18bd
00000140: 1daa 9bbb 389b fb3c 30d8 703c 5425 013d
00000150: bf99 cdbc 1538 c03c f36e 383c 90b6 543c
00000160: 0796 513c df36 223c 6b9e d13b c367 d1bc
00000170: 1f1f 89bc c34e ba3a 7a37 5d3c de2c d33c
00000180: 790b b8bb 035c 023d ad50 ed3c 1181 103c
00000190: 022b bcbc e897 50b9 45ff 18bd 2355 64bd
000001a0: 128a 5b3c 0859 083d 6607 63bc c733 343d
000001b0: 7c6e b439 71f9 523d 2ed9 b73a 83e6 8e3c
000001c0: 38be 733c 2cc4 a63b 18b0 3a3c 33fc 58bb
000001d0: 2b32 89bc 42aa c6bc 4e13 a6bc 7d3c 393c
000001e0: 82ab 4aba dfea 31bd 2163 7f3b 2517 1abc
000001f0: e1f5 b1bc ea73 f13c c06a 40bc 9ad5 a23c
00000200: b8a4 753c 8cfb 22bd fabf 39bd 10a7 0ebd
00000210: 1d79 633d 9253 883b 271c 5abc 435e 4abd
00000220: 6923 25bb af3f c43b 45a9 d3bc db27 e33c
00000230: 8a06 9e38 86c3 48bd 4650 a9bc 29f1 333d
00000240: a9ca b63c a4a2 9fbc 05cb db3c 6a2e c3bc
00000250: 1bfd 133b d6bd b739 4963 fc3b 0617 063c
00000260: 96d4 bc3c e4e0 5bbb 894d febb 58dc a2bc
00000270: 9695 803b cf8c b73b eece d4bc 7b1f eeba
00000280: 9def a9bc d492 49bd 84ba e1ba ae4c afbc
00000290: 394a d1bc a12c 6dbb 8ff7 f13c b31e 8fbb
000002a0: 56ac b53c 3e39 893c 0ee6 0a3d 4b12 203b
000002b0: 7486 583c 9256 8f3c b1f3 7c3d 009b 92bc
000002c0: fc04 d63c c885 49bc 11d7 93bc 1087 9b3c
000002d0: 6980 7abc d57a 9f3d d2cc 9ebc 6692 073d
000002e0: 8f07 c83b 282b da3c 1a2c 11bc 503a cb3c
000002f0: 3fe9 8e3c d139 623c 896b 443d 638a ba3c
00000300: 9d01 743c d515 5b3d 397f a03c f603 043c
00000310: 7792 6b3c 79ee 3c3a 9eea 0f3d 1dd9 05bd
00000320: 382d 983c bec3 db3c 854a 63bc 38ec b6bc
00000330: 1eda e83c 1561 bdbc ac8e 9a3c a2d3 0bbd
00000340: b006 14bd a9fc bb3b c516 52b9 9282 653d
00000350: 1cc2 cfbc 89af 3a3d 1a40 463c 2f5f 713c
00000360: 721a 393b 349d adbc d048 ffbc c1b9 953c
00000370: 8f44 f53b 6ce5 a7bc d090 1fbb 6176 413c
00000380: 972b 0dbd 5f42 94bb 8c6a 03bd fcd3 29bc
00000390: c3a4 d33b ebf8 55ba 1fcc 58bc 677b a6bc
000003a0: 336b 193d 3dfe 753c 9cd7 84bc 15cc 55bc
000003b0: 94b1 8c3c 8d62 c33c 536f 6b3c 7b98 ae3c
000003c0: 7cce 8abb 2161 fb3c 84cf 9d3b 4305 7b3a
000003d0: 8a71 7e3b 33cb 11b9 5a0a bebc 0aa3 b1bb
000003e0: 6484 6cbb 3aad e6bc be03 8d3c 3b27 0f3c
000003f0: 63a5 053d cb12 823d 28c0 9b3d eff9 1b3c
-0.0061680917 0.04578806 0.027302856 0.012376721 0.053786132 0.04307027 0.024369214 -0.0069466922
0.0025523442 -0.007726239 0.04077411 0.0025906984 -0.017070288 -0.008278717 -0.0016525612 -0.0032721863
-0.02615512 -0.00021447908 0.0022558826 -0.0015420453 -0.04171717 -0.009310554 0.036908783 0.013573024
-0.013933088 -0.043328896 -0.030064873 -0.04598203 0.028488245 -0.01976631 -0.0013177553 0.0020957363
0.011932444 0.024722612 -0.014803371 -0.00042505012 0.013406238 -0.027405856 0.00023350451 0.00022055715
0.016986936 -0.0131847365 0.043874938 0.004884003 0.018911785 0.006872725 -0.009353465 0.03426606
-0.013338737 -0.020261457 0.030706 -0.012943025 0.028007202 0.00270071 -0.0073373388 -0.007026787
0.06625143 -0.002801132 -0.0008471849 0.033697557 0.05029656 0.025822788 0.041078303 0.04758432
-0.016115472 0.057747945 -0.0094464095 0.024041448 0.031299077 0.023633825 -0.0034575625 0.047563944
-0.01454739 0.0033907404 0.04550956 0.008127192 0.01805219 -0.029841105 0.0056463247 -0.037148196
-0.0047505037 0.030713663 0.014699981 0.03152974 -0.025097726 0.023464242 0.011256921 0.012982979
0.012792117 0.009900778 0.0063970587 -0.025562173 -0.016738473 0.0014214147 0.013501996 0.02577823
-0.005616602 0.03182603 0.028969133 0.008819834 -0.022969726 -0.00019893015 -0.03735282 -0.055745255
0.013399618 0.03328803 -0.013856744 0.04399469 0.00034414593 0.051507417 0.0014026517 0.0174439
0.014876895 0.0050893035 0.011394523 -0.0033109307 -0.016747555 -0.024251107 -0.020272877 0.011305925
-0.0007731245 -0.04343688 0.0038968998 -0.009404932 -0.02172369 0.029474217 -0.011744201 0.019877244
0.014992885 -0.039790675 -0.0453491 -0.034827292 0.055535425 0.004160353 -0.013312376 -0.0494063
-0.0025198108 0.005989037 -0.02583755 0.027728966 7.535245e-05 -0.04901459 -0.02066816 0.04393116
0.022313433 -0.019486733 0.026830206 -0.023825843 0.0022581283 0.0003504592 0.0077022654 0.0081842
0.023050588 -0.0033550793 -0.0077607078 -0.019880459 0.003924082 0.0056015025 -0.025977578 -0.0018167341
-0.02074414 -0.04921229 -0.0017221724 -0.021398868 -0.025548087 -0.003618993 0.02953699 -0.0043676733
0.022176903 0.016750928 0.033910803 0.0024424966 0.01321565 0.017497335 0.06175584 -0.017896175
0.026125424 -0.012299962 -0.018046888 0.018985301 -0.015289404 0.077871 -0.019384775 0.0330986
0.0061044167 0.026631907 -0.008860612 0.024808079 0.017445205 0.01380773 0.047954116 0.022771066
0.014892963 0.053487618 0.019591914 0.008057585 0.014378182 0.0007207166 0.035135858 -0.03267776
0.01857625 0.026826736 -0.013872747 -0.022329435 0.028424319 -0.023117581 0.01886686 -0.034137376
-0.03613919 0.0057369065 -0.00020035643 0.056032725 -0.025361113 0.04557756 0.012100244 0.014732166
0.0028244522 -0.021193124 -0.03116265 0.01827705 0.0074849795 -0.020495139 -0.002434779 0.011808009
-0.0344654 -0.0045245136 -0.032084033 -0.010365482 0.00645885 -0.0008162397 -0.01323226 -0.020322515
0.03745575 0.015014228 -0.016216092 -0.013049145 0.01717452 0.023850704 0.0143698035 0.021312943
-0.0042360406 0.030685963 0.0048159976 0.0009575674 0.0038824999 -0.00013903975 -0.023198295 -0.005421047
-0.0036089653 -0.028158773 0.017213698 0.008737381 0.03262843 0.06351241 0.0760501 0.009520038

bias f4 [64]
00000000: 1e51 a7bc 851a 8cba 7589 27bd 0855 6abc
00000010: 430f 433c 1196 8a3c 5c1e 153b 2500 00bd
00000020: f436 813c 5815 54bd 468b 883b 8d10 173b
00000030: fb9c 593b 60fd 203d 319b 6dbc 4e82 30bc
00000040: 4b1f b73c 1f5c c83c 8ff9 8bbd 4f6f 91bb
00000050: 5ba0 03bb 5b99 25bc 9926 47bc 9367 4c3d
00000060: fe9c a73c 7acf 403d c833 bc3c 89dd e43c
00000070: 994e 423d f8af 053d 4046 8dbc 9d3a 273b
00000080: c605 23bd 0561 0b3d e3b6 ae3a be5a 71bc
00000090: 78ce 69bc bf4c cf3c 3bac 4cbd 312e 4cbb
000000a0: dc65 4abd ee0d 41bc ceed d4bb ed83 bc3c
000000b0: 767c 6b3a 72e7 4ab9 ef93 373d 8b50 fabc
000000c0: 0fae 8e3d 91ea 8a3c 403a 23bc 8d3b d8bc
000000d0: 90f1 16bd 2f17 5b3b e6e9 933b b4e2 723c
000000e0: cd50 743d 7705 b0bc fbe2 1ebc 76c9 993c
000000f0: cb02 70bd 698e 4dbb f6e2 153c 8673 56bd
-0.020424422 -0.0010689056 -0.040902574 -0.0143025 0.011905494 0.01691726 0.0022753691 -0.031250138
0.015773274 -0.051778167 0.0041669933 0.0023050637 0.003320514 0.039304137 -0.014502333 -0.010773255
0.022353789 0.02445799 -0.06834709 -0.004438318 -0.0020084593 -0.010107364 -0.0121551985 0.049903464
0.020460602 0.047072865 0.02297391 0.027937667 0.047438238 0.03263852 -0.017245412 0.0025517114
-0.039800428 0.034028072 0.0013329651 -0.014731107 -0.014270417 0.02530515 -0.04996894 -0.0031155462
-0.049413547 -0.011783106 -0.006498075 0.023012126 0.00089830847 -0.00019350441 0.044818815 -0.030555984
0.06966793 0.016957553 -0.009962618 -0.026395584 -0.036851466 0.0033430567 0.004513967 0.014824558
0.05964737 -0.02148698 -0.009697671 0.018772822 -0.058596414 -0.00313654 0.00914835 -0.052356265

weight f4 [10, 64]
00000000: 463d 823d 41d4 6e3d c29b 043e a796 4fbe
00000010: 52b7 23be 257c 313e 0cad 84be 9353 8c3e
00000020: 2978 d1bd acac 453c 5d77 02be 0000 453d
00000030: d83f 233c 89e2 cdbd 821b f5bc 8919 0ebd
00000040: 2ae6 ec3c 9b4d 6ebe c436 d33c b0f9 413d
00000050: 20df 9cbc 004f b8bd 050d afbc 949d 483d
00000060: 136c 9f3b 4fdc 20be 9b14 febd 5965 2c3e
00000070: f813 7dbe 8a1e 26be fae5 34bd 3f71 b83c
00000080: f14b ccbd c1da fb3d ec59 26bb c976 983e
00000090: 5b99 373e a077 f83d 20bb 6a3d 22c7 9abe
000000a0: c898 263e f05d b4bd 79ca 1abe ae2f 0abe
000000b0: 83bd aa3d 752b 923d 539c 1abe 4ddd 07be
000000c0: 77be 77be f30b b3bc c623 133e 0e09 2a3e
000000d0: 2991 2abe e112 babd 653a 95bc 7bff 503c
000000e0: 13fb 59bd fc48 10bc 4f36 83bd 35ce cabd
000000f0: 3d5e 043e 75c8 76be d660 d73d 6d6e 6f3e
00000100: 57a9 653e 02a6 40be 7757 4cbe 69ec 5c3e
00000110: 38bf fdbc 9fbf 01be a977 bbbd ccf9 b63d
00000120: 917a 2d3e b68b edbd 5088 bbbd c9cd 01be
00000130: 5a2a b13c bb5a 4dbe e9e0 00be b19e 6abd
00000140: 910e 5f3c 1b19 61be 3b03 2f3d ad10 223e
00000150: b061 1abe 87bd 983e 1ca2 db3d 4b6f 433e
00000160: d7a4 803e e28c 203d 5cb9 2e3e 9704 01be
00000170: 75ed 38be 73e3 fe3d f2a7 0bbd b911 623d
00000180: ed3a c5bd f1e5 70be b6c2 dcbd 28e5 94be
00000190: 99a4 b03d ca90 673e 20f0 37be ec52 4fbe
000001a0: 3683 14be 6289 3f3e 1555 623e 8f1f 343e
000001b0: 82d2 6abe 1e88 9e3b caec 38bd b4c3 043d
000001c0: 8f5a 42be 4cec 8bbd cb4c 893c 8b67 54be
000001d0: 35a6 01be 8978 913e b2d9 323e c585 6b3e
000001e0: d043 90be 3f2c 09be 8111 8b3e ed88 76bd
000001f0: 7a94 86bd 6796 78bc 05e1 4a3e 14ae 49be
00000200: 23c1 45be b66f c13c 9140 adbc f1c5 fdbd
00000210: ef56 5abe 0dd9 953e 39e0 7f3d c8e9 243e
00000220: c4c7 99bd 72e7 e53c 2d6a f33c f5ee 51bc
00000230: bf03 23be f36d 2f3d 0918 763d 6907 6f3e
00000240: 2a5f cabd 0e2b bdbd fed9 603e ea2f 66be
00000250: 5b18 923d 126d 25bc 486b c7bb a263 97bd
00000260: 31a6 7d3d e60d 2dbe b3a3 79be 6f87 82be
00000270: fbd3 c63c 3695 a53d c9d3 ccbc 1f20 353d
00000280: 7429 19be 7273 8fbd 4b3e 6f3c 58e8 933e
00000290: 23a2 36be 82e0 233d 849b 833c 510a 673e
000002a0: 0347 6b3e 59ad 5cbe 381e 583e f650 0b3e
000002b0: 3e53 7c3e 257f 28bd 8faf 45bd b256 0dbe
000002c0: dbc9 963b c459 c8bd 20ec 12bd ee9b a1bd
000002d0: 05b6 01be 61be 0cbe 96ef 183e 14e2 6fbe
000002e0: e9c1 7d3e 88ab 91bc 12b1 06be e544 0cbd
000002f0: 1ab6 c8bd 9b2b 423e d5bc ca3d ed75 f9bd
00000300: 8b85 2f3e 7bfb 0c3d 2a64 173e 91fd 9d3d
00000310: e91a 1d3e 5a16 633d ace6 653e 7890 a2bb
00000320: 861d 723d e140 a93d 151b d13d 83d3 10be
00000330: c0db d03d 8022 d43d 965e be3d 39b7 9fbd
00000340: c49a fabd ea3f 223d 1fe0 613d ece3 3d3e
00000350: bbd4 0dbe 94d2 6cbe 63e1 213c a41b 40be
00000360: 87fa 163e 43be ad3a 7835 0cbe f58f 2f3e
00000370: db2f 243c b416 64bc ba73 d0bd 954b ea3d
00000380: 798b 00be 7e88 c63d f87a afbd 9452 26be
00000390: 98a0 afbd dbc1 9abd 8a6c ef3b e101 6abc
000003a0: e849 043d adab 3bbc 0afa 0ebe 330f e13d
000003b0: fb8f 3b3c 35b7 17bc acd2 a1bd 8e64 1dbe
000003c0: 8195 863d cd31 c53d 9adf 3dbe 9755 f1bd
000003d0: 41c8 d33d df13 37bd e9b1 493d c84d 3dbe
000003e0: b332 053e 721c 26be 4bbd 4cbe 590a 02be
000003f0: 15ff 89bd 0acb f43d 648f 7fbd 2f48 ee3c
0.06359343 0.05830789 0.12950042 -0.20272313 -0.159879 0.17332514 -0.25913274 0.27407512
-0.10227997 0.012065094 -0.12740846 0.048095703 0.009963952 -0.10052974 -0.029920343 -0.03469232
0.028918345 -0.23271792 0.02578295 0.04735726 -0.019149363 -0.08999443 -0.021368513 0.048978403
0.0048651784 -0.15709041 -0.12406274 0.16835536 -0.24714649 -0.16222587 -0.044164635 0.022514937
-0.09975422 0.12297583 -0.0025383187 0.29778126 0.17929594 0.12132192 0.057307363 -0.3023005
0.16269219 -0.0880698 -0.151163 -0.13494751 0.08336928 0.07137195 -0.15098695 -0.13268013
-0.2419375 -0.021856284 0.14369115 0.16605017 -0.16656937 -0.09085632 -0.018216321 0.012756224
-0.05321796 -0.008806463 -0.06406843 -0.09902612 0.12926574 -0.24099906 0.10516517 0.23381968
0.2242788 -0.18813327 -0.1995524 0.21574558 -0.03097497 -0.12670754 -0.09153683 0.08934364
0.16941287 -0.11598913 -0.09156859 -0.12676157 0.02162664 -0.20054142 -0.12585796 -0.057280246
0.013614313 -0.21982233 0.04272769 0.15826674 -0.15076327 0.29832098 0.10724279 0.19085424
0.25125763 0.039196856 0.17062896 -0.12599407 -0.18059333 0.12445726 -0.034095712 0.055192683
-0.0963038 -0.23525216 -0.10779326 -0.29081082 0.086251445 0.22613826 -0.17962694 -0.20246476
-0.14503178 0.18704751 0.22102769 0.17590164 -0.22931865 0.004838004 -0.045147695 0.0324132
-0.18979858 -0.068321794 0.01676025 -0.20742624 -0.12661059 0.28412274 0.17465857 0.23000248
-0.28176737 -0.13395785 0.27161792 -0.060189176 -0.065712884 -0.015172577 0.198124 -0.19695312
-0.19311957 0.023612838 -0.021148952 -0.1239127 -0.21322225 0.2926716 0.062469695 0.16104805
-0.075088054 0.028064463 0.029713714 -0.012813319 -0.15919398 0.042829465 0.060081515 0.2334267
-0.09881432 -0.09236728 0.21958157 -0.22479215 0.07133552 -0.010096805 -0.006085787 -0.0739205
0.06192607 -0.16899833 -0.24378853 -0.25493953 0.024271002 0.080851 -0.02500333 0.044220086
-0.1495722 -0.07004441 0.014602254 0.28888202 -0.17835288 0.04000903 0.016065367 0.22562529
0.22976308 -0.21550502 0.21105278 0.13605103 0.2464113 -0.04113688 -0.04826313 -0.13802603
0.0046016998 -0.097827464 -0.035869718 -0.07891069 -0.12667091 -0.13744499 0.14935145 -0.23426086
0.24781002 -0.017781988 -0.13153484 -0.03424539 -0.09800358 0.18961947 0.09899298 -0.12180696
0.17140786 0.034419518 0.14784303 0.077143796 0.15342297 0.055441238 0.22451276 -0.0049610697
0.059110187 0.08264328 0.102102436 -0.14143185 0.10198164 0.10358143 0.092953846 -0.07798619
-0.122365505 0.039611734 0.05514538 0.18543977 -0.13850681 -0.23127204 0.009880397 -0.18760544
0.14744006 0.0013255555 -0.13692272 0.17144759 0.010021175 -0.0139214285 -0.10178323 0.114401974
-0.12553205 0.096940026 -0.08568376 -0.16242439 -0.08575553 -0.07556506 0.00730664 -0.0142826745
0.032297045 -0.011454505 -0.1396257 0.10989227 0.011447902 -0.009259989 -0.079015106 -0.1537039
0.06571484 0.09628639 -0.18542328 -0.11783903 0.1034093 -0.044696685 0.049241934 -0.18486702
0.13007621 -0.16221789 -0.19994085 -0.1269926 -0.06738106 0.11952789 -0.062392607 0.029087154

bias f4 [10]
00000000: ccac 68be 131b 69bd 03b4 df3d b3e7 c13d
00000010: e900 213e e947 18be 37ea 113e 1266 933d
00000020: 48ee b6bd e96f c33c
-0.22722167 -0.056910586 0.109230064 0.09468021 0.15723003 -0.14871182 0.14249502 0.07197203
-0.08932167 0.023857074
