Pytorch/model_data/CIFAR10_EPOCH27.pth (torch, 588839 bytes, 10 tensors)

weight f4 [32, 3, 5, 5]
00000000: 1f50 55bc 6e2e 3dbd 2c17 1dbd 0908 f4bd
00000010: a9fd 2ebd 433a 21be a35c 19be 4fe4 e93d
00000020: efe7 2abd b297 05be 9515 09be b013 b4bd
00000030: 620d 203e 956d ec3d ac96 5abe ccbb a73d
00000040: 3fc0 08be 10bc d83d e243 213e 78d6 3abe
00000050: 33d9 623d bcd5 60bd 60b8 233e 54c3 073e
00000060: af97 1ebe f978 dcbd de9e 243d f034 fc3d
00000070: b91b 5cbd 11fa 43be 3785 69bd f373 973d
00000080: 90ab 84bd 416a 9a3d 6e7e 60be 341c b4bc
00000090: 0c33 56bd 2a96 c73d 6c4e 0a3e f168 863b
000000a0: 3ca8 6f3d 9477 eebd 6a9f 673d fe5f 353e
000000b0: 10a1 debc f0ac 2e3d 53f9 b83d 7874 5a3e
000000c0: 4ece 403e 8b3e 133c d3dc 79bd 99bb 96bd
000000d0: 9a89 ecbd 82a8 83bd d49f 59be 8a2b 82bb
000000e0: 161d 043d 740b 74ba 6871 7d3d 8b0b 56be
000000f0: 8f5f b23d f320 543d 4622 223d 076e f03d
00000100: 055b 2ebe cd28 dc3c 9bb8 1d3d 4379 483e
00000110: f360 a33b e2ac 35be f490 963d 850e 873c
00000120: ca71 3e3e d022 353e 280b 803d 2e3a 243d
00000130: 4551 f93d 1db2 453e 2aa9 813d e414 92bd
00000140: 347b 5c3c 2bad da3d 8856 35bc 180f 67be
00000150: caa9 0abe a9f7 1c3e 76f7 38be 8842 11bd
00000160: 0680 1fbe b731 163e d6d7 db3b 1701 5bbd
00000170: 6217 4e3c c2df 273e 1dae 08bd e21d b63b
00000180: dd01 cf3c 7142 383d 1eb6 b43d 4487 dfbc
00000190: b73e 473d 36ea 0f3e e786 043e 2e45 2f3d
000001a0: 056e 5cbe 0382 183e a72a 6a3d e65f 03bc
000001b0: 1e9c 85be 51b2 42be ddc4 42bd 2acb 3dbe
000001c0: 2bf7 debd 2455 ab3c 4dc5 89bd 95ca 42bd
000001d0: b6da 6fbd 07bd 393c 2a6e 023d a715 b03c
000001e0: 0e51 65bd d526 713d a878 fb3d ce8a 02b8
000001f0: 9624 a7bd f139 abbc 6600 c53d ed9a 453e
00000200: 7268 92bd 68d8 093c 2ae7 8c3d 8fd9 b73c
00000210: f6fb d2bd 43d3 3bbe 4e0f b53d d6d7 553d
00000220: a83a f3bc c510 9abd 88c1 043d 471a 163e
00000230: 4344 92bd 4a8b e2bd 24e2 f93d 30b5 d93d
00000240: d302 923d dc08 c6bd 36ef 84bd 079f 1c3e
00000250: 478b a5bd c8d6 1abc 4f4d 333e 4017 873d
00000260: 8ac5 babd 26bc 80bc 1ae5 e0bd 1778 9f3b
00000270: 3e0a 6a3c f957 63be 3eb3 5dbe 445a 17be
00000280: 6220 1ebe 8457 943c 2451 01bd 1fc5 dfbd
00000290: 7b1f 98bd 44ca 5abe ddea e5bd 03e3 18be
000002a0: cdb2 04be faba 31be 7b69 0e3d 67f8 5cbe
000002b0: 1b2c 8abe efb5 56be 05a3 20be d82b 423b
000002c0: 3276 dabd b574 a93d c7dc 8e3d c693 873d
000002d0: 3f19 413d d4a2 75bd ed88 ea3b 11bb d13c
000002e0: 05e1 c3bd 2613 05bc 415b 06bd aa14 da3d
000002f0: e9f7 183e 95a0 7bbc 724e d2bd 2c1d 433e
00000300: 497a 353e dda9 da3d db67 673c 2c69 b33d
00000310: 6090 95bd e7e9 2ebe 5409 a6bd 2106 22bd
00000320: 296d 01be 4f0d 1ebd 9bb0 023e 23f0 713d
00000330: cd7b ed3d 73d9 a8bd 79c9 7abc c526 d73d
00000340: ae00 48bd 6f3f 103e 2c5e 7c3d 231d eb3d
00000350: 7f7a 023e c75d 8a3e a1c3 503e 2e7a 033d
00000360: 6f5d 7d3e 40ef 9e3e ab80 543e 95e9 273e
00000370: d9ee b03d 51ee 193d 371d b7bd 7de1 c33d
00000380: 3f82 f63d 0cdd a23d 19a2 5d3c 2d7a 57bd
00000390: 001d 393d 2c26 fcbd 7fff 843d d64c 90bd
000003a0: 2a4f 353d 724b c73d 725c 20ba aba5 b73d
000003b0: 06f2 eabd 24df b1bc 5fc2 eabc 4765 f43d
000003c0: 9461 6d3d 4852 2e3d 2eec de3c d9f6 3b3e
000003d0: 7867 c83d 7f21 cfbc 5bf4 00be 6a3b f1bd
000003e0: fbbb 3f3e f8b0 4fbd 3170 a53c 73a7 213d
000003f0: 9dd4 c2bd 1499 0d3e b5dd 94bd e0a8 b8bb
-0.013019591 -0.046186857 -0.038352177 -0.11915595 -0.042722378 -0.15744881 -0.14976744 0.114204995
-0.041725095 -0.13046148 -0.13387139 -0.087928176 0.15630105 0.115443386 -0.2134654 0.08190116
-0.13354586 0.10582745 0.15748551 -0.18245876 0.05538292 -0.054891333 0.15988302 0.13258106
-0.1548755 -0.10765261 0.04019057 0.123147845 -0.053737376 -0.19138362 -0.05701181 0.073951624
-0.064780354 0.075397976 -0.21923229 -0.021986105 -0.052294776 0.097454384 0.13506478 0.0041018655
0.05851005 -0.116439015 0.056548513 0.177124 -0.02717641 0.042645395 0.0903193 0.21333492
0.18828699 0.008987079 -0.06100161 -0.0736 -0.11549683 -0.06428625 -0.21252376 -0.0039724754
0.0322543 -0.0009309568 0.06187573 -0.20902841 0.087096326 0.051789235 0.039583467 0.11739736
-0.17026909 0.026874924 0.03850613 0.19577508 0.0049859225 -0.17741731 0.07351866 0.016486416
0.18598095 0.17689061 0.06252128 0.040094547 0.12173704 0.19306226 0.063310936 -0.07132891
0.013457108 0.106775604 -0.011067994 -0.22564352 -0.13541332 0.1532885 -0.18063149 -0.03546384
-0.15576181 0.14667402 0.0067090793 -0.053467836 0.012578817 0.1639395 -0.033369172 0.0055577615
0.025269443 0.04498524 0.088237986 -0.02728618 0.048643794 0.14054188 0.12942086 0.042790584
-0.21526344 0.14893346 0.057169583 -0.008018469 -0.2609567 -0.19013335 -0.047551025 -0.18534532
-0.10886987 0.020914622 -0.06727085 -0.04755648 -0.05855819 0.011336572 0.031843342 0.0214947
-0.055985503 0.058874924 0.12278873 -3.1123687e-05 -0.08161275 -0.020901652 0.096192166 0.19297381
-0.071488276 0.008413412 0.068800285 0.022442607 -0.10301964 -0.18342309 0.0884081 0.05220779
-0.029691055 -0.0752273 0.03241113 0.14658462 -0.07141926 -0.110617235 0.12201336 0.10630262
0.07129445 -0.096696585 -0.06490938 0.15295039 -0.08083206 -0.009450622 0.1750996 0.065962315
-0.09119709 -0.015714716 -0.10981198 0.0048666107 0.0142846685 -0.22201528 -0.21650407 -0.14780527
-0.1544204 0.018108137 -0.031571522 -0.1092627 -0.074278794 -0.2136622 -0.11226437 -0.14930348
-0.12958832 -0.17356482 0.034768563 -0.21579133 -0.26986775 -0.2096784 -0.15687187 0.0029628184
-0.10667075 0.08274213 0.06975704 0.066199824 0.047143217 -0.059969738 0.007157436 0.025601896
-0.095644034 -0.008122241 -0.03280187 0.106484726 0.1493832 -0.01535811 -0.102688685 0.19054097
0.1772243 0.1067693 0.014123882 0.08760294 -0.07302928 -0.17081414 -0.08107248 -0.039556626
-0.12639298 -0.03858691 0.12762682 0.059066903 0.11595879 -0.082446 -0.015306824 0.105054416
-0.048828773 0.14086698 0.061613247 0.11480167 0.12742041 0.2702467 0.20387127 0.03209894
0.24742673 0.31041908 0.20752208 0.16397698 0.086393066 0.03758079 -0.08941119 0.09564493
0.12036561 0.079523176 0.013527417 -0.05260675 0.045193672 -0.12311968 0.064940445 -0.07045905
0.04426495 0.09731187 -0.0006117291 0.089671455 -0.114719436 -0.021712847 -0.028657136 0.119333796
0.057954386 0.04255894 0.027212229 0.18355884 0.0978536 -0.025284527 -0.12593214 -0.117789105
0.18724053 -0.05070588 0.020195099 0.039466333 -0.09513209 0.13827926 -0.0726885 -0.005635366

bias f4 [32]
00000000: 521b 44be cf61 0abd efa5 023d 2f01 08be
00000010: 87fd a0bc f7e6 233e d030 b6be 505c d1be
00000020: 1287 e7bd 0a90 62bc 5626 b23d ed78 99bd
00000030: fc6f dfbd 7f7c dabd 88bd 92bc 50e5 b1bd
00000040: 7990 dd3b ab65 bdbe e11f 0dbd 8edb 88bd
00000050: 8753 07bc a9dc 573d efc3 5e3d 0970 1c3e
00000060: a704 a4be 1d5f 5ebc cbbe 39be 2cb8 923e
00000070: 543a 91be 7752 203d 09e2 debd f352 c73d
-0.19151047 -0.033784684 0.031896528 -0.13281702 -0.019652141 0.16006075 -0.35584116 -0.4089074
-0.113050595 -0.013828287 0.08698718 -0.07493768 -0.10910031 -0.10668277 -0.017912641 -0.08686316
0.0067616072 -0.3699163 -0.03445423 -0.06682502 -0.008259661 0.052700672 0.054386076 0.15277113
-0.320348 -0.013572481 -0.18139188 0.28656137 -0.28364813 0.039141145 -0.108829565 0.09732618

weight f4 [32, 32, 5, 5]
00000000: d750 93bb bf4d d2bc e23d 23bd f80d 95bc
00000010: 5cd8 05bd dbc8 073d d562 213a 803b c53c
00000020: c3b9 e83c b6c2 803c 9aff ea3c 2e88 db3b
00000030: 4acd d3bc ef5e a13b 7566 313d deef 843b
00000040: 9af4 b0bc e035 81bd 4666 2abd 5553 85bc
00000050: d729 053d 676b bd3c de11 cb3c 48cb 9f3c
00000060: 210b b43b eb08 0fbd ec3d f83b 5509 7fbc
00000070: 9b6b 043d d096 4bbc 744b c3bc 5163 b03c
00000080: 37e6 913c 0957 3e3c bf5e ebbc 9b99 2f3d
00000090: e5fc 61bc af73 183b b1a9 fb3b 7555 ee3c
000000a0: 6fb0 8a3c ce20 303d 3fce 99bb 097f b63c
000000b0: fd7d dd3c 3150 90bb c473 983d ae85 6c3d
000000c0: f3e8 263d fd1f 9abc 05a8 0d3d 3f86 363d
000000d0: a272 693c 7c98 f43c 74e8 1c3d c5bc 933b
000000e0: 9f7f b9bc 3f7e 12bd 65e2 d6ba fb9d 073b
000000f0: 3889 43bd 396c 40bc a13b 793c a5f7 82bb
00000100: 1d60 30bd 54d7 723a 1275 c639 ac4b 51bd
00000110: 9c9a ddba 2e02 3d3c 65b7 56bd 732d 63bb
00000120: 7c0d d2bb 2fb5 3fbc 2c3a 063d b0e5 45bc
00000130: 32c9 a93c b7c0 ddbc fbcd 7f3b 5907 94bc
00000140: 8d3a e53b d4e6 8ebc 8693 65bc 3bd4 f4bb
00000150: 9c28 993b d75a 803c 61b9 fcba 1bf8 ab3c
00000160: c70d f33b f173 483c 179d 84bb 988c f73c
00000170: 3837 123d 138d cf3c ec68 a63c 173f 8b3b
00000180: d95a 713c 1532 aebc 25dc ff3b da8c 033d
00000190: 800c 1e3d 4b26 86bc 6489 dabc a966 25bb
000001a0: ad5e 60b9 1064 a6bc ac7c 0bbd f497 fbbc
000001b0: 120c 79bd 5ca5 79bc 1047 53ba 6ef8 15bd
000001c0: 2637 0dbd 0854 d83a 2fce 5bbc 2298 c8bc
000001d0: 797f 0e3d f8d2 203d 55ad 913c bfb4 0fbb
000001e0: 576c 8a3b 7d6e c33b 99a6 843c ced6 a2bc
000001f0: 240b 9d3b f5f4 f23c 1a5d ddb9 6e28 043c
00000200: ce86 8a3d dff3 82bc 7b25 c13c 7370 bf3c
00000210: 9409 5e3d 876b 0b3d b3ab fb3b c9c8 273d
00000220: b490 8f3d 7618 74bc ab56 96bc 2b25 0ebb
00000230: 5f08 b93d f1d4 28bc 0f58 28bd 1ed4 dabc
00000240: aab5 253d 5116 8eba 3adf 9fbd c495 073d
00000250: 110d b13d f44c e13a 63c4 f83b 33a9 523d
00000260: 7118 1f3d 0b1a 5a3c 765b 433d a53a 753c
00000270: 4d1d 153d 3ea4 0d3d 6ced 3bbc 7658 293c
00000280: e30d b7ba 1fd9 be3b ba3e 223c 6704 e63b
00000290: bbfb aebc c615 cd3c c4d8 823c ef33 733d
000002a0: f1a0 c23b a9a1 f637 2ac5 beba af87 1c3d
000002b0: 2469 043d 8655 d1bc aaa7 273d 51e4 09bd
000002c0: 99b1 19bd db40 07bd bed9 d83c be93 40bd
000002d0: f8aa 8fbc 99bd 6d3a 5365 6cbc beff f33c
000002e0: 7809 02bd f1bb e6bb 8ff8 1b3b eb11 463d
000002f0: e267 413d 2b90 853d f31d 243d ac92 223d
00000300: 070d 963d dfda 973d 2aac 8f3d 429a 8c3d
00000310: decd b43d cf35 3c3d 45f3 143d d872 703d
00000320: e790 613c 9cf5 fc3c 8d9b 893c a269 1fbd
00000330: dbac 70bc 239f 7a3c b47b 05ba c952 00bd
00000340: 28ca 75bd 0cc4 d03b 956e 87bc ff2c 0abd
00000350: e326 46bd f6fb 5ebd a345 38bd 7d56 dcbc
00000360: e29d 183d dab2 a83c 8fba 9f3d 9ee4 0bbc
00000370: 57a9 5bbd 925c 143d e4fd a73c e838 753b
00000380: 7070 b539 d957 be3b e485 a6bc ec07 48bd
00000390: d939 4abd 13ba 11bb 4881 db3c f484 073b
000003a0: 3bdb 863c d9ed e5bc 7e55 9dbc 7442 993b
000003b0: 3fa3 fb3c ffed 193c 9af5 5c3c f983 4a3d
000003c0: 799a 5ebc 2dbc c13c c973 ca3c 956e 963d
000003d0: cc13 493d 31a5 043d 10d8 c53c c8de dc3c
000003e0: 0542 623d fe62 393d dd6d 853c fb88 cebc
000003f0: 963f c5bc 9a78 93bc dece 38bd ca6c 813d
-0.004495721 -0.025671838 -0.039853938 -0.018195137 -0.03267704 0.033150535 0.000615639 0.024076223
0.02840889 0.015717845 0.028686333 0.0066995835 -0.025854725 0.004924647 0.0433106 0.0040569147
-0.02160101 -0.06309104 -0.04160144 -0.016275087 0.032510605 0.023122502 0.024788793 0.019506112
0.0054944907 -0.034920614 0.007575741 -0.01556619 0.032329183 -0.012426093 -0.02383969 0.021531733
0.01780997 0.0116174305 -0.028731702 0.0428711 -0.013793205 0.0023262312 0.007680141 0.029093483
0.016929833 0.043000035 -0.004693776 0.022277372 0.027037615 -0.004404091 0.074439555 0.057744674
0.0407495 -0.018814081 0.034584064 0.04456162 0.014248522 0.029857866 0.038307622 0.004508587
-0.022643862 -0.03576493 -0.0016394375 0.002069353 -0.047738284 -0.011744552 0.015211971 -0.0039968067
-0.04306041 0.0009263654 0.00037852727 -0.051097557 -0.0016907039 0.011536164 -0.052420992 -0.003466454
-0.006410299 -0.011700912 0.03277032 -0.012078688 0.02072582 -0.027069433 0.0039032686 -0.01806991
0.006995505 -0.017444052 -0.014012223 -0.007471589 0.0046740305 0.015668316 -0.0019281321 0.02099233
0.007417414 0.012234674 -0.004047047 0.030218408 0.035697192 0.025335824 0.020313703 0.0042494643
0.014731132 -0.021264115 0.0078082257 0.03211675 0.03858614 -0.016375681 -0.026676841 -0.0025238192
-0.00021397574 -0.020311385 -0.034054443 -0.030712105 -0.060802527 -0.015237179 -0.00080596004 -0.036613874
-0.03447642 0.0016504535 -0.013415857 -0.024486605 0.034789536 0.039263695 0.017782846 -0.0021927801
0.004224341 0.005964099 0.016192721 -0.019877817 0.004792588 0.02965782 -0.0004222177 0.00806628
0.06763993 -0.015985427 0.023577442 0.02336905 0.054208353 0.034038093 0.0076803803 0.040962968
0.07010022 -0.01489841 -0.018351873 -0.0021689634 0.090348 -0.010304675 -0.041099604 -0.026712473
0.04045645 -0.0010840391 -0.07806249 0.033101812 0.0864507 0.0017189072 0.0075917705 0.051430892
0.03884167 0.013311873 0.047694646 0.014967595 0.036404897 0.03458046 -0.01147018 0.010336032
-0.001396593 0.0058242227 0.0099026505 0.007019568 -0.021360269 0.025034796 0.015972503 0.0593757
0.005939596 2.9400764e-05 -0.0014554609 0.038215335 0.032326832 -0.025553476 0.04093138 -0.033665005
-0.037522886 -0.033020835 0.026471015 -0.047015898 -0.017537579 0.0009069085 -0.014428454 0.029785033
-0.03174731 -0.0070414473 0.0023799276 0.04835693 0.04721821 0.065216385 0.040067624 0.03969066
0.073267035 0.07414793 0.070152596 0.0686536 0.088283285 0.045949753 0.036364812 0.058703274
0.013767458 0.030878834 0.016797805 -0.0389191 -0.014689649 0.01529673 -0.00050919806 -0.03132895
-0.060007244 0.006371027 -0.016532222 -0.033734318 -0.04837693 -0.054439507 -0.044988286 -0.02689671
0.037259944 0.020593096 0.07799255 -0.008538393 -0.053628292 0.036221094 0.020506807 0.0037417952
0.00034606783 0.005808812 -0.020327516 -0.04883568 -0.049371574 -0.0022236153 0.026795045 0.0020678611
0.01646196 -0.028067516 -0.019205805 0.0046771113 0.03071749 0.009395122 0.01348629 0.049442265
-0.013586634 0.0236493 0.024713414 0.073453106 0.049091145 0.0323841 0.024150878 0.0269617
0.055238742 0.045260422 0.016287738 -0.025211802 -0.024078172 -0.018001843 -0.04511916 0.06319578

bias f4 [32]
00000000: 50b2 fbbc 97fd c53c 995c 28be 27c2 98bd
00000010: 53ea a23c ebd1 fdba 074b f83c 7a73 133c
00000020: d02b 46be af0a e5bd 7f7d 90be 07fe cebd
00000030: 3c9f fb3d c68a 86bd f36d 3ebe 73b2 9ebd
00000040: 2c40 7ebd d649 07bb 4d3b 1fbe 5bd0 47be
00000050: aece 10be cdaf 6f3c 7216 aabd 2b0e 7f3d
00000060: 802c 4ebd 3a2e 86bd 25a1 97bd 95ac 11be
00000070: 5c24 3cbe f176 3fbd 643d 13be c28d 27be
-0.030724674 0.024168773 -0.16441573 -0.074589066 0.019887125 -0.0019364929 0.030309213 0.0089997
-0.1935265 -0.11183678 -0.28220746 -0.101070456 0.12286231 -0.06569438 -0.1859663 -0.0774888
-0.062072918 -0.0020643375 -0.15549965 -0.19513075 -0.14141342 0.0146293165 -0.08305062 0.06226937
-0.050335407 -0.06551786 -0.07403783 -0.14225991 -0.18373245 -0.04674429 -0.14378887 -0.1636267

weight f4 [64, 32, 5, 5]
00000000: 44a0 4abd 21de 223c be9f cd3c ee7b 1f3c
00000010: 09c1 fa3c 59b2 5ebb 9773 933c bc6e edbc
00000020: faa1 26bd bf0e 6abc 244a ffbc 8ca3 0fbb
00000030: 50aa df3c 59f5 33bc c917 0b3c 9935 dbbc
00000040: 99bf d63c 7557 01bd dd66 f13c e780 13bc
00000050: e7e7 dc3c de85 4a3d bbdb dabb 30d0 93bc
00000060: 41dc f9bc 7837 153c 22ce 93bd 0bf6 283d
00000070: b08d d33c 6b13 903b aa46 a23c f3ab 943b
00000080: 74af 76bb e9cb 8c3a 25ec debc c530 bcbc
00000090: 9f32 163a 674a d43c df06 093c 8fec 5dbd
000000a0: 10d2 ae3c 0486 c2bc a975 5abc bbe6 013d
000000b0: 70d6 3abc 9df8 08bd fa6d e8bb e794 12bd
000000c0: cebe 463d aeba 6e3c fd68 eebc 18e0 40bb
000000d0: 6f2a 093c 749d 5dbd cbde b83a 9b4c 84bd
000000e0: f450 a8bd 9703 dabb 192b 903b d9a0 b0bc
000000f0: cd1e 40bd 53b1 b4bc 5d95 01bc 8cff 303d
00000100: 449a 273d 6b1b a9bd 25de 403d d243 cc3c
00000110: b567 fe3c ab8f 1f3d 7b39 fabb bd3e cf3b
00000120: 238c 723d 1e3a 5a3d 83af b23d 08d4 2abd
00000130: f3ba 45bc f7ea 1ebc edef d1bc 4b91 3c3d
00000140: b4d8 1b3c 031b b9bc 9bd8 9b3c ebcd 7d3d
00000150: a849 243c 1cd5 0d3b 4f7d a53c 3969 d7bb
00000160: a495 73bd b484 63bd 8393 cb3c 7b08 6cbc
00000170: 4635 aa3a 5763 1bbd 177e 84bd 2817 b43b
00000180: f366 08bd fdfc 23bd 2bd0 d2bc dbee 34bd
00000190: cdc4 01bb d1b3 8539 1c28 833b 60a4 453c
000001a0: e99b 0dbd b75d 28bd af70 623d 2203 533d
000001b0: f70b 0b3b f1d2 c53c 8ab1 38bd f8ae 69bc
000001c0: 7a52 a03b a963 313d 8923 203c 7a12 d4bb
000001d0: f14f 2bbb 3866 02bc 7a4b 61bc be7a 27bd
000001e0: 48cc aabc 1804 c5bc d916 d4bc 2676 35bd
000001f0: cf02 8fbb 2017 6ebb 2386 033d 7586 4cbd
00000200: b248 aabc ebd7 c03c 7cd8 00bd d52c c23a
00000210: 5829 83bd 8595 99bc 0220 dcbc 414a 05bd
00000220: 9e2e 0e3c c090 05bd 8737 09bd 8db7 54bd
00000230: cbf9 91b7 bfb3 413c 43c8 25bd c966 47bd
00000240: 9b2c 11bd d1fb 78bc a9ba 0dbd e2dc 18bd
00000250: 8818 c2bc 55cd a0bb 8592 bcbc 42ad b33c
00000260: 2b88 1ebb 0a73 0f3c de29 123b 5dd0 35bd
00000270: 4c30 e83c ac67 243d 7fb0 9e3b e0cd 9fbc
00000280: e9e1 39bd d65a d03a 4211 00bd 66aa 12bc
00000290: 3585 15bd 3335 d2bc 60bd 0c3d 71d7 a93c
000002a0: 1d36 463c 6388 393d 0c6e 1b3d 6de8 09bc
000002b0: 3b9e 97bb ceb0 a6bc 02ee 06bc c3b0 20bc
000002c0: 847b 5bbc 97a8 c93c a12e 06bc 5e52 5dbc
000002d0: 4985 173d e3d6 543d f1fb f23c b115 973c
000002e0: 4cee 193d 9226 4b3a eb91 123d b233 2f3c
000002f0: 17d9 5b3b 75b8 acbc 0cc4 cdbb 685a 683d
00000300: 529f 333d ad6f 323d 2cc8 903b 146c 05bd
00000310: b2f0 903c 4749 483d f5f9 293c 798e 79bc
00000320: 8524 693c 87f0 063c f03d a0bc 94b6 bdbc
00000330: 2e3b c73a 5f82 c0bc e7c7 a437 e3eb e2bc
00000340: ef56 c2bc 32fd 933c 7d50 48bd fdec f2bc
00000350: e88f f0bc f50a 3e3c c0b9 f0bc dd44 dbbc
00000360: ecb9 b73a 6a60 f13b eb85 3dbc d8a5 b83c
00000370: 3dfe 61bd 397b ac3c 2bc9 3ebc 551a 72bc
00000380: f132 46bc f2f9 a3bb 6096 2bbd ff77 f2bb
00000390: 3bdb 3e3c 76e8 27bc cbcb 82bc 209d 7f3c
000003a0: 8d6e 17bc c22e 54bd d4f1 cabb 6c97 073d
000003b0: 2dac 0ebd aed8 d4bc 9c9a 45bd 4552 f1bb
000003c0: 5bca a53b d2a4 61bd 647a 9c3c 8267 95bc
000003d0: 2e2d 80bc ce40 223b 681e 36bd 2465 093c
000003e0: 99fa 0039 df34 96bd 44db dbbc 8663 6bbd
000003f0: 67b9 27bd 38c4 9a3c b705 6a3c 1df2 17bd
-0.049469247 0.009940655 0.025100585 0.009734137 0.030609624 -0.0033980815 0.017999453 -0.028983466
-0.040681817 -0.014285742 -0.031163283 -0.002191755 0.027302891 -0.010983788 0.008489558 -0.026758956
0.026214408 -0.031577546 0.029467994 -0.009002901 0.026966048 0.049444072 -0.006679026 -0.018043607
-0.030500533 0.009107463 -0.07217051 0.04125027 0.025824398 0.004396846 0.019809086 0.0045370995
-0.00376412 0.0010741922 -0.027212212 -0.022972474 0.0005729589 0.025914384 0.008363455 -0.054180678
0.0213404 -0.023745544 -0.013333716 0.031714182 -0.011403665 -0.03344022 -0.0070931884 -0.035786536
0.04852181 0.014570875 -0.029102797 -0.0029430445 0.008371933 -0.054105237 0.0014104483 -0.06459924
-0.082185656 -0.00665326 0.004399669 -0.021561073 -0.046904374 -0.022057211 -0.007909146 0.04321246
0.040918604 -0.08257183 0.047086854 0.024934683 0.03105531 0.03895537 -0.0076362467 0.0063246177
0.059215676 0.05327808 0.087248825 -0.041706115 -0.012068498 -0.009699575 -0.0256271 0.046037
0.009512115 -0.022595888 0.019024184 0.061963957 0.010027327 0.0021641916 0.020201353 -0.006573823
-0.05946888 -0.055546477 0.024850613 -0.014406319 0.0012985847 -0.037936535 -0.06469362 0.0054959245
-0.033301305 -0.04003619 -0.025734028 -0.044173103 -0.001980114 0.0002550171 0.004002584 0.012063116
-0.034572516 -0.041105 0.055283245 0.05151666 0.0021216848 0.024148436 -0.04509119 -0.014262907
0.0048926445 0.043307934 0.009774097 -0.006471929 -0.0026140178 -0.007958941 -0.013750905 -0.04088854
-0.020849362 -0.024049804 -0.0258898 -0.04430213 -0.0043643485 -0.0036329702 0.032110345 -0.049932916
-0.020786617 0.023540458 -0.031456456 0.0014814386 -0.0640437 -0.018748054 -0.026870731 -0.032541517
0.008678107 -0.032608747 -0.03350022 -0.05193286 -1.7401666e-05 0.01182264 -0.040474188 -0.048682008
-0.03544293 -0.015196756 -0.03460184 -0.037320025 -0.023693338 -0.00490729 -0.023019085 0.021933202
-0.002419005 0.008755455 0.0022302787 -0.044388164 0.028343342 0.04013793 0.0048428173 -0.019507349
-0.04538146 0.0015896212 -0.03126646 -0.008951759 -0.03650399 -0.025660133 0.03436029 0.020732613
0.012097863 0.045296084 0.037946746 -0.008417231 -0.004627017 -0.020347979 -0.008235456 -0.009807768
-0.013396148 0.024616523 -0.008189828 -0.013508407 0.036992345 0.051962744 0.02966115 0.01844296
0.037580773 0.0007749583 0.03578369 0.0106934775 0.0033546144 -0.02108405 -0.006279474 0.056726843
0.04385311 0.043563534 0.0044183936 -0.032573774 0.017692897 0.048898008 0.010374536 -0.015231722
0.014229898 0.008236057 -0.019560784 -0.02315835 0.0015200132 -0.023499666 1.964341e-05 -0.02770037
-0.023723094 0.018065069 -0.048904885 -0.02965402 -0.029365495 0.011599292 -0.029385448 -0.026766235
0.0014017201 0.00736623 -0.011567573 0.022540018 -0.0551741 0.02105485 -0.011644642 -0.014776786
-0.012097106 -0.005004161 -0.041891456 -0.0073995586 0.011648948 -0.010248294 -0.015966317 0.015601426
-0.009242666 -0.051802404 -0.006193379 0.03310339 -0.03483217 -0.025982227 -0.04824315 -0.0073645436
0.005059523 -0.055088826 0.01910133 -0.018237833 -0.015646543 0.0024757865 -0.04446259 0.00838593
0.00012300386 -0.07334303 -0.026837952 -0.05746796 -0.040948298 0.018892393 0.014283589 -0.03709613

bias f4 [64]
00000000: 08a2 f4bd a860 233c b32b abbd 5511 35bd
00000010: c433 2ebe 1d16 9cbd 84a2 a6bd c897 9ebd
00000020: 0732 a8bc c93a 603a 5f92 bebd 3d72 82bd
00000030: e0bb c1bd b39b a0bd c8b3 9f3c c13c 72bd
00000040: 6ef2 87bd c641 65bd fefe 6abd a329 63bd
00000050: 9916 42bd c09b 83bc 28b8 a9bc ca91 f6bc
00000060: 0ff7 babc 2c8c e6bd ff50 40bd fbae 64bd
00000070: d16e c1bd 65b3 71bd fd42 b53b 3287 93bd
00000080: 342b 86bd bab5 cfbb 991a c4bd 8e03 34bd
00000090: de1b 53bd 6468 23bd 6345 d8bb 3a6e 9fbd
000000a0: 2ff5 93bd 7286 1fbe 31a6 23be df6c 9abd
000000b0: 0acb ddbc 2fd2 b3bd 57e5 50bc 3e43 c0bd
000000c0: b82a c4bc 6518 debd 9b0e eebd b4b1 2ebe
000000d0: 8136 d0bd c60b 46bc 9ba9 9cbd 4f6d d4bc
000000e0: d7c5 6abb c15a cabd e454 bebd 6724 95bd
000000f0: 2a9e 1bbd ce92 c6bd cdda 9abd dea2 79bd
-0.119449675 0.009971775 -0.08357944 -0.044205982 -0.17011935 -0.07621405 -0.08136466 -0.07743794
-0.020531667 0.00085536815 -0.09305262 -0.063694455 -0.094596624 -0.07842197 0.019494906 -0.05913997
-0.06638037 -0.05597093 -0.057372086 -0.05545963 -0.047384832 -0.016065478 -0.020717695 -0.030098815
-0.022822885 -0.112572044 -0.046952244 -0.055830937 -0.09444965 -0.059008975 0.0055316673 -0.07203521
-0.06551209 -0.006338802 -0.095753856 -0.043948703 -0.051540248 -0.039894477 -0.0066000684 -0.07784696
-0.072244994 -0.1557863 -0.15981366 -0.07540297 -0.027074356 -0.08780324 -0.012749991 -0.093878254
-0.023946151 -0.10844497 -0.116238795 -0.17059976 -0.10166646 -0.012087768 -0.07649537 -0.025931029
-0.0035823488 -0.09880591 -0.09293535 -0.07282334 -0.037992634 -0.096959695 -0.07561264 -0.060946338

weight f4 [64, 1024]
00000000: 0a0c 8cbc c5d5 743d 5a20 363d 7102 033c
00000010: 62f4 963d 3730 233d a92d db3c ae53 92bb
00000020: afd8 eebb bf60 b3bb 52dc 173d ffea 833c
00000030: 1a18 d8bc d775 30bc 648f e438 6189 abbb
00000040: 2709 a9bc 1c1b 893c 10ae 4f3c f939 513c
00000050: 03bf 2fbd e14f 58bb 87ef 333d 7fcf 773c
00000060: e24a 51bc b4de e5bc 7679 3bbd f797 86bd
00000070: 265a ce3c 73c5 d7bc eacb f53b a010 b33b
00000080: c3a2 9e3c ea9f 663c dfa2 40bc f8c3 663c
00000090: 7a44 df3b ba35 30bd f016 243b 18b9 733b
000000a0: e6e2 593c 6b72 e0bc 606c 1a3d d812 663c
000000b0: 8b31 243d aea3 6f3c 4b52 bcbc aa0d 833d
000000c0: 928e 2dbc 4d41 dcbc 76ad f23c 5293 7cbc
000000d0: e699 0b3d 22c8 033c f050 67bc b710 003b
000000e0: 2593 ad3d 9cf6 833c 1433 cc39 acda 053d
000000f0: a803 6c3d e375 e63c 5842 813d ae97 8a3d
00000100: 1b05 0abd fd47 833d 6167 9cbc 7f0d 7f3c
00000110: 000d 353d de20 d23b a6e9 1bbd 80e8 173d
00000120: dc00 9739 ac5c 17bc 0f6f 623d 0d5d 883c
00000130: d588 3c3d 9f40 06bd 55ef b33b 3137 2cbd
00000140: 1c96 95bc 6aac 0e3d eb1c 863c 218a 333d
00000150: 76ab d7bc c718 ca3c b019 683c be3c b33c
00000160: 86f0 f63c b35e 223c b366 1abc 6773 bdbc
00000170: 9157 3ebc 66d7 cf3c 0ca0 acbb e706 c93c
00000180: 1c4a 78bb b74e f73c 8c0f 4c3d 4047 d5b8
00000190: 6162 bbbc 87f1 54bc b4d2 e5bc 2624 82bd
000001a0: 6c61 a53c e2b3 083d 863c 84bc 98e4 3b3d
000001b0: c37f 4d3c 60aa 943d 729b 0abc fc17 e93c
000001c0: d990 023d c6fb fd3a f4a1 5f3c 5f21 84ba
000001d0: bccd 2dbc 7d44 1cbd 8623 e1bc 63cb 6b3c
000001e0: e3f2 6bbc 0595 89bd 3b35 7aba f5d8 9ebc
000001f0: 1264 3bbc d5b5 663c 1b75 bdbc 4d41 283d
00000200: 21ed 223c 9a16 24bd 2e74 63bd a62d 42bd
00000210: 534d 913d 60c1 b33c 1bef a9bc 1628 33bd
00000220: 3258 5ebc cb67 293c 7bb9 22bd c080 2e3c
00000230: 2ab5 c03b 75f4 adbd c7ca 3abd 9adc d93c
00000240: 59e7 bcb9 30cb 81bc a1fb 143d ddca 05bd
00000250: 5894 72ba b91b 5f3b 66c1 6bbc 1863 3fba
00000260: 0daa 1d3d 0137 46bc fb34 0fbd f82c 80bc
00000270: 7abf 833b 40d1 2fbc 5264 0ebd b797 f7bb
00000280: 43e6 bebc 03c7 5bbd 0c44 0b3c 4a31 36bd
00000290: f536 0fbd 8ab8 8fbb d921 103d 4b0e fe3b
000002a0: b1bc 773c ad9c 233c c10c e73c bd24 6bbb
000002b0: 2c0e 573b ea47 1c3d 2557 833d 189c bcbc
000002c0: b4b4 1f3d 22b6 48bc 9148 09bc efe9 043d
000002d0: 44f1 c1bc 1150 ac3d ead0 f8bc 20b2 523d
000002e0: 6b8a 1e3c 7866 df3c 7f64 dbbb 0d00 f63c
000002f0: 0688 d43c d4f0 243c a99b 423d aceb f73c
00000300: 664f 8f3c d8a0 7c3d 2a01 cb3b 5146 693a
00000310: 609f 6f3c 0e01 13bc af90 f53c 8915 3fbd
00000320: 7a8b ab3c e298 733c 2364 9bbb febf cfbc
00000330: 5cb9 113d 3294 ddbc cee4 303c b328 1bbd
00000340: 9102 0bbd 60e7 d03b c873 d7bb 1f69 673d
00000350: d629 72bc 4b5b 003d 2a9d 893c 22f0 043c
00000360: 7c56 6d3c c322 10ba e3ab 2fbd 4dd9 0a3d
00000370: 7008 81bc 85a5 dbbc d9e9 c43c 5cca 7c3c
00000380: 3696 cabc f3f2 c33b f781 f5bc ec14 1cbd
00000390: c48a 6b3b ce87 8e3b dcfb b9bc c07c 0cbd
000003a0: 19e3 523d 648b 133d 16cc 333a 01e2 dcbb
000003b0: 96d4 f53c 1c41 0f3d 9b9b 263c f1cf 773c
000003c0: 4389 7dbb fc1b 383d 38b0 a53a b9c7 2b3c
000003d0: 84b2 7e3b 3573 83bb 70f1 69bc e4f2 b3bb
000003e0: c157 353c f51a 08bd 0b2d 593c 9703 4f3b
000003f0: 0caa 113d 8dbb 963d 7609 b63d 879c f33c
-0.017095584 0.05977418 0.044464447 0.007996188 0.07370831 0.039840903 0.02675517 -0.004465542
-0.0072890143 -0.0054741795 0.03707535 0.016103266 -0.02637868 -0.010770283 0.00010898596 -0.0052348827
-0.020634247 0.01673656 0.012675777 0.012770169 -0.042906772 -0.0033006596 0.043929603 0.0151251545
-0.012774201 -0.028060295 -0.04577013 -0.06571954 0.02518947 -0.026339268 0.007501115 0.0054646283
0.01936472 0.014076212 -0.0117575815 0.0140848085 0.006813583 -0.043019988 0.0025038086 0.0037189182
0.013298726 -0.027398309 0.03770101 0.014042579 0.04008631 0.014626427 -0.02298846 0.063990906
-0.010593073 -0.026886607 0.029623728 -0.015415983 0.034082316 0.008043321 -0.014118418 0.0019541213
0.08475331 0.016108803 0.00038947968 0.032679245 0.057620674 0.028132385 0.06311482 0.06767212
-0.033696275 0.06410215 -0.019092264 0.015567183 0.04420185 0.0064126095 -0.03806462 0.037086964
0.00028801605 -0.009238403 0.055281695 0.016645933 0.04602893 -0.03277647 0.005491177 -0.042044822
-0.018260054 0.034832396 0.016371211 0.043832902 -0.026326876 0.024670018 0.014166281 0.02187955
0.030143987 0.009910273 -0.009423899 -0.023126317 -0.011617557 0.025371265 -0.0052681025 0.024539424
-0.003788597 0.030188901 0.049819514 -0.00010169903 -0.02287406 -0.012997038 -0.028054573 -0.06354551
0.020188056 0.033374675 -0.016142141 0.0458723 0.012542668 0.07259059 -0.008459913 0.02845382
0.03187642 0.0019377402 0.0136494525 -0.0010080746 -0.010608133 -0.038151253 -0.02748276 0.014391753
-0.01440117 -0.06717876 -0.0009544675 -0.019390563 -0.011437433 0.014081438 -0.02312713 0.0410779
0.009944231 -0.040060617 -0.05553072 -0.047406815 0.070948265 0.021942794 -0.020743897 -0.0437394
-0.013570832 0.010339688 -0.03972767 0.010650814 0.0058809714 -0.08493892 -0.04560354 0.026594449
-0.00036030522 -0.015843958 0.036372785 -0.03266417 -0.00092536723 0.0034043624 -0.0143893715 -0.0007300838
0.03849225 -0.012098075 -0.034962635 -0.015646443 0.0040206285 -0.010731041 -0.03476364 -0.0075559276
-0.023303157 -0.05365659 0.00850011 -0.0444806 -0.03496452 -0.0043860124 0.03518853 0.0077531687
0.015120671 0.009986085 0.028204324 -0.0035880052 0.0032814844 0.03815452 0.06413106 -0.02302365
0.03899069 -0.012250455 -0.008379118 0.03244966 -0.023674615 0.08413709 -0.030373055 0.051439404
0.009676556 0.02727054 -0.0066953297 0.030029321 0.025943767 0.0100671835 0.04751173 0.030263744
0.017493915 0.06167683 0.006195207 0.00088987226 0.0146254 -0.008972419 0.029976217 -0.046651397
0.020940531 0.014867993 -0.004742162 -0.025360104 0.035577163 -0.027048204 0.010796739 -0.03788061
-0.033937994 0.0063752383 -0.0065750815 0.056496736 -0.014780482 0.031337064 0.016798574 0.008113893
0.0144859515 -0.0005498344 -0.042888533 0.03389864 -0.015751094 -0.026812324 0.024037289 0.015429106
-0.02472983 0.0059798895 -0.029969199 -0.03810589 0.0035940865 0.0043496853 -0.022703104 -0.03429866
0.05148611 0.036021605 0.0006858719 -0.006740809 0.030008595 0.034974203 0.010168935 0.015125261
-0.003868655 0.044948563 0.0012641018 0.010484629 0.0038863728 -0.0040115365 -0.014278755 -0.0054916013
0.011068285 -0.033228833 0.013255368 0.0031587833 0.03556256 0.07359991 0.08888523 0.029737724

bias f4 [64]
00000000: f1a8 ebbc ce9f 0d3a c870 1ebd abe7 b0bc
00000010: 6f66 243c 958c b93c 9fcf 1dbb 2b18 0abd
00000020: c8c6 323c b207 65bd ae40 6c3b 3138 0b3b
00000030: 0470 a03b ecd3 313d 194c 2fbc a8c3 94bb
00000040: 2602 a33c 5876 0a3d b87d 96bd c33f 91bb
00000050: bb0d 25bb 80c6 8dbc f9eb 36bc b4e8 523d
00000060: 7d06 703c 071d 423d 9382 8c3c 31f0 1e3d
00000070: a9e0 613d f87b 043d 9918 3bbc 69a0 0c3c
00000080: 5e6d 33bd 9288 363d 708b ec3b cd42 f6bb
00000090: 8db5 35bc f8c6 e53c 3319 46bd 31e0 b7bb
000000a0: 4c2f 5abd 96be 74bc 67e7 22bc 8e59 c23c
000000b0: cca8 883b 3b00 9abb a2ba 453d 16bf 13bd
000000c0: fac5 983d 8793 8d3c dd39 f7bb 151b dcbc
000000d0: ac4d 34bd 6a55 603a cbbe f1bb 791d 313c
000000e0: fd71 873d dba4 95bc 284a debb f760 b43c
000000f0: e0b0 84bd f625 87ba 36c6 403c c673 66bd
-0.028767081 0.0005402536 -0.038681775 -0.021594843 0.010034188 0.022650043 -0.002408005 -0.033714455
0.010911651 -0.055915542 0.0036049294 0.002124321 0.004896166 0.043414995 -0.010699295 -0.0045399256
0.019898485 0.033804268 -0.07348198 -0.00443265 -0.0025185186 -0.017306566 -0.011164659 0.051491454
0.014649984 0.047390964 0.017152106 0.038803283 0.055145893 0.03234479 -0.011419439 0.008583167
-0.043805473 0.044563837 0.0072187707 -0.0075152875 -0.011090648 0.028048977 -0.048363876 -0.0056114425
-0.053267762 -0.014938017 -0.009942866 0.023724344 0.004170513 -0.0046997345 0.04827369 -0.036070906
0.07459636 0.01728226 -0.0075447396 -0.026868382 -0.044019386 0.00085576496 -0.0073774806 0.0108102495
0.066135384 -0.018267086 -0.0067837425 0.022018893 -0.06479049 -0.0010310996 0.011766007 -0.056262754

weight f4 [10, 64]
00000000: 64f6 b13d 3531 443d 3ae8 1a3e 86db 74be
00000010: fd8d 4cbe 30d3 403e c6e8 a1be 591d b13e
00000020: 132b dfbd 7612 d73c 9668 14be 61c0 803d
00000030: 5ddc cebb d552 f5bd c4ff 05bd b2cb 47bd
00000040: 82a5 163d b39f 99be 744a 153d 3c3f 6e3d
00000050: c1b3 453a b4a2 c5bd 985f 13bd c595 8b3d
00000060: 728b 01bc ef0c 43be 08ac fdbd f29b 3a3e
00000070: c1c3 9cbe 5a0c 4bbe d312 5cbd 4224 6b3c
00000080: d6c6 c9bd e574 0a3e 09c1 18bc 570c ba3e
00000090: e4b0 4e3e 27b1 053e 21cf 733d 5f7a b9be
000000a0: 8f9b 523e 6a09 dcbd 8886 28be 0462 26be
000000b0: 7eac a43d a385 ce3d 9bf8 34be ba4b 11be
000000c0: 49e3 9fbe 6db6 80bc b021 263e ef68 563e
000000d0: 78e7 40be 34e0 d4bd 862e b7ba 761b 113d
000000e0: 18b8 85bd d73d 953a 4ae2 8dbd c3bc edbd
000000f0: d08c 293e dd22 92be 50f8 013e de67 9b3e
00000100: 9d49 833e 399a 59be e4fe 75be 15f1 843e
00000110: eec4 61bd 141a 11be 83e2 d2bd f0e8 cb3d
00000120: 3917 423e b3d7 13be 7898 b5bd e673 04be
00000130: 6166 513c 7739 81be d135 14be d003 8ebd
00000140: 5644 c33b 632d 88be 6163 8d3d a3a3 393e
00000150: f89c 35be 01f0 bd3e f6e9 f73d 8a73 563e
00000160: a428 9c3e 87db 363d 0584 5f3e 5ec0 1ebe
00000170: 95b2 59be 6da8 223e a81d 3fbd 6ffc 643d
00000180: eff2 f4bd 2785 8dbe d63b f2bd f11a b0be
00000190: efaa bc3d e5ed 7f3e 933e 67be 3b70 62be
000001a0: befc 2abe 1f7d 5e3e a1e7 883e 1e2f 4c3e
000001b0: 1afb 8fbe 0587 483b 88e1 90bd 657d 523d
000001c0: 9255 6cbe 13cf 93bd 6d39 713c 9cef 83be
000001d0: b026 1bbe e835 ae3e 8812 753e fa38 933e
000001e0: 9d3f a2be 7be3 38be 35ea a23e 23d5 9fbd
000001f0: 6a47 57bd 05a5 20bc fa64 643e ff0d 73be
00000200: 0882 6abe ae04 d53c ec08 c5bc 6fc7 13be
00000210: 708c 7bbe f949 b33e 379f bc3d 332a 403e
00000220: f717 b3bd 2d8b 043d 1546 fb3c 1a4d 5ebc
00000230: 1d58 30be f36c 143c deee ac3d d7fb 8d3e
00000240: b7f7 a9bd 8320 d3bd c014 823e 40d3 95be
00000250: d440 a03d beba 54bc eb35 ca3b 0897 a7bd
00000260: 3786 aa3d 0753 4abe 1c3a 90be 3095 9bbe
00000270: eef6 e63b f483 db3d 6b56 d8bc 7103 053d
00000280: 3ac8 37be de15 b2bd 3cb6 a3bb b77f aa3e
00000290: 1985 68be 76fc 593d dc1a 4fbc 1b84 923e
000002a0: 1327 843e 2ba2 87be 70d8 6f3e 509e 263e
000002b0: 5ee6 893e 1522 ebbc bfdf 72bd 7c71 28be
000002c0: b8d4 983c 894e dbbd bcb8 3bbd 8f9f b7bd
000002d0: 5da2 27be fa62 11be 480c 2e3e d690 89be
000002e0: 9f8b 8a3e 9f05 62bd 053b 13be 33e0 0ebd
000002f0: 3405 e9bd 2d0d 5b3e 46b1 cf3d a64a 1cbe
00000300: 6c0e 6b3e 4030 393d 7a6f 483e c918 c73d
00000310: 8682 4b3e dbe3 6e3d 912d 853e 6e40 dcbc
00000320: e9f4 a63d 963f d23d b5db b73d ee5a 2cbe
00000330: 0351 0b3e d8df ee3d f227 023e d574 bcbd
00000340: e7d0 1cbe ba82 6c3d 54b6 893d ff6c 7d3e
00000350: dd9d 37be fa66 8bbe c052 9e3c 6512 6bbe
00000360: 9ae2 293e fbec 223b eaa3 38be 589b 663e
00000370: 9147 923c 6221 a5bc 57c3 cbbd 3b10 003e
00000380: 983e 25be c056 fd3d 8a98 cabd 2c27 51be
00000390: 2b3c f0bd 436d cbbd 39f8 a73c d326 58bc
000003a0: 0c33 2f3d e42b 8b3b 5c61 32be 4039 e93d
000003b0: 0edd c63c c337 45ba e223 cdbd c30f 26be
000003c0: 78f7 b63d 761b e33d b238 55be 0b5f fbbd
000003d0: 08e3 003e 1eb3 62bd 6b7e 763d 7f5e 4bbe
000003e0: 9148 0a3e 6f98 30be 6616 65be 2b68 0ebe
000003f0: 790c abbd edb9 033e 32a2 bdbd ca0f eb3c
0.086895734 0.04789849 0.1512765 -0.23911867 -0.19976039 0.18830562 -0.31622905 0.34592703
-0.10896888 0.02625392 -0.14493021 0.06286693 -0.0063128904 -0.119786896 -0.03271462 -0.048778243
0.036778934 -0.30004653 0.036447957 0.058165774 0.0007541739 -0.09650174 -0.035979837 0.06815676
-0.0079067815 -0.19047903 -0.12386328 0.18223551 -0.30618098 -0.1982893 -0.05372889 0.014351906
-0.09852378 0.13521154 -0.009323367 0.3633754 0.20184666 0.1305586 0.059523705 -0.36226174
0.20567153 -0.10743983 -0.1645757 -0.16248327 0.08040713 0.10084083 -0.1767296 -0.14189044
-0.31228092 -0.015711987 0.16223788 0.20938466 -0.18838298 -0.10394326 -0.0013975657 0.03542658
-0.06529254 0.0011386228 -0.06927927 -0.11608269 0.16557622 -0.28542224 0.1269238 0.30352682
0.256421 -0.21250238 -0.24023014 0.2596518 -0.055119447 -0.14170104 -0.1029711 0.09956539
0.18954171 -0.14437751 -0.08866972 -0.12934837 0.012780757 -0.25239155 -0.14473654 -0.06934321
0.005959074 -0.26597127 0.06903721 0.18128829 -0.1773566 0.3709717 0.121051714 0.20942512
0.30499756 0.04464295 0.21827705 -0.1550307 -0.2125953 0.15884562 -0.04665914 0.055904802
-0.119603984 -0.2764065 -0.11827819 -0.34395555 0.092122905 0.24993093 -0.22582464 -0.22113125
-0.16697976 0.21727417 0.2673922 0.19939849 -0.28121263 0.0030598056 -0.07074267 0.051389117
-0.23079517 -0.07217231 0.014723164 -0.25768745 -0.15151477 0.34025502 0.2393285 0.28754407
-0.31689158 -0.18055527 0.3181931 -0.078043245 -0.05255834 -0.009804969 0.22304145 -0.23735808
-0.22901165 0.026003208 -0.024052106 -0.14431547 -0.24565291 0.35017374 0.09210055 0.18766098
-0.08744805 0.03235929 0.030673066 -0.013568187 -0.17221113 0.009059179 0.08443998 0.277312
-0.08299201 -0.103089355 0.25406456 -0.29262733 0.07824865 -0.012983976 0.0061709783 -0.08183104
0.08326381 -0.19758235 -0.28169334 -0.3038726 0.0070484793 0.107185274 -0.026408395 0.032473985
-0.17947474 -0.08695577 -0.0049960893 0.33300564 -0.22707023 0.05321928 -0.012640681 0.28616413
0.2581106 -0.26490912 0.23422408 0.16271329 0.2693357 -0.028702775 -0.059295412 -0.16449541
0.01865612 -0.10708339 -0.045830473 -0.0896598 -0.1637053 -0.14197913 0.16996872 -0.26868314
0.27059647 -0.055181142 -0.14377983 -0.03488178 -0.113779455 0.21391745 0.10141234 -0.15262851
0.2295472 0.04521203 0.19573775 0.09721524 0.1987401 0.05832277 0.26011327 -0.026886191
0.08152182 0.10266034 0.08977453 -0.16831562 0.13605122 0.116637886 0.1271055 -0.092019714
-0.15314065 0.057741858 0.067242295 0.2474861 -0.17931314 -0.27227002 0.019326568 -0.22956236
0.16590348 0.002486049 -0.18031278 0.22520196 0.017856391 -0.02015752 -0.099493675 0.12506191
-0.16137159 0.12370062 -0.09892376 -0.20425099 -0.11730226 -0.099329494 0.020504104 -0.01319285
0.04277329 0.0042471755 -0.17419952 0.11387873 0.024275329 -0.0007523263 -0.1001661 -0.1621695
0.0893392 0.11089222 -0.20822409 -0.122739874 0.12586606 -0.0553466 0.060179155 -0.19860266
0.13504244 -0.17245649 -0.22371826 -0.13906924 -0.08351988 0.12863894 -0.09259452 0.028694052

bias f4 [10]
00000000: a0c4 67be a202 97bd 48cf de3d bbd2 ce3d
00000010: 7fa0 373e c646 24be 5e90 173e 3cd3 853d
00000020: 0700 c6bd 2d20 033d
-0.226336 -0.07373549 0.108793795 0.100987874 0.17932318 -0.16042623 0.14801165 0.065344304
-0.09667974 0.032013107
