Pytorch/model_data/CIFAR10_EPOCH1.pth (torch, 588827 bytes, 10 tensors)

weight f4 [32, 3, 5, 5]
0	0x3d0e69d2	0.034768887
1	0xbb78af87	-0.003794642
2	0xbd2118d7	-0.03933033
3	0xbda13201	-0.078708656
4	0x3d2d21b9	0.04226849
5	0xbdbbe9e9	-0.09175474
6	0xbd9cf0e5	-0.076631345
7	0x3dd49212	0.10379423
8	0xbcc2eaf2	-0.023793671
9	0x3c32192b	0.010870258
10	0xbdc72045	-0.09722952
11	0xbc3bae73	-0.011455166
12	0x3de367ef	0.11103808
13	0x3d9f1179	0.077670045
14	0xbdab15a5	-0.08353738
15	0x3da8316e	0.08212553
16	0xbda2664c	-0.07929668
17	0x3d19c7c4	0.037544027
18	0x3dcde97b	0.100542985
19	0xbd8f3116	-0.06991784
20	0x3d17c2e2	0.03705109
21	0xbcc6ba51	-0.024258764
22	0x3db55a54	0.08855119
23	0x3d8308a7	0.06398135
24	0xbdbdf61d	-0.09275458
25	0xbda2a3fe	-0.07941435
26	0x3d766629	0.06015602
27	0x3dbc3a32	0.091907874
28	0xbd0ffec8	-0.035155088
29	0xbdd4352f	-0.103617065
30	0xbcf116bd	-0.029429788
31	0x3dd241f9	0.102664895
32	0xbdfe5c60	-0.12419963
33	0x3d5a622e	0.053316288
34	0xbdc10f33	-0.09426727
35	0xbce74e5f	-0.028235612
36	0xbce95117	-0.02848105
37	0xbae45890	-0.0017421413
38	0x3d3f6995	0.04673155
39	0x3dc8e14d	0.09808598
40	0x3cc36310	0.023850948
41	0xbddb3dba	-0.10705133
42	0xbd834832	-0.064102545
43	0x3d8ec117	0.06970423
44	0x3d384137	0.04498407
45	0x3c249674	0.010045636
46	0x3dc3e534	0.095652014
47	0x3dd974db	0.106179915
48	0x3db18165	0.08667258
49	0x3d3dcf11	0.046340052
50	0xbcc518f7	-0.024059756
51	0xbd0aea4c	-0.03391485
52	0xbdec1c8e	-0.11528884
53	0xbca030cb	-0.019554516
54	0xbde9dbc7	-0.11418872
55	0x3c780e6c	0.015140157
56	0x3d89ba20	0.06724954
57	0xbd01be7b	-0.031675797
58	0x3d8528e0	0.06501937
59	0xbda3dad0	-0.080007195
60	0x3d801f74	0.06255999
61	0x3d8c99a6	0.068652436
62	0xbd1b388e	-0.03789573
63	0x3d6577b6	0.05602237
64	0xbd9b0414	-0.07569137
65	0xbc962d3e	-0.01833212
66	0x3d328314	0.043582037
67	0x3dc3989b	0.095505916
68	0xbd9374fd	-0.07200048
69	0xbdd31b5a	-0.10307951
70	0x3d31e93a	0.043435313
71	0x3ce29690	0.027659684
72	0x3dcfb448	0.10141808
73	0x3dd57e0a	0.10424431
74	0x3dd2deea	0.10296424
75	0x3d809c41	0.06279803
76	0x3d7f2dbb	0.06229947
77	0x3dafdf62	0.08587529
78	0x3da6e9a7	0.081500344
79	0x3d0b0c85	0.033947486
80	0xbd6a5606	-0.057210945
81	0x3d7ca06f	0.06167644
82	0x3d08e661	0.03342283
83	0xbd93a34f	-0.07208883
84	0xbd82262b	-0.06354936
85	0x3de574ed	0.112039424
86	0xbde649a6	-0.11244516
87	0x3d462357	0.048373546
88	0xbdedc5e5	-0.11610011
89	0x3dafa5de	0.085765585
90	0x3d30c441	0.043155912
91	0x3cb81fb7	0.02247606
92	0xbcadd7fe	-0.021221157
93	0x3dcfcf2a	0.10146935
94	0xbd6bb7b4	-0.05754824
95	0x3d455da1	0.048184995
96	0x3cea58a4	0.02860672
97	0xbc271b5d	-0.010199395
98	0x3dbb77de	0.09153722
99	0x3cbd02c6	0.023072612
100	0x3d0f69cb	0.035013
101	0x3d5c744d	0.05382185
102	0x3c6ada33	0.014334249
103	0x3d6aa949	0.05729035
104	0xbdf1caf9	-0.11806292
105	0x3d8c9a40	0.06865358
106	0x3bf51429	0.00747921
107	0x3d1c50f4	0.03816314
108	0xbde3c38b	-0.11121281
109	0xbdfdbb04	-0.12389186
110	0xbd969b4b	-0.073538385
111	0xbdd0e2d4	-0.10199514
112	0xbc8918a3	-0.01673538
113	0x3d8057c2	0.062667385
114	0xbdf432c2	-0.11923744
115	0x3b135aa6	0.002248445
116	0x3cae5958	0.021282837
117	0xbcc99aca	-0.024609942
118	0xbcff33ea	-0.031152684
119	0x3b9b09f8	0.004731413
120	0xbc508f17	-0.012729428
121	0x3d588be5	0.05286779
122	0x3d6b27d9	0.05741105
123	0xbb474de3	-0.0030411414
124	0xbd0624ec	-0.032750055
125	0xbc990d31	-0.018683048
126	0x3ce9359e	0.02846795
127	0x3dc101b7	0.09424155
128	0xbd9933c9	-0.0748058
129	0x3d83f4ef	0.06443202
130	0x389b75bb	7.412905e-05
131	0xbcd868cf	-0.026417164
132	0xbd8e97db	-0.06962558
133	0xbda2c2d4	-0.07947317
134	0x3dcdc340	0.100470066
135	0x3cde908b	0.027168533
136	0x3d26333e	0.040576212
137	0xbadc56e8	-0.0016810568
138	0x3d23ba2f	0.03997248
139	0x3d7c10c0	0.06153941
140	0xbca55826	-0.020183634
141	0xbd1da961	-0.03849161
142	0x3da30397	0.07959669
143	0x3d00954a	0.031392373
144	0x3d233e54	0.039854363
145	0xbd4e5a9b	-0.050379377
146	0xbd9957fb	-0.07487484
147	0x3da8d099	0.08242912
148	0xbdc02bb3	-0.09383335
149	0x3cbf1680	0.023326159
150	0x3dc65a37	0.09685176
151	0x3d28a32b	0.041171234
152	0xbdafc884	-0.08583167
153	0x3c6e9f45	0.01456434
154	0xbdbf346f	-0.09336173
155	0x3a4b3d60	0.0007752981
156	0x3da892b8	0.082311094
157	0xbde9bdba	-0.114131406
158	0xbdc6030f	-0.09668552
159	0xbd87d487	-0.06632333
160	0xbd97f4c3	-0.074197315
161	0x3db9b1b2	0.09067096
162	0x3d291ac6	0.0412853
163	0xbd0514d8	-0.03249058
164	0x3c26389a	0.010145331
165	0xbddbf5d8	-0.1074025
166	0xbd65e5c0	-0.05612731
167	0xbd978893	-0.07399096
168	0xbccefa91	-0.025265964
169	0xbda15a34	-0.07878533
170	0x3da756dd	0.08170865
171	0xbdd8bc75	-0.1058282
172	0xbdc846c5	-0.09779123
173	0xbd8ae48a	-0.067818716
174	0xbdc23634	-0.09482995
175	0xbd3d237b	-0.046176415
176	0xbdff1a36	-0.12456171
177	0x3d018811	0.031623904
178	0x3cc2e974	0.02379296
179	0x3cbad037	0.022804363
180	0x3c99986a	0.018749435
181	0xbd366fb6	-0.04454013
182	0x3b51082e	0.0031895745
183	0x3c90f136	0.017693143
184	0xbdeec2e4	-0.11658266
185	0xbc85c470	-0.01632902
186	0xbdad97dc	-0.084762305
187	0x3c39b23d	0.011333999
188	0x3d543d34	0.05181618
189	0xbd94dd8c	-0.07268819
190	0xbdf47447	-0.11936241
191	0x3da4a1f8	0.080387056
192	0x3d4a73f1	0.049426977
193	0x3c4a7be0	0.012358636
194	0xbd55030f	-0.05200487
195	0x3d4d5a63	0.050135028
196	0xbd97579a	-0.073897555
197	0xbe093371	-0.1339853
198	0xbd956877	-0.07295316
199	0xbdaf454a	-0.08558138
200	0xbda2acdb	-0.07943126
201	0x3bc07c29	0.005874176
202	0x3dd5a389	0.104315825
203	0x3d18c561	0.03729761
204	0x3ddef7ba	0.10887094
205	0xbd1ff03f	-0.039047476
206	0x3d11f10b	0.035630267
207	0x3dd3036e	0.103033885
208	0xbd6199b4	-0.055078223
209	0x3e0d3e91	0.13793398
210	0x3da7c730	0.08192289
211	0x3d80fe77	0.06298535
212	0x3b873bf3	0.0041270196
213	0x3e144ab0	0.14481616
214	0x3e0c2d39	0.13689126
215	0x3cf7e35a	0.030259777
216	0x3e00b3fa	0.12568656
217	0x3e1038a3	0.14084105
218	0x3d941368	0.07230264
219	0x3da1f8dc	0.07908794
220	0x3dafa0dc	0.08575603
221	0x3d4add5a	0.049527504
222	0xbd894574	-0.067027
223	0x3dcb5733	0.09928741
224	0x3dc12d1c	0.09432432
225	0x3dc5f63e	0.096661076
226	0x3d636bb9	0.055522654
227	0x3ca30a01	0.019902231
228	0x3cea7793	0.02862147
229	0xbd167b07	-0.03673842
230	0x3d6f184e	0.058372788
231	0xbca7dff8	-0.020492539
232	0x3d89f351	0.06735862
233	0x3d684358	0.05670485
234	0x3d59178a	0.053000964
235	0x3db5a18c	0.08868703
236	0xbd860dc6	-0.06545596
237	0x3b9fb4e0	0.004873857
238	0xbd1ad590	-0.037801325
239	0x3dea5a91	0.114430554
240	0x3d5b5d7f	0.05355596
241	0x3d504d23	0.050854813
242	0x3d793226	0.06083884
243	0x3dd1eb8b	0.102500044
244	0x3d0276bd	0.03185152
245	0xba39831d	-0.00070767273
246	0xbdaaa705	-0.08332638
247	0xbdbbc15d	-0.091677405
248	0x3dba9fa8	0.09112483
249	0xbbfa0136	-0.007629539
250	0x3beb5470	0.0071816966
251	0x3d680295	0.056643087
252	0xbd363543	-0.044484388
253	0x3dac58dd	0.08415387
254	0xbd0fd119	-0.03511152
255	0xbc29a20f	-0.010353579

bias f4 [32]
0	0xbda96f90	-0.08273232
1	0x3d48de11	0.049039904
2	0x3d2137f5	0.039360005
3	0x3d626cb0	0.055279434
4	0xbd879f4b	-0.066221796
5	0x3e17e641	0.14833929
6	0xbe4a2e48	-0.19744217
7	0xbde7322a	-0.11288865
8	0xbdcd720c	-0.10031518
9	0x3d7779f2	0.06041903
10	0x3e030cf3	0.12797908
11	0xbbd3ecf6	-0.006467457
12	0xbd01b6c7	-0.03166845
13	0x3aab3587	0.0013062217
14	0xbc15c8e1	-0.009142132
15	0xbd00e323	-0.031466614
16	0x3c3aa27a	0.0113912765
17	0xbe3da670	-0.18520522
18	0xbdb73bc0	-0.08946943
19	0xbc96bbb8	-0.018400058
20	0x3c11e51d	0.0089047225
21	0x3c0f0f25	0.008731638
22	0x3d96a89f	0.07356381
23	0xbbc59103	-0.0060292496
24	0xbe062e50	-0.13103604
25	0xbb8288e1	-0.0039836024
26	0xbd598ed6	-0.053114735
27	0x3d8ebcb8	0.06969589
28	0xbe121307	-0.14265071
29	0x3d662479	0.056187127
30	0xbd97bf41	-0.07409526
31	0x3d9e5fa9	0.077330895

weight f4 [32, 32, 5, 5]
0	0x3b3e6b25	0.0029055562
1	0xbbcc36a3	-0.006232099
2	0xbb4cd149	-0.0031252673
3	0xbc3c071c	-0.011476304
4	0xbce32d4a	-0.027731556
5	0x3cecf3d0	0.028924853
6	0xbbb8b1b8	-0.00563642
7	0x3cae564c	0.021281384
8	0x3c8f7881	0.017513515
9	0x3c928362	0.017884914
10	0xba0c015e	-0.000534078
11	0xbc82da11	-0.015973123
12	0xbce1f00b	-0.027580282
13	0x3b84dc71	0.004054599
14	0x3d160f21	0.03663552
15	0xbcac4d2b	-0.02103289
16	0x3a6e7acb	0.0009097277
17	0xbcdad247	-0.026711596
18	0xbc346274	-0.011009801
19	0xbc61ac8f	-0.013774051
20	0x3ce9e3ef	0.02855107
21	0x3ce2db8c	0.027692579
22	0x3cf57956	0.029965084
23	0x3cce7c71	0.025205823
24	0x3c66eda3	0.014094743
25	0xbcfb9f4b	-0.030715605
26	0x3c9d59be	0.019207831
27	0xbc7f5ff5	-0.015586843
28	0x3cf7c85d	0.030246908
29	0x3b24bf54	0.0025138455
30	0xbcd717e0	-0.026256502
31	0x3c79db10	0.0152499825
32	0x3bfc7516	0.0077043874
33	0x3c02a5b1	0.007974074
34	0xbcc90c9f	-0.024542151
35	0x3d0fbd9f	0.035092946
36	0xbc8272c8	-0.015923873
37	0x3c8598d8	0.016308233
38	0x3c3050e6	0.010761475
39	0x3cdea174	0.027176596
40	0x3c4f390c	0.012647878
41	0x3d150d0c	0.036389396
42	0xbcada6f2	-0.02119777
43	0xbb801517	-0.003908764
44	0x3c9cd6a2	0.019145314
45	0xbbcf57d8	-0.0063276105
46	0x3cf34c8d	0.029699588
47	0x3cd5d828	0.026104048
48	0x3d05ee91	0.032698218
49	0xbcd56977	-0.026051266
50	0x3cbd47c0	0.023105502
51	0x3cf1f742	0.029536847
52	0xbc46b1a4	-0.012127314
53	0x3bcf71b0	0.0063306913
54	0x3cbe691a	0.023243476
55	0x3ccef112	0.025261436
56	0x3c18a681	0.009317041
57	0xbc95dff4	-0.018295266
58	0x3ce0fdb5	0.027464727
59	0x3cecac81	0.02889085
60	0xbce82ab1	-0.02834067
61	0x39fd0733	0.00048261284
62	0x3cfea15f	0.031082807
63	0x3cfab5f9	0.03060435
64	0xbc0c5cf7	-0.008567086
65	0x3ccb56e3	0.024821704
66	0x3c664ebd	0.014056859
67	0xbd021790	-0.031760752
68	0x3c726072	0.014793502
69	0x3c806694	0.015673913
70	0xbc99fec8	-0.018798247
71	0x3cf1952b	0.029490074
72	0x3ad2398e	0.0016038881
73	0xb9da60d4	-0.00041652343
74	0x3d006506	0.031346343
75	0x3bc166ea	0.005902161
76	0x3ce98640	0.028506398
77	0xbc18a172	-0.009315835
78	0x3c7ecc45	0.015551631
79	0xbc1b05ea	-0.009461859
80	0x3ceb4be4	0.02872271
81	0x3a86ea69	0.0010293248
82	0x3c073d46	0.008254355
83	0x3c21a43a	0.009865815
84	0x3c89dff9	0.016830431
85	0x3bfc1e9e	0.0076940795
86	0x3b471520	0.0030377582
87	0x3d26031e	0.040530317
88	0x3c8e4fa0	0.017371953
89	0x3ba4591f	0.005015507
90	0xbc5f2006	-0.013618475
91	0x3d09d7fb	0.03365324
92	0x3cfd55d8	0.030924723
93	0x3c16666e	0.009179695
94	0x3bedda5d	0.007258697
95	0x3bbee857	0.005826037
96	0x3ce96bde	0.028493818
97	0xbc8fae11	-0.017539056
98	0x3b9e7f8d	0.0048369826
99	0x3cf4586c	0.02982732
100	0x3c5f1377	0.013615481
101	0xbcceb850	-0.025234371
102	0xbd07cd82	-0.033154972
103	0xbbf77a7c	-0.007552443
104	0xbc81e783	-0.015857464
105	0xbc77696a	-0.015100816
106	0xbb5252db	-0.0032092843
107	0x3b8b40f2	0.0042496854
108	0xbd1c71d7	-0.038194504
109	0x3b807c20	0.003921047
110	0x3aa7b332	0.0012794493
111	0xbc97a324	-0.018510409
112	0xbcc8c8c6	-0.024509799
113	0x3ba9688b	0.005169933
114	0x3bae1b58	0.005313318
115	0xbcfbb7ae	-0.030727234
116	0x3ca9d3c1	0.020730855
117	0x3c9007eb	0.0175819
118	0x3b9de236	0.004818226
119	0xbc70cff4	-0.014698017
120	0x3ba40241	0.0050051515
121	0x3c8c3aaa	0.017117817
122	0x3ce99552	0.028513584
123	0xbc932db9	-0.017966138
124	0xba1c5602	-0.0005963744
125	0x3b40c0b6	0.002941174
126	0xbc357109	-0.011074313
127	0x3c8807a1	0.0166052
128	0x3ced60ec	0.02897688
129	0xbd0aa4f5	-0.03384872
130	0x3bee7cf3	0.0072780787
131	0x39d08b52	0.00039776653
132	0x3cad250d	0.021135831
133	0x3c1d129d	0.009586957
134	0xbbef01da	-0.007293922
135	0xbd012a13	-0.031534266
136	0x3c879827	0.016552044
137	0xbcb17bd5	-0.021665493
138	0xbc85c376	-0.016328555
139	0xbcab5aa4	-0.020917244
140	0x3ccfa5b1	0.025347563
141	0xbc1f8ee0	-0.009738654
142	0xbd22aa79	-0.039713357
143	0xbd1f96d3	-0.038962197
144	0x3c207153	0.009792644
145	0x3a9ddeb3	0.0012044519
146	0xbcf26ded	-0.029593432
147	0x3a58f32d	0.0008275982
148	0x3d0581ba	0.03259442
149	0xbcb9ed14	-0.022696055
150	0xb97ec9d8	-0.0002429852
151	0x3cf148cd	0.02945366
152	0x3a635425	0.00086719013
153	0xbca4d55e	-0.020121273
154	0x3cc68cc4	0.024237044
155	0x3c363f41	0.011123479
156	0x3d12197f	0.035668846
157	0x3d0ddb2b	0.034632843
158	0xbc30021b	-0.0107426895
159	0x3c867817	0.016414685
160	0x3ca96e11	0.020682367
161	0x3cef7aae	0.029233303
162	0x3c75ca39	0.015001827
163	0x3cc869ee	0.024464574
164	0x3be227d2	0.0069017196
165	0x3cbe687f	0.023243187
166	0xbcaa82e4	-0.020814367
167	0x3c749f09	0.014930495
168	0xbc4fcb43	-0.012682739
169	0xbc2ce8fb	-0.010553594
170	0xbbb1ce09	-0.0054261726
171	0x3d12c59b	0.035832983
172	0x3d04e269	0.032442484
173	0xbcb8c19c	-0.022553258
174	0x3d1fa426	0.038974904
175	0xbc8392e7	-0.01606126
176	0xbcd7d049	-0.026344435
177	0xbc61afba	-0.013774807
178	0x3d0ca10a	0.034333266
179	0xbd0e3c3c	-0.034725413
180	0xbb9fb835	-0.004874254
181	0x3c247bfc	0.010039326
182	0x3b84d9e7	0.0040542963
183	0x3cc69196	0.024239343
184	0xbcf5d49d	-0.030008608
185	0x3b0d4582	0.0021556322
186	0xbc4cdc4c	-0.012503695
187	0x3cecc5e1	0.02890295
188	0x3c8257d4	0.01591102
189	0x3d1e0232	0.038576312
190	0x3cc56d13	0.024099862
191	0xbc5c9e5a	-0.013465488
192	0x3c8ff82a	0.017574389
193	0x3d175b4d	0.036952306
194	0x3cdcabe0	0.026937425
195	0x3d06a79f	0.0328747
196	0x3d274daf	0.04084557
197	0x3c9bda3e	0.019024964
198	0x3d070fdb	0.032974105
199	0x3d207aef	0.03917974
200	0x3bee704e	0.0072765714
201	0x3cc73b82	0.024320368
202	0x39d4c1b6	0.00040580117
203	0xbd0c3657	-0.03423151
204	0xbc362f88	-0.011119731
205	0x3c5e9aac	0.013586681
206	0x3c2dcce7	0.010607935
207	0xbc3ff49c	-0.011716034
208	0xbd16020d	-0.03662305
209	0x3c35e113	0.011101025
210	0x3ca55a6e	0.020184722
211	0x3ce773aa	0.028253395
212	0x3b8c694d	0.004285014
213	0xbcf0ad87	-0.02937962
214	0xbcdb712b	-0.026787361
215	0xbc292fb5	-0.010326316
216	0x3cdc4d52	0.026892338
217	0xbcda78e4	-0.026668973
218	0x3d141847	0.036155965
219	0xbcdf5670	-0.027262896
220	0xbd0469fa	-0.03232763
221	0x3d1c4750	0.038153946
222	0x3c3ffabe	0.011717496
223	0x3ba2847d	0.0049596415
224	0x3bbbfbc8	0.005736802
225	0x3ce3bcef	0.027800051
226	0x3ac16e3d	0.0014757585
227	0xbcd971e5	-0.026543567
228	0xbcd38a6d	-0.025822842
229	0x3ccf329f	0.025292693
230	0x3cd9b959	0.026577638
231	0x3b82a64a	0.0039871084
232	0x3c969eda	0.018386293
233	0xbc927426	-0.01787765
234	0xbc847062	-0.01616687
235	0xbc61a15d	-0.013771382
236	0x3cf3beef	0.02975413
237	0x3b8db7c6	0.004324886
238	0x3a91e57b	0.0011131013
239	0x3cdf6b0b	0.027272722
240	0xbd0592f4	-0.03261085
241	0xbb916c9a	-0.004437995
242	0xbce4abdd	-0.027913982
243	0x3cabbed2	0.020965014
244	0x3c95e577	0.018297894
245	0x3c8d7c30	0.017271131
246	0xbc3af128	-0.011410035
247	0xbc126897	-0.008936069
248	0x3d132b54	0.035929993
249	0x3cbfeaf5	0.023427466
250	0xbbbcb947	-0.0057593915
251	0xbc5d7de2	-0.013518782
252	0xbc89ec90	-0.016836435
253	0xbb8d2fef	-0.0043086926
254	0xbd1242a9	-0.035708103
255	0x3d02935b	0.03187881

bias f4 [32]
0	0x3c52b8f5	0.01286148
1	0x3c58c9f0	0.013231739
2	0xbd70750c	-0.058705375
3	0xbcca5bde	-0.024702009
4	0xbb2c279f	-0.0026268733
5	0xbc94e961	-0.01817769
6	0x3c5c5dc9	0.0134500945
7	0x3c5dfbd7	0.013548813
8	0xbcc230a1	-0.023704829
9	0x3cabb1c9	0.020958798
10	0xbd5cd4f8	-0.05391404
11	0xbc81d9a7	-0.015850855
12	0x3d1c32af	0.038134273
13	0xbc523d50	-0.012832001
14	0xbd170e26	-0.036878727
15	0x3baf29b0	0.0053455457
16	0x3d23a5d0	0.039953053
17	0x3cb3e8b3	0.021961546
18	0xbd21eefe	-0.03953456
19	0xbcfd0ef1	-0.030890914
20	0x3c6feb07	0.014643437
21	0x3bf724e2	0.0075422386
22	0xbcaa2f12	-0.020774398
23	0x3a888d3f	0.0010418071
24	0xbc68f7e6	-0.01421926
25	0xbbe0a7c5	-0.006855937
26	0xbb17a64d	-0.0023139894
27	0x3b622e1a	0.0034512342
28	0xba171d81	-0.00057645893
29	0xbc059767	-0.008153773
30	0xbc8df87c	-0.0173304
31	0x3ba892ab	0.0051444373

weight f4 [64, 32, 5, 5]
0	0x3b88568c	0.004160708
1	0x3d154fe0	0.036453128
2	0x3ba8879f	0.0051431204
3	0xbbc31320	-0.0059532076
4	0x3c0a6cc6	0.008448785
5	0x3b36e37d	0.002790659
6	0x3ca6434e	0.020295765
7	0xbb2bcdb0	-0.0026215129
8	0xbc9e5f15	-0.019332448
9	0x3c11e721	0.008905203
10	0xbc3b8ade	-0.011446683
11	0x3c34ce48	0.011035509
12	0x3cb3583d	0.021892661
13	0xbcbcbf52	-0.023040447
14	0x3cae89e6	0.02130599
15	0xbc198e58	-0.009372316
16	0x3ca5983d	0.020214194
17	0xbceebef9	-0.029143797
18	0x3b4f1c63	0.0031602613
19	0xbcb2b40c	-0.021814369
20	0x3d02c7e6	0.03192892
21	0x3d0d173a	0.03444598
22	0xbc07760c	-0.008267891
23	0xbb8a13b0	-0.0042137727
24	0xbc73a57f	-0.014871
25	0x3ce30b38	0.02771531
26	0xbd0c3a61	-0.034235362
27	0x3cd5ea27	0.02611263
28	0xbc260820	-0.010133773
29	0xbc7df48c	-0.015500199
30	0x3cd53897	0.02602796
31	0xbb97ff14	-0.004638562
32	0x3b90dc42	0.004420788
33	0x3cb2c523	0.021822518
34	0xbc9cf112	-0.01915792
35	0x3c9efcce	0.019407656
36	0x3c57c474	0.013169397
37	0x3ca2f27c	0.019891016
38	0x3b8a009b	0.004211498
39	0xba9c2b8e	-0.0011914836
40	0x3d004462	0.031315215
41	0xbcb608a3	-0.022220915
42	0xbcb4a983	-0.022053486
43	0xbc2d05fe	-0.010560511
44	0xbca700d7	-0.020386143
45	0xbcf7fc65	-0.030271718
46	0x3b80f465	0.003935384
47	0xbd02454b	-0.031804364
48	0x3d054051	0.03253204
49	0x3cf4e1b9	0.02989279
50	0x3c1f06b1	0.009706185
51	0x3cbb3010	0.022850066
52	0x3d07f334	0.03319092
53	0xbcabf6a0	-0.020991623
54	0x3ccc6c7b	0.024954071
55	0xbd087174	-0.033311322
56	0xbd0c2247	-0.034212377
57	0x3c358602	0.011079313
58	0x3ba5660b	0.005047565
59	0xbc98f7c5	-0.018672833
60	0xbb88c2a9	-0.004173596
61	0x3b9f15e4	0.0048549045
62	0x3b2debb2	0.002653819
63	0x3d1be5a0	0.038060784
64	0x3cd2fa14	0.025754012
65	0xbcf1e0d7	-0.029526157
66	0x3d02251d	0.031773675
67	0x3d0fb778	0.03508708
68	0x3d019cb6	0.03164359
69	0x3c9c1efa	0.01905774
70	0x3cc24ae8	0.023717359
71	0x3cbeb197	0.02327804
72	0x3d244397	0.04010352
73	0x3d30d262	0.043169387
74	0x3cb702cc	0.0223402
75	0xbcbedad0	-0.023297697
76	0xbb7c000c	-0.0038452176
77	0xb7be48c5	-2.2683651e-05
78	0xbc98297a	-0.018574465
79	0x3cd1b18f	0.025597362
80	0x3c0d72e3	0.008633348
81	0xbd08c579	-0.03339145
82	0x3b390f1d	0.0028237768
83	0x3c974586	0.018465769
84	0xbc101f22	-0.008796485
85	0x3beb8217	0.007187139
86	0x3c838c43	0.016058093
87	0x3bb47d6d	0.005508116
88	0xbd06cba5	-0.032909054
89	0xbcac4f35	-0.021033863
90	0x3c3025e0	0.010751218
91	0x3c79e346	0.01525194
92	0x3d075bde	0.033046596
93	0xbcc0a48c	-0.023515962
94	0xbc9b5369	-0.018960671
95	0x3bdd4e0d	0.006753689
96	0xbc50ea06	-0.012751108
97	0xbcdfcdb5	-0.027319768
98	0x3c492a98	0.012278222
99	0xbc6d80d8	-0.014496051
100	0x3b452bf6	0.0030086017
101	0x3b9fd7ef	0.004878036
102	0x3caac963	0.020847982
103	0x3ce4f221	0.027947487
104	0xbc6ba388	-0.014382251
105	0xbc216e3d	-0.009852943
106	0x3ceb9e28	0.028761938
107	0x3c19c3c3	0.009385052
108	0xbd027871	-0.031853143
109	0x3b9ec6bb	0.004845468
110	0xbc6d0b0c	-0.014467966
111	0xbcd36c68	-0.025808528
112	0x3b235952	0.0024925065
113	0x3cf58182	0.02996898
114	0x3c78cbe3	0.015185329
115	0xbc01722f	-0.007900759
116	0xbb5e877e	-0.0033955271
117	0x3c475739	0.012166792
118	0x3888258a	6.4919775e-05
119	0xbb441cba	-0.002992435
120	0xbc8e890c	-0.017399333
121	0x3b999c06	0.004687789
122	0x3beea3bf	0.0072827036
123	0xbc8bdb49	-0.017072337
124	0xbb0f19c5	-0.0021835428
125	0xbc159e4c	-0.009131979
126	0x3cac4a56	0.02103154
127	0xbcb84783	-0.022495037
128	0xbcfe6954	-0.031056084
129	0x3c919c57	0.017774744
130	0xbc346768	-0.011010982
131	0xbbb37452	-0.005476513
132	0xbcf354a5	-0.029703448
133	0x3c13d928	0.009023942
134	0xbb5f3eca	-0.0034064525
135	0xbd0015a9	-0.031270657
136	0x3ca39054	0.019966282
137	0xbcf35e0f	-0.029707937
138	0xbc00849b	-0.007844116
139	0xbcabfd84	-0.02099491
140	0x3c088267	0.008331872
141	0x3cf9de89	0.03050162
142	0xbb51e5be	-0.0032027806
143	0xbc8f862e	-0.017520037
144	0xbbaf3f44	-0.005348118
145	0xbcd2522c	-0.025673948
146	0xbd0c6a6b	-0.034281176
147	0xbcde9446	-0.027170312
148	0xbcb2250d	-0.021746183
149	0x3c409097	0.011753223
150	0x3c01cc44	0.007922236
151	0x3c40ea6c	0.0117746405
152	0x3c869963	0.016430562
153	0xbc0f879b	-0.008760358
154	0x3c49dc6f	0.012320622
155	0xbc98db0a	-0.018659133
156	0x3c9836b1	0.018580766
157	0x3cd1685e	0.025562461
158	0xbc30a4dd	-0.010781494
159	0xbc95a3df	-0.018266616
160	0xbc16a744	-0.009195153
161	0x3bb8745d	0.005629106
162	0xbc9caace	-0.019124415
163	0x3babbea9	0.0052412343
164	0x3b7041c5	0.0036660295
165	0xbc690393	-0.014222044
166	0xbb14ad70	-0.0022686385
167	0x3c833503	0.016016489
168	0xbc45e82f	-0.012079283
169	0x3d0cb652	0.03435356
170	0x3d0619af	0.032739338
171	0xbc407e78	-0.0117489025
172	0x3c5299cb	0.01285405
173	0xbce23737	-0.02761422
174	0xbcdb058c	-0.026736043
175	0xbbeb114d	-0.0071736933
176	0xb8f4733a	-0.00011656289
177	0x3c61e666	0.013787841
178	0xbc65aa9d	-0.014017728
179	0xbbbc9827	-0.0057554427
180	0x3caf3ef8	0.02139233
181	0xbaee2e1e	-0.0018171703
182	0xbc057088	-0.008144505
183	0x3c49b3f1	0.012310968
184	0x3c0354d2	0.008015828
185	0x3c423737	0.011853985
186	0x3c297853	0.010343629
187	0xbc68f1ba	-0.014217788
188	0x3bee1b72	0.0072664553
189	0xbc662c5d	-0.014048663
190	0xbabf44fb	-0.0014592701
191	0x3c908dd4	0.017645754
192	0x3caedaf3	0.021344637
193	0x3caf2fd0	0.021385103
194	0xbc2006d9	-0.009767258
195	0xbcf41b5f	-0.029798208
196	0xba45a1cf	-0.0007539065
197	0x3cb002f4	0.021485783
198	0x3c494009	0.012283334
199	0x3af063f6	0.0018340338
200	0x3cb93717	0.022609277
201	0x3ce2ece0	0.027700841
202	0xbc48aa67	-0.012247658
203	0xbb21bb4a	-0.0024678283
204	0xbc9caeac	-0.019126259
205	0xbadab211	-0.0016685148
206	0xbc74fc58	-0.014952742
207	0xbc19af86	-0.009380227
208	0xbced3402	-0.028955463
209	0x3c3411c1	0.010990561
210	0xbd056624	-0.032568112
211	0xbcf69871	-0.030101987
212	0xbce2524d	-0.027627135
213	0x3b8c30b2	0.004278266
214	0xbd023f06	-0.031798385
215	0xbcdaa5e7	-0.026690437
216	0x3cbc882e	0.023014154
217	0x3ba8c0e2	0.0051499465
218	0xbce3d3a8	-0.027810887
219	0x3cf29d0a	0.029615898
220	0xbce7dcc3	-0.02830351
221	0x3c58dcef	0.013236268
222	0x3c46a760	0.012124866
223	0xbbbd2b10	-0.0057729557
224	0xbcc060ca	-0.023483653
225	0x3ad948c5	0.0016577473
226	0xbd25c6f0	-0.040472925
227	0x3c8814cf	0.016611485
228	0x3aeff3c0	0.0018306896
229	0xb8701079	-5.72358e-05
230	0xbd0df26f	-0.03465503
231	0xbcebd6db	-0.028788975
232	0x3bae4cd6	0.005319218
233	0xbcfb3c33	-0.030668354
234	0xbc8d54a6	-0.017252278
235	0x3cb4357a	0.021998156
236	0xbc36392b	-0.011122028
237	0x3cb1ed35	0.021719554
238	0xbc287637	-0.010282091
239	0x3c608b76	0.013705125
240	0x3d0af16b	0.03392164
241	0xbcdf23fd	-0.02723884
242	0x3cf4ca91	0.029881747
243	0x3c9d1cb1	0.01917872
244	0xbcb729c4	-0.022358783
245	0xbc4f67aa	-0.012658993
246	0xbd0e7bda	-0.034786083
247	0x3cad4a01	0.021153452
248	0x3bff5dca	0.007793163
249	0xbd015a9f	-0.031580564
250	0x3c666409	0.014061936
251	0xbc6e30fb	-0.014538045
252	0xbb1d857d	-0.0024035864
253	0x3d21da04	0.039514557
254	0xbb7f5df0	-0.0038965903
255	0xbb8c3135	-0.004278327

bias f4 [64]
0	0xbcf9395e	-0.030422863
1	0x3d0ae416	0.033908926
2	0xbb7b1fb5	-0.003831846
3	0x3be15845	0.0068769776
4	0xbcdc4190	-0.026886731
5	0x3c7a3905	0.015272384
6	0xbc5c0c26	-0.013430631
7	0xbc8e2673	-0.017352318
8	0x3d2281c6	0.039674543
9	0x3d0f36e5	0.03496446
10	0xbd2081f9	-0.03918645
11	0x3b434a61	0.0029798972
12	0xbd1f13fc	-0.038837418
13	0x3c6debc8	0.014521547
14	0x3cd1394f	0.025540022
15	0xbc4a611c	-0.012352254
16	0x3d1b0dd4	0.037854984
17	0xba822f35	-0.0009932282
18	0x3a8c3a7e	0.0010698584
19	0xbc9ae513	-0.01890806
20	0x3cbee528	0.02330263
21	0x3cf9f6f0	0.030513257
22	0xbbac6e0a	-0.005262141
23	0x3cc6d69e	0.02427226
24	0xbbd86b04	-0.006604554
25	0xbd21f1f2	-0.039537378
26	0x3ba81bab	0.0051302514
27	0x3bde1d8d	0.006778425
28	0xbc4533a3	-0.012036237
29	0x3c53b190	0.012920752
30	0x3bd754be	0.0065713814
31	0x3bf84707	0.0075768265
32	0xbcf7cad6	-0.030248087
33	0x3c6ba421	0.014382393
34	0xbca4ee69	-0.020133214
35	0x3ca188f9	0.019718634
36	0xbbb76816	-0.005597125
37	0x3b97ecad	0.0046363682
38	0x3cfb307f	0.030662773
39	0x3c206091	0.009788648
40	0xbccd3147	-0.025047911
41	0xbd826ce3	-0.06368425
42	0xbcd96258	-0.026536152
43	0xbc9cc418	-0.019136474
44	0x3c90c897	0.017673774
45	0xbd394625	-0.04523291
46	0x3c8889eb	0.016667327
47	0xbc283f25	-0.010268961
48	0xbca228e2	-0.019794885
49	0xbd081c1e	-0.03322994
50	0xbcd9dd50	-0.026594788
51	0xbd0e9cea	-0.034817614
52	0xbcfbd309	-0.030740278
53	0x3ccdecc6	0.025137316
54	0xbc79853f	-0.015229522
55	0xbcb219af	-0.021740763
56	0x3d1ea248	0.038728982
57	0xbcc854ee	-0.02445456
58	0xbcd29671	-0.025706502
59	0xbcc2d421	-0.023782792
60	0xbc94183e	-0.018077966
61	0xbce9e4d1	-0.028551491
62	0xbaa8429d	-0.0012837235
63	0x3be5cfc9	0.0070132953

weight f4 [64, 1024]
0	0xbc77de89	-0.01512874
1	0x3c7328cc	0.01484127
2	0xbbe4529c	-0.0069678556
3	0x3c8aea0f	0.016957311
4	0x3cd13cec	0.025541745
5	0x3d0e09f1	0.03467745
6	0xb8d7109d	-0.000102550934
7	0xbc618e4b	-0.013766835
8	0xbbe68b9b	-0.0070356852
9	0xbbfab542	-0.007651002
10	0x3cb61e48	0.022231236
11	0x3ac7f62d	0.0015255861
12	0xbcaf1948	-0.02137436
13	0x39ebd4ef	0.0004498134
14	0xbb8be2dd	-0.0042689876
15	0xbb408863	-0.0029378168
16	0xbcb13b5f	-0.021634756
17	0xbcb763fe	-0.022386547
18	0xbca788f3	-0.020451045
19	0xbc3888ff	-0.011263131
20	0xbcb145db	-0.021639755
21	0xbcc7fd91	-0.024412902
22	0x3bfefe73	0.0077817976
23	0x3bb80ac1	0.0056165163
24	0xbc5ae206	-0.013359552
25	0xbcde7933	-0.027157402
26	0xbc1088e4	-0.0088217
27	0xbd0ba78f	-0.034095343
28	0x3d1094ae	0.035298042
29	0xbcd68b99	-0.026189612
30	0xbba781e0	-0.005111918
31	0xbaaca9de	-0.0013173183
32	0x3c4ae37f	0.012383341
33	0x3d07f4fa	0.033192612
34	0xbbe6c5a0	-0.0070426017
35	0x3bb379fe	0.005477189
36	0x3bd99da9	0.006641109
37	0x3c366e4d	0.011134696
38	0x3c85b2d3	0.016320622
39	0xbca847a5	-0.020541975
40	0x3bea7013	0.0071544736
41	0xbc6059b9	-0.013693267
42	0x3cf605b6	0.03003202
43	0xbbaaa481	-0.0052075987
44	0x3c9310f9	0.01795243
45	0x3b820493	0.0039678304
46	0xbcc24e4f	-0.023718981
47	0x3c840e2e	0.016120043
48	0xbc8b2399	-0.016984748
49	0xbcb46f17	-0.022025628
50	0x3c979981	0.018505814
51	0xbbad4f01	-0.005288959
52	0x3d05a0cc	0.03262405
53	0x3c9b79ed	0.018979037
54	0x3c837b7e	0.016050097
55	0xbc77627c	-0.015099164
56	0x3cadf3d6	0.021234434
57	0x3b9f72cc	0.00486598
58	0x3cce3081	0.025169613
59	0xbb3758f7	-0.002797661
60	0x3c15481e	0.009111432
61	0x3b3b132f	0.002854537
62	0x3c2eab20	0.010660917
63	0x3c988e00	0.018622398
64	0x3c2b9c0a	0.010474214
65	0x3cd0feba	0.025512088
66	0xbc1dbb07	-0.00962711
67	0x3b116b53	0.0022189214
68	0x3d1aae07	0.03776362
69	0x3bdc68a7	0.0067263427
70	0x3cc3e990	0.023915082
71	0x3cbed584	0.023295172
72	0xbbbbe273	-0.005733782
73	0xbc1d8a34	-0.00961547
74	0x3cf50f35	0.029914478
75	0xbc747231	-0.0149198035
76	0x3c04bd37	0.008101753
77	0xbc972294	-0.018449105
78	0x3cb29565	0.021799752
79	0xbc4c89da	-0.012484038
80	0xbc301454	-0.010747034
81	0x3c617378	0.01376044
82	0x3a881fb9	0.0010385431
83	0x3cbabbb8	0.02279459
84	0xbc40e032	-0.011772202
85	0x3d218291	0.03943116
86	0xbc229150	-0.0099223405
87	0x3c573484	0.013135079
88	0x3c04157f	0.008061766
89	0x3c7a3993	0.015272516
90	0x3c5540e6	0.013015961
91	0xbcc3850e	-0.023867156
92	0xbc92167d	-0.017832989
93	0xbb93ff96	-0.004516552
94	0x3cadc4d5	0.02121202
95	0x3ce372bf	0.027764676
96	0x3c2a2e50	0.010387018
97	0x3d1c2e3b	0.038130026
98	0x3bd95726	0.0066327034
99	0x3c9d67a8	0.019214466
100	0xbb78be53	-0.003795524
101	0x3cdc4496	0.026888173
102	0x3c346225	0.011009728
103	0xbcf6c256	-0.030121963
104	0x3c8bffba	0.017089713
105	0x3cda4eee	0.026648965
106	0x3b7ffb96	0.003905987
107	0x3d0d033d	0.034426916
108	0xbbeeea44	-0.00729111
109	0x3c539f07	0.012916333
110	0xbcb76c41	-0.022390487
111	0xbcc375cf	-0.023859886
112	0x3c8c3606	0.017115604
113	0x3c4e9c59	0.012610518
114	0x3c80a4ac	0.015703522
115	0x3c3515d7	0.01105257
116	0xbc2cbb5f	-0.01054272
117	0x3b61e843	0.0034470714
118	0x3b8487aa	0.0040444927
119	0x3cb8c23b	0.022553554
120	0x3c816ffa	0.015800465
121	0xbc2afb07	-0.010435826
122	0xbb945aeb	-0.00452744
123	0xbc3d665b	-0.011560048
124	0xbcbdeced	-0.023184264
125	0x3cec103f	0.02881634
126	0xbb46b0a9	-0.00303177
127	0x3cc39e8a	0.023879308
128	0x3cd8c6b6	0.02646194
129	0xbb2b82fd	-0.0026170604
130	0xbc2d462a	-0.01057581
131	0xbc3c400d	-0.01148988
132	0x3ca5d222	0.0202418
133	0xbb2cce74	-0.0026368173
134	0x3c4334e3	0.011914465
135	0xbc974068	-0.018463328
136	0x3bdd203c	0.0067482274
137	0x3cb29cf1	0.021803351
138	0x3ab871fe	0.0014072058
139	0x3cab9ed1	0.020949753
140	0xbc01360f	-0.007886424
141	0xbcc6b10c	-0.024254344
142	0xbce08b2e	-0.027410116
143	0x3d03106c	0.031998083
144	0x3d1afd75	0.03783937
145	0xba062090	-0.00051165465
146	0x3d129921	0.035790566
147	0xbc79c80d	-0.01524545
148	0xba63d8f2	-0.000869169
149	0x3c24de8e	0.010062827
150	0x3c2d3f7f	0.010574221
151	0x39cd3df0	0.00039146794
152	0x3ccdadd4	0.025107302
153	0x3c34510a	0.011005649
154	0x3c3f25a5	0.01166669
155	0x3b39dde7	0.0028361024
156	0x3c0896b2	0.00833671
157	0x3cc3e302	0.023911957
158	0xbbb3a161	-0.0054818843
159	0x3c334a35	0.010942985
160	0x3c319889	0.01083959
161	0xbc400f2f	-0.01172237
162	0x3b9555c7	0.0045573446
163	0xbb85c5e4	-0.0040824283
164	0xbca745db	-0.020419052
165	0x39aa0832	0.00032431033
166	0x3ce2874c	0.027652405
167	0x3c091afb	0.008368249
168	0x3b39063d	0.0028232478
169	0x3c1a7743	0.009427848
170	0x3c0454a7	0.008076823
171	0xbc30d2b3	-0.010792422
172	0x3c4b440d	0.012406361
173	0xbc4a4ced	-0.012347442
174	0x3ce61d7a	0.028090227
175	0xbcae9b7b	-0.021314373
176	0x3cc953b9	0.024576055
177	0xbbf9a6e5	-0.0076187723
178	0xbcc3387b	-0.023830643
179	0x3c287e81	0.010284067
180	0xbc0e6450	-0.008690909
181	0x3d0c8a33	0.034311485
182	0xbd00ee80	-0.03147745
183	0x3c786bc7	0.015162415
184	0x3c182897	0.009287021
185	0x3ca33b05	0.019925604
186	0x3c5873be	0.013211189
187	0x3c9b8c51	0.018987807
188	0xbb452f0d	-0.003008786
189	0x3c011d38	0.007880501
190	0x3ca4a107	0.020096315
191	0x3c6bb8ef	0.014387353
192	0x3c290d80	0.01031816
193	0x3d128f2c	0.03578107
194	0x3c853d56	0.016264599
195	0x3ca7db8b	0.020490428
196	0x3afad5cf	0.0019137206
197	0x3baa175a	0.005190772
198	0x3cb1971f	0.021678505
199	0xbcf00f03	-0.029304033
200	0x3ca0bbdc	0.019620828
201	0x3d002dde	0.031293742
202	0xbc859ee4	-0.016311117
203	0xbc970bce	-0.018438246
204	0x3cc00a98	0.023442551
205	0xbc5cf217	-0.013485453
206	0x3c8febfe	0.017568585
207	0xbd06f97c	-0.03295277
208	0xbc6fb65b	-0.014630879
209	0xbc150de1	-0.009097547
210	0xbbc1ee6f	-0.005918316
211	0x3c59942d	0.013279957
212	0xb9592148	-0.00020707131
213	0x3d34ef26	0.044173382
214	0x3c832b32	0.016011808
215	0x3d15f43e	0.03660988
216	0x3be99ed9	0.007129532
217	0xbc8b3a00	-0.01699543
218	0x3c8d469a	0.01724558
219	0x3c94ceea	0.01816507
220	0x3cc56db5	0.024100164
221	0x3bbd7908	0.0057822503
222	0xbbd1fe9c	-0.0064085256
223	0xbc306ec6	-0.010768598
224	0xbce30d1f	-0.027716218
225	0xbc42bf0c	-0.011886369
226	0xbca58369	-0.020204263
227	0x3c2b7191	0.010464088
228	0x3d0a3e95	0.03375109
229	0x3d2243fc	0.039615616
230	0xbb13d71f	-0.0022558642
231	0xbc626d14	-0.013819952
232	0x3c6f344b	0.01459987
233	0x3d09c2a3	0.033632886
234	0x3b21d7ab	0.0024695199
235	0xbc4d56ba	-0.012532884
236	0xbb719110	-0.0036860146
237	0x3b8777a5	0.004134136
238	0xbbb3c483	-0.0054860725
239	0x3be39792	0.006945559
240	0x3c4f05a8	0.012635626
241	0x3bc3617c	0.005962549
242	0xba388b33	-0.0007039785
243	0xbb228dbe	-0.0024803723
244	0x3bc98ba7	0.006150681
245	0x3c4e76b7	0.012601546
246	0xbc996725	-0.018725941
247	0xbaa8d571	-0.0012880993
248	0xbc8fe2b3	-0.017564153
249	0xbb863e30	-0.004096769
250	0x3c2eb561	0.010663361
251	0x3cd9f826	0.026607584
252	0x3ca2b14d	0.019859934
253	0x3cb137ea	0.021633107
254	0x3d063ce0	0.0327729
255	0xbc21711b	-0.009853627

bias f4 [64]
0	0x3c872ef6	0.016501885
1	0x3ae86f2f	0.0017733331
2	0xbcd01936	-0.025402647
3	0x3b37307e	0.0027952488
4	0x3ca5c5b5	0.020235876
5	0x3c5bed25	0.013423239
6	0xbc28cf1e	-0.010303287
7	0xbcbfc447	-0.023409022
8	0x3c3177ec	0.010831814
9	0xbcd3826d	-0.025819028
10	0xbbf7053d	-0.0075384662
11	0xbc3225e6	-0.0108732935
12	0xbc288fe2	-0.010288211
13	0x3cbdc552	0.023165379
14	0xbc086a41	-0.008326114
15	0xbc053ba1	-0.008131892
16	0x3c92e5ee	0.017931905
17	0xbc116f5d	-0.008876649
18	0xbcfc4d4c	-0.030798577
19	0x3bc449e8	0.0059902556
20	0x3c958c37	0.018255336
21	0x3b8b8ef8	0.0042589866
22	0xbc9ac65d	-0.018893415
23	0x3ce1858e	0.027529504
24	0x3ce7cd4e	0.02829614
25	0x3cf325a5	0.029681036
26	0xbbb2faca	-0.0054620253
27	0x3c06ff07	0.008239514
28	0x3cff32fd	0.031152243
29	0x3c557030	0.013027236
30	0xbc80bf82	-0.015716318
31	0xbc62393d	-0.013807592
32	0xbd0fe001	-0.035125736
33	0xbb250f2b	-0.0025186043
34	0xbc6d41fc	-0.014481064
35	0xbc380d31	-0.011233614
36	0xbc9e2067	-0.01930256
37	0x3c346a82	0.011011722
38	0xbcdc1e98	-0.026870057
39	0x3c8abdf5	0.016936282
40	0xbce57a6b	-0.028012475
41	0xbc5b488c	-0.013383996
42	0xbba11bec	-0.0049166586
43	0x3bf30939	0.007416871
44	0x3ca9b42a	0.020715792
45	0x3ca30d04	0.019903667
46	0x3c9a57db	0.01884072
47	0xbc6d164c	-0.014470648
48	0x3d29eea7	0.041487362
49	0x3ca64205	0.020295152
50	0x3b921679	0.0044582454
51	0x3c071267	0.008244134
52	0xbcd399f4	-0.025830247
53	0xbb97335a	-0.004614276
54	0x3ca097ab	0.01960357
55	0x3c7b6439	0.015343719
56	0x3cfc5547	0.030802382
57	0xbc27b86d	-0.010236842
58	0xbc9e40e6	-0.019318055
59	0x3c1be2bf	0.00951451
60	0xbd292964	-0.04129924
61	0xbc6e65b0	-0.014550611
62	0x3c54f62d	0.012998146
63	0xbd0db0d3	-0.03459246

weight f4 [10, 64]
0	0x3d0a71bb	0.033799868
1	0x3da60bea	0.08107741
2	0x3d7f6a14	0.062357023
3	0xbdc06dd4	-0.09395948
4	0xbd48bd0f	-0.049008425
5	0x3dce30bd	0.1006789
6	0xbe0809c4	-0.13284975
7	0x3e090f2f	0.13384698
8	0xbdc8f952	-0.09813179
9	0x3ccabe37	0.024748905
10	0xbdc09d62	-0.094050184
11	0x3bb8d1a4	0.0056402255
12	0xba0da00c	-0.0005402572
13	0x3ba8ac20	0.005147472
14	0xbd276cfb	-0.040875416
15	0xbbd7927e	-0.0065787425
16	0x3c61892b	0.013765614
17	0xbe175ed0	-0.14782262
18	0x3d62d62f	0.055380043
19	0x3c05d0f0	0.00816749
20	0x3934c6db	0.00017240217
21	0xbd63c665	-0.055609126
22	0xbba230b2	-0.0049496526
23	0xbbe252ba	-0.0069068344
24	0x3c860322	0.016358916
25	0xbdab997a	-0.08378883
26	0xbdd9dfc2	-0.106383815
27	0x3da28a9c	0.07936594
28	0xbe04745b	-0.12935011
29	0xbdc38139	-0.09546132
30	0xbd7889a1	-0.06067813
31	0x3d2fd2a3	0.04292549
32	0x3c1da49f	0.009621768
33	0x3d215193	0.039384436
34	0xbcf1c4b8	-0.029512748
35	0x3e0e6f7a	0.13909712
36	0x3db3213f	0.087465756
37	0x3d363f64	0.044494048
38	0x3da29f16	0.079404995
39	0xbde8dfb6	-0.113707945
40	0x3dee7c57	0.1164481
41	0xbd0d3462	-0.034473784
42	0xbe0874be	-0.13325784
43	0xbdaf85d4	-0.085704476
44	0x3da54afe	0.08070944
45	0x3d14ac20	0.036296964
46	0xbd9c7fe1	-0.076415785
47	0xbdb5386b	-0.088486515
48	0xbe035668	-0.1282593
49	0xbba07447	-0.004896674
50	0x3d9ddcdf	0.077081434
51	0x3e0074f1	0.1254461
52	0xbd23be36	-0.03997632
53	0xbd918030	-0.07104528
54	0xbd3a7ab0	-0.04552716
55	0xbd237832	-0.03990955
56	0xbcf2b001	-0.02962494
57	0x3cc8bb59	0.024503397
58	0xbdad7e4e	-0.08471356
59	0xbd2df24b	-0.042467397
60	0x3daf24f9	0.08551974
61	0xbe13d9c7	-0.14438544
62	0x3d37db2c	0.044886753
63	0x3e0ff451	0.14058043
64	0x3e114df5	0.14189894
65	0xbde43d33	-0.11144485
66	0xbdf79bd5	-0.120902695
67	0x3e0e097e	0.13870808
68	0xbcbcd3f1	-0.02305028
69	0xbdb01c14	-0.085991055
70	0xbc089d0a	-0.008338222
71	0x3dcc6bea	0.099815205
72	0x3e0cd4bd	0.13753028
73	0xbd743f81	-0.059630875
74	0xbd31558e	-0.043294482
75	0xbde2aadb	-0.11067744
76	0x3c8bdbf1	0.01707265
77	0xbdb58c3e	-0.0886464
78	0xbdc704b0	-0.09717691
79	0xbd99941c	-0.07498953
80	0xbc457933	-0.012052822
81	0xbde26311	-0.11054052
82	0x3d2d84d3	0.042363
83	0x3dcd6aa5	0.100301065
84	0xbdee66ce	-0.11640702
85	0x3e0a8566	0.1352745
86	0x3cb253a4	0.021768399
87	0x3dc65432	0.09684028
88	0x3e05d24c	0.13068503
89	0xba190112	-0.00058366463
90	0x3d756fab	0.059920948
91	0xbda576ae	-0.08079277
92	0xbdce5ac1	-0.10075904
93	0x3d917343	0.071020626
94	0xbd541f59	-0.051787708
95	0x3d5068c5	0.050881166
96	0xbd801060	-0.06253123
97	0xbe13ead8	-0.14445055
98	0xbd5c4ce0	-0.05378425
99	0xbe288b4e	-0.1645939
100	0x3d1c22ec	0.03811924
101	0x3e141339	0.14460458
102	0xbdc41901	-0.095750816
103	0xbe0fc622	-0.14040425
104	0xbd84907b	-0.0647287
105	0x3dcd2555	0.10016886
106	0x3e0ec346	0.13941678
107	0x3dc51cd1	0.09624637
108	0xbdc775e2	-0.09739281
109	0x3d0aab57	0.03385481
110	0xbd20b03a	-0.039230563
111	0x3c64d88d	0.013967645
112	0xbdb88209	-0.09009177
113	0xbd2cf956	-0.042229973
114	0x3b8f4e54	0.004373351
115	0xbe04370d	-0.12911625
116	0xbd026478	-0.031834096
117	0x3e173c91	0.14769198
118	0x3df5cef4	0.12002364
119	0x3dc66d5f	0.0968883
120	0xbe253161	-0.16132118
121	0xbd91b62b	-0.07114824
122	0x3dd140ec	0.10217461
123	0xbd1ae497	-0.037815657
124	0xbd5ac510	-0.05341059
125	0x3c515ed5	0.012778957
126	0x3ddc855e	0.10767625
127	0xbdc7929f	-0.09744763
128	0xbe08725e	-0.13324878
129	0x3d07ed0a	0.033185042
130	0xbd21213f	-0.039338347
131	0xbd6636c4	-0.056204572
132	0xbe0d6a2e	-0.13810036
133	0x3e2fe1a1	0.17175914
134	0x3caeb955	0.021328608
135	0x3d9f2d66	0.07772331
136	0xbd4a0eec	-0.049330637
137	0x3cdc840b	0.026918432
138	0x3b846162	0.0040399292
139	0xbcb11431	-0.021616073
140	0xbde96b19	-0.113973804
141	0x3d39b6a1	0.045340184
142	0x3c47ea64	0.012201879
143	0x3e0e7d72	0.13915041
144	0xbd7b5690	-0.06136185
145	0xbd464d41	-0.04841352
146	0x3df07fda	0.11743136
147	0xbe0360e6	-0.12829933
148	0xb97ee7f9	-0.00024309744
149	0x3cbb231c	0.02284389
150	0xbcaf6c53	-0.021413958
151	0xbc18af71	-0.009319172
152	0x3d6ebf6f	0.058288034
153	0xbd9482d6	-0.072515175
154	0xbe0affd1	-0.13574149
155	0xbe066a24	-0.13126427
156	0x3cd03321	0.025415005
157	0x3d3d4487	0.04620793
158	0xbcda3c09	-0.026639955
159	0x3da4d679	0.0804872
160	0xbde6a9dc	-0.11262867
161	0xbd08cf99	-0.033401106
162	0xb9d84f8a	-0.00041257992
163	0x3e20e288	0.15711415
164	0xbd799b7c	-0.060939297
165	0x3d0092fb	0.03139017
166	0x3cd9e07d	0.026596302
167	0x3dc0a0fb	0.094057046
168	0x3dff38cc	0.12462005
169	0xbe028cc5	-0.12749012
170	0x3dac82fe	0.08423422
171	0x3de03983	0.109484695
172	0x3e16b90d	0.14719029
173	0xbd36bed3	-0.044615578
174	0x3babbc66	0.0052409647
175	0xbdddf5ea	-0.1083792
176	0xbca64427	-0.02029617
177	0xbd98de0d	-0.07464228
178	0xbd2a89c8	-0.041635305
179	0xbd3d899e	-0.04627382
180	0xbd9bafb9	-0.07601876
181	0xbda04cdf	-0.07827162
182	0x3d12978d	0.03578906
183	0xbe0aec30	-0.13566661
184	0x3dc12cb0	0.094323516
185	0xbbe14263	-0.006874369
186	0xbd09710a	-0.033555068
187	0xbcb0d505	-0.02158595
188	0xbd720370	-0.05908531
189	0x3dde60af	0.10858285
190	0x3d834964	0.064104825
191	0xbdc1ded9	-0.09466333
192	0x3def76f5	0.11692611
193	0x3c645340	0.013935864
194	0x3dce3e1a	0.10070439
195	0x3d27c9ed	0.040964056
196	0x3e05d49a	0.13069382
197	0x3d812caf	0.06307351
198	0x3de8b8c7	0.113633685
199	0x3d0f54a4	0.03499283
200	0x3ce78706	0.028262626
201	0x3d66a2ee	0.056307726
202	0x3d4221f3	0.047395658
203	0xbdb03ae1	-0.0860498
204	0x3d5c1b29	0.05373684
205	0x3d95b0bf	0.07309102
206	0x3d11f7b1	0.035636608
207	0xbcb5e6d1	-0.022204788
208	0xbde06628	-0.10956985
209	0xbba53ced	-0.0050426633
210	0x3cf82158	0.030289337
211	0x3df49c14	0.11943832
212	0xbdc4a1af	-0.09601151
213	0xbe0d79d3	-0.13816004
214	0x3cc42c0b	0.023946783
215	0xbdf34721	-0.11878801
216	0x3deae43c	0.114693135
217	0xbc99f9e3	-0.018795913
218	0xbdd9cad3	-0.10634389
219	0x3dbe3597	0.09287565
220	0x3c6d3d0f	0.01447989
221	0x3ca91b58	0.020642921
222	0xbda67561	-0.08127857
223	0x3dc19f40	0.09454203
224	0xbdef1755	-0.11674372
225	0x3d93d1ad	0.07217727
226	0xbd76e420	-0.06027615
227	0xbda0d72a	-0.07853539
228	0xbd787be6	-0.060665034
229	0xbc9c8d28	-0.019110277
230	0xbc429102	-0.011875393
231	0x3ba9af7a	0.005178389
232	0xbb88521c	-0.004160179
233	0xbcbd4b80	-0.02310729
234	0xbd918d08	-0.07106978
235	0x3da813e5	0.082069196
236	0x3ccbd46e	0.024881568
237	0xbc939996	-0.018017571
238	0xbcc4d1ca	-0.024025816
239	0xbde83642	-0.11338474
240	0x3d0f1f49	0.034941945
241	0x3d3674cb	0.044544976
242	0xbe1b310f	-0.15155433
243	0xbda6f1da	-0.08151598
244	0x3d777275	0.06041189
245	0xbc79bf4e	-0.0152433645
246	0x3c053b41	0.008131803
247	0xbe0bf43e	-0.1366739
248	0x3dc34f59	0.09536619
249	0xbe0203a9	-0.12696709
250	0xbe0b2a06	-0.1359025
251	0xbdf98e60	-0.12185359
252	0xbda35758	-0.07975644
253	0x3dda73ce	0.10666619
254	0x3c057644	0.0081458725
255	0x3c89a704	0.016803272

bias f4 [10]
0	0xbe324819	-0.17410316
1	0xbd14f2e1	-0.03636444
2	0x3e09bdd0	0.13451314
3	0x3daa86c8	0.08326489
4	0x3db7b2a3	0.08969619
5	0xbdb6b2d4	-0.089208275
6	0x3d3ac864	0.045601264
7	0x3dce19c2	0.10063507
8	0xbdf6a74f	-0.1204363
9	0x3d3300b8	0.043701857
