Pytorch/model_data/CIFAR10_EPOCH29.pth (torch, 588839 bytes, 10 tensors)

weight f4 [32, 3, 5, 5]
00000000: 5fba 2cbc 534a 40bd a4d2 14bd f086 f3bd
00000010: 4ff8 33bd a053 20be 352d 1ebe 38cc ed3d
00000020: 4d46 25bd c253 09be 557c 06be b797 bfbd
00000030: 4177 223e 5a30 f23d 12da 5ebe ecb6 ac3d
00000040: 3260 0ebe 3ce3 dd3d 0b5c 233e 470f 41be
00000050: b502 6b3d ff36 74bd 6f72 253e 0c25 093e
00000060: bb4a 23be dbf5 d7bd 1e74 203d 9b47 003e
00000070: d0f9 5abd 6dc3 47be 3e0b 61bd fbd3 903d
00000080: b03a 7abd 914e a03d cb76 65be 4fd9 99bc
00000090: e719 68bd 0250 cf3d 784f 0e3e f9ca 82ba
000000a0: a5b0 7c3d cf43 f7bd a405 793d 49d8 383e
000000b0: c54d 08bd c566 373d af74 b13d 63c6 5d3e
000000c0: 6512 433e a6fa 8f3b ae65 72bd d667 99bd
000000d0: 5b21 eabd bd83 86bd ead4 5dbe d2c6 4bba
000000e0: 670b f63c 6828 253b a40c 823d e33b 5bbe
000000f0: 0f1b bd3d ac9d 493d a4c3 323d b38c f63d
00000100: 93a1 33be 6539 013d c08e 103d f0b8 4c3e
00000110: ca6e ed3b cc54 3cbe 4938 9b3d 6d31 493c
00000120: 4105 403e f8c5 343e 5317 663d 9a15 083d
00000130: 70c6 ff3d baf6 4c3e 3596 803d 0df0 9ebd
00000140: dbb2 913c b9c4 ea3d 484c 79bc c5b7 71be
00000150: 1f1b 0abe d2d0 223e c356 3abe 8758 2fbd
00000160: f549 1fbe 7e22 1f3e 0fd1 563b fa0e 76bd
00000170: 9b6f 6b3c 056f 2e3e 8e63 0ebd ca6b 2d3b
00000180: c38b d73c a28f 473d e1f2 b33d ad97 06bd
00000190: e2e3 333d 0821 153e 35e7 0b3e 3e11 313d
000001a0: 5a8b 60be b82f 1d3e fdc2 853d 0ebe 49bc
000001b0: b937 8abe de2c 40be 67b2 2fbd 168b 40be
000001c0: 62d2 efbd 358d b23c 58e6 6ebd f597 53bd
000001d0: febe 85bd 8768 583c f222 203d 73fa a73c
000001e0: 7764 6fbd 5751 7a3d 26c9 023e aba1 d03a
000001f0: 1c4c afbd 528a d2bc 3b14 cd3d 0c9e 4b3e
00000200: 7eb7 8fbd 4712 b23b 4f83 943d 1b1a f63c
00000210: abe8 d9bd d400 42be 81fb bd3d 6443 673d
00000220: 467a 03bd a207 a9bd 4a91 0d3d 0128 1f3e
00000230: 1599 9cbd b583 f1bd f772 fc3d d463 e63d
00000240: 1f01 8c3d 421c cdbd cf58 82bd d7e3 203e
00000250: 5271 a4bd b6b5 75bc f552 3c3e 39cc 943d
00000260: 1284 b3bd b7db 7abc 4e42 dbbd 9082 1a3c
00000270: 20f2 713c 820a 68be 254b 63be f448 18be
00000280: 9933 1ebe 0ac1 893c bf4b 16bd 0383 ebbd
00000290: 8843 9fbd e852 60be 0ecc ecbd c87f 20be
000002a0: 50d9 0cbe 4f47 36be 7a0d 143d 443e 5fbe
000002b0: 1cb1 8dbe 49d7 58be fbd3 1dbe fa9a a53b
000002c0: 1009 d8bd 53df b23d 00e3 953d 6982 8e3d
000002d0: a6a9 3f3d 75c6 7ebd 7269 d83b 8449 d33c
000002e0: 93bd c0bd 3858 22bc 9aa1 06bd 5941 dd3d
000002f0: 55ce 1a3e 024d 77bc ccbf d9bd f90d 453e
00000300: 58c2 383e 5df8 df3d 00b0 843c dbb2 b33d
00000310: 4f58 98bd 9537 31be 20d7 9fbd 5aa5 0bbd
00000320: 7a82 04be ccee 26bd f0f7 053e 1bc9 783d
00000330: 7674 ef3d 18a2 b2bd 1f4d a0bc a870 d63d
00000340: 8ac1 49bd 0ecb 0f3e 73cf 6c3d 3307 eb3d
00000350: 3a4d 063e 5c1c 8c3e 5b0b 513e 8ade e43c
00000360: f967 803e 6377 a23e b917 5a3e 4462 2b3e
00000370: dd94 ac3d 699b 123d a5af b8bd 16f5 c93d
00000380: 4add fd3d fcb1 a23d aec1 6e3c fc95 5fbd
00000390: a930 413d 8dd6 02be 1b44 873d 1441 8fbd
000003a0: f3e4 373d d348 cc3d 2a88 aabb 2c7c b73d
000003b0: ceea ebbd 5429 b2bc a50f ecbc 4221 f33d
000003c0: 5154 6e3d 2c7f 333d a7f4 d23c 238f 3f3e
000003d0: 3663 cf3d 76c3 c0bc 912f febd 69af f3bd
000003e0: 5258 423e 8065 64bd 107c b63c e2da 293d
000003f0: 84d4 c5bd cde0 113e ddb5 97bd a620 75bb
-0.010542481 -0.04694588 -0.036333695 -0.11890972 -0.043937977 -0.156569 -0.15446933 0.11611217
-0.040350247 -0.13410857 -0.13133366 -0.09355109 0.15865804 0.118256286 -0.21762875 0.08433327
-0.13903883 0.10834357 0.1595308 -0.18853484 0.05737563 -0.05962276 0.16156934 0.13393039
-0.15946476 -0.1054494 0.039173238 0.12527315 -0.053460896 -0.19508143 -0.054942362 0.07071682
-0.061091125 0.07827485 -0.22408597 -0.018780379 -0.056665327 0.10122682 0.13897502 -0.0009978703
0.0616919 -0.1207348 0.060796395 0.18051256 -0.03327729 0.044775743 0.08664834 0.2165771
0.19049986 0.0043938933 -0.059179 -0.07490508 -0.11432143 -0.06568096 -0.21663252 -0.0007773462
0.030034734 0.0025201086 0.06350067 -0.21409564 0.09233677 0.049222633 0.04364361 0.12038555
-0.17542104 0.031548876 0.035292387 0.19992423 0.007245873 -0.18391722 0.07579095 0.01227985
0.18752004 0.17653644 0.056174587 0.033223726 0.12489021 0.20015994 0.0627865 -0.0776063
0.01778548 0.11463303 -0.015215941 -0.23605259 -0.13486908 0.15899971 -0.1819716 -0.042809036
-0.15555556 0.15540501 0.0032778417 -0.060072877 0.014369871 0.17034538 -0.03476291 0.0026461952
0.02631176 0.048720963 0.0878656 -0.032859493 0.043918498 0.14563382 0.13662417 0.043229334
-0.21928158 0.15350235 0.06531332 -0.012313379 -0.26995638 -0.18767115 -0.042894747 -0.18803057
-0.11710049 0.021795848 -0.05832514 -0.05165859 -0.065305695 0.013208515 0.039095826 0.020505166
-0.05844542 0.061112728 0.12772045 0.0015917321 -0.085594386 -0.025700722 0.10013624 0.19884509
-0.0701742 0.0054343077 0.072516076 0.030041745 -0.10640081 -0.18945628 0.09276486 0.056460753
-0.03209903 -0.08253409 0.034562387 0.15542604 -0.076463856 -0.11792699 0.12326615 0.112495095
0.06836151 -0.100151554 -0.06364595 0.15711914 -0.08029427 -0.014996937 0.1839102 0.07265515
-0.08765425 -0.015311173 -0.10706006 0.009430543 0.0147672 -0.22660258 -0.22196634 -0.1487158
-0.1544937 0.016815681 -0.03669333 -0.11499598 -0.077765524 -0.21906626 -0.11562358 -0.15673745
-0.13754773 -0.1780064 0.036145665 -0.21801096 -0.27674186 -0.21175875 -0.15412895 0.005053875
-0.105486035 0.08734002 0.073186874 0.069584675 0.04679265 -0.062200982 0.006604367 0.02579189
-0.094111584 -0.009908728 -0.03286896 0.1080348 0.15117772 -0.015094044 -0.106322855 0.19243611
0.18042886 0.109360434 0.016197205 0.08774348 -0.074387185 -0.17306359 -0.07804704 -0.03409324
-0.12940398 -0.04075508 0.13082862 0.060738664 0.11692135 -0.08722323 -0.019568024 0.10470706
-0.04925684 0.14042303 0.057815026 0.114759825 0.13115397 0.27365386 0.20414488 0.027938146
0.25079325 0.3173171 0.21298112 0.16736704 0.08426831 0.035792742 -0.090178765 0.098611996
0.12395723 0.07944104 0.014572544 -0.054586396 0.047165547 -0.12777157 0.06604787 -0.069948345
0.044896077 0.099748276 -0.0052042203 0.08959231 -0.11519395 -0.021748222 -0.028816054 0.11871578
0.05818588 0.043822452 0.025751425 0.18706946 0.10126345 -0.023530703 -0.12411416 -0.11898691
0.18979004 -0.05576086 0.022275954 0.04146851 -0.09659675 0.14245911 -0.074077345 -0.0037403493

bias f4 [32]
00000000: 9c18 4abe c9a5 0abd 9ece fb3c 3d46 0fbe
00000010: a2f3 9bbc 0f41 203e 6bfd b7be 2ad5 d3be
00000020: c290 ecbd e510 46bc df51 a33d 6bb5 96bd
00000030: 7ab1 f0bd 1390 dcbd 9d21 9ebc 0975 afbd
00000040: 4304 173c d046 bfbe 78ea 06bd 32b4 82bd
00000050: 7acb 01bc c0a4 4f3d f395 4d3d 098a 1f3e
00000060: 498c a5be 399a 8abc 560c 3dbe 2497 953e
00000070: e02f 93be 9f65 1d3d d902 e3bd c192 c23d
-0.1973595 -0.03384951 0.030738171 -0.13991638 -0.019037072 0.15649818 -0.3593553 -0.4137357
-0.11551048 -0.012088989 0.079746 -0.073588215 -0.11752601 -0.107696675 -0.019303137 -0.085672446
0.009217325 -0.37358713 -0.03293845 -0.06382026 -0.007922048 0.050694227 0.05019183 0.1558
-0.32333592 -0.016919242 -0.18461737 0.29216874 -0.28747463 0.03842699 -0.110845275 0.09500647

weight f4 [32, 32, 5, 5]
00000000: d71e b2bb 601c e3bc bc39 2ebd 174e a5bc
00000010: 7057 05bd b0af fe3c a54a 35ba 6e76 b93c
00000020: 3a0b e03c 2fd7 543c 837a f13c 1c24 d43b
00000030: a368 dcbc f33f ee3b 356c 373d fc42 d63b
00000040: cf96 b6bc 9062 82bd 8f19 30bd 7e00 80bc
00000050: b3e5 043d d4fe b43c 3b11 cd3c 2cb4 943c
00000060: 8372 733b b0a3 0bbd c849 ed3b 4bbd 64bc
00000070: 0dde 093d 8e46 40bc a7e9 cabc 4a19 a53c
00000080: 7ae7 913c 2d6c 393c cee3 f8bc bb85 2c3d
00000090: e03e 76bc a6d3 b838 e115 b33b d228 e83c
000000a0: 4fcb 853c 2c63 303d ef50 abbb f2c4 b43c
000000b0: 6978 db3c d849 cdbb ce61 9a3d f8f2 713d
000000c0: 69ad 263d 668b 96bc 9b22 163d 62e7 3c3d
000000d0: 3514 8c3c 2199 ff3c 3b88 203d ca2a 5e3b
000000e0: b524 cebc 6ace 13bd 7fec 93bb 35c5 70ba
000000f0: 48af 45bd 31ce 4ebc 794c 693c 4c05 c5bb
00000100: f952 3bbd 7d77 b639 7607 c5ba 5987 53bd
00000110: 82fa f0ba 6889 433c 25e5 5cbd 1f5b a3bb
00000120: 838b 8bbb 64d0 60bc 996c 003d 98c2 5ebc
00000130: 1754 a03c 3de4 e8bc 91c3 5b3b c845 8ebc
00000140: da5d 9a3b 15dd 90bc a6e6 85bc b9b9 05bc
00000150: 8eff c93b d2a4 893c 335f 54bb 5d0f 953c
00000160: b75e ca3b 3857 623c 8fd5 b0bb f53f e93c
00000170: dbb6 0c3d b927 d63c 17e1 a63c 8c1a 253b
00000180: 83a5 593c 373e c2bc 819d e93b a0c2 003d
00000190: 10c1 293d b554 85bc 6b91 d7bc d84f 12bb
000001a0: dc89 973a 8a2e a7bc 3ca6 12bd 4549 03bd
000001b0: b101 7abd 7ba1 85bc 8f57 b339 33e5 18bd
000001c0: 4b94 0cbd 3a38 683b 5bd9 61bc f05e c4bc
000001d0: aeae 0f3d 4994 263d d04c a23c c0b9 503a
000001e0: 4e4a 313b 9780 d53b 3afd 823c 0051 a8bc
000001f0: 166a ac3b 4d13 003d 1e16 1bb8 4f1a df3b
00000200: 4e83 903d 3a46 85bc 3b5a ba3c 4431 cd3c
00000210: 0f3a 633d 00b4 133d e52e 1a3c f3e2 423d
00000220: 8a8e 983d bddd 6ebc 2079 88bc 5353 253a
00000230: 8f17 c43d 49b7 40bc f283 26bd c915 cbbc
00000240: d29a 363d 4288 0dbb d351 a8bd c76f 0e3d
00000250: 4a42 b83d da76 093b 9546 f23b 6b7d 563d
00000260: 4fd6 213d 5067 643c 18d0 403d 7a32 6b3c
00000270: 4f7f 123d 0b66 073d d192 50bc 7b64 ee3b
00000280: d2e3 1cbb 299c bd3b 8ab1 273c 669b d03b
00000290: 25f8 c3bc 1bb1 c83c cdfe 8b3c 1178 773d
000002a0: 7b48 c43b 76a5 68b9 eef1 5ab9 8d2c 1f3d
000002b0: d114 023d abaf d4bc f0ff 243d 558c 0fbd
000002c0: 389e 1cbd 8561 14bd 69a1 ce3c 761e 4bbd
000002d0: 6817 8fbc 3fd3 553a 6428 91bc fda7 ff3c
000002e0: 740a 05bd 0975 09bc 8e89 453b 76bc 403d
000002f0: 04c1 473d 8899 873d dbb2 233d 8a8c 293d
00000300: 37ff 983d 915b 973d 5917 943d 5993 923d
00000310: 0154 b53d 91be 3a3d 6655 093d f665 6d3d
00000320: fdb7 7a3c 6529 023d 30b9 a53c c7bb 1ebd
00000330: c30a 83bc 469c 833c 9e88 84b9 0892 01bd
00000340: 676d 75bd 6ff0 f23b ea3d 95bc e117 18bd
00000350: 331e 55bd c266 60bd 7940 37bd 077d e8bc
00000360: 5a62 1b3d 5368 be3c 177a a53d 6849 05bc
00000370: a4fa 6bbd 307d 183d 9e0a b93c fa2c be3b
00000380: 1e39 ca3a d7c7 853b 64b6 bbbc 1999 55bd
00000390: 49a1 57bd aeae a9bb 7f7a d93c 31ce 3d3a
000003a0: a511 733c d06b f0bc e66a a0bc ac8b a33b
000003b0: 32ec ed3c 7dfe ff3b a112 423c c650 4e3d
000003c0: 5cf3 69bc 71ff c13c 3ef6 cd3c d0cf 963d
000003d0: d717 443d dd33 023d 9564 c93c be7b e13c
000003e0: 9f34 5d3d 5324 393d d914 953c adc0 cfbc
000003f0: b776 cbbc 2583 9dbc b30c 42bd 697f 823d
-0.0054358053 -0.027723491 -0.04253553 -0.020178838 -0.03255409 0.031089634 -0.0006915725 0.02263948
0.027349103 0.012990757 0.029477363 0.006474031 -0.026905363 0.007270807 0.04478093 0.006538747
-0.022288708 -0.063664556 -0.042993125 -0.015625235 0.03244562 0.022094168 0.02503263 0.018152319
0.0037147112 -0.03409165 0.0072414614 -0.013961147 0.03365903 -0.011735572 -0.024769617 0.02015366
0.017810572 0.011317295 -0.030382063 0.042119723 -0.015029639 8.813226e-05 0.0054652547 0.028339777
0.016332297 0.043063328 -0.005228154 0.022066567 0.026790814 -0.0062649064 0.07538186 0.059069604
0.04069272 -0.018377017 0.036654096 0.0461191 0.01709948 0.031200947 0.03919242 0.0033900016
-0.025163988 -0.036085524 -0.0045142765 -0.00091846596 -0.048262864 -0.012622402 0.014239424 -0.0060125943
-0.045733426 0.0003480277 -0.0015032131 -0.05164275 -0.0018385204 0.011934616 -0.053929467 -0.0049852277
-0.0042585745 -0.013721559 0.031353567 -0.013596199 0.019571347 -0.028429145 0.0033533315 -0.017367259
0.004710895 -0.017683545 -0.016345333 -0.0081619555 0.0061644977 0.016802225 -0.0032405376 0.018195802
0.0061758417 0.01381474 -0.005396552 0.02847288 0.034354072 0.026141988 0.020371003 0.0025192825
0.01328409 -0.023711307 0.0071293716 0.03143561 0.041443884 -0.016275743 -0.026314458 -0.0022325423
0.0011561471 -0.020407934 -0.035803065 -0.032052297 -0.06103677 -0.016312351 0.00034206777 -0.037327956
-0.03432111 0.0035433904 -0.013784732 -0.023971051 0.035078697 0.04066876 0.019812018 0.0007962249
0.0027052346 0.0065155732 0.015989888 -0.020546436 0.00526167 0.031268407 -3.6975478e-05 0.006808556
0.070562944 -0.016268838 0.022748103 0.025047906 0.05547529 0.036060333 0.009410595 0.047579717
0.07449062 -0.014579234 -0.01665932 0.0006306667 0.09574806 -0.011762449 -0.040653177 -0.024790661
0.044581242 -0.0021596109 -0.08218732 0.034774568 0.08997019 0.0020975382 0.007393668 0.0523657
0.03951102 0.013940647 0.047073454 0.014355296 0.035765942 0.0330563 -0.012730316 0.007275162
-0.0023939502 0.005786438 0.0102352 0.006366181 -0.023922035 0.024498513 0.017089272 0.06041724
0.0059900857 -0.00022186883 -0.00020880226 0.038860846 0.031758133 -0.025962671 0.040283144 -0.03504594
-0.038236827 -0.036225814 0.02522345 -0.049589597 -0.017467216 0.00081567833 -0.017719455 0.031208033
-0.032480672 -0.00838972 0.0030141803 0.04705473 0.04876806 0.06621081 0.03996549 0.041393794
0.07470553 0.07390512 0.07231016 0.071570106 0.08853913 0.045591895 0.033528708 0.057958566
0.015302655 0.03177776 0.020229906 -0.038753297 -0.015996343 0.016065728 -0.0002527879 -0.031633407
-0.059918787 0.007413916 -0.018218 -0.037132148 -0.052030753 -0.054785497 -0.04473922 -0.02837993
0.037935592 0.023243105 0.080799274 -0.008135177 -0.057612076 0.037228763 0.02258807 0.0058037015
0.0015428399 0.0040826607 -0.022914119 -0.05214796 -0.052644048 -0.005178294 0.026547669 0.0007240503
0.01483575 -0.029348284 -0.019582223 0.0049910154 0.02904329 0.00781232 0.011845262 0.05037
-0.014279213 0.023681374 0.025141831 0.07363856 0.047874298 0.031787742 0.024584094 0.027524825
0.05400526 0.045200657 0.018198417 -0.02536043 -0.024836881 -0.019227574 -0.047375392 0.06371958

bias f4 [32]
00000000: 5267 02bd dbb3 b93c 6540 30be e643 9bbd
00000010: 10ef 9a3c 4020 1cbb eac7 fb3c dfff c03b
00000020: 7cdb 4cbe d7c4 fdbd 9f16 95be edc3 e4bd
00000030: 588d f73d 8158 8fbd 46a1 45be bb91 b0bd
00000040: d6f5 83bd bbd3 f9bb b9a8 22be 15eb 55be
00000050: f76c 16be 67c1 693c 9542 bbbd 0bc7 853d
00000060: 5bf6 58bd 7edb 94bd 2743 a6bd d004 18be
00000070: 2e87 46be ac98 4fbd 46e3 1abe ab0b 30be
-0.031836815 0.02266877 -0.17212065 -0.0758131 0.018912822 -0.0023822933 0.030734975 0.005889877
-0.20005602 -0.1239106 -0.2911882 -0.111701824 0.12087506 -0.06999303 -0.19299802 -0.08621546
-0.06443374 -0.007624117 -0.15884675 -0.20890458 -0.14690004 0.014267302 -0.09143559 0.06532105
-0.052969318 -0.07268427 -0.08118277 -0.14845586 -0.19387504 -0.05068271 -0.1512576 -0.17191951

weight f4 [64, 32, 5, 5]
00000000: 00c1 53bd b0ac c53b 405a dc3c 0c7e bc3b
00000010: 27b7 e23c 2a2f 64bb db3e 943c 3463 febc
00000020: 9481 35bd 6a2f 7abc c0eb 00bd 22b5 7ebb
00000030: 321d f13c cf65 14bc e1df 253c d7c2 bbbc
00000040: 7e70 fc3c 5500 0cbd d704 eb3c 91b8 27bc
00000050: ddeb e23c 43a1 493d d18d edbb f6cd 8dbc
00000060: b2a1 dcbc 3453 063c e161 94bd bc92 303d
00000070: 05d9 dc3c 830d d53b a28b a43c 2676 0f3c
00000080: 5c49 81bb be2e 3bba 0b7c f0bc 981d f2bc
00000090: f4b9 a93a 0f71 d73c c41b 1b3c 7057 75bd
000000a0: db34 bd3c 7f79 d0bc ed24 48bc 2366 0f3d
000000b0: 0a49 6cbc d9b6 10bd cdb8 10bc 6127 1cbd
000000c0: 3b65 413d 1b80 533c b30b f7bc 1c0d 2cbb
000000d0: 842e da3b 1e88 65bd 7751 f339 4849 83bd
000000e0: 932c b0bd e6f5 28bc 1fad 0d3a 57d1 b9bc
000000f0: f0e0 43bd cbf5 acbc 1e47 29bc 50b6 363d
00000100: deda 343d e5e1 aabd eb78 5b3d d610 ca3c
00000110: b4f0 ec3c 31a2 1d3d 472b a2bb da0f 0a3b
00000120: c2d8 743d 19be 463d 0d11 b83d 150e 2cbd
00000130: bed4 5fbc d97d 4bbc d345 d7bc 4052 4f3d
00000140: 5c55 2b3c 4bf6 afbc bb13 ac3c bba9 863d
00000150: 7d38 3f3c 720b 8b3b 76e0 d03c 7238 b9bb
00000160: b206 7ebd 4091 6dbd 6e01 d23c 10d9 8ebc
00000170: 1800 61bb 954a 23bd 6c72 89bd 60cb ef3b
00000180: b8f7 07bd 742d 22bd 888c fdbc bc60 35bd
00000190: 34b3 60bb 953d 0aba 9de3 413b a456 403c
000001a0: 96c8 0bbd c786 2cbd df90 673d 8082 573d
000001b0: 1235 523b 9704 b73c 7516 51bd fc3b 4fbc
000001c0: 2c37 aa3b caab 3c3d bafe 5f3c 43df b2bb
000001d0: c819 963a 023c fbbb 2889 8dbc 61ba 35bd
000001e0: fe6d b1bc bff8 d5bc 2e41 ddbc a265 3fbd
000001f0: f567 53bb 6a51 3eb9 7e4e 0d3d 35d0 5abd
00000200: c49a 96bc 986b ae3c fb01 0abd 5b0e eb3a
00000210: 410e 8bbd edc4 92bc 1fc2 f3bc cbc9 09bd
00000220: e1e9 d63b 31f9 05bd dfa4 0fbd d562 62bd
00000230: 1545 c339 fae3 2b3c 57f9 2abd ed90 51bd
00000240: 62e1 14bd b444 60bc 847d 0abd 685c 12bd
00000250: 1ffe cebc 2663 cabb 065d a8bc 09c9 cc3c
00000260: c89b a2bb 5d8c 453c 249b fd3a 2096 3abd
00000270: c0a3 013d eb0f 213d 618c b43b cb60 8abc
00000280: 3c17 3fbd dcdf 143b d60e 08bd 2a0a 16bc
00000290: d4fb 1ebd 90a5 afbc da7c 2b3d cf67 9d3c
000002a0: 4da9 733c 4a09 423d e2c9 213d 838f 51bc
000002b0: 7593 ebbb 1b4e a8bc 7efa cfbb 1bce 07bc
000002c0: 6401 50bc 3eae cd3c 6ea9 a1bb 8b39 35bc
000002d0: 9521 1d3d ebb1 6a3d 52b9 e43c 792c 973c
000002e0: 7888 2d3d 6667 fbba ed43 183d cf9e 0a3c
000002f0: 9809 efb9 7a01 bebc 23d5 16bc 48c8 813d
00000300: a71e 323d 2380 3b3d db41 063c 1edc 06bd
00000310: e608 b93c 495f 5a3d f94f 293c ba45 7bbc
00000320: 69cb 603c 8f27 fc3b b016 99bc 46cf c6bc
00000330: b7b7 233b 8d81 d6bc 6ba0 983b 25d5 08bd
00000340: f15d e5bc 7e37 873c a573 49bd 0b7e f9bc
00000350: b2e1 e6bc 3300 573c 190d 09bd e919 c7bc
00000360: 17e9 feba 7de3 c03b d8ff 59bc 2243 993c
00000370: 75a0 58bd 7541 a73c 09b3 6fbc df02 7cbc
00000380: 858f 19bc 8dd8 f3bb 7fbb 2dbd daed 0cbc
00000390: 6004 9b3c 3235 77bc be16 81bc be22 993c
000003a0: ac36 27bc fa6d 53bd 632d 05bc 7af8 193d
000003b0: c05d eebc 497c ebbc a77c 4cbd 0f1d 22bc
000003c0: cb56 0f3b 0368 59bd 653a a83c 28ce acbc
000003d0: 8d1c 80bc 3863 ba3b 1b65 2fbd 28fc 2c3c
000003e0: 7dc2 c737 82f8 9fbd 2d76 eebc 5fbb 5fbd
000003f0: d544 3ebd 9764 6f3c f7fc 903c 96c7 1fbd
-0.05169773 0.006032549 0.026898503 0.0057523306 0.027675224 -0.003481815 0.018096378 -0.031053163
-0.04431303 -0.015270093 -0.03147483 -0.0038865288 0.029432867 -0.009057476 0.010124178 -0.022920055
0.03081536 -0.034180004 0.028688831 -0.010236875 0.027700359 0.049226057 -0.007249572 -0.017310124
-0.026932571 0.008198548 -0.072452314 0.043108687 0.026958952 0.006501855 0.020086113 0.008756196
-0.0039455127 -0.0007140449 -0.029356023 -0.029555127 0.0012949095 0.026299028 0.009467069 -0.05989784
0.023096493 -0.025448559 -0.012215835 0.035009515 -0.014421711 -0.035330627 -0.008833122 -0.038123492
0.04721568 0.012908961 -0.030156946 -0.002625293 0.006658377 -0.056038015 0.00046409268 -0.06410462
-0.08602252 -0.010312533 0.000540452 -0.022682829 -0.04782194 -0.021113297 -0.010331897 0.04460746
0.04415404 -0.08343867 0.053582113 0.024666231 0.02892337 0.038484756 -0.0049490067 0.0021066577
0.05977703 0.048521135 0.08987627 -0.042005617 -0.0136615615 -0.012420141 -0.026278412 0.05061555
0.010457363 -0.021479746 0.021005502 0.06575342 0.011671183 0.0042433077 0.025497656 -0.0056524808
-0.062018104 -0.05799985 0.025635447 -0.017437488 -0.0034332331 -0.03986605 -0.06711277 0.0073179454
-0.033195227 -0.03959413 -0.0309508 -0.044281706 -0.00342865 -0.00052734587 0.002958513 0.011739407
-0.03412684 -0.04212072 0.056534644 0.05261469 0.003207509 0.022341056 -0.051046807 -0.012648579
0.0051945653 0.04606227 0.013671571 -0.005458744 0.0011451775 -0.0076670656 -0.017277315 -0.044367198
-0.021658894 -0.026119588 -0.02700862 -0.046727784 -0.0032258008 -0.00018150141 0.034498684 -0.053421218
-0.018384345 0.02129154 -0.033693295 0.0017933355 -0.06789828 -0.017916167 -0.02975565 -0.03363971
0.0065586423 -0.03270835 -0.035069343 -0.055270035 0.00037244768 0.010491366 -0.041741695 -0.051163603
-0.036347754 -0.013688255 -0.033811107 -0.035732657 -0.025267659 -0.00617637 -0.02055217 0.024998205
-0.004962418 0.012057391 0.0019348604 -0.045553327 0.031650305 0.03932182 0.0055098985 -0.016891858
-0.046653017 0.0022716438 -0.033217274 -0.009157697 -0.03881438 -0.021441251 0.041867115 0.019214539
0.014871907 0.04737214 0.03949917 -0.0127905635 -0.007189209 -0.020545056 -0.0063469997 -0.0082888855
-0.012695644 0.0251075 -0.0049335277 -0.011061083 0.038362104 0.057298582 0.027920399 0.018453823
0.042366475 -0.0019180595 0.037174154 0.0084607145 -0.0004559278 -0.023194063 -0.009206089 0.06337029
0.043486264 0.045776498 0.008194412 -0.032924764 0.02258725 0.053313527 0.010334008 -0.015336448
0.013720372 0.0076951454 -0.018687576 -0.024268758 0.0024981329 -0.026184822 0.004657795 -0.033406395
-0.027998896 0.016505953 -0.049182553 -0.03045561 -0.028183792 0.013122606 -0.033459757 -0.024304347
-0.0019448128 0.0058864937 -0.013305627 0.01870877 -0.0528874 0.020416955 -0.014630088 -0.015381544
-0.009372597 -0.0074415863 -0.04241514 -0.00860163 0.018922985 -0.015088366 -0.015757915 0.018693324
-0.010205906 -0.051618554 -0.008128497 0.03759048 -0.029097438 -0.028745787 -0.049923565 -0.009894623
0.00218718 -0.05307771 0.020535657 -0.021094397 -0.015638614 0.0056880973 -0.04282103 0.010558166
2.3813214e-05 -0.07811071 -0.029109085 -0.05462205 -0.046452362 0.014611385 0.017698748 -0.0390087

bias f4 [64]
00000000: 2dea 01be 46b8 da3b f230 b5bd b3b4 4fbd
00000010: e349 32be 4130 a8bd 0d54 b0bd ec7a a7bd
00000020: 48b3 c6bc 20fb 4dba b89e c8bd 2978 8dbd
00000030: ac1e c4bd 936a a7bd b552 7c3c 9dce 80bd
00000040: fc1c 8ebd 6577 70bd 49c8 77bd 2621 70bd
00000050: c274 56bd 705d a1bc aba5 bbbc 11b7 06bd
00000060: ee67 cebc fd9f ecbd b854 4bbd 2905 6bbd
00000070: 1d33 c9bd b740 84bd 253a b43b 4121 9bbd
00000080: 1b7a 8cbd 592b f1bb 7aaf cbbd 4cc1 40bd
00000090: f315 5fbd c68a 2ebd f6da 13bc 7729 aebd
000000a0: 3865 99bd 812b 22be bdc6 29be ece9 a1bd
000000b0: 5d24 fdbc d029 b7bd 06b8 75bc 0942 cabd
000000c0: f344 c6bc 5858 e7bd 6a85 f9bd 5bb2 34be
000000d0: 63fb d5bd 6723 6ebc 4636 a2bd 5643 dbbc
000000e0: dd27 8fbb a7ec d5bd 2738 cabd 93af 9cbd
000000f0: e1c3 23bd b14a cebd d33a a6bd a6d5 83bd
-0.12686987 0.006674799 -0.08847226 -0.050709438 -0.17410998 -0.08212329 -0.086097814 -0.08177742
-0.02425541 -0.000785755 -0.09795898 -0.06907684 -0.09576163 -0.08174624 0.015400578 -0.06289408
-0.06939122 -0.058707613 -0.06049374 -0.058625363 -0.052357443 -0.019697875 -0.022906145 -0.03288943
-0.025196042 -0.11553953 -0.04964134 -0.057377968 -0.09824202 -0.06457656 0.0055000954 -0.07574702
-0.06859227 -0.007359904 -0.09945579 -0.047059342 -0.05446429 -0.042612813 -0.009024372 -0.085040025
-0.07490009 -0.15836908 -0.16579719 -0.07905945 -0.030901128 -0.08943522 -0.014997488 -0.098758765
-0.0242028 -0.11296147 -0.1218365 -0.17646162 -0.10448339 -0.014534808 -0.07920508 -0.026765507
-0.0043687657 -0.104455285 -0.098739915 -0.076506756 -0.039981727 -0.1007284 -0.081166886 -0.064372346

weight f4 [64, 1024]
00000000: d4d1 96bc 3dbf 7a3d 4188 3e3d 8c8f ee3b
00000010: 6653 993d cb90 1f3d ecb3 d33c 32f5 b7bb
00000020: 5a01 0abc 3b36 33bb 8a63 173d 1ffd 9f3c
00000030: 0443 edbc 80ac 16bc 77d9 6239 b7d5 e1bb
00000040: 74aa 9dbc 14c4 943c 6668 683c e837 613c
00000050: 9567 30bd f8c2 3dbb b178 333d 3413 803c
00000060: 0432 44bc d94c c8bc 3b8c 42bd efe7 89bd
00000070: 5d44 d03c ec04 d6bc edc6 333c ea64 c03b
00000080: 7d4f af3c e795 543c cbbd 4dbc 7ba4 863c
00000090: 1d80 cd3b 5bfa 39bd 403e 633b e144 8c3b
000000a0: 96c0 4e3c 1206 03bd db18 163d c157 803c
000000b0: d6e7 2f3d 3ca3 803c 103f d3bc d655 8d3d
000000c0: f4e7 09bc ed96 e6bc 7d2e f13c f396 82bc
000000d0: 31b0 0e3d 210d f03b aaee 6ebc 023d 863b
000000e0: be13 b03d 85d8 883c 353d 3ab9 f3d5 083d
000000f0: ed5c 703d f1d5 e73c 7d16 873d c731 923d
00000100: f5d4 16bd 45c8 843d 9c0c a9bc d351 7a3c
00000110: e755 3c3d 2bdf 8a3b 0656 25bd c60e 173d
00000120: c406 0f3b 77d8 36bc ff1a 683d 44fc 943c
00000130: 4aff 503d c052 08bd 4853 a03b b925 31bd
00000140: 7c55 a3bc 92c8 083d ad66 743c 8eb0 3b3d
00000150: cf32 d3bc ff3c cb3c c58f 673c 61f4 c13c
00000160: baec 073d dd3f 0e3c ff40 20bc 29c0 c9bc
00000170: 6a1b 38bc 9c66 f43c 20ed 16bc 3d64 d23c
00000180: 7882 82bb 3247 eb3c b902 503d e177 00bb
00000190: 3ac8 aabc 029f 81bc 0fa1 e0bc db2f 85bd
000001a0: 91b1 a93c 0d45 093d 5e90 8abc 90c5 3f3d
000001b0: 439f 643c b7f9 9b3d abca 30bc 54c4 df3c
000001c0: b448 083d bd3e 3d3a fe37 783c 6374 94ba
000001d0: e8d5 1dbc 6a3d 22bd 1a75 d1bc 9702 8c3c
000001e0: 11bc 74bc d78a 8abd 83d5 e3b8 a154 a5bc
000001f0: 6cc6 03bc 7e36 453c 9ff8 babc 7ec8 303d
00000200: f889 133c d049 24bd 4a19 62bd 3597 48bd
00000210: 7680 953d 9b30 d03c 8e7c babc b83a 2ebd
00000220: 5280 7ebc fcfb 463c 585e 29bd 9847 e63b
00000230: dd4d e53b dd2c b9bd d342 4bbd 5d8b b03c
00000240: 5aa6 bfbb 61cf 5abc b8ca 1f3d 494e 09bd
00000250: 8b34 04bb 3d23 af3b d474 8dbc 7ffd 17bb
00000260: 6397 2d3d 8ff8 5bbc 344f 16bd 8d93 5cbc
00000270: c2c4 323b c7d6 44bc c422 0cbd 2009 18bc
00000280: 0272 adbc d5a0 5ebd 4c47 313c 9600 49bd
00000290: bea9 18bd 762b 72bb 4bb5 0e3d 07ec 263c
000002a0: edb5 5a3c 71c7 143c 433e ec3c 0490 6fbb
000002b0: fa00 883a 51bc 273d 6d7c 823d 50c3 bebc
000002c0: 79b5 283d 66cc 54bc 485f 04bc 8b93 0c3d
000002d0: 3ce5 c3bc 87be aa3d 27c4 0ebd ec26 5a3d
000002e0: 12ff 173c fc88 d73c a1bc 04bc 1e5d ff3c
000002f0: 8a56 d83c 72b0 333c 04e6 413d 37d9 043d
00000300: b47d 883c f429 803d 51cb 763b 7eca baba
00000310: 29ab 603c 901f 1ebc fafe f83c 6777 4bbd
00000320: 145b b33c 4840 473c e727 8dbb dc7f d1bc
00000330: efe6 153d 083f e2bc 33ce 1b3c 7a59 1dbd
00000340: 379a 09bd f83f cc3b 355d f5bb dc1d 683d
00000350: 9bc6 54bc 2eca f63c fa09 8b3c b222 b53b
00000360: 2452 803c 0ca7 673a dad0 38bd bcc0 0d3d
00000370: db4b a2bc fd03 ebbc 763d f13c 7169 7e3c
00000380: 5c18 afbc 1912 e83b 1eab eabc cf56 2cbd
00000390: 8f9e 5e3b c11d c23b 84b2 cbbc 9bdc 0bbd
000003a0: 576a 5b3d 95ac 253d e467 673a 939c 9fbb
000003b0: 8bd6 fe3c 1478 193d 40e4 283c fafb 683c
000003c0: cb5a 36bb 62ed 403d 27b7 aa3a 2c58 443c
000003d0: d23e 683b d0b8 64bb 2a81 60bc 5644 aebb
000003e0: 016c 523c 6d86 fdbc b648 463c 924e 543b
000003f0: 9845 103d f700 9c3d 75e0 b63d e32c fe3c
-0.0184106 0.061217535 0.04651666 0.0072802957 0.0748661 0.038956445 0.02584263 -0.0056139464
-0.008423174 -0.0027345556 0.036960162 0.019529877 -0.02896262 -0.009196401 0.00021634052 -0.006891932
-0.019246317 0.018159904 0.014185047 0.013746239 -0.043067534 -0.0028955322 0.043816272 0.015634157
-0.011974815 -0.024450706 -0.047497015 -0.06733691 0.025423223 -0.026125394 0.010972721 0.005871405
0.021400208 0.012975193 -0.012557457 0.016435852 0.006271376 -0.045404773 0.0034674555 0.004280672
0.012619158 -0.03198821 0.036644798 0.015666844 0.042945705 0.015702836 -0.025786906 0.069011375
-0.008417118 -0.028148139 0.029441113 -0.015941119 0.034835998 0.007325784 -0.014583269 0.004096628
0.085975155 0.016704807 -0.00017761144 0.033407163 0.05868237 0.028300257 0.06596086 0.071384005
-0.036824185 0.06483511 -0.020635895 0.0152782975 0.04598036 0.0042380295 -0.04036524 0.036879323
0.00218241 -0.011160008 0.05666637 0.018186696 0.051024713 -0.03328204 0.0048927404 -0.043248866
-0.019938223 0.033394404 0.014917058 0.045822673 -0.025781063 0.024809359 0.014133398 0.0236761
0.033184744 0.008682218 -0.009781121 -0.024627762 -0.011237005 0.029834084 -0.009211808 0.025682563
-0.0039828382 0.028720472 0.050783847 -0.0019602703 -0.020847429 -0.015822891 -0.027420549 -0.06503268
0.020714553 0.033513118 -0.016914543 0.04681927 0.013953987 0.07615989 -0.010790507 0.027315296
0.03327246 0.00072191266 0.015150068 -0.001132619 -0.009633519 -0.03960935 -0.025568534 0.017091079
-0.014937417 -0.06764763 -0.00010863973 -0.020181956 -0.008042913 0.012036918 -0.02282363 0.043159954
0.009005062 -0.040109456 -0.0551999 -0.048972327 0.072998926 0.025413802 -0.02276447 -0.042536467
-0.015533524 0.012145039 -0.04134974 0.0070275776 0.0069978074 -0.0904176 -0.049624275 0.021550829
-0.005848688 -0.013355107 0.039011687 -0.033521924 -0.002017292 0.005344777 -0.017267622 -0.0023191867
0.0423807 -0.01342596 -0.036696628 -0.013462913 0.0027277921 -0.0120140975 -0.034212843 -0.009279519
-0.021172527 -0.0543526 0.010820221 -0.049072824 -0.037271254 -0.0036952174 0.034840863 0.010188109
0.013349039 0.009080754 0.028838282 -0.0036554346 0.0010376268 0.040951077 0.063713886 -0.023286492
0.04118869 -0.0129881855 -0.008079357 0.034320395 -0.023913018 0.083371215 -0.034855034 0.053259775
0.009277122 0.026310436 -0.008101613 0.031172331 0.026408453 0.010967361 0.0473385 0.032433715
0.016661502 0.06258002 0.0037657807 -0.0014251021 0.013712683 -0.00965108 0.03039502 -0.049674418
0.021894015 0.012161322 -0.0043077352 -0.025573663 0.03659719 -0.027617946 0.009509611 -0.03841541
-0.033594336 0.0062332116 -0.007487918 0.0566691 -0.012986804 0.030125704 0.01697253 0.0055278176
0.015664168 0.00088368426 -0.04512105 0.034607634 -0.019811561 -0.028688425 0.029448252 0.015528069
-0.02137392 0.0070822355 -0.028646048 -0.042074975 0.003396902 0.005923957 -0.024865396 -0.034145933
0.05356821 0.04044779 0.00088274316 -0.00487096 0.031108161 0.03746803 0.010308325 0.014220232
-0.0027825113 0.047101386 0.0013024554 0.011983912 0.0035437834 -0.0034900196 -0.01370267 -0.005318205
0.012843133 -0.030947888 0.012102297 0.0032395464 0.03522262 0.076173715 0.089295305 0.031027263

bias f4 [64]
00000000: 1674 f4bc f4ed 6e3a 1fbd 1ebd 91ff b7bc
00000010: 1bad 183c 91ed c03c 2a48 35bb 2299 0bbd
00000020: ca20 263c 8659 66bd 7e65 713b 689d f33a
00000030: 3af7 a73b 1e98 343d bf91 25bc d88c 82bb
00000040: 446c a03c 2fe9 0e3d eb67 97bd 52ab 90bb
00000050: f2cb 18bb 81ed 94bc 4467 3abc 7984 523d
00000060: 3a0e 693c 542f 423d d856 853c 3a35 243d
00000070: e2e7 653d 53cc 033d 1abb 31bc 869a 153c
00000080: 1566 35bd 9193 3b3d 429f 053c 3617 ddbb
00000090: 49a5 33bc 27c6 e73c 01b5 45bd d432 b1bb
000000a0: 11e7 5bbd fa0a 7ebc f179 2ebc 61f4 c33c
000000b0: af83 933b 7f03 a9bb dc8f 463d 8057 16bd
000000c0: b86b 993d 3dfc 8d3c f0a1 f0bb b8a4 ddbc
000000d0: 75f3 36bd 7f40 183a cd47 0abc 5f98 263c
000000e0: 925a 893d c89e 93bc 7bee dbbb d149 b63c
000000f0: 75b6 85bd ab6e 42ba fdc1 403c 8abb 68bd
-0.02984051 0.0009114437 -0.03875458 -0.02246073 0.009318615 0.02355078 -0.0027661421 -0.034081586
0.010139653 -0.05623772 0.0036834176 0.001858634 0.0051259072 0.044090383 -0.010105549 -0.003984075
0.019582875 0.03489035 -0.07392868 -0.004414954 -0.002331492 -0.018179657 -0.0113771595 0.051395867
0.014224583 0.047408417 0.016276762 0.040089823 0.056129344 0.03217728 -0.010847831 0.00913108
-0.044286806 0.045795027 0.008155646 -0.0067471517 -0.0109647 0.028292729 -0.048268322 -0.0054076705
-0.05368716 -0.015505547 -0.01064919 0.02392024 0.004501782 -0.0051578875 0.04847704 -0.03670454
0.07491249 0.01733219 -0.007343523 -0.027056083 -0.044665772 0.00058079505 -0.00843997 0.010168164
0.06706728 -0.018020049 -0.0067117787 0.022251995 -0.065289415 -0.00074170035 0.011765 -0.056819476

weight f4 [10, 64]
00000000: 7344 b93d ba54 423d b843 1f3e 29fd 7bbe
00000010: fa17 4fbe e205 443e f80c a7be cb27 b73e
00000020: 1f3c e1bd 6f41 f13c b3ac 17be 5327 893d
00000030: bcd4 03bc bfc0 fcbd 51ed ffbc cd88 4bbd
00000040: 071d 203d 35e4 9dbe c75b 143d c5f3 783d
00000050: 64b5 8d3a c699 c9bd 9058 12bd 785d 913d
00000060: 9527 2bbc 152c 47be 2a8d ffbd 0303 3e3e
00000070: 64c8 a1be 6657 50be 43ec 62bd 4155 593c
00000080: 9bf0 c9bd 111a 113e 3aed 2bbc 879a bf3e
00000090: 85c8 533e 5a69 073e f0f3 783d a638 bfbe
000000a0: 23de 5a3e b1da e0bd 2c9b 2bbe 8762 2abe
000000b0: eaba a53d 4882 d43d 9f80 38be b42f 16be
000000c0: b170 a4be ec11 6fbc 595b 293e f34d 5e3e
000000d0: 722e 45be 3f34 d6bd 68aa 41bb f86e 223d
000000e0: dca2 8bbd 8b4a 3a3b 4211 90bd d9fe f1bd
000000f0: e9e1 2d3e 3b1f 97be 9ffe 043e 760e a03e
00000100: 906d 863e ad70 5ebe 5689 7dbe 2456 893e
00000110: 5e5a 72bd bdb6 14be 1150 d6bd 7d3a cc3d
00000120: 7ba5 453e 2d36 17be d1a4 b7bd a38a 07be
00000130: d7b2 4d3c 12d5 84be 25be 16be 5bf9 94bd
00000140: ff36 b23b f199 8bbe 8bc5 933d f621 3e3e
00000150: f530 39be 2632 c43e cc57 f93d a080 583e
00000160: e85d a03e e187 3a3d 6b60 663e f477 22be
00000170: 7d49 5fbe 7513 283e 6365 42bd f821 5e3d
00000180: 5e5a ffbd 0827 91be 32d2 f3bd 8b37 b4be
00000190: 8f00 be3d f008 823e 5f6e 6ebe 0329 64be
000001a0: 11bb 2dbe f7e6 633e 1546 8c3e 35dc 4f3e
000001b0: 3bd3 93be 7605 973b 93bf 9abd 8774 5e3d
000001c0: 64f0 72be e342 96bd 06b5 8c3c 141c 87be
000001d0: 6428 1dbe dc47 b33e 1a31 803e eee5 973e
000001e0: e4ad a5be 1759 40be fa1e a63e 6a08 a4bd
000001f0: 1a7e 4bbd 3ee3 35bc 8dec 683e 6ddc 79be
00000200: c683 6ebe dacf d33c 8760 bebc 4c62 15be
00000210: 6f15 81be 8d70 b73e 5af4 c63d 806e 443e
00000220: 412e b9bd af69 f53c ae88 fa3c c674 66bc
00000230: f7ca 32be bc0c 983b 5143 b13d fc69 913e
00000240: 7ae6 a9bd 515c d4bd 2de3 843e 4d56 9abe
00000250: 7959 a13d a469 59bc edfe d73b 9390 acbd
00000260: df5b af3d 98ec 50be 705c 93be f58b 9ebe
00000270: 073f f33b a1c9 e13d a52a d7bc 1512 013d
00000280: 75cd 3cbe 31a2 b4bd 04f8 cebb 81c1 ad3e
00000290: 14ac 6fbe d99b 5d3d 0440 71bc 8e40 973e
000002a0: e4f4 843e 8242 8bbe 720a 753e 38dc 293e
000002b0: 36d8 8b3e 05b8 dfbc f554 7cbd 05a5 2abe
000002c0: 45d2 9d3c 8531 dcbd 0bf0 44bd 9381 bbbd
000002d0: 1a44 2dbe afa5 14be 17cf 323e 73ab 8cbe
000002e0: d7ff 8c3e 51c7 73bd 1677 13be 5049 10bd
000002f0: 1bdf edbd fa26 603e 8cf9 cf3d b0e6 20be
00000300: 4b73 703e b56c 3d3d 1466 4f3e 7487 c73d
00000310: 6ff1 513e b873 7c3d 386b 883e 6b4d f3bc
00000320: d224 ac3d e3fd d43d 7b18 b73d d8d3 32be
00000330: 3d1e 103e 66e1 f33d 1244 073e 21bd bfbd
00000340: cb2c 23be 6c11 723d e803 8f3d 37f1 823e
00000350: a2c9 3bbe 46a0 8fbe f8ce b03c 9d64 71be
00000360: 9a70 2b3e b5c3 1f3b 4b3f 3fbe a81d 6e3e
00000370: bd23 933c f4e0 bdbc 1f1a c9bd 98e7 003e
00000380: e232 2cbe 7020 043e 20d3 cebd d3ef 53be
00000390: f8e5 f9bd d930 d2bd 67e0 af3c afda 4abc
000003a0: a2f9 303d 0e3b 6e3b 2797 35be 8c9b eb3d
000003b0: 0158 cb3c 0fb1 263a faf0 d7bd 151b 28be
000003c0: 9de7 bd3d 64df e93d 6cec 58be 9737 fcbd
000003d0: 3ceb 023e d689 6cbd 6c87 7e3d 3a65 50be
000003e0: bfe7 0c3e 70b2 33be 23b8 6abe 7db9 11be
000003f0: 2e89 acbd 2993 063e 47dc c6bd cc64 e73c
0.09046259 0.047444083 0.15553176 -0.24608292 -0.2022399 0.19142869 -0.32627082 0.35772547
-0.10997795 0.029450146 -0.14811973 0.066969536 -0.008046325 -0.12341451 -0.031241091 -0.04969101
0.039090183 -0.3083817 0.03622034 0.06077935 0.0010811505 -0.09843783 -0.03572899 0.07097906
-0.010446449 -0.1945041 -0.12478097 0.18555836 -0.31598198 -0.2034584 -0.055401098 0.013264955
-0.09860345 0.141701 -0.010493571 0.37422583 0.20681961 0.13223782 0.060779512 -0.37347907
0.21373801 -0.10979212 -0.16758412 -0.16639148 0.08092292 0.10376412 -0.18017815 -0.14666635
-0.32117227 -0.014591675 0.16538753 0.21709423 -0.19255999 -0.10459184 -0.0029551033 0.03965661
-0.06818172 0.0028425779 -0.07034542 -0.118161865 0.16980709 -0.29516014 0.12987755 0.31261033
0.26255465 -0.2172267 -0.24759421 0.26823533 -0.059168212 -0.14522834 -0.1046449 0.09972093
0.19301407 -0.1476676 -0.08966983 -0.1323648 0.012554846 -0.2594381 -0.14720972 -0.07274123
0.005438685 -0.27265885 0.07215413 0.18567643 -0.18085082 0.3831951 0.12174949 0.21142817
0.31321645 0.04553974 0.22497718 -0.15866071 -0.21805377 0.16413672 -0.04745997 0.054231614
-0.12468408 -0.2835009 -0.11905326 -0.35198626 0.0927745 0.25397444 -0.2328429 -0.2228127
-0.16965891 0.22256075 0.27397218 0.20298846 -0.28872094 0.0046088053 -0.07556071 0.054310348
-0.23724514 -0.073369764 0.017176162 -0.2638861 -0.15347439 0.35015762 0.25037462 0.2966761
-0.3235923 -0.18783985 0.32445508 -0.08009417 -0.049680807 -0.011101542 0.22746487 -0.24400492
-0.23292455 0.025855947 -0.023239387 -0.14588279 -0.25211665 0.35828057 0.09714575 0.19182777
-0.09042025 0.02995762 0.030582752 -0.014065927 -0.17460237 0.00464019 0.08655418 0.28401172
-0.08295913 -0.103691705 0.2595457 -0.30143967 0.07878394 -0.013269816 0.006591669 -0.08426013
0.08562445 -0.20402753 -0.28781462 -0.30966154 0.007423285 0.11024786 -0.026265452 0.031511385
-0.1843775 -0.08819998 -0.006316187 0.33936694 -0.23405486 0.054103706 -0.014724735 0.2954144
0.25968087 -0.2719918 0.23929766 0.16587913 0.27313393 -0.027309427 -0.06160446 -0.16664512
0.019265303 -0.107516326 -0.048080485 -0.09155574 -0.1692051 -0.14516328 0.17461811 -0.27474555
0.2753894 -0.059516255 -0.14400896 -0.035226166 -0.116148196 0.21889868 0.10155019 -0.15713
0.23481481 0.04624625 0.20253783 0.097426325 0.20502256 0.061633795 0.266443 -0.029700002
0.084054604 0.103999875 0.08940216 -0.17463624 0.14074035 0.11908226 0.1320956 -0.09362245
-0.15935056 0.059098646 0.06983167 0.25574657 -0.18338636 -0.28051966 0.021583065 -0.23573537
0.16742173 0.0024378125 -0.18676488 0.232535 0.017961377 -0.023178555 -0.09819435 0.12588346
-0.16816285 0.12902999 -0.10098863 -0.20696954 -0.12202066 -0.10263223 0.021469308 -0.01238124
0.04320682 0.0036351117 -0.17733441 0.115042776 0.024822237 0.0006358781 -0.105440095 -0.16416581
0.09272692 0.114195615 -0.21183938 -0.123152904 0.12785047 -0.057748638 0.062140867 -0.20351115
0.13760279 -0.17548537 -0.22921805 -0.14230914 -0.084246024 0.13142075 -0.09709983 0.028246306

bias f4 [10]
00000000: 30bb 67be 2f72 9abd b087 df3d 39a5 d03d
00000010: 0013 3a3e ffd3 24be 8ee7 173e a7df 833d
00000020: afb1 c7bd 5a1c 033d
-0.2263 -0.0754131 0.10914552 0.10187764 0.1817131 -0.16096495 0.14834425 0.06439143
-0.09750687 0.03200946
