Pytorch/model_data/CIFAR10_EPOCH9.pth (torch, 588827 bytes, 10 tensors)

weight f4 [32, 3, 5, 5]
000000 a3 47 ae bc e4 9f 5e bd 13 2f b1 bd 10 c2 17 be
       -0.021274393 -0.054351702 -0.08651557 -0.14820123
000010 bc 08 23 bd 8d 55 1d be f0 bd fb bd e8 93 a2 3d
       -0.03980325 -0.15364666 -0.12292087 0.07938367
000020 96 9b 7b bd 33 29 94 bd e2 50 11 be 68 10 3c bd
       -0.061427675 -0.072344206 -0.1419101 -0.045914084
000030 45 9a f5 3d 47 ba ac 3d 38 cd 11 be 47 8a a2 3d
       0.11992315 0.08433967 -0.14238441 0.079365306
000040 3d aa a4 bd 37 e8 a1 3d dd 9f 0d 3e fa 29 ce bd
       -0.08040283 0.079056196 0.13830514 -0.100666
000050 a8 61 67 3d 48 7c 8d b9 06 55 19 3e 14 5e f7 3d
       0.056489617 -0.00026986212 0.1497384 0.12078491
000060 e7 5c be bd ef c4 d6 bd 76 e5 2f 3d ab 01 a6 3d
       -0.092950635 -0.10486781 0.04294344 0.08105787
000070 ea 10 91 bd b8 fe 20 be 5e bf 72 bd 0d aa b9 3d
       -0.07083304 -0.15722167 -0.059264533 0.09065638
000080 06 d7 e6 bd eb 86 4d 3d a0 f7 15 be 12 87 2c bd
       -0.11271481 0.050177496 -0.14645243 -0.042121
000090 09 f9 fe bc 1f a9 22 3d f0 07 b3 3d 28 11 96 3d
       -0.031124609 0.039712068 0.08741748 0.07327491
0000a0 42 93 22 3d 36 27 b6 bd ed 3c 88 ba 98 ba 06 3e
       0.039691217 -0.08894198 -0.0010394134 0.13157117
0000b0 2e 73 23 3d 1b 4d 0b 3d 89 a8 fe 3d d2 22 33 3e
       0.039904766 0.03400908 0.12434489 0.17493752
0000c0 c7 6e 1d 3e 79 e1 6d 3d 7e a9 5e bd 6f ce 77 bd
       0.1537429 0.058076356 -0.05436086 -0.060499605
0000d0 a0 3a 0c be 32 7b 7d bd df 12 2e be 6e 6b 7b bc
       -0.13694239 -0.061885066 -0.16999386 -0.015345437
0000e0 e9 47 47 3d 5a db 05 bd ba 10 55 3d 87 76 09 be
       0.048652563 -0.032679893 0.052017905 -0.13424121
0000f0 79 ef 39 3d 20 5e 6d 3d b0 f2 58 bc 3d 97 a1 3d
       0.045394395 0.057951093 -0.013241455 0.078901745
000100 0b 74 dc bd 21 1d 29 bc a9 ca 4e 3d 7a 88 0e 3e
       -0.10764321 -0.010321886 0.05048624 0.13919249
000110 df 92 ff bc 85 3e f0 bd c6 c3 73 3d 53 7f 39 3d
       -0.031197963 -0.11730675 0.059512876 0.04528744
000120 22 bd 1d 3e 40 96 1e 3e 10 59 de 3d 68 08 b4 3d
       0.1540418 0.15487003 0.10856831 0.08790666
000130 d1 35 c2 3d d2 72 03 3e 68 10 98 3d aa 2f 3b 3b
       0.09482921 0.12836769 0.07425004 0.0028562346
000140 32 48 0d bd b9 f9 8d 3d 97 19 1a 3d 3d 3f f3 bd
       -0.03449268 0.069323964 0.03762206 -0.11877296
000150 81 cc e3 bd 57 f1 f0 3d 90 72 07 be 02 f8 39 3d
       -0.111229904 0.11764782 -0.13227296 0.045402534
000160 f7 fa 0d be ce de 83 3d 3b a4 39 3d d3 19 85 3c
       -0.13865267 0.06438981 0.045322638 0.016247666
000170 b9 ec 07 3c a0 d5 e9 3d 1e bc 76 bd 9c 89 4b 3d
       0.008296185 0.11417699 -0.060237996 0.04969178
000180 78 cc fc 3c c5 8a 93 3c 08 6b ca 3d 6c 3b 73 3c
       0.030859217 0.018010506 0.09883696 0.01484571
000190 1e 0e 72 3d dd 28 aa 3d 27 f6 42 3d e6 1d 17 3d
       0.059095494 0.08308575 0.04759803 0.036893748
0001a0 e5 f9 25 be 21 e2 a9 3d 06 4e 81 3b bb 05 e1 3c
       -0.16208608 0.08295084 0.0039460687 0.027468553
0001b0 6d 34 31 be f4 84 3e be 1a 01 ad bd 56 76 0e be
       -0.17305155 -0.18605405 -0.08447476 -0.13912329
0001c0 d2 2c 15 bd 97 5f c8 3c 76 6f 20 be 82 bd 6b bc
       -0.036419697 0.024459643 -0.15667519 -0.014388444
0001d0 48 40 29 bb a9 87 36 bc 8b 4b 0e bd 37 a8 70 bc
       -0.0025825668 -0.011140742 -0.034740012 -0.014688543
0001e0 68 c5 e0 bc 94 a1 23 3d 72 67 8e 3d 77 94 58 bc
       -0.02743788 0.039949015 0.069533244 -0.0132189905
0001f0 46 ad 6d bd 16 3f 17 3b d3 4d 6c 3d ab 69 03 3e
       -0.058026575 0.0023078374 0.057691406 0.12833278
000200 8b 28 ae bd e1 fb 18 3d cc 74 81 3c bd ea bd bc
       -0.08503827 0.037349585 0.015802763 -0.023183221
000210 c2 03 92 bd 94 61 fb bd 50 32 7b 3d 58 35 af 3c
       -0.07129623 -0.12274471 0.06132728 0.021387741
000220 60 97 74 3c d8 1f 22 bc 21 28 9d 3c 44 0d 33 3d
       0.014928669 -0.009895287 0.019184174 0.043713823
000230 dd e0 f2 bc ba 4b 4e bd cb fb d2 3d 76 26 2a 3d
       -0.029648239 -0.050365187 0.10301932 0.041540585
000240 38 b7 16 3d 98 3f 67 bd 75 b4 9a bd 40 89 d5 3d
       0.036795825 -0.056457132 -0.07553951 0.10426569
000250 5b 9b ba bd 3b 73 63 3c 4c 82 be 3d 81 60 86 3c
       -0.09111663 0.013882454 0.09302196 0.016403439
000260 d5 52 fe bd 68 c5 ce bc 15 70 f4 bd 33 ac 7a bc
       -0.12418143 -0.025240615 -0.119354405 -0.015299845
000270 5b 7f 1c 3d 2e 97 2d be 8e df 20 be 6c 22 e9 bd
       0.038207393 -0.16952202 -0.1571028 -0.113835186
000280 dc 59 c6 bd 59 96 67 3d 63 51 93 3c 03 b1 64 bd
       -0.09685108 0.056539867 0.017983144 -0.055832874
000290 b4 1e 62 bc 5f 49 19 be 8c d1 c9 bd e0 0e dc bd
       -0.0138012655 -0.14969395 -0.09854421 -0.10745025
0002a0 69 6c 8a bd b4 05 e4 bd 17 73 c4 3c a4 19 39 be
       -0.06758959 -0.111339 0.02398066 -0.18076187
0002b0 fd 0d 33 be 52 0a 19 be f2 28 13 be f4 21 03 bd
       -0.17485805 -0.14945343 -0.14371088 -0.032014802
0002c0 1d 82 fc bd b6 2d 0b 3d 81 ed fd 3c e3 65 2c 3d
       -0.12329505 0.03397914 0.03099704 0.042089354
0002d0 fb a4 25 3d 58 cf 2d bd 90 38 f3 3b 98 b1 b3 3c
       0.04044054 -0.042434067 0.0074225143 0.02193527
0002e0 c8 41 d5 bd e7 40 d4 3c 63 73 35 bd 7b 71 92 3d
       -0.104129374 0.025909854 -0.044299494 0.07150551
0002f0 26 3e ea 3d a9 8e 98 bc df a4 b0 bd 75 f9 ff 3d
       0.11437635 -0.018622713 -0.08625197 0.12498752
000300 63 bb dd 3d 42 e2 76 3d d2 88 83 bb a9 32 57 3d
       0.10826757 0.06027437 -0.004014113 0.052538548
000310 ca 60 a8 bd d2 d6 11 be b9 ec b3 bd 9d fd 98 bd
       -0.08221586 -0.14242104 -0.08785386 -0.07470248
000320 ca 0e c3 bd 9e 4e 2c bc 43 7e cc 3d de b5 23 3d
       -0.09524305 -0.010516791 0.0998502 0.039968364
000330 03 e6 f5 3d c5 1e 1a bd 4f 2d f8 3c dc 5c e1 3d
       0.12006762 -0.037627 0.030295042 0.1100404
000340 c9 c8 3a bd 0f 82 1b 3e 6b 09 f3 3d 9f 47 dc 3d
       -0.04560164 0.15186332 0.11867031 0.10755848
000350 25 5f 9a 3d eb 30 61 3e c6 61 4c 3e 86 cd 85 3d
       0.07537679 0.21991317 0.19959173 0.06533341
000360 ed 5f 39 3e 1b bf 5e 3e 5b 35 0d 3e 27 b2 0d 3e
       0.18102999 0.21752588 0.13789885 0.13837491
000370 57 64 af 3d f3 7b 3c 3d 84 ee 82 bd 80 3f c1 3d
       0.0856406 0.046016645 -0.063931495 0.0943594
000380 32 7f dd 3d 9f 85 8a 3d 3a 69 c4 3c 9d 05 7c bc
       0.10815276 0.067637675 0.023975957 -0.015382198
000390 95 d8 f6 3c c0 c4 9e bd ee ed 3c 3d b1 a7 43 bd
       0.030132571 -0.07752371 0.046125345 -0.047767345
0003a0 d6 c7 75 3d 58 9c a9 3d 6e 9a 3a 3d cb df 9f 3d
       0.06000503 0.08281773 0.045557432 0.07806357
0003b0 b5 33 bb bd 05 a6 87 bb 25 17 b2 bc 52 78 05 3e
       -0.09140722 -0.004139664 -0.021739552 0.1303418
0003c0 a3 3f 48 3d 2c a0 47 3d 27 02 72 3d 26 89 11 3e
       0.048888814 0.048736736 0.059084084 0.14212474
0003d0 5f 06 8b 3d 54 c4 05 bd d0 3f eb bd 3b ad cf bd
       0.067883246 -0.032657936 -0.11486781 -0.10140463
0003e0 7d 3b 07 3e 7a 6b 44 bc 95 d5 70 bc 09 e8 02 3d
       0.13206287 -0.011988515 -0.014699359 0.031959567
0003f0 83 3d 93 bd 56 0c c9 3d 71 02 74 bd 0c b5 08 bd
       -0.07189467 0.09816806 -0.05957264 -0.033375785

bias f4 [32]
000000 3c 90 10 be fd 82 c2 3b f4 e8 51 3d b1 14 80 bd
       -0.14117521 0.005936025 0.051247552 -0.062539466
000010 08 d2 a3 bc 24 7a 83 3e 7f 7c 9f be 87 55 ac be
       -0.019997612 0.25679123 -0.3114967 -0.33659002
000020 c3 f5 af bd d0 9b 85 bb cb 61 39 3e 82 63 2d bd
       -0.08591797 -0.004077412 0.18103711 -0.042331226
000030 6d 88 61 bd d2 79 d2 bd 41 84 6d bc d0 03 c7 bd
       -0.055061746 -0.10277142 -0.014496864 -0.09717524
000040 b4 d5 27 3c 4f 77 b0 be 54 69 17 bd 40 4e b6 bd
       0.010243822 -0.34466025 -0.036965683 -0.08901644
000050 22 23 55 3c 8b fd a3 3d c2 9d b7 3d 21 e6 0a 3e
       0.013008865 0.08007344 0.08965637 0.1356435
000060 71 b4 8c be 48 5b 26 3d 22 f4 ff bd a1 fc 8b 3e
       -0.27481416 0.040614396 -0.124977365 0.27341178
000070 e1 45 77 be 82 5c 56 3d 3b f2 c2 bd ad 75 96 3d
       -0.2414775 0.052334316 -0.09518858 0.073466636

weight f4 [32, 32, 5, 5]
000000 c2 34 f9 ba 2e c1 db bb 1f a5 58 37 fe 30 fa ba
       -0.0019012915 -0.0067063784 1.29130485e-05 -0.0019088087
000010 82 ab ca bc 85 e7 1d 3d 97 bd 15 3c 9e f0 23 3d
       -0.024739984 0.038550872 0.00913944 0.040024392
000020 44 cc 15 3d 59 90 f7 3c 45 51 cf 3c fe 3a 16 3c
       0.036571756 0.030220198 0.025307307 0.009169338
000030 6d a1 2a bc 95 57 8b 3c 21 67 35 3d 68 d5 39 bc
       -0.0104144635 0.017009536 0.044287805 -0.011342384
000040 81 60 99 bb ac 6d 2a bd 94 6b c8 bc 98 c0 bf bc
       -0.0046806936 -0.041608498 -0.02446536 -0.023407266
000050 47 e5 dc 3c 14 f4 d4 3c 30 30 00 3d 7e 5c fe 3c
       0.026964797 0.025995292 0.031295955 0.031049963
000060 79 0a 4d 3c 36 d3 13 bd ae 48 8a 3c 51 a7 9b bc
       0.012514704 -0.0360901 0.01688036 -0.019000681
000070 d5 0e cf 3c 0b 65 cc bb 9d 0c b0 bc ff bd a8 3c
       0.025275627 -0.006237631 -0.02149039 0.02059841
000080 5b 80 22 3c 39 e1 0c 3c df c2 d3 bc b9 00 24 3d
       0.009918298 0.008598619 -0.025849758 0.04003975
000090 4b e2 59 bc 39 e0 7b 3c 3a f5 36 3c 19 df d6 3c
       -0.013298581 0.015373283 0.011166865 0.026229428
0000a0 32 8f 87 3c 44 5a 2b 3d 53 e2 64 bc d9 a4 c8 3b
       0.016547773 0.04183413 -0.0139699755 0.006123167
0000b0 7e bc d2 3c 7f 02 03 3b 1c 26 44 3d 82 52 29 3d
       0.025724646 0.0019990501 0.047887906 0.04133845
0000c0 4a 69 2f 3d e3 d6 bf bc a2 ba ed 3c 8a 7f 21 3d
       0.04282502 -0.023417896 0.029019658 0.03942827
0000d0 85 64 0e 3b e9 d3 aa 3c f5 1d 0f 3d dc c5 99 3c
       0.0021727395 0.020853 0.03494068 0.018771105
0000e0 7f 3e c8 3b 17 99 9e bc a6 0b d7 3c b5 a2 de 3c
       0.0061109657 -0.019360108 0.026250672 0.027177194
0000f0 b8 46 1d bd 2f d5 ad bb 86 98 d7 3c ef 3a d4 3c
       -0.03839752 -0.0053049545 0.026317846 0.025907008
000100 7a 88 60 bc 0b 98 7b 3c 67 62 12 3c e0 e3 20 bd
       -0.013704414 0.015356074 0.008934594 -0.03927982
000110 ff 8f b3 3b dd 7b 1b 3c 24 43 07 bd a9 11 76 3c
       0.005479812 0.0094899805 -0.033023015 0.015018859
000120 1a ef 3e bc 5d 13 3f bc 72 1d c2 3c 5e 78 6e bb
       -0.011653686 -0.011662331 0.023695681 -0.0036387662
000130 f6 6f a7 3c 94 eb 94 bc 83 9e a7 3b 7e 0d b1 bc
       0.02043913 -0.018178739 0.0051153316 -0.021612879
000140 27 65 7d 3c e7 50 44 bc 41 55 24 bb dd 0f 0c bb
       0.015466011 -0.011982179 -0.002507523 -0.002137176
000150 77 b5 7a 3a a0 7f ad 3b 56 a8 92 3a 0f 3a 28 3d
       0.00095637835 0.005294755 0.0011189084 0.041070994
000160 a4 b1 9e 3c 8c 45 aa 3b 3d 0c e8 bb 1b 59 16 3d
       0.019371815 0.005196279 -0.007081537 0.03670607
000170 d6 96 1d 3d f6 5d ac 3c a3 51 9a 3c 8b 18 15 3c
       0.038473926 0.021040898 0.018837756 0.00910009
000180 4f cb ca 3c b0 61 9b bc b3 b1 62 3b c9 c6 fe 3c
       0.024755148 -0.01896748 0.003459078 0.031100648
000190 90 c6 b9 3c bc 92 99 bc da c2 e9 bc c6 17 33 bb
       0.02267769 -0.018746726 -0.028535295 -0.0027327402
0001a0 e3 e9 05 bc 1d b3 85 bc d8 42 15 bc cd 47 c2 ba
       -0.008173439 -0.01632076 -0.009110175 -0.0014822424
0001b0 8f df 31 bd 6a 6b e8 39 c3 1e 59 bb 5f 01 d1 bc
       -0.043426093 0.00044330518 -0.0033129908 -0.02551335
0001c0 25 db e2 bc ab d5 56 3b 32 b8 1b 3b 26 dd df bc
       -0.027692387 0.0032781165 0.0023760912 -0.027327131
0001d0 ad 98 c0 3c 8d 84 bf 3c c7 78 21 3c ba 77 2c bc
       0.023510301 0.023378635 0.009855456 -0.010526592
0001e0 95 02 06 3c 5e ae 47 3c c2 d4 b0 3c c3 fe ba bc
       0.008179327 0.0121875685 0.021585826 -0.022826558
0001f0 05 2f 7a ba 33 c5 4c 3c 5d 1b 9d ba 3c 58 df 3c
       -0.00095437496 0.012498188 -0.0011986304 0.027263753
000200 50 62 25 3d fa 18 c4 bc b9 03 b0 3c 17 91 89 3c
       0.04037696 -0.023937691 0.02148615 0.016792817
000210 21 6e 15 3d 49 49 68 3c 76 c0 87 ba 93 25 43 bc
       0.03648198 0.014177629 -0.001035704 -0.011910814
000220 26 42 d7 3c ca 72 b6 bc f7 c7 cc bc 8c f5 ce bc
       0.02627666 -0.022271533 -0.024997694 -0.02526357
000230 04 6e 17 3d e9 b0 90 bc 30 dc 3c bd 1a 08 25 bd
       0.036970153 -0.017662482 -0.046108425 -0.04029093
000240 48 6a 7c 3c 4d 9e f5 b8 26 10 2b bd 8d 16 ba 3b
       0.015406199 -0.00011711996 -0.041763447 0.005678958
000250 6d d4 33 3d 80 f9 f5 bb 03 67 c8 3b 03 d9 1e 3d
       0.043903757 -0.0075065494 0.0061157956 0.038781177
000260 c8 dd 7f 3c 7c 93 88 bb 1b fb 22 3d 97 93 19 3c
       0.015616842 -0.004167972 0.039790254 0.009373567
000270 73 47 06 3d f1 80 0e 3d 1b c9 14 bc 4b a0 94 3c
       0.032782983 0.034790937 -0.00908115 0.01814284
000280 09 98 06 3c c5 e2 a9 3c a2 cb 64 3c 60 1a c3 3c
       0.008214959 0.020738015 0.0139645655 0.023816288
000290 4d 6a 91 3b 18 0b b7 3c 84 7d 39 bc 81 96 ee 3c
       0.004437721 0.022344157 -0.011321429 0.0291245
0002a0 42 d6 98 ba 1d 16 93 bb 28 94 ad bb a8 83 0e 3d
       -0.0011660533 -0.00448872 -0.0052972026 0.034793526
0002b0 4e b8 e3 3c af bf ef bc 87 a5 08 3d 05 67 ea bc
       0.027797844 -0.029266207 0.033360984 -0.028613577
0002c0 0b bf 19 bd c0 40 ce bc 6a 9f d6 3c f7 39 29 bd
       -0.03753571 -0.02517736 0.026199061 -0.041315045
0002d0 e8 bf 94 bc 9d aa d2 ba 19 10 8b bb 11 ba aa 3c
       -0.018157914 -0.0016072575 -0.0042438623 0.020840677
0002e0 7b 4d 0a bd 85 58 f2 ba 7b 21 f0 bb fd a3 26 3d
       -0.033765297 -0.0018489516 -0.00732821 0.040683735
0002f0 47 52 e6 3c bc e9 39 3d f0 1b 1c 3d be a7 28 3c
       0.028115405 0.045388922 0.03811258 0.010293899
000300 3c 09 2e 3d 5c 96 72 3d 9a 82 29 3d f7 5a 52 3d
       0.042489275 0.059225425 0.041384317 0.051356282
000310 53 bb 7f 3d 3b dd 0a 3d 19 43 36 3d 18 92 3e 3d
       0.062434506 0.033902388 0.044497583 0.046526045
000320 30 a7 49 3c c4 8d f2 3c 6d 12 58 3b 12 9d 0f bd
       0.012307927 0.029608615 0.0032969967 -0.035061903
000330 f3 25 2c bc 04 da 86 3c be 12 cf 3b a3 f7 af bc
       -0.010507095 0.01646138 0.006319373 -0.021480387
000340 28 1a 3d bd 73 4b 7e 3b ce 6d b8 3b db e0 f5 3b
       -0.046167523 0.0038802295 0.005628324 0.0075036115
000350 14 24 33 bc 2b 6a 1b bd 10 d4 09 bd c0 fc 61 bc
       -0.010933895 -0.037943047 -0.033649504 -0.01379317
000360 3c 65 06 3d f1 b1 21 bc 67 8b 68 3d bd c8 21 bc
       0.03281139 -0.009869085 0.05677357 -0.00987452
000370 38 6c fd bc 1b 7e 29 3d 5b 74 42 3c 8b 6a ae 3a
       -0.030935392 0.04138003 0.011868562 0.0013306899
000380 00 8a 46 3b e5 ec ac 3c 1d 4a 36 bb 08 f8 05 bd
       0.0030294657 0.021109054 -0.002781517 -0.032707244
000390 0a 83 05 bd d2 e4 92 3c e6 40 dd 3c 4b f0 32 3b
       -0.03259567 0.017931376 0.027008485 0.002730387
0003a0 1d f4 6b 3c 9c aa c0 bc e3 a4 a5 bc 63 d3 27 bc
       0.014401463 -0.023518853 -0.020220226 -0.01024327
0003b0 f0 82 00 3d 47 42 01 3c aa ff c2 3b 9b a9 fe 3c
       0.03137487 0.007889337 0.0059508877 0.031086734
0003c0 5b 0a b6 bc ab 31 51 3c b2 00 48 bb a5 79 45 3d
       -0.022221735 0.012768189 -0.0030517993 0.048211712
0003d0 af 45 20 3d a6 a0 02 3d 71 b0 10 3c aa dd 3d 3c
       0.039128955 0.031891488 0.008831129 0.011588493
0003e0 6e 39 58 3d fb 4a 1c 3d 2c ec 9e bb a5 0a 72 bc
       0.052789144 0.038157444 -0.004849931 -0.014773046
0003f0 b3 43 89 bc 30 61 f0 bb 56 b2 27 bd 72 1b 53 3d
       -0.016755914 -0.0073358044 -0.04094156 0.051539846

bias f4 [32]
000000 d5 8d 9f bc 03 cf 66 3c d2 8b b4 bd 3e 57 83 bd
       -0.01947681 0.014087441 -0.08815731 -0.064131245
000010 16 ae 96 3c fc e5 e5 bc 9e 01 2a 39 0f 8e 3b 3d
       0.018393558 -0.028063767 0.00016213066 0.045789775
000020 b0 77 97 bd 42 55 a0 3a 7d 2d 21 be db bd 9a bc
       -0.073958755 0.001223244 -0.15740009 -0.018889358
000030 e9 35 f8 3d a1 5a 3b bd 5f 3a cb bd 69 a4 16 b8
       0.121196575 -0.045740727 -0.09923243 -3.5915906e-05
000040 6d f0 aa ba 26 13 0b 3d bd 47 d0 bd f8 39 7c bd
       -0.0013041623 0.03395381 -0.10169933 -0.06157872
000050 61 01 1e bd a8 31 10 3c 01 5c 9e 3b 27 ef 16 3c
       -0.038575534 0.0088009015 0.004832745 0.009212292
000060 40 12 fd bc 67 fc 94 bc 84 68 09 bd 75 f9 4c bd
       -0.030892491 -0.018186761 -0.03354694 -0.05004259
000070 be 26 36 bd af ee bc bb 7e 91 8c bd 15 1f 5d bd
       -0.04447054 -0.005765758 -0.06863688 -0.05398472

weight f4 [64, 32, 5, 5]
000000 5b d0 2a bc 61 e7 0c 3d 83 79 4a 3c 1f 27 39 3b
       -0.010425652 0.034400348 0.012358072 0.0028252078
000010 07 e3 44 3c 95 20 22 bb 06 ca a4 3c 10 ce 5d bb
       0.012017018 -0.0024738659 0.020115864 -0.0033844747
000020 9f 5e a2 bc 18 52 9a ba 81 35 91 bc c1 6b 0b 3c
       -0.01982051 -0.0011773733 -0.017725708 0.008509577
000030 bb a3 8e 3c e1 00 d7 bc 48 ca 57 3c c6 28 8d bc
       0.017412057 -0.026245536 0.013170786 -0.017231356
000040 f6 1e 97 3c a3 51 17 bd b1 60 98 3b c4 5c c1 bc
       0.01844738 -0.03694309 0.0046501984 -0.023603804
000050 a1 c8 fb 3c 5a 65 28 3d 32 05 1b bb 55 1b 2e bb
       0.030735316 0.04111228 -0.002365422 -0.0026566584
000060 1d fa 9f bc 70 6f a8 3c 49 5d 2c bd 44 19 bc 3c
       -0.019528443 0.02056095 -0.04208115 0.022961266
000070 fd 24 83 bb 5c b8 3e bc d2 d5 8c 3c a0 e0 d8 bb
       -0.004002212 -0.011640634 0.017191801 -0.0066185743
000080 94 6c 57 3b 56 c8 a2 3c f5 26 a3 bc a4 ad 17 3c
       0.0032871114 0.019870918 -0.019916037 0.009257708
000090 67 72 c5 3b 22 6a 1d 3c 05 d5 ce b9 1b 53 19 bc
       0.0060256007 0.009607824 -0.00039450094 -0.009358193
0000a0 55 35 d8 3c 33 d6 9e bc 8a 9a a4 bc 81 5f fd bb
       0.026392618 -0.019389248 -0.020093221 -0.007732332
0000b0 5e ad aa bc df 49 e1 bc 36 a1 39 3c c6 95 ce bc
       -0.020834621 -0.027501045 0.01132994 -0.025217902
0000c0 e5 e2 28 3d 34 75 11 3d 8f 9f 34 bb 40 99 77 3c
       0.04123201 0.035512164 -0.0027560925 0.015112221
0000d0 f0 e4 02 3d fc f3 ed bc 83 17 82 ba e1 d1 37 bd
       0.031956613 -0.029047005 -0.000992522 -0.04487789
0000e0 e4 d8 26 bd b7 a8 57 3c c6 09 27 3c 72 a8 e0 bc
       -0.040734187 0.013162783 0.010195201 -0.027424071
0000f0 b7 d9 c5 bc 71 e0 0b bb f5 11 81 39 49 78 09 3d
       -0.024151666 -0.0021343494 0.00024618176 0.03356198
000100 4c 33 6e 3c 22 0f 3e bd 41 45 bf 3c 84 0e ba 3c
       0.014538597 -0.04640115 0.023348453 0.022712
000110 18 7b 17 3d 8c b7 d1 3c f7 5f dd 3b 1d 93 4a 3c
       0.036982626 0.025600217 0.0067558247 0.012364176
000120 37 c9 32 3d 9c 90 64 3d 0f 61 00 3d 6e 1f c7 bc
       0.043648925 0.055801973 0.031342562 -0.024306979
000130 aa 64 10 b9 eb b7 29 3c 04 d7 27 bc 5d 7b 00 3d
       -0.0001377041 0.010358791 -0.010244135 0.03136765
000140 e9 85 18 3c cb 97 2c bd 75 bb 31 ba c6 e2 ce 3c
       0.00930927 -0.04213695 -0.00067799474 0.025254618
000150 5a 98 e2 bb 00 4a 02 ba 8c d8 ac bb 34 46 5b bc
       -0.0069151344 -0.00049701333 -0.005274838 -0.013383437
000160 e0 30 29 bd 77 c4 10 bd 50 bb 48 3c e1 c0 03 3b
       -0.041306376 -0.035343613 0.01225169 0.0020103978
000170 2e 78 b1 3c fd d4 b4 bc 90 80 cd bc bd 54 2e 3c
       0.021663751 -0.022074217 -0.025085717 0.01064032
000180 e8 1c b6 bc 39 16 12 bd 72 16 0e 3c e3 4a e2 bc
       -0.02223058 -0.035665724 0.008672344 -0.0276236
000190 59 59 29 3a 76 ff d1 3b 5e 27 e0 3c 36 e6 09 3d
       0.0006460152 0.006408627 0.027362522 0.033666812
0001a0 da 73 5a bc de 9d 52 bc 4e 04 0b 3d d4 8c b3 3c
       -0.013333285 -0.012855021 0.033939652 0.021917738
0001b0 5d 50 b8 bc 13 10 28 3c 9d 8d 8d bc a0 9d 02 bd
       -0.022499258 0.010257739 -0.01727944 -0.031888604
0001c0 32 a6 4a bb 3e 09 f8 3c 68 9c 27 3c b1 2c 2d bc
       -0.0030921814 0.030277845 0.010230161 -0.010569737
0001d0 b5 b2 77 bc c0 88 78 3b 15 ae 88 ba d1 10 1f bc
       -0.015118291 0.0037923306 -0.0010427857 -0.009708599
0001e0 64 c6 9b bc b8 9f af bb 41 f4 98 bb a8 45 db bc
       -0.019015498 -0.005359616 -0.004667789 -0.026766613
0001f0 be be 1b bc fc 0a 29 bc b3 44 96 3c dc 21 b2 bc
       -0.009505926 -0.01031756 0.018343305 -0.021744661
000200 8f 04 fb bc 77 54 b2 3c 24 5b 82 bc de 73 26 bc
       -0.030641822 0.021768792 -0.0159126 -0.010159461
000210 fd 59 14 bd 0b 85 e5 3a 56 48 00 bc 4d 04 04 bd
       -0.036218632 0.0017510963 -0.007829746 -0.032230664
000220 f2 ec 94 3c 4e 33 f4 bc 79 92 20 bc 47 c5 b3 bc
       0.01817939 -0.02980962 -0.009800547 -0.021944655
000230 b4 b4 01 3c 82 31 c5 3c 6e 81 27 bc d1 09 c8 bc
       0.007916618 0.024071459 -0.01022373 -0.024418743
000240 d3 79 3f bc ca 85 9c bc b4 5a 18 bd cb a3 e6 bc
       -0.01168676 -0.019106764 -0.037195876 -0.028154274
000250 05 5f ba bc e3 66 01 3c 39 c2 b7 bb e8 a7 31 3c
       -0.022750387 0.007898065 -0.00560787 0.010843255
000260 8c 35 9f 3c f0 c8 a2 bb 0b 06 78 3b df dc eb bc
       0.019434713 -0.0049678013 0.0037845399 -0.028791843
000270 e1 24 93 3c 89 9e f3 3c 39 e3 68 bb 5f b0 a2 bc
       0.017961921 0.029738681 -0.0035535826 -0.01985949
000280 9a fc c9 bc 81 19 d6 ba d7 5c e7 bc 39 42 79 bb
       -0.024656583 -0.0016334505 -0.028242512 -0.0038033857
000290 6f f7 62 bc a7 4d d1 bc 08 71 59 bc 41 75 9a 3b
       -0.013852938 -0.025549723 -0.013271578 0.004713685
0002a0 d5 26 4c bc 34 69 0b 3d 44 3a cd 3c 8e 4f 0b bc
       -0.01246043 0.034035876 0.025052197 -0.008502854
0002b0 7a cf 48 3c 7b 3d d2 bc 17 95 ef bc 1a 17 ae bb
       0.0122564975 -0.025664082 -0.029245896 -0.0053128125
0002c0 bb 23 03 bc 60 0b dd 3b fd cf a7 bc 51 78 67 bc
       -0.008004124 0.006745741 -0.020484919 -0.014127807
0002d0 58 5d cb 3c b9 91 95 3b 41 6f 7c 3a a1 92 7f 3c
       0.024824783 0.0045644906 0.0009629615 0.015598924
0002e0 22 77 44 3c 98 fa 2d 3c 1e 2f 0c 3c f5 7a e6 bb
       0.011991294 0.010618828 0.0085561555 -0.0070337006
0002f0 d2 28 d8 3b 90 c9 68 bc 81 31 26 3a 4f 1d a5 3c
       0.006596663 -0.0142082125 0.0006339774 0.020155577
000300 4b e4 fe 3c fc dc c2 3c 13 b0 27 bc 07 1e ca bc
       0.031114718 0.023787014 -0.01023485 -0.024672521
000310 73 ab b5 3b 38 9c 0a 3d 81 41 55 3c b7 d6 50 ba
       0.00554412 0.033840388 0.013016106 -0.00079665653
000320 8f 1f a1 3c 86 43 16 3d 3f 0a 54 bc 27 82 8d ba
       0.019668369 0.03668549 -0.012941896 -0.0010796235
000330 5c ae 87 bc 91 26 bb bb 2b 5d 9e bb ef 96 2d bc
       -0.016562633 -0.0057113846 -0.004832884 -0.010595067
000340 63 81 9a bc 85 e1 6c 3c d1 c9 06 bd 8d e4 8f bc
       -0.018860525 0.014458065 -0.03290731 -0.017565036
000350 aa 4b 09 bd 63 64 da 3b 63 f5 01 bd 35 1d f3 bc
       -0.033519424 0.006664799 -0.03172816 -0.029677013
000360 3a 23 08 3d c3 f0 96 3a c4 1a 73 bc 4e 7e 1d 3d
       0.03323672 0.0011515844 -0.014837924 0.03845053
000370 04 81 19 bd 9b 48 be 3c ef 34 c2 3b 03 69 bb 3a
       -0.037476555 0.02322798 0.0059267203 0.0014298264
000380 3b a0 90 bc 73 ce 89 3c 7b 7f 1b bd db 1b ab 3c
       -0.017654529 0.016822075 -0.03796337 0.020887306
000390 b4 c1 f5 ba f5 a4 71 bb 52 1f 92 bc b1 cf b1 bc
       -0.0018749745 -0.0036872004 -0.0178372 -0.02170548
0003a0 a1 d2 c9 3b 95 d8 1e bd 14 30 66 bc f7 58 02 3d
       0.006159142 -0.038780767 -0.014049549 0.031823125
0003b0 e0 a4 a5 bc ac 76 d6 3c 21 2e 5b bc 50 1f 87 3c
       -0.02022022 0.026179634 -0.013377697 0.016494423
0003c0 9b d8 20 3d 99 96 1a bd 2c bd 00 3d 8f e6 16 3c
       0.03926907 -0.037741277 0.03143041 0.009210243
0003d0 7c 70 ea bc 16 7c a3 bb 54 30 43 bd 50 39 9b 3c
       -0.02861809 -0.0049891574 -0.04765351 0.018948227
0003e0 c2 6f 15 bb e3 68 3d bd f1 3a ce 3b 99 80 c7 bc
       -0.0022802209 -0.046242606 0.0062936475 -0.024353312
0003f0 ba 6d 58 bb aa 62 2e 3d 8f f5 79 bc 7d 07 1e bc
       -0.0033024387 0.042574562 -0.0152563 -0.00964534

bias f4 [64]
000000 ac cf 53 bd 4d a3 45 3d 54 c2 03 bd 33 d1 f6 ba
       -0.051711723 0.04825144 -0.032167748 -0.0018830657
000010 07 ac df bd 6d 53 8c bc 6c 7e 1d bd 02 01 2d bd
       -0.109214835 -0.017129624 -0.038450643 -0.04223729
000020 68 97 bf 3c 74 db b9 3c 4d f5 50 bd 45 b3 1f bc
       0.023387626 0.022687651 -0.051015187 -0.009747331
000030 0c c2 7d bd 0f 6d bf bc 3d 56 2f 3d cd 0c a0 bc
       -0.061952636 -0.023367433 0.042806853 -0.019537354
000040 70 36 87 bc 7a a8 77 bc a6 69 99 bc 2c d6 c5 bc
       -0.01650545 -0.015115852 -0.018727135 -0.024149977
000050 f0 d1 8f 36 a9 ca b6 3c 57 39 25 bc d7 fa 00 3c
       4.286172e-06 0.022313433 -0.010084472 0.007872305
000060 ee 06 c9 ba eb 10 9f bd 8d f5 8e bc cb c3 b5 bc
       -0.0015337148 -0.07766899 -0.017451072 -0.022188088
000070 c9 68 4a bd 6c 6b ab bb f4 1d 5d 3c ca c1 d9 bc
       -0.049416337 -0.0052313115 0.013495911 -0.026581664
000080 a5 67 0e bd 57 e2 82 3c 2c 7a 5b bd fc 3d 6b bc
       -0.034766812 0.015977068 -0.05358331 -0.01435804
000090 67 38 9d bc 4b 19 17 3b 2f d5 8e 3c 74 21 96 bc
       -0.019191934 0.0023055847 0.017435638 -0.018326499
0000a0 f3 c5 34 bd 50 d0 ee bd 93 f3 9f bd e8 61 28 bd
       -0.04413409 -0.11660826 -0.0781013 -0.041108996
0000b0 23 6b b0 3b e9 02 9c bd cd 15 91 3b 4c 38 19 bd
       0.0053838654 -0.076177426 0.0044276477 -0.037407205
0000c0 63 b3 84 bc a9 4f 62 bd 30 10 6e bd 0f 3e b5 bd
       -0.01619882 -0.05525175 -0.058120906 -0.08849727
0000d0 37 79 6e bd c4 a7 f8 3b 2a 13 24 bd 01 25 bf bc
       -0.05822107 0.0075883586 -0.04005734 -0.023333075
0000e0 30 93 85 3c 92 ae 4d bd 36 16 e6 bc 6e f5 1b bd
       0.016305536 -0.05021531 -0.028086763 -0.038075857
0000f0 d8 cd 97 bc 9d ce 33 bd 7c 68 a8 bc ba 96 58 bc
       -0.018530771 -0.043898214 -0.020557635 -0.01321953

weight f4 [64, 1024]
000000 3f 02 03 bc 9a 7b 2a 3d cd a8 7e 3c 7a ed 8d 3c
       -0.007996141 0.041621782 0.015543175 0.017325152
000010 47 cc 3f 3d b4 87 34 3d 54 81 15 3c 70 a1 75 bc
       0.046825673 0.04407473 0.0091250725 -0.014992103
000020 8f 18 02 3c e6 49 b7 bb 57 1a 12 3d c9 7b 10 38
       0.007940426 -0.005593526 0.03566965 3.444756e-05
000030 bb bc 81 bc 90 c8 7a bb f6 74 da ba a0 d9 a4 bb
       -0.015837064 -0.0038266517 -0.0016666937 -0.0050308257
000040 d9 06 d3 bc 8b 4e 21 bc 3c f7 a6 bb 1e 7a e1 bb
       -0.025760101 -0.009845386 -0.0050953906 -0.0068810126
000050 07 48 06 bd 44 61 16 bc 48 a2 f4 3c 44 5b 09 3c
       -0.032783534 -0.009178463 0.029862538 0.008383576
000060 78 3e 4f bc 81 11 25 bd 52 cf ad bc 17 ec 29 bd
       -0.012649171 -0.040299896 -0.021217022 -0.04148492
000070 5a fb 02 3d 42 5c a2 bc f4 4f bf b7 96 0d 12 3b
       0.03197799 -0.019819383 -2.2806205e-05 0.002228593
000080 87 d6 09 3c 70 89 d8 3c a7 46 89 bc e1 20 64 bc
       0.008412964 0.026432723 -0.016757322 -0.013923855
000090 b6 02 47 3c ea 4c 9b bc d7 7a 81 3b e0 d0 26 bc
       0.012146642 -0.018957574 0.003951411 -0.010181636
0000a0 69 6c 42 3c c5 e5 81 bc a0 71 2c 3d 74 19 14 bb
       0.011866667 -0.015856633 0.04210055 -0.002259818
0000b0 e3 ff 40 3c 7f ad 0c 3b a2 bd 76 bc dd 1a bc 3c
       0.011779758 0.0021465716 -0.01505986 0.022962028
0000c0 c8 0d 97 bc e3 09 b1 bc 9b dd de 3c 73 6a 87 bc
       -0.018439189 -0.02161116 0.02720528 -0.016530251
0000d0 18 4f d9 3c 0e eb 9e 3b 3b 31 eb 3a 42 d5 24 bc
       0.026526973 0.004849798 0.0017943749 -0.01006061
0000e0 d5 95 50 3d 88 04 ab bb 0d 8e 41 3c 90 7e d0 3c
       0.05092414 -0.005219046 0.011813653 0.025450975
0000f0 be 3a 1c 3d 23 d0 cd 3c 92 ae 16 3d 9f 29 26 3d
       0.03814196 0.025123661 0.036787577 0.040567037
000100 d4 6c a7 bb ca aa 4d 3d a9 74 1e bc ed 73 ae 3c
       -0.005109409 0.050211705 -0.009671369 0.021295512
000110 e1 d1 0c 3d bb c9 e8 3c 46 ae 0a 3c bd 5d 40 3d
       0.034379844 0.028416505 0.008464402 0.046964396
000120 8e 3c c0 bc b9 d2 8d b9 c6 be 29 3d 86 8c 4d 3b
       -0.023466375 -0.00027050616 0.0414417 0.0031364276
000130 fb d9 ec 3b f3 b5 e0 bc f1 41 fe 3b 2a 6e fc bc
       0.0072281337 -0.02743051 0.0077593257 -0.030814249
000140 e8 00 f5 bb 2c 06 c3 3c 2c 85 46 3c 62 14 f6 3c
       -0.0074769147 0.023806654 0.012116712 0.030039016
000150 3a 7d 9b bc e8 a0 03 3d 10 c9 07 3c a6 ff 73 3c
       -0.018980611 0.032135874 0.008287683 0.014892494
000160 f2 11 da 3b f6 14 60 3c 5b 29 3b 3c 62 17 d4 bc
       0.0066549713 0.0136768725 0.011423434 -0.025890056
000170 e4 c8 8f bc 05 de de bb de 0d 4e 3c 8f 35 dd 3c
       -0.017551847 -0.006801369 0.012576548 0.027003078
000180 2e bc c6 3a 3e 1e f9 3c 9e 0b 0e 3c 40 76 9c 3b
       0.0015162283 0.030409928 0.008669762 0.0047748387
000190 8d 42 96 bc d7 de 1c 3c 86 c7 0d bd f5 1c 4f bd
       -0.01834228 0.0095746135 -0.03461411 -0.050564725
0001a0 cb 03 8f 3c b1 44 09 3d e9 d6 db bb 0f 75 29 3d
       0.017457863 0.033512775 -0.006708969 0.0413714
0001b0 ab 67 29 bb 10 08 22 3d 49 51 91 3b 78 be 98 3b
       -0.0025849144 0.03955847 0.004434739 0.0046613775
0001c0 e8 f5 02 3c ad 25 87 3b eb 87 22 3c f9 5a e7 b7
       0.007993199 0.0041243643 0.009920101 -2.7579708e-05
0001d0 63 33 7b bc 89 b5 6d bc 25 c9 05 bc cd 7e ae 3c
       -0.015332076 -0.014508613 -0.008165632 0.021300698
0001e0 98 87 20 3c 84 7f b3 bc a2 32 8e b9 10 87 e0 bb
       0.009797953 -0.02191139 -0.00027122075 -0.006852038
0001f0 1b 5b a5 bc 21 a2 0a 3d 2f 49 b0 bb 69 3a 78 3c
       -0.020185044 0.033846024 -0.005379818 0.015150645
000200 74 9d 89 3c 8a f9 e2 bc 75 a8 e3 bc 26 e0 cb bc
       0.016798712 -0.02770688 -0.027790288 -0.024887156
000210 aa 11 18 3d 43 51 14 3b 40 7f 0a bb e5 67 3a bd
       0.03712622 0.0022631444 -0.0021132976 -0.045509238
000220 6d a8 90 39 69 b7 88 3c 0b fb 9c bc 38 82 e0 3c
       0.00027591307 0.01668902 -0.019162675 0.027405843
000230 55 ed a2 bb 8c ca 10 bd 19 c4 9e bc 81 58 26 3d
       -0.00497214 -0.035349414 -0.019380616 0.040611748
000240 e4 ec d7 3c 0c e2 15 bc ea 9f bc 3c e8 c3 a1 bc
       0.026358075 -0.009148132 0.023025472 -0.019746736
000250 fb 87 00 3b c6 f6 60 3b f8 31 85 3c fb fa 45 3c
       0.00196123 0.0034326776 0.016259179 0.012083764
000260 58 99 91 3c f4 ba 05 bb 63 d8 af 3b e6 31 47 bc
       0.017773315 -0.0020405622 0.0053663715 -0.012157893
000270 98 49 65 3b e1 83 49 3c 54 01 8d bc 4b c8 52 39
       0.0034986492 0.012299509 -0.017212547 0.00020101776
000280 d5 d7 25 bc 80 45 27 bd 05 7e ab bb d6 17 82 bc
       -0.010122259 -0.040837765 -0.0052335286 -0.015880506
000290 26 40 d0 bc e3 67 15 39 aa 4e eb 3c 7b b6 75 ba
       -0.025421213 0.00014248448 0.028724033 -0.00093732
0002a0 93 81 92 3c 1c b4 ab 3c 59 bd 13 3d 43 5a 20 3b
       0.017884051 0.020959906 0.036069248 0.0024467863
0002b0 11 29 4c 3c 65 bd 4f 3b 72 b7 3e 3d 09 8d a0 bc
       0.012460963 0.0031698581 0.046561666 -0.0195985
0002c0 2f 56 b9 3c 2c 3e 85 bc ac 9d ac bc 3b 39 43 3c
       0.022624103 -0.016264997 -0.021071278 0.0119155
0002d0 87 bc 56 bc 89 f7 75 3d 40 ab bd bc b2 aa dd 3c
       -0.013106472 0.06005052 -0.023152947 0.027058933
0002e0 44 05 98 3b 24 1f a9 3c 10 d4 e0 bb 57 9f cb 3c
       0.0046392996 0.020644732 -0.0068612173 0.024856253
0002f0 b1 45 18 3c 79 3a 88 3c 2d 4d 22 3d 52 7e ad 3c
       0.0092939595 0.016629444 0.03962438 0.021178398
000300 aa 3f 72 3c 3b 56 3b 3d 73 83 9a 3c 63 8f 14 3c
       0.0147856865 0.045736533 0.018861508 0.009067389
000310 d9 61 20 3c 87 17 b7 3b 48 05 08 3d 8a 8f 0f bd
       0.009788954 0.0055875215 0.03320816 -0.035049
000320 b9 73 9c 3c 1a 10 f1 3c b7 2b 81 bc 6e c6 af bc
       0.01909815 0.029426623 -0.015767915 -0.021456923
000330 2a b1 cd 3c b0 c9 9d bc 91 23 c7 3c 83 ac 05 bd
       0.025108892 -0.019261211 0.024308952 -0.032635223
000340 c4 25 07 bd 9e 52 20 3c ff 29 a2 3b b1 aa 22 3d
       -0.032995 0.0097853225 0.004948854 0.039713565
000350 54 50 9e bc f0 14 4e 3d c8 a9 84 3c f2 7f 8a 3c
       -0.019325413 0.050312936 0.01619424 0.016906712
000360 24 7d c4 3b c4 12 07 bd f4 a4 b8 bc 74 de 59 3c
       0.0059963632 -0.03297688 -0.022539593 0.013297666
000370 75 8a 90 3c 10 4d 91 bc e1 65 6a bc ed 30 0f 3c
       0.017644146 -0.017736942 -0.014306516 0.008739692
000380 8d e8 11 bd cf 3b 3c bc d3 59 fd bc 55 e5 13 ba
       -0.03562217 -0.011488869 -0.03092662 -0.0005641778
000390 8b 25 63 3c 32 29 b8 3b 4e ed 15 bc 0f 6b ac bc
       0.013863931 0.0056201452 -0.009150816 -0.021047143
0003a0 49 a5 b0 3c 91 2d 9a 3c 56 95 a1 bc 03 c9 36 bc
       0.02156319 0.018820556 -0.01972453 -0.011156323
0003b0 91 98 0c 3c c5 30 a7 3c 31 88 03 3c 20 94 9b 3c
       0.008581297 0.020408997 0.008028076 0.01899153
0003c0 62 9a 29 ba f9 d2 83 3c 1f b9 2e 3a d7 64 59 bb
       -0.0006469843 0.01609181 0.00066651584 -0.0033171677
0003d0 80 8c 0b bb 85 c7 9d 3b 3a 8f e2 bc 38 37 56 bb
       -0.0021293461 0.0048150443 -0.027656186 -0.0032686722
0003e0 80 0b 9c bc 37 99 95 bc 1b c8 88 3c e3 49 5c 3c
       -0.019048452 -0.018261535 0.01669698 0.01344535
0003f0 bb 7d ea 3c 7c 04 55 3d 82 c5 74 3d 54 00 0d bb
       0.028624406 0.05200623 0.05975867 -0.0021515088

bias f4 [64]
000000 34 4c 1f bc 90 83 f5 36 14 37 16 bd d0 a9 f7 bb
       -0.009722758 7.316885e-06 -0.03667362 -0.007558085
000010 06 7f 99 3c 9c f5 8c 3c 4b 1d bd 3b 9d 01 02 bd
       0.018737327 0.01720696 0.0057713143 -0.03173982
000020 57 32 7d 3c 22 89 35 bd 9a aa 65 3b 1d 24 02 ba
       0.0154538965 -0.044320233 0.0035044313 -0.0004964488
000030 64 88 a3 39 01 9b 10 3d a2 e3 46 bc fd cf 0c bc
       0.00031191402 0.035304073 -0.012139233 -0.00859451
000040 63 61 bf 3c de 46 98 3c 0a a3 77 bd 29 60 00 bb
       0.023361867 0.01858848 -0.06045822 -0.0019588566
000050 bd bc 21 ba 92 ee 08 bc 70 5a 4c bc 5a 05 2d 3d
       -0.0006169787 -0.008357661 -0.012472734 0.04224143
000060 c4 4e de 3c 12 3d 3d 3d 7b 37 96 3c d6 6b b8 3c
       0.027137168 0.04620082 0.018337002 0.022512358
000070 4b 50 38 3d 78 f3 f8 3c cb 91 95 bc ae 2f 30 3a
       0.04499845 0.030389532 -0.018257996 0.0006720972
000080 e5 c9 23 bd 4d dd ca 3c 64 84 ad bb e5 58 a8 bc
       -0.039987464 0.024763728 -0.005295323 -0.0205502
000090 b2 56 8d bc 13 86 9b 3c f7 c4 3b bd 93 8a 79 3b
       -0.017253254 0.01898483 -0.045842137 0.0038076981
0000a0 a7 e7 3c bd 9d 5a 40 bc 40 7e 0d bc e2 7f c9 3c
       -0.04611936 -0.011740354 -0.008636057 0.024597112
0000b0 3a fa c2 3a aa 3b 17 3b e2 38 27 3d a2 04 ec bc
       0.0014875599 0.0023076334 0.040825732 -0.028810803
0000c0 f5 f7 82 3d 8a 7d 9e 3c 9b ff 39 bc fb 29 c6 bc
       0.0639495 0.019346971 -0.011352445 -0.02418994
0000d0 73 e8 0f bd 99 30 89 3b 74 89 08 3c a9 aa 5f 3c
       -0.03513379 0.0041867015 0.008333553 0.013651528
0000e0 0e 51 5c 3d 1c 24 b9 bc a5 29 36 bc 57 ba 79 3c
       0.053788237 -0.022600226 -0.011118327 0.015242181
0000f0 45 48 63 bd 7f f2 1d bb 2f e5 08 3c 19 06 49 bd
       -0.055488843 -0.0024100838 0.008355423 -0.04907808

weight f4 [10, 64]
000000 c7 d7 42 3d 75 a7 91 3d 03 cb c9 3d 36 a7 31 be
       0.047569063 0.07112018 0.098531745 -0.17348942
000010 bc 42 f9 bd f1 f0 2b 3e ad 9a 59 be cf 8c 6a 3e
       -0.12170932 0.1679113 -0.2125041 0.22905277
000020 2e 4f b4 bd 5e 76 8a 3c 93 5f f9 bd 96 a7 3c 3d
       -0.08804165 0.016902145 -0.121764325 0.04605826
000030 8a d0 45 3c f9 41 9e bd f3 5a d0 bc cb 02 bb bc
       0.012073645 -0.07727427 -0.025433993 -0.02282848
000040 13 d5 06 3d 57 39 4b be 4a 6d ae 3c eb ce 0a 3d
       0.032918047 -0.19846092 0.021292347 0.03388874
000050 e9 a3 51 bd 31 1e a9 bd 80 5d 2c bc 84 e4 14 3d
       -0.051181708 -0.08257712 -0.010520339 0.036350742
000060 59 97 64 3c 78 9b f9 bd 9d 2b f0 bd 93 ae 0d 3e
       0.0139521 -0.121878564 -0.117270686 0.13836126
000070 04 39 5e be 2f 2a 03 be 38 10 30 bd 32 ca ec 3c
       -0.21701437 -0.1280906 -0.042984217 0.028905008
000080 03 9d ab bd 9c 0e db 3d a5 c5 89 bb 09 c8 7b 3e
       -0.08379557 0.10696146 -0.0042044693 0.24588026
000090 cf b9 20 3e 62 6d cb 3d 91 41 6a 3d 50 bd 85 be
       0.1569588 0.099329725 0.057191435 -0.26120996
0000a0 f3 35 11 3e 4c 8e 9b bd 6e 59 13 be a5 69 c5 bd
       0.14180736 -0.075955 -0.14389583 -0.09639291
0000b0 84 50 8d 3d b5 cf 46 3d 02 4e 03 be 38 5d 0c be
       0.06900123 0.04853793 -0.12822726 -0.13707435
0000c0 d4 42 52 be 95 56 a4 bc 55 6a 02 3e 3a 9e 0d 3e
       -0.20533305 -0.020060817 0.12735875 0.1382989
0000d0 54 c6 0e be ae 3e 92 bd 15 09 18 bd b4 57 01 bc
       -0.13942844 -0.071408615 -0.037118036 -0.007894445
0000e0 4f ed 32 bd be 9b a1 bc df 28 8e bd 06 66 ad bd
       -0.043683346 -0.019727584 -0.06941389 -0.08466725
0000f0 56 4f e9 3d 69 e7 64 be c5 5d bb 3d e0 0c 40 3e
       0.11392085 -0.22353901 0.091487445 0.18754911
000100 e4 64 51 3e 25 ce 2d be 2c fc 2f be 2a 5b 48 3e
       0.20448643 -0.16973169 -0.1718604 0.19566026
000110 b3 d0 d6 bc c1 2a dd bd 77 bb a7 bd d0 f6 c1 3d
       -0.026222562 -0.1079917 -0.08190053 0.09470904
000120 b2 e9 1c 3e 90 0d d8 bd d9 d5 c1 bd b1 59 fe bd
       0.15323523 -0.10549462 -0.09464616 -0.12419451
000130 6e d0 91 3c cd 2c 3d be 99 6d f7 bd 39 6c 55 bd
       0.017799582 -0.18474121 -0.12081451 -0.052105162
000140 3e 8f 4c 3c c9 2b 50 be 6e 52 2f 3d 2d 74 13 3e
       0.0124853235 -0.20329203 0.04280322 0.14399786
000150 15 91 10 be 23 89 84 3e 04 63 c8 3d 64 f0 2e 3e
       -0.14117844 0.25885877 0.09784511 0.17083889
000160 54 b3 5d 3e d0 1b f9 3c 0a 39 10 3e e4 03 e4 bd
       0.2165044 0.03040877 0.14084259 -0.111335546
000170 3c 5b 1f be d1 86 df 3d 8c cf bc bc bd a4 6c 3d
       -0.15562147 0.10914386 -0.023048185 0.057774294
000180 c2 be b4 bd 55 91 5f be 16 b9 d6 bd c2 02 83 be
       -0.08825447 -0.21832784 -0.10484521 -0.25588042
000190 02 e9 a6 3d 6f 06 56 3e e1 46 1f be bf 09 4d be
       0.081499115 0.20900892 -0.15554382 -0.20023249
0001a0 40 35 00 be 7e 62 26 3e a5 d3 4a 3e a0 89 20 3e
       -0.12520313 0.1624851 0.19807298 0.156775
0001b0 08 5e 47 be 4d 43 31 3c 65 86 1c bd 98 b3 a9 3c
       -0.19469464 0.010819268 -0.038214106 0.02071552
0001c0 38 3c 2a be d4 9e 70 bd 4d f1 80 3c 03 57 3a be
       -0.16624534 -0.05874522 0.015740061 -0.18197255
0001d0 07 01 f9 bd 16 5e 7f 3e 38 ed 1b 3e 9d d7 47 3e
       -0.12158399 0.24938235 0.1522721 0.19515844
0001e0 73 66 86 be 08 97 ea bd 61 e3 7d 3e a1 eb 4f bd
       -0.26250038 -0.11454588 0.2479377 -0.050761823
0001f0 01 87 73 bd 1d ec 13 bc 0d 4d 40 3e d3 ed 30 be
       -0.05945492 -0.009028462 0.18779393 -0.17278223
000200 12 35 1f be f5 13 b0 3c 8a 7b d0 bc 5d f5 bc bd
       -0.15547588 0.021493891 -0.025449533 -0.09226487
000210 d9 5a 3d be 4f eb 75 3e a3 c2 60 3d d4 cc f9 3d
       -0.18491687 0.24015544 0.05487312 0.12197271
000220 5f da 85 bd 93 7a f6 3c c4 80 e2 3c 37 be 81 bc
       -0.065357916 0.030087745 0.02764929 -0.015837772
000230 6d 26 0c be 1c eb 84 3d 6d 2c 29 3d e2 86 33 3e
       -0.13686533 0.06490156 0.041302133 0.17531922
000240 1c 8b c7 bd 65 d6 8b bd db 24 42 3e 7c 86 32 be
       -0.0974333 -0.06828002 0.18959372 -0.17434114
000250 4e 73 5b 3d 31 63 02 bb 14 a7 b3 bc fe 15 80 bd
       0.05357676 -0.0019895548 -0.021930255 -0.06254195
000260 a0 a8 85 3d dd 7b 07 be 70 95 4c be 24 24 47 be
       0.06526303 -0.13230844 -0.19978881 -0.1944738
000270 6b 66 ff 3c c0 bd 8d 3d c8 5f eb bc 3b b5 59 3d
       0.031176766 0.069209576 -0.028732195 0.05315135
000280 f5 79 fb bd e9 b2 6b bd 5c 70 8a 3c b6 a8 6a 3e
       -0.12279121 -0.05754367 0.01689928 0.2291592
000290 72 4f 0a be 1a db ba 3c be d8 14 3d e0 67 3a 3e
       -0.13506868 0.022809554 0.036339514 0.18203688
0002a0 41 5e 3c 3e c8 6a 33 be 6e bb 21 3e 8d 88 e3 3d
       0.1839533 -0.17521203 0.15794155 0.11110029
0002b0 e0 34 55 3e e8 c8 34 bd 02 af df bc 0a 74 f9 bd
       0.20820951 -0.04413691 -0.02730513 -0.12180336
0002c0 9a eb 81 3a d0 a6 b8 bd e9 eb 1f bd d9 2c 93 bd
       0.0009912134 -0.09016192 -0.03904334 -0.071862884
0002d0 e3 b7 ad bd 66 eb fb bd f3 47 f3 3d f1 31 42 be
       -0.08482339 -0.12300758 0.118789576 -0.18964364
0002e0 4e 1c 47 3e 56 6a 19 bc 3e 6e de bd 6a 4b 12 bd
       0.19444391 -0.009363731 -0.10860871 -0.03571645
0002f0 dd 67 ab bd 6d f7 28 3e a7 6b a1 3d 7c 5e c8 bd
       -0.0836942 0.16500635 0.07881861 -0.097836465
000300 08 59 01 3e 41 b6 05 3d a6 28 e4 3d f1 5a 48 3d
       0.12631619 0.032644514 0.111405656 0.048914853
000310 67 95 ea 3d 8a 9e 7a 3d d5 9d 48 3e 9d bb 3c 3c
       0.114542775 0.06118635 0.19591458 0.01151934
000320 fe 6d 07 3d 8b 4c 6f 3d ef 73 c4 3d f1 11 03 be
       0.03306388 0.058422606 0.09592425 -0.12799813
000330 42 88 91 3d 7d 4a c6 3d 8a 32 7c 3d 06 b3 79 bd
       0.07106067 0.09682176 0.061571635 -0.060961746
000340 e8 66 ec bd 52 c7 07 3d 32 63 3c 3d d9 7b 20 3e
       -0.11543065 0.03314907 0.045993038 0.15672244
000350 6f 50 d2 bd db a1 52 be 05 4a 02 3c 7c 2f 25 be
       -0.10269248 -0.20569555 0.007952218 -0.16131395
000360 69 f7 df 3d f7 64 e3 bc 1a 5c fa bd a0 51 0e 3e
       0.109358616 -0.027758105 -0.12224598 0.13898325
000370 f5 c8 45 3c 6f a4 84 bc 5f 48 c9 bd 01 b5 d2 3d
       0.012071838 -0.01619169 -0.09828257 0.1028843
000380 c0 86 ec bd a7 a0 c8 3d a1 b2 8f bd f1 5d ee bd
       -0.11549139 0.09796267 -0.07016493 -0.11639012
000390 2e 7e a7 bd 48 f2 70 bd 1f f6 3f bc 20 b4 90 3b
       -0.08178364 -0.058824807 -0.011716395 0.004416004
0003a0 55 3e 94 3c f9 62 cf bc e0 4f e5 bd b6 c0 c4 3d
       0.018096128 -0.025315749 -0.111968756 0.09607069
0003b0 4b dc 8e 3c c1 3e 23 bc b8 c2 7c bd d4 58 0b be
       0.017439028 -0.009963692 -0.061709136 -0.13608104
0003c0 a2 8d 2b 3d 76 cc a1 3d 4d 6e 37 be bd 3c cd bd
       0.04188312 0.07900326 -0.1791317 -0.100213505
0003d0 8b 35 ba 3d 14 1d 35 bd 8f 3d 40 3d c0 c1 35 be
       0.09092244 -0.044217184 0.046933707 -0.17749691
0003e0 89 c2 14 3e 47 e0 0f be 8e 2b 45 be 38 0c fd bd
       0.14527334 -0.14050399 -0.19254896 -0.12355846
0003f0 e6 52 4d bd 8c e1 f6 3d e8 07 4e bd 5a 89 ad 3c
       -0.050127886 0.120547384 -0.05030051 0.021183658

bias f4 [10]
000000 3f 9b 6b be c5 87 4e bd 24 65 e9 3d fa f5 dc 3d
       -0.2300844 -0.05042245 0.11396244 0.10789104
000010 14 89 14 3e b7 d8 11 be 66 62 f6 3d c3 67 99 3d
       0.14505416 -0.14242826 0.12030487 0.07490494
000020 72 3d ae bd db 04 be 3c
       -0.085078135 0.023195675
