Pytorch/model_data/CIFAR10_EPOCH3.pth (torch, 588827 bytes, 10 tensors)

weight f4 [32, 3, 5, 5]
00000000: a486 8b3c 810e c4bc 85b1 7cbd cc3a d2bd
00000010: 6d29 8d3c a7c9 d9bd 2087 b9bd 6252 bd3d
00000020: 2994 0dbd 4a28 b2bb 3297 d6bd e00f 86bc
00000030: d1ef e63d df80 a53d fc97 b6bd 01c0 b93d
00000040: 4fdf 8abd e8a2 5b3d 5719 ee3d f280 83bd
00000050: e7fb 5d3d 4ff5 90bb db08 e73d 34eb b33d
00000060: 253e a2bd a1f4 bfbd d5ad 343d bb99 983d
00000070: 752c 5ebd 699b ffbd de8a 27bd b8bc bc3d
00000080: a120 07be 53b7 3d3d aabb dbbd f34d 09bd
00000090: cb65 ffbc 990c 183b 37f7 583d 4662 c43d
000000a0: 6e7d 003d 066f c5bd 64d1 44bd cf96 b03d
000000b0: 6124 553d 9c47 be3c 0df6 e43d 30fe 023e
000000c0: b7ef de3d dae4 6f3d cfa8 12bd 9589 45bd
000000d0: 1be6 05be e829 13bd f775 06be b876 d03b
000000e0: 058a 6e3d c16d 1ebd 1e18 723d 3f75 b8bd
000000f0: 8e9e 723d f59e 883d 0d49 0cbd 2284 7c3d
00000100: 8040 9cbd a286 38bc f58e 583d e1ba df3d
00000110: cc14 6dbd 05bd c4bd 81a2 623d ce03 2b3d
00000120: ac29 f73d b73e fe3d 0dbd eb3d 2442 9a3d
00000130: dc40 983d af42 cd3d 82dc b13d fa95 093d
00000140: 32bf 4abd 967b 843d ad17 103d 305a a3bd
00000150: 9e4a 94bd 6358 ea3d d33b ebbd d720 463d
00000160: 17ce f7bd b5cd a63d 59b4 4d3d ac14 ea3c
00000170: 6194 07bc b252 e03d 4c31 55bd bc55 633d
00000180: 10bb 123d 067e 6c3b 9a54 d03d a057 f03c
00000190: 0030 213d acb7 6b3d cadf 9b3c 248b 553d
000001a0: 6d55 03be 9438 883d 065b 6239 66b3 ec3c
000001b0: 2dcd 04be 0039 12be 774e a9bd f66d ecbd
000001c0: 4572 debc 829d 443d 2e38 08be 09f4 1bbb
000001d0: 2b85 893c b944 adbc 0e6c 04bd 2736 a53a
000001e0: 7a1f 7bbc d758 513d b96f 803d c08b d6ba
000001f0: c60d 0fbd 7541 58bc 40ec 0c3d d443 ce3d
00000200: ce71 9cbd d25f 703d 2315 c7b8 437a f7bc
00000210: 3af2 9abd 1b0a bebd 4d65 b23d 1336 a73c
00000220: aeb2 ff3c c812 0dbc 8531 f63c 912f 563d
00000230: 43aa bcbc b131 23bd 58a1 ae3d 60c1 083d
00000240: 69d9 213d 671e 55bd ceb5 98bd 5547 b53d
00000250: fddd b9bd ea22 bd3c cd6b cb3d 868f 1c3d
00000260: b9f3 c8bd 0321 683b 3404 cbbd 445e ef3a
00000270: 79f7 903d 362c 06be 38b5 e5bd dfd3 9fbd
00000280: 6596 8bbd 9902 aa3d 15be 083d 51be 1ebd
00000290: ab47 2d3c abff debd f919 87bd e003 a9bd
000002a0: b284 13bd 0bc2 a1bd 740d 653d c983 fdbd
000002b0: 6129 e0bd 4505 bbbd 2fff dfbd 8906 37bd
000002c0: 2a20 01be c295 cb3c 7460 a93c 6e7d cf3c
000002d0: f20d b33c 55fe 53bd 5335 babb 0d7a 493c
000002e0: eb05 f3bd 9a02 e1ba 1e90 a7bd daa0 853c
000002f0: bb89 743d 1a54 73bd c913 e0bd 552a ad3d
00000300: 551f 663d b51f 8a3c 40e8 1ebd a412 053d
00000310: 6b7b a8bd 52c4 0abe 02a6 b0bd 34b8 babd
00000320: ac25 96bd aa13 433c 753e de3d bbdc 3a3d
00000330: edc4 f63d a4ea e8bc 2d24 213d 0637 de3d
00000340: 83e6 3bbd 307b 173e 7cb4 de3d 786d a63d
00000350: 5038 de3c 2e81 2e3e 9b16 293e c938 5d3d
00000360: c65c 163e 1c0b 2b3e 2a87 c33d d4f4 dc3d
00000370: 5b2d a53d 24e9 633d 0bad 55bd b4a6 d03d
00000380: 06fb d03d 8bba b93d 4ead 493d c194 673c
00000390: 016f f93c 404b 2fbd 9cc5 753d fcea adbc
000003a0: 0d92 913d a3d3 8c3d 3654 713d 4bc9 bd3d
000003b0: 53ab 82bd 3a09 3a3c e2c6 bebc 6b6d 023e
000003c0: d0e7 643d 9dcd 5a3d b97c 883d 93f0 f13d
000003d0: 1906 393d c3f8 48bb 1f26 b0bd 5c70 b4bd
000003e0: 26cb d83d 29d0 e8ba 2710 97ba 5718 463d
000003f0: 07c8 52bd bf5f b03d 6e03 25bd 237a 8dbc
0.017031975 -0.023932697 -0.061692733 -0.10265121 0.017231667 -0.10634165 -0.09058976 0.09244229
-0.034565125 -0.0054369317 -0.10478057 -0.016364992 0.1127621 0.08081221 -0.089157075 0.09069825
-0.06780874 0.053622156 0.11625927 -0.06421079 0.05419531 -0.0044237743 0.11280986 0.08785096
-0.079220094 -0.09372831 0.04411109 0.07451197 -0.054241616 -0.12480814 -0.04090392 0.09215683
-0.1319604 0.04631741 -0.107291535 -0.033521604 -0.031176468 0.0023200868 0.052970137 0.09589057
0.03136962 -0.09640317 -0.048051253 0.086225145 0.052036647 0.023227505 0.11179743 0.12792277
0.10885566 0.05856786 -0.03580552 -0.04822691 -0.1307606 -0.035928637 -0.13130938 0.0063618086
0.058237094 -0.03867889 0.05910503 -0.09006738 0.05923324 0.06670944 -0.034249354 0.06164945
-0.0762949 -0.011262568 0.05287071 0.10924316 -0.05788116 -0.09606365 0.055330757 0.041751675
0.12068495 0.12414306 0.11510668 0.075321466 0.07434246 0.100224845 0.08684637 0.033590294
-0.049498744 0.06468885 0.03517883 -0.07976186 -0.072407946 0.1144264 -0.1148602 0.048371162
-0.120998554 0.08144704 0.05022082 0.02857431 -0.008275122 0.10953273 -0.052048966 0.055501685
0.035822928 0.0036085858 0.101723865 0.029338658 0.039352417 0.05754821 0.01902761 0.052134648
-0.12825556 0.066514164 0.00021586948 0.028894138 -0.12968893 -0.14279556 -0.08266919 -0.11544411
-0.027154097 0.048001774 -0.13302681 -0.002379658 0.016787132 -0.021150934 -0.03232961 0.001260464
-0.015327329 0.051110115 0.062713094 -0.0016368553 -0.034925245 -0.0131992 0.034404993 0.10071531
-0.07638894 0.05868513 -9.4929965e-05 -0.030209666 -0.07565732 -0.09279271 0.08710728 0.020411527
0.03121313 -0.008610435 0.03005291 0.052291457 -0.023030406 -0.03984231 0.08526868 0.03338754
0.03951398 -0.052030947 -0.074565515 0.08851496 -0.09075544 0.023087937 0.09932671 0.038222812
-0.098121114 0.0035420067 -0.09912911 0.0018262346 0.07078452 -0.13102803 -0.11216205 -0.07804083
-0.06815795 0.08301277 0.0333844 -0.03875572 0.010576169 -0.108886085 -0.06596751 -0.08252692
-0.03601522 -0.07898339 0.055921033 -0.12378652 -0.109453924 -0.091318645 -0.10937344 -0.044683967
-0.12609926 0.024851684 0.020675875 0.025328364 0.021857236 -0.05175622 -0.0056826263 0.012297166
-0.11866363 -0.0017166913 -0.08181785 0.016312052 0.059701663 -0.059406377 -0.10941274 0.0845534
0.056182224 0.016860822 -0.03879571 0.03248848 -0.08226665 -0.13551453 -0.086254135 -0.09117165
-0.07331404 0.011906544 0.108517565 0.04562066 0.12049279 -0.028432198 0.03934114 0.10850339
-0.04587413 0.14793086 0.108742684 0.08126348 0.027126461 0.17041466 0.1651253 0.054009233
0.14683828 0.16703457 0.09547265 0.10788885 0.080652915 0.055642262 -0.05216698 0.10188046
0.10204129 0.090687834 0.04923754 0.014134587 0.030448439 -0.042796373 0.060002908 -0.021230213
0.07107935 0.06876304 0.0589182 0.09266909 -0.06380334 0.011354739 -0.023288194 0.12737052
0.055885136 0.053418744 0.06664414 0.11813464 0.04517183 -0.0030665852 -0.08601021 -0.08810493
0.105856225 -0.0017762232 -0.00115252 0.048363056 -0.051460292 0.08612012 -0.040286474 -0.017270153

bias f4 [32]
00000000: 4a60 e3bd 7064 b23c f370 583c 2978 cf3c
00000010: ec04 7abd 61f9 513e e807 86be 7996 41be
00000020: f860 e9bd 5744 6b3c fe82 1a3e ca3c 69bc
00000030: 100d 7ebd 68d0 85bd a580 a3bc 34ea 82bd
00000040: 3873 583b 86d4 86be 07e3 e3bd 56e8 6bbd
00000050: a5e4 98bc 93a9 873c ae07 9a3d 7975 9e3c
00000060: 35d3 3abe c5bd fe3c 7811 aabd 66b2 dd3d
00000070: df20 52be 2058 653d d09d b9bd 1559 9d3d
-0.1110235 0.021776408 0.013210523 0.025325852 -0.06103985 0.20505287 -0.26177907 -0.18905057
-0.113954484 0.014359555 0.15089032 -0.014235685 -0.062024176 -0.06533891 -0.019958803 -0.06392327
0.003302766 -0.26334018 -0.111272864 -0.05759462 -0.018663714 0.016560351 0.07520996 0.019343125
-0.18244632 0.031096349 -0.08304113 0.108250424 -0.20520352 0.055992246 -0.090633035 0.07683007

weight f4 [32, 32, 5, 5]
00000000: 0fb5 273a 5ab1 e4bb ee1f 5abb 0587 2cbc
00000010: 6af3 edbc fe93 023d 5707 87ba 7d60 da3c
00000020: 94d7 be3c f482 ab3c 97fc c73b 206c 0dbc
00000030: f9ff a4bc c6af 4a3c c997 303d aedc a8bc
00000040: b3a1 3cba 1d75 f4bc 1ca2 5fbc c72b 86bc
00000050: d6d1 e03c 4acd dc3c 4d9b f13c 6ae1 cb3c
00000060: cd1f 533c 0d07 04bd 9c1e 963c 3a0b 8bbc
00000070: f2e2 e83c e36d f5b9 fa5f dabc 60ae 713c
00000080: ac20 dd3b 2242 df3b 3019 dabc 2e0f 0e3d
00000090: 27dd 84bc 8d4a 7f3c 3adc 283c 4b4a d23c
000000a0: 0075 603c d151 193d e1e5 a4bc 6119 26bb
000000b0: 1ca5 a33c 029e 8abb defa 053d 4c1e ed3c
000000c0: 4b86 103d 3fc8 c9bc ed79 cd3c 7898 0a3d
000000d0: 52d5 c5bb bd16 4b3c f3fc ea3c 033d c43c
000000e0: 2dd7 2c3c fb2c 83bc 636e f33c f289 fc3c
000000f0: 2589 fdbc 5e82 03b9 9a4c 013d 2d72 fe3c
00000100: e682 04bc 3b72 a83c 0110 403c 128b 09bd
00000110: 0e53 543c 217e 643c eb82 cdbc cc66 c23c
00000120: 28e3 79bb 09ae bebb 4653 d73c 6956 a9ba
00000130: a312 bb3c 7c0c 7ebc 4ff7 0d3c bdd4 88bc
00000140: 1ac1 9b3c 54da e2bb 73ff c9b8 0b14 e939
00000150: e8ea c73b f8d7 903b 931e 6e3b 8e35 2b3d
00000160: 5a84 913c 7c2e 4c3b fe11 38bc a720 203d
00000170: 78c9 183d 0063 783c e684 403c a3b1 e13b
00000180: f0eb f73c bea2 86bc 64b9 a83b db87 f73c
00000190: f76d 873c 7153 b9bc d623 ffbc 3617 a0bb
000001a0: d82d 42bc 816e 64bc fa67 36bb e0ea 7a3b
000001b0: 9e58 1cbd bd79 ad3b 0738 9c3a ada5 9ebc
000001c0: 1cdb d3bc f49e 843b 2b88 9e3b 7928 eebc
000001d0: 9044 b33c bb82 9a3c e524 e13b c467 4abc
000001e0: 9b0c f33b 1ff7 983c fdb3 ef3c 54ef 87bc
000001f0: 4e09 a83a fffe bf3b 3a1d e7bb 1823 903c
00000200: 306e ea3c 3201 04bd aa61 5a3c 6ae2 c83b
00000210: 6916 bb3c f52f 173c 5cf7 81bb aff0 e5bc
00000220: 547c 963c 2051 d0bc 70b5 b6bc d713 bdbc
00000230: 9454 d83c 84cc 1ebc 6910 2fbd 3b31 2dbd
00000240: cfb4 103c a721 493b 316c e0bc 5ca6 1f3b
00000250: 0a76 0d3d fb6f 96bc c8b3 883b 0161 0e3d
00000260: 25ab 063c 4f67 40bc f289 043d 6b59 453c
00000270: 4b8a 173d 35b4 1b3d 0afd d8bb 1ef4 a93c
00000280: 41ec 9a3c 3441 e73c 1285 823c 887b d23c
00000290: 6b71 033c 68f0 c03c 4309 9bbc 516d 983c
000002a0: 6344 0bbc 5e6c e9bb 43e5 d7bb 6830 0c3d
000002b0: 273f 013d 0bcd bdbc 6810 1d3d 05b5 afbc
000002c0: 9b6d 01bd eb1a 96bc 1e51 fa3c 0fde 20bd
000002d0: b06c 34bc d6f3 893b addd 26ba c7c7 a63c
000002e0: c75d 10bd 486b 233a a556 51bc 82fc f43c
000002f0: 9b64 8c3c 39d0 1a3d 0bb6 e63c 10ed 0ebc
00000300: cc5e bd3c f5c4 2d3d b589 f63c 71de 173d
00000310: 2696 363d 0228 b83c 1ef5 123d d81c 273d
00000320: 29ca 383c 61a7 ea3c abfa 913b d589 f8bc
00000330: 25ef dcbb c20e 6f3c 2e32 2d3c 0f3d 4cbc
00000340: a2ae 17bd 75ba 413c ed3d 863c 7b0a c33c
00000350: 13d5 d5b8 c406 08bd 63c8 f5bc cb9c 11bc
00000360: e1f2 f53c 4553 b1bc 4a8e 2e3d 5d11 a9bc
00000370: 436f f2bc 3092 283d 3106 763c 5283 0f3c
00000380: b384 243c b3d7 e13c 122b ae3a af6d e1bc
00000390: b407 e0bc 0757 c13c ad4d d23c 1216 193b
000003a0: 9c59 7d3c f8db acbc b7a8 9cbc dc9d 7cbc
000003b0: 0bc1 e43c 37c9 d23a 7e7e 0fbb fb13 c03c
000003c0: 93f4 f6bc 23c0 62ba 0ce8 c5bc ada4 c93c
000003d0: 30f6 ac3c 9314 a93c 3471 efbb d5ec a4bb
000003e0: dd95 213d a079 d73c bfef 1dbc b0ff 85bc
000003f0: 01ae afbc 155c 2abc 14d4 29bd 441a 0d3d
0.0006397524 -0.0069791498 -0.0033283192 -0.010530238 -0.029046733 0.031879418 -0.001030187 0.026657337
0.023296155 0.020936467 0.006103109 -0.008631736 -0.020141589 0.012371009 0.043113504 -0.02061304
-0.0007195726 -0.029841 -0.01364949 -0.016378297 0.027443808 0.026953358 0.029492998 0.02488776
0.012886 -0.032233287 0.018325143 -0.016973127 0.028428528 -0.00046811913 -0.026657093 0.014751047
0.0067482796 0.0068133036 -0.026623338 0.034682445 -0.016218735 0.015581739 0.010306412 0.025670191
0.01369977 0.03743154 -0.020129146 -0.0025344717 0.019976191 -0.004230262 0.03270995 0.02894511
0.03528432 -0.024631618 0.025082553 0.03383681 -0.0060373927 0.012395558 0.028685069 0.023954874
0.010549349 -0.01601266 0.029715722 0.030827496 -0.030949185 -0.00012541699 0.031567194 0.031060303
-0.008087849 0.020562282 0.011722566 -0.033579893 0.012959255 0.013946087 -0.02508684 0.023730658
-0.003812978 -0.0058190865 0.026284825 -0.0012919429 0.022836035 -0.015505906 0.00866492 -0.016703004
0.019012976 -0.0069229994 -9.632008e-05 0.00044456156 0.006101001 0.0044202767 0.0036334142 0.04179912
0.017763305 0.0031155637 -0.011234758 0.03909364 0.03730151 0.015160322 0.011750435 0.006887631
0.030263871 -0.016435023 0.0051490534 0.030216148 0.016531928 -0.022622796 -0.031145018 -0.0048855795
-0.01185175 -0.013942362 -0.002783297 0.003828697 -0.03817045 0.0052940533 0.0011918553 -0.01936611
-0.025861315 0.004047269 0.00483801 -0.029072033 0.02188328 0.018861165 0.0068708532 -0.012353841
0.007417274 0.018672524 0.02926063 -0.016593613 0.0012820156 0.0058592553 -0.0070530446 0.017594859
0.028616995 -0.032227702 0.013328949 0.0061305063 0.022837834 0.009227742 -0.003966255 -0.028068868
0.018369831 -0.025429308 -0.022303313 -0.02308075 0.026407517 -0.009692315 -0.04274026 -0.042283278
0.008832171 0.0030690224 -0.02739534 0.0024360633 0.0345364 -0.018363943 0.004171822 0.03476048
0.008219515 -0.011743381 0.032358117 0.012045245 0.03699712 0.038013656 -0.0066219615 0.020746287
0.018911483 0.028229333 0.015932593 0.02569367 0.008022646 0.023552135 -0.018925315 0.018606814
-0.008500191 -0.007123514 -0.0065886094 0.03422585 0.031554367 -0.023169061 0.038345724 -0.021448622
-0.03159867 -0.018323382 0.030556258 -0.03927427 -0.011012241 0.0042099757 -0.000636543 0.020358933
-0.035245683 0.00062339427 -0.012777005 0.029905561 0.017137816 0.037796233 0.028162977 -0.008723512
0.023116492 0.04242416 0.03009496 0.03707737 0.044576786 0.022480015 0.035878293 0.040798992
0.0112786675 0.028644266 0.004454931 -0.030339161 -0.0067423754 0.014590921 0.010571046 -0.012465729
-0.037031777 0.01182424 0.01638695 0.023808708 -0.000101963196 -0.033209577 -0.030002778 -0.00888748
0.03002304 -0.021646151 0.042616166 -0.020638162 -0.02959407 0.04115504 0.015016125 0.008759337
0.010041404 0.027568674 0.0013287982 -0.027518122 -0.027347423 0.023601068 0.025671804 0.0023359102
0.015463259 -0.021100983 -0.019123418 -0.015418496 0.027924081 0.0016081695 -0.0021895464 0.023447027
-0.030145919 -0.00086498464 -0.0241585 0.024614656 0.021113485 0.020639693 -0.007307196 -0.0050331154
0.03944956 0.026303113 -0.009639679 -0.016357273 -0.021445276 -0.010397931 -0.04146202 0.034448877

bias f4 [32]
00000000: 8247 3abb a78c 153c 1c23 8fbd 888e 1fbd
00000010: 97c5 54bb 8ee7 03bd 87bd 98b9 d0fd b53c
00000020: dca4 03bd eefe 933c 1333 abbd 7b25 93bc
00000030: 3d27 743d 9398 debc a9c0 78bd e5ca 8f3b
00000040: e814 173d 10aa 083d d2ee 83bd a91e 17bd
00000050: bc4b e13b 3eab 7b3b 0676 83bc 2f03 80bc
00000060: 6b11 ddbc f366 33bc 16ed 9abc 05b1 4bba
00000070: 227c 013b 8cd9 a9bb 756b 0fbd c755 e4bb
-0.002842397 0.009127772 -0.069891185 -0.038954288 -0.0032466406 -0.03220325 -0.00029132908 0.022215754
-0.032139644 0.018065896 -0.08359351 -0.017962208 0.059607733 -0.027172362 -0.06073061 0.0043882006
0.036885172 0.03336531 -0.06442036 -0.036894474 0.0068754833 0.003840163 -0.016047489 -0.015626518
-0.026985845 -0.010949838 -0.01891188 -0.00077702134 0.0019757827 -0.0051834043 -0.03501459 -0.0069682333

weight f4 [64, 32, 5, 5]
00000000: 73dd 3f3b 6618 1d3d 9a76 193c 3b6d 60bb
00000010: 5af6 ee3b 7d62 ec3a 0186 b83c 80ab 26b9
00000020: 3a40 99bc 4f50 d93b d4c1 61bc befc 3e3c
00000030: 866d b93c 00aa b4bc e8f1 ac3c 01f6 0dbc
00000040: db8f b73c 14cb eebc 18cb 6d3b 211b bbbc
00000050: c67b 063d f577 1a3d cb12 babb 7af3 16bb
00000060: 63ee 72bc 396d da3c 1316 0cbd c363 df3c
00000070: 7497 22bc 9d26 87bc 996d bd3c c751 abbb
00000080: e90a 763b 5414 9b3c 2553 b1bc 70ee 893c
00000090: f026 393c 1f80 8d3c b623 ee3a 887d 41bb
000000a0: 5b49 033d cfee a9bc f06f b3bc 77c9 41bc
000000b0: 937b b7bc 7c38 fabc ad20 7a3b 195f 04bd
000000c0: 4eec 033d 29aa f53c 9f3a 8e3b 1594 973c
000000d0: 676f 0a3d bc21 95bc e6d2 ad3c 9fc8 0abd
000000e0: a661 09bd deae 8f3c 9477 413c 9056 9cbc
000000f0: b5e0 12bc 6857 733b 7d42 dd3b 399c 253d
00000100: 64fe c73c d89d 03bd 9530 fe3c 6447 1b3d
00000110: bf1f 133d ae71 a93c 9477 d43c 394b db3c
00000120: a0a4 423d 5566 4b3d 2802 cf3c 5e06 c9bc
00000130: 97b8 80bb 2cde 7f3a 9ce8 93bc d67c d43c
00000140: 35e2 1a3c 0fb8 09bd de4f 923b 1791 b73c
00000150: 7651 dfbb 47d6 be3b 4b7e 6c3c bd59 cb3b
00000160: 7afd 00bd 8057 acbc 9c93 c43b ca33 2a3c
00000170: 7bee ff3c 69c2 b9bc 44a9 9bbc be72 053c
00000180: ad26 44bc b149 d8bc 170d 5f3c f6e6 84bc
00000190: e9c1 623b 2286 b03b b21b b13c 5367 e43c
000001a0: 0a91 68bc b6f0 3abc 0e82 df3c 2216 113c
000001b0: 1fe7 ffbc 3c84 c23b 858e 63bc 8b03 dabc
000001c0: df60 113b 6093 043d 1829 823c e4a9 2abc
000001d0: f9fa e7bb 3cb2 253c 9aeb 7f39 f6c9 93bb
000001e0: 398e a6bc 102f 2e3a a9b1 6a3b f1ea 9abc
000001f0: fcca 87bb 9d3e 08bc af4e b63c c561 96bc
00000200: 4f57 f4bc dd5d 8f3c 97ed 3cbc f406 d3bb
00000210: 1d5d f0bc 02cd f03b 70d5 a6bb 24f4 02bd
00000220: 050c 8b3c ea80 04bd a4cb 16bc bf6d b3bc
00000230: 6563 333c 240f fa3c d23f 4fbb 4c89 95bc
00000240: 67a4 ebbb 20eb c6bc 72ee 10bd 2d2a eabc
00000250: 347b cabc a1e5 193c 52a9 bf3b 818a 523c
00000260: 06f0 a43c b271 babb 67c1 2b3c c7a1 a1bc
00000270: 67c9 aa3c 6802 f53c 5797 fdbb 0073 9cbc
00000280: b38f 47bc 9ffb c83b 4340 91bc 8bf2 c83b
00000290: a434 003b f466 89bc 1e21 62bb 744f 7b3c
000002a0: ef92 39bc 6719 0e3d 1a38 083d fd0c 0fbc
000002b0: 72e8 7a3c 6b3f d2bc 017f d9bc 5230 80bb
000002c0: 6b41 b036 5f6b 543c 2239 6ebc 25c2 aebb
000002d0: 6c63 b43c 02e2 45bb 701b 1abc bdc0 453c
000002e0: 74d9 243c 6891 4f3c 8e6c 113c dac4 62bc
000002f0: dd14 103c bf80 3ebc 627a 0c3a 2aa4 973c
00000300: ed1c c53c 947f c63c dee9 f0bb 468e f6bc
00000310: cf9d 8dba 6150 bf3c 0fad 673c 5804 803b
00000320: e8ac c13c eb38 063d f33d 12bc 4ff7 2ebb
00000330: 0d7b a6bc 6a7a 19b9 3dd2 15bc 566d 03bc
00000340: 1f2b fabc 247f 1c3c 5a1b fcbc c2b4 c5bc
00000350: 9746 e9bc b0b0 133b 5ffd 04bd 8f1e cfbc
00000360: 68f5 e63c ab4f a13b 8b2c e1bc 07cc fb3c
00000370: f5de e6bc 3e78 853c 389f 363c 458d a1bb
00000380: 6d8b babc 982f ba3b fafe 25bd c603 903c
00000390: e60c ac3a 8899 3a3a aa4d 06bd 2daf 04bd
000003a0: f02d 9c3b f702 fcbc 9cb9 7abc bc8d c83c
000003b0: 9272 80bc ff4c c93c acf2 09bc 5d77 723c
000003c0: 2365 113d e254 01bd 6f21 fe3c 9610 8e3c
000003d0: d29f d0bc bd3b 46bc 9fd2 1abd 649b ad3c
000003e0: bbc7 553b 02dd 12bd b16a 653c 4ee5 63bc
000003f0: 9d44 8a3b c2d8 413d 3855 87bb 917f 90bb
0.002927628 0.038353346 0.009366656 -0.0034244794 0.007292551 0.0018034723 0.022524836 -0.00015894882
-0.018707383 0.006631888 -0.013779122 0.011656938 0.022635233 -0.022053719 0.021111444 -0.008664609
0.022407463 -0.02914957 0.0036284383 -0.022840085 0.032832883 0.037712056 -0.00567851 -0.0023033307
-0.014827344 0.02666341 -0.03420074 0.02726925 -0.009923805 -0.016497904 0.02312355 -0.0052282545
0.0037543124 0.018930592 -0.021646092 0.016837329 0.011300787 0.017273007 0.0018168602 -0.0029524285
0.03205238 -0.020743756 -0.021903962 -0.011827818 -0.022397792 -0.030544512 0.003816645 -0.032317255
0.03220778 0.029988365 0.0043404843 0.018503228 0.033797648 -0.018204562 0.021218728 -0.033882733
-0.03354039 0.017539438 0.011808295 -0.019084245 -0.008964707 0.0037130956 0.006752311 0.04043219
0.024413295 -0.032132953 0.031029025 0.03790988 0.035918947 0.02068409 0.025935926 0.026769267
0.04752028 0.04965814 0.025269583 -0.024539169 -0.003928255 0.0009760584 -0.018055253 0.025938433
0.009453346 -0.033622798 0.0044650873 0.022408051 -0.006815131 0.0058238837 0.014434407 0.006205766
-0.031491734 -0.021037817 0.0059990417 0.010388324 0.031241646 -0.02267571 -0.01900161 0.008145032
-0.011972112 -0.026402326 0.013613961 -0.016223412 0.0034600443 0.0053870836 0.021619651 0.0278813
-0.014194736 -0.011409929 0.027283695 0.0088553745 -0.031238137 0.0059361737 -0.01388896 -0.026613018
0.0022182984 0.03236711 0.015888736 -0.010416482 -0.007079479 0.010113295 0.00024406463 -0.0045101596
-0.020331489 0.0006644586 0.003581146 -0.018910857 -0.0041440707 -0.008315709 0.022254316 -0.018357167
-0.029826788 0.017500812 -0.011531255 -0.006440038 -0.029341275 0.0073486576 -0.0050913617 -0.031971112
0.016973505 -0.032349505 -0.009203825 -0.021902917 0.0109489905 0.030524798 -0.0031623733 -0.018253945
-0.007191229 -0.024282038 -0.03538365 -0.028584564 -0.024716951 0.009393127 0.005849042 0.012850405
0.020133983 -0.005689823 0.010483122 -0.019730462 0.02084799 0.029908374 -0.0077389884 -0.019097805
-0.012180257 0.006133511 -0.017730838 0.006132429 0.0019562626 -0.016772725 -0.0034504603 0.015338767
-0.011326536 0.034692194 0.033256628 -0.008731124 0.015314208 -0.025665006 -0.026549818 -0.00391201
5.2528244e-06 0.012965052 -0.014539989 -0.0053332024 0.022020064 -0.0030194526 -0.009405956 0.012069878
0.0100616105 0.012668945 0.008875979 -0.013840878 0.008794037 -0.011627375 0.00053588126 0.018510897
0.024061644 0.024230756 -0.007352098 -0.030097138 -0.0010804477 0.023353757 0.0141403815 0.003906768
0.023642018 0.032769125 -0.008925903 -0.00266977 -0.020322347 -0.0001463682 -0.009144363 -0.008021673
-0.03053814 0.009551797 -0.030774761 -0.024134044 -0.028476043 0.0022535734 -0.032468196 -0.025283126
0.02819319 0.0049228272 -0.02748706 0.030736936 -0.028182486 0.016292688 0.011146359 -0.0049301707
-0.022771562 0.005681943 -0.040526368 0.017579924 0.0013126403 0.0007118215 -0.03278891 -0.032393623
0.0047662184 -0.030763132 -0.015303042 0.024481647 -0.015679631 0.024572847 -0.008419674 0.014798966
0.035496842 -0.03157509 0.031021802 0.017341893 -0.025466833 -0.012099204 -0.03779852 0.02119226
0.003262027 -0.0358553 0.014002488 -0.013909651 0.004219605 0.047325857 -0.004130032 -0.0044097384

bias f4 [64]
00000000: dee8 0bbd 3615 273d 8b83 85bc 6c72 04ba
00000010: 0bec 3ebd 484f 8e3b cb93 c0bc 21dd e8bc
00000020: 67c9 0e3d 2da3 0c3d d178 2cbd 1964 363b
00000030: aa3f 3abd a066 923b db84 c73c b0ea 3ebc
00000040: 2c3b 023d a603 9dbb 3ba4 66bb 4b83 8bbc
00000050: 621a af3c a0e1 d83c 1ccb f0bb b358 db3c
00000060: 7ad3 7aba 5a61 49bd 762e a0ba ddea c2bb
00000070: b883 93bc c8de 343c 87d3 0e3c ab03 37ba
00000080: c30d ecbc 3a89 813c eea5 f6bc 2b84 103c
00000090: c846 dfbb a417 f73b ba8d d13c 07ab a73a
000000a0: d67d 0dbd f799 abbd 4c32 25bd 640f e1bc
000000b0: 4fde 673c a82b 85bd 3d4b 813c b1e8 8abc
000000c0: 64f4 8dbc 8586 12bd 14df 20bd 7d09 40bd
000000d0: e17e 1cbd 451d cb3c 7839 73bc 967b cebc
000000e0: ee87 253d 020d febc 717d c8bc 4428 cabc
000000f0: 5406 7cbc 7225 09bd 4b50 bebb 213f a33a
-0.034157626 0.040791713 -0.016298076 -0.00050524506 -0.046611827 0.004342947 -0.023507973 -0.028425755
0.03486004 0.034335304 -0.042107407 0.002783066 -0.04547087 0.0044678003 0.024355343 -0.011652634
0.031794712 -0.0047916947 -0.0035193104 -0.017030379 0.021374885 0.026474774 -0.0073484313 0.026775694
-0.00095682556 -0.049165107 -0.0012220878 -0.005948408 -0.018007144 0.011039443 0.008717424 -0.00069814426
-0.028815156 0.015812505 -0.030108418 0.008820574 -0.0068138577 0.00754066 0.025580276 0.0012792059
-0.034543835 -0.08378976 -0.04033117 -0.02747316 0.014152124 -0.065024674 0.015782947 -0.016956659
-0.017328449 -0.03577282 -0.039275244 -0.04688405 -0.03820694 0.02479423 -0.014845245 -0.025205415
0.040412836 -0.031012062 -0.024473878 -0.024677403 -0.015382368 -0.033482976 -0.0058079115 0.0012454727

weight f4 [64, 1024]
00000000: 6e9d 6bbc 8a86 de3c 0267 d0ba 29c5 8b3c
00000010: 02da 063d 01a5 233d 2c1e 75ba adbc 83bc
00000020: fafe 2fbb 93b3 b2bb 29c0 cb3c 55bc a1b8
00000030: 931c a3bc 6cf0 4f3a 331f 3cbb 3684 76bb
00000040: aa4e c3bc 38ff c2bc 571c b4bc a8c0 3fbc
00000050: ea4c cdbc 9c4b 5fbc 5006 563c 3dd4 9f3b
00000060: 6267 54bc 32db d0bc 9d0c 02bc d218 19bd
00000070: 8d4f 0d3d b656 debc 26fa 8dbb e9d1 bc3a
00000080: c064 6c3c 81b1 1c3d 8aca 19bc 20e6 42bb
00000090: ff5d cd3b 60ca bd3a d0ec 203c e8c7 bfbc
000000a0: 8c4f 763b a24f 85bc 1d0a 043d f7a0 eabb
000000b0: 8e42 933c 7722 ea3b e5c9 a1bc 0e42 943c
000000c0: 91f1 94bc a2a6 bdbc 599d 8c3c 3246 0ebc
000000d0: d67d e73c 0e39 bf3c e016 823c 58e6 87bc
000000e0: 5aac ee3c 7a95 d338 2e6f b83c fbea bf3b
000000f0: a5fb b03c bfa3 b93b 00b3 9d3c 9d12 043d
00000100: 493d 323c 6040 073d b65e 62bc a1fe dd3b
00000110: f2dd 193d 64d1 6d3c 5d39 6d3c 2135 033d
00000120: b365 50bc 1233 e1bb 02f7 143d ee03 66bb
00000130: 5492 803b b2a6 d7bc 6c48 833c 330c 9bbc
00000140: bdea 45bc f28b 7e3c 590d e43b fad7 c33c
00000150: bfd6 67bc a4fc 243d fa0c 58bb e7fb 413c
00000160: 2538 ec3b 2f56 873c 8d7b 1f3c 0434 dcbc
00000170: 5b42 87bc f7b5 ccbb 7280 773c 1436 de3c
00000180: a9f2 2d3c 880e 293d 8def bb3b ce95 7b3c
00000190: a1c9 6dbb dff3 c43c ee3c 29bc 5862 20bd
000001a0: ce73 9c3c aa0a db3c 6093 d4ba 50c9 043d
000001b0: 976a 36bc 8a49 883c 1d58 2bbc 3bd4 85bc
000001c0: 412b 843c dc14 573c 9026 783c 4c5b fd3b
000001d0: 5aa7 1cbc 5fa7 6cbb 93ba 8fb9 0c9f b53c
000001e0: ea3e 9b3c 5773 08bc 2625 5dbb 627c 1bbc
000001f0: c08f acbc 3d0c 133d 039f 2bba 5218 a73c
00000200: 4bab c33c 4209 2cbc 755a 38bc 802b 46bc
00000210: ded0 af3c 7608 c4ba cfd2 073c 551e d6bc
00000220: ae19 da3b 685a a73c 8258 ddbb 54c6 c13c
00000230: 0229 98bb d580 f3bc 1cb1 dabc f783 0d3d
00000240: 76d4 0e3d 2ff6 bbb9 5fc9 043d aa3e 8fbc
00000250: a25b e03a f395 173b edec 3e3c e991 ce3b
00000260: 6706 b63c f39c 6f3b aeae 0e3c 8629 38bb
00000270: cea3 043c e30d ac3c 33e6 1bbc 901b fc3b
00000280: cab7 2e3b b217 9abc efdc 80ba d02f 58bc
00000290: cd86 cfbc 9505 cf3b efa4 003d b2d1 993a
000002a0: f7c0 373b d151 633c 2cd9 853c 9e04 32bc
000002b0: 4e71 473c 081a a6bb 7e60 093d 7e56 b3bc
000002c0: b626 ba3c 2b5f 18bc 78ef bfbc ae2a 2a3c
000002d0: b5d3 3cbc af2b 293d 6d0b f2bc a928 923c
000002e0: d162 083c a3f5 ae3c 5257 053c f2b0 be3c
000002f0: c884 953a 93ad 063c 0172 b53c dac5 923c
00000300: 4a0a 373c 4eee 2d3d e1a8 8d3c 8d96 7e3c
00000310: 9b21 843b e6fb 1e3c 2a72 af3c f1f9 0ebd
00000320: 7972 a43c aae5 053d 8494 79bc d802 a8bc
00000330: e323 be3c 904e 81bc 6c83 aa3c aa54 08bd
00000340: 7457 a4bc dea8 cbbb 351c 7cbb 63a1 583c
00000350: 3958 73bb c978 323d 541c 593c b6ae fa3c
00000360: cff9 3f3c 299b 01bd a96b 08bb 3fbc 8c3c
00000370: ef8b e93c 3356 56bb 1b6d 1dbc 7e14 16bb
00000380: e27a f6bc 3507 7abc 1bde c2bc 26f6 c23b
00000390: eb44 dd3c 9fc9 063d 7c99 50bb bf3a 8bbc
000003a0: 9288 8e3c 468b 0b3d f1f6 ecbb 1ad2 39bc
000003b0: f15e 18ba 17be d73b e67f e9bb 1ed1 2f3c
000003c0: d9e7 4b3c 75f1 be3b 1444 7cbb 149e 35bb
000003d0: 3b6b 7f3b 73c9 5c3c 09e5 b8bc c4f1 bdba
000003e0: a1c7 adbc 9a12 f2bb 64d4 df3b a31c b13c
000003f0: a9ae b33c 4fc0 d13c 1639 043d c9b6 0dbc
-0.014380796 0.027163763 -0.0015899839 0.017061787 0.032922752 0.03995228 -0.0009350504 -0.016081179
-0.0026854859 -0.005453536 0.024871903 -7.712158e-05 -0.019911086 0.0007932249 -0.002870512 -0.0037615425
-0.02384122 -0.023803338 -0.02198617 -0.011703648 -0.02506109 -0.0136288665 0.013063028 0.0048775957
-0.0129641015 -0.025495145 -0.007937578 -0.037377186 0.034499694 -0.027140956 -0.0043327985 0.001440582
0.014428318 0.03825522 -0.009386668 -0.0029739216 0.0062673087 0.0014479868 0.0098220855 -0.023410752
0.0037584035 -0.016273323 0.032236207 -0.007160302 0.017976072 0.007145222 -0.019749591 0.018097904
-0.018181594 -0.023150746 0.017164873 -0.008683728 0.028258245 0.023342635 0.015880048 -0.016589329
0.029134918 0.00010089106 0.022513952 0.0058568693 0.021604368 0.005665272 0.019250393 0.032244314
0.010878869 0.033020377 -0.013816526 0.006774739 0.03756518 0.014515255 0.0144790085 0.03203309
-0.0127195595 -0.006872543 0.036368378 -0.0035097557 0.0039236937 -0.026324604 0.016025744 -0.018926715
-0.012079892 0.015536295 0.006959599 0.023906697 -0.014150321 0.04028 -0.003296672 0.011839843
0.0072088414 0.016520588 0.009734047 -0.026880272 -0.016511133 -0.006247278 0.015106307 0.027125396
0.010616937 0.041273624 0.005735344 0.01535554 -0.003628351 0.024042068 -0.010329468 -0.039156288
0.019098189 0.026738483 -0.0016218238 0.03241855 -0.011133811 0.016636629 -0.01045802 -0.016336551
0.016133906 0.013127532 0.015145913 0.0077318307 -0.009561384 -0.0036110503 -0.00027414094 0.022170566
0.018950898 -0.00832828 -0.0033744066 -0.009490104 -0.02106464 0.035900343 -0.0006546827 0.020397339
0.02388539 -0.010500254 -0.011252035 -0.012095332 0.0214619 -0.0014956135 0.008290007 -0.02613751
0.0066558933 0.020428851 -0.0067549357 0.02365414 -0.0046435604 -0.029724518 -0.02669578 0.03454968
0.034870587 -0.0003585084 0.032418605 -0.017485935 0.0017117152 0.0023130148 0.011653167 0.006304015
0.02221985 0.0036562055 0.008708639 -0.0028100922 0.008095695 0.021002715 -0.009515333 0.0076937154
0.002665984 -0.018810127 -0.0009831468 -0.013194993 -0.025332833 0.006317804 0.031407293 0.0011735468
0.00280386 0.013874487 0.016338907 -0.010865359 0.01217301 -0.005069021 0.033539288 -0.021891829
0.022723537 -0.009300034 -0.023429617 0.010386152 -0.011525084 0.041301426 -0.029546464 0.017841654
0.008324341 0.021357363 0.008138495 0.023277733 0.001140737 0.008220094 0.022149088 0.017916609
0.011171887 0.042463593 0.017292442 0.015538824 0.0040323264 0.009703612 0.021416742 -0.03490633
0.020074116 0.032689728 -0.015233163 -0.020509169 0.023210471 -0.015784532 0.02081462 -0.033283867
-0.020061232 -0.006215199 -0.003846896 0.013222071 -0.0037131442 0.04357222 0.013251383 0.030600887
0.011717274 -0.031642113 -0.0020816124 0.017179606 0.028509108 -0.0032705187 -0.009608532 -0.0022900398
-0.030087892 -0.015260507 -0.023787549 0.0059497533 0.027010402 0.032907125 -0.0031829765 -0.016995786
0.017399106 0.03406837 -0.007231586 -0.011341596 -0.0005812487 0.00658394 -0.0071258424 0.01073101
0.0124454135 0.0058271238 -0.0038492726 -0.002771263 0.0038973826 0.013475764 -0.02257015 -0.0014491607
-0.021213355 -0.0073874714 0.006830739 0.0216201 0.02193387 0.025604395 0.032281004 -0.008649536

bias f4 [64]
00000000: e9a0 9e3b 644f 1c3a 2029 e9bc def4 96ba
00000010: 8015 a53c b671 883c 45ae 9eba f020 d3bc
00000020: 725b 3f3c 4de4 07bd fb93 00bb c07b d5bb
00000030: 1350 1bbc 6e15 e13c 2906 11bc cbad a8bb
00000040: 593a 903c 3f8f 503b 7182 22bd a96e 433b
00000050: 456a 363c aa97 7bba 9eff 6bbc ea76 023d
00000060: 88a9 dc3c aeaf 083d 7518 013b 0a9a 3f3c
00000070: 7283 203d 7b38 a63c 0ba5 7cbc 3840 e1bb
00000080: 1bd8 22bd 621a f43b 9408 49bc d9aa 57bc
00000090: 2fce aebc 85d3 403c d4dc 0cbd 4725 823c
000000a0: 0e5a 0fbd a228 77bc a461 1cbb 3387 823c
000000b0: e780 843c bb01 3f3c 4a64 ea3c d8b2 a9bc
000000c0: 76aa 4f3d 486e a33c 1a25 babb cbbf d2bb
000000d0: 9b80 ffbc ccb4 91bb 9d86 883c 099c 2c3c
000000e0: 5e31 313d ed79 77bc e4cd 7ebc 84bd 2c3c
000000f0: bece 47bd ea6b 51bb 86f3 343c 1efd 2ebd
0.0048409593 0.0005962758 -0.028461993 -0.0011517068 0.020151854 0.016655784 -0.001210638 -0.025772542
0.011679517 -0.03317671 -0.0019619453 -0.0065149963 -0.00947954 0.027476039 -0.008851566 -0.005147671
0.017605947 0.0031823663 -0.03967518 0.0029820597 0.011133735 -0.000959749 -0.014404206 0.031851687
0.026936308 0.033370666 0.0019698415 0.011694441 0.039187856 0.020290604 -0.015420209 -0.0068741105
-0.039756875 0.007449434 -0.012270112 -0.013163292 -0.02133855 0.01176918 -0.034390286 0.015886916
-0.034997992 -0.015085371 -0.002386191 0.015933609 0.016174747 0.011658127 0.028612275 -0.020715162
0.050699674 0.019950047 -0.0056806924 -0.006431555 -0.031189254 -0.0044466015 0.016665751 0.010535249
0.04325997 -0.015104753 -0.015552018 0.010543231 -0.04878115 -0.003195519 0.011044389 -0.04272186

weight f4 [10, 64]
00000000: 30bf 193d 84af 983d 2501 603d fa7a e9bd
00000010: 3b35 9dbd 4015 063e 2c9f 39be 83fb 193e
00000020: 7ec2 c9bd 4f85 993c d63f eebd ec88 163d
00000030: 4e44 0b3c 6b61 0dbd 4a43 2ebd 1839 74bb
00000040: a5a2 343d 017d 33be 533d 123d 222d 8a3b
00000050: 04fb 10bd ab06 1dbd 559f 15bc 0688 fb3c
00000060: 678a dd3c 5f74 a1bd 7418 a1bd 2511 b13d
00000070: b984 2dbe f9b1 c7bd 236e 23bd 4b24 283d
00000080: 5e21 dfbb e076 343d dec2 ccbc b374 2d3e
00000090: 1ef5 053e 6841 973d e9ea 7c3d 0281 3bbe
000000a0: 214f e83d 10c3 22bd b597 23be 606a a8bd
000000b0: 6df0 3d3d 0f23 283d 3ce3 afbd 356d efbd
000000c0: 2943 22be 502e 71bc 9305 e83d dc29 003e
000000d0: 1a67 b5bd 19c1 57bd 96b2 84bd e77f 96bc
000000e0: 9cf9 80bd 44a7 ca3b 8b90 47bd cac6 4abd
000000f0: 7382 cf3d d5b5 49be 0e01 9b3d 382b 163e
00000100: ce57 2a3e 2353 f7bd 4ace 0dbe b35b 193e
00000110: 6940 23bd d2d2 87bd aab7 2cbd f5e2 e73d
00000120: 7b12 0c3e 9c8d 88bd 0597 9bbd 3a47 d5bd
00000130: f9d2 4c3c 2807 0bbe 173a d8bd bef8 8abd
00000140: 303d 2c3c 57cf 21be 98f8 f13c 38ac cf3d
00000150: 059f 10be 702b 393e c1af 443d c3a4 013e
00000160: 3cef 2c3e c030 4c3c 9ed8 d33d 900a bbbd
00000170: eb22 05be 46f8 a93d 3998 0bbd fd66 4d3d
00000180: 96f6 8ebd 28f2 2cbe 5bbd 91bd f61c 3cbe
00000190: 0bfe 933d 46a0 2a3e 7a67 d5bd 5a90 34be
000001a0: 691e 9dbd 197d ec3d 6b87 153e e079 e93d
000001b0: 0fe3 13be 577b 113d 119c 31bd bc63 9c3b
000001c0: 83c5 07be 90ff 54bd 6cd4 853c 1066 1cbe
000001d0: a5e8 b9bd 6bce 3f3e d748 013e 856b 063e
000001e0: cdb6 51be fbc0 c6bd 1a12 2b3e b907 41bd
000001f0: bec8 20bd be70 ccbc 6a29 183e 3f3b f8bd
00000200: cc10 ffbd 670d 0b3d 28ae 21bd 2174 5cbd
00000210: 5db5 17be ffb1 473e c343 133d f22d a43d
00000220: bf62 60bd f1a6 513d 1fcf 863b cfe6 23bd
00000230: b0a0 06be 6ebd 6d3d be66 023d c528 153e
00000240: 4339 a9bd f59b 4bbd f33d 213e 92db 05be
00000250: de28 193d 0ddf 8e3c d7a8 1abd 22de 50bd
00000260: 6f5d a13d 1cfb babd a787 38be 1eb9 1dbe
00000270: acfd 333d 32f7 373d dfe6 afbc 097d 823d
00000280: ecc5 06be 3c30 68bd 4398 d93b 0ace 2b3e
00000290: 1449 cebd ca9c a73c ed43 323d 5222 193e
000002a0: ae39 153e 9a76 15be 9586 c83d 9aff d63d
000002b0: b51a 413e 8968 20bd aad1 84bc 41c4 debd
000002c0: 020b fcbc 6a5f a0bd 2e0f 1ebd dde6 1ebd
000002d0: aeec 72bd 0ece b1bd 1f68 843d df58 29be
000002e0: 4ade e83d d933 793b bc47 8dbd 2874 fabc
000002f0: ab23 8dbd 5b9c f83d fd72 863d 674a c5bd
00000300: ced2 fd3d 65cd 393c e879 c33d 200d 4d3d
00000310: 8825 073e 10cc 543d 76fb 203e 8ca6 a53c
00000320: 9118 ff3c 7d00 493d bbd0 a03d 275a fbbd
00000330: 57b8 573d c287 c73d f165 423d 657b 19bd
00000340: 9d9f 04be 2dfe e03c d0de 1b3d bb0f 173e
00000350: eb38 9fbd 85cf 32be 39a1 b63c a300 1abe
00000360: d836 d33d 7768 19bd b697 f7bd 369f d93d
00000370: b170 143d 395a 4e3c b3d0 c5bd ddc1 bb3d
00000380: da31 00be ec0f af3d 8e42 6cbd a710 dabd
00000390: 9461 b1bd 967d 1dbd 5449 8ebc 4872 113d
000003a0: 3d7e 86bb 049c d9bc f8ed 8cbd 775b b73d
000003b0: 88f1 0e3d 685a b5bc a871 20bd d35e debd
000003c0: b969 443d ed4a 613d a0c8 3abe bf6a babd
000003d0: d7bc b83d 050f 02bd 58fb 303d 77f3 25be
000003e0: bb6e 0d3e 207f 02be daff 32be 3be7 00be
000003f0: 975d a7bd 459a 143e 71d8 bdbc d927 02ba
0.037535846 0.07455352 0.05468859 -0.11400409 -0.076761685 0.13094044 -0.18127126 0.1503735
-0.098515496 0.018740324 -0.116332695 0.036751673 0.008500172 -0.034516733 -0.04254464 -0.0037265476
0.044100422 -0.17528154 0.035703015 0.004216806 -0.035395637 -0.038336437 -0.009132226 0.03070451
0.027043534 -0.07883524 -0.07865992 0.08645848 -0.16945161 -0.097507425 -0.039899956 0.041050237
-0.0068093976 0.04405868 -0.024995264 0.16939048 0.13081786 0.07385522 0.061747465 -0.18310931
0.11343218 -0.039736807 -0.1597584 -0.082234144 0.046371866 0.04104906 -0.085882634 -0.116907515
-0.15845932 -0.014720514 0.11329188 0.12515968 -0.08857556 -0.052674387 -0.06479375 -0.018371535
-0.06297609 0.0061844904 -0.04872183 -0.049505986 0.10132303 -0.1969827 0.075685605 0.14664924
0.16635057 -0.12076404 -0.13848224 0.14976387 -0.03985635 -0.06632008 -0.042167343 0.113225855
0.13678925 -0.06667635 -0.07597164 -0.10413976 0.012501472 -0.13576949 -0.10557955 -0.06785725
0.010512635 -0.1580175 0.029537484 0.1014027 -0.14123161 0.18082976 0.048019174 0.12660508
0.16888136 0.012462795 0.10344051 -0.09132874 -0.13001601 0.082993075 -0.034080718 0.050147045
-0.06980626 -0.1688925 -0.07116195 -0.18370423 0.07226189 0.16662702 -0.10420127 -0.17633191
-0.07671816 0.11547298 0.14602439 0.11400199 -0.14442085 0.035518017 -0.043361727 0.0047726315
-0.13258938 -0.052001536 0.016336642 -0.15273309 -0.090775765 0.18731086 0.12625442 0.13126953
-0.20479889 -0.09704777 0.16706124 -0.047126506 -0.039253943 -0.024956103 0.14859548 -0.12120675
-0.124543756 0.03394833 -0.03947273 -0.053821687 -0.14815278 0.19501494 0.035953294 0.08016576
-0.05478167 0.0511846 0.004114046 -0.040015038 -0.13147235 0.058041982 0.031836264 0.14566334
-0.08262875 -0.04970928 0.15746288 -0.1307204 0.03739249 0.017440343 -0.037758674 -0.050993092
0.07879149 -0.091299266 -0.18020497 -0.15402648 0.043943092 0.04491348 -0.021472393 0.06371505
-0.13161439 -0.056686625 0.0066404655 0.16777816 -0.10072532 0.020460505 0.04352181 0.14954498
0.14572784 -0.14596024 0.097912945 0.10497971 0.18857844 -0.039162192 -0.016213257 -0.10877276
-0.030766968 -0.07830699 -0.038588695 -0.038794387 -0.059307747 -0.0868188 0.06465172 -0.16537808
0.11370523 0.0038025288 -0.06898448 -0.030572966 -0.06891569 0.121391974 0.06564901 -0.09633332
0.123937234 0.011340474 0.09544736 0.050061345 0.13197911 0.05195242 0.15720925 0.020221017
0.031139644 0.04907273 0.07852312 -0.122730546 0.052666035 0.097426906 0.0474605 -0.037471194
-0.12951513 0.02746495 0.038054287 0.14752094 -0.07774528 -0.17461975 0.022293674 -0.15039305
0.10313195 -0.03745314 -0.120894834 0.1062607 0.036240283 0.012594753 -0.09658947 0.09167836
-0.12519017 0.08547959 -0.05768066 -0.106477074 -0.0866119 -0.038449846 -0.01736895 0.035509378
-0.0041044042 -0.026563652 -0.068813264 0.089529924 0.03489831 -0.022137836 -0.03917089 -0.1085793
0.047952387 0.055003095 -0.18240595 -0.091023915 0.09020393 -0.031752605 0.04320845 -0.16206156
0.13811772 -0.12743807 -0.17480412 -0.12588207 -0.08172148 0.14511974 -0.023174496 -0.0004965044

bias f4 [10]
00000000: be73 52be 7ff9 44bd 0812 103e 72d6 c63d
00000010: 6829 e33d 73f9 e3bd 264b 9d3d 6529 a93d
00000020: fbcf dabd f8c9 273d
-0.20551965 -0.0480895 0.14069378 0.09708871 0.11091882 -0.11131563 0.07680349 0.082598485
-0.106842004 0.040964097
