Pytorch/model_data/CIFAR10_EPOCH11.pth (torch, 588839 bytes, 10 tensors)

weight f4 [32, 3, 5, 5]
-0.026597017 -0.055414196 -0.07909793 -0.14700964 -0.04503161 -0.16281472 -0.12826435 0.08508822
-0.061001483 -0.0861229 -0.1501943 -0.053389683 0.12648894 0.087723166 -0.15822628 0.073526554
-0.08746234 0.08595179 0.14293271 -0.11500811 0.052470267 -0.0050328886 0.15764065 0.12660918
-0.10224638 -0.10984629 0.04233187 0.088971 -0.07054951 -0.1654122 -0.065770715 0.08841025
-0.10402218 0.052534066 -0.16022961 -0.04638643 -0.033858716 0.050611973 0.094680645 0.06030498
0.03754373 -0.09178394 0.010145491 0.14023696 0.029163994 0.031524353 0.12158293 0.18514119
0.16175862 0.050805714 -0.060197346 -0.06331252 -0.13240354 -0.063972615 -0.17901647 -0.021118565
0.04534512 -0.027273256 0.052091967 -0.14790839 0.042955417 0.055558443 -0.0047521726 0.08406219
-0.11939214 -0.01138877 0.047749717 0.14787963 -0.025079891 -0.12685658 0.056947365 0.041736443
0.16161966 0.16047193 0.102278516 0.08758643 0.09921224 0.13946758 0.072333395 -0.006601582
-0.029300943 0.06956921 0.03672776 -0.13148102 -0.12082751 0.11871658 -0.14078459 0.041141592
-0.14375962 0.065388374 0.041452166 0.0087007815 0.012246056 0.11630492 -0.05970567 0.04530212
0.028229425 0.021805814 0.095785774 0.009216368 0.063602604 0.09142791 0.06107767 0.036240797
-0.17092183 0.09105946 0.006700189 0.02837526 -0.1843537 -0.19470027 -0.08212731 -0.1463078
-0.039164618 0.020629391 -0.15527695 -0.01637581 -0.007550335 -0.00434969 -0.03060789 -0.01310783
-0.029095972 0.040984824 0.07683008 -0.01376278 -0.061676558 0.004711104 0.06433588 0.14117268
-0.08262829 0.03484962 0.022105893 -0.0209055 -0.06903257 -0.129085 0.05997143 0.022806574
0.008259434 -0.010917509 0.019532073 0.050866142 -0.03262013 -0.05530995 0.11021143 0.047671814
0.042161 -0.059311815 -0.07480998 0.1117387 -0.09006079 0.013498273 0.096209586 0.014581236
-0.12602992 -0.028822666 -0.12216386 -0.018767972 0.031003991 -0.17874935 -0.16782904 -0.12131732
-0.10782631 0.05034705 0.012849204 -0.061486844 -0.02344395 -0.15668362 -0.098535955 -0.10947083
-0.07324217 -0.120929904 0.025905482 -0.19003639 -0.19247442 -0.16139892 -0.15002467 -0.02929993
-0.12411231 0.037055694 0.033291794 0.043937914 0.042411026 -0.0424561 0.009039363 0.022836432
-0.10187747 0.025805453 -0.03708813 0.08269256 0.12510858 -0.014470973 -0.08024276 0.14115661
0.12469208 0.07222635 0.0011363078 0.06477727 -0.079094626 -0.14620617 -0.086740606 -0.070110746
-0.10258575 -0.018541338 0.09857217 0.038691334 0.118533894 -0.044502754 0.024155216 0.108206004
-0.04724341 0.15180029 0.112042956 0.11001677 0.083765656 0.22883753 0.20216538 0.064423695
0.19163485 0.2305934 0.14734016 0.14059347 0.089419335 0.04221888 -0.0723833 0.09057425
0.10691684 0.06770832 0.019650873 -0.022191254 0.033358827 -0.084376894 0.048253663 -0.054464534
0.05619695 0.08660706 0.040609065 0.07946368 -0.09860721 -0.009570069 -0.022852488 0.1295501
0.049463727 0.04507436 0.051958706 0.14675142 0.07212591 -0.034784567 -0.1225648 -0.10726405
0.14090416 -0.01596098 -0.012386801 0.029505737 -0.077053465 0.10397402 -0.063191876 -0.030955205
00000000: fde1 d9bc fff9 62bd 18fe a1bd b289 16be
00000010: 1173 38bd e7b8 26be bb57 03be bc42 ae3d
00000020: b1dc 79bd 3461 b0bd 89cc 19be 24af 5abd
00000030: 5186 013e 34a8 b33d 1206 22be 1795 963d
00000040: 751f b3bd 7e07 b03d f45c 123e 5f89 ebbd
00000050: 10eb 563d eeea a4bb 8d6c 213e d6a5 013e
00000060: 8d66 d1bd 17f7 e0bd 2f64 2d3d 6d36 b63d
00000070: 437c 90bd d161 29be ccb2 86bd 6f10 b53d
00000080: 9509 d5bd f62d 573d 3b13 24be b2ff 3dbd
00000090: 70af 0abd 804e 4f3d ede7 c13d 5b02 773d
000000a0: 74c7 193d 38f9 bbbd 4639 263c 479a 0f3e
000000b0: 54e9 ee3c ae1f 013d 7900 f93d a795 3d3e
000000c0: 0da4 253e a719 503d 7e91 76bd ffa9 81bd
000000d0: cb94 07be 1304 83bd 1850 37be d700 adbc
000000e0: cebb 393d 2a6c dfbc 635e 553d 4c75 17be
000000f0: 05f2 2f3d 4091 633d 1db8 9bbb cc28 ac3d
00000100: de83 f4bd f797 3abc 3595 433d c26d 173e
00000110: 5874 cdbc b1e6 01be a441 693d d5f3 2a3d
00000120: a07f 253e c152 243e 6677 d13d 8460 b33d
00000130: c92f cb3d 97d0 0e3e 8823 943d 1552 d8bb
00000140: 8808 f0bc 4d7a 8e3d d96f 163d f6a2 06be
00000150: 6a74 f7bd ae21 f33d d629 10be 1684 283d
00000160: b935 13be 57ea 853d bfc9 293d b98d 0e3c
00000170: afa3 483c 4631 ee3d ef8d 74bd b78e 393d
00000180: 6541 e73c 1ba2 b23c 552b c43d 4000 173c
00000190: 1542 823d 8e3e bb3d 942c 7a3d 3b71 143d
000001a0: 2206 2fbe 627d ba3d 428d db3b 3c73 e83c
000001b0: 37c7 3cbe 825f 47be 5d32 a8bd b6d1 15be
000001c0: 146b 20bd f8fe a83c ec00 1fbe 9026 86bc
000001d0: cd68 f7bb d887 8ebb 66bd fabc 39c2 56bc
000001e0: ad5a eebc b4df 273d 1759 9d3d 497d 61bc
000001f0: 8fa0 7cbd 9b5f 9a3b 88c2 833d 928f 103e
00000200: 0539 a9bd 7abe 0e3d 6b17 b53c 0342 abbc
00000210: f360 8dbd dc2e 04be 9aa4 753d dad4 ba3c
00000220: 9452 073c 5adf 32bc ba01 a03c 0459 503d
00000230: af9c 05bd b08c 62bd 88b6 e13d 8543 433d
00000240: 03b1 2c3d f2f0 72bd fa35 99bd 42d7 e43d
00000250: cb71 b8bd dc27 5d3c 8809 c53d 23e6 6e3c
00000260: fd0d 01be 831d ecbc 0c31 fabd 4abf 99bc
00000270: 15fc fd3c 120a 37be 60db 2bbe 3775 f8bd
00000280: 0ad4 dcbd b538 4e3d 7885 523c a1d9 7bbd
00000290: 870d c0bc ac71 20be 38cd c9bd 3e32 e0bd
000002a0: feff 95bd 19aa f7bd bc37 d43c e698 42be
000002b0: 0418 45be c245 25be 11a0 19be 6806 f0bc
000002c0: 982e febd b6c7 173d fa5c 083d 3ef8 333d
000002d0: 2fb7 2d3d 73e6 2dbd d619 143c 7813 bb3c
000002e0: 23a5 d0bd f565 d33c b9e9 17bd b85a a93d
000002f0: 771c 003e a917 6dbc 5156 a4bd 5c8b 103e
00000300: 905e ff3d 69eb 933d 2af0 943a f2a9 843d
00000310: 5dfc a1bd 12b7 15be 0fa5 b1bd 3996 8fbd
00000320: 7a18 d2bd 01e4 97bc 35e0 c93d ce7a 1e3d
00000330: e6c1 f23d 8548 36bd 29e1 c53c 1c9b dd3d
00000340: 4e82 41bd 8971 1b3e c776 e53d 7950 e13d
00000350: 548d ab3d 6354 6a3e 7104 4f3e 92f0 833d
00000360: ed3b 443e ad20 6c3e 57e0 163e bcf7 0f3e
00000370: 7c21 b73d b4ed 2c3d b23d 94bd fe7e b93d
00000380: 37f7 da3d a9aa 8a3d defa a03c 6fca b5bc
00000390: 44a3 083d cbcd acbd a2a5 453d 3416 5fbd
000003a0: c62e 663d 0b5f b13d b155 263d dbbd a23d
000003b0: 94f2 c9bd c7cb 1cbc 2435 bbbc c8a8 043e
000003c0: 7a9a 4a3d e49f 383d a7d2 543d 0146 163e
000003d0: c0b6 933d 437a 0ebd 4103 fbbd 41ad dbbd
000003e0: 2e49 103e 9ac0 82bc 02f2 4abc 04b6 f13c
000003f0: 35ce 9dbd 55f0 d43d be6a 81bd c595 fdbc

bias f4 [32]
-0.14859146 -0.001060307 0.05003108 -0.07203287 -0.017266491 0.23873706 -0.318653 -0.35408282
-0.08474317 -0.009847843 0.17389579 -0.053564806 -0.052268576 -0.10031086 -0.011086198 -0.09759837
0.003588014 -0.3508971 -0.032878555 -0.09341418 0.010131483 0.082438804 0.088220574 0.14265311
-0.28461245 0.030559752 -0.13357417 0.27412677 -0.24701205 0.04586348 -0.09576089 0.07575467
00000000: 5c28 18be 00fa 8aba 64ed 4c3d f885 93bd
00000010: 7572 8dbc 7d77 743e 7c26 a3be 584a b5be
00000020: d48d adbd d958 21bc bd11 323e c566 5bbd
00000030: 9317 56bd c86f cdbd e2a2 35bc a7e1 c7bd
00000040: e324 6b3b c9a8 b3be aaab 06bd ef4f bfbd
00000050: 85fe 253c add5 a83d fdac b43d a813 123e
00000060: b9b8 91be 7258 fa3c abc7 08be 585a 8c3e
00000070: baf0 7cbe 58db 3b3d 491e c4bd 4425 9b3d

weight f4 [32, 32, 5, 5]
-0.0007366139 -0.0071224542 -0.0028005256 -0.002338004 -0.024581572 0.037505224 0.009827939 0.041152276
0.037923485 0.031805623 0.02697124 0.012362752 -0.0109374765 0.014874785 0.04205457 -0.007862425
-0.0060578533 -0.04650882 -0.026566079 -0.023773473 0.028516097 0.026415356 0.031024583 0.03267692
0.013454314 -0.037371825 0.015361209 -0.020030295 0.024638427 -0.007424929 -0.020739043 0.022393696
0.01094633 0.008650267 -0.025202228 0.04249486 -0.012170674 0.013810029 0.011462523 0.026801322
0.016668756 0.042352505 -0.012597895 0.00924184 0.02763215 0.0024137313 0.052125175 0.043797784
0.043623816 -0.023628257 0.029762793 0.040561885 0.0037705547 0.022349289 0.035759892 0.017016152
0.0025737009 -0.021662055 0.024080273 0.02521623 -0.042057376 -0.0076859435 0.024208399 0.023182591
-0.016421566 0.013346171 0.008593523 -0.040031068 0.0044815415 0.009348584 -0.03514225 0.013191302
-0.011625557 -0.010212239 0.026356563 -0.0040432545 0.020260774 -0.018939147 0.0055431533 -0.022226451
0.015880464 -0.011831982 -0.0029745298 -0.0022515268 0.00053158746 0.007678177 0.0019058955 0.039743163
0.0185451 0.0055740154 -0.005236361 0.0362846 0.037960187 0.021825204 0.019347643 0.010492477
0.024009474 -0.018528495 0.004723812 0.0315368 0.023408115 -0.018727627 -0.028656881 -0.0029624212
-0.007613803 -0.017069215 -0.012586313 -0.0052553415 -0.04573812 -0.0015446072 -0.0043472894 -0.027280968
-0.028621187 0.0022889792 0.0008101205 -0.026548754 0.025280181 0.024928086 0.010325566 -0.011231643
0.00907612 0.010519851 0.019696588 -0.023125803 -0.0010845591 0.01171989 -0.002948534 0.026134908
0.044395857 -0.023429804 0.02029079 0.017755007 0.039600335 0.016731823 -0.0010591215 -0.0048196595
0.030972188 -0.021658357 -0.025963977 -0.024527479 0.04437695 -0.018256737 -0.047753762 -0.04005861
0.018329332 -2.1238147e-06 -0.046868134 0.008720635 0.049363453 -0.0041684355 0.0069651133 0.040620375
0.019573918 -0.0008703986 0.04291507 0.010328518 0.032041457 0.03415092 -0.00931906 0.017718887
0.0061855293 0.017650573 0.01326365 0.022818994 0.0033417467 0.021339288 -0.008433255 0.033908777
0.0015756849 -0.0028324516 -0.005384644 0.035518523 0.029600289 -0.027876997 0.034536112 -0.028016312
-0.03663563 -0.025506375 0.02649295 -0.03896777 -0.01741119 -0.001591611 -0.004762897 0.021725802
-0.03145925 -0.0013605303 -0.0049811117 0.044180922 0.032323845 0.049517974 0.039675858 0.016217632
0.048431583 0.06415935 0.045728836 0.05458436 0.06762836 0.03669035 0.04592412 0.04885339
0.010688503 0.029111218 0.0037019905 -0.035945974 -0.010806681 0.018172702 0.005619531 -0.024156444
-0.049516495 0.002024299 0.0055803307 0.0032497388 -0.014483197 -0.03952566 -0.03446932 -0.015612233
0.033832543 -0.0053908867 0.0603198 -0.008382572 -0.03233024 0.041432146 0.012155078 -5.4722237e-05
0.0007110278 0.017870724 -0.005155126 -0.034004435 -0.033379044 0.01716213 0.02730089 0.003489005
0.01514487 -0.02335736 -0.018682584 -0.0062263384 0.033105988 0.01028229 0.010055034 0.035585463
-0.01983877 0.016808588 0.0038564259 0.055460885 0.04487346 0.0334581 0.012014147 0.015019733
0.055528298 0.04081406 -0.003248109 -0.016410315 -0.01766432 -0.007278246 -0.041505273 0.05284184
00000000: 5219 41ba 7a63 e9bb 0689 37bb 3339 19bb
00000010: 4b5f c9bc 149f 193d 5d05 213c 4a8f 283d
00000020: a855 1b3d 9d46 023d caf2 dc3c 248d 4a3c
00000030: 1a33 33bc 5fb5 733c 6a41 2c3d 67d1 00bc
00000040: f580 c6bb 0880 3ebd 1ba1 d9bc 96c0 c2bc
00000050: 979a e93c 0465 d83c 4427 fe3c 3cd8 053d
00000060: 7c6f 5c3c 3313 19bd 95ad 7b3c 9316 a4bc
00000070: 87d6 c93c d24c f3bb ede4 a9bc fc72 b73c
00000080: 3c58 333c d9b9 0d3c e774 cebc 170f 2e3d
00000090: 8267 47bc 7643 623c 4ecd 3b3c 728e db3c
000000a0: ea8c 883c d279 2d3d 6767 4ebc 166b 173c
000000b0: d25c e23c b12f 1e3b 3581 553d 4e65 333d
000000c0: e3ae 323d 0c90 c1bc 1ad1 f33c 3824 263d
000000d0: 691b 773b db15 b73c f778 123d 7565 8b3c
000000e0: 89ab 283b 9f74 b1bc fe43 c53c 4492 ce3c
000000f0: 5b44 2cbd 5eda fbbb b150 c63c 6be9 bd3c
00000100: 8586 86bc e6a9 5a3c d9cb 0c3c 9ef7 23bd
00000110: e5d9 923b ce2a 193c 52f1 0fbd 5520 583c
00000120: 1f79 3ebc 3c51 27bc b8e9 d73c 477d 84bb
00000130: ecf9 a53c 4526 9bbc 57a3 b53b 3f14 b6bc
00000140: bf17 823c eeda 41bc 54f0 42bb 5a8e 13bb
00000150: 3b5a 0b3a 3899 fb3b 3ecf f93a bac9 223d
00000160: e5eb 973c 3ba6 b63b c895 abbb 299f 143d
00000170: 247c 1b3d c5ca b23c f37e 9e3c a3e8 2b3c
00000180: 84af c43c 12c9 97bc 35ca 9a3b bb2c 013d
00000190: 60c2 bf3c ae6a 99bc d6c1 eabc 2e25 42bb
000001a0: 357d f9bb bdd4 8bbc d336 4ebc 0035 acbb
000001b0: e557 3bbd 6b74 caba b573 8ebb 567c dfbc
000001c0: fb76 eabc b302 163b 445e 543a c67c d9bc
000001d0: 6218 cf3c fc35 cc3c 902c 293c ed04 38bc
000001e0: 02b4 143c 745b 2c3c bd5a a13c 5372 bdbc
000001f0: c427 8eba c804 403c 313c 41bb e018 d63c
00000200: 6ed8 353d dcef bfbc df38 a63c f372 913c
00000210: f633 223d 2d11 893c 38d2 8aba 3cee 9dbb
00000220: 63b9 fd3c de6c b1bc 68b2 d4bc daed c8bc
00000230: 9bc4 353d 278f 95bc 7399 43bd 7f14 24bd
00000240: 6527 963c dc86 0eb6 cdf8 3fbd ffe0 0e3c
00000250: 5531 4a3d 5f97 88bb 9b3b e43b 8d61 263d
00000260: 7b59 a03c 762b 64ba b6c7 2f3d f238 293c
00000270: e73d 033d d6e1 0b3d f8ae 18bc 3327 913c
00000280: fbaf ca3b ef97 903c c84f 593c e6ee ba3c
00000290: 3501 5b3b bbcf ae3c a32b 0abc eee3 0a3d
000002a0: 3687 ce3a a7a0 39bb ab71 b0bb df7b 113d
000002b0: 4e7c f23c 4d5e e4bc bd75 0d3d 7782 e5bc
000002c0: 3e0f 16bd bff2 d0bc be07 d93c ab9c 1fbd
000002d0: e9a1 8ebc 9a9d d0ba 1312 9cbb 4ffa b13c
000002e0: 6adb 00bd d253 b2ba 9838 a3bb 0ef7 343d
000002f0: 0266 043d 5cd3 4a3d 2783 223d d7da 843c
00000300: 3260 463d fa65 833d 294e 3b3d da93 5f3d
00000310: bd80 8a3d 9f48 163d ee1a 3c3d 7e1a 483d
00000320: d51e 2f3c a67a ee3c 189d 723b 163c 13bd
00000330: 810e 31bc ebde 943c 0b24 b83b bce3 c5bc
00000340: cfd1 4abd 1aaa 043b 35db b63b 92f9 543b
00000350: ee4a 6dbc a9e5 21bd b42f 0dbd 74ca 7fbc
00000360: fe93 0a3d 09a6 b0bb e511 773d 0e57 09bc
00000370: b76c 04bd c1b4 293d 1826 473c 8e85 65b8
00000380: 4564 3a3a a065 923c 55ec a8bb 3c48 0bbd
00000390: 77b8 08bd 9897 8c3c 1ea6 df3c caa7 643b
000003a0: 3022 783c ef57 bfbc 380c 99bc 5006 ccbb
000003b0: 259a 073d 0d77 283c dfbd 243c 10c2 113d
000003c0: eb84 a2bc 2ab2 893c 17bc 7c3b f42a 633d
000003d0: 3ccd 373d 5c0b 093d fcd6 443c 5415 763c
000003e0: a471 633d a52c 273d 3ade 54bb ed6e 86bc
000003f0: c4b4 90bc 5a7e eebb 6f01 2abd af70 583d

bias f4 [32]
-0.021882355 0.016177276 -0.09293047 -0.070749454 0.01997123 -0.022541136 0.0078944 0.038743284
-0.089059696 -0.009741686 -0.17583537 -0.028278248 0.12656668 -0.04921295 -0.11252711 -0.006791709
-0.012461782 0.029829511 -0.1118949 -0.07501456 -0.056691308 0.013602853 -0.0063389377 0.01537299
-0.027819496 -0.02134172 -0.030701712 -0.06443799 -0.064525045 -0.010231462 -0.07816332 -0.07136583
00000000: a042 b3bc 3586 843c 5552 bebd 17e5 90bd
00000010: b49a a33c 30a8 b8bc 8357 013c 47b1 1e3d
00000020: ee64 b6bd 989b 1fbc 300e 34be c9a7 e7bc
00000030: b29a 013e 8593 49bd 9d74 e6bd fc8c debb
00000040: 812c 4cbc 055d f43c 2729 e5bd 3ca1 99bd
00000050: 2535 68bd 80de 5e3c ddb6 cfbb fede 7b3c
00000060: b6e5 e3bc d5d4 aebc 2882 fbbc 11f8 83bd
00000070: b525 84bd dda1 27bc 1714 a0bd 4028 92bd

weight f4 [64, 32, 5, 5]
-0.014807596 0.03390473 0.015499957 0.00905869 0.019014148 -0.0018827827 0.018743921 -0.007154179
-0.022961318 -0.0049403156 -0.01790081 0.005889093 0.016930223 -0.025505075 0.011582254 -0.019498259
0.015458916 -0.03796773 0.0064734216 -0.021396067 0.029706081 0.040761124 -0.0032082445 -0.005446116
-0.022889284 0.019896844 -0.04461825 0.023355933 0.000604054 -0.008906584 0.01761977 -0.008110082
0.0013793556 0.01737733 -0.020037903 0.006298929 0.0024905247 0.0088897515 0.00060912775 -0.011285227
0.024624554 -0.020274376 -0.018855926 -0.00442545 -0.017427161 -0.02753594 0.00999595 -0.026433492
0.043139905 0.033704836 -0.006854551 0.0133705465 0.028931655 -0.0342199 -0.0046020476 -0.051253784
-0.04434559 0.009893127 0.007608395 -0.028339658 -0.029945193 -0.004795912 -0.0035705923 0.031409018
0.013525845 -0.05321067 0.020001454 0.018266117 0.036313802 0.0276407 -0.0001919481 0.011230061
0.045067623 0.05480094 0.03685916 -0.02844137 -0.0023858068 0.009351766 -0.009790275 0.03419306
0.010152899 -0.04122297 0.0012197379 0.030686794 -0.0026380073 -0.0011887327 -0.00776508 -0.018623028
-0.04373983 -0.039882958 0.015839938 0.001958571 0.020687848 -0.019950343 -0.028144764 0.011559017
-0.025282681 -0.03875737 0.006962438 -0.031004254 -0.0017042464 0.004221216 0.024963422 0.031211387
-0.015581293 -0.014436035 0.03704112 0.02635656 -0.019283278 0.014491694 -0.01708773 -0.031207526
-0.0037020692 0.029105006 0.0072608883 -0.009614145 -0.015790122 0.0016879396 -0.0017365678 -0.01019008
-0.018133296 -0.0061131357 -0.0073791477 -0.027557997 -0.008263958 -0.010708084 0.01882071 -0.023249555
-0.029939337 0.024319328 -0.016828455 -0.010287034 -0.040916618 -0.0017152482 -0.01095658 -0.031497184
0.019158764 -0.029987702 -0.01003774 -0.021860577 0.007547646 0.022917626 -0.01253277 -0.025343725
-0.0137582235 -0.01708515 -0.036878403 -0.02809665 -0.019736156 0.007668726 -0.013463015 0.008112457
0.018047588 -0.0043187635 0.0024292273 -0.030470338 0.018051613 0.030685874 -0.0007091708 -0.019945739
-0.029942287 -0.0058234227 -0.0316623 -0.0070118266 -0.019238243 -0.0280728 -0.013921959 0.005660241
-0.0094154775 0.035321392 0.024164798 -0.006369814 0.012790007 -0.023710858 -0.027506767 -0.0062508243
-0.009328632 0.0068258015 -0.021807404 -0.018019691 0.026399894 0.010834283 0.0063362936 0.018286081
0.014548303 0.00852816 0.012804174 -0.0040035015 0.006173717 -0.015415537 0.00064204755 0.023831727
0.03351506 0.024332544 -0.011698654 -0.02351723 0.0063596265 0.03370807 0.009485612 -0.0059904484
0.018843977 0.0375514 -0.011411151 5.0885967e-05 -0.01272623 -0.006595374 -0.0052773035 -0.010414744
-0.01829064 0.017233375 -0.034696076 -0.01839785 -0.032254968 0.0040442673 -0.02826643 -0.032748178
0.032707043 0.0026578547 -0.014682517 0.041751612 -0.04395549 0.024488062 0.0025351886 -0.0013154683
-0.01727142 0.017584167 -0.037979905 0.015888795 -0.006367239 -0.0035348895 -0.013855324 -0.0153720705
-0.00042566273 -0.040528167 -0.010403026 0.03441722 -0.01960852 0.016300928 -0.014732843 0.01608052
0.041231643 -0.038617574 0.024694758 0.009830292 -0.024904396 -0.0024262401 -0.05375641 0.014415589
-0.0034282592 -0.047409758 0.0020091033 -0.03020419 -0.0072770794 0.04229624 -0.013081664 -0.013417142
00000000: 8f9b 72bc b0df 0a3d 88f3 7d3c e66a 143c
00000010: 8fc3 9b3c b4c7 f6ba da8c 993c 9a6d eabb
00000020: 6019 bcbc 5fe2 a1bb b8a4 92bc 4bf9 c03b
00000030: 40b1 8a3c 05f0 d0bc 7fc3 3d3c d0ba 9fbc
00000040: 6547 7d3c 0d84 1bbd ff1e d43b ce46 afbc
00000050: 2b5a f33c 23f5 263d 6941 52bb 5575 b2bb
00000060: 4f82 bbbc b5fe a23c a0c1 36bd f154 bf3c
00000070: 6159 1e3a ecec 11bc 5657 903c 26e0 04bc
00000080: 7ecb b43a e75a 8e3c 8726 a4bc 3f67 ce3b
00000090: 1238 233b 52a6 113c dfad 1f3a ace5 38bc
000000a0: 6fb9 c93c 7316 a6bc be77 9abc 5e03 91bb
000000b0: 68c3 8ebc 0d93 e1bc 0ec6 233c 0d8b d8bc
000000c0: 78b3 303d 150e 0a3d 249c e0bb 2310 5b3c
000000d0: 1402 ed3c 2a2a 0cbd c6cc 96bb 7def 51bd
000000e0: b9a3 35bd c816 223c d84f f93b 9228 e8bc
000000f0: 9f4f f5bc 0727 9dbb 9900 6abb bea6 003d
00000100: 819b 5d3c 6ef3 59bd 17da a33c d3a2 953c
00000110: c8bd 143d c06e e23c ad45 49b9 4afe 373c
00000120: d498 383d f376 603d a1f9 163d e0fd e8bc
00000130: 325b 1cbb 2638 193c 6467 20bc 060e 0c3d
00000140: 5858 263c 6bd9 28bd 9ddf 9f3a df62 fb3c
00000150: 6be2 2cbb 40cf 9bba 3672 febb 528f 98bc
00000160: 8928 33bd 505c 23bd c2c2 813c 5e5b 003b
00000170: 9079 a93c e76e a3bc d98f e6bc 0862 3d3c
00000180: a01d cfbc 0cc0 1ebd 2a25 e43b a2fc fdbc
00000190: 0561 dfba 2052 8a3b 1780 cc3c 06af ff3c
000001a0: ae48 7fbc 1f85 6cbc 6eb8 173d b6e9 d73c
000001b0: f7f7 9dbc 926e 6d3c 91fb 8bbc eda6 ffbc
000001c0: 6a9e 72bb 9f6d ee3c bfec ed3b a684 1dbc
000001d0: 495a 81bc db3d dd3a 8c9d e3ba 4bf4 26bc
000001e0: 478c 94bc b350 c8bb c7cc f1bb 4fc1 e1bc
000001f0: 8d65 07bc f670 2fbc e42d 9a3c da75 bebc
00000200: 5743 f5bc 5439 c73c d4db 89bc f38a 28bc
00000210: 2f98 27bd 2ed2 e0ba 3a83 33bc 3103 01bd
00000220: d7f2 9c3c c5a8 f5bc 5575 24bc f414 b3bc
00000230: 3e52 f73b bfbd bb3c 3f56 4dbc a59d cfbc
00000240: 2c6a 61bc 28f6 8bbc cf0d 17bd f22a e6bc
00000250: b8ad a1bc f049 fb3b fa93 5cbc 1cea 043c
00000260: 89d8 933c 6a84 8dbb ac33 1f3b ee9c f9bc
00000270: fae0 933c f160 fb3c a6e7 39ba 3f65 a3bc
00000280: 8749 f5bc 69d2 bebb 54b0 01bd 77c3 e5bb
00000290: 8599 9dbc eef8 e5bc ee18 64bc 8b79 b93b
000002a0: 6043 1abc 2aad 103d 41f5 c53c dfb9 d0bb
000002b0: 2d8d 513c 463d c2bc df55 e1bc b7d3 ccbb
000002c0: 1ed7 18bc f9aa df3b 71a5 b2bc 089e 93bc
000002d0: 9744 d83c 4782 313c afa0 cf3b b1cc 953c
000002e0: 015c 6e3c b2b9 0b3c 99c8 513c ce2f 83bb
000002f0: e44c ca3b 7391 7cbc 154f 283a c13a c33c
00000300: 1647 093d 0b55 c73c b6ab 3fbc 35a7 c0bc
00000310: 6a64 d03b 7911 0a3d 8a69 1b3c 864b c4bb
00000320: af5e 9a3c 7fcf 193d d6f5 3abc 646e 5538
00000330: ad81 50bc 021e d8bb 3bed acbb 9aa2 2abc
00000340: 41d6 95bc 022d 8d3c 791d 0ebd 17b7 96bc
00000350: c91d 04bd c685 843b 008f e7bc f422 06bd
00000360: d2f7 053d 672f 2e3b f18e 70bc bd03 2b3d
00000370: ac0a 34bd 309b c83c 6825 263b cb6b acba
00000380: cb7c 8dbc ac0c 903c d190 1bbd 3829 823c
00000390: 46a4 d0bb 9ba9 67bb 7101 63bc 23db 7bbc
000003a0: 7c2b dfb9 dd00 26bd 7471 2abc 12f9 0c3d
000003b0: 0ca2 a0bc 8689 853c 0662 71bc 4bbb 833c
000003c0: 83e2 283d 762d 1ebd a94c ca3c 3c0f 213c
000003d0: 4e04 ccbc 8e01 1fbb ae2f 5cbd 5d2f 6c3c
000003e0: a5ac 60bb bc30 42bd 29ab 033b c76e f7bc
000003f0: 9174 eebb d23e 2d3d 7a54 56bc 93d3 5bbc

bias f4 [64]
-0.06039126 0.044580083 -0.034724396 -0.002225461 -0.1213996 -0.023525596 -0.045733463 -0.045984812
0.016461536 0.018787224 -0.05708554 -0.017557103 -0.069195285 -0.0327903 0.04466594 -0.023175074
-0.025040088 -0.021980656 -0.023841873 -0.029168788 -0.0071263313 0.019915909 -0.011164252 0.004416034
-0.00418925 -0.08364943 -0.021819163 -0.028056739 -0.055332966 -0.011094431 0.011008657 -0.029426193
-0.03873438 0.013497554 -0.058895897 -0.021773236 -0.025189362 -0.004105655 0.012588795 -0.025179813
-0.046772204 -0.12136839 -0.09301681 -0.045247074 0.002325142 -0.07673576 0.0017281243 -0.04543514
-0.018789783 -0.06176555 -0.06468426 -0.10193859 -0.06644778 0.006107297 -0.048531346 -0.023679506
0.009621224 -0.055532694 -0.036217492 -0.043709848 -0.019318517 -0.05044626 -0.026413 -0.021760155
00000000: d35c 77bd 9b99 363d 2b3b 0ebd 0ad9 11bb
00000010: 5aa0 f8bd c0b8 c0bc 0353 3bbd 925a 3cbd
00000020: 58da 863c aae7 993c 87d2 69bd ead3 8fbc
00000030: 42b6 8dbd 1f4f 06bd a2f3 363d a7d9 bdbc
00000040: df20 cdbc c710 b4bc 0850 c3bc 62f3 eebc
00000050: 0084 e9bb b026 a33c 44ea 36bc 61b4 903b
00000060: fa45 89bb 6450 abbd 1abe b2bc 3fd7 e5bc
00000070: d2a4 62bd 6bc5 35bc a75d 343c 330f f1bc
00000080: f1a7 1ebd d824 5d3c d33c 71bd c95d b2bc
00000090: ec59 cebc bb88 86bb 3c41 4e3c e545 cebc
000000a0: 3694 3fbd fe8f f8bd 997f bebd ff54 39bd
000000b0: 6961 183b a327 9dbd 3b82 e23a 331a 3abd
000000c0: 08ed 99bc e0fd 7cbd 2e79 84bd 2ec5 d0bd
000000d0: c615 88bd b81f c83b cec8 46bd 86fb c1bc
000000e0: 57a2 1d3c 4076 63bd cb58 14bd 1909 33bd
000000f0: de41 9ebc bda0 4ebd 1360 d8bc 5a42 b2bc

weight f4 [64, 1024]
-0.0067179985 0.04245555 0.019079208 0.015357152 0.048171416 0.04350417 0.014742761 -0.012954263
0.0061106626 -0.005184409 0.039113138 0.0009567374 -0.016256338 -0.0048481077 -0.0008645035 -0.0048986203
-0.025285063 -0.0061121243 -0.0022468844 -0.005051773 -0.037157267 -0.009657677 0.03413524 0.009975475
-0.013895584 -0.043780115 -0.02433021 -0.042283073 0.031537365 -0.0179255 8.609086e-05 0.002361464
0.010481419 0.025937455 -0.015474273 -0.009231315 0.01416384 -0.022128196 0.0017665796 -0.005048042
0.015723089 -0.014631817 0.04389507 0.0010308219 0.0134970555 0.002895013 -0.011847829 0.02643647
-0.015299665 -0.019890273 0.029426312 -0.014486756 0.026879922 0.0020811781 -0.0011681608 -0.0079871025
0.05707089 -0.0052283057 0.0057122237 0.029580403 0.04381884 0.027282916 0.037723985 0.0424348
-0.009680769 0.05263668 -0.008869179 0.024249434 0.0321313 0.028428715 0.0063904007 0.049472168
-0.021621367 0.0014394099 0.042147953 0.0048733866 0.011128843 -0.028135905 0.0056952564 -0.034085404
-0.005114356 0.026516411 0.012835771 0.029871173 -0.021139977 0.028183121 0.010076006 0.014541353
0.008236158 0.011884826 0.011186775 -0.025645336 -0.01729078 -0.004483238 0.01348235 0.026786689
-0.001925447 0.029945685 0.014600325 0.006871458 -0.020232534 0.0048081423 -0.037610672 -0.05278484
0.014944546 0.03352263 -0.010315428 0.042444244 -0.0018239671 0.04442574 0.0033195936 0.009001219
0.0095151365 0.0037385237 0.010712701 -0.00091885804 -0.016350426 -0.018154573 -0.011890152 0.017927399
0.0067270296 -0.028952677 0.0018270633 -0.0063487506 -0.02107816 0.03261188 -0.0075887353 0.014958841
0.016038442 -0.03292511 -0.034854066 -0.028365992 0.044088934 0.003383145 -0.007797992 -0.047113903
-0.00028514967 0.012889759 -0.021278093 0.028034588 -0.0031750475 -0.038438924 -0.018240083 0.042509053
0.024899507 -0.012932995 0.024768373 -0.020730982 0.0023819369 0.0029642351 0.014667898 0.0109157
0.01947889 -0.0021581093 0.0024026916 -0.015012778 0.0032283906 0.008850234 -0.020118138 -0.00070701214
-0.01356891 -0.044489507 -0.0043635787 -0.01659525 -0.024310792 -0.0024846632 0.027871106 -0.0021826297
0.02003469 0.018904785 0.03668242 0.0035393327 0.012848428 0.007704994 0.05323716 -0.018293107
0.023394259 -0.015296075 -0.020659111 0.014021994 -0.012607492 0.067252226 -0.021730822 0.028579807
0.0047998405 0.023404187 -0.008170668 0.024952695 0.012240111 0.01694964 0.04403058 0.022076644
0.015716376 0.049007293 0.020558877 0.008917326 0.010969021 0.0026207827 0.034392256 -0.03342763
0.018630262 0.029024845 -0.015619876 -0.021502959 0.026091235 -0.020324416 0.02267857 -0.032731887
-0.035064574 0.0070900237 0.004480032 0.048294466 -0.023507789 0.0496848 0.013862235 0.015251642
0.0042987745 -0.029608771 -0.026951918 0.01295006 0.0139556015 -0.02056154 -0.012169396 0.009029738
-0.035031572 -0.008365306 -0.0319601 -0.0028573244 0.011863591 0.0025878868 -0.010524369 -0.018394498
0.027549453 0.015372553 -0.020473115 -0.011151301 0.011541682 0.023095557 0.012718372 0.020879965
-0.002664766 0.021196714 0.0028234147 -0.0012323059 -0.00015389113 0.002517039 -0.026354574 -0.0040010074
-0.01361127 -0.022054946 0.01824589 0.012390834 0.030683171 0.058806688 0.067986086 0.0023439478
00000000: a822 dcbb dfe5 2d3d 004c 9c3c 909c 7b3c
00000010: 644f 453d 6e31 323d 9f8b 713c 1e3e 54bc
00000020: f43b c83b fae1 a9bb 1935 203d 8fcd 7a3a
00000030: 032c 85bc e0dc 9ebb d99f 62ba 9b84 a0bb
00000040: 9f22 cfbc 3748 c8bb 7740 13bb 5889 a5bb
00000050: 3832 18bd 3c3b 1ebc 65d1 0b3d 2d70 233c
00000060: 4eaa 63bc c752 33bd 2650 c7bc 0431 2dbd
00000070: 532d 013d 80d8 92bc ae8b b438 cbc2 1a3b
00000080: 42ba 2b3c c97a d43c ce87 7dbc f13e 17bc
00000090: 730f 683c 3146 b5bc 938c e73a 0c6a a5bb
000000a0: b5cd 803c 4aba 6fbc 51cb 333d a51c 873a
000000b0: c122 5d3c 42ba 3d3b 661d 42bc 4c91 d83c
000000c0: 72ab 7abc edf0 a2bc 730f f13c dc59 6dbc
000000d0: 4833 dc3c 6064 083b f91c 99ba 56dc 02bc
000000e0: 2ac3 693d 3552 abbb 9b2d bb3b 9a52 f23c
000000f0: 627b 333d 6c80 df3c 7784 1a3d 1dd0 2d3d
00000100: 179c 1ebc 8f99 573d 0850 11bc c0a6 c63c
00000110: 1c9c 033d 56e3 e83c 9166 d13b 54a3 4a3d
00000120: 4b1f b1bc 95aa bc3a 55a3 2c3d eeb0 9f3b
00000130: c055 363c 457d e6bc 469f ba3b 239d 0bbd
00000140: 5496 a7bb f238 d93c 204d 523c 64b4 f43c
00000150: bf2d adbc 4ae0 e63c d515 253c db3e 6e3c
00000160: f3f0 063c 93b8 423c bc48 373c 2b16 d2bc
00000170: 65a5 8dbc 20e8 92bb 13e5 5c3c c26f db3c
00000180: 485f fcba a750 f53c 3436 6f3c f829 e13b
00000190: b3be a5bc 9f8d 9d3b a60d 1abd eb34 58bd
000001a0: f8d9 743c 064f 093d 0a02 29bc 04da 2d3d
000001b0: 2e12 efba c4f7 353d 8a8d 593b d979 133c
000001c0: 60e5 1b3c 0502 753b 5384 2f3c 85df 70ba
000001d0: 54f1 85bc e6b8 94bc e9ce 42bc 7bdc 923c
000001e0: 6a6e dc3b 2a2e edbc 127a ef3a 2e09 d0bb
000001f0: 1bac acbc 0994 053d edaa f8bb ed15 753c
00000200: 0d63 833c 7bdc 06bd 23c3 0ebd cc5f e8bc
00000210: 9996 343d c1b7 5d3b 4c86 ffbb 82fa 40bd
00000220: 2480 95b9 912f 533c 654f aebc cba8 e53c
00000230: 7514 50bb 2272 1dbd 3a6c 95bc f91d 2e3d
00000240: 0dfa cb3c eae4 53bc 0be7 ca3c 05d4 a9bc
00000250: 451a 1c3b 9d43 423b a051 703c c4d7 323c
00000260: 3192 9f3c 116f 0dbb 7a76 1d3b 28f8 75bc
00000270: 6893 533b 9200 113c cbce a4bc c856 39ba
00000280: 2250 5ebc a13a 36bd 5afc 8ebb c3f2 87bc
00000290: 6d27 c7bc bbd5 22bb f251 e43c 730a 0fbb
000002a0: ca1f a43c 35de 9a3c 4e40 163d 26f4 673b
000002b0: 3782 523c 2d7a fc3b 350f 5a3d 6ddb 95bc
000002c0: 51a5 bf3c 639c 7abc 4c3d a9bc 81bc 653c
000002d0: a78f 4ebc 89bb 893d d604 b2bc 3320 ea3c
000002e0: fb47 9d3b 23ba bf3c 44de 05bc 9869 cc3c
000002f0: bf8a 483c f9d9 8a3c 6959 343d 14da b43c
00000300: a1bf 803c dfbb 483d 176b a83c fa19 123c
00000310: 69b7 333c 70c1 2b3b e5de 0c3d 69eb 08bd
00000320: 7e9e 983c 83c5 ed3c 82ea 7fbc f926 b0bc
00000330: 49bd d53c 647f a6bc 69c8 b93c df11 06bd
00000340: df9f 0fbd 6e53 e83b 3bcd 923b 6bd0 453d
00000350: 6893 c0bc 4a82 4b3d 6d1e 633c 06e2 793c
00000360: bcdc 8c3b 188e f2bc 45ca dcbc 7d2c 543c
00000370: 09a6 643c ad70 a8bc 2562 47bc 77f1 133c
00000380: 447d 0fbd a30e 09bc 98e8 02bd f341 3bbb
00000390: 825f 423c 8999 293b 676e 2cbc 0fb0 96bc
000003a0: 64af e13c 29dd 7b3c 3cb7 a7bc f2b3 36bc
000003b0: 5319 3d3c e532 bd3c b860 503c 760c ab3c
000003c0: 5ba3 2ebb bba4 ad3c 0a09 393b 5385 a1ba
000003d0: d65d 21b9 e8f4 243b 8ce5 d7bc e21a 83bb
000003e0: ce01 5fbc 93ac b4bc 6878 953c ed02 4b3c
000003f0: 465b fb3c 48df 703d 4a3c 8b3d eb9c 193b

bias f4 [64]
-0.013908614 -0.00084259565 -0.038920544 -0.010056399 0.015450777 0.016677245 0.0048889727 -0.030950563
0.016318277 -0.047505997 0.004011087 0.00073649525 0.0016929308 0.036711413 -0.013416215 -0.010431955
0.023063475 0.020297026 -0.06349949 -0.0029556304 -0.0014646733 -0.008549778 -0.012333211 0.045607846
0.024864959 0.046416745 0.021141049 0.024009243 0.045177013 0.03168221 -0.018415058 0.001015191
-0.03982197 0.028208552 -0.0027924196 -0.018622087 -0.016380245 0.021855725 -0.048237182 0.00062042096
-0.0470771 -0.011519928 -0.007062739 0.024044733 0.0007888795 0.0015471065 0.042052705 -0.029351586
0.06606386 0.018147813 -0.01122385 -0.02567853 -0.035308275 0.004139494 0.008316608 0.014486297
0.05619708 -0.02285313 -0.0108616315 0.016288742 -0.056398656 -0.00275477 0.008395957 -0.050507847
00000000: f5e0 63bc a3e1 5cba 266b 1fbd 98c3 24bc
00000010: 4125 7d3c b89e 883c ad33 a03b 098c fdbc
00000020: e8ad 853c a695 42bd 706f 833b 5c11 413a
00000030: 55e5 dd3a b55e 163d afcf 5bbc caea 2abc
00000040: 9def bc3c f345 a63c 050c 82bd 40b3 41bb
00000050: 48fa bfba 5e14 0cbc 3c11 4abc 4bcf 3a3d
00000060: 99b1 cb3c 7c1f 3e3d fe2f ad3c 08af c43c
00000070: 880b 393d 34c5 013d 2ddb 96bc 2810 853a
00000080: 5d1c 23bd 9f15 e73c 0701 37bb 598d 98bc
00000090: dd2f 86bc c70a b33c 5a94 45bd bfa3 223a
000000a0: ebd3 40bd 15be 3cbc 8d6e e7bb 76f9 c43c
000000b0: cfcc 4e3a 48c8 ca3a 753f 2c3d bd72 f0bc
000000c0: 7d4c 873d b9aa 943c 3de4 37bc c85b d2bc
000000d0: 699f 10bd 98a4 873b 6242 083c ef57 6d3c
000000e0: e92e 663d 7d36 bbbc fcf4 31bc f86f 853c
000000f0: 4702 67bd 5f89 34bb 328f 093c 51e1 4ebd

weight f4 [10, 64]
0.05482021 0.06698153 0.11364215 -0.18675415 -0.13482977 0.1691412 -0.2345909 0.24659233
-0.09352358 0.015726037 -0.1254147 0.046530306 0.013323347 -0.08592489 -0.025617504 -0.024399767
0.02955842 -0.20934075 0.02114533 0.03901578 -0.038865287 -0.08580001 -0.013639982 0.039206564
0.010428369 -0.13437402 -0.12500206 0.15233086 -0.22754696 -0.14250533 -0.04312691 0.024721751
-0.09277319 0.11454673 8.27538e-05 0.26909935 0.16608879 0.11068934 0.059187476 -0.2779917
0.15087032 -0.080322966 -0.14483237 -0.11169248 0.07887942 0.056558624 -0.13683036 -0.13574183
-0.2164967 -0.021709343 0.1367344 0.15187854 -0.15112372 -0.07966122 -0.03252846 0.00062129874
-0.050109077 -0.014543357 -0.06682578 -0.088846944 0.11673475 -0.23234162 0.09727416 0.20439522
0.21252017 -0.17748894 -0.18282872 0.20187451 -0.026091097 -0.117296465 -0.08665309 0.09097634
0.16251473 -0.10982455 -0.09454759 -0.12776344 0.023324339 -0.18901983 -0.121785946 -0.056005787
0.012786395 -0.20826815 0.039571226 0.15321696 -0.14455023 0.27122194 0.10092883 0.17826758
0.22854914 0.034021422 0.15110753 -0.11347227 -0.16590317 0.11469212 -0.02743877 0.056007586
-0.09234333 -0.2228765 -0.10472207 -0.2694747 0.082204334 0.21685378 -0.1640058 -0.20359516
-0.1339937 0.17363021 0.20489924 0.16493863 -0.20744905 0.008281038 -0.041095737 0.02462779
-0.17165251 -0.06363042 0.016422318 -0.18972102 -0.119724214 0.26211694 0.15826987 0.2089222
-0.27063507 -0.12256454 0.25486273 -0.05402527 -0.06555441 -0.0134689165 0.19280806 -0.18326597
-0.17168145 0.021997575 -0.022283738 -0.10644008 -0.19859143 0.25911686 0.058297195 0.13990638
-0.069889314 0.02547248 0.03138157 -0.013518342 -0.14544918 0.058025584 0.046961498 0.1971852
-0.10273965 -0.07678802 0.20192996 -0.1905734 0.061446194 -0.0070518297 -0.016480014 -0.06936468
0.061242852 -0.15012932 -0.21507299 -0.216268 0.029397642 0.072835535 -0.028841937 0.051052414
-0.13160661 -0.058090504 0.017491672 0.25360227 -0.15237077 0.02991034 0.027166316 0.1981668
0.20317918 -0.19151264 0.18304466 0.11950608 0.22417648 -0.043768007 -0.036483817 -0.12786087
0.002654467 -0.093070306 -0.040019475 -0.0747133 -0.10030451 -0.13198833 0.1361217 -0.2074433
0.22164692 -0.011600855 -0.119220726 -0.036281347 -0.08927661 0.17935751 0.084548764 -0.10647362
0.13994244 0.031952802 0.12259845 0.05973168 0.12496858 0.056924485 0.20833853 0.006542993
0.043291364 0.06649196 0.10064283 -0.1333169 0.082697116 0.09972728 0.07213708 -0.072038054
-0.118450254 0.034305952 0.049817 0.16486971 -0.11340909 -0.21189268 0.0074052103 -0.16888164
0.12230614 -0.01624133 -0.1244741 0.14832948 0.008590972 -0.017272217 -0.09986082 0.104641244
-0.11536265 0.095295936 -0.07544478 -0.13242441 -0.08213991 -0.06579654 -0.0055979197 -0.0044111474
0.023560513 -0.019461779 -0.12054402 0.1009528 0.012929342 -0.006915896 -0.068871014 -0.14147234
0.049706936 0.08542478 -0.18116584 -0.107453205 0.09700345 -0.045023587 0.05167563 -0.17987898
0.13958761 -0.1497051 -0.196183 -0.12476214 -0.05463421 0.11794521 -0.055049814 0.025986241
00000000: 288b 603d 9d2d 893d 37bd e83d 7b3c 3fbe
00000010: d110 0abe 5a33 2d3e 9938 70be b382 7c3e
00000020: 4a89 bfbd e4d3 803c b66c 00be 9096 3e3d
00000030: 2b4a 5a3c 64f9 afbd cddb d1bc 05e2 c7bc
00000040: 8024 f23c 6c5d 56be f938 ad3c 03cf 1f3d
00000050: 3531 1fbd eab7 afbd 3b7a 5fbc 1097 203d
00000060: c0db 2a3c 5899 09be 8a00 00be 9ffc 1b3e
00000070: 1202 69be ebec 11be d8a5 30bd 4585 ca3c
00000080: dfff bdbd 7a97 ea3d 1c8c ad38 64c7 893e
00000090: 2e13 2a3e 18b1 e23d 916e 723d ee54 8ebe
000000a0: c07d 1a3e 5e80 a4bd f04e 14be 07bf e4bd
000000b0: 898b a13d 04aa 673d 421d 0cbe e8ff 0abe
000000c0: 50b1 5dbe cbd7 b1bc 1a04 0c3e 0c86 1b3e
000000d0: 2dc0 1abe 6c25 a3bd 903c 05bd a7de 223a
000000e0: 2d3f 4dbd 4347 6ebc f4db 88bd 63f5 b5bd
000000f0: a112 ef3d f6ea 6dbe ad37 c73d fb4c 513e
00000100: e39e 593e a9bf 35be 7437 3bbe 31b8 4e3e
00000110: ffbc d5bc 2139 f0bd 2d77 b1bd ce51 ba3d
00000120: 436a 263e b2eb e0bd 2ba2 c1bd 6bd4 02be
00000130: af12 bf3c 6a8e 41be e96a f9bd 5366 65bd
00000140: 077e 513c 3f44 55be 7015 223d e8e4 1c3e
00000150: fa04 14be 9add 8a3e c6b3 ce3d c78b 363e
00000160: c908 6a3e 0c5a 0b3d efbb 1a3e 2664 e8bd
00000170: 85e2 29be b4e3 ea3d 45c7 e0bc 3668 653d
00000180: 801e bdbd bd39 64be 8678 d6bd 96f8 89be
00000190: bf5a a83d eb0e 5e3e 23f1 27be 407b 50be
000001a0: a535 09be 1ecc 313e 1bd1 513e ace5 283e
000001b0: 866d 54be 31ad 073c 0154 28bd 38c0 c93c
000001c0: adc5 2fbe aa50 82bd 1988 863c 3a46 42be
000001d0: f831 f5bd 3134 863e 7f11 223e b4ef 553e
000001e0: ae90 8abe 1e03 fbbd 5e7d 823e 9a49 5dbd
000001f0: 6441 86bd bbac 5cbc 7a6f 453e 13aa 3bbe
00000200: 43cd 2fbe 4234 b43c 638c b6bc 42fd d9bd
00000210: 8d5b 4bbe f7aa 843e 0ac9 6e3d 9e43 0f3e
00000220: 2122 8fbd aaab d03c f689 003d 097c 5dbc
00000230: a1f0 14be 3cac 6d3d b35a 403d ebea 493e
00000240: 2a69 d2bd 0a43 9dbd bac6 4e3e ac25 43be
00000250: 01af 7b3d 0913 e7bb 1801 87bc 120f 8ebd
00000260: c9d9 7a3d 80bb 19be 183c 5cbe 5c75 5dbe
00000270: 53d3 f03c cc2a 953d ed45 ecbc 561c 513d
00000280: e2c3 06be 4ff0 6dbd b24a 8f3c 28d8 813e
00000290: 1507 1cbe 8806 f53c e58b de3c 3dec 4a3e
000002a0: 340e 503e e41b 44be 0f70 3b3e 9bbf f43d
000002b0: 858e 653e 1546 33bd 0e70 15bd f6ed 02be
000002c0: 91f6 2d3b a59b bebd 76eb 23bd 4903 99bd
000002d0: 736c cdbd f327 07be 7d63 0b3e 046c 54be
000002e0: 69f7 623e 8311 3ebc ff29 f4bd c09b 14bd
000002f0: a8d6 b6bd 7fa9 373e e727 ad3d d70e dabd
00000300: 124d 0f3e f1e0 023d e514 fb3d 35a9 743d
00000310: 87ef ff3d a629 693d b256 553e 9a66 d63b
00000320: 4952 313d f02c 883d d41d ce3d 3a84 08be
00000330: 1b5d a93d d13d cc3d 9bbc 933d b088 93bd
00000340: 0c96 f2bd 6684 0c3d e90c 4c3d 9bd3 283e
00000350: 0643 e8bd 65fa 58be 68a7 f23b 4fef 2cbe
00000360: a47b fa3d 8a0c 85bc 47ec febd afe3 173e
00000370: 26c1 0c3c 777e 8dbc d483 ccbd 264e d63d
00000380: 4143 ecbd 842a c33d cb82 9abd 449a 07be
00000390: f838 a8bd 56c0 86bd c16e b7bb 638b 90bb
000003a0: fa01 c13c 4f6e 9fbc c8df f6bd 57c0 ce3d
000003b0: 97d5 533c be9e e2bb 3f0c 8dbd 20de 10be
000003c0: 8099 4b3d 30f3 ae3d 8a83 39be 6d10 dcbd
000003d0: bfa9 c63d a76a 38bd d3a9 533d 3232 38be
000003e0: 0ef0 0e3e 4b4c 19be 32e4 48be 4b83 ffbd
000003f0: 1fc8 5fbd 428d f13d ea7b 61bd 19e1 d43c

bias f4 [10]
-0.2286817 -0.05103487 0.11250561 0.10150293 0.1479708 -0.14446147 0.1306835 0.07364168
-0.08667487 0.02184763
00000000: 892b 6abe f109 51bd 5769 e63d c5e0 cf3d
00000010: a885 173e b5ed 13be e5d1 053e 73d1 963d
00000020: 9882 b1bd cdf9 b23c
