Pytorch/model_data/CIFAR10_EPOCH26.pth (torch, 588839 bytes, 10 tensors)

weight f4 [32, 3, 5, 5]
000000 7c 05 65 bc d3 44 3a bd b5 ae 20 bd 84 6b f4 bd
       -0.013978358 -0.045475792 -0.039229114 -0.119345695
000010 51 4c 2d bd 10 bd 21 be 45 04 17 be ed 0a e8 3d
       -0.04230911 -0.15794778 -0.14747722 0.11330209
000020 64 25 2d bd 7c 8c 03 be ee 9f 0a be 0e 7e ae bd
       -0.042271987 -0.1284656 -0.13537571 -0.08520137
000030 ba d0 1e 3e 58 51 e9 3d 27 57 58 be 60 28 a5 3d
       0.1550931 0.11392468 -0.21126996 0.080643415
000040 82 85 05 be 14 6a d6 3d ba 18 20 3e 7a a4 37 be
       -0.1303921 0.104694515 0.15634432 -0.17933837
000050 5b 29 5f 3d eb 88 54 bd 2b 34 23 3e 7c e3 06 3e
       0.0544828 -0.051888388 0.15937869 0.13172716
000060 af 79 1c be 6c 2d de bd a1 24 28 3d df 8a fa 3d
       -0.15280794 -0.10848507 0.041050557 0.12233519
000070 e4 fc 5b bd b9 35 42 be 3e 7c 6e bd aa 62 9a 3d
       -0.053707972 -0.18965806 -0.058223955 0.0753835
000080 ce 6c 88 bd b5 e8 97 3d d9 e9 5d be 18 70 c4 bc
       -0.06661378 0.07417432 -0.21671237 -0.023979232
000090 e7 64 4e bd b8 69 c3 3d d0 22 08 3e c9 62 d8 3b
       -0.050389197 0.095416486 0.1329453 0.006603573
0000a0 94 6c 68 3d 18 be e9 bd 2d f9 5e 3d ad 6d 33 3e
       0.056744173 -0.11413211 0.05443685 0.17522307
0000b0 19 37 c6 bc 45 3e 2a 3d 1b b1 bd 3d ff 22 59 3e
       -0.024196194 0.04156329 0.09262296 0.21204756
0000c0 f0 7a 3f 3e 9a 80 34 3c d2 ce 7c bd 3b ac 94 bd
       0.1869924 0.011016989 -0.061720677 -0.07259413
0000d0 de 1a ed bd 0b d3 81 bd 17 a0 57 be 6e cb be bb
       -0.1157739 -0.063390814 -0.21057163 -0.0058225906
0000e0 82 e1 07 3d ec 1a 29 bb 32 06 7b 3d 8f 5d 53 be
       0.033174045 -0.00258034 0.061285205 -0.20641159
0000f0 fc 00 ac 3d cd f1 57 3d 17 fe 18 3d 0a d7 ec 3d
       0.08398625 0.052720834 0.037351694 0.11564453
000100 b0 de 2b be 6b c4 c6 3c 52 6c 24 3d d1 34 46 3e
       -0.16784167 0.024263581 0.040142365 0.19356085
000110 c5 bb 68 3b 89 81 32 be 2a 25 94 3d 05 e2 9a 3c
       0.003551231 -0.17432226 0.07233651 0.018906603
000120 59 cb 3d 3e c4 fe 34 3e 30 ce 85 3d ce b6 31 3d
       0.18534602 0.1767531 0.06533468 0.043387227
000130 d9 35 f5 3d ba a2 41 3e 42 c7 81 3d ff 7e 8b bd
       0.11973161 0.18909732 0.063368335 -0.06811332
000140 3e 63 38 3c 5c e2 d2 3d 64 58 13 bc d4 c0 61 be
       0.01125413 0.10297081 -0.008993242 -0.22046214
000150 7a d6 0a be 39 29 1a 3e 49 e5 37 be 86 81 00 bd
       -0.13558379 0.15054788 -0.17958559 -0.031373523
000160 0c 68 1f be 77 94 11 3e 80 ed 0c 3c c3 c6 4c bd
       -0.15567034 0.14216791 0.008601546 -0.04999424
000170 ea fd 43 3c c6 a7 24 3e ac 6e 07 bd ea 79 f5 3b
       0.011962393 0.16079625 -0.03306453 0.00749134
000180 52 a6 cb 3c da 9b 30 3d 36 0b b5 3d cd 72 c8 bc
       0.024859581 0.04311738 0.08840029 -0.024468804
000190 97 2c 50 3d 9e e7 0c 3e f7 7b 00 3e c4 85 2d 3d
       0.050823774 0.1376023 0.12547289 0.042363897
0001a0 ff 7f 5a be 45 27 16 3e 57 1a 5a 3d ab 5c be bb
       -0.21337889 0.14663418 0.053247776 -0.0058093867
0001b0 c1 52 83 be bb 0f 44 be fe c9 4b bd 64 0e 3c be
       -0.25649074 -0.19146626 -0.04975318 -0.18364865
0001c0 4c c5 d5 bd 1c 87 a8 3c 38 c1 93 bd fb e5 39 bd
       -0.10438022 0.020572238 -0.07214588 -0.045385342
0001d0 f1 c3 61 bd 69 d4 2c 3c 1a ab e6 3c b2 60 af 3c
       -0.055118505 0.010548689 0.02815776 0.021408413
0001e0 fd 74 5e bd 26 f1 6c 3d 21 5b f6 3d 6f c3 67 ba
       -0.054310787 0.057847165 0.120291 -0.00088410726
0001f0 d4 3b a3 bd 56 9d 98 bc 22 76 c0 3d e4 6c 42 3e
       -0.07970396 -0.018629711 0.09397532 0.18986851
000200 6f 06 94 bd 25 2c 20 3c 83 24 89 3d 5b de 9a 3c
       -0.072277896 0.00977615 0.06696417 0.018904855
000210 f6 10 cf bd 44 b5 38 be 48 a3 b0 3d 87 b7 4d 3d
       -0.10110657 -0.18037897 0.086248934 0.050223853
000220 21 47 e6 bc a6 bd 91 bd bd be 00 3d 71 4c 11 3e
       -0.028110089 -0.07116251 0.031431902 0.14189316
000230 2f cc 8c bd f8 d3 da bd 15 08 f9 3d d6 41 d3 3d
       -0.068748824 -0.10684961 0.12159745 0.103152916
000240 c2 08 94 3d 57 85 c1 bd 17 17 86 bd e7 77 1a 3e
       0.07228233 -0.09449261 -0.06547373 0.15084802
000250 c6 1d a6 bd 27 5e dc bb 9e 63 2e 3e 52 30 80 3d
       -0.081111476 -0.006725091 0.17030188 0.06259216
000260 5d 02 bf bd 23 5a 83 bc 4d b7 e2 bd aa 45 2a 3b
       -0.09326623 -0.016034191 -0.11070118 0.0025981464
000270 fa 2e 6a 3c 17 52 61 be 35 f4 5a be 4e 8f 16 be
       0.014293427 -0.22003971 -0.2138222 -0.14703104
000280 ec 78 1d be 9e 24 9d 3c b4 ab ef bc ec 1d da bd
       -0.1537816 0.0191825 -0.02925668 -0.106502384
000290 9c 99 93 bd ea 1a 58 be 16 56 e2 bd 4f 57 15 be
       -0.07207033 -0.21104017 -0.11051576 -0.14584087
0002a0 fd db 00 be 20 1a 2f be a7 e9 0b 3d 5d bf 5b be
       -0.12583919 -0.1709981 0.034158375 -0.21459718
0002b0 7d 6b 88 be 9a 2e 55 be e3 61 21 be 74 51 a2 3a
       -0.26644507 -0.20818558 -0.15759997 0.0012383894
0002c0 51 96 dc bd 0b a8 a3 3d 72 c8 8a 3d 69 bf 84 3d
       -0.10770858 0.07991036 0.06776513 0.06481821
0002d0 f5 eb 3f 3d 45 f4 71 bd 1a ee e3 3b 17 51 cf 3c
       0.046855886 -0.059070844 0.006955874 0.025307221
0002e0 25 41 c5 bd 53 0b e8 bb 3a 51 06 bd 72 c9 d7 3d
       -0.09631566 -0.007081428 -0.032792307 0.105364695
0002f0 88 d5 17 3e d2 1c 7a bc 0f 26 cf bd f9 f8 41 3e
       0.1482755 -0.01526566 -0.10114681 0.18942632
000300 9c 9f 33 3e d1 8a d7 3d c4 f0 5a 3c b1 37 b3 3d
       0.17541355 0.10524524 0.013363067 0.08750857
000310 db 52 94 bd cd bc 2d be e0 29 a8 bd 47 8f 2a bd
       -0.07242366 -0.16966553 -0.08211112 -0.041640546
000320 4d 41 00 be 4a 9e 1a bd 06 c0 00 3e df b6 6e 3d
       -0.1252491 -0.037748612 0.12573251 0.05827987
000330 ac 0f ee 3d 8c 80 a4 bd 7c 71 58 bc 2b 14 d7 3d
       0.11624083 -0.08032331 -0.0132106505 0.105018936
000340 f2 6d 46 bd 86 2b 11 3e e9 55 82 3d 3f 2e eb 3d
       -0.048444696 0.14176759 0.06364042 0.1148343
000350 64 4d 00 3e bc 7c 89 3e 7e 4a 51 3e 34 3a 0b 3d
       0.12529522 0.26852977 0.20438573 0.033991054
000360 a0 9a 7b 3e e2 24 9d 3e 05 ab 51 3e 1c cb 26 3e
       0.24570704 0.30692202 0.20475395 0.16288418
000370 4e 21 b3 3d d0 07 1e 3d 4f d2 b5 bd 6a 38 c2 3d
       0.08746587 0.03858167 -0.08878004 0.094834164
000380 5e de f4 3d 88 df a2 3d 7c 20 59 3c 8a 41 53 bd
       0.11956476 0.079527915 0.013252374 -0.051576175
000390 f5 39 35 3d c7 81 f7 bd 5c f4 83 3d a5 3c 90 bd
       0.044244725 -0.120853 0.06443092 -0.07042817
0003a0 0a b2 34 3d 6c 7b c5 3d 69 12 f9 3a e8 7a b7 3d
       0.044115104 0.096426815 0.0019002679 0.089589894
0003b0 63 18 ea bd c6 02 af bc 41 a5 e8 bc ec 28 f5 3d
       -0.11430433 -0.021363627 -0.028399112 0.11970696
0003c0 12 36 6c 3d 9a 71 2c 3d 39 7e e6 3c 56 f1 39 3e
       0.057668753 0.042100526 0.02813636 0.18158469
0003d0 94 65 c4 3d 02 c0 d5 bc 05 e4 01 be 5c 18 f0 bd
       0.09589687 -0.026092533 -0.12684639 -0.11723396
0003e0 9e 87 3e 3e c0 6a 44 bd 11 3a 9d 3c dc 80 1e 3d
       0.18606421 -0.047953367 0.019192727 0.03869711
0003f0 24 4e c1 bd 9c 73 0b 3e 16 83 93 bd 36 12 d5 bb
       -0.09438732 0.1361832 -0.07202737 -0.006502415

bias f4 [32]
000000 b1 f4 40 be fd f6 0b bd 8a e2 03 3d a9 3b 04 be
       -0.18843342 -0.034171093 0.032198466 -0.12913384
000010 2d 1e a2 bc f2 9a 25 3e 1c 81 b5 be bd 33 d0 be
       -0.01978978 0.16172388 -0.35450065 -0.40664473
000020 8e 6c e4 bd 64 f4 75 bc d5 89 ba 3d c1 00 9a bd
       -0.11153518 -0.015011881 0.091083206 -0.07519675
000030 11 fd d6 bd 63 e6 d8 bd 79 86 8a bc 41 1a b3 bd
       -0.10497487 -0.10590818 -0.016909825 -0.08745242
000040 ca 34 b4 3b 9a 87 bc be 2d 9d 0f bd d5 5c 8c bd
       0.005499457 -0.36822206 -0.035062004 -0.06853644
000050 62 1a 10 bc df 21 5c 3d 09 d2 69 3d 40 0d 1a 3e
       -0.008795353 0.05374324 0.05708507 0.15044117
000060 4a 3e a3 be 17 b3 42 bc 31 2b 38 be be 42 91 3e
       -0.3188346 -0.011883519 -0.17985226 0.28371233
000070 31 73 90 be 8d 48 23 3d 3e 22 dc bd 56 77 c9 3d
       -0.28212884 0.03986411 -0.10748719 0.09837215

weight f4 [32, 32, 5, 5]
000000 9e 29 98 bb 90 93 c8 bc da 00 1f bd df 0f 8d bc
       -0.004643633 -0.024484426 -0.03881917 -0.017219482
000010 69 e3 08 bd 57 5a 0a 3d 8e 1d c1 3a 0a 86 cc 3c
       -0.03342 0.03377756 0.001473354 0.024966259
000020 03 8c ef 3c 57 b4 87 3c 47 fb e4 3c 9a 02 dd 3b
       0.029241567 0.016565485 0.02795185 0.006744695
000030 5f 1e d2 bc 27 d3 7d 3b bd c0 2a 3d 2e c7 20 3b
       -0.025649248 0.0038730593 0.041687716 0.0024532783
000040 e0 7f af bc 84 f4 80 bd 17 3f 28 bd 3b 9c 91 bc
       -0.02142328 -0.06296638 -0.041075792 -0.017774692
000050 87 94 04 3d bd 7f c2 3c 81 b3 cc 3c e7 88 a7 3c
       0.03236821 0.023742551 0.024987938 0.020451022
000060 ee c5 c6 3b 6f 3d 11 bd 33 54 03 3c d9 15 86 bc
       0.0060660755 -0.03545898 0.00801568 -0.01636784
000070 14 e2 00 3d 5e 00 50 bc 69 92 be bc 36 7d b3 3c
       0.031465605 -0.0126954 -0.023263173 0.021910291
000080 1d 7a 91 3c cb 35 40 3c c0 25 e7 bc c1 04 32 3d
       0.017758423 0.011731575 -0.028216243 0.043461565
000090 9e 34 5d bc 30 43 55 3b 30 a8 10 3c 66 7e f0 3c
       -0.013501314 0.0032541268 0.0088291615 0.029357146
0000a0 63 b1 8c 3c b5 04 2f 3d c8 98 94 bb 52 66 b4 3c
       0.017174428 0.0427291 -0.0045348145 0.022021446
0000b0 01 fd dd 3c c2 a8 69 bb ab 44 97 3d 76 a3 69 3d
       0.02709818 -0.0035653566 0.07386144 0.057040654
0000c0 b3 9e 26 3d 9b 06 9d bc f7 02 0c 3d cf 3d 34 3d
       0.04067869 -0.019168189 0.034182515 0.044004258
0000d0 29 c1 55 3c 26 af f0 3c 9e 87 1b 3d e9 e8 ae 3b
       0.013046541 0.029380392 0.03797113 0.0053378236
0000e0 00 03 af bc 76 a6 0f bd 77 a6 d7 38 f9 3d 63 3b
       -0.021363735 -0.03507086 0.000102830054 0.003467439
0000f0 e6 c0 42 bd b7 12 3d bc 92 e0 81 3c e1 23 37 bb
       -0.047547244 -0.0115401065 0.015854154 -0.002794497
000100 ad 84 2b bd 4d b4 b8 3a a0 70 98 3a 84 0c 4f bd
       -0.041874576 0.001409182 0.0011630245 -0.050549045
000110 47 25 ef ba 30 44 36 3c 34 d5 53 bd 9b 9a 3e bb
       -0.0018245362 0.011124656 -0.051717 -0.0029083851
000120 46 77 fe bb 08 40 3a bc 1e fb 06 3d d1 0d 3b bc
       -0.0077656833 -0.011367805 0.032954328 -0.011416868
000130 dd 7d b0 3c b4 14 d7 bc 4a 69 8f 3b de a9 96 bc
       0.021544391 -0.02625499 0.004376565 -0.018391546
000140 ed f0 02 3c 11 0b 88 bc 7f 74 56 bc 73 32 e8 bb
       0.0079920115 -0.01660684 -0.013089298 -0.007086092
000150 5d bf 81 3b d6 0d 7a 3c f2 25 50 ba 76 9b b6 3c
       0.00395958 0.015262088 -0.00079402246 0.022290926
000160 a1 60 05 3c 89 68 3e 3c d8 f6 3d bb 76 3a 00 3d
       0.008140714 0.011621603 -0.0028986242 0.031305753
000170 74 1a 15 3d de 91 ce 3c a9 4c a8 3c aa 10 c2 3b
       0.03640218 0.02521604 0.020544367 0.0059223967
000180 eb 9e 7e 3c 15 bd a3 bc 43 7f 06 3c 3f cb 04 3d
       0.015540819 -0.019987622 0.0082090525 0.032420393
000190 33 1b 1a 3d 3d a7 86 bc 78 91 de bc 2b 82 21 bb
       0.037623595 -0.016437167 -0.027168974 -0.0024644237
0001a0 c8 dd 3e ba 14 0a a9 bc 4c 67 06 bd 49 e8 f3 bc
       -0.0007280973 -0.020634688 -0.032813355 -0.029773848
0001b0 cf 54 78 bd cf f2 70 bc 45 31 b6 ba 1d c7 13 bd
       -0.060627755 -0.014706328 -0.0013900182 -0.03607856
0001c0 b5 e8 0b bd b4 dd 96 3a 66 42 58 bc 1d bc c7 bc
       -0.034157474 0.0011510164 -0.013199424 -0.024381692
0001d0 d9 24 0e 3d 1f 01 1e 3d f9 e5 8a 3c e9 72 5b bb
       0.03470311 0.038575288 0.016955363 -0.003348524
0001e0 c2 a2 aa 3b b1 8c c1 3b 03 66 84 3c 5b e7 a2 bc
       0.0052073905 0.0059066643 0.016161924 -0.01988571
0001f0 66 e8 85 3b 5a 96 e8 3c 87 1b 15 b9 91 e0 1a 3c
       0.004086542 0.028392006 -0.00014220002 0.009452955
000200 f2 da 87 3d c4 9d 83 bc 3e 62 c2 3c 5b 91 c4 3c
       0.066335574 -0.01606644 0.023728486 0.023995092
000210 7e 7f 59 3d 25 a1 06 3d 53 af ea 3b 77 40 1b 3d
       0.0531001 0.032868523 0.0071620136 0.037903275
000220 92 b1 8d 3d 08 3f 80 bc 20 ee 9d bc 59 94 3f bb
       0.069186345 -0.015655056 -0.019278586 -0.002923271
000230 3a e1 b4 3d 27 a2 19 bc f1 7e 2a bd fc 96 e1 bc
       0.08832021 -0.009377039 -0.041624967 -0.027537815
000240 e3 25 21 3d 17 73 8b 3a bc bf 9b bd bc 2e 06 3d
       0.039342772 0.0010639158 -0.0760493 0.032759413
000250 88 a2 ad 3d 5b d4 00 3b 31 5a 07 3c b5 7c 50 3d
       0.08478266 0.0019657824 0.008261249 0.05090018
000260 16 b5 1d 3d 95 10 5f 3c 23 ae 46 3d 0e bb 7e 3c
       0.038502775 0.013614793 0.048505913 0.015547527
000270 a8 d4 15 3d 31 bd 10 3d 63 5b 2a bc be ca 44 3c
       0.036579758 0.035336677 -0.010397765 0.012011228
000280 28 a4 a7 ba fb a9 bd 3b 49 e0 23 3c cc 94 ff 3b
       -0.0012790011 0.0057880855 0.010002204 0.0077997204
000290 e8 7f a4 bc f3 3a cb 3c 1b 72 77 3c fb 88 70 3d
       -0.020080522 0.024808383 0.015102888 0.058724385
0002a0 1a af cc 3b b5 19 8e 39 cc 67 20 bb d1 41 1a 3d
       0.0062464597 0.00027103504 -0.002447593 0.037660424
0002b0 c4 cd 03 3d 9d 6f d2 bc e5 94 27 3d 19 7a 06 bd
       0.032178655 -0.025687987 0.04091348 -0.032831285
0002c0 89 a5 19 bd 21 f3 02 bd 7a be e0 3c 87 f9 3b bd
       -0.037511382 -0.031970147 0.027434576 -0.045892265
0002d0 cf a5 8f bc 94 51 64 39 33 02 58 bc d8 83 f0 3c
       -0.017535118 0.00021774165 -0.013184118 0.029359743
0002e0 07 a8 00 bd cb b2 da bb 66 65 bf 3a a0 24 48 3d
       -0.031410243 -0.006674146 0.0014602363 0.048863053
0002f0 be 78 3e 3d e0 cf 83 3d 6d f5 21 3d fa e6 1e 3d
       0.046501867 0.064361334 0.039540697 0.038794495
000300 54 4c 94 3d 66 1e 98 3d 7c 99 8c 3d c8 8c 88 3d
       0.07241121 0.07427673 0.06865212 0.06667477
000310 46 48 b4 3d 3c 02 3c 3d 70 c9 19 3d 65 49 70 3d
       0.088028476 0.04590057 0.03754562 0.058663744
000320 4c cb 5c 3c eb ce fd 3c 9f 57 79 3c 71 59 1d bd
       0.013476204 0.030982455 0.015218644 -0.038415376
000330 83 2e 5e bc 6b ee 76 3c 1b 9c a8 b9 5b 5f ff bc
       -0.013560894 0.015071492 -0.00032159765 -0.031173399
000340 c9 8d 76 bd dc ff c0 3b 3e 39 77 bc 3d d5 02 bd
       -0.06019381 0.005889876 -0.015089331 -0.03194164
000350 86 ec 3c bd c1 fc 5b bd 51 3b 39 bd 81 c9 d3 bc
       -0.046124004 -0.05370784 -0.045222584 -0.02585292
000360 97 cf 17 3d 28 9b 9f 3c b2 91 9d 3d d0 ed 0b bc
       0.037063207 0.019483164 0.07693805 -0.008540586
000370 7e c1 51 bd 97 e5 13 3d 7e e4 9d 3c 18 4f 16 3b
       -0.05120992 0.036107626 0.019273993 0.0022935327
000380 ff 34 1b ba 9e ac d5 3b 2d 7f 9c bc a0 d9 41 bd
       -0.0005920678 0.0065208217 -0.01910361 -0.047326684
000390 a0 c5 43 bd 4c c3 30 ba 58 96 da 3c f1 ac 1a 3b
       -0.04779589 -0.00067429687 0.026683018 0.0023601616
0003a0 e0 d2 8a 3c 0f 8c e0 bc 63 d4 9a bc 5e 37 8d 3b
       0.016946256 -0.027410535 -0.018900102 0.004309579
0003b0 b4 82 fe 3c fa 1b 21 3c fd 38 6a 3c ea 70 49 3d
       0.031068183 0.00983333 0.014295814 0.04917995
0003c0 6a 5d 5c bc 60 53 c0 3c c7 29 c8 3c 96 fc 95 3d
       -0.013450006 0.023477256 0.024433983 0.073235676
0003d0 30 04 4b 3d 1c 05 06 3d 49 83 c2 3c 77 79 d9 3c
       0.04956454 0.032719716 0.023744242 0.026547177
0003e0 6f c3 63 3d 01 cd 39 3d fa 4f 76 3c de 0b cd bc
       0.055606302 0.045361523 0.015033716 -0.025030073
0003f0 2e a1 bf bc 9e 9a 90 bc e8 a4 36 bd 4d 02 81 3d
       -0.023392286 -0.017651852 -0.04459086 0.06299267

bias f4 [32]
000000 eb 41 f6 bc 99 83 cc 3c 80 47 24 be 9e 9e 97 bd
       -0.030060729 0.024965094 -0.160429 -0.07403301
000010 eb 89 a7 3c 12 94 c4 ba bf c1 f4 3c e0 d8 2d 3c
       0.020451507 -0.0014997742 0.029877542 0.010610789
000020 cd 56 42 be 5d 92 d9 bd 64 23 8e be ca f1 c4 bd
       -0.18978424 -0.1062362 -0.27761376 -0.0961643
000030 cf ac fd 3d 44 65 82 bd dd a1 3a be 99 4e 96 bd
       0.12386476 -0.06366971 -0.18225808 -0.0733921
000040 81 34 78 bd 0d f1 8a 39 6b 63 1d be 39 1d 41 be
       -0.060596947 0.00026501008 -0.15369956 -0.18858804
000050 e2 f6 0d be 13 95 78 3c 63 ab a0 bd 85 be 78 3d
       -0.1386371 0.015172261 -0.078451894 0.06072857
000060 6a 54 48 bd 0d 65 7c bd 07 2f 90 bd 10 6c 0e be
       -0.04890863 -0.061619807 -0.0704022 -0.1390841
000070 8d 86 36 be 31 da 36 bd 63 80 0f be f9 06 23 be
       -0.17824765 -0.044641677 -0.1401382 -0.15920629

weight f4 [64, 32, 5, 5]
000000 cf 18 46 bd 2a ca 38 3c 83 14 c2 3c cf 56 31 3c
       -0.048363503 0.011278668 0.023691421 0.010823919
000010 cc 6c 02 3d 9f 9a 27 bb 5e 91 93 3c 39 ad de bc
       0.031842038 -0.002557434 0.018013652 -0.027182208
000020 d9 d9 1e bd f3 c5 66 bc 46 f8 f7 bc f4 7e c1 ba
       -0.038781974 -0.014085281 -0.030269753 -0.0014762566
000030 08 52 db 3c e5 7b 4e bc f4 7b f8 3b bd 7c e2 bc
       0.026772514 -0.012602781 0.0075831357 -0.02764737
000040 a0 70 c5 3c 57 98 f8 bc 9b ed f4 3c 32 8a 04 bc
       0.024101555 -0.030346079 0.029898455 -0.008089589
000050 aa 14 db 3c 47 60 47 3d df f4 d7 bb 09 61 91 bc
       0.026743252 0.0486758 -0.00659047 -0.017746465
000060 b4 9d 01 bd 71 2c 12 3c c2 b8 92 bd 21 54 23 3d
       -0.031644538 0.0089217285 -0.07164146 0.039875153
000070 ab d5 d0 3c 2d 58 60 3b 77 8c a2 3c dd 01 03 3b
       0.02549251 0.0034232244 0.01984237 0.0019990124
000080 2f b4 7f bb 5d ef 07 3b a6 57 dc bc a2 5d a2 bc
       -0.003901731 0.0020742037 -0.026897263 -0.019820038
000090 15 a2 09 3a 73 8e cf 3c 35 4e f6 3b 62 74 50 bd
       0.00052502874 0.02533648 0.007516647 -0.05089224
0000a0 a6 5b a9 3c 34 88 bf bc 68 05 68 bc ed 51 f3 3c
       0.020673584 -0.023380376 -0.014161445 0.029702151
0000b0 a8 ab 21 bc 2d 3f 08 bd 2f 6d d5 bb 9f 81 0f bd
       -0.009867586 -0.033263374 -0.00651326 -0.035035726
0000c0 82 bb 4a 3d fb bd 80 3c d0 6a e6 bc 6f 0d 36 bb
       0.049495228 0.01571559 -0.028127104 -0.0027779003
0000d0 5d 5a 1f 3c af 55 5c bd e9 b0 50 3a 27 c6 84 bd
       0.009726134 -0.05379265 0.0007960932 -0.06483107
0000e0 6a fd a2 bd ff a0 ae bb d6 7f ad 3b a7 4e b0 bc
       -0.07958491 -0.005329251 0.0052947802 -0.02152188
0000f0 75 b3 3c bd 44 f6 b9 bc e1 6e eb bb 7f f2 31 3d
       -0.04606958 -0.022700436 -0.0071848487 0.043444153
000100 2c 2c 22 3d 9f 77 a7 bd 29 93 37 3d 27 94 cf 3c
       0.039592907 -0.08177113 0.044818077 0.0253392
000110 53 22 07 3d 5e 3e 22 3d a9 32 08 bc 34 1e 05 3c
       0.03299172 0.03961026 -0.00831286 0.008124877
000120 46 d4 72 3d a9 94 60 3d 92 f9 ae 3d 1b bd 29 bd
       0.05928447 0.054829273 0.085436955 -0.04144011
000130 d8 d9 3f bc ea 89 12 bc 48 69 d0 bc e9 b6 33 3d
       -0.011709653 -0.008944014 -0.025440827 0.04387561
000140 3f ee 1a 3c 0e 8f c2 bc 38 72 93 3c d6 1f 77 3d
       0.009456216 -0.023749854 0.0179988 0.060333095
000150 e6 05 1f 3c 7b 73 77 3a 77 88 8c 3c 0d ab ea bb
       0.009705996 0.000943951 0.017154915 -0.007161504
000160 2b ae 6c bd 2c 44 5e bd 2e 45 c5 3c a4 95 50 bc
       -0.057783287 -0.054264233 0.024080839 -0.01273099
000170 20 d0 72 3b 4a 2f 16 bd bc 13 82 bd 44 7d 98 3b
       0.0037050322 -0.036666192 -0.0635142 0.0046536047
000180 22 bd 09 bd a7 04 25 bd 1d c5 bb bc fe e4 32 bd
       -0.033627637 -0.04028764 -0.02292114 -0.043675415
000190 c0 86 ba ba dd 16 25 3a ba 3e a7 3b 63 ca 57 3c
       -0.0014230832 0.00062976574 0.005103913 0.013170811
0001a0 f7 5e 0a bd 3b b9 24 bd 6e 07 5f 3d 35 c9 4d 3d
       -0.03378197 -0.040215712 0.054450445 0.050240714
0001b0 c8 51 3a 3a 92 23 cb 3c 26 ce 29 bd 51 8b 73 bc
       0.0007107523 0.024797235 -0.041456364 -0.014864759
0001c0 e8 aa 9a 3b ac 7e 2a 3d 41 5b 04 3c cf 04 e6 bb
       0.0047200806 0.04162471 0.008078397 -0.007019616
0001d0 4b 6a 8d bb 52 8f 05 bc b6 68 4f bc 81 f9 20 bd
       -0.0043156496 -0.008151846 -0.012659242 -0.039300445
0001e0 29 ca aa bc dc fc bc bc 36 0e cc bc 0d 9a 2e bd
       -0.02084835 -0.023069791 -0.02490912 -0.042627383
0001f0 62 e2 8b bb 43 52 b1 bb e5 7d f9 3c 68 a5 45 bd
       -0.0042689303 -0.0054114177 0.030455539 -0.048253447
000200 ac 75 b8 bc 5d d2 ca 3c eb 98 f8 bc 7c 08 a2 3a
       -0.022517048 0.024758512 -0.030346354 0.0012362148
000210 4c f9 7d bd 02 4f 9b bc 2f 0c d1 bc ef f6 04 bd
       -0.062005326 -0.018958572 -0.025518505 -0.032462057
000220 9c 93 21 3c cf 36 05 bd 47 f6 05 bd 67 78 4b bd
       0.009861853 -0.032522973 -0.03270557 -0.04967537
000230 0a 67 ee b8 9d e7 41 3c ed 2f 24 bd ec 0b 42 bd
       -0.00011367917 0.011835006 -0.040084768 -0.04737465
000240 ae a6 0d bd e2 b0 83 bc 59 ec 10 bd bb 9e 1b bd
       -0.034582786 -0.016075555 -0.03538165 -0.037993174
000250 77 0f bd bc e4 47 57 bb 35 6f c7 bc 33 89 a3 3c
       -0.023078663 -0.0032849247 -0.02434502 0.019962883
000260 ed e1 70 ba 18 f7 ed 3b d9 89 22 3b 05 9c 33 bd
       -0.0009188939 0.007262122 0.0024801402 -0.043849964
000270 7a 31 dc 3c fc b9 22 3d 78 b5 86 3b 8d 2b a9 bc
       0.026879061 0.03972815 0.004110988 -0.02065065
000280 e3 5d 34 bd f3 13 42 3a 71 70 f9 bc 40 da 06 bc
       -0.04403485 0.00074034854 -0.030449124 -0.008230746
000290 83 49 11 bd 48 18 df bc cf 06 fb 3c 15 dd a7 3c
       -0.035470497 -0.027233258 0.030642895 0.020491162
0002a0 ec 3d 2d 3c 48 ec 34 3d 35 c2 19 3d 40 5e d3 bb
       0.010573845 0.044170648 0.037538726 -0.0064504445
0002b0 06 93 58 bb 17 0e a2 bc 4f 56 0f bc e2 c3 2f bc
       -0.0033046617 -0.01978211 -0.008748605 -0.010727854
0002c0 17 7d 61 bc 12 2d c9 3c e8 30 21 bc 67 a9 73 bc
       -0.013762734 0.024557624 -0.00983832 -0.014871932
0002d0 e3 4e 16 3d 19 f6 47 3d 1a 47 f6 3c 28 67 99 3c
       0.036696326 0.04881868 0.0300632 0.018725947
0002e0 f1 ee 12 3d a6 9f f8 3a 11 9e 10 3d 61 31 34 3c
       0.035872404 0.0018968477 0.035306994 0.010998101
0002f0 24 0b 8f 3b c0 24 a4 bc a1 1d 9f bb c0 88 5c 3d
       0.0043653417 -0.020037055 -0.004855827 0.053841352
000300 78 86 32 3d d9 b6 2d 3d eb 56 34 3b 3a cd 07 bd
       0.04358527 0.042410705 0.0027517627 -0.033154704
000310 41 a2 83 3c 18 dc 3e 3d 6f ce 26 3c 2d 89 76 bc
       0.01606858 0.046596617 0.010181054 -0.015047354
000320 50 67 60 3c 4f be 0d 3c 40 9e a4 bc c3 49 b1 bc
       0.013696507 0.00865133 -0.02009499 -0.021641618
000330 bb 99 61 3a 13 bc b7 bc 05 a5 1c bb 5c 23 c8 bc
       0.00086059765 -0.022428548 -0.002390207 -0.024430923
000340 23 ed b1 bc a4 5e 99 3c 41 c2 46 bd 08 ee f4 bc
       -0.02171952 0.018721886 -0.0485251 -0.029898658
000350 2c f5 f2 bc 57 bf 36 3c 72 aa e4 bc ee 2f e8 bc
       -0.029657923 0.011154017 -0.027913306 -0.028343167
000360 61 36 65 3b 6c 6a e0 3b 2b b2 3e bc 3f 1e ca 3c
       0.003497504 0.006848624 -0.011639158 0.024672626
000370 67 08 6a bd 93 ea af 3c 9d a0 37 bc 66 49 67 bc
       -0.05713692 0.021474158 -0.011207727 -0.014116621
000380 f6 00 5a bc 57 ea 71 bb 66 3c 28 bd ac 83 da bb
       -0.013305893 -0.003691336 -0.041073225 -0.0066685285
000390 18 eb 09 3c 71 cf fe bb 25 30 8a bc 31 7d 6d 3c
       0.008417867 -0.007776194 -0.01686866 0.01449518
0003a0 5e 39 1d bc 67 8f 56 bd fa 97 a0 bb b3 3f 00 3d
       -0.009596197 -0.052382853 -0.0049009295 0.03131075
0003b0 49 87 16 bd a0 5b ca bc 0e 0a 44 bd 9d aa 9a bb
       -0.03675011 -0.024701893 -0.04786115 -0.0047200457
0003c0 e1 2b c3 3b c0 7c 63 bd 17 18 93 3c b8 54 80 bc
       0.0059561585 -0.055538893 0.017955823 -0.015665397
0003d0 ca a5 82 bc 20 44 23 3a 24 c5 39 bd 22 93 e4 3b
       -0.015948195 0.0006228108 -0.045354024 0.0069755474
0003e0 e2 ad 09 3a bc 52 92 bd 02 90 d4 bc 56 c3 6c bd
       0.0005252046 -0.071446866 -0.025947575 -0.057803474
0003f0 23 76 1c bd 9e 82 ac 3c ed c4 51 3c 3b 93 12 bd
       -0.0381986 0.021058377 0.012803298 -0.03578494

bias f4 [64]
000000 9f 1a ed bd ec 70 40 3c 29 1c a6 bd a6 65 28 bd
       -0.11577343 0.011745673 -0.0811084 -0.041112565
000010 ea 15 2c be 4f 90 95 bd 29 fb a1 bd 60 e8 99 bd
       -0.16805235 -0.07302915 -0.07909233 -0.07515025
000020 c7 0b 98 bc b5 ee ec 3a 79 d8 b9 bd 0a f9 79 bd
       -0.018560303 0.0018076511 -0.09074492 -0.061028518
000030 92 72 c0 bd b1 e4 9c bd 8c 36 b0 3c ea 0f 6a bd
       -0.093968526 -0.07660807 0.021510385 -0.057144083
000040 9e a8 84 bd bd ef 5e bd 9e 5d 64 bd 4c 3b 5c bd
       -0.06477474 -0.05442785 -0.055753343 -0.053767487
000050 76 23 38 bd f8 cd 68 bc e1 9e a1 bc e0 0f ea bc
       -0.044955693 -0.014209263 -0.01972908 -0.028572023
000060 cc 1f b1 bc 53 36 e3 bd 51 b9 3a bd 3b 8b 61 bd
       -0.021621607 -0.11094346 -0.045586888 -0.05506442
000070 b3 52 bd bd b0 69 66 bd 25 43 b7 3b df 17 8f bd
       -0.09244289 -0.056253135 0.005592721 -0.06986975
000080 20 f3 82 bd a8 c5 bf bb 66 16 c0 bd 11 47 2e bd
       -0.06394029 -0.00585242 -0.09379272 -0.042548243
000090 c0 4b 4d bd a3 44 1d bd d3 ed b4 bb b3 67 98 bd
       -0.05012107 -0.038395535 -0.005521515 -0.07441654
0000a0 99 23 91 bd 71 09 1e be 5a 97 20 be 88 5e 96 bd
       -0.07086868 -0.15433289 -0.15682736 -0.07342249
0000b0 ba 10 ce bc 0f 51 b2 bd 79 eb 3d bc 42 09 bb bd
       -0.02515446 -0.08706867 -0.011591786 -0.09132625
0000c0 65 5f c3 bc 40 5d d9 bd 40 2c e8 bd f9 5e 2b be
       -0.023849199 -0.10613489 -0.11336565 -0.16735448
0000d0 d2 39 cd bd 09 ff 31 bc 54 e8 99 bd 49 62 d1 bc
       -0.10020794 -0.010864028 -0.07515016 -0.025559561
0000e0 1d 25 4f bb 2e bb c4 bd ea 58 b8 bd e3 61 91 bd
       -0.0031607815 -0.09606014 -0.09001334 -0.070987485
0000f0 b7 a1 16 bd 87 20 c2 bd ca 0f 95 bd d8 a5 71 bd
       -0.036775317 -0.0947886 -0.07278402 -0.05899605

weight f4 [64, 1024]
000000 b1 bc 84 bc ec 36 71 3d fa b5 32 3d 9f 7c 08 3c
       -0.016203256 0.05889027 0.043630578 0.008330493
000010 05 28 95 3d 5a 82 25 3d 50 b8 e0 3c 6d 53 81 bb
       0.07283024 0.040407516 0.027431637 -0.0039467127
000020 dd 42 dc bb 3b 61 de bb 44 6e 18 3d 67 a3 6b 3c
       -0.006721838 -0.006786493 0.037214532 0.01438222
000030 48 28 ce bc 6d 9c 38 bc 2d cd 74 34 84 c9 8f bb
       -0.025165692 -0.011267764 2.2798913e-07 -0.004388036
000040 9d d8 ae bc 59 2f 80 3c 19 b2 41 3c 85 c5 45 3c
       -0.021343524 0.015647577 0.011822247 0.012071018
000050 c6 c0 30 bd 6d 1c 60 bb fa c4 33 3d 44 04 76 3c
       -0.043152593 -0.003419663 0.043889023 0.015015665
000060 fa b9 53 bc e9 11 f2 bc 6b f3 36 bd 1e 5f 84 bd
       -0.012922758 -0.029549556 -0.044665735 -0.06463455
000070 ad 06 ce 3c 7b 00 d8 bc 15 c3 cb 3b 32 5f ae 3b
       0.025149668 -0.026367417 0.006218324 0.0053214068
000080 5a 7c 95 3c 76 d0 6f 3c ba e2 3d bc 4b bc 53 3c
       0.018247772 0.014637103 -0.0115897 0.0129233105
000090 52 f7 e4 3b 79 65 2a bd 35 5a 12 3b 4a b3 6e 3b
       0.0069874907 -0.041600678 0.00223316 0.0036422783
0000a0 85 9f 5f 3c 32 4f cf bc 94 92 1c 3d 49 e9 55 3c
       0.013648872 -0.025306318 0.038225725 0.013056108
0000b0 c5 79 1d 3d 62 61 67 3c 93 c5 b0 bc 44 74 7b 3d
       0.038446207 0.014122339 -0.021578586 0.061390176
0000c0 73 3d 39 bc ea 55 d6 bc 31 93 f3 3c 1c 38 7a bc
       -0.011306155 -0.026164014 0.029733272 -0.015272167
0000d0 0e 1a 0a 3d 2f 9c 08 3c f4 25 60 bc e9 4b 7b 3a
       0.033716254 0.008338018 -0.013680924 0.00095862016
0000e0 7e 5e ac 3d d2 38 80 3c 01 0d 22 3a d0 54 04 3d
       0.084164605 0.015652094 0.00061817473 0.032307446
0000f0 bb 65 69 3d df cc e5 3c e9 19 7c 3d cd bf 86 3d
       0.056981783 0.028051792 0.061548147 0.06579552
000100 36 7d 03 bd db a7 82 3d 92 75 96 bc 16 00 81 3c
       -0.032101832 0.06379672 -0.018366609 0.015747111
000110 f0 33 31 3d 5b 32 fb 3b c8 27 16 bd 79 0f 19 3d
       0.043262422 0.007665915 -0.036659032 0.03736827
000120 ad d7 2d ba f7 f7 04 bc d1 1c 5f 3d 5e 64 83 3c
       -0.00066315645 -0.00811576 0.05447084 0.01603907
000130 ec a3 31 3d 93 01 06 bd dc 74 ba 3b db 44 29 bd
       0.04336922 -0.032716345 0.0056902003 -0.04132543
000140 bd 01 8c bc 9a 56 11 3d 3b 1f 89 3c 92 a0 2f 3d
       -0.017090673 0.03548298 0.016738525 0.04287774
000150 01 7e d8 bc 58 d6 c7 3c ca 82 68 3c 1d a7 ac 3c
       -0.02642727 0.0243942 0.014191339 0.02107578
000160 50 f6 e9 3c b9 41 2d 3c 57 b9 15 bc ed 23 b9 bc
       0.028559834 0.0105747515 -0.009138427 -0.022600139
000170 2c 5a 46 bc 75 10 bc 3c bc ae 4d bb e4 90 c6 3c
       -0.01210646 0.022957066 -0.0031384667 0.024239011
000180 57 5d 79 bb 5f 2d fd 3c df 0d 49 3d 4a 05 6f 3a
       -0.003805002 0.030905424 0.049085494 0.00091179146
000190 3b bb c1 bc c4 97 3d bc 6b 36 ea bc c8 c1 80 bd
       -0.023648849 -0.011571828 -0.028590402 -0.06286961
0001a0 b3 4f a2 3c 13 3b 09 3d 3a 69 81 bc 92 99 3b 3d
       0.019813394 0.033503603 -0.015797246 0.045800753
0001b0 c8 f9 3f 3c 37 f9 90 3d 6f b2 f4 bb 13 f3 eb 3c
       0.011717267 0.07078784 -0.00746756 0.02880243
0001c0 69 a5 fd 3c 55 0f 29 3b 9a 8b 52 3c c2 9f a2 ba
       0.030962663 0.0025796492 0.012850666 -0.0012407231
0001d0 0b f6 37 bc 91 f7 18 bd a9 8a e6 bc fa c0 51 3c
       -0.011228095 -0.037345473 -0.02814229 0.012802357
0001e0 68 bb 68 bc 13 96 88 bd 4a e5 a1 ba 81 51 9c bc
       -0.014204837 -0.066692494 -0.0012351659 -0.019081833
0001f0 1e 53 52 bc f4 0b 7a 3c d1 78 be bc 56 e5 22 3d
       -0.0128371995 0.015261639 -0.02325097 0.039769493
000200 51 6f 2a 3c b2 74 25 bd 80 df 63 bd 75 32 3e bd
       0.010402516 -0.040394492 -0.055633068 -0.04643484
000210 fc 91 8f 3d 6a fd a3 3c 48 24 a4 bc 21 35 36 bd
       0.07010266 0.020018298 -0.020036831 -0.04448426
000220 bc a9 4b bc 49 96 1c 3c e9 8e 1f bd 7b 28 4c 3c
       -0.012430605 0.009557315 -0.03895465 0.012460823
000230 4a 78 ae 3b 9c 09 a8 bd aa 94 31 bd aa 9f eb 3c
       0.005324398 -0.08204958 -0.043354668 0.028762657
000240 84 c5 15 3b f2 71 8c bc a9 3f 0f 3d b8 38 04 bd
       0.0022853324 -0.017144177 0.03497282 -0.032280654
000250 a1 4c f8 b9 0f d9 24 3b c2 ee 53 bc f7 44 08 39
       -0.0004735934 0.002515379 -0.012935342 0.00012995662
000260 f3 ec 15 3d 7b 04 37 bc bd a2 0b bd f9 ca 88 bc
       0.036602926 -0.011170502 -0.034090746 -0.016698347
000270 03 5c 93 3b 30 a7 1f bc 87 ad 0e bd 0b 53 db bb
       0.0044970526 -0.00974445 -0.034833457 -0.006693249
000280 f2 23 c5 bc 2c e9 59 bd b2 be fa 3b c9 15 2d bd
       -0.024064992 -0.053200886 0.007652127 -0.042257104
000290 ba 57 0a bd 0f b8 96 bb 84 7e 10 3d 0f b7 d0 3b
       -0.03377507 -0.004599578 0.035276905 0.0063694785
0002a0 b5 1a 83 3c 3f 74 2c 3c 97 26 e7 3c b0 e9 5c bb
       0.016003946 0.010525762 0.028216643 -0.0033708625
0002b0 8c 2a 8d 3b 5d 56 16 3d 14 e6 83 3d ed 9c bb bc
       0.0043080505 0.036703456 0.06440368 -0.022901976
0002c0 a5 ad 1b 3d a7 2b 42 bc 82 b7 0c bc 86 6b 01 3d
       0.038007397 -0.011851228 -0.008588674 0.031596683
0002d0 a8 c7 bf bc 76 96 ac 3d 62 2f e7 bc 0d db 4e 3d
       -0.023410633 0.08427136 -0.028220836 0.05050187
0002e0 8e ea 22 3c 20 e4 e2 3c eb aa cb bb 8a 34 f1 3c
       0.0099436175 0.02769667 -0.0062154434 0.029443998
0002f0 2d b9 d2 3c ad a4 1d 3c eb e9 42 3d de b6 ee 3c
       0.025723064 0.009621781 0.047586363 0.029139932
000300 04 ee 90 3c 66 73 7a 3d 13 3f f3 3b ec 58 00 3b
       0.01769162 0.06114521 0.0074232905 0.0019584252
000310 ff ba 75 3c 0a be 0b bc 20 da f5 3c e7 4f 39 bd
       0.014998197 -0.008529196 0.030011237 -0.045242216
000320 d1 32 a8 3c 01 12 84 3c af 64 ab bb d4 a1 ce bc
       0.020532044 0.016121866 -0.0052305083 -0.02522365
000330 20 e5 0f 3d 07 10 da bc 1b 2e 3f 3c 61 4f 1a bd
       0.03513062 -0.02661897 0.011668707 -0.037673358
000340 ef ea 0a bd c3 d9 d0 3b 83 e5 c9 bb fe 0c 68 3d
       -0.033915456 0.0063736155 -0.006161393 0.056653015
000350 5b 40 80 bc eb 23 04 3d ae 25 88 3c 61 d7 15 3c
       -0.015655687 0.032260817 0.01661953 0.009145589
000360 56 1f 60 3c 9f c5 c8 ba 4d 7e 2b bd 5b 05 08 3d
       0.013679346 -0.0015317685 -0.041868497 0.033208232
000370 5f 12 5e bc e7 2b d2 bc d7 b3 af 3c cc 21 7e 3c
       -0.013554185 -0.0256557 0.021448059 0.0155109875
000380 a7 6c d5 bc 79 59 b2 3b 8b 5b f8 bc 45 f1 13 bd
       -0.026052786 0.005442795 -0.030317089 -0.036118764
000390 6a 34 67 3b af f5 65 3b ff 43 b0 bc bb b5 0b bd
       0.0035279044 0.0035089066 -0.021516798 -0.03410886
0003a0 6d 16 4f 3d a5 5e 0a 3d 82 6c cf 39 4c 9b fc bb
       0.050558496 0.033781666 0.0003956296 -0.0077089425
0003b0 ff 34 f1 3c 82 7a 0a 3d c9 7a 27 3c 3c 97 80 3c
       0.029444216 0.03380824 0.010222145 0.015697114
0003c0 51 88 8a bb 95 02 34 3d e5 64 b9 3a 12 7d 1b 3c
       -0.004227676 0.043947775 0.0014144449 0.009490268
0003d0 b7 c9 85 3b 66 84 86 bb ac bb 70 bc 20 b1 b7 bb
       0.004082884 -0.0041051386 -0.014693182 -0.0056058317
0003e0 f4 bc 26 3c 25 9e 0b bd 02 1a 5f 3c ae d2 43 3b
       0.010176886 -0.034086365 0.013617041 0.0029880214
0003f0 77 bd 11 3d 5f 57 94 3d 76 cc b5 3d 76 e6 ea 3c
       0.03558108 0.07243227 0.088768885 0.028674345

bias f4 [64]
000000 a0 56 e7 bc e8 12 d4 39 0d 82 1e bd 41 74 ad bc
       -0.028239548 0.00040449877 -0.038698245 -0.021173598
000010 0e 7d 28 3c 11 50 b6 3c c0 de 0e bb df 40 09 bd
       0.010283722 0.022254976 -0.002180025 -0.03350913
000020 9e 3f 38 3c 0c 4c 64 bd 02 c7 6b 3b da 68 13 3b
       0.011245636 -0.055736586 0.0035976772 0.0022492916
000030 e8 1c 9c 3b ff 7b 30 3d 05 2f 34 bc df c3 9f bb
       0.004764188 0.043087002 -0.010997538 -0.0048756446
000040 63 57 a4 3c 7b 16 08 3d 86 f5 95 bd 0d 9b 91 bb
       0.0200612 0.033224564 -0.073222205 -0.0044435323
000050 24 1e 28 bb 35 4d 8a bc 9c 23 36 bc 3a ee 52 3d
       -0.002565273 -0.016882518 -0.011116888 0.05149672
000060 9c 0e 74 3c 1c ec 41 3d ea 16 90 3c 8c 4a 1c 3d
       0.014896061 0.047344312 0.017589051 0.03815703
000070 b4 c5 5f 3d d7 a1 04 3d ba 88 40 bc 49 72 07 3c
       0.054631904 0.032380905 -0.011751348 0.008266994
000080 bc 69 32 bd af 03 34 3d f2 e7 dd 3b 45 47 01 bc
       -0.043557867 0.043948825 0.006772035 -0.007890527
000090 8d 7d 37 bc d0 86 e4 3c cf 72 46 bd b0 a6 b8 bb
       -0.011199367 0.027896315 -0.048449334 -0.005635105
0000a0 53 38 59 bd c9 fd 70 bc ec 17 1e bc 76 8f c1 3c
       -0.05303223 -0.014708945 -0.009649258 0.023627978
0000b0 50 f8 82 3b 65 7c 91 bb 95 24 45 3d 93 68 12 bd
       0.0039968863 -0.004439878 0.04813059 -0.03574426
0000c0 90 46 98 3d 30 7c 8d 3c af af fb bb bd 71 db bc
       0.07435334 0.017271131 -0.007680855 -0.026787633
0000d0 19 dd 32 bd 4b 60 7d 3a 45 25 dd bb 63 a9 35 3c
       -0.043667886 0.0009665533 -0.0067488276 0.011087748
0000e0 ff 93 86 3d 0a f7 96 bc c8 ad e1 bb 67 0f b3 3c
       0.06571197 -0.018428344 -0.0068871714 0.02185793
0000f0 83 f8 83 bd a1 ce 99 ba a0 4c 3f 3c d2 34 65 bd
       -0.06443884 -0.0011734554 0.011675984 -0.055958577

weight f4 [10, 64]
000000 a2 31 ae 3d 3f 30 45 3d 08 98 18 3e da 5f 71 be
       0.085055605 0.048141714 0.14901745 -0.2357172
000010 de e2 4a be d4 70 3f 3e d0 5a 9f be df 16 ae 3e
       -0.19813105 0.18695384 -0.31123972 0.34001824
000020 3e 73 de bd 36 3c c9 3c 60 dd 12 be 24 07 79 3d
       -0.108618245 0.024564844 -0.1434226 0.060797825
000030 a2 21 a7 bb 81 1e f2 bd 29 29 07 bd 56 2c 45 bd
       -0.005100445 -0.118222244 -0.032998238 -0.048137985
000040 ad 0d 11 3d 04 5e 97 be 8a 20 15 3d 45 81 69 3d
       0.035413433 -0.29563916 0.036407985 0.057008047
000050 b9 bc 01 3a 76 2b c4 bd d9 d0 12 bd 64 5b 88 3d
       0.00049490813 -0.09578602 -0.035843704 0.066580564
000060 3e 69 de bb e9 e6 40 be 5f 12 fd bd 2a 26 39 3e
       -0.006787448 -0.18838085 -0.1235702 0.18080965
000070 c2 28 9a be 8c 7b 48 be f9 a2 57 bd 75 8f 76 3c
       -0.3010922 -0.1957838 -0.052645657 0.015048851
000080 e8 6d ca bd 55 da 07 3e 7f 24 10 bc 92 43 b7 3e
       -0.09884244 0.13266881 -0.008797764 0.3579374
000090 d9 14 4c 3e 1d 0d 05 3e f9 be 70 3d 99 a8 b6 be
       0.19929828 0.12993284 0.058775876 -0.35675505
0000a0 b5 7d 4e 3e ac bc d9 bd d8 01 27 be 73 3d 24 be
       0.20165141 -0.106316894 -0.16309297 -0.16039066
0000b0 d9 a2 a4 3d 6f 1b cb 3d 75 4e 33 be ca 33 0f be
       0.08038873 0.09917342 -0.17510398 -0.139846
0000c0 11 79 9d be 87 79 85 bc 3e 5b 24 3e 18 1c 52 3e
       -0.3075643 -0.0162933 0.16050431 0.2051853
0000d0 3a d0 3e be db dd d3 bd 74 95 7d ba f5 42 08 3d
       -0.1863412 -0.1034505 -0.00096734543 0.03326698
0000e0 26 40 82 bd bd cd 2f 39 11 ac 8c bd 47 4a eb bd
       -0.063598916 0.00016765944 -0.068687566 -0.11488777
0000f0 5d 21 27 3e 40 94 8f be 3e 5a 00 3e c2 da 98 3e
       0.16321321 -0.28042793 0.12534425 0.298544
000100 6b c0 81 3e cd 4d 57 be be 37 72 be 9c ea 82 3e
       0.25342116 -0.21025772 -0.23654076 0.25569618
000110 cf 52 59 bd ce ac 0f be d8 91 d0 bd c1 47 cb 3d
       -0.053057488 -0.14030764 -0.101840675 0.09925795
000120 7a 96 40 3e b8 fc 11 be 0d 97 b4 bd 84 11 03 be
       0.18807402 -0.14256561 -0.08817873 -0.1279965
000130 19 be 52 3c e9 6f 7e be 97 00 13 be 45 2b 8b bd
       0.012862706 -0.24847378 -0.14355694 -0.067953624
000140 78 e8 cc 3b e4 4f 86 be db bc 89 3d 5d 7e 37 3e
       0.0062532984 -0.26232827 0.067254744 0.17919298
000150 cd a5 33 be 84 bb ba 3e 21 d9 f6 3d c7 53 55 3e
       -0.17543717 0.36471188 0.12053133 0.2083274
000160 0b fb 99 3e cd d2 34 3d b8 3a 5c 3e 72 1e 1d be
       0.30074343 0.044146348 0.21506774 -0.15343645
000170 fa c0 56 be cd 04 20 3e b2 f1 3c bd 09 04 67 3d
       -0.20972052 0.15626831 -0.046128936 0.056400333
000180 04 86 ef bd 22 d3 8b be 63 80 f1 bd d7 12 ae be
       -0.11695483 -0.2730952 -0.11792066 -0.3399875
000190 22 c4 bb 3d c5 c1 7d 3e f9 a9 63 be ee 1d 61 be
       0.09168269 0.24780948 -0.22232808 -0.21984074
0001a0 55 90 29 be c4 04 5c 3e 03 41 87 3e 2f 66 4a 3e
       -0.16558965 0.21486193 0.26416788 0.19765542
0001b0 6c 00 8e be 0b e3 26 3b 40 a8 8b bd 9e 4d 4d 3d
       -0.27734697 0.0025464918 -0.068192005 0.05012285
0001c0 f1 dc 68 be 46 bf 92 bd fe 55 5f 3c 7f 26 82 be
       -0.22740532 -0.07165389 0.013631342 -0.25419995
0001d0 25 ac 19 be 53 96 ab 3e a8 70 6f 3e 49 c7 90 3e
       -0.15007074 0.33513126 0.23382819 0.28277043
0001e0 c2 81 a0 be 47 ec 34 be bf 29 a1 3e 5b 62 9d bd
       -0.31348997 -0.17668258 0.31477162 -0.076847754
0001f0 9c ac 5c bd da 43 15 bc 65 fa 61 3e 52 dc 6f be
       -0.05387555 -0.009110415 0.22068174 -0.2342389
000200 03 88 68 be 5f f2 d3 3c 37 7c c7 bc 6f 2b 13 be
       -0.22708134 0.025872407 -0.024351222 -0.14372037
000210 94 78 78 be c1 3b b1 3e de 05 b7 3d b1 4c 3e 3e
       -0.24264747 0.346159 0.08936666 0.18583943
000220 1f 14 b0 bd 0b ca 08 3d d8 36 fb 3c 32 80 59 bc
       -0.08597588 0.03339581 0.0306658 -0.013275193
000230 2f 28 2f be cf de 40 3c 93 b5 aa 3d b4 4e 8c 3e
       -0.17105173 0.011771872 0.08335414 0.27403796
000240 7f 92 aa bd 63 22 d2 bd cb 98 80 3e 75 8f 93 be
       -0.08328723 -0.10260465 0.25116572 -0.28820387
000250 e2 52 9f 3d 97 d4 54 bc f9 09 b9 3b 52 aa a4 bd
       0.077794805 -0.0129901385 0.005646941 -0.080402985
000260 1d ff a7 3d a7 2b 47 be 40 c0 8e be 75 35 9a be
       0.08202956 -0.19450246 -0.2788105 -0.3011891
000270 e6 92 eb 3b f9 3d d8 3d 18 bc d8 bc 2e 95 07 3d
       0.0071891425 0.10558695 -0.026456878 0.033101253
000280 5e 30 35 be 22 48 b0 bd 8f 18 82 bb 93 0a a9 3e
       -0.17694232 -0.08607508 -0.003970213 0.3301588
000290 42 c0 64 be 69 32 58 3d 3a 29 37 bc 3f 11 90 3e
       -0.22338966 0.05278245 -0.011179263 0.28138158
0002a0 cb dd 83 3e 53 d3 85 be 17 3e 6d 3e e1 ed 24 3e
       0.25755152 -0.2613779 0.23168217 0.16106369
0002b0 16 0a 89 3e ff 67 f3 bc e6 b0 6e bd 3b 31 27 be
       0.26765507 -0.029712675 -0.058274172 -0.16327374
0002c0 15 f1 94 3c dc b2 da bd 6e 4a 36 bd c8 4c b5 bd
       0.018181363 -0.10678646 -0.044504575 -0.088525355
0002d0 77 09 25 be c8 df 0f be ec 88 2b 3e 50 0e 88 be
       -0.16116892 -0.1405021 0.1675145 -0.2657342
0002e0 44 7d 89 3e 9a dc 57 bd aa 33 13 be fe 03 0e bd
       0.26853383 -0.052700616 -0.14375177 -0.034671776
0002f0 35 25 e7 bd a7 52 58 3e 48 da cf 3d bf cc 19 be
       -0.112863936 0.2112528 0.10149056 -0.1501951
000300 a6 81 68 3e 71 6f 37 3d ac 1c 45 3e d9 9f c6 3d
       0.22705707 0.044784013 0.19249219 0.09698457
000310 21 72 48 3e db 21 6a 3d cc 83 83 3e 96 8b d0 bc
       0.19574787 0.057161193 0.2568649 -0.025457185
000320 8a e5 a3 3d 66 04 d1 3d b8 50 b8 3d 08 ff 28 be
       0.080027655 0.10205917 0.08999771 -0.16503537
000330 d7 ed 08 3e b0 f8 eb 3d 8d ed fe 3d 84 47 bb bd
       0.13371979 0.11522043 0.12447653 -0.091445
000340 8a 48 19 be 0f f5 68 3d d2 4f 87 3d ce 16 79 3e
       -0.14969078 0.05687433 0.066070214 0.24325106
000350 7a 7d 35 be 4a 64 89 be 97 03 96 3c d3 f0 67 be
       -0.17723647 -0.26834327 0.018312259 -0.22650461
000360 a4 72 29 3e 83 54 35 3b 6b 55 35 be 88 d8 62 3e
       0.16547638 0.002766878 -0.17708366 0.22152913
000370 e5 9c 8f 3c dc 4f 9b bc c3 b9 cc bd dc 16 ff 3d
       0.017530868 -0.018958978 -0.09996369 0.12455532
000380 3d bf 21 be e9 c7 f7 3d 41 e8 c8 bd 91 d6 4f be
       -0.15795608 0.12098677 -0.09809924 -0.20296694
000390 c1 0e eb bd db f6 c7 bd 06 1b a4 3c 40 a3 5d bc
       -0.114774235 -0.09763881 0.020032417 -0.013527691
0003a0 5b ee 2d 3d f8 fe 8c 3b 90 a6 30 be 70 0e e8 3d
       0.04246364 0.0043028556 -0.17251039 0.11330879
0003b0 15 73 c2 3c 4c 7a c9 ba 5a 40 c8 bd fc 20 25 be
       0.023736516 -0.001537153 -0.09777899 -0.16125864
0003c0 86 f5 b2 3d 55 7c e0 3d a4 48 53 be b6 f2 fa bd
       0.08738236 0.109612145 -0.20633179 -0.12253325
0003d0 ce cb ff 3d 93 57 5d bd 22 58 72 3d 6d ee 48 be
       0.124900445 -0.054038595 0.05916608 -0.19622202
0003e0 cd b5 08 3e 9f 3b 2f be 5e 54 62 be d8 db 0c be
       0.13350601 -0.17112587 -0.22102496 -0.13755739
0003f0 75 82 a9 bd b1 34 02 3e 4e c0 b8 bd 36 fa ed 3c
       -0.08276836 0.12715413 -0.09021054 0.029049974

bias f4 [10]
000000 8f bb 67 be 0e 3f 95 bd d4 91 de 3d 70 d8 cd 3d
       -0.22630142 -0.07287417 0.10867658 0.10051048
000010 02 52 36 3e 0f d3 23 be 41 5f 17 3e a0 aa 86 3d
       0.17804721 -0.15998481 0.1478243 0.06575513
000020 28 10 c5 bd 38 85 02 3d
       -0.09622222 0.03186533
