Pytorch/model_data/CIFAR10_EPOCH19.pth (torch, 588839 bytes, 10 tensors)

weight f4 [32, 3, 5, 5]
0	0xbcb18251	-0.021668585
1	0xbd40fe40	-0.04711747
2	0xbd45e2e8	-0.048312098
3	0xbe006eb4	-0.1254223
4	0xbd2be7c3	-0.041969072
5	0xbe272c83	-0.16325574
6	0xbe0ba7d2	-0.13638237
7	0x3dd9e0d3	0.10638585
8	0xbd44b24c	-0.0480216
9	0xbde70e95	-0.11282078
10	0xbe169ead	-0.14708968
11	0xbd8ef5ef	-0.06980502
12	0x3e16ac90	0.14714265
13	0x3dd44631	0.103649504
14	0xbe45322d	-0.19257422
15	0x3d95887a	0.073014215
16	0xbde09e7e	-0.1096773
17	0x3dcc2534	0.099680334
18	0x3e1bb08f	0.1520407
19	0xbe1dc198	-0.15405881
20	0x3d4ec5b2	0.050481506
21	0xbcf1f54c	-0.029535912
22	0x3e261904	0.1622048
23	0x3e053846	0.13009748
24	0xbe09f61b	-0.13472788
25	0xbde5aaba	-0.11214204
26	0x3d329f7c	0.043609127
27	0x3deb16c2	0.1147895
28	0xbd6b36f6	-0.05742546
29	0xbe374a86	-0.17899522
30	0xbd8675bf	-0.06565427
31	0x3daa51d9	0.083163925
32	0xbda0e9a7	-0.07857066
33	0x3d864698	0.065564334
34	0xbe482053	-0.1954358
35	0xbd1d401b	-0.038391214
36	0xbd26eda4	-0.040753976
37	0x3da5b986	0.080920264
38	0x3df1942b	0.11795839
39	0x3ce147ff	0.02750015
40	0x3d3821a8	0.044953972
41	0xbdd02aed	-0.101644374
42	0x3d1f9be2	0.03896702
43	0x3e2689b1	0.16263463
44	0xba9586ed	-0.0011408009
45	0x3d0ca6cd	0.03433876
46	0x3ddace3a	0.10683866
47	0x3e50e496	0.20399699
48	0x3e359a6d	0.1773469
49	0x3cd6d9db	0.026226928
50	0xbd856cbb	-0.06514879
51	0xbd8cc71f	-0.06873917
52	0xbdf3bb6b	-0.119009815
53	0xbd7be1b0	-0.06149453
54	0xbe4a507e	-0.19757268
55	0xbc91a08c	-0.01777675
56	0x3d1be04a	0.038055696
57	0xbc4bd36d	-0.012440545
58	0x3d676f7c	0.056502804
59	0xbe3cc37a	-0.18433943
60	0x3d787212	0.06065566
61	0x3d5e83be	0.054324858
62	0x3cacf3d8	0.021112368
63	0x3dd11e6b	0.1021088
64	0xbe182cc7	-0.14860831
65	0x3b94f960	0.0045463294
66	0x3d367c81	0.04455233
67	0x3e32fd8f	0.17479537
68	0xbbfde410	-0.0077481344
69	0xbe1cb351	-0.15302779
70	0x3d7f77fa	0.062370278
71	0x3cf34626	0.029696535
72	0x3e353b20	0.17698336
73	0x3e2e9408	0.17048657
74	0x3da5afc1	0.08090163
75	0x3d8c7159	0.06857557
76	0x3ddd7bf8	0.10814661
77	0x3e29b20f	0.1657183
78	0x3d88b3ee	0.06674944
79	0xbd2c99bb	-0.042138796
80	0xbb98bd05	-0.0046612048
81	0x3da49af6	0.08037369
82	0x3c3b458b	0.011430155
83	0xbe39b005	-0.18133552
84	0xbe0a0081	-0.13476755
85	0x3e0765ad	0.1322238
86	0xbe2d9fb2	-0.1695545
87	0x3adf7942	0.0017049687
88	0xbe1dcd70	-0.154104
89	0x3dd6ab59	0.10481901
90	0x3cb3b3ff	0.021936415
91	0xbccf78de	-0.025326189
92	0x3c49a3b7	0.012307099
93	0x3e0cc624	0.1374746
94	0xbd21f14c	-0.03953676
95	0x3cb8a7f3	0.022541022
96	0x3cb8d91f	0.022564469
97	0x3d0b23db	0.03396974
98	0x3dba9528	0.091104805
99	0xbbd2834e	-0.006424344
100	0x3d83c8d1	0.06434787
101	0x3deec8ca	0.11659391
102	0x3dca1805	0.098678626
103	0x3d24fc57	0.040279713
104	0xbe49cb18	-0.1970638
105	0x3e0181b3	0.12647133
106	0x3cddfc93	0.027097976
107	0x3c46fb84	0.012144927
108	0xbe65769b	-0.22408526
109	0xbe4bf2c5	-0.19916828
110	0xbd85b1b2	-0.06528033
111	0xbe2ec4a7	-0.17067204
112	0xbd91476d	-0.070937015
113	0x3c97979b	0.018504908
114	0xbde3aecb	-0.111173235
115	0xbcf8f3f1	-0.030389758
116	0xbd021f79	-0.031768296
117	0x3c00410e	0.00782801
118	0x3a2fcb5e	0.0006706024
119	0x3c595265	0.013264273
120	0xbd2c64cf	-0.042088326
121	0x3d4c2d9e	0.04984819
122	0x3dd5d23b	0.10440489
123	0xbbbf3ccd	-0.0058361054
124	0xbd8908f7	-0.06691163
125	0xbb40385b	-0.0029330465
126	0x3da43138	0.080172
127	0x3e2ed180	0.17072105
128	0xbd9a4e96	-0.0753452
129	0x3cb0413e	0.021515485
130	0x3d4c2163	0.049836528
131	0xbb93b072	-0.004507118
132	0xbdac97ab	-0.08427366
133	0xbe209564	-0.15681988
134	0x3d93bb37	0.07213443
135	0x3d10681f	0.035255548
136	0xbc87fe0b	-0.01660063
137	0xbd266509	-0.0406237
138	0x3ccd0ac9	0.025029557
139	0x3dd4ee16	0.10396974
140	0xbd547d95	-0.051877577
141	0xbda8f699	-0.0825016
142	0x3df6084f	0.120133035
143	0x3da0d48c	0.0785304
144	0x3d904ecc	0.07046279
145	0xbda1eb5e	-0.07906221
146	0xbd90e910	-0.07075703
147	0x3e0bc6b1	0.13650014
148	0xbdaa90e9	-0.08328421
149	0x3c214ee7	0.009845472
150	0x3e065456	0.13118109
151	0x3d1911a1	0.037370328
152	0xbde3d12b	-0.1112388
153	0xbcbdb9c7	-0.023159875
154	0xbdf2d8b7	-0.11857741
155	0xbc7c42a6	-0.01539675
156	0x3c8fc431	0.017549606
157	0xbe51034e	-0.20411417
158	0xbe47f771	-0.19527985
159	0xbe0e0f79	-0.1387309
160	0xbe13df6d	-0.14440699
161	0x3cf818e3	0.030285304
162	0xbc2f2e34	-0.010692168
163	0xbdb057df	-0.0861051
164	0xbd60efb9	-0.054916117
165	0xbe411c61	-0.18858482
166	0xbdc99366	-0.09842567
167	0xbdfe64de	-0.12421583
168	0xbdcdf22f	-0.100559585
169	0xbe1c37de	-0.15255687
170	0x3d027b3a	0.0318558
171	0xbe524bf6	-0.2053679
172	0xbe758323	-0.23975806
173	0xbe465de8	-0.1937176
174	0xbe24ea6a	-0.16105047
175	0xbc6b7318	-0.014370702
176	0xbded5e90	-0.11590302
177	0x3d6f3502	0.05840016
178	0x3d521ebf	0.051298853
179	0x3d5e40bc	0.054260954
180	0x3d313c65	0.043270487
181	0xbd508683	-0.05090953
182	0x3c027066	0.007961368
183	0x3cc826ff	0.024432657
184	0xbdc9c3b4	-0.098517805
185	0x3b93bff0	0.0045089647
186	0xbd004750	-0.03131801
187	0x3dcbdfd5	0.09954802
188	0x3e11ac7c	0.14225954
189	0xbc6ab2a8	-0.0143248215
190	0xbdb1cdbe	-0.0868182
191	0x3e37f486	0.17964372
192	0x3e24cf28	0.16094649
193	0x3dc12c3c	0.09432265
194	0x3beaf704	0.00717056
195	0x3db19f4a	0.0867296
196	0xbd8f41fc	-0.069950074
197	0xbe23ad7b	-0.15984146
198	0xbdb07d74	-0.08617678
199	0xbd68f6cc	-0.05687599
200	0xbdf43cd1	-0.11925662
201	0xbd047d9b	-0.03234635
202	0x3de0c15c	0.109743804
203	0x3d479344	0.048724428
204	0x3df08386	0.11743836
205	0xbd89d236	-0.06729548
206	0x3b22f882	0.002486736
207	0x3dd7ec2e	0.105430946
208	0xbd3f135f	-0.046649333
209	0x3e190c94	0.14946204
210	0x3da44950	0.08021796
211	0x3de89fa1	0.11358572
212	0x3ddebe5e	0.108761534
213	0x3e8284e8	0.25492024
214	0x3e52db72	0.20591524
215	0x3d4794ff	0.048726078
216	0x3e6a4f7e	0.22881886
217	0x3e8dba5d	0.27681246
218	0x3e39259b	0.18080752
219	0x3e1b1d6a	0.1514794
220	0x3dc03faf	0.09387147
221	0x3d2b53be	0.04182791
222	0xbdaf0040	-0.085449696
223	0x3db6583a	0.08903547
224	0x3de37af9	0.111074395
225	0x3da07837	0.07835429
226	0x3c74df1e	0.014945773
227	0xbd2a9ed7	-0.041655388
228	0x3d242993	0.04007871
229	0xbdd53489	-0.10410411
230	0x3d74e4a6	0.05978837
231	0xbd89be17	-0.0672571
232	0x3d3e6842	0.046486147
233	0x3dbd25cb	0.09235724
234	0x3ca5bda6	0.020232033
235	0x3db24ea6	0.08706407
236	0xbde2d2da	-0.11075373
237	0xbc98d743	-0.018657332
238	0xbcdd46d8	-0.02701132
239	0x3dfd5db5	0.12371389
240	0x3d629837	0.055320945
241	0x3d2842ab	0.041079205
242	0x3d0db8d4	0.034600094
243	0x3e283671	0.16427018
244	0x3daa01d2	0.083011284
245	0xbcea5229	-0.02860363
246	0xbe03e2f1	-0.1287954
247	0xbdeb3e00	-0.11486435
248	0x3e2e9b99	0.17051543
249	0xbd03f052	-0.03221161
250	0x3c24f109	0.010067233
251	0x3d0e89a4	0.034799233
252	0xbdb52962	-0.08845784
253	0x3dfba32a	0.122869805
254	0xbd89d2e4	-0.06729677
255	0xbc63b470	-0.013898

bias f4 [32]
0	0xbe2ab25b	-0.166696
1	0xbcdcd913	-0.026958978
2	0x3d24e9d9	0.040262077
3	0xbdd759b5	-0.10515157
4	0xbc837cbc	-0.016050689
5	0x3e408ee1	0.18804504
6	0xbeaea72c	-0.34111917
7	0xbec67be1	-0.38766387
8	0xbdc8e509	-0.0980931
9	0xbc90e104	-0.01768542
10	0x3dfac10d	0.12243853
11	0xbd94ebfd	-0.07271574
12	0xbd9f099f	-0.07765507
13	0xbdcc7c08	-0.099845946
14	0xbc410abb	-0.0117823435
15	0xbdbe9457	-0.09305637
16	0xb9f5d89c	-0.00046891428
17	0xbeb72c73	-0.357761
18	0xbd0e3026	-0.034713887
19	0xbda86400	-0.082221985
20	0xbbc70444	-0.0060735065
21	0x3d8cdb0c	0.068777174
22	0x3d91ff39	0.07128758
23	0x3e169c53	0.1470807
24	0xbe9d2a0a	-0.30696136
25	0x3b8568c6	0.004071328
26	0xbe2cf9b9	-0.16892137
27	0x3e8ccee7	0.27501604
28	0xbe899b1b	-0.2687615
29	0x3d230c76	0.039806806
30	0xbdcd581b	-0.100265704
31	0x3dcafe20	0.09911752

weight f4 [32, 32, 5, 5]
0	0xb9d28df9	-0.000401601
1	0xbc66a7a6	-0.014078056
2	0xbcb7f498	-0.022455499
3	0xbc295d75	-0.010337223
4	0xbcf5e22b	-0.030015072
5	0x3d13f06d	0.03611796
6	0x3bf270aa	0.0073986845
7	0x3d0b0e3d	0.033949126
8	0x3d0c8b5b	0.034312587
9	0x3cc8c73b	0.024509063
10	0x3ccdc421	0.025117936
11	0x3c218ad9	0.009859764
12	0xbca9d5a2	-0.02073175
13	0x3ba87be4	0.005141722
14	0x3d0e70d0	0.034775555
15	0xbb4571cd	-0.0030127645
16	0xbc75973f	-0.014989673
17	0xbd6ec845	-0.05829646
18	0xbd0a5471	-0.033771936
19	0xbcc4c49e	-0.024019536
20	0x3d04ef99	0.03245506
21	0x3cceb552	0.025232945
22	0x3cdb78f0	0.026791066
23	0x3cd8ee38	0.026480779
24	0x3bee71d7	0.0072767544
25	0xbd1bed47	-0.038068082
26	0x3c2faec4	0.01072282
27	0xbca4594c	-0.020062111
28	0x3cd6d381	0.0262239
29	0xbc37fc2c	-0.011229556
30	0xbcb29de5	-0.021803806
31	0x3cc19866	0.02363224
32	0x3c774097	0.015091083
33	0x3c235bd1	0.009970621
34	0xbcd3b317	-0.025842233
35	0x3d388624	0.0450498
36	0xbc3f5b3e	-0.011679469
37	0x3c16a50d	0.009194625
38	0x3c4ff10d	0.012691748
39	0x3ceef3ca	0.029168982
40	0x3c94c53a	0.018160451
41	0x3d2e8371	0.04260582
42	0xbc029069	-0.007969
43	0x3c918b23	0.01776654
44	0x3cf1cac5	0.029515633
45	0x3a709f39	0.00091789995
46	0x3d84d937	0.06486743
47	0x3d509992	0.050927706
48	0x3d2f4969	0.04279462
49	0xbcafc483	-0.021456009
50	0x3d00030d	0.03125291
51	0x3d2b748a	0.041859187
52	0x3bfde423	0.0077481433
53	0x3cd7fce1	0.0263657
54	0x3d199b19	0.03750143
55	0x3c36e397	0.01116266
56	0xbc1c9bce	-0.009558631
57	0xbcf1d374	-0.029519774
58	0x3c46fbdb	0.012145008
59	0x3c6b6e4b	0.014369558
60	0xbd43aa96	-0.047770105
61	0xbc428c2f	-0.011874243
62	0x3c96279d	0.018329436
63	0x3c074071	0.00825511
64	0xbcfb2e39	-0.03066169
65	0x3b925729	0.0044659567
66	0x3ba01b34	0.0048860554
67	0xbd3973e0	-0.045276523
68	0xb9a659ca	-0.00031728885
69	0x3c2d40df	0.0105745485
70	0xbd388268	-0.04504624
71	0x3b6f0e84	0.0036477158
72	0xbc490b2c	-0.01227073
73	0xbc11f64f	-0.008908822
74	0x3d07a47e	0.033115856
75	0xbbc03817	-0.0058660614
76	0x3cc2071d	0.023685033
77	0xbcad2517	-0.02113585
78	0x3bf0d33e	0.007349401
79	0xbcad3be3	-0.02114672
80	0x3c74905e	0.014926998
81	0xbc4b9c21	-0.012427361
82	0xbbd1486d	-0.0063868077
83	0xbb8e9d92	-0.00435228
84	0x3af25987	0.0018489816
85	0x3c5e9f20	0.013587743
86	0x3b94314e	0.004522479
87	0x3d03b9f6	0.032159768
88	0x3c5c22c1	0.01343602
89	0x3c08f7e1	0.00835988
90	0xb88d788f	-6.74586e-05
91	0x3d1a995a	0.037743904
92	0x3d1a48a4	0.03766693
93	0x3ccc99cc	0.02497568
94	0x3caf4f5d	0.021400148
95	0x3c5462ea	0.012963036
96	0x3cb98737	0.022647483
97	0xbc8c9a37	-0.01716338
98	0x3c15d71c	0.009145524
99	0x3d0b5af9	0.034022305
100	0x3cea075c	0.028567962
101	0xbc978643	-0.018496638
102	0xbcf2bbbd	-0.029630536
103	0xbb60964f	-0.0034269278
104	0xbbbffc16	-0.0058589084
105	0xbcaad137	-0.020851715
106	0xbcc2829a	-0.023743916
107	0xbca3b6e4	-0.01998467
108	0xbd6374ea	-0.05553142
109	0xbc1207b5	-0.00891297
110	0xbba2687f	-0.0049563046
111	0xbd05bc6e	-0.032650404
112	0xbd038fe2	-0.03211964
113	0xbaa4a851	-0.0012562369
114	0xbc191749	-0.0093439305
115	0xbcd076d2	-0.025447283
116	0x3d03eb70	0.032206953
117	0x3d00d6b0	0.031454742
118	0x3c4c6fdf	0.012477844
119	0xbc2f0783	-0.010682943
120	0x3c247bc5	0.010039275
121	0x3beac618	0.007164728
122	0x3c88eab6	0.016713481
123	0xbcad8f27	-0.021186424
124	0x3ae7e3e9	0.0017691824
125	0x3ca567e5	0.020191142
126	0x3a6a142f	0.0008929399
127	0x3ca47622	0.020075861
128	0x3d6837d1	0.056693856
129	0xbca7e671	-0.020495625
130	0x3ccb4401	0.0248127
131	0x3ccc7da6	0.024962258
132	0x3d4bd165	0.04976024
133	0x3cd49248	0.025948659
134	0x3b05ed2e	0.002043556
135	0x3ca0c57b	0.019625416
136	0x3d63149b	0.055439573
137	0xbc95b378	-0.018274054
138	0xbcc9e80b	-0.02464678
139	0xbc4ea617	-0.012612841
140	0x3d8e953a	0.069620565
141	0xbc00b8b8	-0.00785654
142	0xbd42cb45	-0.047557134
143	0xbd110c1f	-0.03541195
144	0x3cf68e14	0.030097045
145	0x3ba6460b	0.0050742677
146	0xbd6ff445	-0.058582563
147	0x3ca6afa1	0.020347418
148	0x3d8cef1f	0.06881546
149	0x3b35813d	0.002769544
150	0x3c153993	0.009107965
151	0x3d3f4110	0.046692908
152	0x3d0aa0a6	0.033844613
153	0x3c397612	0.011319654
154	0x3d5050aa	0.050858177
155	0x3c74275e	0.014901964
156	0x3d0e9fbf	0.034820314
157	0x3d197ab8	0.03747055
158	0xbbd5b511	-0.006521829
159	0x3c99738a	0.018731851
160	0x3ae91ba5	0.0017784728
161	0x3c28b69e	0.010297446
162	0x3c41c7f0	0.011827454
163	0x3c7947bb	0.015214856
164	0xbbf8dcb5	-0.0075946697
165	0x3cafdffa	0.021469105
166	0x3b8f718e	0.0043775504
167	0x3d4d3d2b	0.050107162
168	0x3be08d74	0.0068528
169	0x3ad8e1bd	0.0016546767
170	0xbbe30ea9	-0.006929238
171	0x3d10a9f2	0.035318322
172	0x3d0beb26	0.034159802
173	0xbcc3ca83	-0.023900276
174	0x3d2460e3	0.04013146
175	0xbcf1a33a	-0.029496778
176	0xbd1381b1	-0.036012355
177	0xbcd5c378	-0.026094183
178	0x3cf15e24	0.029463835
179	0xbd1cf6fb	-0.038321476
180	0xbc8ca30e	-0.017167594
181	0xbae6bf30	-0.0017604586
182	0xbbdc86b1	-0.0067299237
183	0x3cd6e913	0.026234185
184	0xbcf0df16	-0.02940325
185	0xbb5db879	-0.0033831878
186	0xbab7ccfe	-0.0014022884
187	0x3d4b26f6	0.049597703
188	0x3d2facea	0.042889513
189	0x3d721307	0.059100177
190	0x3d24d6dd	0.040243972
191	0x3cf33c03	0.029691702
192	0x3d83f9da	0.0644414
193	0x3d98375f	0.07432436
194	0x3d751218	0.05983171
195	0x3d7657d2	0.060142346
196	0x3da49015	0.08035294
197	0x3d363abe	0.044489615
198	0x3d3ad21c	0.045610532
199	0x3d68c30c	0.056826636
200	0x3c227417	0.009915373
201	0x3cf3a494	0.029741563
202	0x3bfec2ea	0.0077747004
203	0xbd10a858	-0.035316795
204	0xbc30751d	-0.0107701095
205	0x3c7bc1b6	0.0153660085
206	0x3a1dd64c	0.00060210074
207	0xbcfe199a	-0.031018067
208	0xbd6fa819	-0.05850992
209	0x3acd861a	0.0015680224
210	0xbb8bfcd8	-0.0042720847
211	0xbc823d12	-0.015898261
212	0xbcfa5000	-0.030555725
213	0xbd48acb4	-0.048992828
214	0xbd2e4762	-0.042548545
215	0xbca5de15	-0.020247499
216	0x3d135922	0.035973676
217	0x3c0477d5	0.008085211
218	0x3d8ee20f	0.06976711
219	0xbc0468b2	-0.008081602
220	0xbd1fd448	-0.039020807
221	0x3d1d72d2	0.03843958
222	0x3c805ad6	0.015668314
223	0xb9aee861	-0.00033361002
224	0xbabfec28	-0.0014642524
225	0x3c373475	0.01118194
226	0xbc490cd0	-0.012271121
227	0xbd1db7d8	-0.038505405
228	0xbd1c5911	-0.038170878
229	0x3c2b2322	0.010445388
230	0x3cd01e23	0.025404995
231	0x3b3b9526	0.0028622835
232	0x3c8c5f1e	0.0171352
233	0xbccea621	-0.0252257
234	0xbc90cff9	-0.017677294
235	0x3a3f2a9e	0.0007292422
236	0x3d077d71	0.033078615
237	0x3c3aa074	0.011390794
238	0x3c836df9	0.01604365
239	0x3d390e05	0.045179386
240	0xbc64ed37	-0.013972572
241	0x3cb4bc4d	0.022062445
242	0x3c92828e	0.017884519
243	0x3d8d7eb6	0.06908934
244	0x3d561c82	0.05227328
245	0x3d0d62d9	0.034518097
246	0x3c9d831e	0.01922756
247	0x3cb4b892	0.022060666
248	0x3d6d8f79	0.057998154
249	0x3d37f5d3	0.04491217
250	0x3bdf2c5e	0.006810709
251	0xbc9894d3	-0.018625652
252	0xbca399e9	-0.019970851
253	0xbc3a0b9b	-0.011355306
254	0xbd2b89f3	-0.041879606
255	0x3d7001ec	0.058595583

bias f4 [32]
0	0xbcdd7426	-0.027032923
1	0x3cce773f	0.025203345
2	0xbe0580c6	-0.13037404
3	0xbd97367f	-0.07383441
4	0x3caabd7a	0.020842303
5	0xbb9f848d	-0.004868096
6	0x3cbe0ae0	0.023198545
7	0x3cb168d6	0.021656435
8	0xbe200290	-0.15625978
9	0xbd7eae38	-0.062177867
10	0xbe728250	-0.23682523
11	0xbd7efa6e	-0.062250547
12	0x3e02c875	0.12771781
13	0xbd681002	-0.05665589
14	0xbe1f9fef	-0.15588354
15	0xbd25e777	-0.040503945
16	0xbd428901	-0.04749394
17	0x3c642ae1	0.013926239
18	0xbe0e10b7	-0.13873564
19	0xbe0c2c10	-0.13688684
20	0xbde44271	-0.11145485
21	0x3c89b562	0.016810123
22	0xbd411849	-0.0471423
23	0x3d37fb10	0.044917166
24	0xbd042a0c	-0.03226666
25	0xbd1bd9e7	-0.038049605
26	0xbd3bea85	-0.045877952
27	0xbde72f1c	-0.11288282
28	0xbe099ff2	-0.1343992
29	0xbcf629bc	-0.030049197
30	0xbde9c15a	-0.11413832
31	0xbdfe81cc	-0.124271005

weight f4 [64, 32, 5, 5]
0	0xbd160309	-0.03662399
1	0x3cb56e6c	0.02214738
2	0x3ca1085a	0.019657303
3	0x3c94e03b	0.018173328
4	0x3d0bbd91	0.03411633
5	0x3ae6e31b	0.001761529
6	0x3c98a2ae	0.01863226
7	0xbc872d84	-0.016501196
8	0xbce3a0d9	-0.02778666
9	0xbc144f30	-0.009052083
10	0xbc9ee150	-0.019394547
11	0x3ba40388	0.005005304
12	0x3cafbb18	0.021451518
13	0xbca9f0d2	-0.020744715
14	0x3bea5dfd	0.0071523176
15	0xbcd96f78	-0.02654241
16	0x3c57dd8c	0.0131753795
17	0xbd014cee	-0.031567506
18	0x3caaf52f	0.020868866
19	0xbc0dfa46	-0.008665627
20	0x3cda0ffe	0.026618954
21	0x3d40295e	0.04691445
22	0xbb2d4e03	-0.0026444204
23	0xbc75cec7	-0.015002913
24	0xbcf68551	-0.030092867
25	0x3c45bbde	0.012068717
26	0xbd7e3c98	-0.062069505
27	0x3cf6a7d5	0.030109325
28	0x3c96b1cc	0.018395327
29	0xbb8232af	-0.003973327
30	0x3c9da865	0.019245336
31	0xbc15c937	-0.009142212
32	0xbb765a3c	-0.0037590405
33	0x3c117edd	0.008880344
34	0xbc9dab20	-0.019246638
35	0xbbc18e75	-0.005906875
36	0xbadd34af	-0.0016876663
37	0x3c86ba3e	0.01644623
38	0x3bb247f0	0.0054407045
39	0xbcdc5519	-0.026896046
40	0x3c96684f	0.018360285
41	0xbcaf3593	-0.02138785
42	0xbc8c991c	-0.017162852
43	0x3c668344	0.014069382
44	0xbbf20bd8	-0.007386666
45	0xbcf9b741	-0.03048289
46	0x3b0b7a08	0.0021282453
47	0xbd01da73	-0.03170247
48	0x3d4df65b	0.05028377
49	0x3ce0e4b0	0.027452797
50	0xbcb355ad	-0.02189144
51	0x3bba700a	0.0056896256
52	0x3ca19d30	0.019728273
53	0xbd3dfa95	-0.04638155
54	0xbb0b9f44	-0.0021304647
55	0xbd755cdf	-0.059903022
56	0xbd7be0ad	-0.061493564
57	0x3a0f95e9	0.00054773554
58	0x3bd36c4c	0.006452119
59	0xbcce7040	-0.02520001
60	0xbd1b4d79	-0.03791568
61	0xbc581753	-0.013189155
62	0xbba719d5	-0.005099515
63	0x3d0cecc2	0.034405477
64	0x3ce61c2a	0.028089602
65	0xbd8ddd1f	-0.06926941
66	0x3ce4f6ea	0.027949769
67	0x3c948369	0.018129067
68	0x3d1d73b5	0.038440425
69	0x3d214f05	0.039382
70	0xbc466492	-0.012108939
71	0x3c42d800	0.011892319
72	0x3d6a4278	0.057192296
73	0x3d7ba9e0	0.061441302
74	0x3d8639aa	0.06553967
75	0xbd23df2d	-0.04000776
76	0xbc0f1ee1	-0.008735389
77	0xbb66f4cf	-0.0035241132
78	0xbca9e439	-0.020738708
79	0x3d139e3c	0.036039576
80	0x3c11f18b	0.008907686
81	0xbd0b6680	-0.0340333
82	0x3c0a2eab	0.008433978
83	0x3d4ae8ae	0.049538307
84	0x3bfe28cf	0.0077563296
85	0xba95150e	-0.0011374073
86	0x3a1a3c20	0.0005883593
87	0xbc81a285	-0.015824566
88	0xbd4c2d27	-0.049847748
89	0xbd46dce6	-0.04855051
90	0x3ca0a065	0.019607732
91	0xbb05b33f	-0.0020401028
92	0x3c7a14af	0.01526372
93	0xbcc628b8	-0.024189338
94	0xbd4336c9	-0.04765967
95	0x3b9a2dc2	0.004705162
96	0xbd03acd8	-0.03214726
97	0xbd3138b1	-0.043266956
98	0xbc03352a	-0.008008281
99	0xbd210ed5	-0.039320786
100	0xb9e8f2af	-0.00044431302
101	0x3a84311d	0.0010085438
102	0x3c69b774	0.01426493
103	0x3c8f2c63	0.01747722
104	0xbcecfcc4	-0.028929122
105	0xbcf64e96	-0.03006677
106	0x3d40e87e	0.04709672
107	0x3d2b5132	0.04182548
108	0xbbd85425	-0.0066018277
109	0x3cc88db2	0.024481628
110	0xbcaeba83	-0.02132917
111	0xbcc596bf	-0.024119733
112	0x37c99372	2.4029727e-05
113	0x3d1289f6	0.0357761
114	0x3b7198c3	0.0036864735
115	0xbc1fa319	-0.009743475
116	0xbc521cdd	-0.012824264
117	0xbbba9106	-0.0056935577
118	0xbbb00c14	-0.0053725336
119	0xbcc582fb	-0.024110308
120	0xbca2f985	-0.01989437
121	0xbc4a388d	-0.012342584
122	0xbc9516f9	-0.01819943
123	0xbd13ab8c	-0.03605227
124	0xbb918c55	-0.0044417777
125	0xbc56da58	-0.013113581
126	0x3cae53c7	0.021280183
127	0xbd164885	-0.036690254
128	0xbce46454	-0.027879871
129	0x3cfca7b8	0.030841693
130	0xbcc65624	-0.024210997
131	0xbb89d897	-0.0042067277
132	0xbd5c03f9	-0.053714726
133	0xbc680303	-0.014160874
134	0xbca4695d	-0.020069772
135	0xbd1070c9	-0.03526381
136	0x3c7259a5	0.014791881
137	0xbd014ef2	-0.03156943
138	0xbcb83805	-0.02248765
139	0xbd05ccef	-0.032666143
140	0x3b502d82	0.0031765406
141	0x3c872446	0.016496789
142	0xbce8ee18	-0.028433844
143	0xbd1310a9	-0.03590456
144	0xbcc0559d	-0.023478324
145	0xbc8afe41	-0.01696694
146	0xbd1417f5	-0.03615566
147	0xbd0a30fa	-0.033738114
148	0xbca4377a	-0.020045985
149	0x3bb36c5e	0.005475565
150	0xbce8f378	-0.028436407
151	0x3c224217	0.009903452
152	0x3c1692ff	0.00919032
153	0xbaad31bd	-0.0013213676
154	0x3b2bbb40	0.002620414
155	0xbd1cb4fb	-0.038258534
156	0x3cad8add	0.02118438
157	0x3d0bc2a9	0.03412119
158	0x3b723230	0.0036956184
159	0xbcb58084	-0.022156008
160	0xbd15620f	-0.03647047
161	0xbb8bb003	-0.0042629256
162	0xbd03c7f5	-0.032173116
163	0xbbdf481b	-0.0068140156
164	0xbce733c0	-0.028222919
165	0xbd030cec	-0.031994745
166	0xb83aaba2	-4.45057e-05
167	0x3c6c9bc3	0.014441433
168	0x3bbd6007	0.0057792696
169	0x3d2b4837	0.041816916
170	0x3cfe4ada	0.031041551
171	0xbaa34600	-0.0012456775
172	0x3c0c7a59	0.008574092
173	0xbc9e07ef	-0.019290892
174	0xbc635060	-0.013874143
175	0xbc21c67c	-0.0098739825
176	0xbc51978f	-0.012792482
177	0x3c940c30	0.018072218
178	0xbca7bbd2	-0.020475302
179	0xbcc832f3	-0.024438357
180	0x3d01a007	0.031646755
181	0x3d00fe06	0.031492256
182	0x3cc8043e	0.024416085
183	0x3c989022	0.018623415
184	0x3cbfb76d	0.023402894
185	0x3a81b078	0.0009894511
186	0x3ccfd01b	0.025367787
187	0x3c38687d	0.011255381
188	0x3c071898	0.00824561
189	0xbc9278bb	-0.017879834
190	0x3b5a64bb	0.00333242
191	0x3d1ad97c	0.037805066
192	0x3d2eba5c	0.042658195
193	0x3d065907	0.032799747
194	0xbc4e7071	-0.01260005
195	0xbcf39d60	-0.029738128
196	0x3bbbf23d	0.005735664
197	0x3d0f20e3	0.034943473
198	0x3bdd090b	0.006745463
199	0xbc830f95	-0.015998641
200	0x3c8ab513	0.016932046
201	0x3ca98d31	0.020697208
202	0xbc8e77fb	-0.017391196
203	0xbbf87724	-0.007582562
204	0xbb8bb38e	-0.004263348
205	0xbc635f53	-0.0138777075
206	0xbc2d126c	-0.010563474
207	0xbc497b95	-0.012297531
208	0xbc908447	-0.0176412
209	0x3cc23a4d	0.02370944
210	0xbd3367ad	-0.043800045
211	0xbcc5f22b	-0.024163326
212	0xbd0163db	-0.03158937
213	0x3baaa54c	0.005207693
214	0xbc9a3212	-0.018822704
215	0xbd163604	-0.036672607
216	0x3c9ee23f	0.019394992
217	0x3baddfa2	0.0053062
218	0xbc2c1bb4	-0.010504652
219	0x3d1cf717	0.03832158
220	0xbd7ac93e	-0.061227076
221	0x3ce4d127	0.027931763
222	0xbbc46751	-0.0059937616
223	0xbc25395a	-0.010084474
224	0xbc772624	-0.015084777
225	0x3b9c29a3	0.0047657057
226	0xbd0bc1dc	-0.034120426
227	0xbad2e4cf	-0.0016089919
228	0xbc18bd2d	-0.009322447
229	0x3a9e243a	0.001206524
230	0xbc820086	-0.01586939
231	0x3b2833ab	0.0025665562
232	0xbc7c8527	-0.015412605
233	0xbd3c5352	-0.045977898
234	0xbbb26d06	-0.0054451255
235	0x3cf83d11	0.030302556
236	0xbd0a3b55	-0.03374799
237	0xbc49d8e3	-0.012319776
238	0xbd1b13d9	-0.037860725
239	0x3b6d8a55	0.0036245782
240	0x3cca4501	0.024691107
241	0xbd46441a	-0.04840479
242	0x3c32068a	0.010865817
243	0xbb50f9a2	-0.0031887074
244	0xbc5e0d01	-0.013552905
245	0xbb262f0b	-0.002535763
246	0xbd5c5077	-0.053787675
247	0xbb225963	-0.0024772517
248	0xb99c52e5	-0.000298164
249	0xbd6a75ac	-0.057241127
250	0xbc955e3e	-0.018233415
251	0xbd565771	-0.052329484
252	0xbcc8fb5b	-0.024533918
253	0x3d1857fe	0.03719329
254	0xba4b3b9d	-0.00077527185
255	0xbccd4d58	-0.025061294

bias f4 [64]
0	0xbdb9965e	-0.090618834
1	0x3cd06072	0.025436614
2	0xbd7a8e11	-0.06117064
3	0xbc9e3ce8	-0.019316152
4	0xbe1bd357	-0.15217339
5	0xbd4b8bf4	-0.049694017
6	0xbd83dce3	-0.06438615
7	0xbd742d9a	-0.0596138
8	0xbb7e838d	-0.0038835735
9	0x3c26b520	0.0101750195
10	0xbd9a2594	-0.07526699
11	0xbd2d5608	-0.042318374
12	0xbdb2a2d4	-0.08722463
13	0xbd753f0f	-0.05987459
14	0x3d17d492	0.037067957
15	0xbd2962eb	-0.0413541
16	0xbd52cc6c	-0.051464483
17	0xbd2c48a7	-0.042061474
18	0xbd30c4d9	-0.04315648
19	0xbd2e4006	-0.042541526
20	0xbce95760	-0.028484046
21	0x3accb10f	0.0015616732
22	0xbc6574b0	-0.014004871
23	0xbc804583	-0.015658146
24	0xbc5bb79f	-0.013410478
25	0xbdcb93b6	-0.09940283
26	0xbd0c3f16	-0.03423985
27	0xbd3ddc8f	-0.04635292
28	0xbd9d14d9	-0.07669992
29	0xbd17727b	-0.03697441
30	0x3bd299d9	0.0064270315
31	0xbd525b18	-0.051356405
32	0xbd5c7132	-0.05381889
33	0x3901e6be	0.00012388357
34	0xbd9fe439	-0.07807202
35	0xbd0ba8db	-0.03409658
36	0xbd257376	-0.040393315
37	0xbcd0f021	-0.025505127
38	0x3abf29e0	0.0014584623
39	0xbd526508	-0.051365882
40	0xbd72e91e	-0.05930435
41	0xbe111545	-0.1416827
42	0xbe08c527	-0.13356458
43	0xbd76d70a	-0.06026367
44	0xbc3f8243	-0.011688772
45	0xbda6b53e	-0.08140038
46	0xbb915ed6	-0.004436354
47	0xbd94023d	-0.072269894
48	0xbcc0db06	-0.023541939
49	0xbdb3ac86	-0.087731406
50	0xbdbba1dc	-0.091617316
51	0xbe117743	-0.14205651
52	0xbdb4066d	-0.08790288
53	0xbb017f22	-0.0019759615
54	0xbd88101d	-0.06643698
55	0xbcc5fcea	-0.02416845
56	0xba533ef5	-0.00080583926
57	0xbd9ee31b	-0.07758161
58	0xbd8bcfaa	-0.06826718
59	0xbd72498a	-0.059152164
60	0xbce0b0df	-0.027428089
61	0xbd9d3fab	-0.07678159
62	0xbd5702c4	-0.052492872
63	0xbd358699	-0.044317815

weight f4 [64, 1024]
0	0xbc0efdfb	-0.008727546
1	0x3d51babc	0.051203474
2	0x3d1255f0	0.035726488
3	0x3c33a8b8	0.010965519
4	0x3d7d1e64	0.06179656
5	0x3d33e3b9	0.043918345
6	0x3ceec457	0.029146357
7	0xbb5897f6	-0.003304956
8	0xba3a5e21	-0.0007109363
9	0xbc295709	-0.010335692
10	0x3d2248ef	0.039620336
11	0x3b92c1d0	0.0044786707
12	0xbc9608f5	-0.018314818
13	0xbc30c6f3	-0.010789621
14	0xbae24091	-0.0017261674
15	0xbb284c76	-0.002568034
16	0xbcd5ae4f	-0.026084093
17	0x3bb98210	0.0056612566
18	0x3bcd652b	0.0062681637
19	0x3b8413a6	0.0040306626
20	0xbd3310d3	-0.043717217
21	0xbbd5eb54	-0.0065282974
22	0x3d21e6ae	0.039526634
23	0x3c787cb4	0.01516645
24	0xbc59b9ab	-0.013288896
25	0xbd2024be	-0.03909754
26	0xbd123c66	-0.03570213
27	0xbd58bf6d	-0.052916933
28	0x3cd01928	0.02540262
29	0xbcc134b4	-0.023584701
30	0xb9f698e9	-0.00047034703
31	0x3b1ecb26	0.0024229973
32	0x3c47fa0a	0.01220561
33	0x3cabde69	0.020980077
34	0xbc4dd53a	-0.012563044
35	0x3bb49004	0.005510332
36	0x3c180594	0.009278674
37	0xbd066b03	-0.032816898
38	0x3a8f192b	0.0010917535
39	0x3b348814	0.002754693
40	0x3c84fe2d	0.016234482
41	0xbc66f1e5	-0.014095758
42	0x3d317230	0.04332179
43	0x3c042516	0.008065483
44	0x3ccf1856	0.025280159
45	0x3c348681	0.011018396
46	0xbc3925c3	-0.011300507
47	0x3d361544	0.044453874
48	0xbc5727b7	-0.013132027
49	0xbcb3eb79	-0.021962868
50	0x3d013d06	0.031552337
51	0xbc5856c3	-0.013204279
52	0x3cfdb0c3	0.030968076
53	0x3bd2e10f	0.0064355205
54	0xbc34852b	-0.011018078
55	0xbb9732c2	-0.004614205
56	0x3d97d6f4	0.07414046
57	0x3b7d8706	0.0038685217
58	0xba03c6c5	-0.00050268724
59	0x3d092019	0.033477876
60	0x3d5a4ae4	0.053294078
61	0x3cda0ca0	0.026617348
62	0x3d443b85	0.047908325
63	0x3d5c20bc	0.053742155
64	0xbcaf7e74	-0.021422602
65	0x3d788068	0.060669333
66	0xbc4f26b0	-0.012643501
67	0x3ca0e7b2	0.019641731
68	0x3d113eda	0.03546033
69	0x3c8a40d8	0.016876623
70	0xbc91ab54	-0.01778189
71	0x3d2c4bbe	0.04206442
72	0xbc03ef3a	-0.0080526415
73	0xb8c1f35c	-9.2482864e-05
74	0x3d498b43	0.049205076
75	0x3c32e1f6	0.010918131
76	0x3ccfc394	0.025361814
77	0xbd02cf0d	-0.03193574
78	0x3bd9ab47	0.0066427323
79	0xbd1c1371	-0.03810448
80	0xbbf9eb03	-0.0076268925
81	0x3d0c9406	0.034320854
82	0x3c8835ac	0.016627155
83	0x3d137658	0.036001533
84	0xbcdcf949	-0.026974337
85	0x3cb8d5d3	0.022562897
86	0x3c4e7dbe	0.012603221
87	0x3c73c1da	0.014877761
88	0x3c95a4d6	0.018267076
89	0x3c32ad2f	0.010905548
90	0xba2167bc	-0.000615712
91	0xbcc35b26	-0.023847174
92	0xbc7d6071	-0.015464888
93	0x3bf33184	0.007421674
94	0x3c2434f3	0.01002239
95	0x3cc66fa4	0.024223156
96	0xbbb22560	-0.0054365844
97	0x3d0843d0	0.033267796
98	0x3d2259ac	0.0396363
99	0x3be2991f	0.006915226
100	0xbcc979fa	-0.024594296
101	0xbb48e25d	-0.00306525
102	0xbd079026	-0.033096455
103	0xbd6ff8ff	-0.05858707
104	0x3c85239b	0.01625233
105	0x3d0819a5	0.03322758
106	0xbc66c6c3	-0.014085474
107	0x3d39be07	0.04534724
108	0x3b8c59a2	0.004283146
109	0x3d6c29a3	0.057656895
110	0xbaed46cd	-0.0018102765
111	0x3cc9773c	0.024592988
112	0x3caefedc	0.02136176
113	0x3bdf9a59	0.0068238196
114	0x3c2a9916	0.010412475
115	0xbb60b3de	-0.0034286897
116	0xbc862ca0	-0.0163787
117	0xbcf86cfd	-0.030325407
118	0xbcd9e70d	-0.026599431
119	0x3bea9c95	0.0071597793
120	0xbc14362f	-0.0090461215
121	0xbd6a3b1f	-0.05718529
122	0x3abb590e	0.0014293508
123	0xbc77e307	-0.015129811
124	0xbca9b3bd	-0.020715589
125	0x3cc80c65	0.024419973
126	0xbc90076b	-0.017581662
127	0x3ce1b43a	0.027551759
128	0x3c602757	0.013681254
129	0xbd2d77d0	-0.04235059
130	0xbd564aa7	-0.052317288
131	0xbd235d58	-0.03988394
132	0x3d806ea5	0.06271104
133	0x3bed0f27	0.0072344723
134	0xbc7cfa11	-0.01544048
135	0xbd48d5a0	-0.049031854
136	0xbbb5d74b	-0.0055493466
137	0x3ba9f92f	0.0051871757
138	0xbcfb7342	-0.030694608
139	0x3cc6b775	0.024257401
140	0x3ad81575	0.0016485887
141	0xbd7a511d	-0.061112512
142	0xbcde29ee	-0.027119603
143	0x3d27a0c9	0.04092482
144	0x3c906154	0.017624535
145	0xbcb6a2ea	-0.02229448
146	0x3ce5e150	0.028061539
147	0xbce3eff2	-0.027824376
148	0x3ada5a43	0.001665898
149	0xba72183e	-0.000923518
150	0xb9874192	-0.0002579806
151	0x3ba7e6e8	0.0051239617
152	0x3cd8deaa	0.026473362
153	0xbbafc777	-0.0053643542
154	0xbca9b46b	-0.020715913
155	0xbcae0436	-0.021242242
156	0x3b9e9e11	0.0048406203
157	0x3a4702c3	0.0007591659
158	0xbcffb070	-0.031212062
159	0xbb21c523	-0.0024684153
160	0xbcc9e7f1	-0.024646731
161	0xbd4e0235	-0.050295074
162	0x3a8a9323	0.0010572415
163	0xbce88899	-0.028385447
164	0xbce4ff36	-0.027953725
165	0xbb887cf4	-0.004165286
166	0x3d033672	0.032034345
167	0xbb4d2827	-0.003130445
168	0x3cade174	0.021225668
169	0x3c6fddbb	0.014640267
170	0x3d00ad1d	0.031415094
171	0x398bc380	0.00026657805
172	0x3c296287	0.010338432
173	0x3cce2cc9	0.02516784
174	0x3d857c87	0.06517892
175	0xbca38a82	-0.019963507
176	0x3cfa3044	0.030540593
177	0xbc2b68e8	-0.010462023
178	0xbc66ba7d	-0.014082548
179	0x3cc58255	0.024109999
180	0xbc9cab2a	-0.019124586
181	0x3da8b320	0.082372904
182	0xbc9ac788	-0.018893972
183	0x3d24d8a1	0.040245656
184	0x3c0aad6a	0.008464197
185	0x3ce0f47f	0.027460335
186	0xbbf90bc5	-0.00760028
187	0x3ccee144	0.0252539
188	0x3cb7342e	0.022363748
189	0x3c2a993b	0.01041251
190	0x3d46cd79	0.048535798
191	0x3cc02ea1	0.023459734
192	0x3c7f6b59	0.0155895585
193	0x3d67f7ee	0.05663293
194	0x3c82c576	0.015963297
195	0x3be3992d	0.00694575
196	0x3c7f0856	0.015565952
197	0xbb523a0b	-0.0032078053
198	0x3d092397	0.033481207
199	0xbd12c1ba	-0.035829283
200	0x3c973aa4	0.01846058
201	0x3cbe07b4	0.023197033
202	0xbc3c56a1	-0.011495263
203	0xbcc21744	-0.023692735
204	0x3cfb8798	0.030704305
205	0xbcc951b5	-0.024575094
206	0x3c8b86c7	0.01703204
207	0xbd132197	-0.035920706
208	0xbd0f2073	-0.034943055
209	0x3be8ec67	0.0071082595
210	0xbb7ae08d	-0.0038280815
211	0x3d6adce4	0.057339564
212	0xbcb52e40	-0.02211678
213	0x3d2a5418	0.041584104
214	0x3c5fbc1a	0.013655687
215	0x3c64cbf3	0.013964641
216	0x3bc63d38	0.0060497783
217	0xbc4b3886	-0.012403613
218	0xbd0de5e8	-0.034643084
219	0x3cd010f8	0.025398716
220	0x3ac6262b	0.0015117576
221	0xbca20ac6	-0.019780528
222	0x3bd8fbd5	0.0066218176
223	0x3c6bdff3	0.014396655
224	0xbd0777f2	-0.033073373
225	0xb9fa3c57	-0.00047728673
226	0xbcfcfb5f	-0.030881582
227	0xbca10a01	-0.01965809
228	0x3b650e42	0.0034951125
229	0xba11c380	-0.0005560443
230	0xbc6fedb1	-0.014644072
231	0xbcd9a9db	-0.026570251
232	0x3d329510	0.04359919
233	0x3c9f7f70	0.019469947
234	0xbc10190c	-0.008795034
235	0xbc5a0701	-0.013307334
236	0x3cbe72e9	0.023248153
237	0x3cd6d09b	0.026222518
238	0x3c4d61a1	0.012535484
239	0x3c99f1e2	0.018792097
240	0xbbaa10cd	-0.005189991
241	0x3d182705	0.037146587
242	0x3b67233b	0.0035268802
243	0x3b1dcbbb	0.0024077732
244	0x3ba01a41	0.004885942
245	0xbb6ad384	-0.003583164
246	0xbca658db	-0.020306041
247	0xbbb11714	-0.0054043625
248	0x3b3a8b15	0.0028464247
249	0xbd06efd4	-0.03294356
250	0x3c7d5aef	0.015463575
251	0x3bb0b9ae	0.0053932285
252	0x3d08f6cd	0.033438493
253	0x3d87190d	0.06596575
254	0x3da86356	0.08222072
255	0x3c86acf8	0.0164399

bias f4 [64]
0	0xbcc5b7cf	-0.024135498
1	0xba0661f5	-0.0005126291
2	0xbd23f666	-0.040029906
3	0xbc90d9ff	-0.017682074
4	0x3c334028	0.010940589
5	0x3c9c8e68	0.019110873
6	0xb82cf123	-4.123257e-05
7	0xbd02a3cf	-0.0318945
8	0x3c63e850	0.013910368
9	0xbd5ce122	-0.05392564
10	0x3b7a5639	0.0038198365
11	0x3b37c539	0.0028041138
12	0x3b828f74	0.003984386
13	0x3d272497	0.04080638
14	0xbc5c6766	-0.0134523865
15	0xbc0ba50c	-0.008523237
16	0x3cb03b9f	0.021512805
17	0x3ce62f3b	0.028098693
18	0xbd913cc0	-0.07091665
19	0xbb990c6c	-0.0046706703
20	0xbb1d4931	-0.0023999924
21	0xbc54a0a5	-0.012977754
22	0xbc3e67bc	-0.011621412
23	0x3d51df4a	0.051238336
24	0x3c90433a	0.017610181
25	0x3d41073d	0.047126044
26	0x3cae73f3	0.021295523
27	0x3d04ef8e	0.03245502
28	0x3d4da598	0.05020675
29	0x3d054960	0.03254068
30	0xbc75c166	-0.014999723
31	0x3ba2bbde	0.004966243
32	0xbd28ff65	-0.04125919
33	0x3d1e5cd1	0.038662735
34	0x3b76f227	0.0037680955
35	0xbc391842	-0.011297287
36	0xbc4d5897	-0.0125333285
37	0x3cdb4ea1	0.026770892
38	0xbd4b09e9	-0.049569998
39	0xbba538da	-0.0050421776
40	0xbd50b78d	-0.050956298
41	0xbc551b08	-0.013006933
42	0xbbfc5731	-0.0077008237
43	0x3cbbc5ab	0.022921404
44	0x3b0acdfc	0.0021179905
45	0xbb019a31	-0.0019775743
46	0x3d3e3dc9	0.04644564
47	0xbd0640f5	-0.03277679
48	0x3d92fe90	0.0717746
49	0x3c8ae5d0	0.016955286
50	0xbc0fccd6	-0.008776864
51	0xbcd856cc	-0.026408575
52	0xbd23bd53	-0.039975476
53	0x3b12c583	0.0022395558
54	0xb9f15685	-0.00046031564
55	0x3c5df64c	0.013547491
56	0x3d7f275b	0.06229339
57	0xbca52b24	-0.020162173
58	0xbc09c637	-0.0084090745
59	0x3ca5d06c	0.020240985
60	0xbd797aa9	-0.060907993
61	0xbb30ca62	-0.0026976098
62	0x3c29838f	0.010346307
63	0xbd5b8047	-0.05358913

weight f4 [10, 64]
0	0x3d913265	0.0708969
1	0x3d576bc1	0.052592997
2	0x3e0c94c1	0.1372862
3	0xbe5be014	-0.21472198
4	0xbe36c60d	-0.17848988
5	0x3e364d32	0.17802885
6	0xbe8e2b9a	-0.2776764
7	0x3e991fef	0.29907176
8	0xbdd9b475	-0.106301226
9	0x3c5a058c	0.013306987
10	0xbe07bfc8	-0.13256752
11	0x3d4f31fa	0.05058477
12	0x3ba830fa	0.0051327916
13	0xbdddf1c1	-0.108371265
14	0xbd05cfee	-0.032669
15	0xbd2dbec7	-0.042418268
16	0x3cef7dfb	0.029234877
17	0xbe83fc08	-0.25778222
18	0x3cfa604b	0.030563494
19	0x3d51d739	0.051230643
20	0xbc0074d3	-0.007840353
21	0xbdbde3f0	-0.09271991
22	0xbcf4f488	-0.029901758
23	0x3d696748	0.056983262
24	0xb985fabc	-0.00025554548
25	0xbe2f8a1b	-0.17142527
26	0xbdfaf02d	-0.12252841
27	0x3e322977	0.1739863
28	0xbe881517	-0.2657859
29	0xbe346aed	-0.17618914
30	0xbd403da2	-0.046933778
31	0x3cab42a9	0.02090581
32	0xbdcbf887	-0.09959512
33	0x3e0032f1	0.12519433
34	0xbbda7f39	-0.006667998
35	0x3ea41544	0.32047474
36	0x3e3f1bc8	0.18662941
37	0x3e00895e	0.12552401
38	0x3d64a983	0.05582572
39	0xbea534f8	-0.32266974
40	0x3e32cd24	0.17461067
41	0xbdc2d2d4	-0.095128685
42	0xbe1f2998	-0.1554321
43	0xbe175ea9	-0.14782204
44	0x3da73e11	0.08166135
45	0x3dabeead	0.08395133
46	0xbe24f56f	-0.1610925
47	0xbe06c684	-0.13161665
48	0xbe88fbef	-0.2675471
49	0xbc9eee61	-0.019400777
50	0x3e1852de	0.14875361
51	0x3e373f1a	0.17895165
52	0xbe32a25b	-0.17444746
53	0xbdc8501b	-0.09780904
54	0xbc04c527	-0.008103645
55	0x3ca4885d	0.020084554
56	0xbd613569	-0.054982577
57	0xbbbdfe27	-0.0057981196
58	0xbd845c4d	-0.064629175
59	0xbdd68819	-0.10475177
60	0x3e11edfc	0.1425094
61	0xbe805301	-0.25063327
62	0x3de803a2	0.11328818
63	0x3e85093c	0.25983608
64	0x3e707894	0.23483497
65	0xbe48cdd2	-0.19609764
66	0xbe59f73a	-0.21285716
67	0x3e6c4836	0.23074421
68	0xbd1bb163	-0.038010966
69	0xbe079185	-0.13239105
70	0xbdc333c2	-0.095313564
71	0x3dbd3f06	0.092405364
72	0x3e35184e	0.17685053
73	0xbdfe42d6	-0.12415092
74	0xbdb63f26	-0.08898763
75	0xbdffb207	-0.12485128
76	0x3c8c82d0	0.01715222
77	0xbe5e3f85	-0.21703918
78	0xbe08263f	-0.1329584
79	0xbd730f15	-0.059340555
80	0x3c380434	0.011231471
81	0xbe705dfe	-0.23473355
82	0x3d57951a	0.05263243
83	0x3e28869e	0.16457602
84	0xbe2310fb	-0.15924446
85	0x3ea5e35f	0.32400033
86	0x3de8c0bc	0.11364886
87	0x3e4bbcb6	0.19896206
88	0x3e8ab45e	0.27090734
89	0x3d2efe9e	0.04272329
90	0x3e417fd0	0.18896413
91	0xbe0ea262	-0.13929132
92	0xbe437af0	-0.19089866
93	0x3e0bf50e	0.136677
94	0xbd227a21	-0.039667252
95	0x3d638a72	0.055551954
96	0xbdcdc8d1	-0.10048068
97	0xbe8003ea	-0.25002986
98	0xbde5fee0	-0.11230254
99	0xbe9f4734	-0.3110901
100	0x3db70a35	0.08937494
101	0x3e6edfd9	0.23327579
102	0xbe48466d	-0.19558115
103	0xbe52bf54	-0.20580798
104	0xbe1dfc77	-0.15428339
105	0x3e4a6dd9	0.19768466
106	0x3e73e527	0.23817883
107	0x3e3d5805	0.18490608
108	0xbe7ecde5	-0.2488323
109	0x3b1ba744	0.002375082
110	0xbd5393fe	-0.05165481
111	0x3d24deb8	0.040251464
112	0xbe51a081	-0.20471384
113	0xbd8f497a	-0.069964364
114	0x3c646088	0.0139390305
115	0xbe6689c8	-0.22513497
116	0xbe0b6bbe	-0.13615319
117	0x3e9b2ced	0.30307713
118	0x3e476de0	0.19475508
119	0x3e7f8aae	0.24955246
120	0xbe960791	-0.29302648
121	0xbe169106	-0.1470376
122	0x3e93c35d	0.28859988
123	0xbd887cc5	-0.06664423
124	0xbd7b8b8f	-0.06141239
125	0xbc432dbb	-0.011912758
126	0x3e5233ac	0.20527524
127	0xbe57794f	-0.2104237
128	0xbe55483c	-0.20828336
129	0x3cbf8fbf	0.023383973
130	0xbcc6be11	-0.024260553
131	0xbe092be2	-0.13395646
132	0xbe64e8e4	-0.22354466
133	0x3ea1d2b5	0.3160607
134	0x3d8f4a8e	0.06996642
135	0x3e2f4fbe	0.17120263
136	0xbd9e3766	-0.0772541
137	0x3d09b437	0.033619132
138	0x3cecf6f7	0.028926356
139	0xbc5e3354	-0.013562042
140	0xbe27c78c	-0.16384715
141	0x3d02809b	0.03186093
142	0x3d92976c	0.07157788
143	0x3e8164dc	0.25272262
144	0xbdbb5c8a	-0.0914851
145	0xbdca8abd	-0.098897435
146	0x3e6ccda1	0.23125316
147	0xbe80f0a0	-0.25183582
148	0x3d98d0c4	0.07461694
149	0xbc44dfb9	-0.01201623
150	0x39222b15	0.00015465573
151	0xbd98992a	-0.07451089
152	0x3d8cdd2a	0.06878121
153	0xbe35ca7f	-0.17753027
154	0xbe8588cc	-0.2608093
155	0xbe8e7c97	-0.2782943
156	0x3c8b469e	0.017001446
157	0x3dbae39c	0.09125444
158	0xbcc79f8b	-0.024368068
159	0x3d1fca4f	0.039011296
160	0xbe24b760	-0.16085577
161	0xbda2b85c	-0.0794532
162	0x3c02c1b9	0.007980757
163	0x3e9dcc14	0.30819762
164	0xbe496213	-0.19666319
165	0x3d4200db	0.047364097
166	0x3b7d41f0	0.0038644038
167	0x3e7ddd8d	0.24791546
168	0x3e7b2883	0.24527173
169	0xbe6f4264	-0.2336517
170	0x3e6251a9	0.22101463
171	0x3e186517	0.14882313
172	0x3e8404cc	0.2578491
173	0xbd164ce9	-0.03669444
174	0xbd5aeee0	-0.053450465
175	0xbe175084	-0.14776808
176	0x3c48f6ce	0.012265874
177	0xbdd15aa5	-0.10222367
178	0xbd14f18c	-0.03636317
179	0xbda8d3c9	-0.0824352
180	0xbe11896d	-0.1421258
181	0xbe0be384	-0.13661009
182	0x3e1e397b	0.15451615
183	0xbe7dd70b	-0.24789064
184	0x3e83ddae	0.25755066
185	0xbcf723bc	-0.030168407
186	0xbe0f2a9e	-0.13981101
187	0xbd09ca25	-0.033640046
188	0xbdd8a9c5	-0.10579256
189	0x3e48d314	0.1961177
190	0x3dd5c8f7	0.104387216
191	0xbe08ed93	-0.13371877
192	0x3e4aee97	0.19817577
193	0x3d2352b0	0.03987378
194	0x3e2bb646	0.1676875
195	0x3db4cb94	0.08827892
196	0x3e325725	0.17416056
197	0x3d5b745c	0.053577766
198	0x3e71c3c0	0.23609829
199	0xbc4e827f	-0.012604355
200	0x3d8a3bec	0.067497104
201	0x3dbcf7a7	0.092269234
202	0x3dc73dfe	0.09728621
203	0xbe15c84a	-0.14627185
204	0x3dea9d75	0.11455814
205	0x3dda5f52	0.10662712
206	0x3dd8a8a5	0.105790414
207	0xbdab5c09	-0.08367164
208	0xbe052da0	-0.13005686
209	0x3d3fcf78	0.046828717
210	0x3d71e4cd	0.059056092
211	0x3e54644d	0.20741387
212	0xbe20a187	-0.15686618
213	0xbe7b5fea	-0.24548307
214	0x3c6236c3	0.0138070015
215	0xbe5012fa	-0.20319739
216	0x3e225342	0.15852073
217	0x3ba97a18	0.0051720254
218	0xbe1a178d	-0.15048046
219	0x3e45b851	0.19308592
220	0x3c65cf3b	0.014026458
221	0xbc56ac69	-0.013102629
222	0xbdd14011	-0.10217298
223	0x3df732ca	0.12070234
224	0xbe0b7a2f	-0.13620828
225	0x3dd42f27	0.10360556
226	0xbdbbb7ab	-0.09165891
227	0xbe3beb28	-0.18351424
228	0xbdc2c65d	-0.09510491
229	0xbdaca96d	-0.08430753
230	0x3c74e919	0.014948153
231	0xbc884759	-0.016635584
232	0x3d1c7f3c	0.038207278
233	0xbb350563	-0.002762162
234	0xbe1dda51	-0.15415312
235	0x3de3fb4e	0.11131917
236	0x3c9033c1	0.017602803
237	0xbc0ee167	-0.008720732
238	0xbdae6273	-0.085148714
239	0xbe223032	-0.15838698
240	0x3d998e3f	0.074978344
241	0x3dd2c3ca	0.1029125
242	0xbe44fc4c	-0.19236869
243	0xbdf7d9f3	-0.121021174
244	0x3de6a550	0.112619996
245	0xbd459bb8	-0.048244208
246	0x3d5174e6	0.051136874
247	0xbe401d12	-0.1876109
248	0x3e030d7d	0.12798114
249	0xbe29b65e	-0.16573474
250	0xbe52ec26	-0.20597896
251	0xbe044c98	-0.12919843
252	0xbd9a3700	-0.07530022
253	0x3dfb47f9	0.12269587
254	0xbd953d71	-0.0728711
255	0x3cf4d2d0	0.02988568

bias f4 [10]
0	0xbe674f58	-0.22588861
1	0xbd837541	-0.06418849
2	0x3ddd9d01	0.10820962
3	0x3dc44297	0.095830135
4	0x3e2a7a48	0.16648209
5	0xbe1dd8d7	-0.15414749
6	0x3e159f3a	0.14611521
7	0x3d8deb01	0.06929589
8	0xbdbcc429	-0.09217102
9	0x3ce369d8	0.027760431
