Pytorch/model_data/CIFAR10_EPOCH13.pth (torch, 588839 bytes, 10 tensors)

weight f4 [32, 3, 5, 5]
-0.027389374 -0.052992158 -0.068493895 -0.14058012 -0.04552081 -0.1660911 -0.13081731 0.092459194
-0.057423692 -0.09549834 -0.15291259 -0.058349594 0.13359582 0.09221973 -0.1702785 0.07106932
-0.09312338 0.0916706 0.14678356 -0.12697263 0.050600823 -0.010194929 0.16268747 0.13016981
-0.11133798 -0.11229984 0.04310818 0.09810698 -0.066712365 -0.1705373 -0.06837305 0.08701816
-0.095334455 0.05644923 -0.17132817 -0.047006346 -0.03573238 0.06073238 0.10174888 0.04953955
0.0376985 -0.093990475 0.01981298 0.14779115 0.020090831 0.03081179 0.11845299 0.19303499
0.16793412 0.043749515 -0.06330035 -0.06445413 -0.12679836 -0.062957875 -0.18512197 -0.022765566
0.04324635 -0.02174904 0.05360921 -0.15893717 0.04473888 0.05470338 0.0035020642 0.08944204
-0.12870665 -0.009521462 0.046397798 0.15579504 -0.019606415 -0.1346098 0.05636963 0.038360298
0.16729303 0.16429195 0.09597685 0.08491878 0.10158132 0.14806697 0.071096614 -0.015731739
-0.023006065 0.070292786 0.032519136 -0.14406314 -0.1269874 0.121255495 -0.14941151 0.03326674
-0.14767665 0.07185933 0.037016984 0.0003495587 0.013721311 0.119802885 -0.055455472 0.0396352
0.025639232 0.024962824 0.09329285 0.0053290916 0.066152625 0.09817022 0.07268044 0.03700988
-0.1785731 0.10049307 0.010228203 0.026614817 -0.19475593 -0.1990915 -0.07810896 -0.15331107
-0.04483471 0.01866636 -0.14776538 -0.018673021 -0.012793942 0.00073222246 -0.024330942 -0.0071346997
-0.031732805 0.04268626 0.08435942 -0.012905638 -0.06280792 0.0045488947 0.068673216 0.15123227
-0.0799764 0.032108795 0.029202335 -0.018444188 -0.070182316 -0.13558742 0.061402787 0.025260514
0.0010097757 -0.015780462 0.020506341 0.062489197 -0.03664674 -0.06142361 0.11478804 0.054691687
0.050244313 -0.06383591 -0.07432322 0.11850668 -0.08894686 0.013884672 0.10238629 0.01667388
-0.124811605 -0.028844737 -0.12243342 -0.020846013 0.025099436 -0.18671563 -0.1758439 -0.12686227
-0.11944533 0.044177383 0.007608029 -0.06706101 -0.032661185 -0.16489184 -0.09779574 -0.111532554
-0.079487324 -0.13047194 0.028046353 -0.19601253 -0.20704749 -0.17129485 -0.1548333 -0.026325714
-0.12397426 0.04088371 0.036957126 0.046004325 0.04255403 -0.04462582 0.008962417 0.02349764
-0.100694485 0.021415327 -0.033653755 0.09026695 0.1323359 -0.013428274 -0.078804046 0.15459995
0.1380298 0.08052991 0.0031810233 0.07412456 -0.07583255 -0.14959495 -0.0861781 -0.06683903
-0.10856493 -0.024715323 0.09917339 0.040006388 0.11802774 -0.051531248 0.017486556 0.106578566
-0.0473017 0.15188551 0.10331526 0.11102069 0.09131999 0.2369882 0.20377456 0.061433412
0.20228635 0.24384502 0.15634286 0.14260744 0.09213016 0.040698837 -0.07781568 0.088653274
0.106536865 0.06948037 0.016708061 -0.027677258 0.03630323 -0.08989406 0.050990846 -0.05959329
0.053716984 0.089463495 0.035852905 0.08180474 -0.10356675 -0.012799674 -0.023946824 0.12847754
0.051080953 0.042666093 0.046348773 0.1514766 0.07583982 -0.03433456 -0.12735543 -0.11098898
0.1496818 -0.01964573 -0.007908283 0.028859222 -0.08050838 0.1098881 -0.06500846 -0.027094068
00000000: ae5f e0bc 4e0e 59bd 8746 8cbd 3cf4 0fbe
00000010: 0774 3abd c913 2abe f9f4 05be 3f5b bd3d
00000020: 1b35 6bbd a294 c3bd 1e95 1cbe fcff 6ebd
00000030: 58cd 083e b3dd bc3d 7d5d 2ebe cb8c 913d
00000040: 78b7 bebd ccbd bb3d 6e4e 163e 1d05 02be
00000050: cf42 4f3d a208 27bc 8b97 263e 3c4b 053e
00000060: 2b05 e4bd 75fd e5bd 3492 303d 50ec c83d
00000070: 7ea0 88bd 54a1 2ebe 2b07 8cbd 9436 b23d
00000080: b63e c3bd 4f37 673d a770 2fbe ba89 40bd
00000090: 1e5c 12bd 84c2 783d b861 d03d fce9 4a3d
000000a0: be69 1a3d 147e c0bd d54e a23c 9056 173e
000000b0: 8795 a43c 0269 fc3c 7b97 f23d f7aa 453e
000000c0: ecf6 2b3e b132 333d 9da3 81bd 8700 84bd
000000d0: 6ed7 01be 0ff0 80bd 9d90 3dbe da7e babc
000000e0: 1623 313d 0b2b b2bc 5595 5b3d 6dc0 22be
000000f0: 1e40 373d a710 603d e382 653b 632d b73d
00000100: adcb 03be e8ff 1bbc 9e0b 3e3d bc88 1f3e
00000110: a29d a0bc 27d7 09be d7e3 663d b01f 1d3d
00000120: dd4e 2b3e 263c 283e 838f c43d e6e9 ad3d
00000130: de09 d03d de9e 173e 1a9b 913d d9df 80bc
00000140: 3777 bcbc aaf5 8f3d c932 053d 4a85 13be
00000150: fc08 02be cd54 f83d 55ff 18be b542 083d
00000160: 8c38 17be fc2a 933d 1f9f 173d f944 b739
00000170: 5acf 603c 375b f53d 4725 63bd 8558 223d
00000180: 5e09 d23c d67e cc3c 5210 bf3d a99f ae3b
00000190: 077b 873d 780d c93d 7cd9 943d ac97 173d
000001a0: dedb 36be 50cf cd3d 3194 273c 5107 da3c
000001b0: 196e 47be a4de 4bbe 97f7 9fbd 94fd 1cbe
000001c0: 9aa4 37bd 32ea 983c cf4f 17be 2af8 98bc
000001d0: af9d 51bc 9ef2 3f3a af51 c7bc 33ca e9bb
000001e0: 42fa 01bd cad7 2e3d a2c4 ac3d 2b72 53bc
000001f0: 70a1 80bd e50e 953b 8ba4 8c3d a2dc 1a3e
00000200: abca a3bd 8384 033d bc39 ef3c 4418 97bc
00000210: bfbb 8fbd 6ed7 0abe 7d81 7b3d 23ef ce3c
00000220: 735a 843a 0746 81bc eafc a73c acf4 7f3d
00000230: e41a 16bd 5397 7bbd fe15 eb3d 6404 603d
00000240: fbcc 4d3d 67bc 82bd c636 98bd a1b3 f23d
00000250: c529 b6bd 897c 633c e7af d13d a997 883c
00000260: 3a9d ffbd cc4b ecbc 5fbe fabd 42c5 aabc
00000270: 559d cd3c 6232 3fbe 6c10 34be 2fe8 01be
00000280: c19f f4bd 58f3 343d c64c f93b 4857 89bd
00000290: bcc7 05bd 68d9 28be 2249 c8bd 2e6b e4bd
000002a0: 40ca a2bd 709a 05be 77c1 e53c 82b7 48be
000002b0: 4204 54be eb67 2fbe 9f8c 1ebe 06a9 d7bc
000002c0: 38e6 fdbd ad75 273d 5b60 173d 086f 3c3d
000002d0: 224d 2e3d 90c9 36bd 1ad7 123c 1f7e c03c
000002e0: e938 cebd 326f af3c 85d8 09bd e1dd b83d
000002f0: 1083 073e 4302 5cbc 0464 a1bd 734f 1e3e
00000300: af57 0d3e deec a43d b778 503b 9ece 973d
00000310: 194e 9bbd 6b2f 19be 257e b0bd e7e2 88bd
00000320: 4a57 debd ca77 cabc 6b1b cb3d bddd 233d
00000330: 87b8 f13d 6e12 53bd f73f 8f3c dd45 da3d
00000340: 6dbf 41bd e087 1b3e f396 d33d d15e e33d
00000350: fa05 bb3d 09ad 723e 47aa 503e 9aa1 7b3d
00000360: 2724 4f3e 82b2 793e 5818 203e af07 123e
00000370: bdae bc3d d3b3 263d d45d 9fbd d98f b53d
00000380: 0030 da3d b94b 8e3d 58df 883c 6bbb e2bc
00000390: b2b2 143d 601a b8bd c7db 503d 1818 74bd
000003a0: 5706 5c3d a338 b73d 7fda 123d 3e89 a73d
000003b0: ce1a d4bd b9b5 51bc 212c c4bc 9e8f 033e
000003c0: 433a 513d a4c2 2e3d 36d8 3d3d af1c 1b3e
000003d0: e851 9b3d 65a2 0cbd 7669 02be 314e e3bd
000003e0: 3046 193e 15f0 a0bc be91 01bc 2d6a ec3c
000003f0: 94e1 a4bd 030d e13d 2823 85bd 61f4 ddbc

bias f4 [32]
-0.15234749 -0.008069252 0.047734085 -0.07930625 -0.016153162 0.2231205 -0.3253632 -0.36483905
-0.08669774 -0.013947023 0.16274107 -0.061038323 -0.055565767 -0.097719595 -0.009482662 -0.09707916
-0.0006111817 -0.35327464 -0.033239163 -0.09380738 0.006213337 0.08088761 0.0849763 0.14539544
-0.29146162 0.021630304 -0.14279303 0.2713367 -0.2526809 0.04113979 -0.096665494 0.08247115
00000000: fb00 1cbe e534 04bc d184 433d 516b a2bd
00000010: a353 84bc b379 643e 0196 a6be 2fcc babe
00000020: 968e b1bd 0e82 64bc 98a5 263e 5203 7abd
00000030: ee98 63bd 3621 c8bd 2b5d 1bbc 70d1 c6bd
00000040: b637 20ba 6ae0 b4be ca25 08bd 151e c0bd
00000050: 4099 cb3b 67a8 a53d 0e08 ae3d 8be2 143e
00000060: 753a 95be 0932 b13c 5638 12be a5ec 8a3e
00000070: 645f 81be 3282 283d 8ff8 c5bd a2e6 a83d

weight f4 [32, 32, 5, 5]
-0.0007550799 -0.008391728 -0.007782257 -0.0041470546 -0.025507605 0.035428837 0.00914294 0.040068578
0.03759164 0.030754901 0.025991723 0.012890238 -0.0133075435 0.011865112 0.03905958 -0.0062625315
-0.007939708 -0.05039401 -0.028426204 -0.024007045 0.03011101 0.026256014 0.029877504 0.032238916
0.012566679 -0.03857191 0.013646734 -0.020572433 0.024683917 -0.00886412 -0.020977873 0.0235179
0.012389096 0.008886601 -0.025235575 0.044067603 -0.011384791 0.012374394 0.012196564 0.027520487
0.016432213 0.042101536 -0.011734344 0.0116216615 0.028466612 0.002133561 0.055091783 0.04558371
0.04374287 -0.023802113 0.030480828 0.042062666 0.005407723 0.023620805 0.03672473 0.015260852
-0.00088350667 -0.023790756 0.02179252 0.023451155 -0.045503773 -0.010072238 0.021815505 0.019193005
-0.020810006 0.011250238 0.008236163 -0.04052248 0.003603942 0.0092423465 -0.037413295 0.0115591725
-0.011372358 -0.00916044 0.028493557 -0.0035690465 0.02094035 -0.019842608 0.0063044354 -0.022129385
0.016702471 -0.0114979865 -0.0032982237 -0.0024726035 0.00073338754 0.010175421 0.0029899622 0.038283307
0.016911086 0.005962282 -0.0029720832 0.036939282 0.03770888 0.02233852 0.019939383 0.011648468
0.02361695 -0.018095013 0.005971824 0.032244973 0.024636934 -0.018427655 -0.029035779 -0.0036141141
-0.007256828 -0.017832639 -0.015538851 -0.009245138 -0.048031908 -0.0030630387 -0.0049289814 -0.029013125
-0.030164842 0.0005448429 -0.002178936 -0.025237905 0.027409213 0.026530394 0.010599246 -0.011658413
0.009928162 0.009685658 0.01868552 -0.023118533 -0.0006419315 0.013432578 -0.003688364 0.022750622
0.04794254 -0.022295374 0.021748595 0.018738458 0.042030964 0.019121787 -0.00025402263 0.003405843
0.036662217 -0.020786222 -0.027504107 -0.022377849 0.053159337 -0.016426945 -0.049107283 -0.04047914
0.021568522 0.002461219 -0.04997627 0.011173731 0.0541645 -0.0014087413 0.008324735 0.043454636
0.024678621 0.0029846898 0.045872558 0.0120232 0.032999914 0.035300184 -0.008172909 0.018568149
0.004173488 0.014731157 0.012573002 0.021237403 0.0014009941 0.020730048 -0.005621253 0.038412068
0.0034598503 -0.0021409884 -0.0060398607 0.036376998 0.032286376 -0.025623748 0.03614202 -0.02836934
-0.035420146 -0.025020206 0.027358407 -0.03756769 -0.017255213 -0.0013019684 -0.005223658 0.022925084
-0.03001696 -0.0018540233 -0.0036103933 0.04649955 0.035955574 0.052667275 0.039762 0.020334024
0.05349567 0.068241656 0.049565222 0.056034155 0.071530454 0.039014522 0.04708538 0.051002156
0.009623507 0.029161315 0.0050049433 -0.03585214 -0.010569915 0.019061182 0.0054322924 -0.025638605
-0.052331157 0.0011743227 0.004926998 -0.0008125842 -0.018245822 -0.041574746 -0.035760824 -0.016782466
0.034418777 -0.0017616476 0.06279696 -0.008127956 -0.03467836 0.041163728 0.013321384 -0.00024541048
-0.0001200296 0.0151722245 -0.007827663 -0.034896407 -0.03404329 0.016002448 0.026903274 0.003909188
0.015866982 -0.02363168 -0.017691959 -0.0032009187 0.034032412 0.011565097 0.013023332 0.039059322
-0.017922254 0.019347858 0.008766395 0.06058845 0.04864679 0.034242604 0.014248721 0.017602395
0.057256304 0.042938456 -0.0009937417 -0.017935814 -0.019402353 -0.0079105375 -0.04148374 0.053746596
00000000: 8ef0 45ba 757d 09bc 4e02 ffbb 04e4 87bb
00000010: 53f5 d0bc d41d 113d 45cc 153c f31e 243d
00000020: b1f9 193d b4f1 fb3c 98ec d43c 9431 533c
00000030: e207 5abc e365 423c f0fc 1f3d ec35 cdbb
00000040: 8d15 02bc f369 4ebd 12de e8bc 6caa c4bc
00000050: 5dab f63c da16 d73c abc1 f43c f40c 043d
00000060: 79e4 4d3c 94fd 1dbd 8d96 5f3c 8587 a8bc
00000070: ed35 ca3c d03a 11bc cad9 abbc 9ca8 c03c
00000080: a3fb 4a3c 1b99 113c d6ba cebc 3b80 343d
00000090: 4687 3abc f8bd 4a3c 19d4 473c a572 e13c
000000a0: d99c 863c a972 2c3d 6841 40bc c868 3e3c
000000b0: d032 e93c 37d3 0b3b eca7 613d fcb5 3a3d
000000c0: b92b 333d a6fc c2bc eeb2 f93c e749 2c3d
000000d0: 4533 b13b 6b80 c13c ac6c 163d a708 7a3c
000000e0: 219b 67ba d5e4 c2bc 3a86 b23c a31c c03c
000000f0: 2a62 3abd 0706 25bc 6eb6 b23c a63a 9d3c
00000100: bf79 aabc eb52 383c f9f0 063c e6fa 25bd
00000110: 1d30 6c3b 366d 173c af3e 19bd af62 3d3c
00000120: 2053 3abc ac15 16bc 526b e93c aae6 69bb
00000130: 198b ab3c f78c a2bc 7095 ce3b af48 b5bc
00000140: 9fd3 883c 0d62 3cbc 0327 58bb 670b 22bb
00000150: ce40 403a cfb6 263c 3ef3 433b f5ce 1c3d
00000160: 1e89 8a3c 3f5f c33b 48c7 42bb a54d 173d
00000170: a074 1a3d 46ff b63c eb57 a33c 37d9 3e3c
00000180: 5578 c13c fe3b 94bc 4aaf c33b 4e13 043d
00000190: 65d3 c93c 98f5 96bc 71dc edbc c6da 6cbb
000001a0: afca edbb c115 92bc aa96 7ebc eb78 17bc
000001b0: 1bbd 44bd 43bd 48bb 4b83 a1bb efac edbc
000001c0: 421c f7bc cad3 0e3a 7bcc 0ebb b9bf cebc
000001d0: 4989 e03c 4556 d93c 76a8 2d3c ee02 3fbc
000001e0: bba9 223c 98b0 1e3c 6012 993c 1463 bdbc
000001f0: 4b47 28ba 5114 5c3c 7bb8 71bb 835f ba3c
00000200: 665f 443d caa4 b6bc 1c2a b23c 6581 993c
00000210: a928 2c3d 4ba5 9c3c 572e 85b9 9034 5f3b
00000220: 1f2b 163d de47 aabc 4b50 e1bc c051 b7bc
00000230: 9bbd 593d cd91 86bc b824 49bd 74cd 25bd
00000240: 78b0 b03c 674c 213b ebb3 4cbd 0612 373c
00000250: 98db 5d3d 84a5 b8ba 7864 083c 7dfd 313d
00000260: d22a ca3c c99a 433b dde4 3b3d f5fc 443c
00000270: eb2a 073d ed96 103d aae7 05bc 3b1c 983c
00000280: c1c1 883b f35a 713c fefe 4d3c 10fa ad3c
00000290: 90a1 b73a 10d2 a93c 7d32 b8bb f955 1d3d
000002a0: a8be 623b d34f 0cbb 06ea c5bb 0c00 153d
000002b0: b83e 043d e5e8 d1bc a809 143d d166 e8bc
000002c0: b714 11bd 2df7 ccbc bd1e e03c 94e0 19bd
000002d0: ce5a 8dbc cfa6 aaba 382b abbb 63cd bb3c
000002e0: 21e6 f5bc b302 f3ba 599c 6cbb 5076 3e3d
000002f0: 2746 133d a4b9 573d 7bdd 223d 8a93 a63c
00000300: 471e 5b3d 48c2 8b3d e704 4b3d 1284 653d
00000310: 8f7e 923d b1cd 1f3d 99dc 403d a3e7 503d
00000320: eaab 1d3c b6e3 ee3c 8200 a43b b2d9 12bd
00000330: 702d 2dbc 3226 9c3c 5f01 b23b 0d08 d2bc
00000340: 3259 56bd bbeb 993a a872 a13b 9a03 55ba
00000350: 4378 95bc 484a 2abd f179 12bd 627b 89bc
00000360: b4fa 0c3d 16e7 e6ba b19b 803d 1e2b 05bc
00000370: e50a 0ebd 4c9b 283d ef41 5a3c 70aa 80b9
00000380: 67b8 fbb8 ec94 783c 993f 00bc 89ef 0ebd
00000390: fa70 0bbd 9117 833c 4164 dc3c a518 803b
000003a0: 79fb 813c 3a97 c1bc baee 90bc 81c6 51bb
000003b0: 9265 0b3d 887b 3d3c d05f 553c abfc 1f3d
000003c0: b1d1 92bc 667f 9e3c eda0 0f3c 982b 783d
000003d0: db41 473d f941 0c3d 7873 693c e632 903c
000003e0: 9685 6a3d 3ce0 2f3d 7040 82ba 21ee 92bc
000003f0: aff1 9ebc 339b 01bc dbea 29bd 6425 5c3d

bias f4 [32]
-0.02373714 0.019548915 -0.09989064 -0.07433668 0.020558877 -0.016527856 0.014713203 0.031425394
-0.10674945 -0.020763539 -0.19309168 -0.03747144 0.12936471 -0.051899567 -0.12487435 -0.0139193395
-0.02290735 0.02619212 -0.12151282 -0.088461794 -0.0747321 0.016579622 -0.01883756 0.02235172
-0.026130863 -0.025051592 -0.03011056 -0.07813343 -0.08387773 -0.015705127 -0.08740012 -0.086587615
00000000: 6474 c2bc 0c25 a03c 7793 ccbd d43d 98bd
00000010: 176b a83c 6d65 87bc a50f 713c eab7 003d
00000020: 759f dabd 4c18 aabc d3b9 45be a77b 19bd
00000030: 2f78 043e a494 54bd 20be ffbd f10d 64bc
00000040: 32a8 bbbc db90 d63c b7db f8bd 752b b5bd
00000050: 250d 99bd fdd1 873c 3a51 9abc f41a b73c
00000060: 6410 d6bc ff38 cdbc 6caa f6bc 6b04 a0bd
00000070: 16c8 abbd 0aa8 80bc d6fe b2bd d954 b1bd

weight f4 [64, 32, 5, 5]
-0.019720191 0.031715833 0.016815947 0.013378636 0.024682816 -0.0011560991 0.018512199 -0.009641123
-0.024313329 -0.0062516364 -0.016988775 0.00544194 0.01726555 -0.023947017 0.011053629 -0.02200663
0.013390826 -0.03778861 0.009196398 -0.018843697 0.030125322 0.04161531 -0.0034680706 -0.008363062
-0.024882734 0.018769387 -0.04922483 0.024367206 0.005410196 -0.0064730365 0.018450778 -0.009213496
-0.00054039096 0.014236284 -0.019404355 0.003531894 8.5272644e-05 0.009200861 0.0015409935 -0.013929801
0.022479454 -0.022061672 -0.01808705 -0.0002850694 -0.014038655 -0.027600443 0.008481819 -0.028075332
0.04516908 0.03229293 -0.011016376 0.0124046095 0.02604273 -0.038907137 -0.006604832 -0.055299863
-0.049376313 0.0057599475 0.0048106294 -0.028542966 -0.03473124 -0.006730685 -0.0061525847 0.030187681
0.016530422 -0.058812294 0.020080091 0.017022522 0.03635544 0.032129634 -0.005215623 0.012134515
0.04672694 0.05657364 0.0436316 -0.032309324 -0.0043113464 0.0058806133 -0.011432601 0.03574569
0.010613313 -0.03972043 0.0033707044 0.037086308 0.0012095338 -0.0014644981 -0.007098287 -0.0198813
-0.04487442 -0.04283834 0.017858047 0.0009685149 0.019436432 -0.01882197 -0.031988036 0.010352624
-0.028482813 -0.041906424 0.0041011004 -0.034361735 -0.0019978038 0.0030973526 0.022378588 0.028460667
-0.018561766 -0.017265508 0.040393427 0.030777264 -0.01561869 0.018365443 -0.016655657 -0.029730063
-0.002849856 0.02982375 0.004609556 -0.00930327 -0.015664212 -0.0004123522 -0.0030543099 -0.011736347
-0.01899318 -0.008589933 -0.010881908 -0.028958665 -0.006820846 -0.011476469 0.019202195 -0.02627591
-0.02923837 0.027136667 -0.018021826 -0.009522496 -0.044868685 -0.0047597624 -0.013442462 -0.031000327
0.019161025 -0.030024415 -0.012230917 -0.022704536 0.0075954557 0.022333402 -0.016746277 -0.02695505
-0.015826853 -0.01609255 -0.035804074 -0.028010825 -0.018698867 0.0076914 -0.019873982 0.006457643
0.015089105 -0.0043166294 0.0019507008 -0.032704737 0.017864093 0.030269101 0.0016365196 -0.0197502
-0.033087764 -0.006732853 -0.032923367 -0.0074742804 -0.022088155 -0.030156458 -0.012578246 0.007825292
-0.004160666 0.038378112 0.024279878 -0.0050188033 0.013310646 -0.021260142 -0.024615914 -0.0065458333
-0.010438575 0.00897465 -0.02197421 -0.021119813 0.028179793 0.016526228 0.01132948 0.019728614
0.01625301 0.006817198 0.01689313 0.00031052172 0.0074422597 -0.017564902 0.00057380955 0.026439957
0.035061613 0.025202354 -0.013554458 -0.02494321 0.005954599 0.033654723 0.0070696813 -0.011209572
0.01876554 0.035386845 -0.011370791 -0.0012019962 -0.0087600835 -0.008554542 -0.007570508 -0.0104513075
-0.018429464 0.021363491 -0.03703804 -0.019314477 -0.031858187 0.0014550502 -0.023536064 -0.03430013
0.031384673 0.004488895 -0.0143480655 0.044125464 -0.048345767 0.024724904 0.00022406291 -0.0040991516
-0.016035818 0.015334161 -0.03705035 0.01019465 -0.009575291 -0.0036937355 -0.012157658 -0.010751719
-0.0077812914 -0.041347895 -0.00967571 0.034978412 -0.021052023 0.005407534 -0.018320259 0.0130996
0.040260248 -0.039492544 0.01768339 0.0084813405 -0.020299023 -0.0014523121 -0.055553026 0.007880991
-0.002881557 -0.049022872 -0.0035074514 -0.036823615 -0.010305923 0.041878764 -0.010871763 -0.015910214
00000000: 3d8c a1bc 76e8 013d 99c1 893c 1132 5b3c
00000010: 9e33 ca3c 4088 97ba e5a6 973c cdf5 1dbc
00000020: bf2c c7bc 87da ccbb 0b2c 8bbc 4d52 b23b
00000030: 7c70 8d3c 892c c4bc 481a 353c 4047 b4bc
00000040: 3265 5b3c 3bc8 1abd 7dac 163c 195e 9abc
00000050: 61c9 f63c d174 2a3d 9248 63bb 3905 09bc
00000060: e0d6 cbbc 42c2 993c fa9f 49bd bc9d c73c
00000070: 0348 b13b c41b d4bb 1626 973c 34f4 16bc
00000080: 06a9 0dba 4e3f 693c e2f5 9ebc 5977 673b
00000090: 67d4 b238 35bf 163c 29fb c93a d239 64bc
000000a0: d526 b83c aeba b4bc 4b2b 94bc 5e75 95b9
000000b0: 6302 66bc 531a e2bc 54f7 0a3c 3dfe e5bc
000000c0: 3703 393d 9745 043d 087e 34bc b43c 4b3c
000000d0: 9057 d53c 175d 1fbd 596d d8bb 1c82 62bd
000000e0: d13e 4abd f1bd bc3b 7ca2 9d3b f0d2 e9bc
000000f0: 5842 0ebd 148d dcbb 9f9b c9bb 284c f73c
00000100: cf6a 873c 29e5 70bd 017f a43c d172 8b3c
00000110: 71e9 143d 5d9a 033d d1e7 aabb d8cf 463c
00000120: bf64 3f3d c3b9 673d 0cb7 323d c856 04bd
00000130: 3246 8dbb 29b2 c03b ce4f 3bbc 136a 123d
00000140: 76e3 2d3c e4b1 22bd 09e7 5c3b d0e7 173d
00000150: 3889 9e3a 67f4 bfba bf98 e8bb 1cde a2bc
00000160: 3dce 37bd 4177 2fbd 0a4b 923c efe3 7d3a
00000170: 2739 9f3c 8830 9abc e305 03bd 0d9e 293c
00000180: ca54 e9bc 12a6 2bbd 8662 863b e4be 0cbd
00000190: 96ed 02bb f4fc 4a3b 4d53 b73c 5826 e93c
000001a0: d80e 98bc 6570 8dbc 9473 253d 9a20 fc3c
000001b0: 89e5 7fbc 2073 963c 7271 88bc 768c f3bc
000001c0: a6c4 3abb f050 f43c c20b 973b be6c 18bc
000001d0: 3c52 80bc fa30 d8b9 d12a 48bb cf49 40bc
000001e0: 9697 9bbc cabc 0cbc 084a 32bc b93a edbc
000001f0: 6781 dfbb cd07 3cbc ec4d 9d3c 9440 d7bc
00000200: 4e85 efbc b74d de3c 82a2 93bc 3e04 1cbc
00000210: 3ac8 37bd c8f7 9bbb c63d 5cbc 66f4 fdbc
00000220: 95f7 9c3c c3f5 f5bc 2f64 48bc ddfe b9bc
00000230: 4de3 f83b 8af4 b63c 7d2f 89bc d6d0 dcbc
00000240: 51a7 81bc 86d4 83bc 4ba7 12bd f576 e5bc
00000250: 5e2e 99bc 2408 fc3b c3ce a2bc a39a d33b
00000260: 4b38 773c 8372 8dbb a8ae ff3a 67f5 05bd
00000270: b857 923c e8f6 f73c 7c80 d63a 2ccb a1bc
00000280: 0987 07bd 449f dcbb a7da 06bd cfea f4bb
00000290: 38f2 b4bc ad0a f7bc fd14 4ebc a735 003c
000002a0: 3256 88bb 5e32 1d3d 98e6 c63c c674 a4bb
000002b0: e514 5a3c c029 aebc 50a7 c9bc 6e7e d6bb
000002c0: 8f06 2bbc 690a 133c 4203 b4bc 7503 adbc
000002d0: 4fd9 e63c 0362 873c 499f 393c e79d a13c
000002e0: 0825 853c cd62 df3b 7663 8a3c 85cd a239
000002f0: 33de f33b 45e4 8fbc b56b 163a 9c98 d83c
00000300: c49c 0f3d 2b75 ce3c 8413 5ebc b455 ccbc
00000310: cc1e c33b 89d9 093d c9a8 e73b 5aa8 37bc
00000320: 31ba 993c ccf1 103d 8e4c 3abc 4d8c 9dba
00000330: 7486 0fbc 5a28 0cbc 0612 f8bb f63b 2bbc
00000340: 63f9 96bc 7d02 af3c 33b5 17bd 6539 9ebc
00000350: bb7d 02bd 62b7 be3a b4ce c0bc 4b7e 0cbd
00000360: 378d 003d 9517 933b 2614 6bbc e7bc 343d
00000370: 3606 46bd e28b ca3c 6ef2 6a39 2d52 86bb
00000380: 8c5d 83bc 223c 7b3c 1cc2 17bd 7607 273c
00000390: aee1 1cbc 9912 72bb ea30 47bc fa27 30bc
000003a0: 34fa febb 695c 29bd df86 1ebc 8645 0f3d
000003b0: 4b75 acbc af31 b13b 5e14 96bc b49f 563c
000003c0: eee7 243d efc2 21bd c2dc 903c 52f5 0a3c
000003d0: 234a a6bc 825b beba 928b 63bd 461f 013c
000003e0: 81d8 3cbb 35cc 48bd 45dd 65bb 5cd4 16bd
000003f0: 2dda 28bc 1189 2b3d 7b1f 32bc 2356 82bc

bias f4 [64]
-0.06916493 0.04009855 -0.04058575 -0.004256112 -0.13191226 -0.03032101 -0.051798567 -0.050079897
0.010727951 0.016313948 -0.06273677 -0.024481496 -0.075681135 -0.040505175 0.04505016 -0.027263777
-0.033399843 -0.027912073 -0.029358659 -0.032982804 -0.013745355 0.016218217 -0.011792336 -0.00051952497
-0.0070669157 -0.08930063 -0.02506891 -0.033135407 -0.06082267 -0.017849438 0.009002365 -0.034003973
-0.043450966 0.010159435 -0.06372304 -0.026695881 -0.030223591 -0.010499885 0.0086380225 -0.031948082
-0.04940302 -0.12703557 -0.10596617 -0.04972763 -0.0009218878 -0.077252194 -0.00033792944 -0.05300876
-0.021171302 -0.068622544 -0.07146189 -0.11428422 -0.07324585 0.0045744367 -0.055429425 -0.023925385
0.004628232 -0.06109717 -0.04483908 -0.04881612 -0.021302503 -0.05805637 -0.033156086 -0.029333318
00000000: 58a6 8dbd 613e 243d 3e3d 26bd db76 8bbb
00000010: 0214 07be c463 f8bc bc2a 54bd 9420 4dbd
00000020: 4ac4 2f3c d4a4 853c 237c 80bd 6b8d c8bc
00000030: b6fe 9abd c1e8 25bd 8486 383d 4958 dfbc
00000040: 46ce 08bd dca7 e4bc 9281 f0bc fa18 07bd
00000050: 3334 61bc 11dc 843c a434 41bc bb30 08ba
00000060: 9691 e7bb 40e3 b6bd 515d cdbc feb8 07bd
00000070: 3121 79bd fc38 92bc a87e 133c c047 0bbd
00000080: a4f9 31bd c273 263c 3a81 82bd 52b1 dabc
00000090: 7797 f7bc b607 2cbc 7e86 0d3c fedb 02bd
000000a0: d25a 4abd 9d15 02be cb04 d9bd 33af 4bbd
000000b0: d8aa 71ba 6636 9ebd 1f2c b1b9 b71f 59bd
000000c0: 706f adbc fa89 8cbd 9d5a 92bd d80d eabd
000000d0: ec01 96bd 28e5 953b f709 63bd 2bff c3bc
000000e0: 6da8 973b 0741 7abd 2fa9 37bd 69f3 47bd
000000f0: 9682 aebc 84cc 6dbd adce 07bd 6d4c f0bc

weight f4 [64, 1024]
-0.006032881 0.04361828 0.022873456 0.013501173 0.050448537 0.042828202 0.019962478 -0.00988411
0.0041203154 -0.0062311324 0.040507212 0.0019278037 -0.016739612 -0.0065316907 -0.0011078491 -0.004026901
-0.02546818 -0.0030244405 5.5666515e-05 -0.0036944752 -0.040005278 -0.010001375 0.03585781 0.01166704
-0.014335681 -0.04444359 -0.027118534 -0.043823272 0.030447897 -0.01829688 -0.0007265544 0.0021784578
0.01186638 0.025729788 -0.015214963 -0.004774352 0.014759323 -0.024514768 0.00050530245 -0.00194003
0.016997186 -0.013511815 0.044185556 0.0030767156 0.0160581 0.0046097245 -0.01010608 0.030000586
-0.013835395 -0.019672146 0.030133223 -0.013375583 0.02729973 0.0017191224 -0.0044066696 -0.0076762103
0.061897278 -0.004743901 0.0011534779 0.031984378 0.0477351 0.026698 0.038794335 0.044868026
-0.013320915 0.05534667 -0.008749037 0.0249792 0.030907253 0.026756577 0.0025220076 0.049629673
-0.018230049 0.0031547528 0.0439102 0.006559403 0.014740695 -0.028907752 0.005104635 -0.036154017
-0.0042901887 0.028705426 0.013765811 0.030341363 -0.023064982 0.025441425 0.010874731 0.013449004
0.010307965 0.010446486 0.009123991 -0.025832167 -0.016948815 -0.0013939147 0.014215487 0.026519548
-0.004330243 0.030856095 0.02196044 0.008176803 -0.021691421 0.0014596068 -0.038500328 -0.05463609
0.013232456 0.03341296 -0.012783379 0.0432449 -0.0012156892 0.04812433 0.0024885898 0.013116605
0.011875108 0.0041916925 0.011363119 -0.0023001214 -0.016289398 -0.021481091 -0.01623489 0.014387542
0.003443199 -0.035980884 0.00346906 -0.0069751516 -0.021682873 0.031198915 -0.009639964 0.01677478
0.01552832 -0.036925208 -0.04066467 -0.03168641 0.050450474 0.0037691582 -0.011502376 -0.04856819
-0.0012627702 0.008772748 -0.023332525 0.028257007 -0.0013788578 -0.043233838 -0.018799616 0.04359719
0.023752725 -0.016621321 0.026020752 -0.022363622 0.0023968492 0.0017633698 0.011616415 0.009645143
0.021430327 -0.0025141076 -0.002057839 -0.017777773 0.0034943176 0.006988606 -0.023150112 -0.0013723157
-0.017468497 -0.047480006 -0.0031120959 -0.018450258 -0.024493802 -0.0034162952 0.028435132 -0.0035104463
0.021592267 0.017859958 0.035523742 0.0033324703 0.013355351 0.012850102 0.058322012 -0.01768204
0.024470562 -0.013738835 -0.019593507 0.016425949 -0.013663417 0.07336209 -0.020514563 0.030269902
0.005332505 0.02564387 -0.008945417 0.024795203 0.014754445 0.015664622 0.046644337 0.022681994
0.015384999 0.051628 0.020774381 0.008462351 0.013124373 0.0017315472 0.03510549 -0.032563217
0.018563924 0.028190246 -0.015016995 -0.021873187 0.027256422 -0.02174821 0.020679064 -0.033409704
-0.03596486 0.005859444 0.0027297593 0.0534069 -0.02518949 0.047702912 0.012071464 0.014860763
0.003122127 -0.025769271 -0.02953478 0.0148073835 0.010485041 -0.021129882 -0.007693011 0.010174108
-0.03466367 -0.0064990465 -0.032444015 -0.0062457686 0.009114611 0.0005381037 -0.012080446 -0.018512081
0.03311229 0.014416762 -0.019128118 -0.01217361 0.014255231 0.023752622 0.014628748 0.021749612
-0.003618629 0.02616205 0.0042505683 0.00017255923 0.0022154578 0.0012234312 -0.02471656 -0.005038954
-0.008256228 -0.02529117 0.01813427 0.010573522 0.032054294 0.062078014 0.07287172 0.0062131668
00000000: 79af c5bb 15a9 323d 1d61 bb3c 0634 5d3c
00000010: 20a3 4e3d a06c 2f3d 5a88 a33c f6f0 21bc
00000020: b603 873b 872e ccbb e4ea 253d 5cae fc3a
00000030: 8321 89bc cb07 d6bb 3f35 91ba 18f4 83bb
00000040: a5a2 d0bc b135 46bb 777b 6938 021f 72bb
00000050: 93dc 23bd cfdc 23bc a4df 123d 1d27 3f3c
00000060: 34e0 6abc 7b0a 36bd b027 debc 0880 33bd
00000070: de6d f93c 57e3 95bc 3e76 3eba 75c4 0e3b
00000080: 356b 423c 47c7 d23c 2e48 79bc 2b72 9cbb
00000090: 16d1 713c 32d3 c8bc 4676 043a 9b48 feba
000000a0: af3d 8b3c a960 5dbc eafb 343d b9a2 493b
000000b0: 478c 833c 2c0d 973b f993 25bc cac3 f53c
000000c0: daad 62bc 7b27 a1bc f3d9 f63c 4325 5bbc
000000d0: afa3 df3c 2d54 e13a d365 90bb b888 fbbb
000000e0: 0088 7d3d ba72 9bbb 4c30 973a 0d02 033d
000000f0: e185 433d c4b5 da3c cfe6 1e3d 89c7 373d
00000100: f83f 5abc 31b3 623d 1f58 0fbc 2ea1 cc3c
00000110: 3531 fd3c 9c30 db3c 4448 253b 7c48 4b3d
00000120: 2f57 95bc f8bf 4e3b 2fdb 333d 43f0 d63b
00000130: f582 713c f3cf ecbc c844 a73b 3c16 14bd
00000140: b694 8cbb a427 eb3c ff89 613c 738e f83c
00000150: c6f2 bcbc 896a d03c ed2b 323c 3659 5c3c
00000160: bde2 283c bd27 2b3c cb7c 153c fb9d d3bc
00000170: 3ed8 8abc 04b4 b6ba 13e8 683c 863f d93c
00000180: b6e4 8dbb ecc5 fc3c 61e6 b33c fff7 053c
00000190: 35b2 b1bc 4750 bf3a 85b2 1dbd 18ca 5fbd
000001a0: f1cc 583c 07dc 083d 6171 51bc 9021 313d
000001b0: c357 9fba 041e 453d 9c17 233b 07e7 563c
000001c0: d08f 423c 775a 893b 602c 3a3c a2bd 16bb
000001d0: 5871 85bc 1df9 afbc 08ff 84bc bab9 6b3c
000001e0: 4ba7 613b b160 13bd 2b59 633b d08f e4bb
000001f0: 48a0 b1bc de94 ff3c f1f0 1dbc 436b 893c
00000200: 7f6a 7e3c e33e 17bd ff8f 26bd 9cc9 01bd
00000210: 28a5 4e3d fb03 773b 7674 3cbc 70ef 46bd
00000220: 8983 a5ba 92bb 0f3c da23 bfbc 3d7b e73c
00000230: caba b4ba f715 31bd a701 9abc f892 323d
00000240: 1395 c23c 7029 88bc 7929 d53c ea33 b7bc
00000250: 7514 1d3b df20 e73a c752 3e3c a906 1e3c
00000260: a78e af3c bac3 24bb cfdc 06bb b1a2 91bc
00000270: ec00 653b ad00 e53b 4ea5 bdbc 46df b3ba
00000280: 181a 8fbc 657a 42bd 4ef4 4bbb ff24 97bc
00000290: 3aa7 c8bc ece3 5fbb cbf0 e83c 840f 66bb
000002a0: 44e2 b03c 0c4f 923c 5881 113d 9365 5a3b
000002b0: 67d0 5a3c 3c89 523c 10e3 6e3d edd9 90bc
000002c0: 7d76 c83c da18 61bc 9082 a0bc b68f 863c
000002d0: 86dc 5fbc dd3e 963d 280e a8bc 96f8 f73c
000002e0: 4bbc ae3b 1813 d23c cc8f 12bc 4f1f cb3c
000002f0: a1bc 713c 1853 803c 220e 3f3d 97cf b93c
00000300: 5d11 7c3c e277 533d 092f aa3c aca5 0a3c
00000310: 9c07 573c 15f5 e23a c6ca 0f3d 0261 05bd
00000320: 5f13 983c 3bef e63c d809 76bc 662f b3bc
00000330: dc48 df3c 4d29 b2bc 2467 a93c 9dd8 08bd
00000340: e44f 13bd 9400 c03b c3e5 323b 32c1 5a3d
00000350: 305a cebc 2164 433d 64c7 453c 8f7a 733c
00000360: 999c 4c3b 141a d3bc ecf2 f1bc ab9a 723c
00000370: 73c9 2b3c 9318 adbc a715 fcbb 4db1 263c
00000380: 7efb 0dbd f4f5 d4bb 04e4 04bd 4ea9 ccbb
00000390: 7355 153c 870f 0d3a 10ed 45bc a6a6 97bc
000003a0: c1a0 073d 4834 6c3c 92b2 9cbc d273 47bc
000003b0: c68e 693c dc94 c23c 6bad 6f3c 3e2c b23c
000003c0: 8526 6dbb cc51 d63c 5a48 8b3b 04f1 3439
000003d0: 3731 113b 8a5b a03a 627a cabc cf1d a5bb
000003e0: 2145 07bc 6e2f cfbc 528e 943c 913c 2d3c
000003f0: 5d4b 033d 8445 7e3d c53d 953d d297 cb3b

bias f4 [64]
-0.017618043 -0.0011312593 -0.04043369 -0.012265953 0.013220852 0.016442694 0.0036414706 -0.030977702
0.016344752 -0.05000907 0.004208146 0.0017100888 0.002639055 0.038147252 -0.01432771 -0.01107618
0.022744821 0.022399701 -0.06623602 -0.0039190906 -0.0018035956 -0.009043704 -0.0122698555 0.048254162
0.0224756 0.04681943 0.022724781 0.025740981 0.046162 0.03240692 -0.018053804 0.0016152043
-0.03956569 0.031231381 -0.0005019887 -0.016673857 -0.015343654 0.023915904 -0.049530048 -0.0015254223
-0.04832618 -0.011466973 -0.006357645 0.023428185 0.0006268937 0.00068446365 0.043598115 -0.029769763
0.06808557 0.017334245 -0.010674222 -0.026266193 -0.03579071 0.0038209488 0.006803272 0.014926701
0.058071952 -0.022233082 -0.010298766 0.017658472 -0.057465725 -0.0030098043 0.008659899 -0.051595416
00000000: b753 90bc c346 94ba cc9d 25bd 23f7 48bc
00000010: 469c 583c d4b2 863c bda5 6e3b f3c4 fdbc
00000020: 6ee5 853c 50d6 4cbd 7de4 893b 0f25 e03a
00000030: fff3 2c3b 4b40 1c3d c5be 6abc de78 35bc
00000040: 5953 ba3c 947f b73c c0a6 87bd b76b 80bb
00000050: a066 ecba 0b2c 14bc 8107 49bc 28a6 453d
00000060: c01e b83c bbc5 3f3d 5229 ba3c c0de d23c
00000070: 5e14 3d3d 1ebd 043d 92e5 93bc 43b5 d33a
00000080: a20f 22bd f4d8 ff3c e497 03ba 9d97 88bc
00000090: f363 7bbc 49eb c33c 05e0 4abd aef0 c7ba
000000a0: acf1 45bd f9df 3bbc cb53 d0bb 77ec bf3c
000000b0: 2056 243a 946d 333a f093 323d b8df f3bc
000000c0: 7370 8b3d 8c00 8e3c efe2 2ebc 332c d7bc
000000d0: 4899 12bd e268 7a3b fbed de3b 1f8f 743c
000000e0: dbdc 6d3d 2722 b6bc 28bc 28bc 80a8 903c
000000f0: 2e61 6bbd 2340 45bb 40e2 0d3c b755 53bd

weight f4 [10, 64]
0.059929598 0.06213994 0.12350169 -0.19561495 -0.14804718 0.17086384 -0.2488974 0.2610702
-0.098427825 0.013730792 -0.12628685 0.04696412 0.0119291255 -0.09400505 -0.027709309 -0.029355323
0.028611809 -0.22067943 0.023236088 0.043946713 -0.027624149 -0.08802998 -0.016991151 0.04400684
0.0075526065 -0.146799 -0.12556499 0.16197139 -0.23757961 -0.15350278 -0.04343638 0.023001084
-0.09796877 0.119479775 -0.0003376023 0.28518444 0.17376313 0.11760773 0.058543004 -0.29077363
0.15739909 -0.08419868 -0.14749366 -0.12486149 0.08281353 0.06425193 -0.14440526 -0.13397573
-0.22887418 -0.022137817 0.14136429 0.15992925 -0.1601131 -0.08608322 -0.02495977 0.00746227
-0.05281527 -0.010852835 -0.064866334 -0.09438604 0.12249074 -0.23707165 0.10159265 0.2193199
0.21863504 -0.18317445 -0.19210173 0.20841631 -0.027813867 -0.122831926 -0.08939044 0.08921789
0.16650803 -0.11271832 -0.09321876 -0.1279176 0.02377067 -0.1940336 -0.12295208 -0.056789126
0.013430082 -0.21342109 0.03980765 0.15684502 -0.14752494 0.2843335 0.10368873 0.18492886
0.2402275 0.036636874 0.16083702 -0.11858861 -0.17394194 0.11920977 -0.030928234 0.0553727
-0.09469032 -0.2283506 -0.105563104 -0.28038046 0.08379601 0.22188494 -0.17167082 -0.2029579
-0.14008367 0.18107337 0.21256608 0.17090364 -0.21859154 0.0063572503 -0.043058217 0.028394233
-0.18060446 -0.06660965 0.016914023 -0.1984654 -0.12219362 0.27327436 0.16572058 0.21975379
-0.27628878 -0.12836601 0.26280746 -0.057016186 -0.067127146 -0.015358479 0.19535917 -0.19085196
-0.1838962 0.023291752 -0.020917859 -0.116554804 -0.20750989 0.27675918 0.060246862 0.15303995
-0.07317579 0.025303572 0.03126529 -0.012517223 -0.1537976 0.049884733 0.053112354 0.21757871
-0.102501236 -0.085663386 0.2119346 -0.20822327 0.06754265 -0.008876272 -0.011041646 -0.07273148
0.059869446 -0.16207951 -0.23084912 -0.23775128 0.027193576 0.07622344 -0.026887262 0.047624838
-0.14106512 -0.06348995 0.016594542 0.27400386 -0.16647504 0.035524145 0.021268588 0.21273732
0.2183145 -0.20454788 0.2004228 0.12812999 0.23719773 -0.042652916 -0.043356784 -0.13297716
0.0026350757 -0.09562388 -0.038032837 -0.076703474 -0.1150131 -0.13637856 0.14500916 -0.22297198
0.23837596 -0.013771576 -0.12593457 -0.03558365 -0.09355334 0.18613629 0.0925849 -0.11461798
0.15593238 0.032415222 0.1353533 0.06929328 0.13936685 0.056161907 0.21743722 0.0004846191
0.052874066 0.075396806 0.102702245 -0.13844779 0.09375589 0.10185524 0.083872624 -0.07656893
-0.12045831 0.03641085 0.05291337 0.17486878 -0.12647052 -0.22139044 0.00800737 -0.17859066
0.13663192 -0.0052870414 -0.1298942 0.15954502 0.008250877 -0.015842522 -0.101101734 0.109141625
-0.11963157 0.09480878 -0.080834426 -0.14852521 -0.08312697 -0.071062066 0.0014399389 -0.010469474
0.02837765 -0.015188372 -0.13037686 0.10623329 0.010555749 -0.0075554447 -0.07498899 -0.14816314
0.058672335 0.091351435 -0.18323116 -0.11381016 0.10054259 -0.04430625 0.0511372 -0.1823885
0.13369709 -0.15766066 -0.19808371 -0.12597254 -0.061449002 0.117838174 -0.058258917 0.027968453
00000000: bd78 753d 7386 7e3d 74ee fc3d 494f 48be
00000010: ae99 17be eef6 2e3e f6de 7ebe feaa 853e
00000020: 8794 c9bd 1ef7 603c 5751 01be 735d 403d
00000030: 6172 433c b885 c0bd a2fe e2bc 937a f0bc
00000040: 5063 ea3c caf9 61be 9c59 be3c 7801 343d
00000050: 0a4c e2bc 1049 b4bd 0731 8bbc 8440 343d
00000060: db7b f73b 7a52 16be 1c94 00be d4db 253e
00000070: 1248 73be d52f 1dbe 58ea 31bd c56c bc3c
00000080: daa3 c8bd d0b1 f43d 3700 b1b9 b203 923e
00000090: f6ee 313e 52dc f03d caca 6f3d 48e0 94be
000000a0: 3a2d 213e 5c70 acbd 9408 17be 62b7 ffbd
000000b0: 249a a93d 8496 833d f9de 13be ef30 09be
000000c0: fe5d 6abe 5e5a b5bc cdc1 103e 7ec4 233e
000000d0: b0f4 23be 664c b0bd 6e78 ccbc 0f86 f43b
000000e0: d354 58bd 17d0 31bc a4d8 84bd 784d c1bd
000000f0: 6ddc fa3d e9c2 72be cf0f d03d 6595 603e
00000100: dde1 5f3e 1592 3bbe 51b6 44be 166b 553e
00000110: e8d9 e3bc 4e8f fbbd 5612 b7bd deb7 b63d
00000120: 1581 2a3e ddd8 e6bd 7ae9 bebd d5fc 02be
00000130: b5ba c23c beb0 46be 4dce fbbd b79b 68bd
00000140: d909 5c3c 0f8b 5abe 590d 233d fb9b 203e
00000150: c710 17be 2994 913e c25a d43d fe5d 3d3e
00000160: 33fe 753e 8c10 163d 76b2 243e 96de f2bd
00000170: d61d 32be 4024 f43d 355d fdbc 7cce 623d
00000180: 00ed c1bd bdd4 69be 7831 d8bd 078e 8fbe
00000190: 3e9d ab3d ce35 633e 7aca 2fbe 32d4 4fbe
000001a0: 1872 0fbe 4c6b 393e ecaa 593e 5d01 2f3e
000001b0: 76d6 5fbe 7b50 d03b d05d 30bd 069b e83c
000001c0: 60f0 38be a46a 88bd 478f 8a3c 843a 4bbe
000001d0: a640 fabd 9eea 8b3e a8b2 293e 2307 613e
000001e0: b975 8dbe 6172 03be b38e 863e ce89 69bd
000001f0: f579 89bd 21a2 7bbc 3c0c 483e b26e 43be
00000200: 494f 3cbe 58ce be3c ee5b abbc 49b4 eebd
00000210: 797d 54be 61b3 8d3e 6ac5 763d 81b6 1c3e
00000220: 30dd 95bd 7049 cf3c 0810 003d 0a15 4dbc
00000230: 1e7d 1dbe ef53 4c3d 578c 593d f4cc 5e3e
00000240: 2bec d1bd 4970 afbd 6205 593e 7b38 55be
00000250: cd53 8a3d c86d 11bc 05e8 34bc 3ef4 94bd
00000260: aa39 753d 2cf8 25be b663 6cbe 1275 73be
00000270: 10c5 de3c 091b 9c3d ad42 dcbc 4312 433d
00000280: 6073 10be 0507 82bd 47f1 873c 3c4a 8c3e
00000290: 6f78 2abe c481 113d 763b ae3c d0d7 593e
000002a0: d68d 5f3e 0075 51be a23b 4d3e 8234 033e
000002b0: f6e3 723e d3b4 2ebd e296 31bd 2a2b 08be
000002c0: 3cb1 2c3b 74d6 c3bd 52c8 1bbd b616 9dbd
000002d0: fd8b ebbd d2a6 0bbe 487d 143e c452 64be
000002e0: d418 743e 2da2 61bc fef4 00be 29c0 11bd
000002f0: e598 bfbd 839a 3e3e 279d bd3d d5bc eabd
00000300: bdac 1f3e d3c5 043d 0e9a 0a3e a3e9 8d3d
00000310: 2fb6 0e3e 070a 663d dda7 5e3e 7914 fe39
00000320: 7a92 583d a469 9a3d 8e55 d23d 42c5 0dbe
00000330: 1703 c03d 7b99 d03d 69c5 ab3d 2cd0 9cbd
00000340: d9b2 f6bd 8b23 153d b1bb 583d cd10 333e
00000350: 7d81 01be 2db4 62be 5831 033c 78e0 36be
00000360: 3de9 0b3e eb3e adbb fc02 05be c55f 233e
00000370: b02e 073c 2dc8 81bc 6d0e cfbd a585 df3d
00000380: 6601 f5bd 1b2b c23d 858c a5bd fe16 18be
00000390: 793e aabd fd88 91bd 55bc bc3a 2888 2bbc
000003a0: 3f78 e83c a6d8 78bc 8381 05be d790 d93d
000003b0: 05f2 2c3c aa93 f7bb d493 99bd 14b8 17be
000003c0: 6752 703d 7616 bb3d f3a0 3bbe 4d15 e9bd
000003d0: 46e9 cd3d 787a 35bd 3e75 513d 0dc4 3abe
000003e0: e4e7 083e cc71 21be 75d6 4abe f2fe 00be
000003f0: f3b1 7bbd 2455 f13d e7a0 6ebd 191e e53c

bias f4 [10]
-0.22804825 -0.053464834 0.1106944 0.09664234 0.15232798 -0.14631173 0.13806559 0.072938144
-0.087911196 0.022366514
00000000: 7b85 69be f1fd 5abd bfb3 e23d 6bec c53d
00000010: defb 1b3e bed2 15be 1161 0d3e 9860 953d
00000020: c90a b4bd fb39 b73c
