Pytorch/model_data/CIFAR10_EPOCH28.pth (torch, 588839 bytes, 10 tensors)

weight f4 [32, 3, 5, 5]
00000000: 200e 40bc f485 3ebd 5cb2 19bd 1e17 f4bd
00000010: c3e1 31bd 1f98 20be 19ba 1bbe 9a42 eb3d
00000020: be22 29bd 6694 07be 48a1 07be 8edb b9bd
00000030: ebdd 203e a199 ee3d a7e0 5cbe 0740 aa3d
00000040: 2fab 0bbe 92b2 da3d 471b 223e 2f1e 3ebe
00000050: 1c61 673d 02c2 6abd 195e 243e ca5f 083e
00000060: c403 21be 1a13 dabd a7bc 223d c505 fe3d
00000070: 9370 5cbd 2bff 45be 4973 64bd de51 943d
00000080: d167 81bd 44c7 9c3d 7714 63be 9b96 a5bc
00000090: 4900 5fbd 41c4 ca3d 19fc 0b3e 994e c13a
000000a0: e52f 763d 8d02 f3bd 2f36 6f3d 30f3 363e
000000b0: d134 f8bc 3163 333d 7d1b b53d 9aee 5b3e
000000c0: 07ee 413e 47ed db3b ceda 75bd 6aff 97bd
000000d0: 13c2 ebbd 419d 85bd d7ec 5bbe ced5 0dbb
000000e0: 73e3 ff3c 06e0 063a 4788 7f3d ebc8 58be
000000f0: 4d25 b83d d941 4f3d a665 293d c905 f33d
00000100: 2e06 31be 51f7 ef3c 7765 173d c97e 4a3e
00000110: fb77 c73b b7fe 38be 6148 993d 731c 6d3c
00000120: 4835 3f3e b610 353e 5f95 733d b92f 163d
00000130: 7dd1 fc3d aa59 493e 3a2d 813d bc3a 98bd
00000140: 713b 803c cb6e e23d 4eb1 58bc 2d5d 6cbe
00000150: 7b66 0abe ae03 203e 79bf 39be 8cc3 20bd
00000160: ff67 1fbe 5f8e 1a3e 73ff a43b 09c6 68bd
00000170: 9d08 5a3c 8a29 2b3e 077d 0bbd ddda 833b
00000180: 058c d23c fa29 3f3d db6d b43d 315d f6bc
00000190: 61d4 3d3d 88b9 123e fc43 083e d773 303d
000001a0: bf41 5ebe d9e8 1a3e fe7f 7a3d 3587 27bc
000001b0: cfe0 87be 9556 41be 397c 38bd 0024 3fbe
000001c0: a874 e7bd 3c6e af3c b09a 80bd 0a95 4abd
000001d0: 7749 7dbd a976 483c 9ca1 113d 21f0 ac3c
000001e0: bd40 6abd 5ada 753d 542e 003e 77ba 6b3a
000001f0: 0307 abbd a9d4 bebc 4e2c c93d 7389 483e
00000200: a61b 91bd bb0a e73b cec5 903d dd62 d53c
00000210: e3dd d6bd 05f7 3ebe 937d b93d ca2f 5f3d
00000220: 8853 fdbc 34c4 a1bd 4308 093d 6791 1a3e
00000230: 2d20 97bd 19d4 e9bd 6615 fb3d 042c e03d
00000240: 0a3f 8f3d a56e c9bd 046a 83bd 6dbc 1e3e
00000250: 01b5 a4bd 3238 46bc c30f 383e 6538 8e3d
00000260: bf6b b6bd c0b9 7abc a4f2 ddbd 00ff ea3b
00000270: 94f9 6c3c 6c71 65be 3365 60be 23d1 17be
00000280: aa5a 1ebe bc80 8d3c a56c 0bbd 7481 e5bd
00000290: 0cbd 9bbd 5b89 5dbe 0e67 e9bd 1d81 1cbe
000002a0: 4caf 08be 8de7 33be c5cf 103d 3932 5ebe
000002b0: 77dd 8bbe 1eef 57be 8e4f 1fbe 36da 8b3b
000002c0: 55e7 d8bd 0ee9 ae3d 1ad3 923d c03a 8b3d
000002d0: 5f0a 413d 7a0a 7abd 9afc ea3b 68b2 d33c
000002e0: f83b c2bd c728 15bc ad0a 07bd 51cd db3d
000002f0: c6f3 193e 94aa 79bc 4f04 d6bd 0f08 443e
00000300: b639 373e b261 dd3d 7b18 793c 4c55 b33d
00000310: 2c27 97bd 9c02 30be fe68 a3bd 8074 17bd
00000320: b6b1 02be 67a5 21bd 7bb3 043e 7a39 763d
00000330: c973 ee3d 6152 adbd 792b 8ebc 1170 d73d
00000340: ba30 48bd e7ed 0f3e 7daa 743d a5eb ea3d
00000350: 5c88 043e 554b 8b3e e0ca 503e 29ad f63c
00000360: c607 7f3e 00c1 a03e 1b55 573e a091 293e
00000370: 579b ae3d 10ae 153d 79df b7bd 705d c63d
00000380: e98a f93d 57cd a23d 3c78 653c 2382 5bbd
00000390: 8133 3d3d a450 00be 7da9 853d 9021 90bd
000003a0: 9a12 363d fd68 c93d 0a33 41bb 9713 b73d
000003b0: fae9 ebbd 162c b3bc a75f ecbc b596 f33d
000003c0: 7eba 6d3d 50df 303d 8535 d93c 80d4 3d3e
000003d0: 9cf2 cb3d b72f c9bc 270c 00be 297e f2bd
000003e0: 05e5 403e 20b2 5abd f86e ad3c 446f 253d
000003f0: 5156 c4bd 99c2 0f3e af04 96bd 1e31 a4bb
-0.011722118 -0.046514466 -0.037523612 -0.11918472 -0.043428194 -0.1568303 -0.1520771 0.114873126
-0.0412929 -0.13240203 -0.13245118 -0.0907508 0.15709655 0.11650396 -0.21570073 0.083129935
-0.1363952 0.10678591 0.15830718 -0.18566202 0.056489095 -0.057313927 0.1605152 0.1331779
-0.15724093 -0.106481746 0.039730694 0.12403444 -0.053818297 -0.1933562 -0.055774007 0.072421774
-0.063186295 0.076551944 -0.22175775 -0.020213416 -0.05444363 0.09900714 0.13670386 0.0014748155
0.06010427 -0.11865721 0.058401283 0.17866206 -0.030298622 0.04379577 0.088431336 0.21477738
0.18938456 0.0067116353 -0.06002312 -0.07421763 -0.11511626 -0.065241344 -0.21477066 -0.002164233
0.031236386 0.00051450764 0.062385824 -0.21170394 0.089914896 0.050599907 0.041356705 0.11866338
-0.17287514 0.029292734 0.036962 0.19774927 0.006087301 -0.18065916 0.07484508 0.014472115
0.18672669 0.17682156 0.059468623 0.036666606 0.12344644 0.1966311 0.063074544 -0.07433078
0.015653344 0.11056288 -0.0132258665 -0.23082419 -0.13515656 0.15626404 -0.18139447 -0.039248988
-0.15567015 0.15093373 0.0050353347 -0.056829486 0.013307718 0.16715065 -0.034054782 0.0040238933
0.025701532 0.04667089 0.08810016 -0.030073734 0.04634512 0.14328587 0.13307184 0.043079223
-0.21704768 0.15127887 0.06115722 -0.010225107 -0.26538703 -0.18880685 -0.045040343 -0.18666077
-0.11301547 0.021414869 -0.06279504 -0.04945854 -0.06183764 0.012235322 0.035554513 0.021110596
-0.057190645 0.06002269 0.12517673 0.0008992324 -0.08350947 -0.023294764 0.098229036 0.19583683
-0.07085352 0.0070508397 0.07068978 0.026048118 -0.1049154 -0.18648918 0.090571545 0.054488935
-0.03092362 -0.07898751 0.033455145 0.15094529 -0.07379184 -0.114174075 0.12259941 0.10945895
0.069944456 -0.09835557 -0.06416705 0.15501566 -0.08042336 -0.012098359 0.17974763 0.0694435
-0.0890727 -0.015303075 -0.10837296 0.0071715117 0.014463801 -0.22406548 -0.21913604 -0.14825873
-0.15464273 0.0172733 -0.03403916 -0.11206332 -0.07604417 -0.21634428 -0.11396609 -0.15283628
-0.1334812 -0.17568798 0.035354394 -0.21698846 -0.27317402 -0.2108731 -0.15557691 0.004267956
-0.10590998 0.085405454 0.07169171 0.06798315 0.04712903 -0.061045147 0.0071712257 0.025841907
-0.094840944 -0.00910396 -0.032969166 0.1073252 0.15034398 -0.015238423 -0.104500405 0.19143699
0.17893109 0.108096495 0.0152035905 0.087565035 -0.07380518 -0.17188495 -0.0797901 -0.036976337
-0.12763104 -0.03946438 0.12959091 0.060113408 0.11643178 -0.08462978 -0.017354714 0.10519422
-0.048874594 0.14055596 0.059732903 0.11470727 0.12942642 0.2720591 0.2038989 0.030111866
0.24905309 0.31397247 0.21028559 0.16559458 0.085257225 0.036542952 -0.08978171 0.096857905
0.12184698 0.07949322 0.014005717 -0.053590905 0.046191696 -0.12530762 0.06526468 -0.070376515
0.044451334 0.09834478 -0.0029479885 0.08939283 -0.11519237 -0.021871608 -0.028854204 0.118939795
0.05803918 0.043181717 0.026514778 0.18538094 0.099583834 -0.024558885 -0.12504636 -0.118404694
0.18837364 -0.05339253 0.021171078 0.040389314 -0.09586776 0.14039077 -0.07325112 -0.005010738

bias f4 [32]
00000000: 4d47 47be aad5 0abd ffb5 003d edb7 0bbe
00000010: 7e26 a0bc 14a8 213e f20f b7be b6a3 d2be
00000020: 3305 eabd 9bc0 54bc 30f5 a93d 581d 99bd
00000030: 8ef0 e7bd d90b dbbd 1a39 9abc 7be8 afbd
00000040: ad58 003c 366d bebe b247 0abd 36e0 85bd
00000050: 36d2 ffbb cad9 543d 6c53 563d aaa7 1d3e
00000060: 1ecf a4be 99dd 77bc bfad 3bbe 35f8 933e
00000070: e129 92be 09ae 1d3d 74db e0bd f0a1 c53d
-0.19460793 -0.033895172 0.031423565 -0.13644381 -0.019549605 0.15786773 -0.35754353 -0.41140527
-0.11426773 -0.012985374 0.08298719 -0.074763 -0.11325179 -0.10695619 -0.018826056 -0.08589264
0.007833642 -0.37192696 -0.03375978 -0.065369055 -0.0078070415 0.051965512 0.05232565 0.1539599
-0.32189268 -0.015128517 -0.18327998 0.28900304 -0.28547576 0.03849605 -0.10979357 0.09650028

weight f4 [32, 32, 5, 5]
00000000: 3616 a1bb d9d7 d8bc 3d69 28bd 63a9 9dbc
00000010: 17ef 04bd 2a4d 043d a120 7236 f48c be3c
00000020: d125 e33c 77e3 693c 9c8e ef3c 691a de3b
00000030: a4ff d6bc 1c51 bf3b 5c47 343d da97 ae3b
00000040: 1d6b b2bc 4837 81bd 55b3 2cbd e112 80bc
00000050: bbbe 053d b1e0 ba3c 1ae6 cd3c 6624 9c3c
00000060: 3a84 9a3b e202 0dbd e203 f03b 3986 72bc
00000070: 497c 063d 43be 44bc 1c7f c8bc fc06 aa3c
00000080: 8a84 913c f8df 3a3c cf78 f1bc babd 2d3d
00000090: fcff 6abc e575 a73a 1b01 da3b 4c7a eb3c
000000a0: 16ee 873c 687a 303d 6b85 9dbb 7a12 b73c
000000b0: 826b dc3c 0b1a b0bb 375b 993d 823b 6f3d
000000c0: 89cf 263d 6fa7 98bc ef08 123d 3b8d 393d
000000d0: 08c7 7d3c 2fcc f93c fe0c 1f3d c299 883b
000000e0: 3afd c3bc 49b9 13bd e889 4fbb c9e7 123a
000000f0: ab25 44bd 150e 48bc 9107 6f3c 9f6c a9bb
00000100: f1bd 35bd 2bcf 493a 7a2e f0b9 0d93 52bd
00000110: baf9 e7ba 50f2 403c 5f37 5abd 3647 8abb
00000120: 218e adbb c4bf 4ebc 9606 043d 5b57 51bc
00000130: c84d a53c 5b83 e3bc 97d1 6a3b 4c01 92bc
00000140: e17d bd3b b5d0 8fbc 78da 77bc e5b7 fcbb
00000150: bc84 b23b 2147 843c 1631 24bb 767d a03c
00000160: 7d22 e03b 90c4 573c 88e3 9ebb f43c f13c
00000170: 9bb0 0f3d c4c9 d13c 0e03 a73c 6bb1 4e3b
00000180: 5416 663c 78ed b7bc 52e4 f33b 34b3 013d
00000190: 82ad 233d ead6 85bc e484 d9bc ab5d 1fbb
000001a0: 32c9 cd39 6bcc a6bc 999a 0ebd 50db 00bd
000001b0: 69a1 79bd dbe2 80bc 8ed3 24b9 5ef8 16bd
000001c0: 751f 0dbd 3e01 293b 8ad7 5fbc 0cfe c5bc
000001d0: 83bd 0f3d aecb 233d e29b 983c 7bf7 5dba
000001e0: 15a1 583b 41fe c93b 3b7c 843c c09e a5bc
000001f0: 7326 a43b aba8 fc3c 129e b1b8 eeb3 e83b
00000200: af58 8d3d 15cd 87bc 5da4 bf3c a829 c63c
00000210: a377 603d 1599 0f3d b8a6 073c 810a 353d
00000220: fa55 943d 33c3 70bc c2a2 8ebc bed9 32ba
00000230: a8f6 bd3d a574 2ebc b893 27bd eb3b d5bc
00000240: 21a3 2e3d 671e f6ba 519a a3bd 3b2f 0a3d
00000250: 1194 b43d 0398 f03a 7701 f93b 32ff 543d
00000260: e930 203d 1159 5e3c 0878 423d 0408 713c
00000270: 9644 143d a760 0a3d c318 48bc ad74 103c
00000280: 8052 c3ba 709e c23b 9755 233c 0163 d53b
00000290: 1ade babc a9da cc3c fb24 883c de31 753d
000002a0: 3892 b93b 09bb 2ab9 ecb9 24ba c128 1e3d
000002b0: fc63 033d 18c7 d2bc ffe9 263d b166 0dbd
000002c0: 7f21 1bbd 2972 0dbd c0fc d13c eed7 45bd
000002d0: 2072 90bc c4da 893a 6352 82bc e6fb f83c
000002e0: 2505 04bd 35e4 f8bb e127 403b ef6c 443d
000002f0: f2d4 443d d957 863d 172e 243d b0e7 253d
00000300: 93ea 973d 0685 973d 30d4 913d eaba 8f3d
00000310: c80c b53d e6ac 3b3d 3e43 0f3d aed4 6e3d
00000320: a864 6f3c 2b84 ff3c 6517 963c f79f 1fbd
00000330: b9bb 78bc 453c 7d3c 8c44 ecb9 e0bd 00bd
00000340: bb59 75bd c785 e23b 2ef7 8dbc b783 10bd
00000350: fc3f 4dbd 5468 5fbd 8c99 36bd eb5f e2bc
00000360: 78f7 193d bca9 b23c 613d a23d 0f93 0abc
00000370: 8c35 64bd 4dc6 153d 73c6 af3c 740b 973b
00000380: a95d 233a a304 a13b d5a7 b2bc 0457 4fbd
00000390: b7ff 51bd d1f2 7cbb ecdc d93c 7405 a93a
000003a0: 163e 803c a487 ebbc cb4a a0bc 4fd9 9c3b
000003b0: 933f f53c 8736 0e3c ee72 4e3c b924 4c3d
000003c0: 75dd 64bc e743 c13c 4945 cc3c def1 963d
000003d0: 317e 463d 8a0b 033d 916b c63c b041 de3c
000003e0: 40a8 5f3d 2c2f 393d fe53 8e3c baab cdbc
000003f0: 06ad c7bc 8980 98bc 562e 3dbd b1d1 813d
-0.004915978 -0.026470112 -0.041115988 -0.019245809 -0.032454576 0.032300152 3.6079803e-06 0.023260571
0.027727993 0.014275423 0.029242806 0.0067780507 -0.026244946 0.0058385264 0.044013366 0.0053281607
-0.021779591 -0.06309372 -0.04216321 -0.015634002 0.032652598 0.02281222 0.025134135 0.019060325
0.0047154697 -0.034426577 0.0073246816 -0.014802509 0.03283337 -0.012008253 -0.024474673 0.020755284
0.017763395 0.011405937 -0.029476551 0.042417265 -0.014343258 0.0012776224 0.006652964 0.02874484
0.01659302 0.043085486 -0.0048071644 0.022347677 0.026906732 -0.0053741983 0.07488101 0.05840636
0.040725265 -0.018634526 0.03565305 0.045300703 0.015489347 0.03049287 0.03883075 0.00416872
-0.023924459 -0.036065374 -0.0031667892 0.00056039967 -0.047887485 -0.012210389 0.014589206 -0.0051704193
-0.044370595 0.0007698412 -0.00045810995 -0.05140977 -0.0017698326 0.011776522 -0.053275462 -0.004219915
-0.005296484 -0.012618963 0.032232843 -0.012777175 0.02017869 -0.027772596 0.0035830492 -0.017822884
0.005782828 -0.017555574 -0.015127771 -0.0077123516 0.005447952 0.016147198 -0.0025053672 0.019591074
0.006840049 0.013169423 -0.004848901 0.02944801 0.035080533 0.025608905 0.020387199 0.0031538855
0.014043409 -0.022452101 0.0074429894 0.031665042 0.03996039 -0.01633783 -0.026552625 -0.0024317305
0.0003925055 -0.020361146 -0.034815405 -0.031459153 -0.06094495 -0.015733173 -0.00015719069 -0.036857955
-0.034453828 0.0025788094 -0.013662228 -0.02416899 0.03509284 0.039989166 0.018629018 -0.00084673584
0.0033054997 0.0061643426 0.016172519 -0.0202173 0.0050094663 0.030842146 -8.4694606e-05 0.0071015274
0.06901681 -0.016577283 0.023393804 0.024189785 0.054801594 0.0350581 0.008279495 0.04419947
0.07242961 -0.014694977 -0.017411593 -0.0006822607 0.092755616 -0.010647927 -0.04091236 -0.026029548
0.04263604 -0.0018777371 -0.07988418 0.03373645 0.08817304 0.001835585 0.0075990516 0.052001186
0.039109144 0.01357104 0.047477752 0.014711384 0.03619822 0.03378358 -0.012212935 0.00881688
-0.0014901906 0.0059392974 0.009969137 0.0065120463 -0.022810984 0.025006609 0.016619196 0.05986201
0.0056631826 -0.0001628214 -0.0006283808 0.038613085 0.032077774 -0.0257297 0.0407505 -0.034521762
-0.03787374 -0.0345327 0.025633216 -0.04830163 -0.017632544 0.0010517468 -0.015908426 0.030393552
-0.03223147 -0.007595564 0.0029320645 0.04795545 0.048054643 0.06559724 0.040083017 0.040504158
0.07417788 0.07398419 0.0712055 0.07018073 0.088403285 0.045819186 0.034976237 0.058308296
0.014611401 0.031190952 0.018321702 -0.038970914 -0.015181475 0.015456264 -0.000450645 -0.03143108
-0.059900027 0.00691292 -0.017329779 -0.035281863 -0.05010985 -0.054542854 -0.044580027 -0.027633628
0.03758952 0.021809451 0.07921863 -0.008457913 -0.05571513 0.036566067 0.021456933 0.0046095196
0.0006231913 0.004913883 -0.021808544 -0.050620094 -0.05126926 -0.0038596878 0.026594602 0.0012895302
0.015654605 -0.028751202 -0.019566914 0.0047866474 0.029937541 0.0086799925 0.012600644 0.04983971
-0.013968815 0.023591949 0.024935381 0.07370351 0.04846019 0.031993426 0.024221214 0.027130932
0.054603815 0.045211002 0.017374035 -0.0251063 -0.024374496 -0.018615978 -0.046186768 0.063388236

bias f4 [32]
00000000: 348b ffbc b4ab bf3c e54a 2cbe 3002 9abd
00000010: e3cc a13c cc66 0fbb d104 f83c 482c f33b
00000020: 68d6 49be 6e77 f1bd 14d1 92be fa05 dabd
00000030: 2dde f93d a300 8bbd 450c 42be 58ee a7bd
00000040: 1015 82bd 96ab 9cbb a0e9 20be f6b0 4ebe
00000050: 9d53 13be 4064 6d3c b9d6 b2bd 0535 833d
00000060: 3ebc 53bd 6738 8ebd 3a43 9fbd 79c1 14be
00000070: 8f69 41be 666e 47bd e32f 17be 9e27 2cbe
-0.031194307 0.023397304 -0.16825445 -0.075199485 0.019751018 -0.002188134 0.030275734 0.00742105
-0.19710696 -0.117903575 -0.2867514 -0.10645671 0.1220058 -0.06787231 -0.18949993 -0.08199757
-0.063516736 -0.004781197 -0.15714121 -0.20184693 -0.14387365 0.0144892335 -0.08732361 0.06406597
-0.051693194 -0.06944352 -0.07776494 -0.14526929 -0.18887924 -0.04868927 -0.14764361 -0.16811988

weight f4 [64, 32, 5, 5]
00000000: 2931 4ebd ac98 033c 6ef9 d73c e832 013c
00000010: 470d f03c 32b6 7bbb 599b 913c 4c9d f8bc
00000020: 7aee 2cbd e31a 6dbc 014f 01bd 3a9a 3abb
00000030: ba05 eb3c 0a13 20bc 3f74 1a3c b430 ccbc
00000040: d646 ec3c aea8 07bd 6687 eb3c c04f 1ebc
00000050: 7741 e13c 43e1 4a3d c37b dcbb 606b 8fbc
00000060: 5033 ebbc 2ff2 0d3c 3be8 94bd 868d 2d3d
00000070: d967 d93c 00d3 b43b 3668 9f3c 3d85 d53b
00000080: fc6c 6ebb 9457 8738 021a e5bc fa6f d4bc
00000090: 0b00 923a d150 d53c aca5 0b3c d45a 69bd
000000a0: dfd0 b53c 0603 cabc db83 51bc c457 073d
000000b0: 1e96 57bc cd2a 0dbd 4940 febb aa8c 15bd
000000c0: 5c28 443d 7c6c 623c 6adb efbc 50ac 4ebb
000000d0: 25dd f43b 0231 5fbd 4ba0 933a 47a7 83bd
000000e0: a86f acbd 2021 0abc f81c 363b b90c b4bc
000000f0: 2b68 44bd b589 b4bc 72fb 13bc 388d 353d
00000100: 2cfa 2d3d 1223 aabd 454c 4d3d 0823 ca3c
00000110: 978f f13c 3984 1f3d 72c6 bfbb f2a5 8a3b
00000120: 0e8f 733d 289d 533d 3e50 b63d e16d 2bbd
00000130: 4f24 4fbc 336d 2fbc 168b d4bc b4c7 453d
00000140: 90bd 263c a30d b2bc 7b46 a13c 24e4 813d
00000150: a2fb 2e3c 8d12 4f3b 65db ba3c c166 cbbb
00000160: 04a5 79bd 82d8 69bd 6d0f ce3c 6102 80bc
00000170: fcad 34ba dff3 1ebd 523e 87bd f90a d43b
00000180: a71b 07bd 8bc6 21bd 3f68 e8bc 3e01 37bd
00000190: d7d8 39bb 59c5 9eb9 7449 623b 251e 403c
000001a0: 09f8 0cbd c822 2abd 65d8 653d 11c0 563d
000001b0: b390 563b f159 c13c 6671 44bd d060 5cbc
000001c0: 41a9 973b c176 343d a2ae 383c 6f40 cbbb
000001d0: a8e6 85ba 78b3 06bc d240 7abc 8250 2ebd
000001e0: 6947 b0bc 0bac cbbc 4dac d4bc 0501 3bbd
000001f0: fffd 86bb 48bc e6ba e5e7 093d 3724 53bd
00000200: 9529 9ebc 0078 b73c cdc1 06bd a337 ad3a
00000210: b18b 87bd 81d5 94bc 98d3 e7bc 3711 07bd
00000220: 5fce ed3b f777 05bd 9dab 0cbd ba5a 5cbd
00000230: 7b13 1cb9 42fa 3a3c fed2 27bd 8693 4bbd
00000240: 1374 13bd d2b1 6cbc 4822 0cbd de5d 15bd
00000250: 9126 c9bc 767b c1bb 95fe b0bc 3f5d c43c
00000260: 0b1f 43bb 846c 2d3c 997c 0e3b 6c7a 38bd
00000270: acb5 f23c d849 223d 476f af3b 51c5 94bc
00000280: fdf5 3dbd 1fd3 ea3a 19d8 03bd 8622 18bc
00000290: 8659 1cbd 4f5a bfbc 1195 1d3d 9145 a33c
000002a0: 519d 5d3c a70f 3f3d bdcb 1f3d 11b5 2abc
000002b0: 9a76 b0bb aced a5bc 19a7 f5bb 815c 19bc
000002c0: b9e7 5cbc 5b5f cb3c 20c8 d5bb 135a 48bc
000002d0: cd44 183d 13ef 5e3d 3165 ef3c 59d5 953c
000002e0: c964 243d 0d78 0aba 71c3 153d 9440 1c3c
000002f0: af41 a93a dc45 b0bc d530 03bc f224 753d
00000300: d5c4 333d d4d7 353d 8aa1 c03b ac17 06bd
00000310: fafb a53c d865 4f3d ec79 273c 6790 7dbc
00000320: 2b54 713c 7b57 003c 0510 99bc 1681 c4bc
00000330: 27e4 083b de9c ccbc b992 0d3b 3ea5 f7bc
00000340: 8a93 d0bc df4a 8d3c 785d 4abd 9025 f6bc
00000350: 0316 e9bc b64d 483c 9330 02bd 15b1 cebc
00000360: 74d2 73b9 fda5 da3b edd1 4ebc b2b0 aa3c
00000370: 6baf 5dbd 8fce a73c 68fe 59bc 4fae 74bc
00000380: a322 2cbc e80a d7bb d16e 2bbd 08f7 02bc
00000390: 6ebe 7e3c 11e1 4bbc 96f7 81bc b1f5 8b3c
000003a0: d3a2 0cbc 21cf 55bd 3a43 debb 23d5 0f3d
000003b0: 4e59 04bd 7853 e1bc 77b6 47bd 15c4 10bc
000003c0: 8d6d 4f3b 3904 5ebd f1f4 a43c ee94 a3bc
000003d0: b3fe 83bc d12d 8b3b 003d 31bd aeaf 213c
000003e0: 762f f638 7435 9bbd 400a e3bc 90f7 64bd
000003f0: 755a 31bd ef1b 893c b6c4 843c 96d7 1cbd
-0.05033985 0.008032005 0.026364055 0.007885672 0.029303206 -0.0038408157 0.01777427 -0.030348442
-0.042219616 -0.014471742 -0.031569485 -0.0028473274 0.028689254 -0.009770164 0.009427129 -0.024925567
0.028842371 -0.03311985 0.028751086 -0.009662569 0.027497036 0.049531233 -0.0067286207 -0.017507255
-0.028710991 0.008663698 -0.07270857 0.042371295 0.026538776 0.005518317 0.019458871 0.0065161274
-0.0036380878 6.453614e-05 -0.027966503 -0.0259323 0.0011138929 0.026039513 0.008523386 -0.056971386
0.022194324 -0.024659645 -0.012787784 0.033042684 -0.013158349 -0.034464646 -0.007759128 -0.0365111
0.047890052 0.01381981 -0.02927943 -0.0031535812 0.0074726515 -0.054490097 0.0011262981 -0.0642839
-0.08419734 -0.008430749 0.0027788263 -0.021978723 -0.047950905 -0.02203832 -0.009032117 0.04432413
0.04247491 -0.083074704 0.050121564 0.024674907 0.029487414 0.038944457 -0.005852514 0.004231208
0.0594626 0.051663548 0.08902024 -0.041852836 -0.012642934 -0.0107071875 -0.025945228 0.048286155
0.010177031 -0.021735018 0.019686928 0.063423425 0.010680111 0.003159675 0.022809694 -0.0062073176
-0.060948387 -0.057091244 0.02515384 -0.015626134 -0.0006892381 -0.038806792 -0.066036835 0.0064710346
-0.032985356 -0.039495986 -0.02837002 -0.04467892 -0.0028358006 -0.00030283144 0.0034528645 0.011725937
-0.034416232 -0.041537076 0.056114573 0.052429263 0.0032740056 0.023602458 -0.047959708 -0.013450816
0.004628331 0.044058565 0.011272104 -0.0062027494 -0.0010215836 -0.0082215 -0.015274243 -0.042557247
-0.021518426 -0.02486231 -0.025961066 -0.04565527 -0.004119634 -0.001760372 0.033668417 -0.05154821
-0.019306937 0.022396088 -0.032899667 0.0013215434 -0.06618441 -0.018168213 -0.028299138 -0.0329754
0.0072572674 -0.03258511 -0.03434335 -0.05379746 -0.00014884576 0.011412205 -0.040972702 -0.049701236
-0.03599937 -0.014446693 -0.03421238 -0.03646647 -0.024554523 -0.0059046103 -0.02160577 0.023970244
-0.0029773142 0.010584954 0.0021741746 -0.045038626 0.029627644 0.039621204 0.0053538415 -0.018160494
-0.04637717 0.0017915702 -0.03218851 -0.009285575 -0.038171314 -0.023358492 0.03847224 0.019930633
0.013526277 0.046645787 0.03901266 -0.010419146 -0.005385232 -0.020254932 -0.0074967262 -0.009360434
-0.013482981 0.024825742 -0.006524101 -0.012228507 0.03717499 0.054427218 0.029223057 0.018290209
0.04013518 -0.0005282171 0.03656334 0.009536881 0.0012913252 -0.021517687 -0.008007248 0.059849687
0.043888886 0.044395283 0.005878632 -0.03273742 0.020261753 0.050634235 0.0102219395 -0.015476323
0.01472954 0.007833357 -0.018684397 -0.023987334 0.0020887943 -0.024977144 0.0021602346 -0.03023016
-0.025460977 0.017247615 -0.049405545 -0.030047208 -0.028452879 0.012225559 -0.031784605 -0.025230924
-0.00023252686 0.0066726194 -0.012623292 0.020836208 -0.05412237 0.020484237 -0.013305284 -0.0149341365
-0.010506305 -0.0065625794 -0.04185373 -0.007993467 0.015548332 -0.012443797 -0.015865128 0.017084928
-0.008583742 -0.052199487 -0.0067829164 0.035115372 -0.03231173 -0.027505621 -0.048757996 -0.008835812
0.003165099 -0.054203246 0.020136328 -0.019968476 -0.016112661 0.004247405 -0.043271065 0.009868545
0.000117390344 -0.07578555 -0.027714849 -0.055900156 -0.043299157 0.016736953 0.01620708 -0.038291536

bias f4 [64]
00000000: 9c47 fcbd 45c6 073c 9440 b0bd 9c7b 42bd
00000010: 9840 30be ae34 a2bd 1c89 abbd 42f7 a2bd
00000020: b29a b7bc bbd0 7437 9c8a c3bd 8dff 87bd
00000030: 22e5 c2bd 1b1e a4bd 612e 8f3c 1f36 7abd
00000040: 3010 8bbd 92fd 6abd ae67 71bd b6bd 69bd
00000050: db50 4cbd c1bb 92bc 0338 b2bc c724 01bd
00000060: 218e c4bc 028f e9bd 29e0 45bd 66d4 67bd
00000070: 9d4c c5bd e91f 7dbd 2822 b43b b666 97bd
00000080: 0a54 89bd d0a5 e0bb f6fb c7bd b34a 3abd
00000090: ec0f 59bd ae1b 29bd a09d ffbb 6ebd a6bd
000000a0: f0d0 96bd c4e9 20be 5fbc 26be ba3e 9ebd
000000b0: 9e75 edbc a685 b5bd 794c 63bc 444b c5bd
000000c0: 6de1 c4bc dabf e2bd c2cd f3bd 8cc0 31be
000000d0: 4d33 d3bd b4dc 59bc cd71 9fbd 52d1 d7bc
000000e0: 0425 82bb 942b d0bd b258 c4bd 85e1 98bd
000000f0: 0aa7 1fbd cf87 cabd 9ca2 a0bd 546c 80bd
-0.12318346 0.008287017 -0.08606067 -0.047481164 -0.1721214 -0.07920204 -0.08375761 -0.07957317
-0.022412632 1.4592132e-05 -0.09547922 -0.06640539 -0.0951636 -0.08013555 0.01747817 -0.06108677
-0.06790197 -0.05737073 -0.058936767 -0.057065688 -0.049881797 -0.017911794 -0.021755224 -0.031529214
-0.023993554 -0.1140423 -0.04830948 -0.056599043 -0.096337534 -0.06179801 0.005497236 -0.073926374
-0.06705482 -0.006855704 -0.097648546 -0.045481395 -0.0529937 -0.041286163 -0.007800773 -0.081415996
-0.073640704 -0.15714175 -0.16282795 -0.07726808 -0.028986748 -0.08863382 -0.013873213 -0.096334964
-0.024033273 -0.11071749 -0.119044796 -0.17358607 -0.10312519 -0.013297249 -0.07785378 -0.026344929
-0.0039716978 -0.10164562 -0.0958723 -0.074648894 -0.03897766 -0.09889185 -0.07843515 -0.06270662

weight f4 [64, 1024]
00000000: b5e7 91bc 82e8 773d c5ae 393d 2447 fa3b
00000010: 2e3e 983d 8d1e 213d 59c3 d63c 927d a5bb
00000020: d10a 01bc 4047 89bb 5a77 173d 6130 923c
00000030: 32af e2bc b187 24bc 0c17 2c39 a942 c6bb
00000040: 5ab5 a2bc 1791 8f3c ff43 5d3c 98b9 5a3c
00000050: d901 30bd e935 47bb 949f 333d 6c21 7c3c
00000060: e265 4cbc fb92 d8bc c028 3fbd 5a56 88bd
00000070: 275c cf3c 9250 d6bc a7fd 153c 6dc7 b83b
00000080: 6450 a73c fda1 5c3c 599d 47bc 09f1 793c
00000090: 80fb d53b 4984 35bd a96c 3f3b 03fd 813b
000000a0: 1fea 523c 2ed2 f2bc 1e31 183d 1531 733c
000000b0: 0b73 2a3d 1829 793c 6a9a c7bc 791e 883d
000000c0: eb64 1cbc 3e2d e1bc f251 f23c a7f2 7fbc
000000d0: 660a 0d3d b897 fb3b 6cfa 6abc 6cd0 4b3b
000000e0: 8dbd ae3d ca6d 863c a4ea f138 0540 073d
000000f0: 5c87 6e3d 3932 e83c 2462 843d 9e5d 8e3d
00000100: 4e36 10bd 3df9 833d 0da0 a2bc 019a 7c3c
00000110: 9ee4 383d 2283 af3b adc2 20bd 3190 173d
00000120: f743 b33a 1e19 28bc c09e 653d cfe6 8d3c
00000130: b854 473d 3b00 07bd cd9a aa3b e3f5 2ebd
00000140: ff72 9dbc 0bfc 0b3d bf9b 803c 702a 373d
00000150: 9afe d5bc db4e cb3c a140 673c beeb ba3c
00000160: 636d 013d db92 183c 0ffe 1dbc e2ae c2bc
00000170: 1149 39bc 9223 e33c 1f86 efbb 70a8 cd3c
00000180: 8d8f 7abb 3874 f13c 438a 4e3d 76e4 7fba
00000190: 9763 b3bc 92ae 6bbc 53ce e3bc ee79 83bd
000001a0: 94e5 a73c d7d3 083d 6f3f 87bc 9f39 3d3d
000001b0: 9f9e 593c f068 983d b37b 1dbc fd30 e43c
000001c0: 25b2 053d e08b a93a 947a 6c3c 25f0 6bba
000001d0: 827d 25bc f428 1fbd e6e1 d9bc b15c 813c
000001e0: 3a68 6fbc 2259 8abd ae8a 0cba f1be a1bc
000001f0: f0f8 1fbc 3492 523c e628 bcbc a4bd 2c3d
00000200: d189 1b3c be1f 24bd 9e96 62bd daa9 45bd
00000210: 1a5a 933d 31d6 c13c 354d b2bc 00a2 30bd
00000220: 94af 6fbc 19ed 373c c6ec 25bd 94d4 123c
00000230: 298c d43b 5cab b3bd 7b63 43bd 6612 c63c
00000240: 045c 4dbb 0c61 70bc 8297 1a3d 6f9f 07bd
00000250: b1c2 bbba f602 923b 588d 81bc 374c c3ba
00000260: 4775 253d 1c8c 50bc aa01 13bd 4873 6ebc
00000270: d9f4 5a3b bf5e 3bbc f356 0dbd 3120 0bbc
00000280: a7e2 b6bc e76e 5dbd 0da8 1d3c 15a5 3fbd
00000290: 33cc 13bd ddd4 83bb 8679 0f3d 9b65 133c
000002a0: f1b5 693c 22e8 1d3c 6e81 e93c 8d4d 72bb
000002b0: 973a 103b ca23 223d 3bda 823d 5edd bdbc
000002c0: 5f3a 243d 9663 4ebc a55f 06bc ded2 083d
000002d0: e72e c3bc 9ac0 ab3d 4b92 05bd aa5a 563d
000002e0: 02a1 1a3c 95a9 db3c c578 f3bb a573 fa3c
000002f0: c2c3 d63c cb51 2c3c 4559 423d 697d 003d
00000300: 751b 8d3c d78b 7e3d 00db a33b 8de8 62b9
00000310: 9d71 673c df00 19bc 9903 f73c b572 45bd
00000320: 247a af3c 5864 5d3c 4f52 8dbb ea5e d1bc
00000330: 05d4 133d 0c5c e0bc 2b45 263c 090e 1cbd
00000340: 1659 0abd 7298 d13b c253 e2bb 3563 673d
00000350: da42 63bc 72df fb3c 05af 8b3c 5336 e33b
00000360: 8db7 783c 106d 8439 4415 34bd 53e1 0c3d
00000370: b1fd 91bc 73a9 e3bc 62db da3c 5a62 7c3c
00000380: d520 bdbc dc4b d83b 0cd9 f0bc daff 23bd
00000390: eff6 663b 0dab a93b 8928 c3bc 50ab 0cbd
000003a0: 712f 573d 05b8 1c3d 5ffc 5c3a 94dc bebb
000003b0: 56dc fa3c ae88 143d d981 273c ef63 703c
000003c0: fd24 5bbb 14aa 3c3d a1d4 993a 5709 3b3c
000003d0: 7a2d 733b 1afd 73bb 96aa 64bc 7493 b1bb
000003e0: 5c20 463c ca28 04bd ba70 503c 84b2 523b
000003f0: 71e5 103d 455c 993d b3a1 b63d 7cbf f93c
-0.017810682 0.06052447 0.04533269 0.007637875 0.07433735 0.039335776 0.026216196 -0.0050503695
-0.007876114 -0.004189402 0.036979057 0.017845334 -0.02767143 -0.010042117 0.00016411784 -0.006050427
-0.019861866 0.017525239 0.013504981 0.013349913 -0.042970512 -0.0030397123 0.043853357 0.015388828
-0.012475463 -0.026437273 -0.04666972 -0.06657095 0.025312496 -0.026161466 0.009154714 0.005639008
0.020424075 0.013466355 -0.012183511 0.015255221 0.0065302253 -0.04431561 0.0029209054 0.003966929
0.012873202 -0.029641237 0.037156217 0.014843245 0.04161362 0.015207551 -0.024365623 0.06646437
-0.009545545 -0.027487393 0.02958009 -0.015621818 0.034433745 0.0076779984 -0.014341932 0.003109957
0.08532248 0.016409773 0.00011535481 0.03302004 0.058234558 0.02834426 0.06464031 0.0695145
-0.03520804 0.06444023 -0.019851709 0.015417577 0.0451399 0.0053562084 -0.039248157 0.037002746
0.0013676871 -0.010259895 0.0560596 0.017321972 0.04866478 -0.032959204 0.005206442 -0.042714965
-0.019219873 0.034175914 0.015699266 0.044718206 -0.02612238 0.024817875 0.01411453 0.022817489
0.03159846 0.009312357 -0.009643092 -0.023765031 -0.011308924 0.027726922 -0.0073096897 0.025104731
-0.0038232536 0.029474363 0.050424825 -0.00097615214 -0.021898074 -0.0143848825 -0.027808344 -0.064197406
0.020495214 0.03340515 -0.01650974 0.04619753 0.013282447 0.0744189 -0.009612012 0.02785539
0.032640595 0.0012935363 0.014433522 -0.0009000323 -0.010100724 -0.038857415 -0.026596975 0.015791269
-0.014612252 -0.06755282 -0.0005361241 -0.019744368 -0.009763941 0.01285224 -0.02296872 0.042173043
0.009493307 -0.040069334 -0.05531942 -0.048257686 0.0719492 0.023661705 -0.02176533 -0.043123245
-0.014629263 0.011225962 -0.040509008 0.008961815 0.006486435 -0.087729186 -0.047702294 0.024178695
-0.0031335363 -0.014671575 0.037742145 -0.033111032 -0.001432499 0.0044559194 -0.015814468 -0.0014900033
0.040395048 -0.012728717 -0.03589026 -0.014553852 0.00334101 -0.011436163 -0.03450675 -0.008491562
-0.022324873 -0.054060843 0.009622586 -0.046788294 -0.03608341 -0.004023178 0.035028003 0.008996393
0.01426457 0.009637864 0.0285041 -0.0036972493 0.0022007579 0.039584912 0.063892804 -0.023176845
0.04009473 -0.012596985 -0.008201514 0.033404224 -0.023826076 0.08386345 -0.03261022 0.052332558
0.009437801 0.026814261 -0.0074301683 0.030572722 0.026216391 0.010517548 0.047448415 0.0313696
0.017225007 0.06214508 0.005000472 -0.00021639671 0.014126209 -0.009338587 0.030153083 -0.048205096
0.021420546 0.013512693 -0.0043127905 -0.025557954 0.03609087 -0.027387641 0.010148327 -0.038099322
-0.033776365 0.0063963467 -0.0069069574 0.056491096 -0.013870919 0.030746195 0.01705123 0.006933966
0.015180481 0.0002525826 -0.043965593 0.034394573 -0.017821165 -0.02779076 0.026715938 0.015404308
-0.023086945 0.00660084 -0.029400371 -0.04003892 0.0035242399 0.0051778615 -0.02382304 -0.034343064
0.052535478 0.038261432 0.000842994 -0.005824635 0.030622642 0.03626316 0.010223829 0.0146722635
-0.0033438795 0.046060637 0.0011736342 0.011415801 0.0037105964 -0.0037229718 -0.0139566865 -0.005419189
0.012092676 -0.032265462 0.012722189 0.003214986 0.035375062 0.07488302 0.089175604 0.030486815

bias f4 [64]
00000000: 6a27 f0bc 0586 3d3a fe93 1ebd 747c b4bc
00000010: 6cac 1e3c db3e bd3c b682 29bb 27de 0abd
00000020: 4895 2c3c 82ab 65bd 7ebe 6e3b b00a 033b
00000030: 174a a43b c23c 333d 3065 2abc 614a 8bbb
00000040: 91cb a13c 92b6 0c3d f8f6 96bd 3cbe 91bb
00000050: fe5e 1fbb 1a54 91bc 5aa3 38bc 56bb 523d
00000060: c193 6c3c 3235 423d f5f0 883c ed81 213d
00000070: 55e6 633d d235 043d 6b67 36bc 9a20 113c
00000080: a867 34bd d60a 393d a6e8 fb3b 7284 e9bb
00000090: c2a3 34bc 8ccd e63c e8dc 45bd 479a b4bb
000000a0: 0903 5bbd c258 79bc 7d97 28bc bb2f c33c
000000b0: ee27 8e3b 08c0 a1bb 0a2f 463d 4d11 15bd
000000c0: 7824 993d 25b6 8d3c daa0 f3bb 01e3 dcbc
000000d0: e6a0 35bd 9406 3e3a 09cd 01bc cdf7 2b3c
000000e0: b366 883d d19e 94bc 7a1a ddbb fb6b b53c
000000f0: 113c 85bd f940 6aba 7afb 403c 269a 67bd
-0.02931567 0.00072297483 -0.038715355 -0.022032 0.009684663 0.02310126 -0.0025865263 -0.033903267
0.010533638 -0.056071766 0.003642946 0.0019995384 0.005013715 0.043759115 -0.010400102 -0.00425081
0.019750388 0.0343538 -0.07371324 -0.0044477265 -0.0024318094 -0.017740298 -0.011269415 0.05144819
0.014439524 0.047414012 0.01671646 0.039430548 0.055639584 0.03227789 -0.011133055 0.0088578705
-0.044044167 0.04517635 0.007687646 -0.0071263844 -0.011025371 0.028174184 -0.048306376 -0.0055115554
-0.05346969 -0.015218915 -0.010290024 0.02382647 0.004338256 -0.004936222 0.048384704 -0.036393452
0.07477659 0.017298767 -0.0074349465 -0.026963713 -0.044342898 0.0007248905 -0.007922419 0.010496092
0.06660213 -0.018142136 -0.006747541 0.022146216 -0.065055974 -0.0008936073 0.011778707 -0.05654349

weight f4 [10, 64]
00000000: fc7b b53d fb3f 433d 7014 1d3e 3662 78be
00000010: 45e3 4dbe a366 423e ef8d a4be 5527 b43e
00000020: ae2f e0bd 467c e43c 72ff 15be 4112 853d
00000030: 3a87 f0bb e3d2 f8bd c7da 03bd b27c 49bd
00000040: d5a5 1b3d dfca 9bbe 320b 153d 161d 733d
00000050: 8df8 7a3a 859d c7bd fa30 13bd 4cb1 8e3d
00000060: 39cd 16bc 0211 45be 9082 febd 4335 3c3e
00000070: 183f 9fbe a2b5 4dbe fbaf 5fbd 2ce3 613c
00000080: 6fc7 c9bd 64aa 0d3e 1acc 21bc bdd9 bc3e
00000090: 2137 513e 0876 063e 78e5 763d 8258 bcbe
000000a0: 1fc1 563e 8982 debd 2800 2abe c38b 28be
000000b0: 0c35 a53d 687b d13d 28b4 36be 95a2 13be
000000c0: f32e a2be a5a8 77bc 17cd 273e 7687 5a3e
000000d0: 5902 43be a98d d5bd 569d 10bb e5cd 193d
000000e0: 36d5 88bd da8f 0a3b 82d7 8ebd e4e9 efbd
000000f0: b5c7 2b3e 95ba 94be 6991 033e 15ca 9d3e
00000100: 28e0 843e e3ec 5bbe 28a6 79be 4c1d 873e
00000110: f8df 69bd 17c5 12be 87b9 d4bd 162a cc3d
00000120: aecf 433e ed8a 15be 248e b6bd 1906 06be
00000130: 2d8b 4f3c 6713 83be 5b84 15be 2f51 91bd
00000140: 8b69 b83b 74e8 89be 4cbb 903d 21f9 3b3e
00000150: f66d 37be 9203 c13e fbb4 f83d 5361 573e
00000160: 4b48 9e3e bb4d 383d a3e3 623e dd71 20be
00000170: 387f 5cbe bd58 253e fbed 40bd 4f02 623d
00000180: 9f51 fabd e44f 8fbe 0537 f3bd e71e b2be
00000190: 824c bd3d 7200 813e dfe0 6abe 4a4b 63be
000001a0: 6b6e 2cbe 3f2c 613e 9c93 8a3e 8608 4e3e
000001b0: 6fed 91be d65a 763b 14d0 95bd 1162 583d
000001c0: 3fa8 6fbe c2ab 94bd 3dad 813c 8895 85be
000001d0: ab4c 1cbe 92b2 b03e c1b6 7a3e 148d 953e
000001e0: 5cef a3be 82ab 3cbe 1586 a43e 4914 a2bd
000001f0: 1927 51bd 6e01 2bbc fca5 663e ae5a 76be
00000200: dd74 6cbe 478c d43c ce40 c2bc 0c71 14be
00000210: aab2 7ebe 2559 b53e 86e7 c13d 6413 423e
00000220: 5a1c b6bd a287 ff3c 6d0e fb3c 6678 63bc
00000230: c99c 31be 89d9 dd3b 821d af3d 16c3 8f3e
00000240: badb a9bd e1b5 d3bd 728e 833e 1113 98be
00000250: c7f5 a03d f587 55bc deec d23b 114a aabd
00000260: 3427 ad3d e888 4dbe f0cc 91be 3113 9dbe
00000270: 1e23 ec3b 7ab0 de3d fccc d7bc 24c1 023d
00000280: d260 3abe b8a5 b3bd f55b bbbb 7c09 ac3e
00000290: 491f 6cbe eaee 5b3d d68c 61bc 49f4 943e
000002a0: 9278 843e 356f 89be 9581 723e 8741 283e
000002b0: aedb 8a3e b3c7 e4bc 3159 77bd 6f92 29be
000002c0: 88d0 9b3c 7ccb dbbd 5c8b 40bd c495 b9bd
000002d0: 0e55 2abe eae5 12be 7d8b 303e ab0b 8bbe
000002e0: 21af 8b3e ba1b 6bbd c931 13be 383c 0fbd
000002f0: 9b78 ebbd a3b3 5d3e 0ca5 cf3d 2cba 1ebe
00000300: eac0 6d3e 5325 3b3d 9902 4c3e 5458 c73d
00000310: 25be 4e3e 52bc 743d bac0 863e c18e e6bc
00000320: 8df0 a93d 7870 d33d c557 b73d 499e 2fbe
00000330: 8cb2 0d3e 5226 f13d 489e 043e 4534 bebd
00000340: b012 20be f847 6f3d bc3b 8c3d d8e8 803e
00000350: 84e3 39be aa70 8dbe aebc a73c 6308 6ebe
00000360: 8b8b 2a3e 2c81 143b 71da 3bbe 335d 6a3e
00000370: 2b13 933c 3b4d b1bc f155 cabd 3080 003e
00000380: f5ae 28be 4852 013e 68c5 ccbd a086 52be
00000390: e9e3 f4bd b6d6 cebd 3ecd ab3c 92c4 53bc
000003a0: ec2c 303d 4d19 853b ead9 33be 3350 ea3d
000003b0: 464a c83c f411 6538 ec70 d2bd 5cfd 26be
000003c0: d777 ba3d 051b e63d 8708 57be b0d0 fbbd
000003d0: 4fcf 013e 2aff 67bd e11c 7a3d 99e9 4dbe
000003e0: 63a2 0b3e 970c 32be 4aac 67be 0f11 10be
000003f0: 91fa abbd 872c 053e 514c c2bd 5bb6 e93c
0.08861539 0.04766844 0.15339828 -0.24256214 -0.20106228 0.18984465 -0.32139537 0.35186258
-0.10946594 0.02789129 -0.14648226 0.06497622 -0.007340339 -0.121495984 -0.032191064 -0.049191184
0.037999947 -0.30428216 0.03638763 0.05935391 0.000957378 -0.09746841 -0.03593538 0.069674104
-0.009204202 -0.19244769 -0.124272466 0.18379693 -0.31102824 -0.20088819 -0.054611187 0.013787072
-0.09852492 0.1383453 -0.009875322 0.3688487 0.20431186 0.13130963 0.060277432 -0.36786276
0.20972107 -0.10864741 -0.16601622 -0.16459565 0.080667585 0.10228616 -0.17842162 -0.14417489
-0.31676444 -0.015115892 0.1638683 0.21340737 -0.19043864 -0.1042741 -0.0022066436 0.037549872
-0.06681292 0.002114287 -0.069746986 -0.11714533 0.16775401 -0.290486 0.12848438 0.3081824
0.25952268 -0.21477084 -0.2437979 0.2638954 -0.05709836 -0.14332996 -0.10386949 0.09968965
0.19122192 -0.14603777 -0.0891383 -0.13088264 0.012667459 -0.2560074 -0.14601271 -0.07095563
0.005627816 -0.2693516 0.07066974 0.18356754 -0.1791304 0.37698036 0.12143894 0.2103322
0.3091453 0.044996005 0.22157149 -0.15668435 -0.21532905 0.16147132 -0.047101956 0.055177983
-0.12222599 -0.2799064 -0.118757285 -0.34789202 0.09243108 0.25195652 -0.22937344 -0.22196689
-0.16838996 0.21989535 0.27065742 0.20120439 -0.2850146 0.0037590764 -0.073150784 0.0528279
-0.23404025 -0.07259323 0.015829677 -0.26090646 -0.15263622 0.34511238 0.24483778 0.29209197
-0.32018554 -0.184248 0.32133546 -0.07914025 -0.051062677 -0.010437353 0.22524256 -0.24058029
-0.23091455 0.025945796 -0.023712542 -0.14496249 -0.24872842 0.35419574 0.09467988 0.1895271
-0.088921264 0.031192604 0.030646527 -0.013883686 -0.17344965 0.006770317 0.0855055 0.28078526
-0.08293863 -0.10337425 0.25694615 -0.29702047 0.07859378 -0.013032903 0.006436928 -0.08314908
0.08454743 -0.20071757 -0.28476667 -0.30678704 0.0072063347 0.10873504 -0.026342861 0.031922475
-0.18200997 -0.08771843 -0.0057177492 0.33600986 -0.2305881 0.053694643 -0.013766488 0.29092625
0.25873238 -0.26842657 0.23682244 0.16431247 0.27120727 -0.027927255 -0.060387794 -0.16559766
0.019020334 -0.10732171 -0.047007903 -0.09061769 -0.16634008 -0.14345518 0.1724071 -0.2715734
0.2728205 -0.05739949 -0.1437446 -0.03496954 -0.11497613 0.21650557 0.10138902 -0.15500706
0.23218122 0.045689892 0.19922866 0.09733644 0.20189722 0.05974991 0.26318914 -0.028144242
0.082978345 0.10324186 0.089522876 -0.17150225 0.13837641 0.11774887 0.12951005 -0.09287313
-0.15632129 0.058418244 0.06847331 0.25177646 -0.18153197 -0.27625018 0.020475712 -0.23245387
0.16654794 0.002266 -0.18345048 0.22887115 0.017953476 -0.021643272 -0.09879673 0.125489
-0.16472991 0.12629044 -0.0999859 -0.20559168 -0.11957533 -0.100995466 0.02097189 -0.012925284
0.04301159 0.004061854 -0.17563596 0.11441078 0.024449479 5.4614575e-05 -0.102754444 -0.16307586
0.09104889 0.11235622 -0.20999347 -0.12295663 0.12676738 -0.056639828 0.061062697 -0.20108642
0.13636164 -0.17387615 -0.22624317 -0.14069007 -0.08397401 0.13005267 -0.094872124 0.028529337

bias f4 [10]
00000000: bdc3 67be f1be 98bd d02f df3d 46ba cf3d
00000010: 36dd 383e 5c95 24be aabd 173e 9be4 843d
00000020: 0fd6 c6bd 9120 033d
-0.22633262 -0.07458294 0.108977914 0.10142951 0.18053135 -0.16072601 0.14818445 0.064889155
-0.09708797 0.03201348
