Pytorch/model_data/CIFAR10_EPOCH16.pth (torch, 588839 bytes, 10 tensors)

weight f4 [32, 3, 5, 5]
000000 45 a9 cd bc 53 73 49 bd 29 bd 64 bd a5 95 06 be
       -0.025105128 -0.049182247 -0.05584446 -0.13143022
000010 0a 54 33 bd 51 05 29 be 49 13 08 be 2e a4 ce 3d
       -0.043781318 -0.16505934 -0.13288607 0.100899085
000020 c7 79 54 bd bf f4 d6 bd 0f 2a 1a be 7b 2f 82 bd
       -0.05187395 -0.104959 -0.15055107 -0.063567124
000030 b7 57 11 3e 87 5f ca 3d 59 b7 3a be 1c 2c 92 3d
       0.14193617 0.09881502 -0.18234004 0.071373194
000040 d8 dd ce bd d7 11 c7 3d d7 30 1a 3e 8b a6 10 be
       -0.10100907 0.097201996 0.15057693 -0.14126031
000050 36 e9 4d 3d aa ec 9d bc f3 95 28 3e 3b c0 06 3e
       0.050271235 -0.01927789 0.16463451 0.13159268
000060 d7 2f fd bd 36 39 e7 bd 1a ec 34 3d ab 99 de 3d
       -0.1236264 -0.11290209 0.044170476 0.108691536
000070 4a 48 7a bd 83 93 33 be 82 da 89 bd 01 17 b0 3d
       -0.061104096 -0.1753674 -0.0673113 0.08598138
000080 3a ef ae bd 56 81 7c 3d a7 c8 3c be e0 f7 2f bd
       -0.085417226 0.06164678 -0.18435918 -0.042961
000090 39 f2 18 bd b0 cb 94 3d 93 f7 e2 3d 1e cb 1a 3d
       -0.037340377 0.07265413 0.11082377 0.037791364
0000a0 f5 14 28 3d 18 ca c6 bd b7 ea fe 3c ad 4a 20 3e
       0.04103561 -0.09706515 0.03111778 0.15653487
0000b0 06 26 15 3c 97 78 04 3d cc d1 e7 3d f8 53 4d 3e
       0.009103304 0.032341566 0.113193125 0.20051563
0000c0 6e 1d 32 3e dd 45 0d 3d a0 5f 85 bd 34 ab 87 bd
       0.17394039 0.034490455 -0.0651238 -0.06624451
0000d0 08 a4 f8 bd a8 3d 7d bd c0 c9 44 be d4 1d aa bc
       -0.121406615 -0.061826378 -0.19217587 -0.020766176
0000e0 89 d9 27 3d d4 bd 86 bc 9e bd 61 3d 47 f6 30 be
       0.040978942 -0.016447939 0.055112474 -0.17281447
0000f0 e4 49 56 3d e4 b2 60 3d d8 e2 58 3c 50 05 c5 3d
       0.05231656 0.054858103 0.0132376775 0.09620154
000100 e8 ad 0e be e8 55 48 bb 5c 81 3a 3d 1b e1 29 3e
       -0.13933527 -0.0030568782 0.045533523 0.16589777
000110 a2 b8 56 bc e4 ab 13 be a0 a6 70 3d 39 f9 0a 3d
       -0.013105543 -0.1442104 0.058752656 0.033929083
000120 2b 29 31 3e 4f cf 2b 3e a4 ab b3 3d a0 ba 9e 3d
       0.1730086 0.167783 0.08772972 0.0775044
000130 b2 38 d5 3d c8 0a 21 3e a8 2a 8d 3d 31 86 f4 bc
       0.104112044 0.15726769 0.06892902 -0.029849144
000140 89 a1 5b bc 1b 38 97 3d f7 0c b8 3c a1 fe 26 be
       -0.013405212 0.07383748 0.02246712 -0.1630807
000150 04 d4 07 be e3 4a 01 3e a0 b5 24 be 58 6c 94 3c
       -0.13264471 0.12626223 -0.1608491 0.018118069
000160 f4 3f 1b be b2 f2 b2 3d ed 8b ed 3c f1 91 57 bc
       -0.15161115 0.08737697 0.028997386 -0.013157354
000170 11 7c 58 3c 95 dc 02 3e df 0b 3f bd 9b 97 f5 3c
       0.0132131735 0.12779458 -0.04664218 0.029979518
000180 4f 37 ba 3c 3b bc ed 3c de ee bb 3d 4f 11 1d 3a
       0.022731451 0.02902042 0.0917642 0.0005991654
000190 70 4b 88 3d 5d 45 db 3d f9 00 b1 3d 56 36 1e 3d
       0.066550136 0.10706589 0.08642764 0.038626038
0001a0 1a a7 41 be e8 3d ea 3d 44 68 90 3c 96 da a4 3c
       -0.189114 0.11437589 0.017627843 0.020123761
0001b0 b4 f9 56 be ce fc 4d be fd ca 92 bd 4c c3 26 be
       -0.20993692 -0.20115969 -0.07167623 -0.16285437
0001c0 b4 3f 69 bd 99 f2 91 3c 4e ab 05 be 53 7a c8 bc
       -0.056945518 0.017815875 -0.13053629 -0.024472391
0001d0 00 17 b7 bc e9 13 a5 3b 28 3d 4c bc f8 70 81 3b
       -0.022349834 0.005037774 -0.012465753 0.0039502345
0001e0 1d ae 19 bd 7b a8 3a 3d 5c 94 c1 3d b5 78 1c bc
       -0.037519563 0.04557083 0.094521254 -0.009550263
0001f0 b1 1e 82 bd 1f 4f c7 3a 10 92 97 3d 7b e5 25 3e
       -0.0635351 0.0015206075 0.07400906 0.16200821
000200 c8 a9 9d bd 3f 07 da 3c ed 1a 23 3d d4 9c 50 bc
       -0.07698399 0.026614783 0.0398206 -0.012732703
000210 c2 97 9c bd 03 c5 15 be 7b c5 86 3d 0a 12 f3 3c
       -0.07646133 -0.14625935 0.06580635 0.029671688
000220 bc 79 11 bc 25 a2 df bc 30 b0 b7 3c 8b a3 aa 3d
       -0.008879121 -0.027298996 0.02242288 0.083319746
000230 53 0a 37 bd 1e eb 93 bd a5 f2 f1 3d d3 cb 87 3d
       -0.04468758 -0.072225794 0.11813859 0.06630673
000240 54 ae 7e 3d 1c 0c 94 bd ec 35 96 bd d3 9e 02 3e
       0.06217797 -0.07228872 -0.073345035 0.12755899
000250 8d 42 b0 bd 5f 1c 61 3c 2c 8b eb 3d 8f 88 d0 3c
       -0.086064436 0.013739674 0.11501154 0.025455741
000260 ad ec f3 bd 61 0f d8 bc 5a e4 f6 bd b2 34 a4 bc
       -0.11910377 -0.02637452 -0.12055273 -0.020044658
000270 4a 64 a1 3c d5 44 49 be 6c 97 3e be 4d 28 08 be
       0.019701142 -0.19655164 -0.1861245 -0.13296624
000280 5b ae 08 be 58 30 16 3d 8c d2 db ba 30 f6 9c bd
       -0.13347761 0.036667198 -0.0016771122 -0.07664144
000290 ed 4e 37 bd 6f 1e 34 be 03 f9 c4 bd 56 a4 ee bd
       -0.044753004 -0.17589734 -0.09617808 -0.11652438
0002a0 d2 b4 b8 bd b7 63 12 be e0 bb ff 3c 73 b3 4d be
       -0.09018864 -0.1429585 0.031217515 -0.20087986
0002b0 35 fd 65 be 22 60 3c be c8 90 23 be 0f fc ae bc
       -0.22459872 -0.18396047 -0.15973198 -0.021360425
0002c0 a4 01 f8 bd fd c5 47 3d 56 8b 33 3d b3 fe 4d 3d
       -0.12109688 0.0487728 0.043834053 0.05029173
0002d0 69 e8 2d 3d a0 4e 46 bd 2e 90 03 3c 11 ea c3 3c
       0.04245797 -0.048414826 0.008029981 0.023915322
0002e0 96 f6 ca bd af 7c 56 3c ef e5 01 bd a7 95 c4 3d
       -0.09910314 0.01309125 -0.031713422 0.095988564
0002f0 26 94 0d 3e 8f 31 61 bc 6d e0 a4 bd 78 59 2e 3e
       0.13826045 -0.013744726 -0.08050618 0.17026317
000300 72 83 1b 3e ba 30 b4 3d 7e 83 92 3b 5b 4e aa 3d
       0.15186861 0.08798356 0.0044712415 0.08315726
000310 49 de 92 bd a7 38 1e be 6e 63 b1 bd 33 9e 80 bd
       -0.07171304 -0.15451299 -0.08661543 -0.06280174
000320 ce 0b ec bd e7 76 f4 bc 56 41 d4 3d 17 21 36 3d
       -0.11525689 -0.029841853 0.10364024 0.04446515
000330 0a dc f2 3d d1 58 77 bd 8a 71 12 3c a2 ca d7 3d
       0.11858375 -0.060387436 0.008938203 0.10536696
000340 1f 0e 3f bd 5d b4 1b 3e ca 67 ba 3d 6e f5 e5 3d
       -0.046644326 0.15205522 0.091018274 0.112284526
000350 ea bc cd 3d 4a cd 7c 3e af 7a 52 3e 89 04 66 3d
       0.10045798 0.24687687 0.20554613 0.05615667
000360 c2 a7 5e 3e 28 ed 85 3e 1c 9c 2c 3e 41 c7 15 3e
       0.21743682 0.26157498 0.16856426 0.1462679
000370 5e 66 c1 3d ad 7b 28 3d 88 bb a8 bd 3f d7 b3 3d
       0.09443353 0.04113357 -0.08238894 0.08781289
000380 4b 82 dc 3d 78 bb 98 3d 8a a9 77 3c 9b e4 10 bd
       0.10767039 0.07457632 0.015116105 -0.035374265
000390 90 b3 1e 3d 9f c4 c6 bd 17 90 63 3d f4 56 84 bd
       0.038745463 -0.09705471 0.055557337 -0.064618975
0003a0 fd ff 4b 3d 41 31 bb 3d 3c 29 e8 3c 0c f8 ad 3d
       0.049804676 0.09140254 0.028339975 0.08494577
0003b0 97 2c dd bd 9d 02 85 bc 9d 64 d3 bc 52 73 01 3e
       -0.107995205 -0.016236598 -0.025804812 0.12641647
0003c0 54 4d 5c 3d 98 88 29 3d fd f1 21 3d 2d 89 21 3e
       0.053784683 0.04139003 0.03953742 0.15774985
0003d0 9a ab a3 3d 79 48 00 bd e5 39 04 be e3 c3 e8 bd
       0.07991715 -0.031319115 -0.1291271 -0.113654874
0003e0 3b 4b 25 3e 48 1c cf bc 82 d3 01 3b 36 2e 01 3d
       0.1614198 -0.02528204 0.0019809906 0.03153821
0003f0 5f 48 ad bd 89 74 f0 3d b4 ce 86 bd 53 f8 a3 bc
       -0.08461069 0.11740977 -0.06582394 -0.020015871

bias f4 [32]
000000 00 47 22 be 6c 2d 95 bc 2d 14 30 3d 7b c9 bb bd
       -0.15847397 -0.018210135 0.04298799 -0.09169289
000010 a7 d4 83 bc cb aa 50 3e cc c0 ab be 54 39 c1 be
       -0.016092611 0.20377652 -0.3354553 -0.3773905
000020 51 27 bd bd 96 80 8a bc 84 b1 11 3e 60 e0 8a bd
       -0.09236015 -0.016907018 0.14227873 -0.067810774
000030 6f 20 89 bd 3a bc c7 bd 8a 57 2f bc 8d c9 c3 bd
       -0.06695639 -0.09752698 -0.010702023 -0.09559927
000040 a8 76 f9 ba 38 12 b6 be 88 fc 12 bd 3e 99 b6 bd
       -0.0019032555 -0.35560775 -0.035885364 -0.089159474
000050 84 48 25 ba 7e b4 9b 3d b9 96 9f 3d ca e7 15 3e
       -0.0006305056 0.076027855 0.0779242 0.14639202
000060 17 d2 99 be 38 27 3d 3c 9d fd 20 be 67 03 8b 3e
       -0.30043098 0.011544995 -0.15721746 0.27151033
000070 15 10 86 be 55 18 21 3d a3 c6 c9 bd df a9 bf 3d
       -0.26184145 0.039329845 -0.0985234 0.09358572

weight f4 [32, 32, 5, 5]
000000 da 7c 2a b9 13 e5 22 bc c6 de 78 bc ca 29 f3 bb
       -0.00016258974 -0.009942311 -0.015189832 -0.007420753
000010 ed 97 de bc 4c 2e 11 3d 20 44 14 3c 42 95 19 3d
       -0.027172053 0.035444543 0.009049445 0.03749586
000020 da b9 15 3d a7 41 e8 3c 8c b5 cb 3c f3 64 4b 3c
       0.036554195 0.028351618 0.024866842 0.012414205
000030 cc 51 90 bc 1d 4c 07 3c 13 87 12 3d 10 0d 9c bb
       -0.017617129 0.008257893 0.035773348 -0.0047622994
000040 0a d4 39 bc fc 12 64 bd 47 19 f8 bc f5 34 c1 bc
       -0.011342058 -0.055682167 -0.03028549 -0.023584822
000050 54 18 03 3d 88 20 d2 3c 93 12 e1 3c f5 59 f6 3c
       0.032005623 0.025650278 0.027474677 0.030072192
000060 48 81 2d 3c 73 cd 1f bd ff f1 3d 3c 14 76 aa bc
       0.010589905 -0.03901429 0.011593341 -0.020808257
000070 75 0c cf 3c 2b c1 2a bc b4 51 ae bc 06 ea c3 3c
       0.025274495 -0.010422031 -0.021279193 0.023915302
000080 95 96 66 3c 96 f5 1a 3c e4 6f d0 bc 45 bc 36 3d
       0.0140739875 0.009457966 -0.025443979 0.04461314
000090 12 23 39 bc 5f dd 2f 3c ef 38 53 3c 25 58 ec 3c
       -0.011299865 0.010733931 0.012891992 0.028850624
0000a0 84 92 8c 3c 4d 57 2c 3d 49 b9 22 bc 44 59 80 3c
       0.017159708 0.042075444 -0.009931871 0.015667565
0000b0 14 b2 f0 3c e5 fc d5 3a 63 d5 74 3d da b9 45 3d
       0.02938179 0.0016325979 0.059773814 0.048272945
0000c0 92 3d 31 3d 0e bd ba bc 9b 6a f8 3c 4a 8f 2c 3d
       0.04327161 -0.022795226 0.030324271 0.04212884
0000d0 49 f0 d8 3b a8 38 cb 3c 7c 1a 18 3d 7d a4 52 3c
       0.006620441 0.02480729 0.037134632 0.0128566
0000e0 25 8e a8 bb 65 1c db bc 67 af 8e 3c 53 da 9f 3c
       -0.005143898 -0.026746938 0.017417623 0.019513285
0000f0 9a 2e 44 bd fe bd 3d bc 83 0a a2 3c cb 39 5d 3c
       -0.047896005 -0.011580942 0.019780403 0.013502548
000100 1d 6b d7 bc 2a 8d fa 3b e2 a1 e7 3b 4d 24 2f bd
       -0.026296193 0.0076462226 0.0070688585 -0.04275923
000110 27 b1 b3 3a 54 86 1e 3c 3a 29 29 bd a5 0c f7 3b
       0.0013709412 0.009675581 -0.041299082 0.007539349
000120 5a a5 47 bc 1b 3c 10 bc b0 da ff 3c 2f 6e 82 bb
       -0.012185419 -0.008803393 0.031232208 -0.00398042
000130 a9 94 b9 3c 5e aa a8 bc 08 13 f9 3b f4 38 b0 bc
       0.022653894 -0.02058905 0.0076011457 -0.021511532
000140 bc 00 88 3c 6c f6 43 bc b6 ae 9d bb 97 79 5f bb
       0.016601913 -0.011960607 -0.004812087 -0.0034099573
000150 d6 8d 98 3a 85 f0 4f 3c 32 0c 90 3b a8 08 11 3d
       0.001163895 0.012691622 0.004395985 0.035408646
000160 32 61 6f 3c 57 f7 e8 3b fd 4b 8b ba 03 33 1a 3d
       0.0146105755 0.0071095633 -0.0010627505 0.037646305
000170 f6 a6 19 3d c0 68 c2 3c b9 b0 a8 3c 30 14 49 3c
       0.037512742 0.02373159 0.02059208 0.0122728795
000180 bc bf bc 3c ae a2 8d bc 0b e4 08 3c f3 44 08 3d
       0.023040645 -0.017289486 0.008355151 0.03326888
000190 ea ec d5 3c 6e 2d 96 bc 8c 66 f1 bc d5 60 7b bb
       0.026113946 -0.01833221 -0.029467843 -0.0038357277
0001a0 94 c4 d1 bb 12 b8 a1 bc 78 80 a2 bc 28 54 77 bc
       -0.0064016078 -0.019741092 -0.01983665 -0.015095748
0001b0 62 fe 53 bd a6 4e b0 bb a7 ac ae bb 5a f7 fa bc
       -0.05175627 -0.0053804694 -0.0053306404 -0.030635525
0001c0 b5 10 02 bd 3c 6d 75 ba b6 1a cf bb fa 9b cd bc
       -0.031754214 -0.00093622855 -0.006320323 -0.02509879
0001d0 29 ef f8 3c 67 b4 ea 3c a6 01 35 3c 88 4f 49 bc
       0.030387478 0.028650476 0.011047756 -0.012287028
0001e0 13 b1 22 3c 29 a7 0a 3c 3b a4 8e 3c 99 7f b8 bc
       0.009929913 0.008462706 0.017412296 -0.02252178
0001f0 7f 34 6c 39 c6 b3 8b 3c 34 29 33 ba 73 67 ab 3c
       0.0002252627 0.017053496 -0.0006834448 0.020923352
000200 2a d4 59 3d d1 d2 b1 bc f5 b7 c7 3c 9c 45 b3 3c
       0.05318085 -0.02170697 0.02437971 0.021883778
000210 a4 aa 3c 3d 7e a4 ba 3c d1 72 5f 3a 7f 2f 56 3c
       0.046061173 0.022783514 0.0008523884 0.013072847
000220 b8 2a 3d 3d 0f 9e a1 bc 34 fd e2 bc 64 00 91 bc
       0.046183318 -0.019728689 -0.027708627 -0.017700382
000230 cd 43 7f 3d 71 92 3e bc a0 5d 4a bd 9e c0 20 bd
       0.06232052 -0.011631594 -0.049405694 -0.039246194
000240 c8 c0 d4 3c bb b9 55 3b 43 0a 5f bd e6 a2 7d 3c
       0.025970832 0.0032611925 -0.054453146 0.015480733
000250 fe 4e 7e 3d 0f d9 47 3a dc e2 0f 3c 96 48 39 3d
       0.06208705 0.0007623592 0.008782115 0.04523524
000260 ed ad f8 3c 10 aa fe 3b 4f 12 49 3d 61 91 5a 3c
       0.030356372 0.007771738 0.049089726 0.013340325
000270 0c 74 09 3d 7c a3 16 3d 85 da d9 bb 16 eb a0 3c
       0.033557937 0.036777005 -0.006648364 0.019643348
000280 d4 07 39 3b 33 5c 46 3c 89 bd 4a 3c 42 73 99 3c
       0.0028233426 0.012106943 0.01237429 0.018731717
000290 44 59 20 bb f4 ce aa 3c 59 f4 35 ba bd 36 37 3d
       -0.002446727 0.020850636 -0.00069410127 0.044729937
0002a0 7c 18 ae 3b 0a e9 02 ba c7 d6 d5 bb 55 66 15 3d
       0.0053129774 -0.0004993832 -0.0065258476 0.036474545
0002b0 c0 f9 0b 3d 9a 69 c6 bc 40 51 1d 3d 0f 72 ed bc
       0.034173727 -0.024220277 0.038407564 -0.028985051
0002c0 28 7f 10 bd 34 35 cc bc 49 40 eb 3c d4 d5 17 bd
       -0.035277516 -0.024927713 0.028717177 -0.037069157
0002d0 50 29 8c bc e2 79 c2 ba e9 87 b7 bb bc 21 cd 3c
       -0.017109543 -0.0014837349 -0.0056009186 0.0250405
0002e0 e5 8f ec bc 32 fc 27 bb cf c7 0e bb 7f dc 47 3d
       -0.028877208 -0.0025632498 -0.0021786576 0.048794266
0002f0 38 7c 26 3d 7f 7e 66 3d 1e f3 24 3d 0d 78 cf 3c
       0.040645808 0.05627298 0.040270917 0.0253258
000300 20 b8 73 3d 23 16 94 3d af 1f 61 3d a1 fc 6f 3d
       0.059501767 0.07230785 0.054961856 0.058590535
000310 db 1e 9c 3d c4 51 2a 3d c0 d2 3f 3d 49 50 5f 3d
       0.07623073 0.041581884 0.046831846 0.054519925
000320 d9 8b 17 3c 32 84 ee 3c e0 b9 d6 3b 0f 90 0f bd
       0.009249651 0.02911577 0.0065529197 -0.035049494
000330 34 ff 25 bc 81 0d 8f 3c e3 1c 30 3b a9 db e9 bc
       -0.010131646 0.017462494 0.0026872687 -0.028547125
000340 49 16 64 bd 41 14 c7 3a 0a e6 6b 3a aa 93 03 bc
       -0.055685315 0.0015188531 0.0008998817 -0.008030811
000350 ba 53 c7 bc 57 c6 38 bd a7 8b 1e bd 2f 12 97 bc
       -0.024331916 -0.045111027 -0.0387074 -0.018441288
000360 36 04 10 3d 74 ef 67 3b 36 12 88 3d e3 e1 0a bc
       0.035160266 0.0035390528 0.066440985 -0.008476707
000370 52 d2 19 bd d2 0e 25 3d be 57 73 3c 2e ac 3b ba
       -0.037554093 0.040297337 0.014852462 -0.00071591407
000380 bb a5 b3 ba d2 79 51 3c 8f 4e 2b bc ca d9 14 bd
       -0.0013706008 0.012785392 -0.010455742 -0.036340512
000390 99 30 12 bd 12 1b 5b 3c 59 55 d6 3c fd a7 6c 3b
       -0.035690878 0.013373153 0.026163744 0.003611087
0003a0 9e 20 88 3c c3 7b c8 bc c7 2b 8d bc 3a 82 4f ba
       0.016617116 -0.024473077 -0.017232789 -0.00079158286
0003b0 48 c1 0a 3d 53 87 40 3c 7c b8 7a 3c 56 07 2f 3d
       0.033875734 0.011751014 0.015302774 0.042731605
0003c0 9c bf 80 bc 8d 46 ae 3c a9 39 67 3c bd 14 87 3d
       -0.015716366 0.021273876 0.014112868 0.065957524
0003d0 eb 55 52 3d e8 2b 0d 3d 3d 21 89 3c 61 76 a4 3c
       0.05135147 0.0344657 0.016739482 0.020075979
0003e0 3c 5c 6d 3d ff 2a 35 3d 65 42 44 3b 92 ec 8e bc
       0.05794929 0.044230457 0.00299468 -0.01744679
0003f0 5b d0 a4 bc ea bc 14 bc df 32 29 bd 5c f7 65 3d
       -0.020118883 -0.009078244 -0.04130828 0.056144103

bias f4 [32]
000000 ef d4 d4 bc 53 0b c2 3c 76 9d ea bd cd 50 99 bd
       -0.02598044 0.02368704 -0.114558145 -0.07486115
000010 cd 7c aa 3c c7 f3 1a bc 2d cb a6 3c 26 7e ce 3c
       0.020811463 -0.009457535 0.020360554 0.025206637
000020 af 27 09 be 38 4e 23 bd 1c 3f 5d be 15 b1 4d bd
       -0.13394044 -0.039869517 -0.21606106 -0.050217707
000030 9d 26 05 3e 44 a1 5f bd 62 56 11 be c8 e4 d7 bc
       0.13003011 -0.054597154 -0.14193109 -0.026354209
000040 cb 2f 15 bd ed 64 a8 3c 18 99 06 be 75 c7 e4 bd
       -0.036422532 0.020555938 -0.13144338 -0.11170856
000050 98 db c3 bd 78 6c 8d 3c 4e f5 0b bd fc 28 0b 3d
       -0.095633686 0.017263636 -0.034169488 0.033974633
000060 91 41 e0 bc fb c9 fc bc ff a8 13 bd 9d fc c5 bd
       -0.027375014 -0.03085803 -0.03604984 -0.09667323
000070 ac e7 e1 bd cc 78 bf bc b6 2a cf bd 51 de d9 bd
       -0.11030516 -0.02337303 -0.10115568 -0.106381066

weight f4 [64, 32, 5, 5]
000000 8a a4 e9 bc d6 84 da 3c 43 5d 96 3c 8f b3 93 3c
       -0.028520841 0.02667467 0.018355018 0.018029956
000010 ac 92 fe 3c 2d 34 00 b8 ee f0 95 3c 7b 71 51 bc
       0.031075798 -3.056617e-05 0.01830336 -0.0127834035
000020 8f 70 db bc b2 0e f4 bb 75 33 89 bc da f6 c2 3b
       -0.02678707 -0.007448041 -0.01674817 0.005949837
000030 08 34 a1 3c 95 8f a9 bc 6b dd 16 3c aa 74 c9 bc
       0.01967813 -0.020698348 0.009208064 -0.024591763
000040 35 3b 4a 3c 36 19 11 bd 9b 87 73 3c 60 56 68 bc
       0.012343218 -0.035424434 0.014863874 -0.01418075
000050 d9 1c ed 3c 95 09 33 3d 4c af 56 bb cd de 4f bc
       0.02894442 0.04371031 -0.0032758294 -0.012687397
000060 8f a8 e2 bc f2 e1 79 3c a2 65 66 bd 9a cc db 3c
       -0.027668266 0.0152516235 -0.05624927 0.02683096
000070 c2 ea 57 3c 8d 6a 78 bb 34 36 96 3c 14 6f 2e bc
       0.013178529 -0.0037905306 0.018336393 -0.0106466
000080 96 5a 4b bb 95 5e 28 3c 37 1c 9b bc d9 b8 1b b9
       -0.0031029335 0.010276456 -0.018934352 -0.00014850813
000090 90 5f c4 ba 4b d2 48 3c a6 32 80 3b d9 da a2 bc
       -0.0014982093 0.012257169 0.0039122878 -0.019879745
0000a0 29 95 a2 3c 0d 37 b7 bc 7c 5d 8d bc cb b1 d1 3b
       0.019846516 -0.022365117 -0.01725649 0.0063993684
0000b0 36 4e 25 bc 79 83 eb bc 9f 2d b4 3b eb 6d f9 bc
       -0.010089448 -0.028749214 0.0054986025 -0.03044792
0000c0 7a 70 43 3d b5 6b fa 3c 5d 06 84 bc bf 21 20 3c
       0.047714688 0.030568937 -0.016116315 0.009773671
0000d0 ae 3d b9 3c c9 59 31 bd cd 34 cd bb cc 2e 6c bd
       0.022612419 -0.043298516 -0.006262398 -0.057661816
0000e0 c5 50 60 bd 43 61 37 3b d2 6d b2 3b d9 dd dc bc
       -0.054764528 0.0027981556 0.0054452205 -0.026961254
0000f0 a4 00 1c bd a4 bb 2d bc 10 b5 ec bb 19 32 fd 3c
       -0.03808655 -0.010603819 -0.007223733 0.030907677
000100 96 66 be 3c 3d 12 84 bd 9b 7a be 3c 00 16 8e 3c
       0.023242276 -0.06448791 0.023251822 0.017344475
000110 f5 17 1a 3d 57 ba 18 3d 7d 43 22 bc a5 7a 40 3c
       0.037620503 0.037287083 -0.009903786 0.011747991
000120 c6 52 53 3d 54 a5 75 3d 65 73 61 3d 3c cc 15 bd
       0.05159261 0.059972122 0.05504169 -0.036571726
000130 de cd d5 bb fa e1 31 3a d6 2a 83 bc 4c e0 0f 3d
       -0.0065247854 0.00067856873 -0.016011637 0.035126016
000140 59 a1 1b 3c 48 0e 1a bd 9e a8 bb 3b 33 90 36 3d
       0.0094989175 -0.037611276 0.005726888 0.044571113
000150 98 7f a0 3b 33 df d4 ba de cf 90 bb 1d aa 9b bc
       0.004898023 -0.0016240835 -0.004419311 -0.019002015
000160 84 ea 43 bd 65 c0 3f bd 5b 41 9b 3c 68 5a 4b 3a
       -0.047831073 -0.04681434 0.018952062 0.0007757307
000170 99 64 98 3c 8b 7f a4 bc 1b 04 1f bd 4b 4b ef 3b
       0.018602656 -0.020080348 -0.038822275 0.007302677
000180 d4 78 01 bd ac 0a 38 bd 44 72 18 bb cf 21 1e bd
       -0.03160937 -0.044932052 -0.0023261467 -0.03860646
000190 b1 7f c5 ba f2 a2 de 3a f2 7b 9c 3c a3 10 be 3c
       -0.0015067962 0.0016985817 0.01910207 0.023201292
0001a0 25 97 c7 bc fb 53 bc bc 9f b8 35 3d 13 2e 16 3d
       -0.024364064 -0.022989264 0.04436552 0.036665034
0001b0 4f 94 1e bc 42 75 b4 3c 20 44 91 bc f1 49 da bc
       -0.009678914 0.02202857 -0.01773268 -0.026646586
0001c0 1b 7e 75 ba 7a dd 04 3d ac 62 17 3b 05 17 1a bc
       -0.00093647995 0.03243778 0.0023099585 -0.009404902
0001d0 e0 ed 6f bc 4c ae 5b bb 45 fa b0 bb 3e f8 8d bc
       -0.014644116 -0.0033520637 -0.005400928 -0.017330285
0001e0 5d 9a a4 bc a5 bc 23 bc 84 c2 71 bc da 0c 06 bd
       -0.020093137 -0.009993707 -0.014755849 -0.0327271
0001f0 3b db 97 bb c9 82 55 bc 3d 04 a2 3c 23 fa 02 bd
       -0.0046342886 -0.01303167 0.019777412 -0.03197683
000200 a9 1e e9 bc a1 d4 f7 3c f6 35 b0 bc ed 54 ff bb
       -0.028457003 0.030252757 -0.021510106 -0.0077921064
000210 95 e4 4a bd c5 6e 1d bc d8 1c 8c bc 21 c7 05 bd
       -0.0495344 -0.009608929 -0.017103598 -0.032660607
000220 f8 5f 8e 3c d7 7e fa bc d6 7f 93 bc 07 b4 d8 bc
       0.017379746 -0.03057806 -0.018005293 -0.026453031
000230 70 09 ae 3b 1c 7a a2 3c a6 6c bd bc ce ba fe bc
       0.0053111836 0.019833617 -0.023123097 -0.031094935
000240 d0 21 9f bc 79 59 83 bc e1 d0 0f bd 32 a6 f5 bc
       -0.019425303 -0.016033875 -0.03511131 -0.029986475
000250 a4 21 9a bc 12 4b 01 3c 61 0f d9 bc db 2f cb 3b
       -0.01881487 0.007891433 -0.026496591 0.006200773
000260 fa f2 36 3c ae 8d 83 bb 8c 9d d5 3a 0e ff 11 bd
       0.011166329 -0.0040146923 0.0016297563 -0.03564363
000270 a5 22 a1 3c 59 33 04 3d 31 9a 9b 3b bf 4e a6 bc
       0.01966984 0.03227553 0.0047486057 -0.020301221
000280 bc 14 12 bd 65 87 dc bb a6 e7 0b bd 26 3b f1 bb
       -0.035664305 -0.0067300075 -0.034156464 -0.0073617874
000290 56 3d cc bc c9 50 02 bd 75 b9 00 bc 52 91 45 3c
       -0.024931591 -0.031815324 -0.007856716 0.012058573
0002a0 8d 83 3a 3b f8 51 28 3d e7 14 dd 3c e1 d9 4b bb
       0.0028459758 0.041093796 0.026987506 -0.0031105208
0002b0 bf a9 3e 3c a3 e2 a5 bc 37 85 9a bc ca 5a 06 bc
       0.01163715 -0.02024967 -0.01886235 -0.008200357
0002c0 da cd 3c bc 57 16 65 3c 0e d5 ab bc 55 c6 b8 bc
       -0.011523688 0.013982377 -0.020975616 -0.02255551
0002d0 0c 98 f2 3c 0a f8 c6 3c 49 a9 93 3c 45 b6 9e 3c
       0.029613517 0.024288196 0.018025057 0.019374022
0002e0 4b 72 94 3c 65 32 76 3b 67 b8 ae 3c 3e c7 df 3b
       0.018120905 0.0037566659 0.021328164 0.0068291714
0002f0 1f 67 08 3c 78 88 9d bc 57 b1 95 3a b3 29 00 3d
       0.008325367 -0.019230112 0.0011420649 0.031289767
000300 5e 99 1b 3d 1b 81 e3 3c 59 a4 7b bc 16 af de bc
       0.03798806 0.027771523 -0.015359008 -0.027183097
000310 12 f4 c2 3b 98 dd 08 3d e7 a7 cd 3b b8 dd 7c bc
       0.0059495056 0.033414453 0.006276119 -0.015433721
000320 20 50 96 3c d1 76 e3 3c 0e 13 63 bc 39 9c 8b bb
       0.018348753 0.027766617 -0.013859523 -0.0042605666
000330 eb dc df bb 72 fc 46 bc 99 df 2e bc 96 97 21 bc
       -0.0068317554 -0.012145149 -0.010673427 -0.009862801
000340 10 a6 92 bc f8 e2 c1 3c c8 93 26 bd 16 46 b1 bc
       -0.01790145 0.023667797 -0.04066828 -0.021639865
000350 55 cf fc bc 71 b9 18 3b 59 d1 99 bc 15 95 13 bd
       -0.030860582 0.002330389 -0.018776583 -0.036030848
000360 da b7 d3 3c 44 01 ec 3b 6e 0a 56 bc fb 94 2e 3d
       0.025844503 0.0072022993 -0.01306401 0.042622548
000370 c7 f6 62 bd 5e 21 d0 3c 9e 5c b6 ba 3c 6e 18 bc
       -0.055411126 0.025406536 -0.00139131 -0.009303626
000380 ce 17 83 bc f6 4a 13 3c 38 be 0d bd 35 90 51 3b
       -0.016002562 0.00899004 -0.034605235 0.0031976823
000390 01 f1 43 bc 82 e4 56 ba 81 41 4f bc a9 35 a3 bb
       -0.011959315 -0.00081975025 -0.012649895 -0.004980762
0003a0 89 b6 5b bc fd 01 31 bd 84 63 12 bc 2f 69 09 3d
       -0.013410219 -0.043214787 -0.008934859 0.033547577
0003b0 be 03 da bc 9f ee d9 bb 22 05 f0 bc a2 43 04 3c
       -0.026613113 -0.0066507603 -0.029299323 0.008072766
0003c0 ff ef 05 3d e8 01 2e bd 14 79 36 3c 1c 84 60 3b
       0.03269958 -0.042482287 0.011137266 0.003425843
0003d0 4b 23 7c bc 51 ab 33 bb 06 b2 5c bd 30 19 c9 b8
       -0.015389274 -0.0027415345 -0.053880714 -9.5891184e-05
0003e0 ef e7 6f b9 15 44 4f bd c4 e3 3b bc e1 a2 3c bd
       -0.00022879218 -0.050602037 -0.011467878 -0.04605377
0003f0 5a 57 8f bc b9 ce 22 3d 13 86 cb bb fd 9b 9f bc
       -0.017497707 0.039747927 -0.0062110513 -0.01948356

bias f4 [64]
000000 d8 ce a4 bd 60 6b 06 3d 9d b1 50 bd e2 63 2b bc
       -0.08047265 0.032817245 -0.050950635 -0.010460826
000010 95 fd 12 be d8 ea 23 bd 00 2b 70 bd 2f d7 60 bd
       -0.14354546 -0.040018886 -0.058634758 -0.054892715
000020 24 47 4e 3b 5a 08 5d 3c 65 70 8e bd a9 6f 0a bd
       0.0031475509 0.013490761 -0.06955031 -0.033797894
000030 58 41 a9 bd 84 5f 4e bd 75 42 2e 3d 6c 4f 0b bd
       -0.082644165 -0.05038406 0.042543847 -0.03401129
000040 ee 1b 33 bd 7a 6b 11 bd ac 80 16 bd 77 43 1b bd
       -0.043727808 -0.03550289 -0.036743805 -0.037906136
000050 e7 a1 b2 bc 66 43 18 3c 67 cb 4e bc 03 47 08 bc
       -0.021805717 0.009293413 -0.012621737 -0.008317712
000060 b1 7f 29 bc 7b f1 c2 bd 8c e9 f1 bc ef b6 24 bd
       -0.010345385 -0.09518715 -0.02953031 -0.04021352
000070 20 e2 8c bd 81 19 e4 bc b7 8e f1 3b b9 44 2d bd
       -0.068790674 -0.027844192 0.0073717493 -0.042301867
000080 5e fd 49 bd d4 c1 9e 3b ad ba 90 bd 1f 1e fd bc
       -0.049313895 0.0048448835 -0.070668556 -0.030898152
000090 90 45 13 bd 7e 8b 99 bc 45 6c 90 3b 12 cf 2a bd
       -0.03595501 -0.018743273 0.004407438 -0.041701384
0000a0 bc 1c 5d bd bf 02 0a be 09 8f f8 bd 90 06 63 bd
       -0.05398248 -0.1347761 -0.12136657 -0.05542618
0000b0 4b 27 c7 bb ba 62 a1 bd 81 b1 1b bb a2 57 81 bd
       -0.006077682 -0.07880159 -0.0023756924 -0.06315543
0000c0 54 48 bd bc cf 90 a0 bd 08 1d a7 bd 43 a7 04 be
       -0.023105778 -0.0784012 -0.08159834 -0.1295443
0000d0 d8 6b a6 bd 45 3b cf 3a b5 04 7f bd 74 8f c5 bc
       -0.08126038 0.001581051 -0.06226035 -0.024116255
0000e0 57 5d 24 3a b2 43 8e bd 8d 39 6a bd d8 97 5f bd
       0.0006270012 -0.069465056 -0.05718379 -0.05458817
0000f0 1b fa c6 bc 3a 98 8b bd 6c 2f 31 bd 2b 51 1a bd
       -0.024289181 -0.06816144 -0.043258116 -0.037675064

weight f4 [64, 1024]
000000 33 95 d8 bb fd cc 40 3d c2 10 f2 3c 7c 63 44 3c
       -0.006609583 0.047070492 0.029549006 0.01198661
000010 29 d3 63 3d 74 c5 31 3d c3 00 d6 3c d3 03 bc bb
       0.0556213 0.043401197 0.02612341 -0.0057377606
000020 39 5b e7 3a 61 c9 0c bc c3 02 26 3d 63 50 3b 3b
       0.0017651088 -0.008592934 0.040529978 0.002858185
000030 46 85 8d bc a0 0d 15 bc 3c fc f2 ba 47 f5 46 bb
       -0.017275464 -0.009097487 -0.0018538306 -0.00303586
000040 72 08 d8 bc 19 06 a8 3a 2d 41 5c 3b f6 30 64 b9
       -0.026371215 0.00128192 0.0033608184 -0.00021762014
000050 21 cd 2d bd 9b a3 10 bc df 05 19 3d e0 4e 68 3c
       -0.042431954 -0.008828069 0.037359115 0.0141789615
000060 fe d2 61 bc 92 b1 2d bd 8f 72 01 bd f6 83 42 bd
       -0.013783215 -0.042405672 -0.031603392 -0.04748913
000070 ca d0 e1 3c b3 b7 a9 bc a8 af a2 ba 94 70 05 3b
       0.027565379 -0.020717477 -0.0012411969 0.0020361291
000080 af 9c 41 3c de 38 c4 3c 86 79 6c bc 9d 89 b8 3a
       0.011817141 0.023952898 -0.01443327 0.0014079098
000090 e4 57 49 3c dc 8e ed bc 66 1b b4 39 90 5c 83 3a
       0.012289021 -0.028998785 0.0003435269 0.0010022093
0000a0 ea 6c 89 3c 77 bb 57 bc 4d 62 33 3d ec 96 bf 3b
       0.016775567 -0.013167254 0.04379492 0.0058468487
0000b0 19 33 a7 3c dc fe 04 3c c0 b6 19 bc ec 6f 16 3d
       0.020410107 0.008117404 -0.00938195 0.03672783
0000c0 13 b1 58 bc 3d 6d a9 bc 5b 3e fd 3c b1 94 52 bc
       -0.0132258115 -0.020681972 0.030913522 -0.012852834
0000d0 18 44 eb 3c 34 16 6f 3b 47 2a 0c bc e5 f3 d5 bb
       0.028718993 0.003648174 -0.008555002 -0.0065293186
0000e0 81 f2 8b 3d 92 b5 c7 ba c8 7d 8f ba 78 77 0b 3d
       0.06833363 -0.0015236607 -0.001094752 0.03404948
0000f0 ea 17 52 3d 1d dc d2 3c 08 69 2e 3d 19 0e 49 3d
       0.051292337 0.025739724 0.042580634 0.04908571
000100 2b 98 8e bc 51 a0 70 3d b9 49 26 bc b0 c0 bc 3c
       -0.017406544 0.05874664 -0.010149413 0.0230411
000110 19 f1 02 3d e1 77 b3 3c f8 7a e0 bb 70 07 3d 3d
       0.03196821 0.021907749 -0.0068505965 0.04614967
000120 b4 4a 54 bc 4d f1 3e 3b 2b 1c 3e 3d ed d2 10 3c
       -0.012957264 0.0029135526 0.04641358 0.008839351
000130 75 84 a0 3c 4c 25 f9 bc 55 ed be 3b 0c e5 19 bd
       0.01959441 -0.030413292 0.005826632 -0.03757195
000140 12 e0 ae bb 3f 65 01 3d d0 1a 78 3c e1 ec 04 3d
       -0.00533677 0.031590696 0.015143111 0.032452468
000150 cc f2 d3 bc 53 ad bb 3c 93 16 3d 3c 12 0d 57 3c
       -0.02587261 0.022909796 0.011541027 0.013125675
000160 84 dd 66 3c 40 23 22 3c 4d 1d 99 3b 4b 6b cf bc
       0.014090899 0.0098961 0.0046726824 -0.025319716
000170 cf af 87 bc 62 0c 3a 3b 87 bc 53 3c a5 ed cf 3c
       -0.016563324 0.0028388728 0.012923366 0.025381872
000180 b2 2c bd bb 91 74 04 3d 2e 93 03 3d 5e a9 0d 3c
       -0.0057731504 0.03233773 0.032122783 0.008646337
000190 c3 8b c0 bc be 6a 7b ba 5a 4c 15 bd 8b 39 67 bd
       -0.023504144 -0.0009590796 -0.036449768 -0.05645136
0001a0 71 5d 64 3c 20 0e 08 3d 29 3a 65 bc e5 0b 36 3d
       0.013938294 0.033216596 -0.013990917 0.044444937
0001b0 39 f2 a9 3a fe 75 59 3d 20 15 39 3a d5 0e 9f 3c
       0.0012965865 0.05309104 0.0007060338 0.019416252
0001c0 11 94 87 3c 2a 87 bb 3b 13 fe 37 3c ed 49 6f bb
       0.016550096 0.0057229 0.01123001 -0.003651257
0001d0 b2 62 8b bc dc ec d3 bc 65 27 b5 bc 4a 48 20 3c
       -0.017014835 -0.02586978 -0.022113511 0.00978286
0001e0 20 f8 3f bb b3 b0 41 bd f0 92 6d 3b 57 58 33 bc
       -0.002929218 -0.047287654 0.0036250912 -0.010946355
0001f0 e4 84 b0 bc 14 00 e9 3c 2d 9c 55 bc 96 17 b2 3c
       -0.021547742 0.02844242 -0.0130377235 0.021739762
000200 a9 cd 6f 3c ed 0f 27 bd bb 5a 42 bd 91 10 14 bd
       0.014636436 -0.040786672 -0.04744981 -0.03614861
000210 f2 44 6c 3d 70 55 95 3b e0 35 66 bc a4 02 4b bd
       0.05768294 0.004557304 -0.014050931 -0.049563065
000220 51 5a 54 bb 93 cb ae 3b 47 71 dd bc 98 ad de 3c
       -0.0032402466 0.0053343265 -0.027031554 0.027182385
000230 dc 40 ec 39 f0 10 55 bd 94 3f b4 bc fe 7f 32 3d
       0.00045061752 -0.052018106 -0.022002973 0.043579094
000240 0a b6 af 3c a2 57 a8 bc 46 9b de 3c 07 98 ca bc
       0.021449108 -0.0205496 0.02717365 -0.024730695
000250 4c 8e 0b 3b e5 5a 71 b9 23 0d b9 3b 1f 07 f3 3b
       0.0021294532 -0.00023017412 0.005647318 0.0074166204
000260 2b f0 c2 3c f7 51 7a bb f4 f4 33 bc d4 73 a8 bc
       0.023796162 -0.0038195828 -0.010983694 -0.020563044
000270 5d 45 89 3b 82 a9 97 3b cb 34 e0 bc 96 0e 02 bb
       0.004189177 0.004628361 -0.027368924 -0.001984512
000280 df 98 b4 bc a7 a3 4b bd 28 dc 89 ba a2 af bd bc
       -0.02204555 -0.049716618 -0.0010517882 -0.023155037
000290 a7 7f d6 bc af 64 71 bb 9c 61 f7 3c ba cf 94 bb
       -0.026183916 -0.0036833694 0.030197911 -0.0045413645
0002a0 f7 7a b5 3c 5c a3 84 3c 14 c6 07 3d ef 01 f9 3a
       0.02215336 0.016191177 0.033147886 0.0018997769
0002b0 94 4f 50 3c 3d 05 a0 3c 73 14 81 3d 54 43 96 bc
       0.012714285 0.019533748 0.063027285 -0.018342651
0002c0 65 2f de 3c b7 89 40 bc bf 31 8c bc ad 66 a6 3c
       0.027122209 -0.011751584 -0.017113565 0.020312632
0002d0 42 43 84 bc a8 f6 a2 3d 12 e4 9a bc 3c 9c 0e 3d
       -0.016145352 0.07957202 -0.01890758 0.034816965
0002e0 cf 35 de 3b e0 1f dd 3c e0 dc 0c bc c6 ab cb 3c
       0.006781317 0.026992738 -0.008597583 0.024862181
0002f0 c8 27 9a 3c b0 b7 51 3c ac 46 46 3d d0 af ba 3c
       0.018817797 0.012800142 0.04840724 0.022788912
000300 cb c1 72 3c 18 a7 5e 3d 82 e8 9a 3c 79 97 00 3c
       0.014816712 0.05435857 0.018909696 0.007848614
000310 50 40 71 3c 8a a5 10 b9 f4 85 0e 3d 4f e4 07 bd
       0.014724806 -0.00013794578 0.034795716 -0.033176716
000320 6d 02 97 3c 45 cd d3 3c 66 dc 5a bc c7 3d b9 bc
       0.018433774 0.025854716 -0.013358211 -0.022612466
000330 84 88 ed 3c 22 4d c1 bc 94 1c 96 3c 38 5f 0d bd
       0.02899576 -0.02359635 0.018324174 -0.034514636
000340 cd 42 13 bd 47 bb c4 3b ab 6d d1 ba 01 91 68 3d
       -0.035952378 0.0060037705 -0.0015978118 0.05677891
000350 25 57 cb bc e8 07 37 3d 0d ee 49 3c 83 01 6e 3c
       -0.024821827 0.044685274 0.012324822 0.014526728
000360 87 8d 4f 3b 6e b3 9a bc 40 fa 02 bd b3 26 a5 3c
       0.003167005 -0.018884387 -0.03197694 0.020160055
000370 7f fc c7 3b d1 d5 a3 bc 66 bd 30 38 0e 20 51 3c
       0.006103098 -0.019999417 4.213806e-05 0.01276399
000380 0b d4 0c bd 2e be 65 bb c8 45 02 bd 8d 1e 4f bc
       -0.034381907 -0.0035055983 -0.03180483 -0.012641561
000390 5d 39 b2 3b c4 fb 88 ba d2 48 61 bc e1 47 b1 bc
       0.005438967 -0.0010451009 -0.013750272 -0.02164072
0003a0 7f fe 20 3d fe b9 80 3c d9 a4 6e bc 47 41 59 bc
       0.039305206 0.015713688 -0.01456567 -0.013260192
0003b0 ea dc 99 3c 4f fd c5 3c 88 ae 66 3c 7b 4f aa 3c
       0.018782098 0.024168639 0.014079697 0.020789852
0003c0 8e 6f 96 bb 54 2d 05 3d ac 98 96 3b 77 8c a1 3a
       -0.004590935 0.03251393 0.0045958366 0.0012325187
0003d0 75 43 91 3b 07 1c 8a ba 9b 2e b8 bc 8e 2e b2 bb
       0.0044330903 -0.0010536917 -0.02248316 -0.0054376787
0003e0 8a 4f e3 ba c3 d5 f2 bc 8b 43 89 3c 34 77 00 3c
       -0.001734243 -0.029642945 0.01675584 0.00784092
0003f0 b9 4f 06 3d ec 19 83 3d a0 c1 9e 3d 34 6b 35 3c
       0.032790873 0.064014286 0.07751775 0.0110729225

bias f4 [64]
000000 2f 8e b0 bc d8 9a 78 ba 72 44 27 bd ba d9 79 bc
       -0.021552173 -0.0009483523 -0.04083676 -0.015249664
000010 3d 3a 3c 3c de 3b 8e 3c 9a 07 d6 3a 73 7e 00 bd
       0.011488494 0.017362531 0.001632917 -0.03137059
000020 e2 73 7b 3c 6e e6 56 bd 3e 61 86 3b fa 53 26 3b
       0.015347453 -0.05246585 0.0041009476 0.0025379644
000030 00 54 67 3b bc c5 22 3d 2f eb 6b bc ca f1 29 bc
       0.003529787 0.039739355 -0.014399334 -0.010372588
000040 30 80 b5 3c b3 17 d0 3c 7c a0 8d bd 83 54 96 bb
       0.022155851 0.025401926 -0.069153756 -0.0045877113
000050 d9 83 09 bb 33 62 30 bc 84 5e 45 bc 61 a0 4e 3d
       -0.0020983128 -0.0107656 -0.01204646 0.050445918
000060 79 7f a0 3c 36 ef 40 3d 73 99 ba 3c 7b 1a ee 3c
       0.019592034 0.04710313 0.022778248 0.029065361
000070 55 fe 44 3d 59 ae 05 3d a5 29 89 bc 53 24 4b 3b
       0.048094112 0.032636974 -0.01674349 0.0030996993
000080 7c 0e 24 bd 6f 94 10 3d 5f b3 06 3b 87 be 61 bc
       -0.040052876 0.035297807 0.002055369 -0.013778335
000090 2a 97 61 bc 3e 3c d3 3c 51 be 4c bd ee 3e 75 bb
       -0.0137689505 0.025785562 -0.049986187 -0.0037421542
0000a0 3e 33 4c bd 17 73 45 bc 08 22 dc bb 57 75 bb 3c
       -0.049853556 -0.012051365 -0.006717924 0.0228831
0000b0 6e ca 96 3a 49 84 25 ba 96 9b 39 3d 18 51 fe bc
       0.001150442 -0.00063139625 0.045314394 -0.031044528
0000c0 75 ec 8f 3d b4 5e 8a 3c 71 e2 1d bc 5c 31 d8 bc
       0.070275225 0.016890861 -0.009636507 -0.026390724
0000d0 57 dd 19 bd 47 6d 47 3b e3 80 57 3b eb 3a 6f 3c
       -0.0375646 0.0030430125 0.003288322 0.0146014495
0000e0 b0 40 77 3d 36 05 ad bc 54 b8 19 bc 4d 63 9d 3c
       0.060364425 -0.021120649 -0.009382326 0.01921239
0000f0 3c 2e 72 bd 3c 89 4b bb 6b 47 1a 3c 74 a6 57 bd
       -0.059126124 -0.003105714 0.009416441 -0.052648976

weight f4 [10, 64]
000000 c6 04 86 3d bb 2c 68 3d 06 32 07 3e 92 e5 52 be
       0.06543879 0.056683283 0.13202676 -0.20595387
000010 49 f9 28 be a5 9e 32 3e 35 0f 87 be d9 92 8f 3e
       -0.16501345 0.1744333 -0.2637879 0.28041723
000020 ee 5b d4 bd 58 ab 40 3c 84 7d 03 be 59 d1 46 3d
       -0.10369097 0.0117596015 -0.12840849 0.048539493
000030 c8 eb 10 3c 83 ea d2 bd 01 20 fc bc 16 fb 17 bd
       0.008845277 -0.10298636 -0.03077698 -0.03710469
000040 26 84 ed 3c 36 95 74 be 8a 57 dd 3c d9 a0 47 3d
       0.028993677 -0.23885044 0.027019281 0.04873738
000050 70 3a 81 bc 38 50 ba bd 54 5d c1 bc 6e 0b 51 3d
       -0.015774935 -0.09097332 -0.023604073 0.05103629
000060 27 58 62 3b e5 32 25 be 46 eb fc bd 75 86 2e 3e
       0.0034537406 -0.16132696 -0.12349562 0.17043479
000070 fb d4 80 be de 1f 2a be c9 c5 36 bd 34 ae b7 3c
       -0.2516249 -0.16613719 -0.044622216 0.022421934
000080 13 68 cc bd f9 f6 fd 3d 8e e6 7b bb f8 79 9b 3e
       -0.09980788 0.12400622 -0.0038436982 0.30366492
000090 c6 b5 39 3e 8c 0d fb 3d 43 17 69 3d 25 92 9d be
       0.18135747 0.12258443 0.05690695 -0.30775562
0000a0 67 61 29 3e d3 0f b8 bd 41 3c 1c be 4f 5a 0e be
       0.16541062 -0.08987393 -0.1525736 -0.13901637
0000b0 5c 59 aa 3d 63 f9 98 3d 80 77 1d be 54 5e 07 be
       0.08317825 0.07469442 -0.15377617 -0.13219577
0000c0 92 58 7e be 65 63 af bc b9 4c 14 3e 53 24 2d 3e
       -0.24838474 -0.0214097 0.14482392 0.16908388
0000d0 b1 19 2d be 35 84 be bd 39 6c 7c bc 4c da 71 3c
       -0.16904332 -0.0930256 -0.015406662 0.014761519
0000e0 4f c7 5a bd 90 2f 05 bc 12 77 83 bd 72 71 ce bd
       -0.05341273 -0.008129016 -0.06419195 -0.10080232
0000f0 27 db 07 3e 0e e5 78 be 39 77 db 3d 31 89 76 3e
       0.13267194 -0.24306127 0.10716099 0.24075772
000100 23 70 68 3e a4 b4 42 be e1 e9 4f be d4 f0 60 3e
       0.22699027 -0.19014221 -0.20304061 0.21966869
000110 3c dd 05 bd cc 7d 03 be ac 52 bd bd 0c f8 b7 3d
       -0.03268169 -0.12840956 -0.09244284 0.08982858
000120 61 1a 2f 3e a3 4f f1 bd 0b cb b9 bd e7 34 01 be
       0.17099907 -0.117827676 -0.090719305 -0.12617837
000130 16 5d a5 3c 27 30 51 be 1f b4 02 be e1 64 6c bd
       0.020185988 -0.20428525 -0.12764023 -0.057713393
000140 36 be 5a 3c 21 b1 64 be 3b f5 37 3d c3 1f 23 3e
       0.013351014 -0.22333194 0.044911604 0.15930085
000150 ec 26 1c be 28 4a 9c 3e c4 f3 de 3d 75 ff 45 3e
       -0.15249223 0.30525327 0.10886338 0.1933573
000160 c3 47 83 3e 75 ce 24 3d d5 ac 33 3e d1 df 04 be
       0.25640687 0.040235955 0.17546399 -0.12976004
000170 00 d4 3b be 65 61 02 3e 3a 8c 11 bd 1b 31 61 3d
       -0.1834259 0.12732466 -0.03553412 0.05497847
000180 e1 9a c6 bd 25 ba 74 be e8 41 df bd 78 9a 97 be
       -0.096975096 -0.23899134 -0.109012425 -0.29610038
000190 34 d0 b2 3d 2e 56 69 3e 09 13 3c be d5 50 4f be
       0.08731118 0.22786781 -0.18366636 -0.20245679
0001a0 dd 0d 17 be a9 61 42 3e 44 c2 66 3e f7 8b 36 3e
       -0.14751382 0.18982567 0.22535044 0.1782683
0001b0 f8 05 70 be eb f8 87 3b af f2 3d bd 39 c5 0d 3d
       -0.23439777 0.0041495464 -0.04637402 0.034611914
0001c0 2e b5 46 be 0f d0 8c bd b1 67 83 3c dc f2 58 be
       -0.19405052 -0.068756215 0.016040655 -0.21186393
0001d0 f3 1d 04 be 60 0c 94 3e 26 d4 37 3e 84 9a 70 3e
       -0.1290205 0.2891569 0.17952022 0.23496443
0001e0 e8 bd 91 be 8e 20 0c be b7 5a 8d 3e e1 0b 7d bd
       -0.284652 -0.13684294 0.27608272 -0.061778907
0001f0 79 e8 83 bd 41 50 6e bc f0 78 4c 3e f4 06 4d be
       -0.06440825 -0.014545501 0.19968009 -0.20022184
000200 b7 34 4a be d9 2f c0 3c 38 b5 b3 bc 6a da 01 be
       -0.19746672 0.023460316 -0.021936998 -0.12680975
000210 06 08 5d be 79 5c 99 3e 70 a0 83 3d 2e ca 27 3e
       -0.21585092 0.29953364 0.064270854 0.16385719
000220 c7 d1 9a bd 6e f6 f2 3c 02 9f f0 3c 03 58 57 bc
       -0.07559543 0.029658522 0.029372696 -0.013143542
000230 a2 81 24 be b2 0c 24 3d ff fc 81 3d 69 29 75 3e
       -0.16065076 0.04005117 0.06347083 0.23941578
000240 b0 48 c6 bd 43 b6 c1 bd 66 1e 64 3e b3 02 6e be
       -0.09681833 -0.09458592 0.22277221 -0.23243217
000250 22 76 94 3d 39 d6 2e bc b2 bc 88 bb 2a bc 97 bd
       0.072490945 -0.010671192 -0.004172885 -0.07408936
000260 be 58 82 3d c0 74 2f be e0 dd 7e be 3f 2d 86 be
       0.063645825 -0.1713438 -0.24889326 -0.26206395
000270 1c 08 ba 3c 0c e3 aa 3d ae 74 c9 bc 20 28 2e 3d
       0.022708945 0.08344087 -0.02459177 0.042518735
000280 2e 84 1c be 0e 3c 95 bd 74 0f 5a 3c e1 e1 96 3e
       -0.15284798 -0.07286845 0.013309348 0.29469207
000290 18 f9 3b be c2 d5 2b 3d be ca 56 3c 28 4c 6d 3e
       -0.1835674 0.041951902 0.013109861 0.23173583
0002a0 f0 0c 70 3e 9c 8a 61 be 8a d2 5b 3e b0 0a 0f 3e
       0.23442435 -0.22025532 0.21467033 0.1396892
0002b0 9c 06 80 3e dd 76 24 bd 93 42 4d bd 39 d4 0f be
       0.25005043 -0.04015242 -0.05011232 -0.140458
0002c0 70 fc d6 3b 64 a1 ca bd d0 3c 11 bd 1b c9 a3 bd
       0.0065608546 -0.09894064 -0.035458386 -0.07997342
0002d0 d8 2e 06 be e2 a7 0c be 22 85 1a 3e ca 4d 74 be
       -0.13103807 -0.13735917 0.15089849 -0.23857799
0002e0 49 92 80 3e 97 9f a7 bc 8d 7b 09 be b1 48 0a bd
       0.25111607 -0.02046184 -0.13426037 -0.03376073
0002f0 bb 6d cd bd d6 cd 43 3e 64 f2 ce 3d ad 19 00 be
       -0.10030695 0.19121489 0.10104826 -0.12509795
000300 4f 16 37 3e 4f d3 12 3d e4 20 1d 3e 14 d3 a4 3d
       0.17879604 0.03584605 0.15344578 0.080480725
000310 d1 60 23 3e d8 bd 61 3d 17 f3 68 3e 41 22 ec bb
       0.15954901 0.05511269 0.22748981 -0.007206232
000320 cf 73 7b 3d 8c 77 af 3d 30 38 cf 3d 92 a5 11 be
       0.06138974 0.08567724 0.10118139 -0.14223316
000330 72 b6 d7 3d 22 c4 d5 3d b9 f2 c5 3d 7d cd a1 bd
       0.105328456 0.104378 0.09665436 -0.07900522
000340 b1 68 fd bd 82 2e 29 3d d5 72 65 3d d6 3f 43 3e
       -0.12373484 0.04130412 0.056017715 0.1906732
000350 e8 0a 13 be af 14 71 be 9a 78 33 3c 1c 44 44 be
       -0.14359629 -0.23543046 0.010954047 -0.19166607
000360 8f 14 1b 3e 01 0a 61 3b 46 90 0f be f5 49 35 3e
       0.15144561 0.0034338238 -0.1401988 0.17703994
000370 c0 74 34 3c 86 4b 57 bc 88 f3 d0 bd 3f ec ee 3d
       0.0110141635 -0.013140565 -0.102027 0.11666154
000380 5b 56 03 be af 0d c9 3d b3 63 b3 bd ae b9 2c be
       -0.12825911 0.09817063 -0.087592505 -0.16867706
000390 c4 a1 b3 bd 0f 60 9f bd 50 d8 20 3c 27 d7 7b bc
       -0.08771089 -0.077819936 0.009817198 -0.015371121
0003a0 cf 51 0b 3d e4 43 1a bc ee 46 13 be 4e 29 e3 3d
       0.034013566 -0.0094156 -0.14382526 0.110918626
0003b0 fe 91 4e 3c b0 1a 21 bc 03 ed a4 bd f4 58 1f be
       0.012608049 -0.009833023 -0.08053019 -0.15561277
0003c0 d2 70 8c 3d 58 45 c9 3d 6c 57 3f be f4 33 f4 bd
       0.06857456 0.098276794 -0.18685693 -0.11923972
0003d0 94 ce d7 3d 61 59 39 bd 4d 84 48 3d a0 0f 3e be
       0.105374485 -0.045251254 0.048954297 -0.18560648
0003e0 6a 2a 04 3e 61 67 27 be 08 dd 4d be cc 78 02 be
       0.12906805 -0.1634803 -0.20103848 -0.12741393
0003f0 40 98 8e bd ea 90 f6 3d 34 d3 84 bd 16 db f0 3c
       -0.06962633 0.12039359 -0.06485596 0.029401343

bias f4 [10]
000000 56 34 68 be ac c2 70 bd 61 c8 de 3d 72 64 c1 3d
       -0.22676215 -0.058779404 0.10878063 0.094429865
000010 e9 6b 23 3e 45 9a 19 be ca 5d 13 3e 8d 1b 92 3d
       0.15959133 -0.15000255 0.14391246 0.07134161
000020 bb 57 b8 bd 22 24 cb 3c
       -0.09001108 0.024797503
