Pytorch/model_data/CIFAR10_EPOCH10.pth (torch, 588839 bytes, 10 tensors)

weight f4 [32, 3, 5, 5]
0	0xbcc64520	-0.024202883
1	0xbd61596a	-0.055016913
2	0xbdaac83f	-0.08338975
3	0xbe181fde	-0.14855906
4	0xbd310847	-0.043220785
5	0xbe226133	-0.15857391
6	0xbe007fe2	-0.12548783
7	0x3da8168b	0.08207425
8	0xbd7c55e0	-0.061605334
9	0xbda347e5	-0.07972697
10	0xbe15f36a	-0.14643636
11	0xbd4adfb2	-0.04952974
12	0x3dfc87bc	0.12330577
13	0x3db02b7b	0.08602043
14	0xbe1a2abd	-0.15055366
15	0x3d9c57f2	0.07633962
16	0xbdab8acd	-0.083760835
17	0x3da97a12	0.08275236
18	0x3e103af7	0.14084993
19	0xbddd12f1	-0.107946284
20	0x3d5f15c4	0.054464117
21	0xbb1d89af	-0.0024038365
22	0x3e1db030	0.15399241
23	0x3dfdcc95	0.123925366
24	0xbdc7dcaa	-0.09758885
25	0xbddba06e	-0.10723959
26	0x3d2fcd52	0.042920418
27	0x3dadc21b	0.08484288
28	0xbd91f959	-0.071276374
29	0xbe25a68c	-0.16176814
30	0xbd800769	-0.062514134
31	0x3db85109	0.08999831
32	0xbddd94c7	-0.10819393
33	0x3d5211e4	0.051286593
34	0xbe1d2b41	-0.15348531
35	0xbd359c9a	-0.0443388
36	0xbd03726f	-0.032091554
37	0x3d3a7d06	0.045529388
38	0x3dbb08e6	0.091325566
39	0x3d88fb15	0.06688515
40	0x3d1e69e3	0.0386752
41	0xbdb86e9f	-0.09005474
42	0x3ba1ccb7	0.004937734
43	0x3e0b87d8	0.13626039
44	0x3d0dc272	0.034609266
45	0x3d064b12	0.032786436
46	0x3dfc52fe	0.12320517
47	0x3e38a2c7	0.18030845
48	0x3e21c14e	0.15796396
49	0x3d5f33a9	0.054492626
50	0xbd6a792f	-0.057244476
51	0xbd7cc4ec	-0.061711237
52	0xbe0a15f2	-0.13484934
53	0xbd81f7fd	-0.06346128
54	0xbe332122	-0.17493108
55	0xbc965957	-0.018353147
56	0x3d41d4cc	0.04732208
57	0xbcf4b69b	-0.02987223
58	0x3d54d3f9	0.051959965
59	0xbe10a7a2	-0.14126447
60	0x3d33fc87	0.043942
61	0x3d696042	0.056976564
62	0xbc0f8174	-0.008758891
63	0x3da73908	0.08165175
64	0xbde87ef0	-0.113523364
65	0xbc32840a	-0.010895738
66	0x3d49efd9	0.049301002
67	0x3e133ed2	0.14379433
68	0xbce47bc1	-0.027891042
69	0xbdfa101d	-0.122101046
70	0x3d6e95df	0.058248397
71	0x3d330c1a	0.043712713
72	0x3e21e23f	0.15808962
73	0x3e21af15	0.15789445
74	0x3dd80647	0.10548072
75	0x3db456a1	0.08805586
76	0x3dc7374d	0.09727345
77	0x3e095654	0.13411838
78	0x3d9575c3	0.07297852
79	0xbb0c0584	-0.0021365592
80	0xbd032846	-0.03202083
81	0x3d8e1daa	0.06939252
82	0x3d19c62c	0.037542507
83	0xbe00570a	-0.12533203
84	0xbdeedc75	-0.116631426
85	0x3df15c70	0.11785209
86	0xbe0be8d2	-0.13663033
87	0x3d329faa	0.0436093
88	0xbe10f8cb	-0.14157407
89	0x3d82fe96	0.06396215
90	0x3d30fbd1	0.0432089
91	0x3c49b400	0.012310982
92	0x3c295ac4	0.010336582
93	0x3deb1bb9	0.11479897
94	0xbd78af6d	-0.060714174
95	0x3d41c782	0.047309406
96	0x3cee6ec2	0.029105548
97	0x3ca0c568	0.01962538
98	0x3dc66ecf	0.09689104
99	0x3c3b58bd	0.011434731
100	0x3d7c1281	0.061541084
101	0x3db2f40d	0.08737955
102	0x3d5ed9a1	0.054406766
103	0x3d141066	0.03614845
104	0xbe2adb9f	-0.16685341
105	0x3db1b6fc	0.086774796
106	0x3ba85115	0.005136619
107	0x3ce677f4	0.02813337
108	0xbe37541a	-0.17903176
109	0xbe43a932	-0.19107512
110	0xbdab79d0	-0.08372843
111	0xbe125ecb	-0.14293973
112	0xbd19f671	-0.03758854
113	0x3cb4c109	0.022064703
114	0xbe20c247	-0.15699111
115	0xbc808d11	-0.015692266
116	0xbbb0a61a	-0.0053908946
117	0xbc005167	-0.007831908
118	0xbd0829c6	-0.033242963
119	0xbc721a28	-0.014776744
120	0xbcea4b84	-0.028600462
121	0x3d233a42	0.03985048
122	0x3d94ec31	0.072716124
123	0xbc66c190	-0.014084235
124	0xbd785dbc	-0.060636267
125	0x3b771ebe	0.0037707533
126	0x3d7ae406	0.061252616
127	0x3e0a2d56	0.13493857
128	0xbdac3fdc	-0.08410618
129	0x3d131e88	0.03591779
130	0x3c9a118b	0.018807193
131	0xbcb526da	-0.022113252
132	0xbd8f0aa9	-0.06984455
133	0xbe01236b	-0.12611167
134	0x3d7637a1	0.060111646
135	0x3cb2b083	0.021812683
136	0x3c3d313c	0.011547383
137	0xbc24f2b1	-0.010067628
138	0x3c9be90a	0.01903202
139	0x3d3e479e	0.04645502
140	0xbcffec3c	-0.031240575
141	0xbd58b7f4	-0.052909806
142	0x3dda9642	0.10673191
143	0x3d3546ef	0.0442571
144	0x3d1f1ba0	0.038844705
145	0xbd6d8dc0	-0.05799651
146	0xbd9aa9a2	-0.07551886
147	0x3ddcb8ec	0.107774585
148	0xbdba2f8b	-0.09091099
149	0x3c585c1d	0.013205555
150	0x3dc0b815	0.09410111
151	0x3c7384cf	0.014863207
152	0xbe008bdc	-0.12553352
153	0xbce0ef2b	-0.027457794
154	0xbdf7ba1d	-0.12096045
155	0xbc8d4517	-0.017244859
156	0x3d0c898e	0.03431087
157	0xbe32852e	-0.17433617
158	0xbe26a145	-0.16272457
159	0xbdf106ad	-0.117688514
160	0xbdd1cdba	-0.10244317
161	0x3d5a2a5c	0.053263053
162	0x3c7c918b	0.0154155595
163	0xbd7049b2	-0.05866403
164	0xbc98bb93	-0.01864413
165	0xbe1d1106	-0.15338525
166	0xbdcaa2ba	-0.09894319
167	0xbdde7e11	-0.10863889
168	0xbd904383	-0.07044127
169	0xbdeddd1b	-0.11614438
170	0x3cca86c5	0.024722466
171	0xbe3e7009	-0.18597426
172	0xbe3c72b3	-0.1840313
173	0xbe1f7e8b	-0.15575616
174	0xbe16a85c	-0.14712662
175	0xbcfa8087	-0.030578865
176	0xbdfd68b5	-0.12373487
177	0x3d11d1db	0.035600524
178	0x3d03ef6a	0.032210745
179	0x3d316c1f	0.043316003
180	0x3d2b305e	0.041794173
181	0xbd2c8f94	-0.042129114
182	0x3c0c6a23	0.008570227
183	0x3cb99f7f	0.022659061
184	0xbdd218a6	-0.102586076
185	0x3cd84351	0.026399286
186	0xbd24d114	-0.040238455
187	0x3d9f1b10	0.07768834
188	0x3df67090	0.12033188
189	0xbc8320a1	-0.01600677
190	0xbda9b471	-0.082863696
191	0x3e086be1	0.13322403
192	0x3def3ae7	0.116811566
193	0x3d88ab4c	0.06673297
194	0xba7c099c	-0.0009614469
195	0x3d7162fa	0.058932282
196	0xbda56d60	-0.08077502
197	0xbe13c9a7	-0.14432393
198	0xbdb2a733	-0.08723297
199	0xbd93fee7	-0.07226353
200	0xbdcaa34b	-0.09894427
201	0xbc70449d	-0.014664796
202	0x3dcafd05	0.09911541
203	0x3d2087cf	0.039192017
204	0x3df4924a	0.11941965
205	0xbd2793d2	-0.040912457
206	0x3cdfa1fd	0.027298922
207	0x3ddf908c	0.10916242
208	0xbd3e3099	-0.046433065
209	0x3e1baaac	0.15201825
210	0x3decd4a7	0.11563998
211	0x3ddf1774	0.10893145
212	0x3da35dc7	0.07976871
213	0x3e65fe32	0.22460249
214	0x3e4df265	0.20111997
215	0x3d8520e7	0.06500416
216	0x3e3ea1ef	0.1861646
217	0x3e65588c	0.22397059
218	0x3e121d20	0.14268923
219	0x3e0eeee9	0.13958324
220	0x3db3687c	0.08760163
221	0x3d332f6a	0.04374639
222	0xbd8c50fa	-0.068513826
223	0x3dbcdee9	0.09222204
224	0x3ddbfdb1	0.10741747
225	0x3d8a1bc8	0.0674358
226	0x3cb227b6	0.021747451
227	0xbc994a21	-0.018712105
228	0x3d033080	0.032028675
229	0xbda5f63e	-0.081036076
230	0x3d40b1c8	0.047044545
231	0xbd51b978	-0.051202267
232	0x3d6e0151	0.058106724
233	0x3dadf282	0.0849352
234	0x3d309877	0.04311415
235	0x3da0b6be	0.07847355
236	0xbdc32f22	-0.09530474
237	0xbbe79484	-0.007067265
238	0xbcb68ef0	-0.022284955
239	0x3e052ea5	0.13006075
240	0x3d47b291	0.04875428
241	0x3d3f2ff4	0.04667659
242	0x3d62cfc3	0.05537392
243	0x3e13e344	0.14442164
244	0x3d8f953d	0.07010887
245	0xbd0d5be6	-0.03451147
246	0xbdf4417c	-0.11926553
247	0xbdd6560e	-0.104656324
248	0x3e0b9510	0.13631082
249	0xbc678551	-0.014130906
250	0xbc619f02	-0.013770821
251	0x3cfb3bdc	0.030668192
252	0xbd986304	-0.07440761
253	0x3dcf8bf3	0.10134115
254	0xbd7bd264	-0.06147994
255	0xbd047e58	-0.032347053

bias f4 [32]
0	0xbe14e076	-0.1453875
1	0x3b11b639	0.0022233857
2	0x3d5115b1	0.051046077
3	0xbd8b174b	-0.06791552
4	0xbc95566c	-0.018229686
5	0x3e7df934	0.24802095
6	0xbea18e88	-0.31554055
7	0xbeb1805f	-0.34668252
8	0xbdadc6d8	-0.08485192
9	0xbbe82cee	-0.007085434
10	0x3e365d0e	0.17808935
11	0xbd46a915	-0.048501093
12	0xbd58a6a9	-0.052893315
13	0xbdd09333	-0.10184326
14	0xbc5265ae	-0.012841625
15	0xbdc81bb6	-0.097709104
16	0x3bdfa178	0.0068246685
17	0xbeb27083	-0.34851465
18	0xbd0c2164	-0.03421153
19	0xbdbbbcdf	-0.09166884
20	0x3c4517ae	0.012029571
21	0x3da848f2	0.08217038
22	0x3db71d5c	0.08941147
23	0x3e0f96a9	0.14022316
24	0xbe8f7c23	-0.28024396
25	0x3d10e203	0.03537179
26	0xbe0419b8	-0.12900436
27	0x3e8cc541	0.27494243
28	0xbe7a408f	-0.2443869
29	0x3d49037f	0.0490756
30	0xbdc3b50a	-0.09556015
31	0x3d97eb09	0.07417876

weight f4 [32, 32, 5, 5]
0	0xbab06152	-0.0013456738
1	0xbbddbe88	-0.006767098
2	0xba819349	-0.0009885813
3	0xbaf66480	-0.0018798262
4	0xbcc9c664	-0.024630733
5	0x3d1ccc5a	0.038280822
6	0x3c1e7970	0.009672508
7	0x3d275de2	0.040861018
8	0x3d19c765	0.037543673
9	0x3d0082a2	0.03137458
10	0x3cdb96e4	0.026805349
11	0x3c38b74e	0.011274172
12	0xbc27b967	-0.010237074
13	0x3c84a97b	0.016194096
14	0x3d31d391	0.043414656
15	0xbc1986b6	-0.0093704965
16	0xbbaf97ab	-0.0053586564
17	0xbd33d58b	-0.043904822
18	0xbcd0d9ca	-0.025494475
19	0xbcc17c59	-0.023618864
20	0x3ce28e1e	0.027655657
21	0x3cd5cde0	0.026099145
22	0x3d00a1c5	0.031404275
23	0x3d043383	0.032275688
24	0x3c586aa7	0.013209022
25	0xbd15f154	-0.0366071
26	0x3c84f017	0.016227765
27	0xbca02a53	-0.019551432
28	0x3ccc070e	0.024905708
29	0xbbe0cd4b	-0.0068604103
30	0xbcabd24b	-0.020974299
31	0x3cb162c0	0.021653533
32	0x3c2af7a2	0.010435017
33	0x3c0e9af2	0.008703934
34	0xbccfa372	-0.025346491
35	0x3d29622e	0.041353397
36	0xbc4f3304	-0.01264644
37	0x3c703b30	0.014662549
38	0x3c38745f	0.011258214
39	0x3cd8e150	0.026474625
40	0x3c88de8c	0.016707681
41	0x3d2d218a	0.042268313
42	0xbc55e418	-0.01305487
43	0x3bff2d56	0.007787387
44	0x3cdbb8c2	0.026821498
45	0x3b1b3af0	0.0023686253
46	0x3d4d8e67	0.050184634
47	0x3d2f02bc	0.042727217
48	0x3d31a671	0.04337162
49	0xbcc0b133	-0.023521995
50	0x3cf05a27	0.029339863
51	0x3d232d0a	0.039837874
52	0x3b3d365a	0.0028871507
53	0x3cb0363a	0.021510232
54	0x3d10372d	0.03520887
55	0x3c918ecc	0.017768286
56	0x3b8a0106	0.004211548
57	0xbca9650f	-0.020678071
58	0x3cccce76	0.025000792
59	0x3cd48ef2	0.025947068
60	0xbd249020	-0.04017651
61	0xbbd67ec3	-0.006545873
62	0x3cce46e6	0.025180291
63	0x3cc9a58e	0.024615075
64	0xbc73fb1d	-0.014891413
65	0x3c6a6793	0.014306921
66	0x3c0c5ab2	0.008566545
67	0xbd236984	-0.03989555
68	0x3b9bbf83	0.0047530546
69	0x3c17848b	0.009247909
70	0xbd0bd027	-0.034134056
71	0x3c651177	0.013981215
72	0xbc3fbe0b	-0.011703025
73	0xbc3311f9	-0.010929578
74	0x3ccd3843	0.025051242
75	0xbb8013c1	-0.003908605
76	0x3ca62194	0.020279683
77	0xbc966a4c	-0.018361233
78	0x3bac0526	0.005249637
79	0xbcb41c2c	-0.02198609
80	0x3c7f5453	0.015584069
81	0xbc438abe	-0.011934934
82	0xbb2d5992	-0.0026451093
83	0xbb0c19a9	-0.00213776
84	0x3a3b6042	0.00071478274
85	0x3bcf84f8	0.00633299
86	0x3aba4608	0.0014211545
87	0x3d259edb	0.0404347
88	0x3c9cffdf	0.019164978
89	0x3bb4d6d8	0.0055187754
90	0xbbcd7979	-0.006270584
91	0x3d14c685	0.036322135
92	0x3d1caf3f	0.038253065
93	0x3cafcdad	0.021460379
94	0x3c9cc3ef	0.019136397
95	0x3c1f7936	0.009733489
96	0x3cc7dea9	0.024398165
97	0xbc9918d8	-0.018688604
98	0x3b838584	0.004013719
99	0x3d005cb8	0.031338423
100	0x3cbd3f3f	0.023101447
101	0xbc999f11	-0.018752607
102	0xbce915e0	-0.028452814
103	0xbb35691a	-0.0027681054
104	0xbc019097	-0.007908008
105	0xbc886d43	-0.016653663
106	0xbc3136e5	-0.0108163105
107	0xbb57c99f	-0.0032926572
108	0xbd369067	-0.044571307
109	0xba32fc98	-0.00068278005
110	0xbb80ed21	-0.003934518
111	0xbcd7eea5	-0.026358912
112	0xbce6159f	-0.028086482
113	0x3b43b3c3	0.0029861785
114	0x3ae60b94	0.0017551058
115	0xbcdd7000	-0.027030945
116	0x3cc63b33	0.02419815
117	0x3cc54255	0.024079481
118	0x3c23665b	0.009973134
119	0xbc3296fc	-0.010900255
120	0x3c0cbbb7	0.008589677
121	0x3c386e1a	0.011256719
122	0x3ca83b02	0.02053595
123	0xbcbd36dc	-0.023097448
124	0xba8fcd92	-0.0010971299
125	0x3c4370a9	0.011928716
126	0xbb003c7e	-0.0019567306
127	0x3cdfafd2	0.027305517
128	0x3d2d3b1d	0.042292703
129	0xbcc0f6db	-0.02355521
130	0x3caade51	0.020857962
131	0x3c8e66c1	0.017382981
132	0x3d1d72e2	0.03843964
133	0x3c7d159a	0.015447045
134	0xba8e22b6	-0.0010844085
135	0xbc0e19d2	-0.008673148
136	0x3ce96421	0.028490128
137	0xbcb36957	-0.021900816
138	0xbccf0c10	-0.025274307
139	0xbccc6ebd	-0.024955148
140	0x3d243774	0.040091947
141	0xbc9658b0	-0.018352836
142	0xbd4069a7	-0.046975758
143	0xbd24312b	-0.040085953
144	0x3c895f56	0.016769093
145	0xb9fddd67	-0.00048420878
146	0xbd363aa1	-0.044489507
147	0x3bee77a7	0.0072774473
148	0x3d3e505e	0.046463363
149	0xbbbc83bf	-0.00575301
150	0x3bd6e115	0.0065575936
151	0x3d21b9bf	0.039483782
152	0x3c8da209	0.017289178
153	0xbb307b47	-0.0026928948
154	0x3d297b31	0.04137725
155	0x3c20824d	0.009796691
156	0x3d03b8ec	0.032158777
157	0x3d0bcd0c	0.034131095
158	0xbc1bb976	-0.009504667
159	0x3c909ad8	0.01765196
160	0x3be981f6	0.0071260883
161	0x3c9cbe97	0.01913385
162	0x3c5e7b13	0.013579148
163	0x3cbf57fd	0.023357386
164	0x3b80fec3	0.00393662
165	0x3cb33f62	0.02188081
166	0xbc228abc	-0.009920772
167	0x3d00aba5	0.031413693
168	0x3970b873	0.00022956896
169	0xbb673f37	-0.0035285482
170	0xbbab9666	-0.0052364348
171	0x3d0fa71d	0.03507148
172	0x3ce88756	0.028384846
173	0xbcec7076	-0.02886222
174	0x3d0a0512	0.03369624
175	0xbce6d635	-0.028178314
176	0xbd17def0	-0.037077844
177	0xbcd014d9	-0.025400566
178	0x3cd81d9e	0.02638131
179	0xbd24063a	-0.040045
180	0xbc914fbd	-0.017738217
181	0xbac74265	-0.0015202282
182	0xbb8f8142	-0.0043794224
183	0x3caebfd4	0.021331705
184	0xbd050e35	-0.032484252
185	0xbac6c03c	-0.0015163491
186	0xbbc3befb	-0.0059736944
187	0x3d2eb95b	0.042657237
188	0x3cf84bbb	0.030309549
189	0x3d430321	0.047610406
190	0x3d2086e4	0.03919114
191	0x3c5dcb28	0.013537206
192	0x3d3b14f4	0.04567428
193	0x3d7d5f4e	0.061858468
194	0x3d32ff86	0.043700717
195	0x3d5a50d5	0.053299744
196	0x3d85749d	0.06516383
197	0x3d10f26f	0.035387453
198	0x3d39e02b	0.0453798
199	0x3d433498	0.04765758
200	0x3c3f56e5	0.011678432
201	0x3cef9f4a	0.02925076
202	0x3b5967eb	0.0033173512
203	0xbd120726	-0.03565135
204	0xbc3045ff	-0.010758876
205	0x3c8ec96f	0.017430035
206	0x3bc4cdc9	0.006005977
207	0xbcbb8fe5	-0.022895763
208	0xbd43e0d8	-0.04782185
209	0x3b38b81c	0.002818591
210	0x3baf7f96	0.0053557856
211	0x3ba9498a	0.0051662372
212	0xbc509a4d	-0.012732101
213	0xbd1e552e	-0.038655452
214	0xbd0b84ba	-0.034062125
215	0xbc710a15	-0.014711876
216	0x3d08799d	0.033319104
217	0xbbf86065	-0.0075798505
218	0x3d703f38	0.05865404
219	0xbc11dffc	-0.0089035
220	0xbd00d400	-0.03145218
221	0x3d29cccd	0.04145508
222	0x3c3ffe99	0.011718416
223	0x39763f37	0.00023483938
224	0x3ac4d15a	0.0015016005
225	0x3ca01a68	0.019543841
226	0xbb801d1f	-0.0039097215
227	0xbd08be20	-0.033384442
228	0xbd07396d	-0.03301375
229	0x3c8ff6c8	0.01757373
230	0x3cdf8dae	0.027289238
231	0x3b50b5ae	0.003184657
232	0x3c739456	0.014866909
233	0xbcbef39a	-0.023309518
234	0xbc9e9e2d	-0.019362533
235	0xbc0645c3	-0.008195343
236	0x3d045b9c	0.032313928
237	0x3c172d88	0.009227164
238	0x3c0590e6	0.008152222
239	0x3d08c0de	0.033387057
240	0xbcab6759	-0.020923303
241	0x3c75a393	0.014992612
242	0x3a302df1	0.0006720713
243	0x3d556648	0.052099496
244	0x3d2d1a39	0.042261336
245	0x3d06bf43	0.032897245
246	0x3c2de96d	0.010614735
247	0x3c5c8555	0.013459523
248	0x3d5e3421	0.054248933
249	0x3d222ef5	0.039595563
250	0xbb8a87ca	-0.004227613
251	0xbc7d3f3a	-0.015456969
252	0xbc8ae5d9	-0.016955303
253	0xbbed0172	-0.0072328383
254	0xbd2915a0	-0.04128039
255	0x3d56af3c	0.05241321

bias f4 [32]
0	0xbcaa4a98	-0.020787522
1	0x3c744f51	0.014911489
2	0xbdb9414b	-0.09045657
3	0xbd8ab772	-0.06773271
4	0x3c9d2f8c	0.019187711
5	0xbcd0163e	-0.02540123
6	0x3b7e74c3	0.003882692
7	0x3d2ed1bc	0.042680487
8	0xbda609b0	-0.081073165
9	0xbb8f5f16	-0.004375349
10	0xbe2b324f	-0.1671841
11	0xbcbfcaf1	-0.0234122
12	0x3dfed24a	0.12442453
13	0xbd42b58d	-0.04753642
14	0xbdd90648	-0.10596901
15	0xbb5981d7	-0.0033188963
16	0xbbe201a9	-0.0068971706
17	0x3d028038	0.03186056
18	0xbdda8b88	-0.10671145
19	0xbd8c046d	-0.06836782
20	0xbd4366a1	-0.047705296
21	0x3c38c62d	0.011277718
22	0xb9b38963	-0.00034243902
23	0x3c486ac8	0.01223249
24	0xbcef7352	-0.029229794
25	0xbca0fe5f	-0.019652544
26	0xbd03b1f4	-0.03215213
27	0xbd6b6e98	-0.057478517
28	0xbd5fb1a7	-0.05461278
29	0xbc00b392	-0.007855313
30	0xbd96ddad	-0.073665
31	0xbd805db2	-0.06267871

weight f4 [64, 32, 5, 5]
0	0xbc52210a	-0.01282526
1	0x3d0c0a8e	0.034189753
2	0x3c650a77	0.013979546
3	0x3bba4088	0.0056839623
4	0x3c7942e1	0.015213699
5	0xbb16c973	-0.0023008257
6	0x3c9cbfaa	0.019134361
7	0xbbaac9b9	-0.0052120355
8	0xbcadc214	-0.021210708
9	0xbb4816af	-0.0030531099
10	0xbc946332	-0.018113706
11	0x3bdedb4b	0.006801044
12	0x3c8a6bed	0.016897166
13	0xbcd73858	-0.026271984
14	0x3c45b915	0.012068053
15	0xbc966a41	-0.018361213
16	0x3c8a6bbb	0.016897073
17	0xbd19fd31	-0.037594978
18	0x3bb7146f	0.0055871527
19	0xbcb8dd6c	-0.02256652
20	0x3cf56525	0.029955456
21	0x3d26febf	0.04077029
22	0xbb3e22f9	-0.0029012545
23	0xbb874a0c	-0.0041287
24	0xbcb03689	-0.02151038
25	0x3ca46a97	0.020070357
26	0xbd309751	-0.043113057
27	0x3cba8b7d	0.022771591
28	0xbb01424e	-0.0019723359
29	0xbc2cc4da	-0.01054498
30	0x3c8c92f6	0.01715992
31	0xbbf4af86	-0.007467213
32	0x3b2b429a	0.0026132227
33	0x3c9d1bb0	0.019178241
34	0xbca1fd0e	-0.019773986
35	0x3c009f43	0.007850471
36	0x3b8be034	0.0042686705
37	0x3c109b7b	0.008826132
38	0xb9957656	-0.00028507662
39	0xbc2d437f	-0.010575174
40	0x3cd0823d	0.025452727
41	0xbca0c5bc	-0.019625537
42	0xbc9e493e	-0.019322034
43	0xbbc6e8de	-0.0060702404
44	0xbc9ccfc8	-0.019142047
45	0xbce0e6ae	-0.027453747
46	0x3c31adaa	0.010844627
47	0xbcd2af73	-0.025718426
48	0x3d2b6b38	0.0418503
49	0x3d0d2866	0.034462355
50	0xbb948ffe	-0.004533767
51	0x3c65bda0	0.014022261
52	0x3cf9d628	0.030497625
53	0xbd015d54	-0.031583145
54	0xbb52ed87	-0.0032185034
55	0xbd461007	-0.04835513
56	0xbd2f2b57	-0.04276594
57	0x3c3c5c11	0.01149656
58	0x3c1234f2	0.008923756
59	0xbce87d5a	-0.028380085
60	0xbcdedf7f	-0.02720618
61	0xbb72446e	-0.0036967057
62	0xbaed3b76	-0.0018099386
63	0x3d0537e9	0.032524023
64	0x3c60e2b4	0.013725925
65	0xbd4b1d0d	-0.04958825
66	0x3cafd3b2	0.021463249
67	0x3ca4e2ee	0.02012774
68	0x3d175ccf	0.036953744
69	0x3cd956f0	0.026530713
70	0x3b503b20	0.0031773522
71	0x3c32359b	0.010877038
72	0x3d35030e	0.044192366
73	0x3d626156	0.055268608
74	0x3d0be122	0.03415025
75	0xbcd75f57	-0.026290579
76	0xbaa1a7e1	-0.0012333357
77	0x3c249008	0.010044105
78	0xbc1fc7b2	-0.009752201
79	0x3d0717ad	0.032981563
80	0x3c1db536	0.009625724
81	0xbd2b1e80	-0.041777134
82	0x38e25b39	0.00010793511
83	0x3ce24686	0.027621519
84	0xbba0e103	-0.004909636
85	0xba99500b	-0.0011696828
86	0xbbe8f843	-0.007109673
87	0xbc86793e	-0.016415235
88	0xbd2e7cd2	-0.042599507
89	0xbd1af03d	-0.037826765
90	0x3c671ba7	0.014105714
91	0x3af0a7be	0.0018360538
92	0x3cacdb93	0.021100795
93	0xbcac461c	-0.021029525
94	0xbcd7efa3	-0.026359385
95	0x3c377253	0.011196691
96	0xbcc261dd	-0.023728305
97	0xbd180e62	-0.03712309
98	0x3c030272	0.0079961885
99	0xbceee441	-0.029161574
100	0xba3f73d4	-0.00073033315
101	0x3bb36140	0.0054742396
102	0x3cd8dd72	0.02647278
103	0x3d05bb4d	0.032649327
104	0xbc67ef66	-0.014156198
105	0xbc597c88	-0.0132743195
106	0x3d11e037	0.03561422
107	0x3cc65227	0.024209095
108	0xbcac7d90	-0.021055967
109	0x3c47496a	0.012163499
110	0xbc8eacfb	-0.017416468
111	0xbd01f7c4	-0.03173043
112	0xbb71d2b3	-0.0036899268
113	0x3cf169d2	0.029469404
114	0x3c0f396e	0.00874172
115	0xbc2cfa34	-0.0105577
116	0xbc828a05	-0.015934953
117	0x3b2c29f0	0.0026270114
118	0xbab27a9d	-0.0013616864
119	0xbc21d70e	-0.009877933
120	0xbc9666de	-0.018359598
121	0xbbb0b909	-0.0053931517
122	0xbbbca335	-0.0057567605
123	0xbcddb212	-0.02706245
124	0xbc0f764f	-0.008756234
125	0xbc2a5152	-0.010395365
126	0x3c97b489	0.018518703
127	0xbcb6c5b3	-0.022311067
128	0xbcf8a266	-0.030350875
129	0x3cbb20e0	0.022842824
130	0xbc86c4c8	-0.016451254
131	0xbc289198	-0.0102886185
132	0xbd1e3c43	-0.03863169
133	0x39039864	0.00012549903
134	0xbc178064	-0.009246919
135	0xbd027757	-0.031852093
136	0x3c99d7b5	0.018779615
137	0xbcf45f0e	-0.029830482
138	0xbc1f8188	-0.0097354725
139	0xbcb30b06	-0.021855842
140	0x3bf392ca	0.00743327
141	0x3cbfb15b	0.0234
142	0xbc38e1a7	-0.011284268
143	0xbccda763	-0.02510423
144	0xbc53a5bc	-0.012917932
145	0xbc945425	-0.01810653
146	0xbd17b310	-0.037036
147	0xbce6807e	-0.028137442
148	0xbcae566b	-0.021281442
149	0x3bfa1dea	0.0076329606
150	0xbc1f1095	-0.009708543
151	0x3c156cf4	0.009120215
152	0x3c999dd2	0.018752012
153	0xbb9a8631	-0.004715704
154	0x3b439f8b	0.0029849734
155	0xbcf3a1ab	-0.029740175
156	0x3c91a7c6	0.017780196
157	0x3cf8c956	0.030369442
158	0xbb044685	-0.0020183634
159	0xbca2a9db	-0.019856384
160	0xbce0a75a	-0.02742355
161	0xbb88277a	-0.0041550966
162	0xbcf6233d	-0.0300461
163	0xbbb507b6	-0.005524601
164	0xbc8a5ca2	-0.016889874
165	0xbcdbb023	-0.026817387
166	0xbc63e83d	-0.01391035
167	0x3b9d2826	0.004796046
168	0xbc3689e1	-0.011141271
169	0x3d0e208b	0.034699004
170	0x3cc7a50d	0.024370695
171	0xbbf7c2b9	-0.0075610545
172	0x3c4bfb77	0.012450091
173	0xbccc0de3	-0.024908965
174	0xbcea729c	-0.028619103
175	0xbbc09efc	-0.0058783274
176	0xbc0f23e8	-0.008736588
177	0x3bdd9680	0.0067623258
178	0xbcaecf32	-0.021339033
179	0xbc847e30	-0.016173452
180	0x3cd1a4ec	0.025591336
181	0x3c012e66	0.007884597
182	0x3b821f26	0.0039709983
183	0x3c8d0feb	0.017219504
184	0x3c56c9c3	0.013109627
185	0x3c21473b	0.009843643
186	0x3c2e3534	0.010632802
187	0xbbbee462	-0.005825565
188	0x3bbfd57b	0.0058543063
189	0xbc75807d	-0.014984247
190	0x39f7f0f1	0.00047291027
191	0x3cb5567c	0.022135966
192	0x3d04e50c	0.032445
193	0x3cc2f0bc	0.023796432
194	0xbc36ba4e	-0.011152817
195	0xbcc27984	-0.023739584
196	0x3bc9ffbc	0.006164519
197	0x3d0a9b52	0.03383953
198	0x3c32743b	0.010891969
199	0xbb691916	-0.003556793
200	0x3c9b5d3e	0.01896536
201	0x3d1ac6b4	0.037787154
202	0xbc4f74be	-0.012662111
203	0xb90d46fc	-0.00013473252
204	0xbc722da6	-0.014781391
205	0xbbca1cac	-0.0061679687
206	0xbb8ae109	-0.004238252
207	0xbc2e7a39	-0.010649257
208	0xbc9365c5	-0.017992863
209	0x3c804d0b	0.015661737
210	0xbd0a1c45	-0.033718366
211	0xbc906a4e	-0.017628815
212	0xbd07a301	-0.033114437
213	0x3bbd54a5	0.0057779127
214	0xbcf8727d	-0.03032803
215	0xbcfe18d9	-0.031017708
216	0x3d083018	0.03324899
217	0x3acb1e31	0.0015496669
218	0xbc6cd1d5	-0.014454325
219	0x3d24df5f	0.040252086
220	0xbd26a2ff	-0.04068279
221	0x3cc4ddcc	0.024031542
222	0x3b7606eb	0.0037540745
223	0x394332fb	0.00018615641
224	0xbc8f1009	-0.0174637
225	0x3c9344a9	0.017977076
226	0xbd1b9428	-0.03798309
227	0x3c992e5c	0.018698864
228	0xbb935974	-0.0044967476
229	0xbb6ca875	-0.003611115
230	0xbc79f9a3	-0.015257272
231	0xbc978888	-0.01849772
232	0x3b7095fc	0.0036710491
233	0xbd24870f	-0.040167864
234	0xbc478e98	-0.012179993
235	0x3d081049	0.033218656
236	0xbca3ba18	-0.019986197
237	0x3cb12c32	0.02162752
238	0xbc69060c	-0.014222633
239	0x3c860c89	0.0163634
240	0x3d24d45c	0.040241584
241	0xbd1d3880	-0.03838396
242	0x3ce66306	0.02812339
243	0x3c163fcc	0.009170484
244	0xbcdc77f0	-0.02691266
245	0xbb71efed	-0.0036916689
246	0xbd5061ce	-0.050874524
247	0x3c8ae640	0.016955495
248	0xbb276de9	-0.002554769
249	0xbd3fb2aa	-0.046801247
250	0x3b87e72f	0.0041474323
251	0xbce01f0e	-0.027358558
252	0xbbb7a5c5	-0.005604478
253	0x3d2d3fa7	0.04229703
254	0xbc6f1173	-0.014591563
255	0xbc39eab7	-0.011347464

bias f4 [64]
0	0xbd6534f6	-0.05595871
1	0x3d3eda89	0.04659513
2	0xbd06fda4	-0.032956734
3	0xbaf4a52c	-0.0018664948
4	0xbdec9330	-0.11551511
5	0xbca643b2	-0.020295952
6	0xbd2ccb7f	-0.042186256
7	0xbd34642e	-0.04404085
8	0x3ca27e86	0.019835722
9	0x3ca85c41	0.020551803
10	0xbd5d5b5b	-0.0540422
11	0xbc60c76c	-0.013719421
12	0xbd864b39	-0.06557316
13	0xbce7c168	-0.028290465
14	0x3d33cd33	0.043896865
15	0xbcae222d	-0.02125653
16	0xbca99c40	-0.020704389
17	0xbc98aaf3	-0.018636202
18	0xbcadc1a0	-0.021210492
19	0xbcdb27b8	-0.026752338
20	0xbb68a330	-0.0035497658
21	0x3cae909e	0.021309193
22	0xbc2faeb0	-0.010722801
23	0x3bd04e0e	0.006356961
24	0xbb31d1ed	-0.0027133182
25	0xbda58437	-0.080818586
26	0xbca2357f	-0.0198009
27	0xbccec84c	-0.025241993
28	0xbd572110	-0.052521765
29	0xbc034d46	-0.008014029
30	0x3c48b80c	0.012250911
31	0xbce3d2b3	-0.02781043
32	0xbd15c9f0	-0.036569536
33	0x3c74b6fb	0.014936204
34	0xbd66ba66	-0.056330107
35	0xbc968215	-0.018372575
36	0xbcb697b0	-0.022289127
37	0xba5b6c43	-0.0008370319
38	0x3c753950	0.014967278
39	0xbcb213d3	-0.021737969
40	0xbd3a3b41	-0.045466665
41	0xbdf37e4d	-0.11889324
42	0xbdaf7370	-0.0856694
43	0xbd308620	-0.04309666
44	0x3b80fd3c	0.003936438
45	0xbd9ca7cb	-0.076491915
46	0x3b4399a6	0.002984622
47	0xbd29d958	-0.04146704
48	0xbc8f2246	-0.017472398
49	0xbd6f7056	-0.05845674
50	0xbd7b582f	-0.061363395
51	0xbdc35400	-0.09537506
52	0xbd7fd8be	-0.06246256
53	0x3bded0af	0.0067997794
54	0xbd3639a7	-0.044488575
55	0xbcc0515b	-0.023476293
56	0x3c514ab7	0.012774161
57	0xbd5846b2	-0.052801795
58	0xbd03084f	-0.031990346
59	0xbd27c3f8	-0.040958375
60	0xbc99c5d6	-0.018771093
61	0xbd407050	-0.04698211
62	0xbcbee3ac	-0.023301922
63	0xbc8f8534	-0.01751957

weight f4 [64, 1024]
0	0xbbedd2ea	-0.007257809
1	0x3d2c64e0	0.04208839
2	0x3c8e5a82	0.017377142
3	0x3c866aac	0.016408287
4	0x3d4263fb	0.04745863
5	0x3d33d127	0.043900635
6	0x3c43c38d	0.011948478
7	0xbc675673	-0.014119732
8	0x3be85d5d	0.007091208
9	0xbbab76d5	-0.0052326717
10	0x3d1a7c82	0.037716396
11	0x39c4704a	0.00037467695
12	0xbc83a792	-0.016071115
13	0xbb8dc198	-0.0043260567
14	0xba984aeb	-0.0011619007
15	0xbba87631	-0.0051410426
16	0xbcd03557	-0.02541606
17	0xbc01a02f	-0.007911726
18	0xbb6b7764	-0.0035929317
19	0xbbc0c0f5	-0.0058823773
20	0xbd0fe741	-0.03513265
21	0xbc19602b	-0.009361307
22	0x3d04699c	0.03232728
23	0x3c168b22	0.009188445
24	0xbc5bce8b	-0.013415943
25	0xbd2dc4c0	-0.042423964
26	0xbcbb48b6	-0.02286182
27	0xbd2b3e52	-0.04180748
28	0x3d026407	0.031833675
29	0xbc97daa5	-0.018536875
30	0x396ba089	0.0002247115
31	0x3b1bab74	0.0023753317
32	0x3c1af90f	0.009458794
33	0x3cd63610	0.026148826
34	0xbc81d55e	-0.015848812
35	0xbc3e2885	-0.01160634
36	0x3c5730b5	0.013134171
37	0xbcaaf286	-0.020867597
38	0x3b34fb1d	0.0027615495
39	0xbbf0be4f	-0.0073469053
40	0x3c65b481	0.014020086
41	0xbc7c3b9f	-0.015395074
42	0x3d309782	0.04311324
43	0xb9d7220b	-0.0004103336
44	0x3c4cf717	0.012510083
45	0x3b1e9695	0.002419864
46	0xbc583f59	-0.013198697
47	0x3ccb0825	0.024784157
48	0xbc88cef7	-0.016700251
49	0xbca820cc	-0.020523451
50	0x3ceae244	0.028672345
51	0xbc7c8e95	-0.015414854
52	0x3cdb372a	0.026759703
53	0x3b44ec06	0.0030047907
54	0x39da04bc	0.00041583728
55	0xbc0f3c3b	-0.008742387
56	0x3d5df561	0.05418909
57	0xbbb02ee4	-0.0053766835
58	0x3c0c601b	0.008567835
59	0x3ce38864	0.027774997
60	0x3d28e29f	0.041231748
61	0x3cdbf1d1	0.026848705
62	0x3d19bcde	0.037533633
63	0x3d29ab4c	0.041423127
64	0xbbf42ede	-0.007451876
65	0x3d5287e7	0.051399138
66	0xbc15af0c	-0.009135973
67	0x3cbc86b2	0.023013446
68	0x3d0840f9	0.033265088
69	0x3ceb0402	0.028688435
70	0x3bfbe28f	0.00768692
71	0x3d46df56	0.048552833
72	0xbcba761e	-0.0227614
73	0x3a0dea07	0.0005413596
74	0x3d2ab37f	0.041675087
75	0x3b82ab8a	0.003987734
76	0x3c1652a2	0.009174975
77	0xbce39a50	-0.027783543
78	0x3bda5017	0.0066623795
79	0xbd051346	-0.032489084
80	0xbbc7c8c9	-0.0060969335
81	0x3ccf53ef	0.025308577
82	0x3c4c8521	0.012482912
83	0x3cf5eafa	0.030019272
84	0xbca43b85	-0.020047912
85	0x3cf5e2bb	0.03001534
86	0x3c180d6e	0.009280546
87	0x3c73f6bd	0.01489037
88	0x3bf0cf58	0.007348936
89	0x3c503378	0.012707584
90	0x3c3ce51e	0.011529235
91	0xbcd290b1	-0.02570376
92	0xbc8ecbe6	-0.01743121
93	0xbbbd53a2	-0.005777792
94	0x3c55323f	0.013012468
95	0x3cdca698	0.026934907
96	0xb9857df1	-0.0002546157
97	0x3cf55d44	0.0299517
98	0x3c3a5a72	0.011374103
99	0x3bbd76f8	0.0057820044
100	0xbc9f7a23	-0.019467419
101	0x3bdfa744	0.0068253595
102	0xbd1537fc	-0.036430344
103	0xbd53c5f6	-0.051702462
104	0x3c846973	0.016163563
105	0x3d098bc5	0.03358056
106	0xbc0bef83	-0.008540991
107	0x3d2bfe80	0.041990757
108	0xbb0985dc	-0.0020984327
109	0x3d2cb162	0.042161353
110	0x3b7c611d	0.0038510032
111	0x3be4a765	0.006977963
112	0x3c0cb068	0.00858698
113	0x3b7666ca	0.0037597888
114	0x3c291ddc	0.01032206
115	0xb9bd5b58	-0.00036116946
116	0xbc84698f	-0.016163616
117	0xbc85fc79	-0.01635574
118	0xbc22ba06	-0.009932047
119	0x3ca165fb	0.019701948
120	0x3c06f4e4	0.008237097
121	0xbccfb334	-0.025354005
122	0x3a58b5d9	0.00082668435
123	0xbbd33fb2	-0.006446802
124	0xbca93cfd	-0.020658964
125	0x3d07d66e	0.03316348
126	0xbbd9d0da	-0.0066472115
127	0x3c71ed39	0.014766031
128	0x3c85e12b	0.01634272
129	0xbcf8ff3d	-0.030395145
130	0xbd00e878	-0.0314717
131	0xbcda476c	-0.026645385
132	0x3d260d15	0.04053982
133	0x3b433160	0.0029784068
134	0xbbabbb95	-0.0052408674
135	0xbd3e04c6	-0.04639127
136	0x3742ebd4	1.1618209e-05
137	0x3c75ce3f	0.015002786
138	0xbca5ca42	-0.020238046
139	0x3ce2d045	0.027687201
140	0xbb87df34	-0.004146481
141	0xbd1617f5	-0.03664394
142	0xbc9788a7	-0.018497778
143	0x3d2aa220	0.04165852
144	0x3cd1c492	0.025606427
145	0xbc34d430	-0.011036918
146	0x3cc3bc7d	0.02389359
147	0xbca46afe	-0.02007055
148	0x3b0cc3bc	0.0021478971
149	0x3b598a4e	0.0033194008
150	0x3c809d00	0.015699863
151	0x3c3cc926	0.011522567
152	0x3c981cee	0.018568482
153	0xbb05364e	-0.0020326558
154	0x3b889128	0.0041676946
155	0xbc5cbf9c	-0.013473418
156	0x3b575abd	0.003286048
157	0x3c29a5af	0.010354443
158	0xbc98efc9	-0.018669026
159	0xb9a728fa	-0.00031883252
160	0xbc3ebaf2	-0.011641251
161	0xbd2e9273	-0.042620134
162	0xbb9ce5bc	-0.0047881287
163	0xbc831bf7	-0.016004546
164	0xbcca26cb	-0.024676701
165	0xbab45a9e	-0.0013759916
166	0x3ce6b6f3	0.028163409
167	0xbab57aa0	-0.0013845749
168	0x3c9bb287	0.019006027
169	0x3ca2a3c3	0.019853478
170	0x3d16382e	0.03667467
171	0x3b51c2a3	0.0032006882
172	0x3c4dced4	0.012561519
173	0x3bac1f3e	0.005252748
174	0x3d4d0682	0.050055034
175	0xbc9a975b	-0.018871
176	0x3cbc3b3e	0.022977468
177	0xbc82c06f	-0.0159609
178	0xbcac0a82	-0.021001104
179	0x3c53243a	0.012887055
180	0xbc4f09cc	-0.012636613
181	0x3d826f3e	0.06368874
182	0xbcb6e53d	-0.022326106
183	0x3ce4a887	0.027912391
184	0x3b992688	0.0046737827
185	0x3cb42d0a	0.021994133
186	0xbbf81a09	-0.007571463
187	0x3ccc2844	0.024921544
188	0x3c31b09a	0.010845328
189	0x3c8c982b	0.017162403
190	0x3d2cb5b4	0.042165473
191	0x3cb1e994	0.021717824
192	0x3c7e7ed0	0.015533164
193	0x3d42a8ce	0.047524266
194	0x3ca329f3	0.019917464
195	0x3c149d80	0.009070754
196	0x3c26b63d	0.010175285
197	0x3b75ea35	0.0037523631
198	0x3d0ab186	0.033860706
199	0xbd0bfb28	-0.03417507
200	0x3c9a20b9	0.018814432
201	0x3cef4c26	0.029211115
202	0xbc80be56	-0.01571576
203	0xbcae94f6	-0.021311264
204	0x3cd22691	0.025653156
205	0xbca19382	-0.019723658
206	0x3cc1bef3	0.023650622
207	0xbd057253	-0.03257973
208	0xbd0c0860	-0.034187675
209	0x3c08e7a2	0.008356007
210	0x3b9f0066	0.0048523424
211	0x3d35a4e9	0.044346724
212	0xbcb1ec49	-0.021719115
213	0x3d4e07e6	0.0503005
214	0x3c75c579	0.015000694
215	0x3c818539	0.015810596
216	0x3ba96800	0.0051698685
217	0xbd0083cd	-0.031375695
218	0xbccc0877	-0.02490638
219	0x3c5365a1	0.012902648
220	0x3c81a3fc	0.015825264
221	0xbc9f71b6	-0.019463401
222	0xbc5ec651	-0.013597087
223	0x3c0ef9fd	0.008726594
224	0xbd10d330	-0.035357654
225	0xbc1fec2a	-0.009760896
226	0xbd00e036	-0.031463824
227	0xbac51e60	-0.001503896
228	0x3c53ddbf	0.012931286
229	0x3b7e04a2	0.0038760086
230	0xbc20141e	-0.009770421
231	0xbc9e5802	-0.019329075
232	0x3cc87acf	0.024472622
233	0x3c885881	0.016643764
234	0xbca816bf	-0.020518659
235	0xbc346736	-0.0110109355
236	0x3c277185	0.010219936
237	0x3cb51bdb	0.02210801
238	0x3c30dd54	0.010794956
239	0x3ca47003	0.020072943
240	0xbaf10117	-0.0018387166
241	0x3c9884d2	0.018618021
242	0x3aea3b30	0.0017870422
243	0xbb112680	-0.0022148192
244	0xbaa39a9c	-0.001248199
245	0x3b66ab40	0.0035197288
246	0xbcddb7b1	-0.02706513
247	0xbb65b231	-0.0035048837
248	0xbc869eef	-0.016433207
249	0xbca657a8	-0.02030547
250	0x3c915a39	0.017743217
251	0x3c552d55	0.013011296
252	0x3cf37e3c	0.02972328
253	0x3d64de56	0.0558761
254	0x3d83ace2	0.06429459
255	0x38c0868b	9.180334e-05

bias f4 [64]
0	0xbc420490	-0.011841908
1	0xba059f24	-0.0005097261
2	0xbd1b34c4	-0.037892118
3	0xbc10a932	-0.008829402
4	0x3c8b0562	0.01697034
5	0x3c8ae60a	0.016955394
6	0x3bb0a9f5	0.005391354
7	0xbd0003a7	-0.031253483
8	0x3c8300ec	0.01599165
9	0xbd3c6f78	-0.046004742
10	0x3b78a9cd	0.0037943006
11	0x38e94bd1	0.00011124428
12	0x3a8c5ab1	0.001070818
13	0x3d136577	0.035985436
14	0xbc5165d7	-0.012780628
15	0xbc1dcf2c	-0.009631913
16	0x3cbe297d	0.023213143
17	0x3c9eea16	0.01939873
18	0xbd7df9ac	-0.062005684
19	0xbb1e6873	-0.0024171143
20	0xba95660b	-0.0011398209
21	0xbc0a1a23	-0.008429083
22	0xbc4ac7b1	-0.012376712
23	0x3d3432bc	0.043993697
24	0x3cd5a60a	0.02608015
25	0x3d3d9ed7	0.04629406
26	0x3ca2c07b	0.019867172
27	0x3cbea659	0.02327268
28	0x3d385106	0.044999145
29	0x3cff0817	0.031131787
30	0xbc968a93	-0.018376624
31	0x3a5f97af	0.00085293775
32	0xbd23cb3f	-0.039988752
33	0x3cd979b2	0.026547287
34	0xbb83f614	-0.0040271375
35	0xbca0e017	-0.019638104
36	0xbc89f9a2	-0.016842667
37	0x3ca849f3	0.020543074
38	0xbd4157a0	-0.047202706
39	0x3b079c47	0.0020692514
40	0xbd3eca45	-0.046579618
41	0xbc3e59ec	-0.011618119
42	0xbbfe3fdb	-0.007759077
43	0x3cc7e4ef	0.024401156
44	0x3a87f132	0.0010371564
45	0x3afc00e7	0.0019226343
46	0x3d2979e9	0.04137603
47	0xbceec7de	-0.029148038
48	0x3d851e2d	0.06499896
49	0x3c9940d5	0.018707672
50	0xbc39fa70	-0.011351213
51	0xbccdc364	-0.025117584
52	0xbd105bb6	-0.035243712
53	0x3b8b5f1e	0.004253282
54	0x3c0b85b3	0.008515763
55	0x3c67214a	0.014107058
56	0x3d618ac1	0.055063967
57	0xbcbb8a1e	-0.022893008
58	0xbc34243b	-0.010994966
59	0x3c809994	0.015698232
60	0xbd6532ac	-0.055956528
61	0xbb28442a	-0.0025675395
62	0x3c092e88	0.00837291
63	0xbd4c5ce4	-0.049893275

weight f4 [10, 64]
0	0x3d5207a4	0.051276818
1	0x3d8e2fed	0.06942735
2	0x3ddaf97a	0.10692115
3	0xbe39092e	-0.18069908
4	0xbe03589d	-0.12826772
5	0x3e2cdd60	0.16881323
6	0xbe659ac6	-0.22422323
7	0x3e73ea35	0.23819812
8	0xbdba196c	-0.0908688
9	0x3c877b93	0.016538417
10	0xbdfe2975	-0.12410251
11	0x3d3e60b0	0.046478927
12	0x3c5431f4	0.012951363
13	0xbda70baf	-0.08156525
14	0xbccd4ada	-0.025060106
15	0xbcbd0d9a	-0.023077775
16	0x3cfc5d24	0.030806132
17	0xbe50ab92	-0.20377949
18	0x3caa4c6b	0.020788392
19	0x3d1448c1	0.036202196
20	0xbd381bcb	-0.04494838
21	0xbdacdf6c	-0.08441052
22	0xbc47282b	-0.012155573
23	0x3d189802	0.03725434
24	0x3c4843f5	0.0122232335
25	0xbe02fc6c	-0.12791604
26	0xbdfacd1a	-0.12246151
27	0x3e154a11	0.14579035
28	0xbe639892	-0.2222617
29	0xbe0ad1cd	-0.13556595
30	0xbd30e3ca	-0.043185987
31	0x3cd8b150	0.026451737
32	0xbdb5df9c	-0.08880541
33	0x3de3ca69	0.11122591
34	0xbaaf38c4	-0.0013368358
35	0x3e844ecd	0.2584137
36	0x3e255cb1	0.1614864
37	0x3dd7b7b9	0.10533089
38	0x3d702b55	0.058635075
39	0xbe8a2ca1	-0.26987174
40	0x3e1624e4	0.1466251
41	0xbda077c3	-0.07835343
42	0xbe13952b	-0.14412372
43	0xbdd4ee32	-0.10396995
44	0x3d993197	0.07480162
45	0x3d569eaa	0.052397408
46	0xbe07afe2	-0.13250688
47	0xbe0bda35	-0.13657458
48	0xbe57a5d4	-0.21059352
49	0xbcabc2cc	-0.02096691
50	0x3e07d7a0	0.13265848
51	0x3e156220	0.14588213
52	0xbe15075f	-0.14553593
53	0xbd9b45d6	-0.075816795
54	0xbd10d051	-0.035354916
55	0xbb67fe78	-0.0035399478
56	0xbd407861	-0.046989802
57	0xbc8bc128	-0.017059878
58	0xbd8b960b	-0.06815728
59	0xbdb0f5c7	-0.08640628
60	0x3deb234b	0.11481341
61	0xbe69e51f	-0.22841309
62	0x3dc174f4	0.09446135
63	0x3e48fb2a	0.19627061
64	0x3e55c961	0.20877601
65	0xbe326764	-0.17422253
66	0xbe35eb8e	-0.17765638
67	0x3e4b9b2e	0.19883415
68	0xbcd35dc7	-0.025801552
69	0xbde85a67	-0.11345368
70	0xbdad841d	-0.08472464
71	0x3dbdab63	0.09261205
72	0x3e22a720	0.15884066
73	0xbddd9198	-0.108187854
74	0xbdc23249	-0.094822474
75	0xbe018af8	-0.12650669
76	0x3cad77a9	0.021175222
77	0xbe3f5248	-0.18683732
78	0xbdf8cd57	-0.121485405
79	0xbd5f4f60	-0.054519057
80	0x3c4cddaf	0.012504025
81	0xbe52d48f	-0.20588897
82	0x3d26c74e	0.040717416
83	0x3e190497	0.14943157
84	0xbe122e12	-0.14275387
85	0x3e87cf86	0.26525515
86	0x3dcc4dc9	0.09975774
87	0x3e331844	0.17489725
88	0x3e63c8ff	0.22244643
89	0x3d0583c0	0.03259635
90	0x3e15a4c3	0.14613633
91	0xbde5dfd9	-0.11224336
92	0xbe24e478	-0.16102779
93	0x3de5ebf8	0.11226648
94	0xbccff340	-0.025384545
95	0x3d680ad5	0.056650955
96	0xbdb96110	-0.09051716
97	0xbe621d84	-0.22081572
98	0xbdd6c33d	-0.104864575
99	0xbe86c550	-0.26322412
100	0x3da72bb4	0.081626326
101	0x3e5a9a3b	0.21347897
102	0xbe23dd68	-0.16002429
103	0xbe4f9e79	-0.20275296
104	0xbe055360	-0.13020086
105	0x3e2cbcea	0.1686894
106	0x3e4e86fb	0.20168678
107	0x3e252f30	0.16131282
108	0xbe4e2487	-0.20131122
109	0x3c189b1d	0.009314326
110	0xbd223f3a	-0.03961108
111	0x3cbbe15c	0.022934608
112	0xbe2c5c84	-0.16832167
113	0xbd7c58c2	-0.061608084
114	0x3c843d5d	0.016142542
115	0xbe3e2a57	-0.18570839
116	0xbdf5a45a	-0.11994238
117	0x3e832426	0.25613517
118	0x3e1ed8a3	0.15512328
119	0x3e4f7e4f	0.20263027
120	0xbe88c480	-0.26712418
121	0xbdf359e3	-0.11882379
122	0x3e80baa5	0.25142398
123	0xbd5631fc	-0.052293763
124	0xbd815fe0	-0.06317115
125	0xbc3b1bd7	-0.011420212
126	0x3e4375d0	0.1908791
127	0xbe36d074	-0.17852956
128	0xbe283717	-0.16427265
129	0x3caf7ed6	0.021422785
130	0xbcc3e4a0	-0.023912728
131	0xbdcc6c67	-0.099816136
132	0xbe4537fb	-0.19259636
133	0x3e7fcb67	0.24979936
134	0x3d69481c	0.056953534
135	0x3e069688	0.1314336
136	0xbd8ae8d6	-0.06782691
137	0x3cddfc91	0.027097972
138	0x3cf7139f	0.030160723
139	0xbc6ef596	-0.014584919
140	0xbe10255b	-0.1407675
141	0x3d7e7163	0.062119853
142	0x3d349724	0.04408945
143	0x3e3e67eb	0.18594329
144	0xbdcebc39	-0.100944944
145	0xbd93bc3a	-0.07213636
146	0x3e48b83d	0.19601531
147	0xbe3a556f	-0.18196653
148	0x3d6bdcbb	0.05758355
149	0xbba9206c	-0.0051613357
150	0xbc9de88a	-0.019275922
151	0xbd87f3b2	-0.06638278
152	0x3d80ffa4	0.062987596
153	0xbe111584	-0.14168364
154	0xbe53f0b2	-0.20697287
155	0xbe51d4e2	-0.20491365
156	0x3cf948bc	0.03043019
157	0x3d92200f	0.07135021
158	0xbcef5cb6	-0.029219013
159	0x3d56e3a8	0.052463204
160	0xbe0203ae	-0.12696716
161	0xbd690565	-0.05688991
162	0x3c908bb6	0.017644744
163	0x3e77549c	0.2415337
164	0xbe137272	-0.14399126
165	0x3cda2ee5	0.02663369
166	0x3cfeb374	0.03109143
167	0x3e42ccb1	0.19023396
168	0x3e468e26	0.19390163
169	0xbe3c1640	-0.18367863
170	0x3e2f12ce	0.17097017
171	0x3dec5e7c	0.11541459
172	0x3e5d7e64	0.21630245
173	0xbd34756a	-0.044057287
174	0xbd047d0c	-0.032345816
175	0xbe0004e6	-0.12501869
176	0x3b1a6d8f	0.0023563837
177	0xbdbbde1b	-0.09173223
178	0xbd24354d	-0.040089894
179	0xbd973e2a	-0.07384904
180	0xbdbcf542	-0.09226467
181	0xbe02f713	-0.12789564
182	0x3e03db89	0.12876715
183	0xbe4b77ca	-0.19869915
184	0x3e568e42	0.20952705
185	0xbc30ac4f	-0.010783269
186	0xbdeaddec	-0.114681095
187	0xbd1425d6	-0.036168896
188	0xbdb1d56b	-0.08683284
189	0x3e3191cd	0.17340775
190	0x3da5fe9d	0.08105204
191	0xbdd1c28f	-0.10242187
192	0x3e07d3b2	0.13264349
193	0x3d04655e	0.032323234
194	0x3deec4e7	0.1165865
195	0x3d5e0291	0.054201666
196	0x3df3873e	0.1189103
197	0x3d6fc3c2	0.0585363
198	0x3e4f7d0b	0.20262544
199	0x3c199456	0.009373745
200	0x3d1b9f5f	0.037993785
201	0x3d7e495d	0.062081683
202	0x3dc9d627	0.098552994
203	0xbe058c0b	-0.13041703
204	0x3d9cfc25	0.0766528
205	0x3dc94404	0.09827426
206	0x3d87a94f	0.0662409
207	0xbd89b61a	-0.06724186
208	0xbdef5ac6	-0.116872355
209	0x3d09f080	0.033676624
210	0x3d44823c	0.047975764
211	0x3e24813d	0.16064925
212	0xbddc7e5d	-0.107662894
213	0xbe555261	-0.20832206
214	0x3bfdb64e	0.0077426797
215	0xbe2889d4	-0.16458827
216	0x3debc6d7	0.11512535
217	0xbcb760d9	-0.022385048
218	0xbdfb9890	-0.12284958
219	0x3e12faa7	0.14353429
220	0x3c228fa6	0.009921944
221	0xbc8d9b23	-0.017285889
222	0xbdcab132	-0.098970786
223	0x3dd3e782	0.10346891
224	0xbdeb0c41	-0.114769466
225	0x3dc59534	0.09647599
226	0xbd952eee	-0.07284342
227	0xbdfe493b	-0.12416311
228	0xbda7ac82	-0.081872
229	0xbd7ffa0e	-0.06249433
230	0xbc147d89	-0.009063133
231	0xb9cd732e	-0.00039186463
232	0x3caa7cf6	0.02081154
233	0xbcb4c4fc	-0.022066586
234	0xbded6fdf	-0.11593603
235	0x3dc90ff7	0.09817498
236	0x3c74ce42	0.014941754
237	0xbbffd983	-0.007807912
238	0xbd85d1fa	-0.065341905
239	0xbe0dcbc0	-0.13847256
240	0x3d398cfd	0.045300473
241	0x3da8af41	0.08236552
242	0xbe386d7a	-0.18010512
243	0xbdd4cc94	-0.10390583
244	0x3dc0a057	0.094055824
245	0xbd386d10	-0.045025885
246	0x3d4cfd9e	0.050046556
247	0xbe371713	-0.17879896
248	0x3e121e59	0.14269389
249	0xbe14740e	-0.14497396
250	0xbe474909	-0.19461454
251	0xbdfe8989	-0.124285765
252	0xbd53d036	-0.051712237
253	0x3df3fb17	0.11913126
254	0xbd59b459	-0.05315051
255	0x3cc4f830	0.024044126

bias f4 [10]
0	0xbe6ad79d	-0.22933812
1	0xbd4e74f9	-0.050404523
2	0x3de81414	0.113319546
3	0x3dd66921	0.104692705
4	0x3e15eedf	0.14641903
5	0xbe130bf7	-0.14360033
6	0x3e00d6f7	0.12582003
7	0x3d97c24e	0.074101076
8	0xbdb00f82	-0.08596708
9	0x3cb654ee	0.022257295
