Pytorch/model_data/CIFAR10_EPOCH25.pth (torch, 588839 bytes, 10 tensors)

weight f4 [32, 3, 5, 5]
00000000: d371 74bc 0d94 38bd de7b 23bd f0d9 f4bd
00000010: 64c5 2bbd dc0d 22be bebe 14be e403 e73d
00000020: f7cf 2ebd 8d6e 01be 2f0a 0cbe 8737 a9bd
00000030: b4cf 1d3e e944 e63d 3953 56be 95e2 a23d
00000040: b760 02be 7b4d d43d 5ed7 1e3e e3e2 34be
00000050: cae4 5b3d 5565 48bd 42cc 223e 82e2 053e
00000060: abd5 1abe 6b77 dfbd 1bf9 2a3d a535 f93d
00000070: 4165 5cbd cd95 40be d66d 72bd 0f54 9d3d
00000080: 1d4d 8bbd 829b 953d 6956 5bbe e4ee d3bc
00000090: 0351 47bd d2b0 bf3d b5f3 053e 3b67 103c
000000a0: 8681 613d fb80 e5bd 1613 563d 3a46 313e
000000b0: 2780 b1bc f26a 253d e1c7 c13d 7d9f 573e
000000c0: 54cf 3d3e b7e2 4c3c bebb 7fbd e73b 93bd
000000d0: cc86 edbd 6761 80bd 16c4 55be a1d7 f7bb
000000e0: c91e 0b3d a443 81bb ed78 783d 84b5 50be
000000f0: d5a5 a53d cf75 5a3d fa25 103d d401 e93d
00000100: fec5 29be 363d b13c bf43 293d 7ab1 433e
00000110: 3019 ee3a d1e7 2fbe 6954 913d 0b09 aa3c
00000120: 8baf 3c3e 5a4b 343e cbed 893d 86a2 3e3d
00000130: 5403 f13d 4c7e 3d3e 21e3 813d 7c97 84bd
00000140: df2d 123c d72a cb3d 49fb e6bb ec84 5cbe
00000150: 72f4 0abe c928 173e 60d5 36be 8370 e0bc
00000160: ec75 1fbe c1b1 0c3e 5e91 243c beee 3ebd
00000170: 951e 3a3c cf34 213e f67f 07bd 29c9 193c
00000180: c451 c93c c6e8 293d b9d5 b53d 6000 b0bc
00000190: 5a37 583d 82d6 093e 86a7 f83d 7a10 2c3d
000001a0: b04f 58be 2b98 133e 630a 4a3d b191 75bb
000001b0: 7802 81be c631 45be 7662 55bd 1b4a 3abe
000001c0: 31bd ccbd 951f a63c acbd 9dbd ace5 32bd
000001d0: 7c20 54bd 1078 1f3c d178 c73c 2160 ad3c
000001e0: 8140 58bd 73a8 683d dc62 f13d 46e7 c9ba
000001f0: 09c6 9ebd 5432 87bc 8d09 bc3d 334a 3f3e
00000200: 0826 95bd 5a37 3c3c 74f4 843d db23 7c3c
00000210: cd1d cbbd 5c57 35be 47f3 ac3d 4407 453d
00000220: bdc1 d8bc af31 89bd ac3a fb3c 84a8 0c3e
00000230: 1236 88bd bc3d d3bd 4e69 f83d bbd0 cc3d
00000240: a0fc 953d d04d bdbd e619 87bd 9c85 183e
00000250: 142f a6bd bdab 71bb c25b 293e 00d7 723d
00000260: 5681 c3bd dbc9 86bc ec25 e5bd 66cf 6e39
00000270: e9a9 6f3c 1e3d 5fbe 5344 58be 1ff5 15be
00000280: 9bd8 1cbe 68f4 a73c 2f88 dcbc a1ae d4bd
00000290: 86cd 8fbd ed72 55be 816e debd bea7 11be
000002a0: 4981 f9bd 8a70 2cbe a836 083d a191 5abe
000002b0: 9a7d 86be 1d12 53be 81fd 21be 9f67 29ba
000002c0: 55be debd 9dab 9d3d b3aa 863d f544 813d
000002d0: 9d37 3e3d 0296 6dbd f6b9 df3b 5061 cd3c
000002e0: 6927 c7bd 6bd4 c6bb 0a22 06bd a08a d53d
000002f0: 6ab5 163e 74a1 7ebc 4ffc cbbd 55be 403e
00000300: 09d7 313e 760c d53d 21fb 4d3c 415b b23d
00000310: 0c8b 93bd 5658 2cbe c53f a9bd 8820 33bd
00000320: fa52 febd 13aa 16bd 88d5 fd3d a733 6c3d
00000330: e08a ee3d de2c a0bd 6a9a 30bc 0997 d73d
00000340: 85d1 43bd dc15 123e 97c8 863d a5ba eb3d
00000350: 3bb8 fc3d 15ba 883e 07b0 513e 6a2e 133d
00000360: 36d5 793e ed6e 9b3e ae28 4f3e d79f 253e
00000370: 570a b53d 32be 213d 3bfc b3bd 2972 c13d
00000380: 7b0a f33d 73e7 a23d 0efd 573c 11a7 4ebd
00000390: 50cd 313d a32b f3bd c5c9 823d 3230 90bd
000003a0: 7d71 343d 60b7 c33d 3ada 8b3b 6f04 b73d
000003b0: 127e e9bd a47b abbc 9611 e7bc ba80 f53d
000003c0: e6f6 693d 8881 2a3d 6931 ed3c c18b 373e
000003d0: 286d bf3d af07 dbbc a18b 02be 4c3b efbd
000003e0: 46c0 3c3e bef1 3bbd 840d 963c 0e96 1c3d
000003f0: 2673 bfbd e87a 093e 8b22 92bd ac99 efbb
-0.014919716 -0.045063067 -0.03991305 -0.11955631 -0.041936293 -0.158256 -0.14525887 0.11280039
-0.0426788 -0.12639828 -0.1367576 -0.08262544 0.15411264 0.11243612 -0.20930184 0.07953373
-0.12732206 0.10366341 0.15511844 -0.17664675 0.053684987 -0.048924763 0.1589823 0.13074687
-0.1512057 -0.10911449 0.04174147 0.12168435 -0.0538075 -0.18807144 -0.05918678 0.076820485
-0.068018176 0.073050514 -0.21419682 -0.025870748 -0.048661243 0.09359898 0.13081248 0.008813675
0.055055164 -0.11206242 0.052264296 0.17311946 -0.021667553 0.040385194 0.09461952 0.21056934
0.1853612 0.012505225 -0.062434904 -0.0718916 -0.11597976 -0.06268578 -0.20875582 -0.0075635468
0.033964906 -0.003944831 0.0606622 -0.20381743 0.080882706 0.053335007 0.035192467 0.11377302
-0.16579434 0.021635633 0.041324373 0.1911067 0.0018165465 -0.17178275 0.07096178 0.020756265
0.1842634 0.1760687 0.067348085 0.046541713 0.11768213 0.1850521 0.063421495 -0.06474206
0.008922069 0.099202804 -0.0070489985 -0.2153508 -0.13569811 0.14761652 -0.17854834 -0.0273974
-0.15572327 0.13739683 0.010044424 -0.0466144 0.01135983 0.15742801 -0.033081017 0.009386339
0.024575122 0.041481756 0.08878655 -0.021484554 0.052787162 0.13460734 0.121413276 0.0420079
-0.21124148 0.14413516 0.04932631 -0.0037470872 -0.25197196 -0.19257268 -0.052095853 -0.18192331
-0.09997023 0.020278731 -0.07702193 -0.043676063 -0.051788792 0.009733215 0.024349602 0.021164002
-0.05279589 0.05680127 0.11786434 -0.0015404008 -0.07752616 -0.01650349 0.09181509 0.18680649
-0.072826445 0.011487806 0.06491938 0.015389408 -0.099177934 -0.17709106 0.08444839 0.048102632
-0.02645957 -0.066989295 0.030667625 0.13736159 -0.06650938 -0.10314509 0.1212946 0.1000075
0.07323575 -0.09243357 -0.065967366 0.14894718 -0.08114448 -0.0036876046 0.16538909 0.05928707
-0.09546153 -0.016453674 -0.11188874 0.0002277471 0.014627912 -0.21800658 -0.21119814 -0.14644288
-0.15317003 0.020502284 -0.026920406 -0.1038487 -0.07021622 -0.20844622 -0.10860921 -0.14224145
-0.12182862 -0.16839805 0.03325525 -0.21344616 -0.262677 -0.20612378 -0.1581936 -0.0006462279
-0.10876147 0.07698748 0.06575527 0.06311981 0.046439756 -0.058004387 0.006827588 0.025070816
-0.09724314 -0.0060678027 -0.032747306 0.10426831 0.14717641 -0.015541423 -0.099602334 0.18822606
0.17367186 0.10402767 0.012572081 0.087088116 -0.072042555 -0.16830572 -0.08264116 -0.043732196
-0.1241817 -0.03678329 0.123942435 0.057666447 0.11647582 -0.07821058 -0.010779003 0.105268545
-0.047807235 0.14266151 0.06581228 0.11510209 0.12339827 0.2670447 0.20477305 0.035932936
0.2439774 0.30358067 0.20230362 0.16174255 0.08839863 0.039488025 -0.087883435 0.094456024
0.11867233 0.07954302 0.0131828915 -0.050452296 0.043408692 -0.118735574 0.06386141 -0.070404425
0.044053543 0.095564604 0.004267958 0.089363925 -0.11400999 -0.02093298 -0.028206628 0.11987443
0.057120226 0.041627437 0.028954225 0.17924406 0.09346992 -0.026737062 -0.12748577 -0.11681232
0.18432721 -0.04588484 0.018316992 0.03822904 -0.09348135 0.13425791 -0.07135495 -0.0073120203

bias f4 [32]
00000000: 631c 3ebe 0040 0abd a9e7 0b3d 0ec2 00be
00000010: 9168 9fbc d7ef 273e bd3e b4be 8905 cfbe
00000020: 56d9 e0bd e2e8 79bc ce2f c23d 0582 9abd
00000030: a366 cebd 6278 d5bd af69 86bc 9f68 b3bd
00000040: f494 973b 316e bbbe e5b9 0ebd 23f8 8fbd
00000050: 3da4 09bc 7d83 653d 37d5 733d 0b2a 193e
00000060: a983 a2be 70f6 20bc 17a4 36be fa5f 903e
00000070: 546c 8fbe e075 253d 63a0 d9bd f9b8 cb3d
-0.18565516 -0.03375244 0.034156475 -0.12574026 -0.01945904 0.16400085 -0.35204116 -0.4043391
-0.109789535 -0.0152532775 0.09481774 -0.075443305 -0.1007817 -0.10423352 -0.016407816 -0.08760189
0.004625911 -0.36607507 -0.03484525 -0.0702975 -0.008400974 0.0560336 0.05952951 0.14957444
-0.31741074 -0.00982438 -0.17836033 0.28198224 -0.28012335 0.040395617 -0.106262945 0.0994739

weight f4 [32, 32, 5, 5]
00000000: d56a 92bb 41a2 bdbc 7d08 1abd f5d9 81bc
00000010: aa8d 08bd f157 0c3d 9ec5 353b 8ca6 d23c
00000020: 82e5 f73c 67e2 923c d595 de3c 0163 ed3b
00000030: 76a1 cebc 6c6f 5e3b addb 253d 214b ab3a
00000040: 0e65 a8bc acf6 7fbd b972 22bd bee2 95bc
00000050: 29a8 043d b6a9 c43c 84db cd3c c869 af3c
00000060: 3e41 d53b a51b 12bd b487 0e3c a3af 8abc
00000070: 8b89 fb3c a72d 52bc d965 bcbc 1c63 b73c
00000080: 6c99 8e3c b33a 3d3c b086 e4bc 821c 343d
00000090: f112 4fbc 77ee 883b 1554 1b3c dfb3 f23c
000000a0: dd0f 903c a478 2e3d f569 93bb 8e52 b13c
000000b0: c952 df3c f2fe 34bb 22ac 953d 0b13 663d
000000c0: b663 263d afa0 a0bc 2db9 073d d2bf 313d
000000d0: a84d 453c e71f ee3c 0f0e 1a3d 4a75 c93b
000000e0: e826 a1bc 2fc2 0bbd fde6 133b fa60 a53b
000000f0: ab36 42bd 7b5f 37bc d4d8 873c 24f5 9bba
00000100: b3ef 25bd ce6c e43a a19b e43a d642 4dbd
00000110: 4ef8 eaba cdba 323c d129 52bd 90c8 1cbb
00000120: b996 15bc d2f9 33bc b15e 083d 01cd 2ebc
00000130: e90f b63c e25a d2bc a8a0 a23b d4f3 9bbc
00000140: 4fda 123c 2eef 82bc 9dab 4abc 9809 ddbb
00000150: db32 4a3b 23bc 713c c3a4 c638 e8aa be3c
00000160: 4b8a 113c 2e84 323c e512 08bb b1e3 043d
00000170: fd5d 163d ea9e cd3c 9d6c a83c d4b9 f23b
00000180: 0976 873c 3a14 9cbc bf57 0c3c 6b91 063d
00000190: 6730 153d 8a67 8bbc a971 e2bc 5aab 24bb
000001a0: 2be0 c7ba 9815 a9bc 015b 01bd a30d ebbc
000001b0: e63a 76bd 7070 65bc edb9 02bb 531e 12bd
000001c0: eb51 0bbd 8a2f 223a 4dd4 51bc 836a cabc
000001d0: a0e8 0c3d 0685 193d 2321 823c 4858 98bb
000001e0: b965 cb3b 85b7 c33b c577 843c 1b89 a3bc
000001f0: 84b9 743b 25f2 da3c c81b b6b9 217e 303c
00000200: 1549 853d 1947 88bc 7f13 c23c e75a c43c
00000210: f08e 563d 8e0a 043d bf74 c73b 6129 0d3d
00000220: 4282 8a3d ac70 85bc 8d2f a3bc 3f6b 8fbb
00000230: 63da af3d 27da 09bc 1217 2ebd d4fc e9bc
00000240: 95b9 1b3d 2c1d 273b 4502 97bd db82 013d
00000250: ab51 a93d 9922 1e3b bb50 0a3c c1eb 4d3d
00000260: c16b 1c3d ea4a 603c bab7 483d a191 803c
00000270: 0c15 163d 55fb 133d 6cdf 17bc ef6c 5e3c
00000280: 79bd 71ba eba3 c43b f009 293c 6dea 123c
00000290: ed4f 98bc 0331 c83c 1c23 673c 6d9e 6d3d
000002a0: 4e47 d63b abac 173a 6b8b 5dbb 243b 183d
000002b0: 2b76 043d eb0f d0bc 940d 283d 6995 01bd
000002c0: ff65 17bd 35f4 fdbc e5ed e43c e9e6 36bd
000002d0: 37a5 8dbc 2ffd 5bb9 14f0 45bc e3ce e93c
000002e0: 77b1 fdbc 82b6 c8bb a996 3b3a 47e5 493d
000002f0: 3549 3b3d 027f 823d ebae 203d 1f34 1b3d
00000300: 2463 923d b5b6 983d fd2e 8a3d 8b93 853d
00000310: 7871 b33d cf93 3b3d c9d2 203d b5ef 703d
00000320: bbdc 573c 757b fe3c 110d 643c 93f5 1bbd
00000330: aba7 55bc 3d4d 763c 265c e5b7 13d5 fdbc
00000340: d718 76bd 5fcd a73b 2fa5 5cbc 297a f5bc
00000350: a63d 34bd ee74 59bd 41d5 38bd dd79 cebc
00000360: f2c7 153d 4e9f 913c 2781 9a3d d7e8 11bc
00000370: 0d85 47bd 69ed 143d 8d72 963c 093f a13a
00000380: 131c 86ba f03d f63b 873e 91bc f064 3bbd
00000390: b7d6 3cbd b981 4d3a d711 da3c 6dab 2d3b
000003a0: c50a 8e3c 6658 ddbc a677 9abc 2259 853b
000003b0: 5adb 013d b6ff 263c f0d6 723c ddc2 473d
000003c0: aa5c 5abc ed75 bf3c 3a41 c53c 8465 953d
000003d0: f06f 4c3d 6cb1 073d 5d52 c03c a491 d53c
000003e0: 6432 653d ab6e 393d 32df 623c 9d7c cbbc
000003f0: 3e4d babc 8d9a 8abc 7a32 33bd 8617 7f3d
-0.004468302 -0.023148658 -0.03760575 -0.015851 -0.033338226 0.034263555 0.0027736197 0.025714181
0.030260805 0.017930223 0.027171055 0.007244468 -0.025223475 0.0033940924 0.040492702 0.0013068655
-0.020556 -0.062491104 -0.03966019 -0.018296596 0.032386933 0.024006706 0.025129087 0.021412745
0.0065080216 -0.035670895 0.008699346 -0.016929453 0.030705234 -0.012828267 -0.022997783 0.022386126
0.017407142 0.0115496395 -0.027896255 0.0439725 -0.012638793 0.004178818 0.009480496 0.029626785
0.01758569 0.04259552 -0.004498715 0.02164581 0.027261155 -0.002761778 0.07308222 0.056170505
0.040622436 -0.01960787 0.03313558 0.043395825 0.0120424405 0.029067947 0.037611064 0.006148015
-0.019671872 -0.034120735 0.00225681 0.005046961 -0.047415417 -0.011192198 0.016582884 -0.0011898619
-0.040511798 0.0017427446 0.00174414 -0.050112568 -0.0017926784 0.010908795 -0.05130941 -0.0023923256
-0.009130173 -0.010984855 0.03329343 -0.010668994 0.022224383 -0.025678102 0.0049629994 -0.019037165
0.008963182 -0.01598319 -0.012370017 -0.0067455284 0.0030853066 0.014754328 9.472065e-05 0.023274854
0.008883069 0.010895772 -0.0020763215 0.032443706 0.036710728 0.02510019 0.020559603 0.0074074063
0.016535776 -0.019052614 0.008565842 0.032853525 0.036423113 -0.017017145 -0.027642088 -0.0025126548
-0.0015249302 -0.02064018 -0.03158093 -0.028693026 -0.060114764 -0.014003858 -0.0019947246 -0.03567345
-0.03401367 0.00061868934 -0.012806964 -0.024708992 0.034401536 0.037480377 0.015884941 -0.004649196
0.0062071946 0.005972805 0.016170392 -0.019962838 0.0037342021 0.026726792 -0.00034734444 0.010772259
0.0650808 -0.016635465 0.023690937 0.023969127 0.05238241 0.03223663 0.0060869153 0.03446329
0.06763126 -0.016289078 -0.019920135 -0.0043767984 0.08586576 -0.008413828 -0.04250247 -0.02856294
0.03801878 0.0025499566 -0.0737348 0.031618934 0.0826753 0.0024129509 0.008442099 0.05027366
0.0381887 0.013689736 0.04900334 0.015694441 0.036641166 0.03612836 -0.0092695765 0.0135757765
-0.0009221654 0.006000986 0.010317311 0.008967024 -0.0185928 0.024437433 0.014107492 0.058012415
0.006539262 0.00057859224 -0.0033805023 0.037165776 0.032339256 -0.025398215 0.041028574 -0.03163663
-0.036962505 -0.031000236 0.027945468 -0.044653807 -0.017290695 -0.00020979786 -0.012081165 0.028541034
-0.03096841 -0.0061252723 0.0007155934 0.04929092 0.045724113 0.06371881 0.039229315 0.037891503
0.07147816 0.074567236 0.067472436 0.06522282 0.08761877 0.045795258 0.03926352 0.058822352
0.013175185 0.031064728 0.013919131 -0.038075995 -0.013040463 0.0150330635 -2.7341837e-05 -0.03098539
-0.060082283 0.0051209177 -0.013467117 -0.029965477 -0.044004105 -0.05309003 -0.04512525 -0.025204593
0.036567636 0.017776158 0.07544165 -0.008905611 -0.04871087 0.036359224 0.018365169 0.0012302111
-0.0010231755 0.0075147077 -0.01773001 -0.04575056 -0.046103206 0.00078394596 0.026619835 0.0026499883
0.01733912 -0.02701969 -0.018855881 0.0040694633 0.03170333 0.010192802 0.014821753 0.04876982
-0.013327757 0.023371661 0.024078954 0.07294753 0.04991144 0.033128187 0.023476774 0.026070423
0.05595626 0.045271557 0.013847159 -0.024839694 -0.02274191 -0.016919399 -0.04374931 0.062278293

bias f4 [32]
00000000: fe3e f6bc 06e8 cf3c e0c1 1fbe 6156 97bd
00000010: e6cb a93c 75c9 bdba 7f3c ef3c 156f 4d3c
00000020: 8a70 3ebe 3d90 cdbd 2f8f 8bbe c44e babd
00000030: c8da fe3d 6f06 7fbd a98b 36be b00c 8dbd
00000040: e552 72bd f7a6 0a3b eb50 1bbe 6281 3abe
00000050: 3fb0 0abe 6a42 7d3c 4d8c 97bd bae6 733d
00000060: 9f94 41bd 16ed 6bbd 0853 89bd 5778 0bbe
00000070: 36fb 30be b8a9 2fbd 690e 0cbe 4379 1ebe
-0.030059334 0.025379192 -0.15601301 -0.07389522 0.02072711 -0.0014479595 0.029203651 0.012538691
-0.18597618 -0.10037277 -0.27257678 -0.090970546 0.12444073 -0.062261995 -0.17826714 -0.068871856
-0.059161086 0.0021156648 -0.15167587 -0.18213418 -0.13543795 0.015457729 -0.07399807 0.05954621
-0.047260877 -0.05759915 -0.0670529 -0.13620125 -0.1728333 -0.042886466 -0.13677372 -0.15475945

weight f4 [64, 32, 5, 5]
00000000: bb7c 41bd 253f 4a3c 0e86 b73c 489d 453c
00000010: 99df 053d 3494 14bb 2a10 943c 7579 d0bc
00000020: 361f 16bd 7366 55bc f234 e9bc db61 7bb9
00000030: 8516 d43c b882 68bc 1c08 e93b 60cb e9bc
00000040: 07ef b53c 1f48 f0bc b7af f03c 7897 f1bb
00000050: ce81 d83c f736 463d 614e d7bb 73dd 94bc
00000060: c01c 09bd d7cc 103c eb50 91bd 0c5d 1b3d
00000070: 8aae ca3c eac0 123b 0763 a03c 3546 8c39
00000080: 1808 87bb 59b8 483b fb74 d2bc 53e2 88bc
00000090: c59f 1e3a 47dd cb3c 004f 013c 4c43 42bd
000000a0: 9b4d a13c eab1 b9bc d0bd 72bc a054 de3c
000000b0: e50f 12bc af0f 07bd 9bc4 c1bb b851 0dbd
000000c0: 64c9 4b3d eab7 893c 6ae5 e0bc 5bc2 faba
000000d0: b5d8 3a3c 5a07 59bd e52e 7c3a dd70 85bd
000000e0: 3414 9ebd 26c8 88bb cf04 e13b adcd b0bc
000000f0: a676 39bd e467 b1bc 483b ccbb 5ac6 2f3d
00000100: 33a0 193d 6329 a4bd 8ecb 303d 01df cd3c
00000110: 3dd1 0e3d 54b3 243d e9e0 08bc 9cd5 233c
00000120: caf9 753d 568d 673d f132 aa3d 578c 28bd
00000130: b639 33bc 91be 02bc 93e5 cebc 64e2 2b3d
00000140: 2e28 1c3c 4016 cdbc 317d 8c3c 9f3d 723d
00000150: 9d2c 213c 49e2 e339 c0dd 6e3c 159e 0abc
00000160: b80f 67bd 246c 58bd 2ac6 c03c bc34 35bc
00000170: dce7 b53b f367 10bd f3b6 7ebd ff6d 8c3b
00000180: d8ae 0abd 0019 24bd a95b a9bc 64fd 31bd
00000190: ce03 2eba 980a ab3a 59f8 db3b 35da 623c
000001a0: 61aa 09bd 29b1 21bd 5553 5b3d 82a0 483d
000001b0: 32d8 d8b9 67ce cf3c c473 1bbd d873 82bc
000001c0: 41ae 8a3b 86b8 253d 9800 ef3b b96a 00bc
000001d0: 775d cebb 4122 0cbc 28a9 3bbc 1ecd 19bd
000001e0: 9792 a6bc 1a2d b3bc 051e c4bc 7ad1 29bd
000001f0: 9575 9fbb 249a dfbb 248c ea3c 3877 3fbd
00000200: 0d2e c6bc 143e d63c ae1f f1bc b072 523a
00000210: 87e6 78bd bf56 99bc ae52 c8bc 2703 05bd
00000220: 61e4 2d3c a8c9 04bd cb61 03bd 1a8c 41bd
00000230: 0904 dc38 104e 463c c143 1fbd 6736 3cbd
00000240: 6668 09bd d7fe 8abc 29fc 11bd 55e5 1dbd
00000250: c4d0 b5bc ffc4 16bb 3695 cdbc 0b5e 993c
00000260: 34c2 863a 05b6 c23b 837a 233b b539 33bd
00000270: 7e53 d13c a814 213d 7b63 823b e80a b5bc
00000280: cc6c 2ebd cbf0 093a 69fc f7bc 1f77 fdbb
00000290: 5fb4 0bbd d062 e7bc 4d51 dc3c dbf8 a53c
000002a0: d116 213c 3c00 313d e824 193d 1018 99bb
000002b0: cc18 ccba 37c6 9ebc 371e 22bc 0a43 3abc
000002c0: ac96 67bc 686c c43c 0eb0 43bc 4565 85bc
000002d0: aa7e 153d d716 3e3d 31ea f83c 6f49 9a3c
000002e0: bc12 0a3d d6f9 173b 7f41 0c3d 6b6a 403c
000002f0: 2ef3 be3b 973c 9dbc ac56 4bbb 7135 523d
00000300: f071 323d 32e5 293d 5a37 7e3a b282 0bbd
00000310: 7ce1 5d3c 5c0e 353d 1c66 253c f95b 74bc
00000320: 3762 6a3c d916 1a3c 0adc abbc 3cef a0bc
00000330: 57f2 7339 ac9d b3bc fd7e 8cbb 7cda b7bc
00000340: e69d a2bc 0b47 9e3c 74d5 43bd 5c32 eebc
00000350: f119 f7bc 5d55 353c d51f d1bc 9822 f1bc
00000360: 7dd5 b93b 11a7 cc3b 8583 37bc cd2f db3c
00000370: 28d4 6fbd aefc b83c 7c7d 29bc 37a2 5fbc
00000380: 99af 69bc e7f9 07bb ec83 23bd 05e9 a7bb
00000390: b5c6 b23b fd73 b9bb 34d6 8abc d957 4e3c
000003a0: 2fc0 24bc 0e31 53bd 11a0 6fbb 5a29 f53c
000003b0: 18ba 19bd 07c5 bfbc 21b0 41bd ada5 57bb
000003c0: 75a5 043c 4c59 64bd 2f8c 903c 24d6 69bc
000003d0: 723d 82bc b2e1 aab9 c784 3ebd 8f65 9c3b
000003e0: 7306 cf39 55f3 8fbd 6cef cdbc f83b 6dbd
000003f0: c441 12bd 11a9 c33c 32f2 3b3c a673 0dbd
-0.047238093 0.012344156 0.02240279 0.012061425 0.032683942 -0.0022671344 0.018074114 -0.02544854
-0.03665086 -0.013024914 -0.02846763 -0.0002397368 0.025889644 -0.014191322 0.0071115624 -0.02853936
0.022208704 -0.029331265 0.029380662 -0.007372793 0.026429083 0.048392262 -0.006570623 -0.018172001
-0.033474684 0.0088379 -0.07095512 0.037930533 0.02474143 0.0022392818 0.01957847 0.0002675519
-0.004120838 0.0030627458 -0.025690546 -0.016709482 0.0006051029 0.024885787 0.00789237 -0.04742746
0.019690325 -0.022667844 -0.014815763 0.027139962 -0.008914922 -0.03297394 -0.00591333 -0.03450176
0.049752608 0.01681133 -0.027453143 -0.0019131409 0.011404206 -0.052985527 0.0009620025 -0.065156676
-0.07718697 -0.00417425 0.0068670283 -0.021582449 -0.045279168 -0.021655984 -0.006232653 0.042913772
0.037506294 -0.080157064 0.043162875 0.02513075 0.034867514 0.040210083 -0.008354404 0.009999659
0.06005267 0.056531273 0.083104976 -0.041149464 -0.010939052 -0.007980005 -0.025255954 0.04196395
0.009531064 -0.025035024 0.01714954 0.059140798 0.009837297 0.0004346541 0.0145792365 -0.008460541
-0.056411475 -0.052837506 0.023531992 -0.011059936 0.0055513214 -0.035255384 -0.062186193 0.0042855735
-0.03385815 -0.040062904 -0.02067359 -0.043454543 -0.000663814 0.0013049422 0.006712955 0.01384597
-0.03360975 -0.039475594 0.05354627 0.048981197 -0.00041359809 0.025366975 -0.0379522 -0.01592438
0.0042321985 0.04045918 0.007293772 -0.007837945 -0.006297763 -0.008553089 -0.011453904 -0.03754913
-0.020333571 -0.021872092 -0.023940096 -0.041459538 -0.004866312 -0.006823795 0.028631277 -0.046744555
-0.02419188 0.026152648 -0.029434051 0.0008027954 -0.060766723 -0.018718122 -0.024453487 -0.03247371
0.010613532 -0.032418877 -0.032075685 -0.047252752 0.00010491169 0.0121035725 -0.038882975 -0.04595032
-0.033546828 -0.01696722 -0.03564087 -0.038548786 -0.022194274 -0.0023005602 -0.025095563 0.018721601
0.0010281266 0.0059421086 0.002494485 -0.043756206 0.025552507 0.03932634 0.003979144 -0.022099927
-0.042584226 0.0005262016 -0.030271726 -0.0077351476 -0.034107562 -0.02824536 0.026894236 0.020260265
0.0098321 0.043213114 0.037388712 -0.004672058 -0.0015571355 -0.019381626 -0.009894899 -0.011368522
-0.014135044 0.023977473 -0.01194383 -0.01628364 0.03649775 0.0464085 0.030385109 0.018833844
0.033709273 0.0023189685 0.03424215 0.011744122 0.005827329 -0.01919393 -0.0031027002 0.051320497
0.04356569 0.041478343 0.0009697579 -0.034060188 0.013542529 0.044203147 0.010095146 -0.014914506
0.014305643 0.009404861 -0.020978946 -0.019645326 0.00023264565 -0.02192577 -0.004287599 -0.022443049
-0.019850682 0.019320985 -0.047810987 -0.029076748 -0.030163737 0.0110677155 -0.025527874 -0.02943544
0.0056712017 0.006245502 -0.01120079 0.026756192 -0.058551937 0.022581425 -0.010344859 -0.013649515
-0.014263057 -0.0020748319 -0.039920732 -0.0051242136 0.0054558166 -0.005659579 -0.016947843 0.012594187
-0.010055586 -0.051560454 -0.0036563913 0.029926945 -0.03753099 -0.02340938 -0.04728711 -0.0032905147
0.008096089 -0.055749223 0.01764497 -0.0142722465 -0.01589844 -0.00032593083 -0.046513345 0.004772849
0.00039486922 -0.07028834 -0.02513858 -0.05791852 -0.03570725 0.023884328 0.011471318 -0.03453412

bias f4 [64]
00000000: 8a73 e5bd 6c69 5c3c 09ce a0bd 1bb4 1bbd
00000010: 36d3 29be 8fb7 8ebd 9b5d 9dbd b6eb 94bd
00000020: 97a8 87bc 7fe5 383b abf1 b4bd 37fc 6ebd
00000030: 6bf6 bebd 5be5 98bd ae78 c13c 6c55 61bd
00000040: 5529 81bd b48b 58bd 10b7 5dbd 7f91 55bd
00000050: 07d6 2dbd 993b 48bc c9eb 99bc 6f60 ddbc
00000060: 878d a7bc 5092 dfbd 3f60 34bd c43a 5ebd
00000070: c31e b9bd 7340 5bbd 66f2 b83b 5459 8abd
00000080: 94a6 7fbd bdb1 b0bb 02dc bbbd f2d9 28bd
00000090: d68e 47bd a3b2 16bd 1439 92bb aa77 91bd
000000a0: c114 8ebd 4671 1cbe 3e62 1dbe bd21 92bd
000000b0: 42fd bdbc 24d7 b0bd af0e 2bbc e1c0 b5bd
000000c0: a153 c3bc 2379 d4bd 5021 e2bd 68de 27be
000000d0: 23f7 c9bd 1e12 1ebc d12a 97bd 3061 cebc
000000e0: 8c89 31bb 3522 bfbd e670 b2bd d693 8dbd
000000f0: 5560 11bd 134b bdbd 7a34 8fbd fe9c 69bd
-0.11203678 0.013452869 -0.07851798 -0.03801356 -0.16584477 -0.06968605 -0.076838695 -0.07271521
-0.016559882 0.0028212962 -0.08835157 -0.058346 -0.09324344 -0.07465621 0.023617115 -0.055013105
-0.063067116 -0.052867606 -0.05412966 -0.05214071 -0.04244044 -0.01222124 -0.018789189 -0.027023522
-0.020453228 -0.10916579 -0.0440371 -0.054255262 -0.090390705 -0.05352826 0.0056441305 -0.06755319
-0.06241472 -0.005392282 -0.091728225 -0.041223474 -0.048720203 -0.036791455 -0.0044623706 -0.07102902
-0.06937552 -0.15277585 -0.15369508 -0.07135341 -0.023192052 -0.08634785 -0.010440513 -0.08874679
-0.023843588 -0.103746675 -0.1104151 -0.16393435 -0.09861591 -0.009647874 -0.073812135 -0.025192827
-0.002709004 -0.09332696 -0.0871294 -0.06912963 -0.03549226 -0.09242835 -0.06992431 -0.057034485

weight f4 [64, 1024]
00000000: c310 7abc 432a 6d3d c6de 2f3d 7e37 0f3c
00000010: 2b09 933d bf45 283d 80d6 e53c dd3e 63bb
00000020: 1260 cabb 099d fabb 04d6 193d 1d9f 4e3c
00000030: 699a c5bc de13 3dbc 86bf 7db9 1f7a 73bb
00000040: 161d b5bc 615e 6a3c 742e 333c 0f8c 383c
00000050: b112 31bd b78c 5fbb eaa9 323d ad65 733c
00000060: d753 55bc a6e9 fdbc 9b4c 32bd 33c3 81bd
00000070: 02a8 cc3c 5f02 d8bc c7f1 a53b 092b aa3b
00000080: 48b5 8c3c 752b 7b3c ab98 39bc ca29 413c
00000090: 1556 eb3b 3a6a 24bd 09db 003b d745 653b
000000a0: 0966 653c 5d3d bebc 573e 1f3d d336 473c
000000b0: e450 163d 527e 5f3c 8468 a4bc 2d54 713d
000000c0: 09f1 43bc 741c d0bc cb73 f63c c9a7 76bc
000000d0: 9776 093d b1b9 0d3c cbd7 58bc dccb c6b8
000000e0: 3d97 aa3d 78c4 703c 08d3 473a a8e8 023d
000000f0: a88b 663d 0961 e43c 2bc9 743d 0c00 833d
00000100: 7159 f9bc e91d 823d b61b 90bc f3cc 823c
00000110: 30f7 2d3d 3159 113c 074b 0fbd 97ab 1a3d
00000120: 8fb9 c4ba 1dfe e3bb 8812 5d3d 8ea9 803c
00000130: c101 273d 0546 06bd b7ce c13b 1024 26bd
00000140: ac52 81bc 6a4f 133d a730 8b3c 5903 2c3d
00000150: 02f4 d9bc 5875 c53c 7d6d 6a3c 4fc2 a63c
00000160: bb9c db3c 475f 353c 89df 0dbc 93f7 b6bc
00000170: 9c49 4ebc 825c a73c 2abf 8cba 5761 c43c
00000180: a259 80bb 88a7 013d df2f 463d 0a0d f53a
00000190: ff3b c5bc ebd9 28bc c6c3 eebc e598 7ebd
000001a0: eb1a a03c b301 093d db18 7dbc d646 3b3d
000001b0: 1b16 313c a13d 8d3d 6d47 d6bb d4b9 ed3c
000001c0: 322d f53c d0a3 5e3b 9488 473c b0a2 d6ba
000001d0: e5f8 43bc c297 15bd 2b6a e9bc bd1b 3a3c
000001e0: a1e1 63bc 2e8c 87bd abb5 c5ba 487a 99bc
000001f0: 06c9 67bc 9680 863c 6c71 bdbc 3191 1d3d
00000200: bd56 323c 4f48 27bd 6756 63bd 68f7 39bd
00000210: 9bea 8d3d 4d35 923c bb97 9ebc 5ab8 39bd
00000220: a228 39bc 09aa 113c 77bd 1bbd 4460 663c
00000230: d3a7 983b e91b a2bd 0665 27bd e603 fe3c
00000240: dd96 a33b 7990 95bc 9bcc 093d b19d 02bd
00000250: 2f8e dbb8 eb6f be3a baa1 3dbc 686b 743a
00000260: ba64 0e3d c4b2 29bc 061e 07bd 8b08 90bc
00000270: 01d7 9c3b 30a4 0dbc 3068 0ebd 5117 bfbb
00000280: b6a3 c9bc 6e02 58bd 211d dd3b 52a5 24bd
00000290: c4d7 05bd ac5f 99bb 502d 103d 47b2 a23b
000002a0: 8cb3 8a3c 8313 383c b9ef e93c d67b 47bb
000002b0: 2352 aa3b b3e2 0f3d 213d 843d 9d86 babc
000002c0: 387b 173d 8b1d 3bbc 0954 12bc c2ae fb3c
000002d0: d358 bdbc 7085 ac3d 73f4 d6bc e49c 4a3d
000002e0: 377c 263c 4d2c e63c ad88 c2bb f748 ec3c
000002f0: c6f3 d03c eee7 173c 6c97 433d 8057 e63c
00000300: 4609 903c 39cd 773d 9a32 0d3c dec2 3d3b
00000310: bfaa 793c abec 02bc c6e4 f73c ce87 33bd
00000320: 8f6f a53c e772 8d3c cecc c4bb 4df2 cdbc
00000330: b6d0 0d3d 5dfc d6bc 6a80 4d3c 47b9 19bd
00000340: 5ecb 0abd 6d28 d73b 40ff c0bb dd71 683d
00000350: 1af1 86bc 2ecc 083d 3b57 853c c44d 243c
00000360: ffbf 513c c04e 31bb 0af1 26bd 4c73 053d
00000370: 2499 38bc 1675 cabc 8d09 9c3c 41df 7f3c
00000380: bef2 debc 5bef 9f3b f73b fabc 14ae 0bbd
00000390: d16c 633b 0619 373b 6292 a5bc 8193 09bd
000003a0: ee9c 4b3d e1c1 013d 4f8d 67b8 289d 0cbc
000003b0: 723c ec3c 4910 053d 9f5b 263c a6ac 843c
000003c0: fc2d 93bb 414d 303d 6a4b df3a 82e5 093c
000003d0: c688 8d3b 0027 88bb 066a 7abc 5469 babb
000003e0: 1994 183c 5926 0dbd f75f 683c 98e5 493b
000003f0: 0825 113d 702c 923d 30fe b43d d83c e03c
-0.015262785 0.057901632 0.042937063 0.008741258 0.07179483 0.04108214 0.028056383 -0.003467492
-0.0061760033 -0.0076481146 0.037557617 0.012611178 -0.02412148 -0.011540381 -0.00024199308 -0.0037151647
-0.022108596 0.014304728 0.010936368 0.011263861 -0.043230716 -0.0034110972 0.043619074 0.014855784
-0.013020477 -0.030995201 -0.043530088 -0.063360594 0.024982456 -0.026368318 0.0050642225 0.0051931185
0.017176285 0.015330185 -0.011327903 0.011789748 0.0071818926 -0.040140368 0.0019661805 0.0034984255
0.014001378 -0.02322262 0.03887781 0.012159067 0.036698237 0.013640957 -0.020069368 0.058918167
-0.011959323 -0.025404193 0.030084511 -0.015054652 0.03356036 0.008650229 -0.013235043 -9.4793475e-05
0.08329628 0.014695279 0.00076226937 0.03196016 0.05628553 0.027878301 0.05976216 0.06396493
-0.030438157 0.06353361 -0.017591339 0.015966868 0.042472064 0.008871363 -0.03498366 0.037761297
-0.0015008914 -0.006957783 0.05397275 0.01570585 0.040773157 -0.03278162 0.005914535 -0.040561736
-0.015786491 0.035964407 0.016990973 0.04199538 -0.02660561 0.024103805 0.014308331 0.020356325
0.026808133 0.011070079 -0.008659252 -0.02233485 -0.012590792 0.020429853 -0.0010738124 0.023972197
-0.003916935 0.03165391 0.048385497 0.0018695903 -0.02407646 -0.010305862 -0.029146086 -0.06215753
0.019544085 0.033448886 -0.015447821 0.04572185 0.010808493 0.068965204 -0.0065392763 0.029019274
0.029928777 0.0033972152 0.012178559 -0.0016375389 -0.011961197 -0.03652168 -0.028493008 0.011359152
-0.013908775 -0.06618534 -0.0015084049 -0.018735066 -0.014147049 0.016418736 -0.023125373 0.038468543
0.010884938 -0.040840443 -0.05550232 -0.04540196 0.06929513 0.017847681 -0.01935946 -0.045341827
-0.0113011915 0.008890637 -0.038022485 0.014061037 0.004658678 -0.0791548 -0.040867828 0.031007718
0.0049923495 -0.018257366 0.033642393 -0.031888667 -0.000104692175 0.0014529204 -0.011574203 0.0009323866
0.03476403 -0.010357562 -0.032987617 -0.017582199 0.0047863727 -0.008645102 -0.03476733 -0.005831637
-0.024614196 -0.052736692 0.006747857 -0.040196724 -0.032676473 -0.0046805944 0.035199463 0.0049651
0.016931318 0.011235121 0.028556691 -0.0030438802 0.0051977797 0.035128307 0.06456972 -0.022769267
0.036982745 -0.011420618 -0.008931168 0.03072298 -0.023113644 0.08423889 -0.02623961 0.04946603
0.010161451 0.028097296 -0.005936703 0.028843386 0.025506865 0.009271605 0.04775183 0.028117895
0.017582547 0.06049845 0.008618021 0.0028955261 0.015238463 -0.007990996 0.030260455 -0.043830685
0.020194797 0.017266704 -0.00600586 -0.025139952 0.03462287 -0.026243383 0.012542823 -0.03753021
-0.033885352 0.0065660984 -0.005889803 0.056749213 -0.016472388 0.033397846 0.016276946 0.010028306
0.012802123 -0.0027054995 -0.040757217 0.03258066 -0.01126698 -0.024714034 0.019047523 0.015617193
-0.027215358 0.0048808283 -0.030546172 -0.03410156 0.003470231 0.00279385 -0.020211402 -0.033587936
0.049710207 0.031679038 -5.5206296e-05 -0.008582391 0.028837416 0.032486234 0.01015368 0.016195606
-0.0044915657 0.043042425 0.0017036025 0.008416535 0.004319283 -0.00415504 -0.015284067 -0.0056888256
0.009312653 -0.0344604 0.014183036 0.0030807015 0.035435706 0.07137382 0.08837545 0.027372763

bias f4 [64]
00000000: 83c3 e2bc 3a15 9139 f8a2 1ebd 9228 aabc
00000010: 007e 2b3c 7642 b33c 3b9e 02bb be44 08bd
00000020: 8961 3d3c 5d7b 63bd 5333 6a3b 366b 1a3b
00000030: ac2e 983b f711 2f3d 11fe 38bc b311 acbb
00000040: dfb8 a53c 5875 053d 0a63 95bd e6fe 90bb
00000050: 2b6a 29bb fccb 86bc c4f5 35bc 35e5 523d
00000060: ec84 783c 3d9f 413d f183 933c 3abe 193d
00000070: e976 5d3d 069b 043d 723d 46bc ccc4 013c
00000080: 9272 31bd 9b80 313d a3e3 cf3b 4cfc 06bc
00000090: 891f 39bc c067 e33c 16d2 46bd 08ef b9bb
000000a0: 3622 58bd b78d 6dbc ea07 1abc 6d95 c03c
000000b0: 521d 7a3b dfc9 87bb 4752 443d a410 11bd
000000c0: 549e 973d 0661 8d3c 8136 ffbb 628a dabc
000000d0: ac6a 31bd 31bd 8d3a a700 c7bb 7a77 3a3c
000000e0: b7aa 853d 726f 98bc 06f2 e5bb f07b b13c
000000f0: 7523 83bd 3f6f b3ba 70b2 3d3c 98ce 63bd
-0.027681118 0.0002767237 -0.038729638 -0.020771299 0.010467052 0.021882277 -0.0019930738 -0.033268683
0.011558899 -0.05553757 0.0035736158 0.0023562438 0.0046442356 0.042741742 -0.011291043 -0.0052511333
0.020229755 0.03258261 -0.07294281 -0.0044249175 -0.0025850635 -0.01645469 -0.011105958 0.05148812
0.01516841 0.047271002 0.01800725 0.03753493 0.05406848 0.032374404 -0.012099611 0.007920455
-0.043322153 0.04333554 0.006344275 -0.008238863 -0.0112990225 0.027759433 -0.048540197 -0.0056742467
-0.052767 -0.0144991195 -0.009401301 0.023508752 0.003816445 -0.004143938 0.04793003 -0.03541626
0.074032456 0.017258178 -0.00778848 -0.026677314 -0.04331462 0.001081383 -0.006073076 0.0113810245
0.06526702 -0.018607829 -0.007017377 0.021665543 -0.06403247 -0.001368977 0.011578187 -0.055616945

weight f4 [10, 64]
00000000: da78 aa3d 3c97 463d f284 163e b621 6ebe
00000010: b2fc 48be d741 3e3e b0da 9cbe d527 ab3e
00000020: 728b ddbd fe37 ba3c 6546 11be 185b 713d
00000030: 92a7 78bb a7d8 eebd e8dd 07bd 6c1e 43bd
00000040: f649 0b3d 4ff9 94be c01b 143d f0d8 643d
00000050: b8bd 96b7 7ae4 c2bd 00e4 11bd 2029 853d
00000060: 0fa1 bdbb 52d4 3ebe 8b73 fcbd 97c5 373e
00000070: 538e 97be 35d8 45be e4d6 53bd 9730 813c
00000080: 50ad cabd 09b7 053e a6b0 0bbc b483 b43e
00000090: e1c3 493e 744b 043e cecc 6d3d 9bf7 b3be
000000a0: 315d 4a3e 6b6c d7bd 9762 25be 4b69 22be
000000b0: 96c0 a43d b992 c73d c89f 31be e554 0dbe
000000c0: b4d9 9abe 5049 89bc 237f 223e fe07 4e3e
000000d0: ebae 3cbe fc05 d3bd e816 7aba b956 fe3c
000000e0: 1024 7dbd 2185 23ba 6b94 8bbd e8d1 e8bd
000000f0: 7f80 243e 740d 8dbe e67e fd3d 4c4d 963e
00000100: 0b42 803e 5606 55be dda5 6ebe 01f7 803e
00000110: bde2 50bd 7531 0ebe fa61 cebd cf39 ca3d
00000120: 911f 3f3e 51c1 0fbe 0e17 b4bd 83f7 01be
00000130: 4edc 563c b535 7abe c1a5 11be 1a29 88bd
00000140: a16c dc3b 547d 84be 8a67 863d 9834 353e
00000150: 127d 31be 15ac b73e 28a0 f53d 3c2b 543e
00000160: 3ade 973e 604d 333d f4e4 583e 0bb8 1bbe
00000170: 95e2 53be be5b 1d3e 9446 3abd 234b 683d
00000180: 272b eabd ed3e 8abe 3646 f0bd 1306 acbe
00000190: 85a4 ba3d 477d 7b3e 1d08 60be e15e 5fbe
000001a0: 80ff 27be b889 593e d09c 853e 889e 483e
000001b0: 23e3 8bbe 8f79 0d3b 03be 86bd 0cc3 473d
000001c0: 3640 65be 0f1e 92bd 1596 523c 9b46 80be
000001d0: e808 18be a30e a93e 19d0 693e 895f 8e3e
000001e0: dcd6 9ebe 02b6 30be 014e 9f3e 31ed 9abd
000001f0: 3d63 61bd d190 0dbc 5085 5f3e afb6 6cbe
00000200: 677c 66be a753 d13c 2830 c9bc 955b 12be
00000210: f956 75be 982f af3e 546f b13d 0e44 3c3e
00000220: 1125 adbd 2795 0c3d 0cda fa3c 8a5f 54bc
00000230: 0626 2ebe b571 6f3c 9d1c a83d 0ab5 8a3e
00000240: 9fd0 abbd 3a41 d1bd b504 7e3e eb26 91be
00000250: 110b 9e3d 0b44 54bc b557 a83b 84ea a1bd
00000260: 38f7 a43d 263c 44be ba53 8dbe 2fdf 98be
00000270: 44c6 fc3b c5d8 d43d 7ff1 d8bc 40fa 0a3d
00000280: f3cb 32be a676 aebd b77b 33bb d486 a73e
00000290: a3eb 60be 450d 563d a1eb 1ebc c98f 8d3e
000002a0: c376 833e 65f2 83be 3c24 6b3e cf5c 233e
000002b0: aa3e 883e 2bb5 fcbc ce4c 6abd 37a4 25be
000002c0: 9be1 903c 083a dabd 7a98 31bd 8874 b3bd
000002d0: e2ae 22be ca87 0ebe d11c 293e 2694 86be
000002e0: 8081 883e 2a48 4dbd 25f5 12be faf2 0cbd
000002f0: 0758 e5bd 3dc1 553e 3695 d03d d163 17be
00000300: 897e 653e 3acd 353d cdae 413e c2b1 c53d
00000310: 255a 453e 15c3 653d 14f2 813e c754 c2bc
00000320: f8cc a03d bbef ce3d 531b b93d cbcb 25be
00000330: cf6e 063e 6343 e93d 9888 f93d c05c babd
00000340: 8bd2 15be 638e 653d d1a5 843d 2d94 743e
00000350: 0539 33be c897 87be 20f2 8d3c d3c3 64be
00000360: c8dc 283e 1550 583b 8ecb 31be 201d 5f3e
00000370: 8d1c 8c3c 2c21 92bc 1cb6 cdbd 86f2 fd3d
00000380: ae52 1ebe 97d0 f23d 4ee7 c6bd 3f16 4ebe
00000390: 3786 e5bd 4f37 c4bd a52a 9f3c d4cf 63bc
000003a0: d8d5 2c3d c4ca 893b b3b8 2ebe 31ff e63d
000003b0: 5e38 be3c 09c4 18bb 82c0 c3bd 6982 24be
000003c0: cd19 af3d 6d2b de3d 5f42 51be 3c63 fabd
000003d0: 6dd1 fd3d 8d36 59bd c093 6e3d 1f21 47be
000003e0: f691 073e 303e 2ebe 7507 60be a16c 0bbe
000003f0: e513 a8bd 5201 013e 82e0 b3bd f978 f03c
0.08323832 0.048484072 0.14699152 -0.23255047 -0.19627646 0.18579803 -0.30635595 0.33428827
-0.10817613 0.022731777 -0.1418701 0.058924764 -0.0037941677 -0.11662417 -0.03317061 -0.047636434
0.03400608 -0.29096457 0.036159277 0.05587095 -1.7969738e-05 -0.09516235 -0.03561783 0.065019846
-0.005787022 -0.18635681 -0.123267256 0.17946468 -0.29600772 -0.19320758 -0.051718608 0.01577024
-0.09896338 0.13058104 -0.008526003 0.35256732 0.19703628 0.12919408 0.058056645 -0.35149845
0.19762112 -0.10518726 -0.1615089 -0.15860479 0.08044545 0.09744782 -0.17346108 -0.13801916
-0.3024422 -0.016758591 0.15868811 0.20120236 -0.18426101 -0.10303876 -0.00095401565 0.031047212
-0.06180197 -0.00062377943 -0.06815418 -0.113681614 0.16064642 -0.27549326 0.123777196 0.29355848
0.25050387 -0.20803198 -0.2330546 0.2518845 -0.050997484 -0.13886054 -0.10077281 0.09874307
0.18664385 -0.14038588 -0.0879346 -0.12692074 0.013114048 -0.2443455 -0.14223386 -0.066484645
0.0067268168 -0.25876868 0.06562717 0.17695844 -0.17332867 0.35873476 0.11993438 0.20719618
0.29661733 0.043774962 0.21181089 -0.15206926 -0.20691903 0.15367028 -0.045477465 0.05671228
-0.11434012 -0.27001134 -0.11732142 -0.33598384 0.09113411 0.24559508 -0.21878095 -0.21813537
-0.1640606 0.21243942 0.260962 0.19591725 -0.2732173 0.0021587347 -0.065792106 0.048769996
-0.22387776 -0.071346395 0.012853165 -0.25053868 -0.14847147 0.3301898 0.22833289 0.27807263
-0.310233 -0.1725693 0.311142 -0.07564772 -0.05502628 -0.008640484 0.21828198 -0.23116563
-0.22508393 0.025552584 -0.024559096 -0.14292748 -0.23958959 0.34216 0.08663812 0.18385336
-0.084543355 0.03432193 0.030621551 -0.012962231 -0.17006692 0.014614512 0.082085826 0.27091247
-0.08389401 -0.10217519 0.24806483 -0.28350005 0.077169545 -0.012955676 0.0051374086 -0.079060584
0.08054966 -0.1916357 -0.2760294 -0.29857776 0.007714065 0.10392908 -0.026482342 0.033930063
-0.17460613 -0.08518724 -0.0027386972 0.32720053 -0.21964888 0.05225875 -0.009699733 0.27648762
0.25676546 -0.2577087 0.22963041 0.15953372 0.2661031 -0.030848106 -0.057202153 -0.16175924
0.017685702 -0.106556 -0.043358304 -0.08762461 -0.15887025 -0.13918987 0.16514899 -0.26284903
0.266613 -0.05011765 -0.14351328 -0.034411408 -0.111984305 0.20874496 0.1018471 -0.1478417
0.2241155 0.044385172 0.18914337 0.09653045 0.19272669 0.056094248 0.25380003 -0.023722066
0.07851595 0.10104319 0.09038415 -0.16191022 0.13128208 0.11389806 0.12184256 -0.09099722
-0.14631097 0.056043994 0.064769395 0.2388465 -0.1750222 -0.26482987 0.017327368 -0.22340326
0.16490471 0.0033006717 -0.17362806 0.21788454 0.017103458 -0.017838083 -0.100445 0.12399773
-0.15461227 0.118561916 -0.097120866 -0.20125674 -0.1120724 -0.09580862 0.019429514 -0.013904531
0.042196125 0.0042050797 -0.17062645 0.11279143 0.023220237 -0.0023310205 -0.09558202 -0.16065373
0.08549843 0.108481266 -0.20435475 -0.12225959 0.123934604 -0.05303054 0.058246374 -0.19446228
0.13239273 -0.1701591 -0.21877845 -0.13615657 -0.082069196 0.1259816 -0.08783056 0.02935456

bias f4 [10]
00000000: c08e 67be 3361 93bd 8c4b de3d bfce cc3d
00000010: 97f7 343e d74c 23be cf22 173e b27b 873d
00000020: c828 c4bd e587 013d
-0.22613049 -0.07196274 0.10854253 0.10000371 0.17672573 -0.15947281 0.14759372 0.0661539
-0.09578091 0.03162374
