Pytorch/model_data/CIFAR10_EPOCH5.pth (torch, 588827 bytes, 10 tensors)

weight f4 [32, 3, 5, 5]
000000 0b 6f 63 3a 76 d1 1d bd 26 cc 9e bd 36 cd fc bd
       0.00086759095 -0.038529836 -0.07753782 -0.123438284
000010 32 b9 de bb e4 47 00 be 8b ca d6 bd 7b 6a a8 3d
       -0.0067969793 -0.12527424 -0.10487851 0.082234345
000020 e5 77 3f bd 43 e8 f0 bc 7c 75 f2 bd e7 78 da bc
       -0.0467452 -0.029407626 -0.118388146 -0.026668979
000030 d0 29 e6 3d be 58 a6 3d 0e 73 d7 bd ac e1 b5 3d
       0.11238444 0.08122395 -0.10519992 0.08880934
000040 1b 95 8c bd 0c 46 80 3d 3f 73 ff 3d 0c 0c 96 bd
       -0.06864377 0.062633604 0.12473153 -0.073265165
000050 70 d2 70 3d d0 a3 e3 3a f7 8f 02 3e 32 dd d0 3d
       0.05879444 0.0017367546 0.1275023 0.1019844
000060 f7 98 a3 bd 08 bf c4 bd 51 24 35 3d d3 a7 98 3d
       -0.0798816 -0.09606749 0.044224087 0.07453885
000070 27 6e 74 bd 37 15 0a be 7a af 3e bd b9 e6 bb 3d
       -0.059675362 -0.13484655 -0.046554066 0.09174866
000080 11 84 02 be df f7 46 3d e3 e1 f0 bd da d2 0f bd
       -0.12745692 0.048576232 -0.117618345 -0.035113193
000090 0b 0e f0 bc e5 29 72 3c a4 91 88 3d 7e cb be 3d
       -0.029303571 0.014780496 0.06668404 0.09316157
0000a0 8e 1c 18 3d 37 7b b7 bd 78 05 f9 bc 4d 71 d5 3d
       0.037136607 -0.08959048 -0.030398116 0.10422001
0000b0 05 bd 58 3d 00 08 fd 3c 48 7d f7 3d 86 21 16 3e
       0.052914638 0.030887604 0.120844424 0.14661226
0000c0 41 f1 02 3e ca 6d 81 3d 29 c3 29 bd de f1 56 bd
       0.12787344 0.06319769 -0.041445885 -0.052476756
0000d0 63 b8 0a be cf 02 39 bd 0b 9a 13 be 60 f2 a7 ba
       -0.135469 -0.045168694 -0.14414231 -0.0012813322
0000e0 6c 2d 5f 3d 5c 69 20 bd d5 49 68 3d 40 2c d3 bd
       0.054486677 -0.03916298 0.056711037 -0.103111744
0000f0 13 a3 5d 3d 99 09 83 3d 72 71 ec bc 4e 7f 8a 3d
       0.054110598 0.06398315 -0.028862689 0.06762563
000100 f0 4b ac bd b6 77 23 bc b6 d0 5e 3d 96 40 f4 3d
       -0.084129214 -0.009977272 0.05439826 0.11926381
000110 2d a6 45 bd c9 0a ce bd 96 cc 72 3d ef cd 3d 3d
       -0.04825418 -0.10060651 0.05927714 0.04633897
000120 e6 95 08 3e 17 17 0c 3e 58 4d ed 3d 03 55 a4 3d
       0.13338432 0.13680683 0.11587018 0.08024027
000130 69 f2 a1 3d 46 27 db 3d ff 16 a9 3d 51 a0 c6 3c
       0.07907564 0.1070085 0.08256339 0.024246367
000140 5a 73 37 bd c6 df 84 3d 70 47 0f 3d b8 00 bc bd
       -0.044787742 0.06487994 0.034980237 -0.091798246
000150 dd 2a af bd cc c0 ee 3d ad 45 f4 bd bc 9b 44 3d
       -0.085530974 0.11657867 -0.11927352 0.048000082
000160 ad 8a 01 be ec 43 98 3d 39 d1 53 3d d1 2e e1 3c
       -0.12650557 0.0743483 0.051713202 0.027488144
000170 ff 69 aa ba 33 6d e5 3d a7 08 5d bd 18 4e 68 3d
       -0.001300156 0.11202469 -0.05396333 0.0567151
000180 1f bd 13 3d 66 4c 2b 3c 68 d8 d4 3d 3b 9c e2 3c
       0.03606903 0.0104552265 0.10392839 0.027662387
000190 a5 f2 37 3d 6a d5 7f 3d 6d 61 c9 3c 5e 3e 3b 3d
       0.04490914 0.062459387 0.024582589 0.045713775
0001a0 d5 00 0f be e0 c4 8e 3d 33 10 e8 ba ef b7 d1 3c
       -0.13965161 0.06971145 -0.0017705023 0.025600402
0001b0 3e 66 14 be b4 ad 22 be b0 8e ad bd 75 86 fe bd
       -0.14492127 -0.15886575 -0.08474481 -0.124279894
0001c0 d5 95 02 bd 26 04 1d 3d 87 a8 13 be 8d 8a d6 bb
       -0.031881172 0.038334034 -0.14419757 -0.0065472783
0001d0 0e dd 26 3c 41 93 9e bc 03 58 0f bd a4 2c bb bb
       0.0101845395 -0.019357326 -0.034996044 -0.0057121087
0001e0 82 c0 a2 bc 4d c8 3a 3d 8b 31 82 3d 73 98 b6 bb
       -0.019867186 0.045601178 0.06357106 -0.0055723726
0001f0 f5 36 2e bd cd ac 17 bc ca 71 1e 3d e5 34 d8 3d
       -0.04253288 -0.0092575075 0.038682736 0.10556964
000200 6c 3f a7 bd 6a 98 4a 3d d0 c8 4f 3b 16 be fa bc
       -0.08166394 0.04946176 0.0031705387 -0.030608218
000210 1a 1d 9e bd c3 9d d5 bd 6d 30 9a 3d 2f 36 9f 3c
       -0.077203944 -0.10430481 0.07528768 0.019435016
000220 6a 8e ce 3c a1 0e 31 bc b2 9d c5 3c af f4 37 3d
       0.025214393 -0.01080671 0.024123047 0.044911083
000230 dc f6 cc bc fe d1 2f bd df 06 b8 3d c0 4a 0c 3d
       -0.025020055 -0.042924874 0.089856856 0.034250975
000240 54 59 14 3d 75 e1 59 bd 3b 1f 9b bd 3d e2 bd 3d
       0.036218002 -0.05319353 -0.07574316 0.09271667
000250 1f ef b9 bd 33 c7 a1 3c b7 de c1 3d ab f2 f6 3c
       -0.09078812 0.019748306 0.094663076 0.03014501
000260 68 dd e2 bd 94 11 23 bc e5 ab df bd 92 25 ae bb
       -0.11077386 -0.009952921 -0.10921458 -0.0053145373
000270 c4 0b 6c 3d 23 5e 16 be 11 14 05 be 6b 86 bf bd
       0.057628408 -0.14684348 -0.12995936 -0.0935181
000280 22 d8 9a bd 16 75 94 3d 5c 77 d9 3c b2 34 3e bd
       -0.07560755 0.07248895 0.026546173 -0.046436973
000290 6e 07 43 3b 1d 72 fe bd 1a bd a7 bd 91 c0 c3 bd
       0.0029759067 -0.12424109 -0.08190365 -0.095582135
0002a0 8d 4f 52 bd f6 65 b9 bd 31 4c 16 3d 45 88 14 be
       -0.051345397 -0.09052651 0.036693756 -0.14505108
0002b0 e6 4e 05 be 05 cf ea bd e8 e6 fd bd bd 1e 28 bd
       -0.13018379 -0.11465267 -0.123975575 -0.04104494
0002c0 b8 c6 fd bd 90 b2 d6 3c c6 cb bc 3c 1a b8 fc 3c
       -0.12391418 0.026208192 0.023046385 0.030849505
0002d0 f3 14 e4 3c f8 a8 4b bd bf 21 3c bb f7 a6 6f 3c
       0.02784202 -0.049721688 -0.0028706638 0.01462721
0002e0 82 a3 eb bd 0a 95 35 3c 40 be 8e bd 61 6c 0c 3d
       -0.11505796 0.011082897 -0.06969881 0.034283046
0002f0 55 20 9f 3d cb 3a 31 bd d8 38 d0 bd f1 ff c1 3d
       0.07769839 -0.04326896 -0.10167092 0.09472645
000300 00 4b 90 3d f5 d4 e8 3c c7 f4 d4 bc 97 47 03 3d
       0.07045555 0.028421858 -0.025995625 0.032050695
000310 69 2a aa bd 45 ab 0a be 62 ee b6 bd 0c 0c b3 bd
       -0.0830887 -0.13541897 -0.08932187 -0.08742532
000320 a0 28 a3 bd 3b c7 f4 3b 44 02 d9 3d 43 c5 37 3d
       -0.07966733 0.007470039 0.10596135 0.044865858
000330 87 5a f9 3d 08 c9 ed bc a3 65 1d 3d 44 f2 e2 3d
       0.1217547 -0.029026523 0.038427006 0.11081365
000340 7e 34 31 bd aa 34 1a 3e 7f ba f4 3d 7e e8 c0 3d
       -0.04326295 0.15059152 0.11949634 0.09419344
000350 e1 d9 42 3d cc cb 43 3e 95 1c 3b 3e 9b af 81 3d
       0.047571067 0.19120711 0.18272622 0.06332322
000360 a5 29 25 3e 73 d9 3f 3e 51 20 e7 3d e8 1e ff 3d
       0.16129167 0.18735294 0.11285461 0.12457067
000370 70 ef a4 3d 5c b6 6a 3d 6a 38 44 bd 88 08 d2 3d
       0.080534816 0.057302818 -0.047905363 0.102555335
000380 0d 46 dc 3d 13 f0 9c 3d 79 41 15 3d 7e 8d e3 3a
       0.107555486 0.07662978 0.036439393 0.0017360894
000390 69 d3 dd 3c cf 33 68 bd 90 b7 4a 3d 06 9e 06 bd
       0.027078347 -0.056690034 0.049491465 -0.032865547
0003a0 b5 c7 86 3d 16 a9 93 3d 98 d2 5c 3d 05 dc aa 3d
       0.0658106 0.07209985 0.053911775 0.08342747
0003b0 34 23 99 bd 56 1b c7 3b b0 b5 af bc b2 06 03 3e
       -0.074774176 0.0060762567 -0.02144894 0.12795523
0003c0 d5 7e 51 3d b2 ea 4f 3d a4 80 87 3d 72 c3 02 3e
       0.051146347 0.050760932 0.06616333 0.12769869
0003d0 b1 f6 56 3d c7 9a 80 bc 15 c6 c5 bd d0 ef bb bd
       0.052481357 -0.015698804 -0.09656922 -0.091766
0003e0 ec a7 e9 3d e8 e3 a2 bb de 90 44 bc e0 a3 1e 3d
       0.11408982 -0.004971016 -0.01199743 0.038730502
0003f0 fa 28 76 bd 7f 7d b3 3d e7 84 46 bd 1a a3 f8 bc
       -0.060097672 0.08764171 -0.04846659 -0.03035121

bias f4 [32]
000000 7c c0 fa bd c3 e3 60 3c ce da 0b 3d 3f 40 68 bc
       -0.12243745 0.013726178 0.034144215 -0.014175474
000010 2e 10 25 bd 76 4d 77 3e 87 9b 8f be b4 11 83 be
       -0.040298633 0.24150643 -0.28048345 -0.25599444
000020 c3 e3 cb bd 12 f8 65 3b b5 f8 2a 3e 8e 84 cb bc
       -0.099555515 0.0035090488 0.16696437 -0.02484348
000030 98 a3 82 bd 58 7e bc bd 1f bd b2 bc 8a 8d ae bd
       -0.06378859 -0.09203786 -0.021818696 -0.0852309
000040 34 cb 02 3c f4 95 99 be 2a 84 9f bd d2 02 94 bd
       0.007983018 -0.29997218 -0.0778888 -0.072271004
000050 cb d5 9b bb b1 41 3d 3d 81 7b a1 3d ac 56 96 3d
       -0.0047557107 0.046205226 0.078848846 0.0734075
000060 1e 39 66 be 6b b7 29 3d 08 44 d5 bd 5f 16 40 3e
       -0.22482726 0.041434687 -0.104133666 0.18758534
000070 b2 45 66 be 5f ef 66 3d 87 f3 c3 bd 94 62 93 3d
       -0.22487524 0.056380626 -0.095679335 0.07196537

weight f4 [32, 32, 5, 5]
000000 22 b2 c1 ba 09 b6 f8 bb 99 47 00 bb 44 18 01 bc
       -0.0014777819 -0.0075900597 -0.0019573926 -0.0078793205
000010 32 fd f1 bc 5a 45 0a 3d 64 35 6d 3a 87 c2 f9 3c
       -0.029539678 0.033757545 0.00090487883 0.030488266
000020 64 f3 e5 3c d2 ce b8 3c 83 1d 52 3c 14 56 58 bb
       0.02807016 0.022559557 0.012824419 -0.003301029
000030 6e d9 83 bc 25 d6 8a 3c 9f 61 39 3d 84 79 99 bc
       -0.01609489 0.016947815 0.045259114 -0.018734701
000040 0f 2c 14 bb 26 58 0b bd e9 cd 8b bc 1c 1f a0 bc
       -0.0022609269 -0.03401961 -0.017065959 -0.019546084
000050 4c ab d8 3c 7e c8 d2 3c d6 e6 ed 3c 10 9b cd 3c
       0.026448868 0.025730368 0.029040735 0.025098354
000060 e3 1e 2e 3c 29 ba 0a bd e8 2f 8e 3c a8 eb 93 bc
       0.010627481 -0.033868942 0.017356828 -0.018056706
000070 48 1c dc 3c da 71 69 bb 86 d3 d2 bc d2 21 7c 3c
       0.026868954 -0.003562084 -0.025735628 0.015388923
000080 c2 ae e2 3b e7 9b f3 3b b8 db e2 bc 1d 46 10 3d
       0.0069178054 0.0074343565 -0.02769266 0.035223115
000090 42 62 84 bc 90 d7 73 3c dc 9b 2e 3c bc 36 ca 3c
       -0.016160134 0.014882937 0.010657277 0.024684303
0000a0 3c 44 72 3c cb eb 1d 3d 15 cd 9f bc f0 2c e6 b9
       0.014786776 0.038554948 -0.01950697 -0.000439025
0000b0 0c 8c a9 3c 73 28 fb ba 6a d1 15 3d 03 e9 03 3d
       0.020696662 -0.0019161835 0.036576666 0.03220464
0000c0 e8 80 1b 3d 1f b3 c6 bc 9c c3 d7 3c 22 c4 15 3d
       0.03796473 -0.024255333 0.026338391 0.036564
0000d0 d8 a1 f3 ba 5b fe 87 3c 37 78 04 3d 3d 93 b6 3c
       -0.0018587662 0.016600778 0.03234121 0.022287006
0000e0 7a 79 2a 3c e2 d5 7f bc 60 40 f5 3c 23 b0 fd 3c
       0.010404939 -0.0156149585 0.029937923 0.030967778
0000f0 70 52 05 bd f4 69 0c ba 87 d0 00 3d af d9 fe 3c
       -0.03254932 -0.00053563644 0.031448867 0.031109659
000100 89 20 09 bc b2 95 9b 3c 10 1f 35 3c 87 ab 0d bd
       -0.008369573 0.018992279 0.011054769 -0.03458741
000110 f0 29 3f 3c 55 ee 5a 3c 33 bd e4 bc f8 13 aa 3c
       0.0116677135 0.013362487 -0.027922248 0.020761475
000120 b6 48 e8 bb a8 71 13 bc 4a 82 c2 3c 48 1b cd ba
       -0.007088746 -0.008999266 0.023743767 -0.0015648389
000130 78 ed b7 3c b9 33 84 bc f5 44 d9 3b d5 9e 96 bc
       0.022452101 -0.016137945 0.006630535 -0.018386284
000140 14 17 89 3c 8e c5 1f bc 27 09 80 ba 0a 72 f4 ba
       0.016734637 -0.009751691 -0.0009768353 -0.0018649709
000150 bd 60 49 3b 85 c3 40 3b 7e 43 0b 3b 1c 7d 30 3d
       0.0030727827 0.0029413414 0.0021249945 0.043088064
000160 75 26 98 3c 79 74 4f 3b 26 b8 27 bc 30 3a 1e 3d
       0.018573025 0.0031655116 -0.0102367755 0.03862971
000170 e0 42 21 3d fb c3 94 3c 4c 3c 77 3c 32 f0 ed 3b
       0.039370418 0.018159857 0.0150900595 0.0072612995
000180 c7 4e e5 3c fe 2c 90 bc f2 51 89 3b b6 92 fb 3c
       0.027991666 -0.017599579 0.004190677 0.030709606
000190 3a 9a 9c 3c 8c 90 a9 bc 75 f7 f3 bc 52 f5 83 bb
       0.01911651 -0.020698808 -0.029781083 -0.004027047
0001a0 ef 71 1b bc 52 96 69 bc 94 f9 6e bb 54 de 5b 3b
       -0.009487613 -0.014257031 -0.0036464678 0.0033549266
0001b0 d1 14 23 bd 4f 44 90 3b 6a 05 bf b9 2e a6 ac bc
       -0.039814774 0.0044026743 -0.00036434393 -0.021075334
0001c0 7e 99 d2 bc 0a bc 71 3b bd 0f 70 3b 39 9a ec bc
       -0.025707956 0.0036885762 0.0036630474 -0.028882133
0001d0 de 69 b2 3c ec 00 a9 3c e6 93 0e 3c a6 82 36 bc
       0.021778997 0.020630322 0.008702254 -0.011139547
0001e0 66 1d ee 3b 7f 03 88 3c 4f 5a df 3c 84 2c 97 bc
       0.007266688 0.01660323 0.027264742 -0.018453844
0001f0 7e 00 3d 3a 87 3d 20 3c f1 9e 82 bb 6e ae a7 3c
       0.0007209851 0.009780294 -0.0039862324 0.020468917
000200 91 95 ef 3c cb e7 f1 bc 71 82 92 3c 7c 56 24 3c
       0.029246124 -0.029529473 0.017884465 0.010030385
000210 59 fc da 3c 1b 1e f3 3b 79 64 14 bb 63 37 c9 bc
       0.026731657 0.0074193603 -0.0022642894 -0.024562543
000220 dc 0a a4 3c a7 91 c4 bc 96 4b d6 bc 78 e8 c6 bc
       0.02002471 -0.023995234 -0.026159089 -0.024280772
000230 db 89 dd 3c 59 f9 46 bc f1 29 2c bd 76 ed 2f bd
       0.027043274 -0.01214441 -0.042032186 -0.04295107
000240 be a0 28 3c 61 cd db 3a 81 8f fb bc de 6e 7f 3b
       0.01029223 0.0016769582 -0.030708076 0.0038975994
000250 00 19 14 3d e1 3e 6f bc 46 8d 9f 3b 94 74 16 3d
       0.036156654 -0.014602394 0.004869136 0.03673227
000260 33 3c 38 3c ca bd ff bb d7 0c 15 3d 22 03 2d 3c
       0.011244821 -0.007804607 0.0363892 0.010559829
000270 dc 4d 16 3d b9 c8 1b 3d a6 14 cd bb 41 f9 ad 3c
       0.036695346 0.03803322 -0.006258565 0.021237018
000280 0d 07 7a 3c 98 cf d9 3c b1 a8 7b 3c 30 9c cd 3c
       0.01526047 0.026588246 0.015360043 0.02509889
000290 7a e1 de 3b da d7 be 3c 4c 0c 8b bc 74 20 ae 3c
       0.0068017812 0.023296285 -0.016973637 0.02125571
0002a0 34 e1 c9 bb d4 f6 c1 bb 3e b2 ee bb 7b 86 08 3d
       -0.0061608795 -0.005919317 -0.0072844317 0.033331376
0002b0 b8 b5 ef 3c a8 f3 d1 bc 01 30 15 3d 58 5d d6 bc
       0.029261455 -0.02562888 0.036422733 -0.026167557
0002c0 de 08 12 bd 0e 0b b6 bc 39 29 e5 3c 67 d0 2e bd
       -0.035652988 -0.022222068 0.027973758 -0.042679217
0002d0 d8 a5 7f bc 4b 18 e2 39 47 69 75 bb 07 3e 9e 3c
       -0.015603505 0.0004312418 -0.0037446783 0.019316686
0002e0 28 9c 1a bd 41 bd f1 ba ad 29 59 bc c0 a3 f9 3c
       -0.03774658 -0.0018443243 -0.013254565 0.03047359
0002f0 91 b1 9a 3c 96 75 18 3d 54 1c fd 3c 01 9e 9d bb
       0.018883498 0.037221514 0.030897297 -0.0048100953
000300 f7 28 dc 3c 1f 5d 3f 3d 18 46 03 3d 16 4c 27 3d
       0.026875002 0.046719667 0.03204927 0.040844046
000310 e7 67 46 3d a7 90 c9 3c b6 e6 1b 3d 64 12 2b 3d
       0.048438933 0.024605108 0.03806182 0.041765586
000320 40 69 59 3c 70 1f f9 3c 1e 83 ad 3b 55 f0 f8 bc
       0.013269722 0.030410498 0.0052951714 -0.030388037
000330 6f 6b bd bb 9a c8 79 3c 8f 00 2c 3c 96 a5 5d bc
       -0.0057806293 0.015245581 0.01049818 -0.013528248
000340 ff bd 1d bd 53 c8 31 3c ac 2b 3c 3c 59 9a 9b 3c
       -0.038511273 0.010850984 0.011485022 0.018994497
000350 f9 21 5c bb 4e c8 10 bd 8e ca 04 bd 66 23 28 bc
       -0.0033589585 -0.035347275 -0.032419734 -0.010262346
000360 03 8f fb 3c 4c 2c 96 bc e4 ae 43 3d 3d 75 85 bc
       0.030707842 -0.01833167 0.04777421 -0.016291255
000370 f5 2a f9 bc bc 68 25 3d 75 2f 60 3c 6f 91 f9 3b
       -0.030415991 0.040383086 0.01368319 0.007616214
000380 65 b9 20 3c 3d a1 d2 3c 7d 65 a0 b9 36 c9 f7 bc
       0.0098098265 0.02571165 -0.00030593193 -0.030247312
000390 ad 61 fc bc 42 3c a7 3c a6 fb d0 3c 9d 47 e3 3a
       -0.030808294 0.020414475 0.02551062 0.0017340068
0003a0 cb 9e 64 3c 44 7c c1 bc 97 24 af bc c4 c9 80 bc
       0.013953875 -0.023618825 -0.021379752 -0.01572121
0003b0 a6 20 e3 3c cd 25 e1 3a 20 01 31 bb b8 3b b8 3c
       0.027725529 0.0017177403 -0.0027008727 0.022489414
0003c0 9a e8 e6 bc 94 ab 2d 3b ff 85 9b bc ee b6 f7 3c
       -0.028187085 0.0026499974 -0.018984793 0.030238595
0003d0 e5 0d cb 3c ba 19 c7 3c 60 22 21 bb 05 64 8c 38
       0.024786899 0.02430426 -0.002458714 6.69435e-05
0003e0 5b 23 33 3d d2 13 f3 3c 4b a3 05 bc c1 e2 80 bc
       0.04373489 0.029672537 -0.008156608 -0.015733125
0003f0 f3 bd a3 bc d7 2c 39 bc 86 9d 2e bd e9 38 25 3d
       -0.019988036 -0.011302195 -0.042630695 0.040337477

bias f4 [32]
000000 e1 66 0f bc f9 f6 2f 3c 2a 25 99 bd 90 0c 44 bd
       -0.008752556 0.010740035 -0.074777916 -0.047863543
000010 07 1e f7 3b 15 15 13 bd 94 43 39 bb f0 fb 14 3d
       0.0075414213 -0.035908777 -0.002826904 0.03637308
000020 1b 8d 3d bd 8f 5b 65 3c db 9d e4 bd 10 35 7f bc
       -0.046277147 0.01399888 -0.11162921 -0.015576616
000030 00 3c b9 3d 96 e8 13 bd 0e 5f 97 bd 28 34 f7 3b
       0.09044647 -0.036110483 -0.07391177 0.0075440593
000040 de a7 bb 3c 68 2c 1e 3d 80 2a a1 bd 47 9b 2f bd
       0.022907194 0.038616568 -0.07869434 -0.042872693
000050 59 ee a0 bb b3 44 62 3b be e0 db 3a c0 97 df bb
       -0.0049112258 0.0034525811 0.0016775352 -0.00682351
000060 c3 40 fb bc c3 3e 5f bc a6 76 ee bc ef 93 93 bc
       -0.03067053 -0.013625803 -0.02910931 -0.018014876
000070 2c 8d 41 bc 53 43 35 39 8d c2 3c bd 09 87 b3 bc
       -0.011813443 0.00017286585 -0.046083976 -0.021914976

weight f4 [64, 32, 5, 5]
000000 d0 45 6c ba 3d 71 18 3d 60 1a 2a 3c 26 19 d9 ba
       -0.00090130884 0.037217367 0.010382265 -0.0016563281
000010 dd cb ff 3b 9a c9 85 38 7f 9f bb 3c 34 a5 21 3a
       0.007806285 6.3794854e-05 0.022903202 0.000616628
000020 f2 48 8b bc 88 94 db 3b f4 56 80 bc a5 9f 42 3c
       -0.017002556 0.006701056 -0.015666462 0.011878883
000030 89 7d b0 3c ec fb b3 bc 36 6d a8 3c 43 9a 40 bc
       0.021544235 -0.021970712 0.020559888 -0.011755529
000040 25 1f b5 3c 90 ea 01 bd 29 c0 4d 3b ee fb be bc
       0.022109577 -0.031717837 0.0031395054 -0.023313489
000050 ee ac 06 3d 27 5b 23 3d e5 87 65 bb dc ea 88 b9
       0.032879762 0.03988185 -0.0035023626 -0.00026114925
000060 72 89 5e bc 3d a4 cc 3c 35 33 19 bd 38 7e ce 3c
       -0.013582574 0.024980659 -0.03740235 0.02520667
000070 8c 1c 1b bc c7 83 75 bc 9b 6b ab 3c 47 ca b6 bb
       -0.009467255 -0.014985031 0.020925334 -0.0055783126
000080 22 88 81 3b 75 88 9e 3c bf 68 a6 bc 2c 60 64 3c
       0.003952996 0.019352177 -0.020313619 0.013938945
000090 fb cc 17 3c 46 38 66 3c 31 c0 49 b9 20 bf 9f bb
       0.00926518 0.014051503 -0.0001924045 -0.004875079
0000a0 ce bc f8 3c 64 6f a8 bc 8e 7a b8 bc 1b a6 53 bc
       0.030363467 -0.020560928 -0.022519376 -0.012918021
0000b0 77 38 c1 bc ae 01 ee bc 1f 27 ce 3b f7 e6 f3 bc
       -0.023586495 -0.029053535 0.0062912847 -0.029773219
0000c0 d7 4c 10 3d a2 33 09 3d bc bb cd 3a a3 e3 88 3c
       0.03522953 0.033496507 0.0015696208 0.016710108
0000d0 79 da 0e 3d 1a f3 90 bc 5f 58 6b 3c 37 34 10 bd
       0.03487632 -0.017694045 0.014364331 -0.035206046
0000e0 19 61 11 bd 8a 51 94 3c bd f9 59 3c 25 29 be bc
       -0.03549299 0.018105287 0.013304171 -0.023212979
0000f0 08 1e 4b bc ce 1b c1 3a 7f 08 d6 3b cb 57 26 3d
       -0.012397297 0.0014733018 0.0065317745 0.04061107
000100 55 fb bb 3c 84 66 0e bd 30 c2 ec 3c 1f 7f 11 3d
       0.022946993 -0.034765735 0.02890119 0.035521623
000110 dc 58 1a 3d a7 da b0 3c d1 80 ba 3c dd 3b b9 3c
       0.0376824 0.021588637 0.022766503 0.022611553
000120 1c 0b 41 3d 94 4e 56 3d 9e 18 cf 3c ce a0 c7 bc
       0.047129735 0.05232103 0.025280293 -0.02436867
000130 9f 99 e2 ba 5b e8 b7 3b 71 a3 6e bc cc 36 d8 3c
       -0.0017288214 0.0056124157 -0.014565335 0.026393317
000140 63 c8 09 3c ea 7b 16 bd b9 41 6a 3b a0 c8 c6 3c
       0.008409592 -0.036739267 0.003574474 0.024265587
000150 a8 0a 03 bc 59 0c 6c 3b 2e 4f 0d 3c 4a 5b 4c 3b
       -0.007998146 0.0036018102 0.008624835 0.0031182342
000160 54 62 fb bc 3e 75 b3 bc 05 c5 8b 3b 1f 56 ae 3b
       -0.030686535 -0.021906491 0.00426543 0.005320325
000170 2f fd e4 3c 63 02 b3 bc e8 92 a6 bc 9d 18 0e 3c
       0.027952759 -0.021851724 -0.020333722 0.00867286
000180 12 3c 74 bc da 85 f1 bc 92 7d 47 3c b5 aa a4 bc
       -0.0149069 -0.02948277 0.012175934 -0.02010093
000190 eb 59 49 3b ec 70 c9 3b 7a bf c1 3c 76 a5 f4 3c
       0.0030723761 0.0061474945 0.023650873 0.029864054
0001a0 7d 10 5a bc 5b 61 45 bc 91 33 e6 3c ba b1 48 3c
       -0.013309595 -0.012047137 0.02810076 0.012249405
0001b0 d9 db e4 bc e0 1a f4 3b 70 c8 7c bc b6 5e ef bc
       -0.027936863 0.007449493 -0.015428647 -0.029219966
0001c0 73 f6 e2 3a e9 79 0b 3d eb fd 78 3c de f6 3f bc
       0.0017315879 0.03405181 0.0151972575 -0.011716573
0001d0 31 3d 36 bc ee d1 06 3c 98 01 07 3a cd 6b c1 bb
       -0.011122988 0.008228762 0.0005150079 -0.0059027434
0001e0 95 9e ac bc bd c1 39 bb 5d 3d eb 39 24 46 b5 bc
       -0.021071712 -0.0028344237 0.00044868412 -0.022128172
0001f0 68 a3 e9 bb 70 54 13 bc d7 8b a6 3c eb 93 99 bc
       -0.0071300752 -0.008992299 0.020330353 -0.01874729
000200 dd 44 f8 bc 02 d2 9e 3c d5 be 4f bc 2e 66 fc bb
       -0.030306274 0.019387249 -0.012679775 -0.0077026105
000210 fb 12 f5 bc 0e 20 e5 3b 01 be 77 bb 9c 17 08 bd
       -0.029916277 0.0069923466 -0.003780246 -0.03322564
000220 9c f2 7c 3c 0a 8f 08 bd b4 0f 2d bc 11 03 b6 bc
       0.015438702 -0.033339538 -0.010562826 -0.022218259
000230 28 8d 21 3c 0d 4d e7 3c b3 34 a2 bb c5 83 aa bc
       0.009860314 0.028234983 -0.00495013 -0.020814786
000240 cc d8 0f bc 44 07 be bc 95 8e 15 bd 43 67 ed bc
       -0.008779716 -0.023196824 -0.03651293 -0.028979903
000250 4c b2 d5 bc b2 2d 16 3c 44 97 83 3b 9b 23 5f 3c
       -0.026085995 0.009166168 0.004015835 0.013619329
000260 72 d1 ad 3c bd 81 8a bb c0 af 08 3c ed a8 b7 bc
       0.021218035 -0.004226892 0.008342683 -0.022419417
000270 45 ff a8 3c 7d c5 f7 3c b9 8d d1 bb 4a c4 9e bc
       0.020629534 0.030245537 -0.0063950685 -0.019380707
000280 a0 b7 7c bc 25 1f b4 3b 5b dd a0 bc e6 e6 b1 3b
       -0.015424639 0.005496877 -0.0196368 0.0054291366
000290 9f 42 6a b9 da b6 a4 bc ac 50 de bb 71 da 39 3c
       -0.00022340797 -0.020106722 -0.006784519 0.011343584
0002a0 fc 20 46 bc 4a a5 0d 3d 64 82 f8 3c 2f 29 16 bc
       -0.012092825 0.03458146 0.030335613 -0.009165092
0002b0 f2 ad 64 3c ce d8 d3 bc b9 95 de bc c3 c0 50 bb
       0.013957487 -0.025860216 -0.027171003 -0.0031853176
0002c0 86 1e 0e bb 6c a2 38 3c 60 1f 87 bc a3 3a e5 bb
       -0.0021685674 0.011269193 -0.016494453 -0.0069955154
0002d0 70 3b b8 3c d6 bb 30 bb 33 8c f3 bb c7 ef 41 3c
       0.02248928 -0.0026967428 -0.0074324845 0.0118369525
0002e0 f7 6f 27 3c 40 59 49 3c 7a 13 f7 3b 91 f9 34 bc
       0.010219566 0.012289345 0.0075401636 -0.011045829
0002f0 e8 b2 13 3c e1 03 4b bc aa d1 40 3a 0c cc 90 3c
       0.009014823 -0.0123910615 0.0007355461 0.017675422
000300 15 7b de 3c 35 41 d0 3c 8a e1 ef bb 51 f1 ed bc
       0.0271583 0.025421718 -0.0073205875 -0.029045733
000310 f8 19 05 3a d4 6b e9 3c 90 b8 86 3c 82 46 95 3b
       0.0005077417 0.0284938 0.016445428 0.0045555243
000320 3c e4 b6 3c 18 85 0a 3d cd bd 18 bc 3b 62 48 bb
       0.022325628 0.033818334 -0.009322596 -0.0030576128
000330 8a d2 a6 bc 61 34 d7 ba f2 97 e7 bb fb 53 0e bc
       -0.020364065 -0.0016418808 -0.007067674 -0.008687015
000340 8e 57 e4 bc 35 d5 2f 3c a6 d4 fd bc 72 90 aa bc
       -0.02787378 0.010731985 -0.030985188 -0.02082083
000350 df 48 fb bc 9e b9 78 3b f8 8e 02 bd d4 51 d7 bc
       -0.030674396 0.0037952433 -0.031874627 -0.026284136
000360 35 de ff 3c 0f 38 79 3b b6 df bf bc 0c 7b 07 3d
       0.031233886 0.0038027798 -0.023422103 0.03307633
000370 ca 7f ed bc c4 d7 9d 3c e0 c6 2f 3c 72 89 6c ba
       -0.028991599 0.019267924 0.010728568 -0.00090231665
000380 0e 4f a5 bc c5 69 11 3c a0 32 26 bd 68 7a 9a 3c
       -0.020179298 0.008875315 -0.040575624 0.018857196
000390 3c 63 b0 3a 6f 48 46 3a 21 06 f8 bc c0 39 03 bd
       0.0013457309 0.0007563894 -0.03027636 -0.032037497
0003a0 a1 f3 e5 3b 33 17 03 bd c8 14 74 bc b2 ed ce 3c
       0.007017568 -0.032004546 -0.014897533 0.025259826
0003b0 23 12 9f bc ee c9 f5 3c 21 46 17 bc e4 7b 71 3c
       -0.019417828 0.030003514 -0.009233029 0.0147390105
0003c0 04 a7 12 3d 30 b3 11 bd 92 aa 0e 3d 4a 07 67 3c
       0.03580381 -0.035571277 0.034830637 0.014100859
0003d0 7a ce eb bc 33 a4 2d bc 8d ec 24 bd 9a 90 bd 3c
       -0.02878498 -0.01059823 -0.040264655 0.02314024
0003e0 9d 24 59 ba 96 3f 27 bd 08 13 56 3c df 8c 77 bc
       -0.0008283349 -0.040832125 0.013066061 -0.01510927
0003f0 a9 3c 8d 3b 0e 41 44 3d 2f ee eb bb 0b 24 94 bb
       0.00431021 0.047913603 -0.0072000246 -0.004520898

bias f4 [64]
000000 1c 19 21 bd 24 ca 42 3d e9 28 e5 bc d4 bb 5d bb
       -0.039330587 0.047556058 -0.027973609 -0.0033833878
000010 25 0a 99 bd ec d1 72 bb 34 6f dc bc d4 00 14 bd
       -0.07472638 -0.0037051393 -0.026908495 -0.036133602
000020 b2 ab 02 3d 21 f3 fb 3c 6b 60 35 bd da 24 1c b8
       0.031902023 0.030755581 -0.044281404 -3.722762e-05
000030 af 58 54 bd df a1 62 bb 8f 2c fd 3c c5 90 71 bc
       -0.051842388 -0.0034581346 0.030905036 -0.014743988
000040 20 ee f0 3b 01 89 be bb f6 ef 11 bc ab a3 8a bc
       0.0073526055 -0.005814672 -0.008907309 -0.016923746
000050 42 e4 5f 3c b3 3b c1 3c a5 33 12 bc 82 7d a6 3c
       0.013665261 0.023588037 -0.008923446 0.020323519
000060 eb 57 2a b8 18 58 7b bd d9 4c 02 bc eb 6c 3d bc
       -4.061304e-05 -0.06136331 -0.007952892 -0.011561613
000070 73 a2 fc bc ef 77 b4 3b 1f 45 5d 3c d4 0b 80 bc
       -0.03083918 0.0055074613 0.013505249 -0.01563064
000080 7d b5 f2 bc 49 63 8e 3c 7f 57 23 bd e9 eb b8 3a
       -0.029627556 0.017381327 -0.039878365 0.0014108393
000090 50 1d 15 bc 8e ae 17 3c 1b 9e c7 3c 81 6f e8 bb
       -0.009101227 0.009257926 0.024367383 -0.0070933704
0000a0 e7 a0 23 bd ab 60 cf bd c6 c2 5f bd ad 0e 0d bd
       -0.03994837 -0.1012586 -0.05462911 -0.034437824
0000b0 47 b7 23 3c 04 bb 92 bd f7 38 35 3c aa 80 b5 bc
       0.009992427 -0.07164577 0.011060945 -0.022156078
0000c0 93 f5 78 bc 59 83 30 bd 07 c9 3e bd 6b 42 75 bd
       -0.015195268 -0.043094013 -0.046578433 -0.059877794
0000d0 aa 1d 35 bd 53 42 8c 3c e9 de a4 bc 17 ff cd bc
       -0.044217743 0.01712147 -0.020125823 -0.02514605
0000e0 06 b6 09 3d 5a 35 24 bd 74 bc a5 bc fe e2 e1 bc
       0.033620857 -0.040089943 -0.020231463 -0.027574059
0000f0 d3 2b 80 bc c2 8d 12 bd 34 61 3d bc 01 63 e2 ba
       -0.015645897 -0.035779722 -0.01155882 -0.0017271937

weight f4 [64, 1024]
000000 fe 76 50 bc a0 32 0e 3d 69 92 9f 3b 7c 95 8e 3c
       -0.012723682 0.03471625 0.0048697484 0.017405264
000010 7b 56 24 3d b6 1c 2e 3d ca 60 4d 3a 1a bc 87 bc
       0.040121537 0.04250785 0.0007834552 -0.016569186
000020 09 45 81 3b fb bb fb bb d4 40 e1 3c 6b 5d 0c 39
       0.003944997 -0.007682321 0.027496733 0.00013386241
000030 7d 16 87 bc fa d3 11 ba 57 31 be ba 10 e2 47 bb
       -0.016490215 -0.0005562898 -0.0014510554 -0.0030499734
000040 dc 75 cf bc 74 10 a9 bc 68 f2 85 bc e4 b0 49 bc
       -0.025324754 -0.020637728 -0.01635094 -0.01231024
000050 a0 55 d8 bc b3 49 33 bc 46 2e 88 3c f3 19 a5 3b
       -0.026408017 -0.010942864 0.016623627 0.005038494
000060 71 d0 3a bc a1 b8 f0 bc f0 7b 3b bc e3 35 25 bd
       -0.011402235 -0.029384913 -0.011443123 -0.040334594
000070 9b fa 05 3d 15 c1 db bc cf c4 6b bb d4 02 b0 3a
       0.0327097 -0.026825467 -0.0035975461 0.0013428577
000080 6c 12 4d 3c 66 15 10 3d b8 d6 77 bc 49 0f 3e bc
       0.012516599 0.035176657 -0.0151268765 -0.011600324
000090 2b 03 38 3c 16 46 63 bb 61 87 26 3c 76 2f a3 bc
       0.011231224 -0.0034679226 0.010164113 -0.019920092
0000a0 22 2e be 3b 3d 48 7a bc 15 0e 19 3d 61 7f d6 bb
       0.0058038393 -0.015276012 0.037366945 -0.0065459465
0000b0 e0 3b 5e 3c b3 c1 a5 3b 32 48 a1 bc a5 f7 97 3c
       0.01356408 0.005058491 -0.019687746 0.018550703
0000c0 45 bc ad bc 00 ec cb bc 68 03 95 3c f8 7b 6c bc
       -0.021207938 -0.024892807 0.0181901 -0.014433853
0000d0 df f4 d9 3c 0e 22 ae 3c 72 6a 38 3c 70 cb 88 bc
       0.026606021 0.021256473 0.011255847 -0.016698569
0000e0 18 21 1a 3d 8f 5e a8 3a e6 2e c3 3c c0 b7 54 3c
       0.037629217 0.0012845563 0.023826074 0.012983263
0000f0 79 14 d7 3c 2f ac 4c 3c d4 d3 e0 3c c2 70 1b 3d
       0.02625488 0.012492224 0.027444758 0.03794933
000100 20 0b 94 3b eb c5 25 3d 4f eb 58 bc 1d fc 3a 3c
       0.0045179278 0.040471952 -0.013239696 0.011412648
000110 ca e4 12 3d 76 3c b2 3c 14 26 38 3c 19 aa 1d 3d
       0.03586272 0.021757346 0.011239547 0.038492296
000120 d0 d8 a5 bc 91 d4 6b bb ea ce 27 3d 34 34 2a 3b
       -0.020244986 -0.0035984854 0.040968813 0.0025971057
000130 2e 7a 20 3b aa d5 e7 bc 20 1e 42 3c f5 2b bb bc
       0.0024486887 -0.028300125 0.011848003 -0.022848109
000140 d1 8d 5d bc 34 2c 84 3c 4a 73 13 3c 57 68 d3 3c
       -0.013522581 0.016134359 0.008999655 0.025806589
000150 55 6e 81 bc 9d a7 21 3d f7 7a 08 3b 88 ad 3b 3c
       -0.01579968 0.03946649 0.0020825246 0.011454947
000160 2a 84 d8 3b 4b aa 8c 3c b9 d2 2c 3c 3f c9 e2 bc
       0.006607552 0.017171046 0.010548287 -0.027683852
000170 56 1e 87 bc 06 31 f1 bb ca 01 46 3c d3 f8 df 3c
       -0.016493957 -0.0073605804 0.0120853875 0.027340328
000180 40 59 07 3c db 76 1b 3d 59 f8 b4 3b ed 21 10 3c
       0.008261025 0.037955146 0.0055227694 0.008797151
000190 ac 77 f3 bb 44 75 ad 3c 68 3d b9 bc f3 36 39 bd
       -0.0074300375 0.02117408 -0.022612289 -0.04521842
0001a0 85 60 aa 3c e9 dc e5 3c 7e 63 70 bb 28 f1 0e 3d
       0.020797977 0.02805944 -0.0036680396 0.034897953
0001b0 b5 61 0a bc 41 0a cd 3c a4 e6 44 39 5d 4d f0 bb
       -0.008446147 0.025029304 0.00018777937 -0.007333441
0001c0 07 9b 42 3c 62 1d 2f 3c f8 d1 53 3c 2e 8c 51 3b
       0.011877782 0.010688158 0.012928478 0.0031974423
0001d0 76 4e 1a bc 28 e2 f4 bb 3e 72 21 bb 09 b8 be 3c
       -0.009418121 -0.007473249 -0.0024634744 0.023281114
0001e0 27 a3 93 3c 73 34 2c bc 57 25 52 bb 43 cb f3 bb
       0.018022133 -0.010510552 -0.0032065713 -0.007440002
0001f0 2c 93 97 bc 78 ae 1b 3d 69 62 4d b7 e5 0f 99 3c
       -0.018502794 0.038008183 -1.2241865e-05 0.018684337
000200 02 c7 ad 3c 96 dd 8c bc 39 26 5b bc 51 be 8e bc
       0.021213058 -0.017195504 -0.013375812 -0.017424734
000210 1f c3 cf 3c 36 83 c7 ba 6b 8e 11 3c 67 ec 15 bd
       0.025361596 -0.0015221599 0.008884053 -0.036602404
000220 cd 87 99 3b a4 0c a4 3c f6 ba 51 bc 4f 9d d9 3c
       0.004685378 0.020025559 -0.012800923 0.026564268
000230 67 9a 95 bb 31 b9 07 bd 2b 32 d0 bc 03 74 17 3d
       -0.0045655253 -0.033135597 -0.025414547 0.03697587
000240 8a 9a 00 3d f2 af d3 ba 94 87 db 3c 62 7e a6 bc
       0.03139738 -0.0016150458 0.026798047 -0.020323936
000250 9b e7 16 3b 21 bd 5b 3a 6c 41 65 3c df eb 22 3c
       0.0023026231 0.00083823694 0.013992649 0.009943931
000260 da 1c 9d 3c 82 c7 0a ba c3 a7 00 3c 8a f5 d7 bb
       0.019178797 -0.0005294011 0.0078524975 -0.00659055
000270 1e 6c df 3b bf 88 a0 3c 3d d9 45 bc 9f 19 97 3b
       0.0068183085 0.019596456 -0.012075719 0.0046112086
000280 e2 8c 8c bb 54 b8 ed bc b0 5c 97 bb 65 6f 87 bc
       -0.0042892555 -0.029018559 -0.0046192035 -0.01653261
000290 f3 b7 dc bc ee be e7 3b b6 bb 00 3d 47 b7 50 ba
       -0.026943183 0.007072321 0.031429015 -0.0007961881
0002a0 b3 82 23 3c ec 7c a9 3c 36 0b d9 3c 5b 6a 9f bb
       0.009979892 0.02068945 0.026494604 -0.0048649735
0002b0 a5 81 55 3c da b2 d4 ba a2 8e 15 3d 50 ad af bc
       0.013031398 -0.0016227618 0.03651298 -0.021444947
0002c0 ca 9f af 3c ae 58 50 bc be 3b bb bc a9 e5 1d 3c
       0.021438498 -0.012716455 -0.022855636 0.009637275
0002d0 47 6b 68 bc 41 83 3f 3d 92 af e6 bc 69 3a a7 3c
       -0.014185733 0.046756033 -0.02815989 0.020413594
0002e0 c5 1c db 3b 41 b2 ab 3c 6e 71 0d 3b 9b 79 ca 3c
       0.006686779 0.020959022 0.0021582502 0.02471619
0002f0 c6 0c 57 3b c3 42 28 3c fa 04 d8 3c e4 2d 9d 3c
       0.003281401 0.0102698235 0.02636956 0.019186921
000300 b5 94 43 3c a6 15 35 3d 11 13 89 3c b4 5f 43 3c
       0.01193731 0.0442101 0.016732724 0.011924673
000310 0f 95 08 3c 7d 87 41 3c a1 52 d1 3c 18 2f 19 bd
       0.00833632 0.011812088 0.025552096 -0.037398428
000320 38 a2 b5 3c 3c f2 07 3d 88 fe 55 bc 45 c8 aa bc
       0.022172078 0.033189997 -0.013061173 -0.02084745
000330 6c c6 bf 3c 9c b4 98 bc 9a 10 bd 3c 55 24 08 bd
       0.023410045 -0.018640809 0.023079205 -0.033237774
000340 e2 82 d2 bc 23 99 31 3b 2a 07 cf 3a c3 0b 93 3c
       -0.025697175 0.0027099333 0.0015794982 0.017949944
000350 43 31 11 bc 8d a9 37 3d 27 fd 7d 3c 85 f5 c2 3c
       -0.008861843 0.04483943 0.015502251 0.023798713
000360 ad 2b 25 3c d0 17 0e bd bd de 5a bc 92 10 5a 3c
       0.010081214 -0.034690678 -0.013358769 0.013309615
000370 76 9f dd 3c c0 a7 e2 bb 45 6f 45 bc e3 fb 42 3b
       0.027053576 -0.00691697 -0.0120504545 0.0029752187
000380 5e d9 06 bd 7b 4e 85 bc 30 80 da bc 1b 73 29 3b
       -0.03292214 -0.016272774 -0.026672453 0.0025855962
000390 c4 ac a4 3c eb 63 b7 3c 3b 6c b9 bb 33 d0 bc bc
       0.020101912 0.022386512 -0.005658654 -0.023048496
0003a0 2d 35 8c 3c 2f d3 04 3d f3 d4 3e bc 62 b4 4c bc
       0.0171152 0.032427963 -0.011647451 -0.0124941785
0003b0 7e c8 44 35 8e 9a 09 3c f7 a4 c7 bb ad 1a 4b 3c
       7.3307444e-07 0.008398665 -0.0060926634 0.012396497
0003c0 db 5a 11 3c cd e5 ec 3b 1e b6 59 bb 68 7b 9a bb
       0.008871759 0.007229543 -0.0033220123 -0.004714418
0003d0 d5 58 47 3a 30 37 3e 3c b5 d3 d2 bc fa 09 34 bb
       0.00076044846 0.011609837 -0.025735715 -0.0027471767
0003e0 c8 3f bb bc 9f b4 17 bc 7d ee 25 3c 4d 19 8d 3c
       -0.022857562 -0.009259372 0.010127661 0.017223978
0003f0 68 e6 ba 3c 77 6f 03 3d b5 27 1b 3d 7c 36 03 bc
       0.022814944 0.032088723 0.037879664 -0.008008596

bias f4 [64]
000000 c7 b2 cc ba 6e b5 9e 3a 3f 13 f9 bc c0 8e 43 bb
       -0.0015617245 0.0012108514 -0.030404685 -0.0029839724
000010 ed 88 c3 3c 3b 84 84 3c 37 14 b7 3b 8a 90 f6 bc
       0.023869002 0.016176334 0.0055871266 -0.030098218
000020 f0 9d 66 3c fb e6 18 bd fc fd 0c 3b fa b9 1c bb
       0.014075741 -0.037329655 0.0021513691 -0.0023914562
000030 74 f4 ac bb df 79 02 3d 8c 86 2c bc 0a c2 be bb
       -0.0052781645 0.031854507 -0.010530125 -0.005821471
000040 1f 92 ab 3c 00 71 4c 3c fb 04 4f bd 3c 5f b3 b9
       0.0209437 0.012478113 -0.05054186 -0.00034212496
000050 bc 16 8e 3b ff 60 ca bb 54 29 4f bc fa 87 10 3d
       0.0043362062 -0.0061761136 -0.012644131 0.035285927
000060 36 1e e0 3c 36 5d 28 3d dd 75 2a 3c a3 95 82 3c
       0.027358156 0.041104518 0.010404077 0.015940493
000070 bf 36 32 3d 91 5e d4 3c 7d 1b 91 bc 56 f5 29 bb
       0.04350924 0.025923999 -0.017713303 -0.0025933585
000080 4c 15 1e bd a9 9b 7b 3c 77 26 30 bc 8d ea 9c bc
       -0.03859453 0.0153569365 -0.010751358 -0.019154811
000090 4a 8e a5 bc 0d 85 47 3c a3 ba 1f bd ef da 44 3c
       -0.02020945 0.012177718 -0.03899635 0.012015088
0000a0 9b ef 28 bd 14 00 55 bc b6 ad cf bb ec f1 ab 3c
       -0.04124413 -0.013000507 -0.0063378466 0.02098938
0000b0 35 43 06 3c 8f 64 c7 3b 13 a9 16 3d 7d ad c9 bc
       0.008194734 0.0060849856 0.036782335 -0.024618858
0000c0 32 d9 72 3d f6 07 aa 3c ee 2e 36 bc f6 a0 83 bc
       0.059289165 0.02075575 -0.011119587 -0.016067963
0000d0 ff 54 03 bd 7f bf 60 ba 14 b9 34 3c b6 47 34 3c
       -0.03206348 -0.0008573457 0.011030454 0.011003425
0000e0 71 ba 48 3d 2c 66 9a bc 85 6c 64 bc d7 a5 55 3c
       0.04900593 -0.018847547 -0.013941889 0.013040028
0000f0 58 45 57 bd 20 9f 07 ba 42 3d 09 3c ed 00 36 bd
       -0.052556366 -0.0005173553 0.008376421 -0.044434477

weight f4 [10, 64]
000000 1a 4e 2a 3d 0c e8 8c 3d 24 d7 64 3d 1a 3b 0a be
       0.04157839 0.06880197 0.055869237 -0.13499108
000010 51 88 d1 bd 9f 3b 1b 3e 60 af 40 be 18 cd 36 3e
       -0.102310784 0.15159462 -0.188169 0.17851675
000020 c9 33 b7 bd f0 36 82 3c 65 9a ef bd 12 98 24 3d
       -0.08945424 0.015895337 -0.1169937 0.040184088
000030 49 41 67 3c b0 03 62 bd 0a a8 08 bd 7b 53 99 bc
       0.014114686 -0.055179298 -0.03336338 -0.018716564
000040 aa 77 3f 3d 0f 89 3f be 32 a9 e9 3c 1a ed 9a 3c
       0.04674498 -0.18704627 0.028523061 0.018911887
000050 da cb 5e bd 1a ce 5e bd d5 6a 24 bc 55 68 2c 3d
       -0.054393627 -0.054395773 -0.010035236 0.042091686
000060 ea 47 d1 3c c4 48 c2 bd fd 2f a4 bd b7 2e d5 3d
       0.025546987 -0.09486535 -0.080169655 0.10409301
000070 20 90 45 be 75 96 d4 bd c9 45 20 bd 2e ac 19 3d
       -0.1929326 -0.1038026 -0.039129052 0.03751772
000080 bc 4a 3d bd 25 91 90 3d 3f a1 6a bc 96 a1 42 3e
       -0.04621385 0.07058934 -0.014320671 0.19006953
000090 cb 3a 13 3e b2 1c b2 3d 4e ce 54 3d 29 d5 60 be
       0.14377896 0.086968794 0.05195456 -0.21956314
0000a0 06 1e f4 3d bb 6f 5b bd f2 d9 21 be 2d 32 9e bd
       0.11919789 -0.05357335 -0.15805796 -0.07724414
0000b0 85 e7 30 3d f4 d4 2d 3d aa b6 d8 bd 6c 56 07 be
       0.043189544 0.042439416 -0.105817154 -0.13216561
0000c0 37 15 3b be 76 3b ad bc 8f 0d ee 3d 34 c5 f4 3d
       -0.18269812 -0.021146517 0.1162368 0.11951676
0000d0 6b 1b ea bd b3 13 50 bd 15 ca 42 bd bf 3e 92 bc
       -0.11431011 -0.050800037 -0.047556 -0.017852185
0000e0 50 f9 5b bd fb ba 66 bc db fe 5f bd 87 4a 8c bd
       -0.05370456 -0.014082666 -0.05468641 -0.068501525
0000f0 a5 bd e1 3d 6b 66 59 be df 32 ad 3d 4a 7e 1a 3e
       0.110225 -0.21230476 0.084569685 0.15087238
000100 1c 14 3c 3e bf a9 0a be b3 6b 12 be 12 03 2e 3e
       0.18367046 -0.13541315 -0.14298896 0.16993359
000110 6b 39 01 bd 84 ce a1 bd 2f d1 76 bd e9 73 e0 3d
       -0.0315489 -0.07900718 -0.060258087 0.10959608
000120 27 06 07 3e 6a 38 a9 bd 87 71 ae bd 3f 7e d5 bd
       0.1318594 -0.08262713 -0.08517747 -0.1042447
000130 13 ec 27 3c f6 73 26 be 42 b2 e5 bd cc ec 6b bd
       0.010249156 -0.16255173 -0.112156406 -0.057598874
000140 58 68 82 3c f9 fe 36 be b1 06 29 3d 63 2b ed 3d
       0.015918896 -0.17870702 0.041266147 0.11580541
000150 f4 9a 13 be fe 60 58 3e d4 aa 97 3d 4b 33 16 3e
       -0.14414579 0.2113075 0.0740563 0.14668004
000160 79 4a 40 3e fe 3a 8c 3c d5 6f f4 3d 2b fd ca bd
       0.18778409 0.017117973 0.11935393 -0.09911569
000170 c0 3f 10 be e1 69 b8 3d ce 3c d9 bc 1a 71 66 3d
       -0.14086819 0.0900457 -0.026518252 0.056260206
000180 80 b5 95 bd 5f 97 40 be 76 86 bc bd 54 a1 57 be
       -0.07310009 -0.18807743 -0.09205334 -0.21057636
000190 9b 32 a4 3d 9a a1 36 3e b3 f8 ff bd 53 32 3f be
       0.08017465 0.17835084 -0.124986075 -0.18671541
0001a0 ca 48 c6 bd fe d1 05 3e 9d 79 2a 3e 07 2b 00 3e
       -0.09681852 0.13068387 0.16647954 0.12516414
0001b0 44 1a 29 be 49 9c ce 3c 07 84 23 bd 31 37 01 3c
       -0.16513926 0.025221007 -0.039920833 0.007886694
0001c0 d8 92 1e be 37 39 49 bd 45 2a 5a 3c f0 31 26 be
       -0.15485704 -0.04912683 0.013315742 -0.16229987
0001d0 5f 36 ef bd eb a0 55 3e 33 f9 0a 3e 75 70 21 3e
       -0.11680292 0.20862167 0.13571624 0.15765555
0001e0 ad a0 6b be 04 c2 ce bd 11 84 52 3e e3 96 4b bd
       -0.23010512 -0.10095599 0.20558192 -0.049704444
0001f0 8c 58 20 bd 67 ed a3 bc 28 9b 26 3e 22 88 09 be
       -0.039146945 -0.020010663 0.16270125 -0.13430837
000200 a1 73 02 be ff 92 d9 3c 6a a5 09 bd 75 fa 7f bd
       -0.12739421 0.026559351 -0.033605017 -0.062494714
000210 31 3a 1d be 54 84 50 3e 19 e0 27 3d 95 5c b2 3d
       -0.1535423 0.20362979 0.0409852 0.08709065
000220 f2 cc 5b bd 16 ae 42 3d bd 5b 3b 3c 67 a8 f9 bc
       -0.053662248 0.047529303 0.011435446 -0.030475808
000230 6a cd 07 be f7 45 88 3d 70 4b 07 3d 60 aa 16 3e
       -0.13261953 0.0665397 0.033030927 0.1471343
000240 6e b5 b0 bd 4b 2e 62 bd 0f 44 29 3e 26 72 14 be
       -0.08628355 -0.05521993 0.16529869 -0.14496669
000250 fb 2d 34 3d 7d 48 6d 3c 60 69 06 bd 69 6b 5a bd
       0.043989163 0.014482615 -0.032815337 -0.05332509
000260 5b f8 93 3d b3 d1 cc bd f8 23 40 be 19 81 27 be
       0.072251044 -0.100009345 -0.18763721 -0.1635784
000270 af 78 29 3d e8 25 55 3d 16 a1 a4 bc 9b 91 5d 3d
       0.04137486 0.052038103 -0.020096343 0.05409394
000280 89 e4 fb bd 33 59 82 bd 9d f4 1c 3c f2 38 3f 3e
       -0.12299449 -0.0636467 0.009579805 0.18674067
000290 ad 69 df bd 10 d3 64 3c 9b a6 52 3d 20 6f 24 3e
       -0.10908828 0.013966337 0.05142842 0.16058016
0002a0 d6 cd 19 3e e8 90 16 be 86 3d f1 3d 0a 17 c7 3d
       0.15019926 -0.14703715 0.11779313 0.09721191
0002b0 31 c7 43 3e af bd 25 bd c7 ee 3c bc da a6 de bd
       0.19118954 -0.0404641 -0.011531538 -0.10871668
0002c0 0c 87 6d bc 39 8a a8 bd 53 1d 12 bd c9 34 3d bd
       -0.01449753 -0.08229489 -0.035672497 -0.046192918
0002d0 a8 13 81 bd 7e 46 ce bd a8 b3 97 3d b6 92 2d be
       -0.06302577 -0.10072039 0.074073136 -0.16950497
0002e0 65 e9 06 3e 3a 49 67 3b 1d cc a5 bd 91 0f e2 bc
       0.1317497 0.003529145 -0.08095572 -0.027595313
0002f0 09 76 9c bd 08 cb 02 3e 9e 2a 9b 3d 45 da ba bd
       -0.07639701 0.12772763 0.07576488 -0.09123663
000300 be 0a f5 3d 07 27 99 3c 6e c1 c1 3d 4c 7e 39 3d
       0.119649395 0.018695368 0.09460722 0.04528646
000310 de 9d f2 3d e4 07 7a 3d 61 fd 29 3e 78 18 83 3c
       0.11846517 0.06104268 0.16600563 0.016002879
000320 b5 34 da 3c e6 a4 4e 3d 71 9c a5 3d 83 ff 04 be
       0.02663646 0.05045023 0.080864795 -0.12988095
000330 80 52 71 3d 4c bb cc 3d 80 f1 57 3d bc ef 22 bd
       0.05891657 0.099966615 0.052720547 -0.03977941
000340 91 27 fc bd ab e3 09 3d da 5d 1b 3d bf 6f 17 3e
       -0.12312234 0.033664387 0.0379313 0.14788722
000350 db 0e a5 bd cc e6 41 be 33 29 4f 3c 07 da 20 be
       -0.08059474 -0.18935698 0.0126441 -0.15708171
000360 3c 48 d2 3d ca 85 17 bd 57 99 fe bd cd 44 ef 3d
       0.10267684 -0.036992826 -0.12431591 0.116830446
000370 e2 cf 05 3d 55 56 95 3b b3 08 cd bd 06 24 c6 3d
       0.032668956 0.0045574107 -0.10011425 0.0967484
000380 c1 21 00 be 6b 9a c0 3d da 15 69 bd 1b 35 d7 bd
       -0.12512876 0.09404453 -0.056905605 -0.10508176
000390 7d bc ad bd dc 5b 28 bd 2b 3b 80 bc 4e c5 ee 3c
       -0.08483217 -0.04110323 -0.015653213 0.029146817
0003a0 1f 7a d1 3b 86 0c f5 bc cf fc b7 bd 63 85 bd 3d
       0.006392732 -0.029913198 -0.08983766 0.09253957
0003b0 03 86 ef 3c c3 23 a1 bc aa 86 51 bd d3 80 f7 bd
       0.029238706 -0.019670373 -0.051153816 -0.12085118
0003c0 f8 4a 40 3d cd e0 77 3d 52 78 35 be 3a ae ba bd
       0.046946496 0.06051712 -0.1772168 -0.09115262
0003d0 c1 b5 b8 3d fe 06 08 bd ad f1 29 3d 6c 28 2b be
       0.09019042 -0.033209793 0.041490246 -0.16714638
0003e0 1e 5a 14 3e ab ec 04 be a7 56 3c be a0 4d f8 bd
       0.14487502 -0.12980907 -0.1839243 -0.12124181
0003f0 84 7c 93 bd 73 4f 0b 3e 54 4c 01 bd a1 fc 5f ba
       -0.07201484 0.13604526 -0.031566933 -0.00085444195

bias f4 [10]
000000 bf ff 67 be 6a 28 5c bd c5 f7 00 3e 99 b6 e2 3d
       -0.22656153 -0.05374948 0.12594517 0.11069984
000010 03 7b 01 3e d0 f2 03 be 33 5d c8 3d a7 e4 a5 3d
       0.12644581 -0.12885594 0.09783401 0.081002526
000020 d0 94 b4 bd 86 ff 05 3d
       -0.08817446 0.03271439
