Pytorch/model_data/CIFAR10_EPOCH18.pth (torch, 588839 bytes, 10 tensors)

weight f4 [32, 3, 5, 5]
000000 db 76 bb bc 0f 6c 43 bd 50 a3 4e bd 8b 49 02 be
       -0.022883823 -0.047710475 -0.050448716 -0.12723367
000010 61 da 2e bd 34 d9 27 be e0 75 0a be ab 6d d6 3d
       -0.04268873 -0.1639145 -0.13521528 0.10470136
000020 c6 84 49 bd 0b 7f e2 bd 10 d5 17 be 38 ae 8a bd
       -0.04919889 -0.11059388 -0.1482737 -0.06771511
000030 14 0d 15 3e d2 f6 d0 3d 76 37 42 be ef 10 94 3d
       0.1455577 0.10203327 -0.18966469 0.07229792
000040 2e cd da bd 8d 74 ca 3d 28 01 1b 3e 62 df 19 be
       -0.10683666 0.098855115 0.1513716 -0.1502662
000050 b1 02 4e 3d 22 2b d6 bc 7d fc 26 3e 8d 90 05 3e
       0.050295535 -0.026143614 0.16307254 0.13043423
000060 79 9e 06 be 12 26 e6 bd 5d 06 34 3d a0 b2 e7 3d
       -0.1314639 -0.1123773 0.04395138 0.11313367
000070 f0 9b 6f bd f7 32 36 be ab 9d 87 bd 0d 62 ac 3d
       -0.058498323 -0.17792879 -0.0662187 0.08417139
000080 1f 44 a5 bd eb d0 83 3d ac a6 44 be eb 2b 23 bd
       -0.08069634 0.06436332 -0.19204205 -0.039836805
000090 19 9d 21 bd d0 99 a0 3d 0c e7 ec 3d 9e 33 fb 3c
       -0.03945646 0.078418374 0.11567506 0.030664261
0000a0 40 aa 32 3d 96 db cc bd 07 71 15 3d 48 6f 24 3e
       0.043619394 -0.1000282 0.036484744 0.16058075
0000b0 37 66 07 3b d6 ef 09 3d ac 4b df 3d 5a e0 4f 3e
       0.002066029 0.03367599 0.10903105 0.20300427
0000c0 df 68 34 3e dc ea eb 3c b1 1e 85 bd 58 bb 8a bd
       0.1761813 0.028798513 -0.064999945 -0.06774014
0000d0 12 d5 f4 bd c6 11 7c bd 1c a4 48 be fd e0 98 bc
       -0.119547024 -0.061540388 -0.19593853 -0.01866197
0000e0 d6 61 20 3d 38 24 60 bc 5e e2 65 3d a4 11 39 be
       0.039155804 -0.01368051 0.056124084 -0.18073136
0000f0 30 02 6e 3d 93 3b 60 3d 89 58 99 3c 88 58 cd 3d
       0.058107555 0.054744314 0.018718975 0.100266516
000100 f0 26 15 be 52 d0 06 3b f4 4f 38 3d e4 09 30 3e
       -0.14565635 0.0020570946 0.044998124 0.17191273
000110 42 12 1c bc d3 c9 19 be f8 6a 7a 3d 02 5c ff 3c
       -0.009525837 -0.15018396 0.06113717 0.031171802
000120 c9 f9 33 3e 91 a1 2d 3e 31 2f aa 3d 49 e1 92 3d
       0.17575754 0.16956164 0.08309782 0.07171876
000130 7b 41 da 3d 08 c5 26 3e 86 2e 8a 3d d4 91 1c bd
       0.10657021 0.16286099 0.06747155 -0.03822501
000140 3e 41 f2 bb e9 9c 9f 3d 86 6a 78 3c 89 9d 33 be
       -0.0073930314 0.077936 0.015162116 -0.17540564
000150 8f 9c 09 be db 37 05 3e 1a 0d 2b be 38 17 eb 3b
       -0.13438629 0.13009588 -0.16704217 0.0071743988
000160 7f 47 1d be 74 49 ca 3d 47 30 c5 3c 83 63 b0 bc
       -0.15359305 0.09877291 0.024070872 -0.021531826
000170 9b 1a 51 3c 70 5d 09 3e 8b 00 2b bd f6 5a ca 3c
       0.012762691 0.1341455 -0.041748565 0.024701577
000180 c0 68 b7 3c fb ca 05 3d 52 67 bb 3d 7a 05 7d bb
       0.022388816 0.03266428 0.09150566 -0.0038608
000190 f5 13 86 3d 60 29 e8 3d 49 f4 c1 3d e1 12 23 3d
       0.06546775 0.11336017 0.09470422 0.039812926
0001a0 47 41 47 be 17 77 fb 3d 8c 09 c3 3c 48 95 74 3c
       -0.19458495 0.12278574 0.023808263 0.01492817
0001b0 2d c2 60 be 4a f5 4c be 6c ec 89 bd 4e 4d 2c be
       -0.21949072 -0.20015445 -0.06734547 -0.16826364
0001c0 b5 85 87 bd ff d2 93 3c 78 33 f1 bd 8a 17 e9 bc
       -0.066172995 0.018044947 -0.11777395 -0.028453607
0001d0 42 24 eb bc 3f a4 ea 3b 51 21 74 bb ad 9b 2a 3c
       -0.028703813 0.007160693 -0.0037251303 0.010413093
0001e0 87 de 26 bd 87 1b 46 3d 87 fb cf 3d 62 0c e0 bb
       -0.040739562 0.048366096 0.10155397 -0.0068374136
0001f0 5e 1c 86 bd 40 e0 97 ba dd eb 9f 3d 01 06 2c 3e
       -0.06548379 -0.0011587217 0.07808659 0.16799165
000200 40 35 9b bd d4 9e bd 3c 99 86 3f 3d 55 cf f1 bb
       -0.07578516 0.023147024 0.04675922 -0.007379452
000210 fa 03 a7 bd 0d 1b 1d be a5 11 8f 3d 5c d9 08 3d
       -0.08155055 -0.1534235 0.06985787 0.033410415
000220 2f 65 68 bc 3a b9 13 bd ce 68 c4 3c e9 05 c7 3d
       -0.01418428 -0.036065318 0.023975756 0.09717924
000230 4f e4 4a bd 53 fd a1 bd f9 30 f5 3d e4 82 98 3d
       -0.04953414 -0.07909646 0.119722314 0.074468404
000240 c6 9c 8b 3d d6 a4 9d bd b0 d0 92 bd 59 1b 09 3e
       0.068170115 -0.076974556 -0.0716871 0.13389339
000250 03 f8 ab bd 36 cf 3d 3c 39 83 00 3e 65 e9 08 3d
       -0.08396914 0.0115850475 0.12550057 0.033425707
000260 1b 25 e9 bd 1f c7 c6 bc 73 f1 f3 bd 36 57 8d bc
       -0.113840304 -0.02426487 -0.11911287 -0.0172535
000270 b7 62 95 3c 3c 81 4e be 5c fd 44 be d3 04 0c be
       0.018235547 -0.20166487 -0.19237274 -0.13673715
000280 97 71 10 be 52 c5 04 3d d1 36 fe bb 7b 29 aa bd
       -0.14105831 0.03241474 -0.0077579995 -0.08308693
000290 0e 7c 53 bd 83 d2 3c be 9d 27 c7 bd dd 04 f9 bd
       -0.05163198 -0.18439679 -0.097243525 -0.12159131
0002a0 8f 5f c7 bd f5 1a 19 be 7d ee 01 3d a8 cb 50 be
       -0.09735023 -0.1495169 0.03172158 -0.20390189
0002b0 f2 bf 70 be 14 73 43 be 40 a0 24 be 2c 9d 89 bc
       -0.23510721 -0.19086868 -0.16076756 -0.016798578
0002c0 6b ca f0 bd 53 f0 61 3d 35 8e 47 3d 5b 51 59 3d
       -0.11757358 0.05516083 0.048719604 0.053056102
0002d0 b6 1d 30 3d 7d 88 4c bd c1 49 03 3c 3b 3f c6 3c
       0.042997085 -0.049934853 0.00801319 0.024200073
0002e0 ea ba c9 bd 85 50 f2 3b 84 fd ff bc 3f b6 c9 3d
       -0.09850104 0.0073948526 -0.031248815 0.09849214
0002f0 2b 5d 10 3e 4f 13 66 bc 79 0d ad bd 7a 4c 35 3e
       0.14098041 -0.014042689 -0.08449835 0.17704955
000300 eb dc 21 3e 75 78 bc 3d 69 1c cb 3b 2a fc af 3d
       0.1580693 0.09202663 0.006198455 0.08593018
000310 55 1d 90 bd 2d 16 22 be 05 51 b1 bd c3 3c 71 bd
       -0.07036845 -0.15828772 -0.086580314 -0.058895838
000320 5d c9 f1 bd 07 35 01 bd 66 98 dc 3d 98 14 42 3d
       -0.11805985 -0.03154471 0.10771255 0.04738292
000330 bf 04 f2 3d 02 57 85 bd a7 19 98 3b be f4 d7 3d
       0.118173115 -0.06510736 0.00464173 0.10544728
000340 0c 99 3e bd 15 6d 1a 3e 67 6f ab 3d a7 d3 e7 3d
       -0.046532676 0.15080674 0.08370858 0.11319666
000350 8e 4e d9 3d 72 42 81 3e da 1b 53 3e 93 00 52 3d
       0.10610686 0.25246006 0.20616093 0.05127008
000360 4b c3 66 3e 91 28 8b 3e 11 dd 34 3e 0a 6c 19 3e
       0.22535436 0.27179387 0.17662455 0.1498262
000370 b0 1d c1 3d b0 4d 2a 3d d4 87 ad bd 5a 1a b5 3d
       0.094294906 0.041577995 -0.08473173 0.08842917
000380 41 66 e1 3d 26 de 9e 3d ef 65 7a 3c a0 1d 23 bd
       0.110058315 0.07757215 0.015283092 -0.039823174
000390 16 16 22 3d 72 39 d0 bd 8c 1f 70 3d d5 08 88 bd
       0.039571844 -0.10167207 0.058623835 -0.066423096
0003a0 05 8d 41 3d d6 49 bc 3d 40 11 bd 3c a1 36 b1 3d
       0.047253627 0.091937706 0.023079515 0.08652998
0003b0 e1 04 e1 bd a7 58 94 bc b4 70 db bc c2 79 ff 3d
       -0.10987259 -0.018108679 -0.02678714 0.12474395
0003c0 c2 be 60 3d 00 a9 28 3d 6a 90 13 3d 3d d3 25 3e
       0.05486942 0.041176796 0.036026396 0.16193862
0003d0 19 e2 a7 3d cc 79 f0 bc 42 13 04 be 3e be ea bd
       0.081974216 -0.029354952 -0.12897971 -0.11462067
0003e0 47 98 2b 3e e1 ef f4 bc e1 23 01 3c 15 6c 0b 3d
       0.16757308 -0.02989954 0.007882089 0.034038622
0003f0 26 cb b2 bd 8f 28 f8 3d 8e 2e 88 bd 54 d5 7f bc
       -0.08730154 0.12117111 -0.066495046 -0.015614826

bias f4 [32]
000000 4e 0a 28 be c6 81 c8 bc 7d ef 27 3d aa 11 cf bd
       -0.16410181 -0.024475943 0.04099988 -0.10110791
000010 03 a6 82 bc 02 3a 45 3e df ed ad be 21 d8 c4 be
       -0.015948301 0.1926041 -0.33970544 -0.38446143
000020 3d 1b c5 bd eb fa 8f bc ac b0 02 3e 86 48 93 bd
       -0.09624336 -0.017575702 0.12762707 -0.07191567
000030 83 81 98 bd ae 10 cb bd bd 91 36 bc a2 5e bf bd
       -0.074465774 -0.09915291 -0.011143145 -0.09344222
000040 d8 3b a3 ba 45 96 b6 be a3 dc 0e bd 60 44 ad bd
       -0.0012453748 -0.35661522 -0.034878384 -0.08460307
000050 2a 82 9f bb 00 ec 90 3d 29 85 95 3d 24 36 16 3e
       -0.0048678117 0.070762634 0.07300789 0.1466909
000060 76 1f 9c be 9e 54 d9 3b 19 0f 2a be 20 42 8c 3e
       -0.30492753 0.0066324016 -0.16607322 0.273942
000070 9a 91 88 be dc 9c 20 3d 05 61 cb bd 11 49 c9 3d
       -0.26673585 0.039212093 -0.099306144 0.098283894

weight f4 [32, 32, 5, 5]
000000 dc e3 8c b9 e0 f2 47 bc 9e 1d a3 bc 4e 86 1a bc
       -0.0002687265 -0.012203902 -0.019911584 -0.009431435
000010 48 17 ee bc 58 39 14 3d 4a 82 05 3c 58 2c 10 3d
       -0.029063836 0.0361875 0.008148739 0.03519854
000020 0d 88 0f 3d 40 20 d4 3c 24 70 cc 3c c2 30 32 3c
       0.035041858 0.025894284 0.024955817 0.010875883
000030 2f 57 a2 bc 37 ce cb 3b d3 92 0d 3d cd b8 74 bb
       -0.019816963 0.006219651 0.03456385 -0.0037341595
000040 69 33 5f bc cd bb 6b bd 91 a1 04 bd b4 df c5 bc
       -0.013623097 -0.057552148 -0.032380644 -0.024154522
000050 e8 dd 03 3d a6 60 d1 3c 6d 52 dd 3c 0b ec e2 3c
       0.03219405 0.02555878 0.027016843 0.027700445
000060 d0 c5 04 3c ea 6c 1d bd 48 d9 34 3c 30 52 a7 bc
       0.008103803 -0.038433947 0.011038132 -0.020424932
000070 87 ac d3 3c 08 e7 33 bc 89 81 b0 bc f4 61 c2 3c
       0.025839103 -0.010980375 -0.021546142 0.023728348
000080 07 6e 73 3c fd ca 20 3c d4 82 d1 bc 6a ae 37 3d
       0.0148577755 0.009814021 -0.025575079 0.04484407
000090 0c be 3a bc 23 9d 1f 3c bb 54 51 3c 7d c7 ed 3c
       -0.01139785 0.009742054 0.012776549 0.029025787
0000a0 45 6b 92 3c 9b ad 2e 3d b2 d1 0b bc 6a c5 8c 3c
       0.017873416 0.04264603 -0.008533882 0.017183978
0000b0 f0 b9 f2 3c 04 65 98 3a 34 96 81 3d 28 1f 4d 3d
       0.029629678 0.0011626785 0.06327477 0.05007854
0000c0 13 df 2f 3d 69 61 b3 bc 24 ea fc 3c 91 a0 2b 3d
       0.04293735 -0.021897035 0.030873366 0.041901175
0000d0 35 21 f0 3b 99 94 d2 3c 7c f3 18 3d 4d 88 40 3c
       0.0073281773 0.025705623 0.03734158 0.011751247
0000e0 44 ae 04 bc 99 ce eb bc 65 30 62 3c 71 0d 84 3c
       -0.008098189 -0.028785037 0.0138054835 0.01611969
0000f0 c7 11 45 bd 7f 28 43 bc b8 95 99 3c 11 7e 22 3c
       -0.048112657 -0.0119115105 0.01874815 0.009917752
000100 0a e1 ef bc 30 45 ae 3b c7 c6 b7 3b da 53 36 bd
       -0.029282112 0.0053183064 0.005608413 -0.04451356
000110 71 81 65 38 a3 6d 25 3c 85 4b 33 bd f0 bb a6 3b
       5.4718406e-05 0.01009694 -0.043773193 0.005088322
000120 14 ee 47 bc ad 80 10 bc d8 c1 04 3d 69 6d a8 bb
       -0.012202758 -0.008819741 0.032411426 -0.005139996
000130 e7 47 bf 3c ca ac aa bc a7 26 f8 3b 2e f6 ae bc
       0.023349715 -0.020834345 0.007572967 -0.021357622
000140 37 3e 80 3c ef 18 4a bc 61 9a bd bb a5 2a 87 bb
       0.015654666 -0.012335046 -0.0057862257 -0.0041249567
000150 66 1b cf 3a 37 c9 5b 3c f4 44 96 3b 37 66 08 3d
       0.0015801012 0.013414673 0.0045858566 0.033300605
000160 66 b7 5f 3c 1b 52 01 3c c9 38 c8 b9 6d 30 1b 3d
       0.013654565 0.007893111 -0.0003818928 0.03788798
000170 6f e9 19 3d 1a d3 c7 3c 32 a5 ac 3c 16 7b 52 3c
       0.037576135 0.024392653 0.021074865 0.012846729
000180 fb ee bb 3c 89 8a 8d bc 47 b0 11 3c 9f bf 0a 3d
       0.022941103 -0.017277973 0.008892125 0.03387415
000190 e1 73 e1 3c 66 a6 97 bc 10 8c f2 bc 46 e8 6a bb
       0.027521076 -0.018511962 -0.029607803 -0.0035844012
0001a0 bd 6e c9 bb 15 bd a9 bc 20 a7 b8 bc 9b c5 97 bc
       -0.0061472342 -0.020720044 -0.022540629 -0.018526843
0001b0 3a 9e 5e bd dc 50 00 bc c8 73 a8 bb 61 0d 03 bd
       -0.054350115 -0.007831778 -0.0051407553 -0.03199518
0001c0 32 b0 03 bd 3b bc 9f ba 8b 83 0b bc b3 f9 cf bc
       -0.032150455 -0.0012186834 -0.008515249 -0.02538762
0001d0 72 42 01 3d 78 c0 f7 3c b8 03 43 3c 8d a3 3c bc
       0.031557508 0.030243143 0.011902742 -0.011513603
0001e0 49 40 25 3c 14 d4 f7 3b 9b be 89 3c 3e cb b0 bc
       0.010086128 0.0075631235 0.01681452 -0.021581288
0001f0 27 29 9e 3a c2 3d 9b 3c eb 5b 0d 3a c9 de a7 3c
       0.0012066708 0.018950347 0.000539242 0.020491974
000200 c1 f2 62 3d 07 42 ac bc 65 41 cb 3c c9 bf c2 3c
       0.05540729 -0.021027578 0.024811456 0.02377309
000210 6e cb 46 3d 2a 7b cb 3c 69 a4 c0 3a f9 63 8e 3c
       0.04853385 0.024839003 0.0014697436 0.017381655
000220 cf 6e 55 3d 32 d1 99 bc ce af d5 bc 13 0c 6c bc
       0.05210763 -0.01877651 -0.026084807 -0.014407176
000230 39 fd 88 3d 14 b7 16 bc 4e 90 46 bd ec 18 19 bd
       0.066889234 -0.009198923 -0.048477463 -0.037377283
000240 d4 ec e9 3c 7c 88 7f 3b 07 3c 6a bd 02 5b 95 3c
       0.028555311 0.0038991263 -0.057186153 0.018231872
000250 f3 88 87 3d 7f 85 1d 3b 32 90 14 3c 9f 67 3d 3d
       0.06617918 0.0024035869 0.009067582 0.0462414
000260 c0 86 06 3d 95 f2 26 3c bf 57 4e 3d 27 1a 6c 3c
       0.03284335 0.010189672 0.05037665 0.014410532
000270 37 c6 0c 3d 69 7e 18 3d 32 20 d9 bb dc 26 9c 3c
       0.03436872 0.03722993 -0.0066261524 0.019061498
000280 57 f2 0f 3b 5e 07 33 3c 8f 08 46 3c d4 2c 85 3c
       0.0021964514 0.010927049 0.012087001 0.016256727
000290 f1 3f c0 bb e4 44 ad 3c fc ea 2c 3b a9 40 46 3d
       -0.0058669974 0.021151014 0.0026385179 0.04840151
0002a0 34 59 cd 3b 3b ef 45 3a 7e 63 de bb f2 3a 12 3d
       0.0062667374 0.0007550602 -0.0067867627 0.035700746
0002b0 c1 f6 0c 3d d3 45 c4 bc 3f 6a 21 3d bc 7a f0 bc
       0.03441501 -0.023959076 0.039407965 -0.0293554
0002c0 e2 8f 11 bd da f4 cf bc 50 8f ef 3c 29 b9 1a bd
       -0.035537608 -0.025385309 0.029243141 -0.03777424
0002d0 bb 71 8c bc 21 d2 be ba 2d c9 c6 bb ea 95 d3 3c
       -0.017144075 -0.0014558473 -0.0060664625 0.02582832
0002e0 e9 e9 ee bc 89 e0 46 bb 6d c4 ac ba f2 e8 4a 3d
       -0.029164271 -0.0030346236 -0.0013181098 0.04953856
0002f0 a1 1c 2d 3d 79 4e 6e 3d b9 48 25 3d 46 4e e9 3c
       0.04226363 0.058180306 0.040352557 0.028479706
000300 b2 1d 81 3d f0 16 97 3d 28 66 6e 3d bc 0c 75 3d
       0.06304492 0.07377422 0.058202893 0.059826598
000310 b5 07 a2 3d 71 ad 33 3d 2c 72 3d 3d 1a 9c 65 3d
       0.07911626 0.04386658 0.04625146 0.056057073
000320 2b a2 1d 3c 08 a0 f2 3c 51 a3 f4 3b 6a a2 0f bd
       0.009621183 0.029617324 0.007465758 -0.035067
000330 c8 98 2a bc 59 2c 81 3c 62 b7 77 3a af 2c f8 bc
       -0.010412402 0.015768217 0.00094496284 -0.030294744
000340 8b 4e 6c bd ee fb b7 3a 0c 17 29 bb 77 f3 57 bc
       -0.057692092 0.0014036873 -0.002580109 -0.013180605
000350 01 ae e8 bc c1 e3 43 bd 8d 49 29 bd 42 aa a1 bc
       -0.028403284 -0.047824625 -0.04132991 -0.019734506
000360 37 01 12 3d 41 20 d4 3b f0 b3 8c 3d 1a 84 05 bc
       0.03564569 0.0064735715 0.06870258 -0.008149171
000370 49 4a 1d bd 74 88 20 3d 60 b9 7b 3c 2d d3 14 ba
       -0.038400922 0.03919263 0.015364021 -0.00056772196
000380 54 bf c5 ba 80 99 40 3c dc d7 3e bc cf ba 1a bd
       -0.0015086927 0.011755347 -0.011648145 -0.03777581
000390 6b e5 18 bd 9c 5d 3b 3c f2 6d d1 3c ef 18 49 3b
       -0.037328165 0.011435892 0.025565121 0.0030685028
0003a0 2d 7f 8b 3c 3a d8 cc bc 89 a2 8f bc f1 ae 8b 38
       0.017028416 -0.025005449 -0.017533557 6.660622e-05
0003b0 a4 81 08 3d e8 88 3c 3c 62 de 81 3c 9b c4 35 3d
       0.03332676 0.01150725 0.01585311 0.04437695
0003c0 98 ae 6e bc 10 48 b3 3c c7 db 88 3c 6a 7f 8b 3d
       -0.014567994 0.021884948 0.01670636 0.06811412
0003d0 dd ee 55 3d f0 7f 0d 3d 9e cf 96 3c c6 27 af 3c
       0.05222975 0.03454584 0.018409546 0.02138127
0003e0 cf 03 6e 3d 96 b1 37 3d 1e a8 b5 3b aa c5 92 bc
       0.0581091 0.044847094 0.005543723 -0.01791652
0003f0 12 fd a2 bc d6 cc 2c bc 3b 0d 2b bd 07 f9 6c 3d
       -0.019896064 -0.010546884 -0.041760664 0.05785468

bias f4 [32]
000000 e7 a7 da bc b3 23 cd 3c 03 45 00 be ad 19 98 bd
       -0.02669139 0.025041437 -0.12526326 -0.07426772
000010 84 23 aa 3c 6c f8 c2 bb df ff b5 3c 79 aa ba 3c
       0.020768888 -0.0059500244 0.022216735 0.022786366
000020 04 11 19 be 89 48 60 bd 80 47 6b be ec 4b 6e bd
       -0.14947897 -0.054756675 -0.22976494 -0.058177873
000030 43 df 03 3e 79 47 65 bd 6b 30 1b be e1 c6 11 bd
       0.12878136 -0.055976365 -0.15155189 -0.035590056
000040 a5 7e 37 bd 8d 47 85 3c a9 cc 0b be 8d 4a 03 be
       -0.044798512 0.01626947 -0.1365229 -0.12821408
000050 2b 95 da bd 10 a1 88 3c d3 2f 30 bd ef 71 29 3d
       -0.10672983 0.016678363 -0.04301436 0.04136842
000060 cb b9 f7 bc 6d c7 11 bd fd 09 2c bd 54 9e dd bd
       -0.03023996 -0.035590578 -0.042001713 -0.10821214
000070 4b d1 01 be ff 06 e5 bc 9c 10 e1 bd ff 39 f3 bd
       -0.12677495 -0.027957438 -0.10989496 -0.11876296

weight f4 [64, 32, 5, 5]
000000 78 9e 0b bd f0 9f c0 3c d3 cc 9e 3c ec 43 9d 3c
       -0.034086674 0.023513764 0.019384777 0.019197427
000010 a1 8a 0a 3d 0f 49 c2 3a 56 47 93 3c f8 5b 7d bc
       0.033823613 0.0014822799 0.017978352 -0.015463822
000020 4b 4e e1 bc 47 b4 0d bc 40 f6 99 bc 6c e2 ac 3b
       -0.027503153 -0.0086489385 -0.018794179 0.005276015
000030 e2 b6 ab 3c 5a ea a5 bc 31 3b 02 3c 15 c3 d2 bc
       0.020961229 -0.02025335 0.007948683 -0.025727788
000040 00 58 57 3c 62 35 06 bd 29 2e 98 3c 3c a8 2b bc
       0.013143539 -0.032765754 0.018576698 -0.010477122
000050 2e 5e e0 3c 8f 30 3c 3d d7 7e 4c bb c3 96 70 bc
       0.027388658 0.045944747 -0.0031203532 -0.014684382
000060 a9 62 f1 bc 43 a7 57 3c fc f9 75 bd b4 36 ee 3c
       -0.02946599 0.013162437 -0.060052857 0.029078819
000070 04 1f 8a 3c 19 f9 5a bb 67 59 9c 3c 53 88 26 bc
       0.016860493 -0.0033412634 0.0190856 -0.010164338
000080 cc ad 84 bb 17 b6 13 3c 2c d6 9d bc 02 ce 8e bb
       -0.0040490385 0.009015582 -0.019267164 -0.004358054
000090 8e e9 ee ba 8f 1a 78 3c 4a 25 a8 3b 3e 3c c6 bc
       -0.0018227564 0.015143051 0.0051313983 -0.024198648
0000a0 72 08 9b 3c 06 1b ad bc ed da 8c bc 07 08 39 3c
       0.018924925 -0.02113105 -0.017194236 0.011293418
0000b0 8d b2 03 bc d6 59 f4 bc 90 16 3d 3b 88 7c 03 bd
       -0.008038175 -0.029827993 0.002885256 -0.032101184
0000c0 d8 7f 49 3d d9 10 e9 3c f3 92 a9 bc be ad da 3b
       0.049194187 0.028450416 -0.020699954 0.0066735437
0000d0 8c cd a4 3c c0 8b 38 bd a7 ec 5e bb 23 8e 72 bd
       0.020117544 -0.04505515 -0.0034015568 -0.059217583
0000e0 3e 3f 73 bd 46 0a bf 3a 66 61 cd 3b 10 c6 d5 bc
       -0.059386484 0.0014575205 0.0062677143 -0.02609542
0000f0 53 99 1c bd 16 dc 4f bc 71 1c bf bb ac 5b 06 3d
       -0.03823216 -0.01268675 -0.005832248 0.03280227
000100 87 0e d9 3c 6f 50 8b bd 11 88 d6 3c 6a 3c 95 3c
       0.026496185 -0.06802451 0.026187928 0.018217284
000110 41 89 1c 3d d3 c2 1e 3d 98 b3 40 bc 32 4b 4b 3c
       0.038216833 0.038760018 -0.0117615685 0.012408065
000120 50 19 65 3d 12 6e 7b 3d 11 c5 80 3d cb b2 20 bd
       0.055932343 0.061384268 0.062875874 -0.03923301
000130 cc 40 03 bc f1 f9 18 bb 7d d0 9f bc 96 fa 10 3d
       -0.008011054 -0.0023342336 -0.019508595 0.035395227
000140 ba 7d 16 3c 5f e1 10 bd b4 ce f4 3b 2c 73 44 3d
       0.009185249 -0.03537118 0.00747093 0.0479614
000150 3c ae de 3b 88 77 85 ba 59 01 ab ba b3 02 8d bc
       0.0067956727 -0.0010182718 -0.0013046666 -0.017213201
000160 1f ef 48 bd a9 25 45 bd cc af 9e 3c fe fc 65 ba
       -0.04905617 -0.04813162 0.019370936 -0.00087733555
000170 bb 1a 89 3c 53 3a b6 bc 0b b9 35 bd e3 4e b4 3b
       0.016736379 -0.022244608 -0.044365924 0.005502568
000180 a5 e5 02 bd 79 c1 34 bd 27 5b c4 bb ae c5 20 bd
       -0.031957287 -0.044129822 -0.0059923115 -0.039251022
000190 5d 01 57 ba 47 85 cb 3a 33 b4 84 3c c9 42 9e 3c
       -0.0008201802 0.0015527391 0.016199207 0.019318955
0001a0 b7 31 e2 bc 82 08 e3 bc 14 94 3e 3d 34 d8 24 3d
       -0.027611597 -0.027714018 0.046527937 0.04024525
0001b0 93 29 01 bc c5 c2 bf 3c 72 1a a0 bc f1 d2 cb bc
       -0.007883447 0.023408303 -0.01954386 -0.024880858
0001c0 1c 7c 15 ba 33 b5 0e 3d 57 44 40 3b f7 fe 1d bc
       -0.00057023927 0.034840774 0.0029337609 -0.009643308
0001d0 bf 40 5e bc db 3a 9c bb f3 e5 a6 bb 54 43 b2 bc
       -0.013565241 -0.0047677583 -0.00509333 -0.02176062
0001e0 9a bd a5 bc d4 1a 3c bc 0d 45 8e bc ba 00 10 bd
       -0.02023201 -0.011481006 -0.01736691 -0.035156943
0001f0 30 f2 93 bb 17 fe 56 bc 2c b0 a6 3c a9 50 10 bd
       -0.004514955 -0.013122103 0.020347677 -0.035233174
000200 81 3a e6 bc 3d e5 fc 3c af 8d c0 bc 32 f2 b7 bb
       -0.028104069 0.030871028 -0.02350506 -0.0056135887
000210 76 73 56 bd a9 cc 4e bc 12 6c 9d bc 3c e0 0e bd
       -0.052356206 -0.012622037 -0.019216571 -0.034881815
000220 1e 7c 7b 3c bf 2f 00 bd bb 9d ab bc 6e 0e f8 bc
       0.015349416 -0.031295534 -0.020949235 -0.030280318
000230 4a 4a 81 3b ff f0 90 3c f5 75 db bc 9f ab 0b bd
       0.0039456235 0.01769304 -0.026789645 -0.034099218
000240 31 12 b6 bc a7 12 87 bc 51 f8 12 bd 7b 68 06 bd
       -0.022225471 -0.016488386 -0.035881344 -0.032814484
000250 e3 be a4 bc 88 eb d0 3b dc df e6 bc 32 03 04 3c
       -0.020110553 0.0063757338 -0.028182916 0.008057402
000260 01 cc 18 3c 21 85 16 bb fb 26 0f 3b 25 87 19 bd
       0.009325982 -0.0022967535 0.0021843303 -0.0374824
000270 ea a9 a7 3c b1 6f 08 3d a7 06 8f 3b ac 37 b0 bc
       0.020466764 0.033309642 0.0043648067 -0.021510921
000280 54 99 14 bd 19 95 a6 bb 4d 2a 07 bd 03 63 ed bb
       -0.036279038 -0.005083692 -0.032999326 -0.007244469
000290 65 e2 dc bc ce bc 04 bd 53 d3 44 bb 93 ed 61 3c
       -0.026963422 -0.03240662 -0.0030033186 0.013789552
0002a0 9c e6 ae 3b bf f9 2b 3d 93 05 f5 3c 7c 37 b3 ba
       0.0053375494 0.041986223 0.029909885 -0.0013673152
0002b0 ad 85 1e 3c b0 01 a1 bc 2f 78 7a bc 85 ba 0f bc
       0.0096754255 -0.019654125 -0.015287443 -0.008772497
0002c0 72 d3 46 bc da e3 88 3c 1c 5b aa bc ce a4 c2 bc
       -0.012135373 0.01671021 -0.020795397 -0.023760226
0002d0 a6 93 ff 3c fe eb f0 3c c8 81 b4 3c 2f 7d 99 3c
       0.031198334 0.029409405 0.02203454 0.01873645
0002e0 9b 3c ac 3c 3b 05 06 3b d7 be c4 3c 96 ae 24 3c
       0.021024993 0.0020449895 0.02401678 0.01005139
0002f0 db 72 06 3c db 00 98 bc d3 18 40 3b 9d d0 12 3d
       0.008206095 -0.018555095 0.0029311671 0.03584348
000300 7c 6e 28 3d da e7 fb 3c 9a c3 68 bc 19 30 ec bc
       0.04112099 0.030750204 -0.014206791 -0.028831528
000310 f9 6b b7 3b 85 f0 0a 3d 48 f9 bf 3b 5a f1 85 bc
       0.005597588 0.033920784 0.005858574 -0.016350437
000320 b5 d8 8e 3c d7 a1 ba 3c 90 b9 81 bc e5 e0 d2 bb
       0.017437318 0.02278225 -0.015835553 -0.006435501
000330 f6 49 a7 bb 35 ca 59 bc 99 f2 3b bc b5 a3 2f bc
       -0.0051052524 -0.013292839 -0.011471414 -0.010720183
000340 8f 89 91 bc 4f be c4 3c f4 87 30 bd ac cc c3 bc
       -0.017765788 0.024016527 -0.043098405 -0.023901306
000350 27 8c fb bc 44 37 89 3b 15 23 95 bc f0 2a 16 bd
       -0.030706478 0.0041874964 -0.018205205 -0.036662042
000360 0f e4 b0 3c dc 6c df 3b c7 21 35 bc 10 ff 23 3d
       0.021593122 0.006818397 -0.011055416 0.04003817
000370 0f 41 72 bd 92 2f e0 3c 05 06 8d bb cd 37 25 bc
       -0.059144076 0.027366433 -0.004303696 -0.010084105
000380 f0 15 81 bc ec de c1 3b 0f 81 0b bd f9 a9 91 b9
       -0.01575753 0.005916467 -0.034058627 -0.00027783195
000390 4a a2 2b bc 3e a5 80 3a 48 71 74 bc 4f c3 93 39
       -0.010475704 0.0009814871 -0.0149195865 0.0002818354
0003a0 a7 66 82 bc dd 68 37 bd 73 66 e6 bb 78 e2 fe 3c
       -0.01591809 -0.04477774 -0.007031256 0.031113848
0003b0 9d fa 01 bd 6c 2d 34 bc 6e c3 0e bd c5 56 a1 3b
       -0.031733144 -0.010997158 -0.034854345 0.004923674
0003c0 dd 10 e2 3c db 1b 3d bd 73 88 29 3c 5e b7 5e ba
       0.027595932 -0.046169143 0.010347473 -0.0008495952
0003d0 bb 24 66 bc 80 0d 39 bb d5 47 5e bd 7c 8a 19 bb
       -0.014046843 -0.0028236806 -0.054267723 -0.002342849
0003e0 ba 45 39 ba dc 0f 60 bd c0 37 87 bc 5e 51 51 bd
       -0.000706758 -0.054702625 -0.016506076 -0.05110299
0003f0 a0 33 b7 bc e1 d1 1e 3d d9 43 07 bb a8 08 be bc
       -0.022363484 0.038774375 -0.0020639806 -0.023197487

bias f4 [64]
000000 31 ce b2 bd 2f 21 e4 3c 2e 10 6d bd 5e d2 85 bc
       -0.08730734 0.027847854 -0.05787676 -0.016335662
000010 24 1e 19 be 5f 6c 3e bd 25 08 80 bd 2a 2a 6d bd
       -0.14952904 -0.04649007 -0.062515534 -0.05790154
000020 a6 5d c9 ba 09 50 3a 3c d1 46 96 bd c4 43 22 bd
       -0.0015362992 0.011371621 -0.07337726 -0.039615408
000030 85 01 b0 bd ce d7 68 bd 1c e1 1f 3d 38 6a 1f bd
       -0.0859404 -0.056846432 0.03903304 -0.038919657
000040 62 0b 49 bd 1b 20 24 bd fd 85 28 bd ed b0 27 bd
       -0.04908312 -0.04006968 -0.041143406 -0.040940214
000050 cb 8b d7 bc 32 b9 88 3b c9 91 5c bc 11 a0 59 bc
       -0.026311776 0.0041724676 -0.013462492 -0.013282792
000060 1e 39 49 bc e4 1e c9 bd 65 d7 05 bd d6 63 36 bd
       -0.012281684 -0.09820345 -0.03267612 -0.044528805
000070 4e 07 98 bd 1e c1 0b bd a8 9e db 3b 53 3e 46 bd
       -0.07423268 -0.034119718 0.006702263 -0.04839928
000080 75 87 56 bd 20 bb d8 3a da fe 9a bd 27 65 07 bd
       -0.052375276 0.001653526 -0.0756814 -0.03305545
000090 c3 a7 1f bd 7e 6d bf bc b1 cc 1c 3b e9 59 45 bd
       -0.03897835 -0.02336764 0.0023925717 -0.048181448
0000a0 8c a3 6b bd f6 da 0e be ec 00 05 be 83 06 70 bd
       -0.057529017 -0.13950714 -0.12988633 -0.05859996
0000b0 b0 a1 1f bc ec e3 a4 bd 6d f4 70 bb b9 03 8e bd
       -0.009743139 -0.08051285 -0.0036766783 -0.06934304
0000c0 16 c9 c0 bc ec 90 ad bd 23 0c b5 bd e0 81 0d be
       -0.023533385 -0.08474907 -0.088402055 -0.13819075
0000d0 65 d6 af bd 6f 54 33 ba 71 89 85 bd 7b 66 c5 bc
       -0.085858144 -0.00068408897 -0.065203555 -0.024096718
0000e0 b0 d9 db b9 15 7f 99 bd 14 7d 84 bd cf 50 6c bd
       -0.00041933125 -0.07494942 -0.06469169 -0.057694253
0000f0 ec 0d d7 bc 31 99 97 bd 9b d7 4a bd cf d6 2c bd
       -0.026251756 -0.07402266 -0.049522024 -0.042197045

weight f4 [64, 1024]
000000 01 24 03 bc 5d 27 4c 3d ce 5f 0a 3d f9 a8 38 3c
       -0.0080041895 0.049842227 0.033782773 0.011270755
000010 a5 57 74 3d e5 f5 33 3d 58 1e e9 3c 89 85 81 bb
       0.059653897 0.043935675 0.028456852 -0.003952686
000020 89 2e 32 39 c9 aa 23 bc a3 d4 23 3d a6 d8 76 3b
       0.00016992739 -0.009989449 0.039997708 0.0037665754
000030 75 76 92 bc 67 14 29 bc d1 77 f4 ba 9e dc 2f bb
       -0.01787875 -0.010319806 -0.0018651431 -0.002683438
000040 5d 9d d8 bc 3e ce 8b 3b 80 eb ae 3b 9b cb 2c 3b
       -0.026442224 0.0042665293 0.0053381324 0.0026366476
000050 f1 03 32 bd f5 29 ee bb 06 a1 1e 3d 00 0a 75 3c
       -0.04346079 -0.0072681853 0.038727783 0.0149559975
000060 87 be 5b bc 44 0c 25 bd bd d8 0c bd e5 34 51 bd
       -0.0134121245 -0.0402949 -0.034386385 -0.051075835
000070 5a 4a d5 3c 1f 62 ba bc f7 e7 61 ba da 83 09 3b
       0.02603643 -0.022751866 -0.00086176343 0.002098313
000080 a7 7c 41 3c 34 93 b4 3c 28 d7 5a bc e5 2e 90 3b
       0.011809505 0.022042848 -0.013356961 0.0044001215
000090 0b 52 25 3c 22 b3 01 bd f5 9b 5a 3a d5 00 1c 3b
       0.010090361 -0.031664975 0.00083392794 0.0023804207
0000a0 40 68 86 3c 74 c0 5e bc 5a b7 32 3d 8c cd f2 3b
       0.016407132 -0.013595689 0.04363189 0.007409757
0000b0 ee 79 c1 3c 7a 27 28 3c e6 a0 28 bc 27 55 2b 3d
       0.02361771 0.010263318 -0.010292267 0.041829254
0000c0 64 be 56 bc 80 43 b1 bc b5 09 00 3d da 91 55 bc
       -0.013106916 -0.021638632 0.031259257 -0.013035262
0000d0 2f 07 f8 3c db 32 b7 3b bc 33 29 bc 65 bb aa bb
       0.030276863 0.0055907792 -0.010327276 -0.0052103275
0000e0 00 46 94 3d 04 00 00 3b d8 0a 47 ba be ac 0a 3d
       0.07239914 0.001953126 -0.00075928634 0.033856146
0000f0 9e 29 58 3d 47 9f d6 3c 1c a6 3c 3d 00 8b 55 3d
       0.052774064 0.026198996 0.04605685 0.052134514
000100 9a f9 a3 bc 30 b4 76 3d 9f b6 41 bc 64 f3 a9 3c
       -0.02001648 0.060230434 -0.011823325 0.02074594
000110 34 ce 0b 3d c8 8c 97 3c 2b e4 66 bc f3 67 31 3d
       0.034132197 0.018499747 -0.014092485 0.043312024
000120 9a f2 1e bc 80 66 90 3a 7d ef 45 3d fb b8 25 3c
       -0.009701395 0.0011016876 0.048324097 0.010114904
000130 68 8e bd 3c 2f dd 00 bd 1f c7 d0 3b 96 d3 1b bd
       0.023139194 -0.031460937 0.0063713933 -0.03804358
000140 3c 28 de bb 34 c2 08 3d 38 c9 83 3c 26 0f 0e 3d
       -0.0067796987 0.03338833 0.01608716 0.034682415
000150 49 94 db bc 5c f4 b8 3c 6f 30 49 3c e4 b1 68 3c
       -0.026804106 0.022577457 0.012279614 0.014202569
000160 20 a6 8a 3c f8 20 2d 3c 2b 3c 9c 3a ff 9d c7 bc
       0.016924918 0.010566942 0.0011919787 -0.02436733
000170 bb 72 82 bc d1 1f be 3b ea e6 36 3c d5 9d c9 3c
       -0.015923848 0.0058021327 0.011163453 0.024611393
000180 ee 33 b8 bb dd 56 07 3d ac 6d 19 3d a8 4c ff 3b
       -0.005621425 0.033041824 0.037458107 0.0077911206
000190 76 3b c7 bc bf 2c 17 bb 0f 37 0c bd aa eb 6c bd
       -0.024320345 -0.0023067442 -0.034232195 -0.057841934
0001a0 3c b0 7c 3c 19 b7 07 3d 59 54 68 bc 38 8b 38 3d
       0.015422877 0.0331336 -0.014180266 0.045054644
0001b0 59 08 54 3b 79 9a 65 3d fb 69 77 ba 68 16 bd 3c
       0.0032353608 0.05605552 -0.00094380946 0.023081973
0001c0 c0 bf a1 3c 9d 7a d8 3b 61 d9 2e 3c 9d c1 6b bb
       0.019744754 0.0066064135 0.010671944 -0.0035973557
0001d0 77 3a 89 bc f0 19 ed bc 8a d9 cf bc c9 b7 f9 3b
       -0.016751511 -0.028943032 -0.025372285 0.007620786
0001e0 ed 79 f1 bb 84 73 5e bd af 48 0d 3b fd 5f 65 bc
       -0.007369271 -0.054309383 0.0021558215 -0.013999936
0001f0 73 7e ad bc 70 c1 d3 3c f8 7e 83 bc b1 b7 d1 3c
       -0.02117846 0.025849074 -0.016051754 0.025600286
000200 9c 42 65 3c 3d 69 2c bd 16 02 51 bd f8 58 1e bd
       0.013992932 -0.04209255 -0.05102738 -0.038659066
000210 be 9b 7a 3d 54 a6 c6 3b 4c e8 75 bc cf e6 49 bd
       0.061183684 0.0060623083 -0.015008997 -0.04929238
000220 67 7a 9d bb 00 ca a5 3b d8 f8 f0 bc 9a b5 d0 3c
       -0.0048058513 0.0050594807 -0.029415533 0.02547722
000230 24 4b aa 3a 4f 78 6d bd 60 df cd bc 99 3d 2c 3d
       0.0012992364 -0.057976063 -0.025130928 0.04205093
000240 bb e7 9c 3c f0 9e b4 bc 32 bf e3 3c a1 b4 da bc
       0.019153466 -0.022048444 0.02780113 -0.026697459
000250 61 a8 ed 3a e7 54 63 ba 99 c8 df 3a fb cd bf 3b
       0.0018131846 -0.0008672014 0.0017073333 0.005853412
000260 c9 33 d1 3c 0f d7 9e bb e3 8f 8f bc 0b 2e ae bc
       0.025537388 -0.0048474143 -0.017524665 -0.02126219
000270 f6 8a 98 3b eb 2b 0d 3b 46 53 f6 bc 78 94 16 bb
       0.0046552373 0.002154107 -0.030069005 -0.0022976678
000280 57 4f c5 bc 0b d9 4d bd a7 9e 36 39 db 80 da bc
       -0.024085684 -0.050255816 0.00017415975 -0.026672771
000290 b0 50 e1 bc 74 86 84 bb c1 72 00 3d 73 60 81 bb
       -0.027504295 -0.0040443484 0.031359438 -0.003948265
0002a0 19 c6 b0 3c 3e fc 77 3c 47 bb 02 3d ea 42 71 3a
       0.021578835 0.015135823 0.031916883 0.00092033914
0002b0 b1 b5 37 3c 89 24 bf 3c 54 96 84 3d 35 0d 9f bc
       0.011212752 0.023332851 0.06473985 -0.019415477
0002c0 8b 8b f0 3c df 4c 30 bc c8 a8 76 bc cd 1d bc 3c
       0.029363414 -0.010760515 -0.015054889 0.022963429
0002d0 4e 42 94 bc a9 42 a7 3d f0 36 99 bc 8a 5e 1d 3d
       -0.018098023 0.08167011 -0.018702954 0.038420238
0002e0 67 ec 02 3c e3 fb df 3c 90 e6 00 bc 8b 06 cd 3c
       0.007990933 0.027341789 -0.00786747 0.025027534
0002f0 33 a5 ae 3c 27 47 35 3c 01 0c 47 3d ad dc bc 3c
       0.021319008 0.011064327 0.048595432 0.023054445
000300 f8 63 78 3c ad df 64 3d 9e 61 8b 3c 66 15 ef 3b
       0.015160553 0.055877376 0.017014321 0.007296252
000310 cc 1e 7c 3c 4a 07 0e bb be 45 0b 3d 34 82 0e bd
       0.015388202 -0.0021671825 0.03400206 -0.03479214
000320 37 fe 95 3c 7d b3 c4 3c 91 36 47 bc 45 73 be bc
       0.018309696 0.024011368 -0.012159006 -0.023248324
000330 48 35 f6 3c a7 5d c7 bc 71 55 8f 3c d4 35 11 bd
       0.030054703 -0.02433665 0.017496796 -0.035451725
000340 83 90 10 bd 06 7a e0 3b 39 e4 5b bb 7f 0d 6b 3d
       -0.035294067 0.006850484 -0.003355278 0.057385918
000350 41 97 bc bc 06 1c 2f 3d 67 b0 58 3c c6 aa 67 3c
       -0.023021342 0.042751335 0.013225651 0.014139837
000360 e3 c9 a1 3b 7e ad 6b bc a5 27 0a bd a6 8b c2 3c
       0.004937397 -0.0143846255 -0.033729214 0.02374823
000370 8c be 4e 3b d7 03 a0 bc 60 50 91 3b 9e 26 65 3c
       0.003154668 -0.019533081 0.0044346303 0.013986258
000380 b0 4e 0a bd f8 44 c7 ba a4 ec ff bc 88 0d 8e bc
       -0.03376645 -0.0015203049 -0.031240769 -0.017340437
000390 98 ed 82 3b 42 02 6f ba 4d 7c 6b bc f8 47 cb bc
       0.0039956085 -0.0009117463 -0.014372897 -0.02481459
0003a0 12 a4 2d 3d 6a 57 93 3c d8 19 31 bc 50 69 5c bc
       0.042392798 0.017986018 -0.010809384 -0.013452843
0003b0 c1 b1 b2 3c 15 ae cf 3c b4 66 56 3c 6e 6a 9f 3c
       0.021813275 0.025351563 0.01308601 0.01945993
0003c0 53 e0 a7 bb d6 05 12 3d 31 54 7d 3b ac c1 f4 3a
       -0.005123177 0.035650097 0.0038654918 0.0018673441
0003d0 4b ce 9b 3b ea 2e 3b bb 64 97 ac bc 7c ae b2 bb
       0.0047548166 -0.0028561899 -0.021068282 -0.005452929
0003e0 0c 00 c7 3a be 67 02 bd 01 ad 81 3c 77 72 c9 3b
       0.0015182509 -0.031837218 0.015829565 0.0061476785
0003f0 1b fd 07 3d 17 a1 85 3d 24 2f a5 3d f1 da 6d 3c
       0.033200365 0.06524866 0.08065632 0.014517532

bias f4 [64]
000000 83 ce bf bc 58 ce 34 ba 9e 40 25 bd 11 1a 8b bc
       -0.023413902 -0.00068972027 -0.040344827 -0.016980203
000010 ad ea 34 3c 0c e2 97 3c 19 55 ee 39 8c de 01 bd
       0.011042279 0.018540405 0.000454583 -0.031706378
000020 9d 17 6c 3c 04 5a 5b bd 84 63 80 3b ce 7e 34 3b
       0.014409927 -0.053552642 0.003918113 0.0027541402
000030 7b bb 7e 3b 54 dc 25 3d f2 fa 61 bc a5 1f 16 bc
       0.0038869071 0.040493324 -0.01379274 -0.009162818
000040 73 ce b1 3c fb 76 df 3c ec 48 90 bd fc b3 98 bb
       0.021704888 0.027278414 -0.07045159 -0.0046601277
000050 4f 3e 19 bb d9 28 49 bc 1a 82 40 bc 0c 3f 51 3d
       -0.0023383086 -0.012277805 -0.011749769 0.051085517
000060 b3 f4 94 3c a1 0b 41 3d 7a 04 b3 3c 45 b1 00 3d
       0.018183088 0.04713023 0.02185272 0.031419057
000070 16 e2 4a 3d 63 95 05 3d 9c f7 7e bc 31 89 8f 3b
       0.04953202 0.03261317 -0.015561964 0.004380368
000080 9c 74 27 bd 4d 64 1a 3d ea 3c 57 3b 08 3e 45 bc
       -0.04088269 0.03769331 0.0032842704 -0.012038715
000090 75 39 53 bc f0 7e d9 3c 7b ea 4b bd 27 96 9b bb
       -0.012892117 0.026549786 -0.049784165 -0.004748124
0000a0 fd 64 4f bd 0c 11 50 bc 9b bc f0 bb 62 88 bb 3c
       -0.05063342 -0.012699377 -0.0073467023 0.02289218
0000b0 04 41 e9 3a 49 77 cd ba a5 e2 3c 3d 71 13 04 bd
       0.0017795865 -0.0015675809 0.046114583 -0.032245103
0000c0 2c 27 92 3d d0 68 8a 3c 3b 09 14 bc 99 a2 d8 bc
       0.07136378 0.016895682 -0.009035404 -0.02644472
0000d0 3b a8 20 bd 08 c0 24 3b 0d 25 3d 3a 3d 21 64 3c
       -0.039222937 0.0025138874 0.0007215299 0.01392394
0000e0 f8 dd 7c 3d 8d e2 a7 bc 0f d5 0e bc db 50 a3 3c
       0.061735123 -0.02049377 -0.008717789 0.019936016
0000f0 97 4f 77 bd 21 d3 3a bb 6b 11 25 3c 62 6a 5a bd
       -0.060378637 -0.002850719 0.010074954 -0.05332411

weight f4 [10, 64]
000000 54 b8 8d 3d 73 44 5c 3d dc 2d 0b 3e fb c6 58 be
       0.069199234 0.053776216 0.13591713 -0.21169655
000010 66 78 32 be 73 f8 34 3e d6 cf 8b be 74 ff 95 3e
       -0.17428741 0.17672901 -0.27307004 0.29296458
000020 63 58 d8 bd 8d 36 4d 3c 52 59 06 be 08 2d 4c 3d
       -0.105637334 0.012525213 -0.1312001 0.049847633
000030 0d 66 d3 3b 47 03 db bd 8a 18 04 bd 30 d0 26 bd
       0.0064513744 -0.106939845 -0.032249965 -0.040725887
000040 a4 bd ee 3c 57 c6 80 be a8 da f1 3c b5 9e 4e 3d
       0.029143162 -0.2515132 0.029523209 0.050444324
000050 82 23 27 bc 25 ab bc bd 7e 10 e5 bc d9 3c 62 3d
       -0.010201337 -0.09212331 -0.027961966 0.05523381
000060 f8 e1 78 3a a2 5d 2c be 66 0c fb bd 1b 06 31 3e
       0.0009494121 -0.16832593 -0.12258224 0.17287485
000070 8b a4 85 be 92 03 31 be 47 d2 3c bd 75 10 b2 3c
       -0.261021 -0.17286518 -0.046098974 0.021736363
000080 bd 45 cc bd 7e a3 ff 3d 77 9c c6 bb 2f 3f a1 3e
       -0.09974239 0.124823555 -0.0060611325 0.31493518
000090 f9 59 3d 3e 74 35 ff 3d 3c 89 65 3d 1f c3 a2 be
       0.18491353 0.12461367 0.05603908 -0.3178949
0000a0 08 50 2f 3e 63 13 bf bd a3 50 1e be 2a dc 14 be
       0.17120373 -0.093298696 -0.15460448 -0.14537111
0000b0 c5 0b a8 3d e6 fd a5 3d 65 8f 22 be 75 bd 06 be
       0.0820537 0.08105068 -0.15875013 -0.1315821
0000c0 0d c8 85 be f2 85 a4 bc a6 d2 16 3e dd ac 33 3e
       -0.2612919 -0.020083401 0.14728794 0.17546411
0000d0 6b 1a 31 be c9 5d c5 bd 3c 4e 29 bc 56 d5 97 3c
       -0.17295234 -0.09637029 -0.010333594 0.018534344
0000e0 e7 1f 5f bd 79 4c d8 bb 9f 90 83 bd cc 14 d4 bd
       -0.054473784 -0.006600913 -0.06424069 -0.10355529
0000f0 2e a3 0e 3e 92 a9 7d be a3 22 e4 3d 85 e0 81 3e
       0.13929436 -0.24771717 0.11139419 0.25366607
000100 53 e0 6d 3e 54 c8 46 be a4 a3 56 be 7f b0 68 3e
       0.23230104 -0.19412357 -0.20960861 0.22723578
000110 cc 29 14 bd 37 72 06 be fd 2c c1 bd 6a 46 bb 3d
       -0.036172673 -0.13129507 -0.09432409 0.0914429
000120 0a f4 32 3e 08 97 f9 bd 4e 51 b7 bd 56 29 00 be
       0.17475906 -0.1218701 -0.089510545 -0.12515768
000130 2f a8 93 3c 31 b0 59 be 59 87 06 be c5 e3 70 bd
       0.018024532 -0.21258618 -0.13137569 -0.058810968
000140 59 e1 45 3c e1 49 6c be 24 e4 4c 3d 44 80 26 3e
       0.012077653 -0.23075058 0.05002226 0.16259867
000150 11 9d 20 be 66 e2 a2 3e 46 a5 e5 3d 77 1b 4a 3e
       -0.15684916 0.31813353 0.11213164 0.1973704
000160 11 3d 88 3e a4 c5 2b 3d b0 11 3d 3e 21 a9 0b be
       0.2660909 0.04193653 0.18463778 -0.13638736
000170 e9 0e 41 be 41 ab 08 3e f9 4d 1d bd ec 51 62 3d
       -0.18853344 0.13346578 -0.03840444 0.055253908
000180 83 b9 ca bd 7e 5c 7c be 95 1d e4 bd 58 d0 9c be
       -0.09898665 -0.24644658 -0.11138455 -0.30627704
000190 c9 0c b6 3d 2a 1f 6d 3e 10 36 44 be ee 0c 51 be
       0.08889157 0.2315642 -0.19161248 -0.20415089
0001a0 54 d4 1b be 4a c9 47 3e 95 ac 6f 3e 57 23 3b 3e
       -0.15217716 0.1951038 0.23405679 0.182752
0001b0 d1 18 7a be eb 2b 40 3b 4a 63 4b bd 0f 88 1e 3d
       -0.24423529 0.0029323052 -0.049655236 0.038703974
0001c0 fd 53 4e be 83 8a 8e bd 33 83 6f 3c fa f3 61 be
       -0.20149226 -0.06960013 0.014618683 -0.22065726
0001d0 1d e7 08 be 9d d8 98 3e 1c 28 42 3e 0c 93 7a 3e
       -0.13369413 0.29852763 0.18960613 0.24470156
0001e0 8a 95 94 be 56 bd 12 be 51 b7 91 3e 6d 24 85 bd
       -0.2902034 -0.14330038 0.28460172 -0.06501088
0001f0 dc 9f 7e bd 59 e1 53 bc 2e 43 50 3e e7 e7 53 be
       -0.062164173 -0.012932145 0.20338127 -0.20693932
000200 0b c5 51 be c8 9c be 3c 02 42 c1 bc bf f1 06 be
       -0.20485322 0.023268119 -0.023591045 -0.13178156
000210 80 56 62 be 40 4c 9f 3e 22 01 8b 3d f5 09 2d 3e
       -0.2210331 0.31112862 0.067873254 0.1689833
000220 e2 79 9c bd 14 27 05 3d ec cd ec 3c f9 fa 5c bc
       -0.07640435 0.03250797 0.028906785 -0.013487571
000230 91 b6 26 be ce c7 0d 3d 60 e9 8d 3d a9 b1 7e 3e
       -0.16280581 0.034614377 0.069292784 0.2487246
000240 6f 92 be bd e9 9a c8 bd ae df 69 3e 2c 8c 7b be
       -0.09305274 -0.09795172 0.22839233 -0.2456519
000250 18 5b 97 3d 89 92 3f bc d0 a0 95 ba 61 54 98 bd
       0.07390422 -0.011692652 -0.0011415724 -0.07437969
000260 a0 94 89 3d 2a a2 33 be 98 ab 83 be 02 10 8c be
       0.06717801 -0.1754233 -0.25716853 -0.27355963
000270 3c d7 9b 3c ee a7 b5 3d e5 38 c6 bc a1 e5 23 3d
       0.01902353 0.08869921 -0.024197051 0.040013913
000280 1b 49 22 be 8d cc 9e bd ac c7 23 3c 4c c4 9b 3e
       -0.158482 -0.07753859 0.009996336 0.304232
000290 a2 24 45 be 51 65 3b 3d 54 d5 e0 3b d5 8c 78 3e
       -0.19252256 0.04575092 0.006861368 0.24272473
0002a0 25 04 78 3e 45 db 6a be 18 91 60 3e 35 a2 15 3e
       0.24220331 -0.22935207 0.21930349 0.14612658
0002b0 b0 ec 82 3e fe 8c 1a bd 2b 4c 58 bd 75 da 14 be
       0.25571203 -0.037732117 -0.052807014 -0.1453646
0002c0 3b 24 2c 3c 36 5d cf bd 77 da 11 bd 35 77 a7 bd
       0.010506685 -0.101252005 -0.035608735 -0.08177034
0002d0 01 0d 0e be 22 12 0c be 5a 1d 1d 3e 61 22 7b be
       -0.13872148 -0.13678792 0.15343228 -0.24524833
0002e0 a2 f9 82 3e 4b cd db bc 7a c1 0d be 10 93 09 bd
       0.2558108 -0.02683129 -0.13843337 -0.033587515
0002f0 ce 5d d5 bd b2 f2 46 3e fb 95 d4 3d 9e 0f 06 be
       -0.104182824 0.19428518 0.10380169 -0.13091895
000300 08 ca 44 3e 31 3c 1e 3d c7 62 27 3e 84 fc af 3d
       0.19217694 0.03863162 0.16346274 0.085930854
000310 09 09 2e 3e 21 3f 5d 3d 77 be 6e 3e 05 98 33 bc
       0.16995634 0.054015283 0.23314844 -0.010961537
000320 6e 3c 86 3d 8b 46 b9 3d 03 10 ca 3d 1d 34 14 be
       0.06554495 0.09046658 0.09866335 -0.14473005
000330 25 8e e4 3d 16 e6 d8 3d c3 17 d3 3d 04 c7 a7 bd
       0.111599244 0.105907604 0.103072666 -0.08192256
000340 28 c9 02 be 02 30 38 3d 5d bc 6d 3d a6 b2 4e 3e
       -0.12772048 0.04496766 0.058040965 0.20185336
000350 43 3a 1c be c6 54 78 be 5f e0 54 3c fb 72 4c be
       -0.152566 -0.24251089 0.012992947 -0.19965737
000360 18 8e 20 3e bf ef a0 3b 95 a4 16 be a8 6a 40 3e
       0.15679204 0.0049113925 -0.1471122 0.18790686
000370 ac 2d 57 3c f7 9c 53 bc 0d 30 d1 bd e2 42 f5 3d
       0.013133448 -0.012915841 -0.10214243 0.119756475
000380 87 d1 08 be 66 ce cf 3d f5 74 b9 bd 26 4a 37 be
       -0.13361178 0.10146789 -0.09055511 -0.17899379
000390 48 76 bd bd 84 5d a8 bd aa 22 60 3c 78 d7 86 bc
       -0.09251076 -0.08220962 0.01368014 -0.016460165
0003a0 96 4d 18 3d ac b3 a5 bb d6 6f 1a be 15 bf e3 3d
       0.037183367 -0.005056819 -0.15081725 0.111204304
0003b0 f1 ef 82 3c ed 62 1b bc e0 97 ab bd a0 93 21 be
       0.015983554 -0.009484035 -0.08378577 -0.1577897
0003c0 25 e6 95 3d a0 0c d0 3d 02 f3 42 be ff f1 f6 bd
       0.07319287 0.10158658 -0.19038013 -0.12057876
0003d0 3e 0d e2 3d 37 6d 41 bd a4 ab 4c 3d 6c 78 3f be
       0.11037682 -0.047223296 0.049968377 -0.18698281
0003e0 51 0a 03 3e 22 f9 28 be 33 1a 51 be c8 87 03 be
       0.12796904 -0.16501287 -0.2042015 -0.12844765
0003f0 ab ba 96 bd 8f ec f9 3d 28 9a 8f bd db 67 f4 3c
       -0.07359823 0.12203323 -0.07011825 0.029834678

bias f4 [10]
000000 30 8c 67 be 90 e4 7f bd 1e cd dd 3d 4c 0f c3 3d
       -0.22612071 -0.062473834 0.108301386 0.09524402
000010 9c 55 28 3e fc 9f 1c be 18 30 15 3e a3 37 8f 3d
       0.16438907 -0.15295404 0.14569128 0.06993034
000020 8b 72 bb bd ee b0 db 3c
       -0.09152707 0.026817765
