Pytorch/model_data/CIFAR10_EPOCH2.pth (torch, 588827 bytes, 10 tensors)

weight f4 [32, 3, 5, 5]
0.02612591 -0.01365126 -0.05013778 -0.09005572 0.030512389 -0.09759393 -0.08222938 0.09950115
-0.027696492 0.0048617786 -0.098678686 -0.011466647 0.11403852 0.081254825 -0.08340794 0.08919459
-0.07047837 0.048071023 0.110881574 -0.06341443 0.04865783 -0.01113554 0.10338255 0.078710325
-0.082162276 -0.09028609 0.04832023 0.07936422 -0.048262343 -0.11748005 -0.037385873 0.09506221
-0.13062133 0.04738831 -0.102438055 -0.032156233 -0.031006604 -0.0013377498 0.04808455 0.09619698
0.027319573 -0.10172257 -0.056774225 0.07720775 0.04893646 0.0172539 0.1045375 0.11724417
0.09798584 0.05372137 -0.031991936 -0.043191973 -0.12515052 -0.029613484 -0.12428409 0.010038383
0.061940026 -0.036040932 0.061326705 -0.08506402 0.061471842 0.06838623 -0.035591885 0.059306603
-0.07467579 -0.01318428 0.050180536 0.10389468 -0.06332152 -0.096963316 0.051929582 0.03752178
0.11344802 0.1167092 0.11240232 0.07160874 0.070885725 0.09569065 0.08696656 0.036390804
-0.052351985 0.06413103 0.035216678 -0.07474223 -0.06676488 0.11342272 -0.11326994 0.048627213
-0.11813411 0.08447264 0.04772953 0.026795866 -0.013636875 0.106623545 -0.053265292 0.05285821
0.033254914 -0.0023510263 0.09782178 0.027533498 0.036740854 0.055209126 0.016274525 0.054541014
-0.12342884 0.06591186 0.0020717569 0.03171045 -0.12188002 -0.13467121 -0.08022077 -0.11065541
-0.023969904 0.053615086 -0.1273613 -0.00083523605 0.018502425 -0.023520635 -0.03225495 0.002900987
-0.014396931 0.0516647 0.059691392 -0.002415831 -0.03378079 -0.014698392 0.032580584 0.09864919
-0.07429218 0.06271399 -3.7086595e-06 -0.028483687 -0.072914585 -0.08615447 0.09380193 0.023483997
0.03570355 -0.0054945014 0.034854274 0.057189714 -0.02074085 -0.038100015 0.08334381 0.033361625
0.041022427 -0.050204348 -0.07368478 0.0864299 -0.091077074 0.024491774 0.10040449 0.04122937
-0.09096866 0.01039634 -0.09427317 0.003749831 0.07777995 -0.12201587 -0.10343026 -0.070665136
-0.068008915 0.08866642 0.03850176 -0.033953443 0.012945556 -0.104726575 -0.05865599 -0.07606034
-0.028302325 -0.07567506 0.06855293 -0.114916384 -0.103300184 -0.080199994 -0.10248194 -0.0461934
-0.12686326 0.026084596 0.020484418 0.023055518 0.019447383 -0.050257713 -0.004130715 0.012598449
-0.11938688 -0.009068116 -0.08479895 0.011521492 0.053995863 -0.066776894 -0.11409869 0.08158417
0.05159021 0.013607544 -0.045389477 0.03835949 -0.08095119 -0.13730885 -0.083015434 -0.09138396
-0.07452757 0.009787113 0.106651425 0.04198883 0.11573175 -0.03219942 0.037595883 0.10511415
-0.0507605 0.14304243 0.09747684 0.07272658 0.0154784275 0.15789098 0.1520591 0.044000022
0.1369125 0.15427916 0.08437264 0.09476752 0.08212176 0.051482625 -0.060425483 0.098902196
0.09676319 0.09515906 0.05381037 0.018355614 0.030749507 -0.038155567 0.06148111 -0.018595783
0.07105718 0.0643296 0.057929732 0.09312254 -0.06202321 0.0104078725 -0.02859012 0.12298419
0.05513636 0.052643713 0.06418349 0.11041959 0.038698975 -0.0014963858 -0.084377155 -0.08985965
0.09833901 -0.0045041125 0.003843828 0.05331536 -0.047281366 0.08564486 -0.03684578 -0.011819953
00000000: 0106 d63c 89a9 5fbc 465d 4dbd 226f b8bd
00000010: 1ef5 f93c 54df c7bd e167 a8bd 42c7 cb3d
00000020: c1e3 e2bc 8e4f 9f3b 0d18 cabd 9ade 3bbc
00000030: 078d e93d ee68 a63d c8d1 aabd a7ab b63d
00000040: f756 90bd 1fe6 443d e115 e33d 6ddf 81bd
00000050: 6f4d 473d d771 36bc 3bba d33d e132 a13d
00000060: b244 a8bd eae7 b8bd 6feb 453d b589 a23d
00000070: bcae 45bd 6199 f0bd ee21 19bd faaf c23d
00000080: 99c1 05be 3f1a 423d 0bcb d1bd 41b6 03bd
00000090: 9001 febc 6f57 afba 4ef4 443d ec02 c53d
000000a0: 4ccd df3c ec53 d0bd 178c 68bd 191f 9e3d
000000b0: 9971 483d 0d58 8d3c c217 d63d b61d f03d
000000c0: cdac c83d f00a 5c3d fa09 03bd 11ea 30bd
000000d0: 7527 00be fa97 f2bc a888 febd 0878 243c
000000e0: d3b4 7d3d a89f 13bd b631 7b3d 0b36 aebd
000000f0: e6c9 7b3d 140e 8c3d ccc8 11bd 7beb 723d
00000100: 9fef 98bd e102 58bc 1b8a 4d3d bcc6 d43d
00000110: b7ae 81bd b494 c6bd 1db4 543d 70b0 193d
00000120: 6f57 e83d 3c05 ef3d 3033 e63d 9aa7 923d
00000130: 892c 913d 76f9 c33d 861b b23d 860e 153d
00000140: 096f 56bd 2157 833d 5d3f 103d 7412 99bd
00000150: 07bc 88bd 2c4a e83d 12fa e7bd 542d 473d
00000160: 4cf0 f1bd feff ac3d 0a80 433d 0183 db3c
00000170: 336d 5fbc 725d da3d b52c 5abd da81 583d
00000180: 4e36 083d ad13 1abb c956 c83d ee8d e13c
00000190: 947d 163d f722 623d 2752 853c 6666 5f3d
000001a0: 42c8 fcbd ccfc 863d 50c6 073b d1e2 013d
000001b0: 3b9c f9bd 40e7 09be c94a a4bd 4e9f e2bd
000001c0: 885c c4bc 7e9b 5b3d 006b 02be bef3 5aba
000001d0: 6692 973c 59ae c0bc c41d 04bd 7c1e 3e3b
000001e0: 1be1 6bbc 5d9e 533d f67e 743d eb52 1ebb
000001f0: ba5d 0abd 86d1 70bc 3873 053d 9608 ca3d
00000200: 8026 98bd 3170 803d 49e2 78b6 9f56 e9bc
00000210: 3e54 95bd c171 b0bd 3a1b c03d 8361 c03c
00000220: e33d 123d 380b b4bb 5bc3 0e3d c33f 6a3d
00000230: b7e8 a9bc c30e 1cbd 29b0 aa3d 33a6 083d
00000240: 2207 283d 13a3 4dbd 0ce8 96bd 2902 b13d
00000250: 9e86 babd f9a2 c83c dfa0 cd3d 21e0 283d
00000260: c74d babd 6955 2a3c 4b12 c1bd babf 753b
00000270: 184b 9f3d 75e3 f9bd 3fd3 d3bd e2b8 90bd
00000280: 4248 8bbd bd96 b53d 06b4 1d3d c412 0bbd
00000290: 9919 543c e37a d6bd 4341 70bd 86c5 9bbd
000002a0: 47da e7bc 87fb 9abd 7b65 8c3d 4859 ebbd
000002b0: 0c8f d3bd e53f a4bd 0de2 d1bd 4a35 3dbd
000002c0: 71e8 01be 5daf d53c f0ce a73c edde bc3c
000002d0: 1e50 9f3c 08db 4dbd f35a 87bb ba69 4e3c
000002e0: 1c81 f4bd 6f92 14bc 12ab adbd a4c4 3c3c
000002f0: c42a 5d3d 53c2 88bd 93ac e9bd 9a15 a73d
00000300: 4250 533d 2df2 5e3c 51ea 39bd d71e 1d3d
00000310: bdc9 a5bd b19a 0cbe ff03 aabd 8327 bbbd
00000320: e9a1 98bd 215a 203c 106c da3d 7bfc 2b3d
00000330: c504 ed3d 8ae3 03bd 24fe 193d 1646 d73d
00000340: 3eea 4fbd b779 123e f0a1 c73d acf1 943d
00000350: 3b99 7d3c 2cae 213e 61b5 1b3e 5e39 343d
00000360: ca32 0c3e 5bfb 1d3e 90cb ac3d 7915 c23d
00000370: 742f a83d 72df 523d b680 77bd 3c8d ca3d
00000380: c82b c63d c1e2 c23d 4368 5c3d 835e 963c
00000390: 64e6 fb3c 0349 1cbd 9ed3 7b3d 2f56 98bc
000003a0: 6d86 913d 3dbf 833d ba47 6d3d 08b7 be3d
000003b0: 0d0c 7ebd c885 2a3c d435 eabc 23df fb3d
000003c0: aad6 613d efa0 573d a272 833d aa23 e23d
000003d0: d182 1e3d 6022 c4ba eecd acbd 5608 b8bd
000003e0: f665 c93d 3c97 93bb bce8 7b3b 3561 5a3d
000003f0: 1baa 41bd 9366 af3d 9aeb 16bd 7aa8 41bc

bias f4 [32]
-0.10151885 0.029294232 0.018902902 0.037008505 -0.06679216 0.17749804 -0.23673637 -0.15732685
-0.11226301 0.028705698 0.1377393 -0.013045646 -0.051671848 -0.04124006 -0.017521316 -0.05236647
0.0025915878 -0.23281337 -0.10762002 -0.044231135 -0.0143324705 0.008184439 0.07151272 0.0030630378
-0.16140492 0.016898124 -0.07251645 0.08418333 -0.18152197 0.053095486 -0.08532455 0.074208625
00000000: 1de9 cfbd 75fa ef3c 42da 9a3c 3b96 173d
00000010: 54ca 88bd 0cc2 353e 056b 72be 4a1a 21be
00000020: 26ea e5bd 3628 eb3c 880b 0d3e 68bd 55bc
00000030: dca5 53bd 56eb 28bd dd88 8fbc 397e 56bd
00000040: a1d7 293b a166 6ebe e367 dcbd b52b 35bd
00000050: bdd2 6abc 0618 063c 4375 923d 3fbd 483b
00000060: 5547 25be ef6d 8a3c 8183 94bd 4f68 ac3d
00000070: e5e0 39be a77a 593d a3be aebd b1fa 973d

weight f4 [32, 32, 5, 5]
0.0017542745 -0.0067383177 -0.0036072251 -0.011460177 -0.028424859 0.030940142 -0.0027117277 0.02431783
0.02068419 0.020307079 0.0035117324 -0.0112157725 -0.0227586 0.00909151 0.041034624 -0.020579515
0.00053213275 -0.027863966 -0.012237056 -0.014907487 0.027952408 0.027104968 0.029349376 0.024363939
0.013203834 -0.03153429 0.018554572 -0.016531035 0.029216113 0.0011306823 -0.02663133 0.014888208
0.0071466044 0.007288597 -0.02543973 0.03497883 -0.015868861 0.016139977 0.010518389 0.026621902
0.013275677 0.037045166 -0.02051456 -0.0032805933 0.019805582 -0.0050766664 0.031293556 0.027677776
0.034091026 -0.025008172 0.023355998 0.030946827 -0.009996675 0.008437791 0.025124375 0.0238441
0.009047001 -0.018153181 0.027584406 0.028966444 -0.030462774 -0.00078470603 0.030222958 0.029754153
-0.009150837 0.022263642 0.012518148 -0.03321749 0.01333663 0.014333077 -0.022157943 0.02644186
-0.0013468256 -0.0032964628 0.028707754 0.0009453358 0.024264952 -0.013554049 0.011198008 -0.013986354
0.022730244 -0.0040784315 0.0028521956 0.0042136856 0.0105786575 0.0061897067 0.00360318 0.041215844
0.017854823 0.0044808127 -0.011706411 0.037501805 0.035130683 0.013101063 0.010413466 0.006884633
0.030120477 -0.01635789 0.0055583757 0.030508718 0.0152781615 -0.02353662 -0.031632513 -0.005711323
-0.013605907 -0.014277508 -0.0027080446 0.0042340513 -0.037893105 0.0047643986 0.0012779129 -0.019075269
-0.025647856 0.0042305547 0.004881065 -0.029712467 0.021640316 0.018282687 0.005823868 -0.013451811
0.0066168527 0.018591296 0.029619217 -0.016625341 0.00088832673 0.0051620435 -0.007995858 0.018139107
0.02978678 -0.032349974 0.011051295 0.0040551806 0.0228673 0.010735822 -0.004851692 -0.029827526
0.017368766 -0.0238148 -0.019023607 -0.022209622 0.025457527 -0.010138618 -0.0421166 -0.04133454
0.008343802 0.0019482881 -0.028373152 0.0015819804 0.033656884 -0.020618105 0.0017432785 0.031658337
0.0041655647 -0.016330764 0.02795088 0.011453492 0.03591974 0.035976153 -0.009128663 0.018180218
0.019591229 0.028077321 0.014791469 0.024472201 0.0070186486 0.023716716 -0.0197129 0.016888216
-0.0104083065 -0.008589137 -0.005057108 0.035967294 0.033117015 -0.021755185 0.03969029 -0.019003928
-0.029374164 -0.016281506 0.032167558 -0.037122313 -0.007970875 0.007088023 0.0017357141 0.022107577
-0.032599118 0.0020797965 -0.011983915 0.030070607 0.017069338 0.038953353 0.027090926 -0.010052755
0.021443969 0.04060083 0.02956246 0.035828367 0.04355226 0.02177436 0.035180587 0.04079944
0.009546647 0.026690112 0.0027877884 -0.03171705 -0.008471159 0.014098143 0.010604151 -0.012035631
-0.036732372 0.011503255 0.018405538 0.025815874 0.001595072 -0.031833824 -0.028777147 -0.009150029
0.028903237 -0.023889858 0.03948528 -0.023653738 -0.029784953 0.04102886 0.014878892 0.008378441
0.0093034385 0.027654607 0.0012862633 -0.026934471 -0.026334563 0.02467725 0.025713576 0.0028942346
0.016737605 -0.019597061 -0.017811589 -0.014792845 0.028602704 0.0026290875 -0.00082594383 0.025114454
-0.031156162 -0.0024544306 -0.025973571 0.022866556 0.01995727 0.019358337 -0.008957629 -0.006518549
0.038182415 0.0254209 -0.008195872 -0.015281611 -0.01960945 -0.0075880866 -0.038867764 0.033196066
00000000: afef e53a 1bcd dcbb 3267 6cbb 77c3 3bbc
00000010: 40db e8bc 2e76 fd3c 3eb7 31bb 3036 c73c
00000020: e471 a93c 085b a63c 1825 663b 5cc2 37bc
00000030: 3e70 babc 8ff4 143c ec13 283d 5f96 a8bc
00000040: d37e 0b3a f942 e4bc ef7d 48bc 883e 74bc
00000050: 73fc e43c 3d0b de3c 1a6e f03c e296 c73c
00000060: e554 583c 1a2a 01bd c2ff 973c 186c 87bc
00000070: a156 ef3c 6733 943a f229 dabc aced 733c
00000080: 102e ea3b 2fd5 ee3b fb66 d0bc f645 0f3d
00000090: 6aff 81bc fc37 843c 5255 2c3c 2d16 da3c
000000a0: 3a82 593c acbc 173d 270e a8bc 39ff 56bb
000000b0: 513f a23c 2a5a a6bb ac2d 003d 81bc e23c
000000c0: 08a3 0b3d f0dd ccbc 1455 bf3c 3384 fd3c
000000d0: 18c9 23bc a93e 0a3c a2d1 cd3c b454 c33c
000000e0: df39 143c fbb5 94bc b1f8 e13c 094b ed3c
000000f0: 118d f9bc bbb4 4dba 2396 f73c fbbe f33c
00000100: 64ed 15bc 3e62 b63c eb18 4d3c 100f 08bd
00000110: e181 5a3c 48d5 6a3c 9384 b5bc 999c d83c
00000120: f887 b0ba 7809 58bb 862c eb3c 69d0 773a
00000130: 4bc7 c63c cd11 5ebc da77 373c 0527 65bc
00000140: c734 ba3c 5da4 85bb e7eb 3a3b f512 8a3b
00000150: 1b52 2d3c 06d3 ca3b 5423 6c3b f2d1 283d
00000160: 4744 923c c8d3 923b 3fcc 3fbc 7e9b 193d
00000170: 31e5 0f3d d7a5 563c 3e9d 2a3c 7d98 e13b
00000180: 38bf f63c fb00 86bc 0923 b63b 6bed f93c
00000190: 4151 7a3c dfcf c0bc 1891 01bd 0d26 bbbb
000001a0: 4feb 5ebc 35ec 69bc 7379 31bb ccbd 8a3b
000001b0: cd35 1bbd ac1e 9c3b a47f a73a bd43 9cbc
000001c0: 741b d2bc 77a0 8a3b 57f1 9f3b 8f67 f3bc
000001d0: 0847 b13c 93c5 953c 25d6 be3b fc64 5cbc
000001e0: 2fd2 d83b c64c 983c 00a4 f23c de31 88bc
000001f0: 99de 683a 5c26 a93b 0f01 03bc 7798 943c
00000200: 6803 f43c 6881 04bd 7e10 353c 52e1 843b
00000210: 3454 bb3c 4de5 2f3c f1fa 9ebb db58 f4bc
00000220: f148 8e3c 4117 c3bc 65d7 9bbc f4f0 b5bc
00000230: 4e8c d03c 721c 26bc 7582 2cbd 684e 29bd
00000240: 71b4 083c b35d ff3a d06e e8bc 745a cf3a
00000250: cddb 093d 4de7 a8bc b87e e43a 2cac 013d
00000260: 4a7f 883b 18c8 85bc 3ef9 e43c 6da7 3b3c
00000270: 9420 133d bb5b 133d 6390 15bc aeee 943c
00000280: c97d a03c 6902 e63c eb57 723c ed79 c83c
00000290: b1fc e53b 8f49 c23c f37c a1bc 2859 8a3c
000002a0: 9a87 2abc 74b9 0cbc 19b6 a5bb 7152 133d
000002b0: b5a5 073d ee37 b2bc 4992 223d 20ae 9bbc
000002c0: 16a2 f0bc cb60 85bc 21c2 033d 910d 18bd
000002d0: 4698 02bc a542 e83b e780 e33a f31a b53c
000002e0: a786 05bd 324d 083b 2f58 44bc a256 f63c
000002f0: ffd4 8b3c 8d8d 1f3d caed dd3c 4fb4 24bc
00000300: 43ab af3c 0e4d 263d f92c f23c c4c0 123d
00000310: db63 323d 2560 b23c 8519 103d 501d 273d
00000320: 8a69 1c3c 39a5 da3c 54b3 363b bde9 01bd
00000330: 9eca 0abc e6fb 663c 08bd 2d3c 1831 45bc
00000340: af74 16bd 2678 3c3c 36c7 963c d07b d33c
00000350: bc11 d13a 2f64 02bd 0dbe ebbc 01ea 15bc
00000360: 7bc6 ec3c aab4 c3bc 51bb 213d 7cc5 c1bc
00000370: 93ff f3bc e10d 283d 99c6 733c bb45 093c
00000380: 736d 183c ea8b e23c d697 a83a aea5 dcbc
00000390: 95bb d7bc f227 ca3c 47a5 d23c 33ad 3d3b
000003a0: 4d1d 893c 048a a0bc 9ce9 91bc b05d 72bc
000003b0: 3850 ea3c c54c 2c3b 2784 58ba d4bc cd3c
000003c0: 353b ffbc 83da 20bb 87c6 d4bc a552 bb3c
000003d0: 6e7d a33c 6095 9e3c 05c3 12bc 8d99 d5bb
000003e0: 2a65 1c3d 7e3f d03c fb47 06bc b95f 7abc
000003f0: ffa3 a0bc 7ca5 f8bb ce33 1fbd 99f8 073d

bias f4 [32]
0.0023280785 0.010795192 -0.065330826 -0.03341317 -0.0058931527 -0.027129231 0.0040290365 0.017915605
-0.027109241 0.017535672 -0.0708996 -0.017986154 0.047929328 -0.020541485 -0.052323043 0.003151615
0.03947182 0.027607711 -0.054770347 -0.03435701 0.01115144 0.004347507 -0.021998988 -0.013061994
-0.023092886 -0.009567467 -0.012817172 0.0028019699 0.0028010665 -0.007886157 -0.028838465 -0.002424984
00000000: ad92 183b 51de 303c 2bcc 85bd 40dc 08bd
00000010: 591b c1bb 1f3e debc 0206 843b bfc3 923c
00000020: 3314 debc f8a6 8f3c cf33 91bd b357 93bc
00000030: 8b51 443d 9e46 a8bc b050 56bd 538b 4e3b
00000040: 34ad 213d 9129 e23c df56 60bd f0b9 0cbd
00000050: 88b4 363c 8875 8e3b 3937 b4bc f901 56bc
00000060: 4b2d bdbc ddc0 1cbc 1eff 51bc 41a1 373b
00000070: 1992 373b f134 01bc a53e ecbc 7bec 1ebb

weight f4 [64, 32, 5, 5]
0.003953884 0.03775799 0.007341712 -0.0047603557 0.0075428495 0.0030810349 0.02203462 -0.0011493335
-0.019208321 0.007427685 -0.01224149 0.011735019 0.022575317 -0.022342302 0.021400735 -0.008437546
0.021497129 -0.028871762 0.0037121046 -0.022186734 0.032299794 0.03586583 -0.0073688906 -0.0036071853
-0.015298031 0.027513871 -0.0333444 0.027290035 -0.009777853 -0.01608793 0.025458021 -0.0040660123
0.0045728 0.020488273 -0.020562736 0.018537834 0.012931372 0.01926887 0.0037404262 -0.0015928813
0.032079767 -0.021067647 -0.021538192 -0.010876967 -0.021496482 -0.030638946 0.0037192097 -0.032329746
0.03194925 0.02935515 0.0065144864 0.019981267 0.032682773 -0.020142116 0.023169199 -0.034411825
-0.034394123 0.013856492 0.007997825 -0.018709384 -0.0069950954 0.0041246233 0.004157892 0.03831417
0.024908988 -0.031020468 0.031032516 0.035997342 0.033623494 0.020587556 0.024726631 0.024938297
0.043628577 0.0464553 0.024460806 -0.023762135 -0.004376664 -0.00027235155 -0.019012079 0.025526695
0.009305125 -0.033572644 0.0037508055 0.020607995 -0.0074369553 0.0072844015 0.016215904 0.0063622682
-0.032402825 -0.021162493 0.008969616 0.01355325 0.032979663 -0.022504902 -0.018162636 0.007678197
-0.01175623 -0.02622117 0.013302966 -0.0150773665 0.003559169 0.005189477 0.02112697 0.027760206
-0.014442035 -0.0105103785 0.027916824 0.008759192 -0.03193949 0.0051499163 -0.01337596 -0.025546495
0.0028249111 0.031533968 0.01578788 -0.008357246 -0.0042600078 0.011800136 0.00045247164 -0.003502576
-0.018511992 0.0033571082 0.005998382 -0.017380172 -0.0026215434 -0.008262117 0.022581978 -0.019928064
-0.030151235 0.017375859 -0.010021041 -0.0046189716 -0.028674623 0.008611306 -0.0043389066 -0.030925892
0.019454071 -0.03008517 -0.007355658 -0.020773096 0.010299763 0.03142087 -0.0022440385 -0.017073784
-0.0061947005 -0.02505335 -0.034572728 -0.02785995 -0.023302715 0.01013984 0.0068036527 0.012026234
0.017932741 -0.0076340074 0.011126844 -0.018777069 0.019979509 0.027910206 -0.009322137 -0.018733457
-0.010427262 0.0058057522 -0.018539907 0.0055379127 0.0028395317 -0.015279315 -0.0028017974 0.015846953
-0.011251655 0.035023026 0.033324677 -0.010272057 0.01426861 -0.026415732 -0.026451822 -0.0054025343
0.00034463778 0.013710304 -0.013972387 -0.005204437 0.021507746 -0.00266098 -0.009065608 0.012189773
0.009125072 0.011630411 0.009064484 -0.014491758 0.008076517 -0.012561959 -0.00084607577 0.017906163
0.022264922 0.022455944 -0.008737659 -0.030347615 -0.0012400424 0.02191954 0.0130005 0.003105071
0.023325412 0.03033216 -0.010540953 -0.0025167617 -0.019476857 -0.0004883696 -0.012033584 -0.008973944
-0.030022569 0.010331421 -0.031638514 -0.027603215 -0.028560007 0.0028971594 -0.032075148 -0.025809506
0.024970846 0.004739417 -0.027898764 0.030105116 -0.028240025 0.014372236 0.011483454 -0.0056851353
-0.023250647 0.003849735 -0.0399611 0.01737197 0.0018470879 7.4414675e-05 -0.033681884 -0.030295217
0.0051891753 -0.030264044 -0.016311247 0.023686124 -0.012373007 0.023563212 -0.008570133 0.014573819
0.035198603 -0.028134463 0.030577913 0.018599026 -0.02386852 -0.012436418 -0.035629444 0.021034054
0.005781787 -0.033557765 0.0138733545 -0.01406368 0.0008499461 0.043281805 -0.0043528643 -0.0043066926
00000000: 958f 813b 1fa8 1a3d be92 f03b c2fc 9bbb
00000010: 022a f73b 30eb 493b f381 b43c 3ca5 96ba
00000020: c55a 9dbc f063 f33b 8890 48bc 3d44 403c
00000030: dfef b83c 3407 b7bc 9850 af3c a23d 0abc
00000040: bf1a b03c 7984 ecbc c846 733b f4c0 b5bc
00000050: ca4c 043d 0ce8 123d bc76 f1bb 8766 6cbb
00000060: 98a4 7abc c564 e13c 2394 08bd 5a8f df3c
00000070: 4a33 20bc d6ca 83bc 578d d03c 2f3c 85bb
00000080: 6dd7 953b 06d7 a73c 2f73 a8bc a8dc 973c
00000090: 1bde 533c c0d9 9d3c f021 753b 3ac8 d0ba
000000a0: 1366 033d 0f96 acbc dd70 b0bc 4e35 32bc
000000b0: 6419 b0bc 87fe fabc fcbd 733b 326c 04bd
000000c0: 37dd 023d 367a f03c 7977 d53b c1af a33c
000000d0: 5fde 053d 1401 a5bc 55cd bd3c 6af3 0cbd
000000e0: dae0 0cbd 5706 633c 4f09 033c 6c44 99bc
000000f0: 1d37 e5bb d927 873b ed3e 883b 52ef 1c3d
00000100: ef0d cc3c a31e febc e737 fe3c f371 133d
00000110: cab8 093d 3ca7 a83c 818f ca3c 664b cc3c
00000120: e1b3 323d ea47 3e3d 0762 c83c cfa8 c2bc
00000130: 1e6a 8fbb 68ca 8eb9 38bf 9bbc 5c1d d13c
00000140: 8674 183c 7883 09bd 13d0 753b 19d2 a83c
00000150: b4b1 f3bb fdb1 ee3b 37d7 843c 937a d03b
00000160: d3b8 04bd f75c adbc 4cf5 123c 730e 5e3c
00000170: af15 073d 335c b8bc cfc9 94bc 6399 fb3b
00000180: 349d 40bc c7cd d6bc aff4 593c 0f07 77bc
00000190: f240 693b 7d0c aa3b 7812 ad3c 5f69 e33c
000001a0: 499e 6cbc b933 2cbc d3b1 e43c b782 0f3c
000001b0: fcd2 02bd a1c0 a83b d826 5bbc e246 d1bc
000001c0: 2522 393b c329 013d 9655 813c d5ec 08bc
000001d0: 8997 8bbb 5c55 413c b739 ed39 798b 65bb
000001e0: 76a6 97bc ee02 5c3b 138e c43b dd60 8ebc
000001f0: 33ce 2bbb d55d 07bc d7fd b83c 2e40 a3bc
00000200: b9ff f6bc d157 8e3c 4b2f 24bc be5a 97bb
00000210: 0be7 eabc 6f16 0d3c 632d 8ebb 4c58 fdbc
00000220: 255e 9f3c 2d75 f6bc bb07 f1bb 572c aabc
00000230: 56c0 283c 2cb3 003d b810 13bb 52de 8bbc
00000240: eafc cabb af3c cdbc 229c 0dbd 8d3a e4bc
00000250: 56e5 bebc 9221 263c 2df1 de3b ae09 453c
00000260: afe7 923c b226 fabb 5e4d 363c 5ed2 99bc
00000270: 11ac a33c f2a3 e43c e0bb 18bc e876 99bc
00000280: 1bd7 2abc 2e3e be3b 01e1 97bc 6177 b53b
00000290: 7017 3a3b 1856 7abc 5c9e 37bb 78d1 813c
000002a0: dd58 38bc 4e74 0f3d 757f 083d 214c 28bc
000002b0: e3c6 693c ce65 d8bc 7eb1 d8bc be07 b1bb
000002c0: 80b0 b439 2fa1 603c 70ec 64bc fb89 aabb
000002d0: 0331 b03c d663 2ebb ea87 14bc 9db7 473c
000002e0: 5381 153c 7b8d 3e3c 3483 143c d76e 6dbc
000002f0: 5e53 043c add0 4dbc 2fcb 5dba f2af 923c
00000300: ed64 b63c 87f5 b73c 6628 0fbc 909b f8bc
00000310: eb88 a2ba 9b90 b33c 0d00 553c 727e 4b3b
00000320: ef14 bf3c 267b f83c f6b3 2cbc 41f0 24bb
00000330: ee8d 9fbc ee05 00ba 8228 45bc 7307 13bc
00000340: e4f1 f5bc 1f45 293c 6397 01bd 2320 e2bc
00000350: adf6 e9bc 45de 3d3b 3b61 03bd 756e d3bc
00000360: a98f cc3c 1d4d 9b3b f38b e4bc 019f f63c
00000370: a057 e7bc 8779 6b3c 1925 3c3c 5f4a babb
00000380: 2478 bebc d64b 7c3b 40ae 23bd a94f 8e3c
00000390: fc19 f23a 130f 9c38 04f6 09bd ad2d f8bc
000003a0: f509 aa3b 4dec f7bc 2a9f 85bc 6709 c23c
000003b0: 27b8 4abc a307 c13c be69 0cbc 07c7 6e3c
000003c0: 692c 103d 3f7a e6bc 887e fa3c fc5c 983c
000003d0: ea87 c3bc 1ec2 4bbc 2ef0 11bd 9c4f ac3c
000003e0: 2575 bd3b de73 09bd 114d 633c 596b 66bc
000003f0: ebce 5e3a 4348 313d 79a2 8ebb 281f 8dbb

bias f4 [64]
-0.03212616 0.037146304 -0.00968334 0.0026625518 -0.035421997 0.009301972 -0.019415721 -0.02231169
0.036479425 0.03461308 -0.040661003 0.0042337347 -0.041932702 0.007746765 0.024872966 -0.011226455
0.038125075 -0.0021086105 -0.00033366756 -0.01753839 0.023073124 0.028793598 -0.005455347 0.025838748
-0.003532864 -0.042506028 0.0037665488 -0.00096070085 -0.013185173 0.012733287 0.007417633 0.005083632
-0.02890541 0.015124152 -0.02509952 0.01352769 -0.006390026 0.005771605 0.027305465 0.006212215
-0.03112698 -0.0736905 -0.033202276 -0.022507116 0.016187865 -0.05780904 0.017287603 -0.014230867
-0.017942378 -0.033932142 -0.033701204 -0.040785786 -0.033993848 0.026112715 -0.014610036 -0.022652008
0.04039384 -0.027451528 -0.02671123 -0.023604542 -0.016275464 -0.03195566 -0.0029143698 0.003937139
00000000: b896 03bd b926 183d dfa6 1ebc 357e 2e3b
00000010: a816 11bd 4c67 183c b80d 9fbc 01c7 b6bc
00000020: 736b 153d 72c6 0d3d 278c 26bd 24bb 8a3b
00000030: a0c1 2bbd 93d8 fd3b 64c2 cb3c 2aef 37bc
00000040: 0a29 1c3d 9d30 0abb 1af0 aeb9 abac 8fbc
00000050: d903 bd3c 8de0 eb3c c4c2 b2bb c8ab d33c
00000060: 9f87 67bb cd1a 2ebd 34d8 763b 8bd7 7bba
00000070: a006 58bc 479f 503c 9e0f f33b 9994 a63b
00000080: 0acb ecbc 4bcb 773c 829d cdbc 3fa3 5d3c
00000090: 6c63 d1bb bb1f bd3b b6af df3c d68f cb3b
000000a0: 02fe febc 0beb 96bd 1cff 07bd d860 b8bc
000000b0: 6a9c 843c 2cc9 6cbd bb9e 8d3c 9528 69bc
000000c0: e5fb 92bc 6efc 0abd 460a 0abd ff0e 27bd
000000d0: 223d 0bbd 55ea d53c ef5e 6fbc b490 b9bc
000000e0: 0374 253d 07e2 e0bc 82d1 dabc 505e c1bc
000000f0: 1f54 85bc f0e3 02bd 03ff 3ebb 1e03 813b

weight f4 [64, 1024]
-0.014818908 0.021784894 -0.004300793 0.017130386 0.029061941 0.038137138 -0.00063133833 -0.015505393
-0.0056645935 -0.0053832615 0.023405043 -0.00018427827 -0.021366984 0.0009395477 -0.0036566223 -0.0038453517
-0.023262598 -0.023544043 -0.021890875 -0.011407362 -0.023425506 -0.018092591 0.011660971 0.0053355996
-0.013158259 -0.025922475 -0.0073494706 -0.035061296 0.0353565 -0.026251491 -0.004675418 0.00092983013
0.014139431 0.03679951 -0.007398532 0.0016458076 0.005735748 0.0053442796 0.011615906 -0.023159565
0.003714285 -0.016564293 0.029298896 -0.007486854 0.017824847 0.004782241 -0.02263356 0.016381893
-0.017639417 -0.023093525 0.017111339 -0.006794605 0.031157253 0.022073679 0.017253816 -0.014480998
0.024161017 -0.0009803465 0.020816699 0.0018797514 0.01631171 0.0024104754 0.01382177 0.026191054
0.011860625 0.029201942 -0.012143634 0.0048498465 0.037766494 0.0096083125 0.018243337 0.026632972
-0.008963515 -0.009601922 0.032087583 -0.010251151 0.006233747 -0.022685386 0.019576535 -0.015564134
-0.010722283 0.015195387 0.004587237 0.023643559 -0.0123815825 0.040947236 -0.0062633594 0.013053231
0.0077268397 0.015694985 0.00989812 -0.026108224 -0.016959285 -0.0052734404 0.018152663 0.027113236
0.011065894 0.040669505 0.0061106584 0.01819432 -0.0033741149 0.025683483 -0.00040472046 -0.03473913
0.017774258 0.026602441 0.0012105488 0.032125458 -0.01012466 0.0142598 -0.016708367 -0.020725561
0.017462691 0.013423728 0.015822496 0.009800215 -0.00992815 -0.0003576809 0.0013522917 0.021696625
0.017245017 -0.008002923 -0.0035618313 -0.011447396 -0.023028195 0.033735905 -0.0014532069 0.02147951
0.02513824 -0.0055075395 -0.01125589 -0.010694061 0.020788578 -0.0009847855 0.009442921 -0.021126097
0.006633593 0.019763032 -0.003212654 0.022054646 -0.005923675 -0.0276823 -0.027847353 0.03331419
0.03721918 4.5035198e-05 0.03525519 -0.015285579 8.321095e-05 0.004743219 0.009944608 0.0030581695
0.024033612 0.007584415 0.009917256 0.00016373511 0.008383169 0.02218012 -0.0077071004 0.009506401
0.0063682557 -0.014497299 0.0016990737 -0.009788596 -0.02263539 0.004487788 0.03065593 0.004164668
0.0021246425 0.011768926 0.012162403 -0.012014993 0.011441446 -0.008662401 0.030674115 -0.02249878
0.02394797 -0.008279732 -0.02372933 0.010509766 -0.00975926 0.038177576 -0.029827246 0.01703207
0.009128789 0.020386402 0.01077991 0.021742605 -0.00033901 0.0076272255 0.020438917 0.016795639
0.010752071 0.039428353 0.016582703 0.017544243 0.0029506185 0.008121949 0.020899601 -0.032603238
0.018681297 0.03188371 -0.016330082 -0.02048476 0.022666814 -0.014548044 0.01937155 -0.03338743
-0.016173601 -0.0074355835 -0.004375814 0.013933343 -0.0010412432 0.042558912 0.013726185 0.034672253
0.0101988 -0.027522592 0.005691439 0.018657632 0.027123267 -0.000117080635 -0.00907789 -0.0063822987
-0.028872745 -0.014080404 -0.02233692 0.008262179 0.031034013 0.03759201 -0.0023277733 -0.013749945
0.016720938 0.033694018 -0.0033198409 -0.0111376075 -0.0013354309 0.0054249163 -0.0061376994 0.009168945
0.013174564 0.0063214675 -0.0020392952 -0.0019411246 0.00519523 0.013112418 -0.02039213 -0.000865285
-0.019072963 -0.0057207956 0.0076926616 0.024428701 0.021445962 0.02324748 0.031130072 -0.009239994
00000000: 01cb 72bc 3c76 b23c abed 8cbb 0655 8c3c
00000010: 4f13 ee3c b035 1c3d 6680 25ba 550a 7ebc
00000020: 0e9e b9bb 1266 b0bb efbb bf3c d23a 41b9
00000030: d009 afbc fb4b 763a f1a3 6fbb 4c02 7cbb
00000040: 3491 bebc 70df c0bc 7e54 b3bc f2e5 3abc
00000050: d9e6 bfbc ea36 94bc a80d 3f3c 41d6 ae3b
00000060: bd95 57bc 5f5b d4bc d4d3 f0bb 6f9c 0fbd
00000070: fad1 103d 5e0d d7bc 4034 99bb d8bf 733a
00000080: 12a9 673c 15bb 163d 626f f2bb 24b8 d73a
00000090: f1f2 bb3b 111f af3b a450 3e3c 21b9 bdbc
000000a0: 5d6b 733b d7b1 87bc 3d04 f03c 4954 f5bb
000000b0: 6a05 923c 58b4 9c3b 046a b9bc 5233 863c
000000c0: 8a80 90bc a22e bdbc 142d 8c3c 47a5 debb
000000d0: 7f3d ff3c dcd3 b43c e057 8d3c b541 6dbc
000000e0: 53ed c53c f87e 80ba c887 aa3c fe61 f63a
000000f0: 23a0 853c 11f9 1d3b b574 623c 9f8e d63c
00000100: 1153 423c e938 ef3c 18f6 46bc 76eb 9e3b
00000110: 0ab1 1a3d 2f6c 1d3c 0d73 953c 642d da3c
00000120: b5db 12bc 6151 1dbc 456e 033d 72f4 27bc
00000130: 7644 cc3b b4d6 b9bc f85e a03c b600 7fbc
00000140: 84ac 2fbc 13f6 783c 8850 963b 23b0 c13c
00000150: 1fdc 4abc 4ab8 273d de3c cdbb 38dd 553c
00000160: 6e31 fd3b c592 803c b92b 223c eae0 d5bc
00000170: 33ee 8abc d3cc acbb e5b4 943c 941c de3c
00000180: b94d 353c 1195 263d eb3b c83b 410c 953c
00000190: 4120 5dbb 2b66 d23c a930 d4b9 9e4a 0ebd
000001a0: 529b 913c 5ded d93c 47ab 9e3a fc95 033d
000001b0: e7e1 25bc f0a1 693c fcdf 88bc a7c8 a9bc
000001c0: eb0d 8f3c 32ef 5b3c 2e9e 813c 1591 203c
000001d0: aea9 22bc 1e87 bbb9 613f b13a 1fbd b13c
000001e0: 6c45 8d3c b11e 03bc 9d6d 69bb dc8d 3bbc
000001f0: a0a5 bcbc a92e 0a3d 8879 beba ccf5 af3c
00000200: b6ee cd3c 9778 b4bb a06a 38bc 2536 2fbc
00000210: cf4c aa3c eb13 81ba 7bb6 1a3c a310 adbc
00000220: 9c5e d93b 15e6 a13c 648b 52bb f2ab b43c
00000230: 631b c2bb fec5 e2bc 2220 e4bc 7674 083d
00000240: 2473 183d 2de4 3c38 bf67 103d 5d70 7abc
00000250: 8a81 ae38 016d 9b3b b6ee 223c 926b 483b
00000260: 23e2 c43c af86 f83b fd7b 223c 4fb0 2b39
00000270: 8f59 093c 15b3 b53c d88b fcbb bcc0 1b3c
00000280: cdac d03b 1486 6dbc 74b3 de3a 5960 20bc
00000290: da6d b9bc 4b0e 933b 2522 fb3c c477 883b
000002a0: 963d 0b3b 74d2 403c d144 473c 88da 44bc
000002b0: e774 3b3c beec 0dbc 4848 fb3c 5d4f b8bc
000002c0: 882e c43c b7a7 07bc 0364 c2bc 2731 2c3c
000002d0: 4ee5 1fbc 1760 1c3d 4558 f4bc d786 8b3c
000002e0: eb90 153c 6201 a73c 389e 303c 8c1d b23c
000002f0: 27bd b1b9 ceed f93b 846f a73c 0297 893c
00000300: 7429 303c a07f 213d 73d8 873c f2b8 8f3c
00000310: 2a5f 413b ec11 053c a435 ab3c f98a 05bd
00000320: 8509 993c 7e98 023d aac6 85bc a8cf a7bc
00000330: c1af b93c eb5a 6ebc 16b1 9e3c 42c1 08bd
00000340: 807e 84bc 32a6 f3bb fd62 8fbb ad48 643c
00000350: 537a 88ba 4152 2e3d cbe3 603c 7e04 0e3d
00000360: de18 273c 0f77 e1bc 407f ba3b e4d7 983c
00000370: 9d31 de3c 3089 f5b8 6ebb 14bc 9a22 d1bb
00000380: 8986 ecbc 7fb1 66bc ebfb b6bc 175e 073c
00000390: 0b3b fe3c 14fa 193d 8e8d 18bb 7347 61bc
000003a0: 59fa 883c bd02 0a3d b091 59bb 837a 36bc
000003b0: a009 afba 7fc3 b13b c11e c9bb 5839 163c
000003c0: 20da 573c 5024 cf3b b2a5 05bb 556d feba
000003d0: bf3c aa3b 78d5 563c 650d a7bc 4bd4 62ba
000003e0: e73e 9cbc 8375 bbbb b912 fc3b b31e c83c
000003f0: 71af af3c 8071 be3c 7e04 ff3c 5863 17bc

bias f4 [64]
0.009864482 0.0011902075 -0.027546573 -2.5209585e-05 0.018555783 0.017048247 -0.006372942 -0.023981623
0.010171586 -0.02955411 -0.00540798 -0.008782763 -0.010608533 0.024760218 -0.007920304 -0.005285989
0.0178991 -0.0032238099 -0.03446344 0.004182864 0.014775644 0.0020999103 -0.01662775 0.029729635
0.028269714 0.03081641 -0.0024616052 0.009645236 0.035124708 0.016679738 -0.014783842 -0.009969766
-0.03909925 0.0025194352 -0.013077255 -0.010939191 -0.020490117 0.011899303 -0.030894708 0.016767621
-0.030773178 -0.015551937 -0.003595702 0.012725829 0.019066025 0.015443063 0.023246806 -0.01861422
0.04475891 0.019611841 -0.00021244177 0.00021775148 -0.030324593 -0.0043773446 0.01848917 0.01227737
0.03749449 -0.013151561 -0.016704347 0.009505334 -0.045228127 -0.00862005 0.012672736 -0.039886273
00000000: a39e 213c bd00 9c3a 5aa9 e1bc 2c79 d3b7
00000010: 4c02 983c c4a8 8b3c 1dd4 d0bb 1c75 c4bc
00000020: b9a6 263c 761b f2bc 6d35 b1bb 94e5 0fbc
00000030: 6acf 2dbc f1d5 ca3c 2ac4 01bc 1736 adbb
00000040: 22a1 923c 8e46 53bb 8929 0dbd 6810 893b
00000050: 8b15 723c a69e 093b eb36 88bc 908b f33c
00000060: e395 e73c b272 fc3c e252 21bb 0d07 1e3c
00000070: edde 0f3d f2a3 883c ed37 72bc 3b58 23bc
00000080: 8926 20bd 1c1d 253b fc41 56bc 4b3a 33bc
00000090: e4da a7bc 4bf5 423c e616 fdbc 405c 893c
000000a0: 0818 fcbc 8dcd 7ebc dea5 6bbb ff7f 503c
000000b0: 5a30 9c3c e704 7d3c 1670 be3c d97c 98bc
000000c0: 1e55 373d 03a9 a03c e7c2 5eb9 3854 6439
000000d0: 486b f8bc d46f 8fbb 9a76 973c 0627 493c
000000e0: d393 193d a579 57bc 8ed7 88bc 43bc 1b3c
000000f0: 2141 39bd 1c3b 0dbc 4fa1 4f3c ca5f 23bd

weight f4 [10, 64]
0.033956654 0.07939867 0.059080474 -0.105325855 -0.061714895 0.11736299 -0.16835374 0.1415547
-0.10193862 0.022987664 -0.11190956 0.027622752 0.003294709 -0.017856635 -0.04549874 -8.5530024e-05
0.0344025 -0.16493632 0.045300726 0.0014553567 -0.018836346 -0.038858347 -0.009265824 0.01521804
0.024289047 -0.07539254 -0.088275835 0.0783571 -0.15277871 -0.09420445 -0.04707214 0.041122805
0.008864929 0.03495364 -0.029992392 0.15887654 0.11317537 0.062247515 0.06960865 -0.15272164
0.11500723 -0.03671364 -0.15148981 -0.08701611 0.05962102 0.04030527 -0.08015555 -0.104020886
-0.14299853 -0.010202511 0.10347159 0.12985241 -0.06679657 -0.0588041 -0.0650452 -0.02478459
-0.058676645 0.01723858 -0.060924694 -0.042301606 0.094986305 -0.17813993 0.06488119 0.14627597
0.15204714 -0.11400675 -0.13219617 0.13993779 -0.035294157 -0.06680778 -0.028772729 0.10667658
0.13556822 -0.056580026 -0.06443407 -0.10992546 0.013442912 -0.11051529 -0.098092444 -0.06914255
-0.00056717347 -0.13861385 0.036492 0.0943343 -0.12648249 0.16181472 0.02993248 0.10786465
0.15358222 0.005777332 0.078685634 -0.0880814 -0.116119534 0.07668459 -0.040861737 0.049630553
-0.06842337 -0.15909725 -0.058990702 -0.16693197 0.05566114 0.15582311 -0.09399704 -0.15402792
-0.0638445 0.10289365 0.13815452 0.10592053 -0.11906231 0.038658824 -0.044333234 0.0062730797
-0.11271378 -0.050149597 0.018049072 -0.13859236 -0.06159137 0.16730165 0.12133912 0.110062405
-0.18263389 -0.08294158 0.13256986 -0.042758066 -0.045216445 -0.012316824 0.13211347 -0.11148333
-0.12798318 0.03492945 -0.04363209 -0.054416094 -0.14791153 0.18786028 0.028996073 0.08047718
-0.05252403 0.045558866 -0.00076596474 -0.03376303 -0.12460376 0.0488471 0.024583904 0.14516938
-0.07237519 -0.05054006 0.14160183 -0.1318326 0.020807562 0.023188993 -0.033599135 -0.03342009
0.0776829 -0.08247573 -0.16425237 -0.15084091 0.035196286 0.045301136 -0.023507519 0.07215342
-0.12923953 -0.048082482 0.005299596 0.16226868 -0.084209986 0.030025702 0.0364226 0.12557532
0.14020723 -0.14021683 0.091717884 0.110408045 0.17183404 -0.04028257 -0.011433368 -0.11036098
-0.031975824 -0.078577325 -0.03635074 -0.040958878 -0.06638898 -0.0783691 0.053812746 -0.15054476
0.10403514 -0.00025715 -0.049424205 -0.027883662 -0.06551035 0.11383786 0.066178136 -0.09762157
0.12251666 0.009316219 0.09933727 0.05084311 0.13793986 0.048037767 0.14642303 0.025526434
0.034674842 0.047136806 0.07204426 -0.1076217 0.051721286 0.08804854 0.040279426 -0.03399814
-0.1254637 0.019890713 0.034405146 0.14066817 -0.085498095 -0.161335 0.029678077 -0.13538268
0.10293997 -0.03201337 -0.11225359 0.10163494 0.032339215 0.01656018 -0.09033383 0.092709586
-0.12117182 0.080060124 -0.06013456 -0.10185604 -0.080371395 -0.03344004 -0.017407557 0.024803622
-0.011411734 -0.020768804 -0.059251145 0.08679658 0.032338448 -0.02305747 -0.026666984 -0.10385173
0.046468787 0.051963158 -0.17980115 -0.092535004 0.080810614 -0.027260464 0.031069148 -0.15191343
0.12606174 -0.126444 -0.15718415 -0.12563653 -0.08468718 0.14069231 -0.012626091 0.0056779454
00000000: 2216 0b3d c59b a23d 5efe 713d 15b5 d7bd
00000010: c2c8 7cbd 025c f03d ec64 2cbe b7f3 103e
00000020: 32c5 d0bd a050 bc3c d730 e5bd 1c49 e23c
00000030: 0bec 573b 1448 92bc e35c 3abd 955e b3b8
00000040: a3e9 0c3d 11e5 28be 418d 393d abc1 be3a
00000050: ae4e 9abc ee29 1fbd afcf 17bc 1655 793c
00000060: d3f9 c63c 6767 9abd f6c9 b4bd b079 a03d
00000070: 0672 1cbe 43ee c0bd b7ce 40bd 6370 283d
00000080: 353e 113c 8c2b 0f3d 9bb2 f5bc 88b0 223e
00000090: 7dc8 e73d 40f7 7e3d fb8e 8e3d 1063 1cbe
000000a0: e988 eb3d 0b61 16bd 2520 1bbe 8135 b2bd
000000b0: 2c35 743d 2417 253d 9828 a4bd e708 d5bd
000000c0: 356e 12be 6f28 27bc eae8 d33d 08f8 043e
000000d0: a4cc 88bd 91dc 70bd 6b36 85bd 0d09 cbbc
000000e0: ec56 70bd ec37 8d3c 2c8c 79bd 7344 2dbd
000000f0: 2e88 c23d 506a 36be 6ee0 843d 5ec9 153e
00000100: 3fb2 1b3e 5f7c e9bd 6f5e 07be da4b 0f3e
00000110: 9b90 10bd 84d2 88bd c9b4 ebbc 4079 da3d
00000120: 65d2 0a3e 75c0 67bd 02f6 83bd 9920 e1bd
00000130: a93f 5c3c d755 e2bd b1e4 c8bd 9c9a 8dbd
00000140: 5eae 14ba caf0 0dbe a378 153d 5732 c13d
00000150: a084 01be c2b2 253e f634 f53c 24e8 dc3d
00000160: a844 1d3e c64f bd3b ef25 a13d 0564 b4bd
00000170: 14d0 edbd cf0c 9d3d a35e 27bd 6849 4b3d
00000180: 8d21 8cbd 64ea 22be 3ca0 71bd 37f0 2abe
00000190: effc 633d 1890 1f3e 8581 c0bd 7fb9 1dbe
000001a0: e8c0 82bd e8b9 d23d 6178 0d3e ddec d83d
000001b0: f1d6 f3bd b758 1e3d c496 35bd 688e cd3b
000001c0: 7bd6 e6bd aa69 4dbd a6db 933c 28eb 0dbe
000001d0: 3b47 7cbd 2051 2b3e a580 f83d 6668 e13d
000001e0: 6104 3bbe 46dd a9bd 65c0 073e 1523 2fbd
000001f0: e134 39bd 81cc 49bc c148 073e 5f51 e4bd
00000200: 060e 03be 2f12 0f3d 90b7 32bd 69e3 5ebd
00000210: 1f76 17be 725e 403e 2c89 ed3c 38d1 a43d
00000220: 7023 57bd ef9b 3a3d 06cb 48ba 1a4b 0abd
00000230: 4230 ffbd e613 483d 2f64 c93c 48a7 143e
00000240: 7239 94bd 1803 4fbd 1200 113e 20ff 06be
00000250: 9f74 aa3c d8f6 bd3c 3f9f 09bd 81e3 08bd
00000260: 3618 9f3d 09e9 a8bd c631 28be 0a76 1abe
00000270: fb29 103d af8d 393d d792 c0bc 2cc5 933d
00000280: 5e57 04be 23f2 44bd 3ca8 ad3b c329 263e
00000290: 4976 acbd 76f8 f53c dd2f 153d d196 003e
000002a0: 7c92 0f3e 0095 0fbe 96d6 bb3d 9d1d e23d
000002b0: 43f5 2f3e 56ff 24bd 0553 3bbc f004 e2bd
000002c0: 15f9 02bd 26ed a0bd 83e4 14bd 7fc4 27bd
000002d0: f2f6 87bd fb7f a0bd c16a 5c3d 6828 1abe
000002e0: 6010 d53d 17d2 86b9 0971 4abd 476c e4bc
000002f0: 4a2a 86bd d323 e93d 6788 873d d1ed c7bd
00000300: 04ea fa3d 0ea3 183c 5771 cb3d dd40 503d
00000310: 1b40 0d3e 40c3 443d ebef 153e d01c d13c
00000320: 3507 0e3d 8612 413d f18b 933d c468 dcbd
00000330: b3d9 533d cb52 b43d 0afc 243d a241 0bbd
00000340: 8e79 00be d9f1 a23c 69ec 0c3d 510b 103e
00000350: a019 afbd 0135 25be 701f f33c c2a1 0abe
00000360: 31d2 d23d 7420 03bd 36e5 e5bd fb25 d03d
00000370: 2076 043d 37a9 873c f100 b9bd 86de bd3d
00000380: ee28 f8bd 90f6 a33d a84f 76bd e699 d0bd
00000390: c299 a4bd 6cf8 08bd 4b9a 8ebc f730 cb3c
000003a0: 48f8 3abc 5723 aabc 54b1 72bd 68c2 b13d
000003b0: 5275 043d 05e3 bcbc b874 dabc 37b0 d4bd
000003c0: 0e56 3e3d 52d7 543d cb1d 38be fe82 bdbd
000003d0: 0980 a53d 5651 dfbc ba84 fe3c 328f 1bbe
000003e0: 5416 013e 897a 01be e2f4 20be dda6 00be
000003f0: 7970 adbd a511 103e aadd 4ebc 0f0e ba3b

bias f4 [10]
-0.18841197 -0.041356552 0.14277191 0.08933386 0.10294581 -0.10200396 0.06006693 0.08749301
-0.1150856 0.041546963
00000000: 11ef 40be 7d65 29bd cd32 123e acf4 b63d
00000010: 41d5 d23d 74e7 d0bd be08 763d 892f b33d
00000020: 00b2 ebbd 262d 2a3d
