Pytorch/model_data/CIFAR10_EPOCH24.pth (torch, 588839 bytes, 10 tensors)

weight f4 [32, 3, 5, 5]
-0.015911656 -0.045038875 -0.04073243 -0.11999568 -0.041678928 -0.15923852 -0.14369547 0.11206436
-0.043282125 -0.12411193 -0.13870585 -0.08046322 0.15302552 0.11094762 -0.20692024 0.07822677
-0.12438458 0.10274164 0.15416442 -0.17361476 0.053040102 -0.045702357 0.15912814 0.13017419
-0.14921457 -0.10962658 0.042268265 0.12098619 -0.054095503 -0.18642467 -0.06054789 0.07789231
-0.069533646 0.07183701 -0.21124916 -0.02818022 -0.04720513 0.09166107 0.12862718 0.011495781
0.053201895 -0.1101533 0.050055426 0.17116195 -0.018816335 0.039274506 0.0967447 0.20940737
0.18391332 0.01428437 -0.062932156 -0.07125331 -0.116158724 -0.06215773 -0.20677817 -0.009503787
0.034559242 -0.0052876533 0.060017776 -0.20072873 0.07742463 0.05373782 0.033003468 0.11187842
-0.16323216 0.018720647 0.042214036 0.1885083 0.00014141512 -0.1689771 0.06949365 0.022490963
0.18320462 0.17532182 0.06945193 0.049978424 0.11609218 0.18151058 0.06387825 -0.06104412
0.0067343535 0.09578351 -0.0046593067 -0.20989412 -0.13564025 0.14496915 -0.17722878 -0.023047552
-0.15549846 0.13265656 0.011977265 -0.042994335 0.011134896 0.15421689 -0.033285804 0.011602243
0.024399482 0.04007382 0.08903466 -0.018977633 0.054813556 0.13180062 0.11762698 0.041891556
-0.20882751 0.141587 0.04553139 -0.0013772496 -0.24724184 -0.19361213 -0.054161314 -0.17997834
-0.09515374 0.020235287 -0.08189625 -0.041383475 -0.04818742 0.009387412 0.020763433 0.02079347
-0.05091945 0.055853385 0.11563074 -0.0023234135 -0.075791284 -0.014366727 0.08980187 0.18399005
-0.073210046 0.013300459 0.06274038 0.011937756 -0.097016945 -0.17365444 0.08265767 0.046066817
-0.024749337 -0.06260513 0.030054789 0.13279195 -0.063963816 -0.09940997 0.121170774 0.09691645
0.07397574 -0.09025313 -0.06659325 0.14694807 -0.08147 -0.0012182425 0.15971316 0.055542786
-0.09794739 -0.01716483 -0.11311482 -0.0028350446 0.014474383 -0.21610291 -0.2086306 -0.14567967
-0.15285762 0.021555353 -0.02463214 -0.1009885 -0.06815827 -0.20580927 -0.1066897 -0.13883805
-0.117952235 -0.16592148 0.03286971 -0.21204035 -0.25910604 -0.20424427 -0.1588885 -0.0029242318
-0.11000915 0.074043445 0.06367095 0.061578568 0.04562737 -0.057265233 0.0067504174 0.024923641
-0.097861245 -0.0050774333 -0.03275099 0.10336174 0.14645335 -0.015531193 -0.09774192 0.18730724
0.1720731 0.10286404 0.011777023 0.0873273 -0.07126743 -0.16689481 -0.083201915 -0.04583369
-0.12349912 -0.03613763 0.1217586 0.056580946 0.116578184 -0.076574795 -0.0088247135 0.10525978
-0.047394786 0.14358567 0.06772307 0.11495927 0.121275015 0.26554894 0.20507987 0.037925206
0.24215013 0.29996732 0.19949958 0.16030386 0.08959305 0.040351085 -0.087323815 0.09371986
0.117513455 0.07965858 0.013202278 -0.049491096 0.042423267 -0.11637138 0.06344425 -0.070443325
0.0437485 0.09450955 0.0067502144 0.089187786 -0.11370313 -0.020738972 -0.028101211 0.12035345
0.056858733 0.0413389 0.02973297 0.1768619 0.09134207 -0.02693825 -0.12777428 -0.116318576
0.18255967 -0.04364633 0.017474981 0.037691355 -0.09290558 0.13205202 -0.07060322 -0.008025044
00000000: 2959 82bc af7a 38bd 0cd7 26bd 4cc0 f5bd
00000010: 86b7 2abd 6c0f 23be e824 13be 0082 e53d
00000020: 9948 31bd 652e febd e808 0ebe e7c9 a4bd
00000030: b9b2 1c3e 8138 e33d e6e2 53be 5b35 a03d
00000040: 58bd febd 356a d23d 47dd 1d3e 11c8 31be
00000050: 9440 593d 6532 3bbd 7df2 223e 624c 053e
00000060: b4cb 18be e683 e0bd 7d21 2d3d 9cc7 f73d
00000070: 3f93 5dbd 1ce6 3ebe 1001 78bd 0186 9f3d
00000080: a867 8ebd 481f 933d b351 58be 34da e6bc
00000090: 2b5a 41bd cdb8 bb3d d8b6 033e cd58 3c3c
000000a0: 3bea 593d 0e98 e1bd eb06 4d3d 1445 2f3e
000000b0: b724 9abc 4ede 203d 1622 c63d e36e 563e
000000c0: c653 3c3e fd08 6a3c 93e2 80bd 41ed 91bd
000000d0: a0e4 edbd 1b99 7ebd a8bd 53be c6b5 1bbc
000000e0: fe8d 0d3d 0d44 adbb 33d5 753d d58b 4dbe
000000f0: ce90 9e3d 301c 5c3d a52e 073d 8320 e53d
00000100: 5526 27be 0b5c 993c a0e8 2c3d 5208 413e
00000110: d548 1439 5508 2dbe b052 8e3d f83e b83c
00000120: fe99 3b3e 9087 333e d03c 8e3d 2db6 4c3d
00000130: bdc1 ed3d e9dd 393e 9ad2 823d 6609 7abd
00000140: daab dc3b 252a c43d 19ad 98bb 7cee 56be
00000150: 47e5 0abe cb72 143e 767b 35be 38ce bcbc
00000160: fd3a 1fbe 1fd7 073e 4a3c 443c d41a 30bd
00000170: 246f 363c 08eb 1d3e b256 08bd 5617 3e3c
00000180: 6ce1 c73c 7224 243d ce57 b63d fb76 9bbc
00000190: 2e84 603d bef6 063e 6ae6 f03d 7b96 2b3d
000001a0: e1d6 55be 2ffc 103e 1f7f 3a3d d484 b4ba
000001b0: f72c 7dbe 4242 46be 41d8 5dbd 3e4c 38be
000001c0: f7df c2bd 79c4 a53c 39b9 a7bd b881 29bd
000001d0: 2c60 45bd a9cd 193c 1318 aa3c 1157 aa3c
000001e0: ea90 50bd 85c6 643d cfcf ec3d 6944 18bb
000001f0: 7638 9bbd 6c62 6bbc 0bea b73d e367 3c3e
00000200: 26ef 95bd 2bea 593c 077e 803d 9496 433c
00000210: d2b0 c6bd 78d2 31be 6d48 a93d 8fb0 3c3d
00000220: 1fbf cabc 1e37 80bd 7635 f63c 9dfa 073e
00000230: 76ff 82bd 7497 cbbd 6228 f83d 227c c63d
00000240: 9880 973d a2d6 b8bd 0b62 88bd 8e79 163e
00000250: bed9 a6bd 6fad 9fba d98b 233e d580 633d
00000260: a498 c8bd 429d 8cbc bea8 e7bd 28cc 39bb
00000270: f625 6d3c 154a 5dbe 43a3 55be 0d2d 15be
00000280: b586 1cbe da94 b03c 57c9 c9bc 0fd3 cebd
00000290: 9096 8bbd aabf 52be 2180 dabd 902b 0ebe
000002a0: f190 f1bd 52e7 29be 64a2 063d 1b21 59be
000002b0: 8ca9 84be 6925 51be abb3 22be 78a4 3fbb
000002c0: 7a4c e1bd 17a4 973d ea65 823d cf39 7c3d
000002d0: c4e3 3a3d f38e 6abd 9b32 dd3b aa2c cc3c
000002e0: 7a6b c8bd 9960 a6bb e725 06bd 52af d33d
000002f0: def7 153e 8c76 7ebc ea2c c8bd 78cd 3f3e
00000300: ee33 303e 62aa d23d 6af4 403c a8d8 b23d
00000310: a9f4 91bd 79e6 2abe c465 aabd 1bbc 3bbd
00000320: 1bed fcbd 0d05 14bd 935c f93d 6cc1 673d
00000330: 8bc0 ee3d 3fd3 9cbd 8895 10bc 7192 d73d
00000340: 0921 42bd 1f08 133e 65b2 8a3d c46f eb3d
00000350: 095f f83d 08f6 873e 7500 523e 7657 1b3d
00000360: 34f6 773e 5195 993e 9e49 4c3e b226 243e
00000370: 907c b73d 2e47 253d d4d6 b2bd 33f0 bf3d
00000380: e5aa f03d 0a24 a33d 5e4e 583c 2db7 4abd
00000390: 05c4 2d3d 1e54 eebd 0fef 813d 9744 90bd
000003a0: a131 333d 398e c13d e730 dd3b 16a8 b63d
000003b0: 30dd e8bd c7e4 a9bc 8334 e6bc df7b f63d
000003c0: b4e4 683d fa52 293d 8f92 f33c 491b 353e
000003d0: 8d11 bb3d 9bad dcbc 43d7 02be 6f38 eebd
000003e0: ecf0 3a3e 7ec6 32bd b127 8f3c 4062 1a3d
000003f0: 4845 bebd a538 073e 6c98 90bd 797b 03bc

bias f4 [32]
-0.18244106 -0.0331057 0.034928624 -0.12228308 -0.019088943 0.1671755 -0.35004774 -0.40166762
-0.10798031 -0.015272586 0.100060016 -0.0746964 -0.09640718 -0.103184186 -0.015490809 -0.08877436
0.0037794763 -0.36461243 -0.03543971 -0.07196787 -0.008165144 0.058514774 0.061716788 0.14849237
-0.31572917 -0.0088127535 -0.17646278 0.28015414 -0.27795658 0.041275803 -0.10518006 0.099240966
00000000: d4d1 3abe d899 07bd 5111 0f3d 8d6f fabd
00000010: 6a60 9cbc 0e30 2b3e 7539 b3be 61a7 cdbe
00000020: c824 ddbd de39 7abc 44ec cc3d 6dfa 98bd
00000030: 2171 c5bd 3b52 d3bd 2acd 7dbc 55cf b5bd
00000040: 17b1 773b 7bae babe 3b29 11bd e463 93bd
00000050: 19c7 05bc 30ad 6f3d beca 7c3d 620e 183e
00000060: 41a7 a1be 5e63 10bc a9b2 34be 5d70 8f3e
00000070: 5350 8ebe d110 293d a568 d7bd d93e cb3d

weight f4 [32, 32, 5, 5]
-0.0041096057 -0.021824954 -0.035754632 -0.014932952 -0.03348965 0.03456765 0.0038248377 0.02677654
0.0314075 0.019338317 0.026187588 0.0070850574 -0.025600133 0.0028362738 0.039085813 -3.0187159e-05
-0.02009757 -0.06251776 -0.039028957 -0.01919965 0.032157626 0.024632797 0.02537443 0.021782422
0.0062919524 -0.036201775 0.009455765 -0.017411731 0.030029818 -0.012677191 -0.022955887 0.022894308
0.017048074 0.011511319 -0.027666135 0.044311617 -0.012195323 0.005157149 0.01016238 0.029776035
0.01785021 0.04246607 -0.0048716217 0.02113283 0.027616236 -0.0017574673 0.07223944 0.055400807
0.04064667 -0.020006219 0.032484297 0.042868853 0.011076951 0.028478518 0.03733852 0.0072055357
-0.01776979 -0.033168983 0.004127575 0.0065747234 -0.047372293 -0.011165967 0.016967343 0.0003140616
-0.03912972 0.0021948928 0.002406335 -0.0493491 -0.001526749 0.0111941025 -0.050542332 -0.0017073371
-0.010135229 -0.010294588 0.03372044 -0.009637915 0.022808284 -0.024949925 0.0054374263 -0.0193995
0.0101142 -0.014936176 -0.01137476 -0.00627877 0.0026261928 0.014526715 0.0011842248 0.024743767
0.010018622 0.010421135 -0.0013367992 0.03376739 0.036805507 0.025646543 0.02070645 0.0087725725
0.017904421 -0.018637244 0.009006447 0.033126075 0.035111267 -0.017604493 -0.028161578 -0.0029515433
-0.0025526008 -0.020301985 -0.030183887 -0.027411887 -0.059807796 -0.013354825 -0.0024504906 -0.035195023
-0.033695854 0.00020181846 -0.012479929 -0.024601763 0.034461964 0.036705885 0.015537065 -0.0055765323
0.007231467 0.00603071 0.016223192 -0.019999642 0.003591389 0.026163377 -0.00051784207 0.011975334
0.06356246 -0.01675156 0.024243528 0.024316425 0.051750727 0.03132572 0.005374886 0.03210976
0.06606463 -0.016760468 -0.020422969 -0.005823501 0.083857164 -0.007319092 -0.0432355 -0.028782707
0.0363617 0.0041865194 -0.070297286 0.030245775 0.08123571 0.0022685924 0.0086689405 0.04976495
0.03782612 0.013548267 0.049646884 0.016116645 0.036646746 0.03686927 -0.00870282 0.014652143
-0.00047555898 0.0064584743 0.010650789 0.010045179 -0.016808767 0.024035016 0.012811495 0.057160567
0.0068768524 0.0012895 -0.0043450473 0.036464877 0.032535736 -0.025061036 0.04142512 -0.030842153
-0.03631421 -0.029830454 0.028473657 -0.04370108 -0.017289685 -0.00058677053 -0.010921341 0.027912416
-0.030684002 -0.0057939803 0.00014031515 0.049461544 0.044902522 0.06313183 0.03893999 0.03679713
0.07025753 0.074399434 0.06638183 0.06368574 0.08674079 0.045688163 0.04023656 0.05880706
0.012671888 0.031109119 0.012802735 -0.037495375 -0.01237512 0.015071691 5.5459484e-05 -0.03125409
-0.060428414 0.0036975448 -0.011591759 -0.027444795 -0.041495766 -0.052229814 -0.04503307 -0.024226736
0.036724668 0.016535912 0.07469505 -0.008720723 -0.04629097 0.036614656 0.017530298 0.00050331245
-0.0011612104 0.00822299 -0.016560214 -0.04426985 -0.044449814 0.0024680889 0.026317796 0.0027053952
0.017417287 -0.02672062 -0.018812675 0.0037201077 0.032076217 0.010404987 0.015249794 0.048211023
-0.01318205 0.02332034 0.02355458 0.07259958 0.05023381 0.033797145 0.023302933 0.025734339
0.056278355 0.045155883 0.012470688 -0.024256289 -0.022389924 -0.016297905 -0.04310068 0.06179255
00000000: dfa9 86bb 3fca b2bc 7373 12bd 57a9 74bc
00000010: 712c 09bd cf96 0d3d 21aa 7a3b 795a db3c
00000020: 27a5 003d 646b 9e3c 5a87 d63c c529 e83b
00000030: 5fb7 d1bc c7e0 393b 7218 203d 6e3a fdb7
00000040: a9a3 a4bc 5009 80bd d4dc 1fbd 9648 9dbc
00000050: b7b7 033d b8ca c93c 09de cf3c 0d71 b23c
00000060: b92c ce3b 5048 14bd 5aec 1a3c 0ca3 8ebc
00000070: 1801 f63c feb3 4fbc fc0d bcbc d88c bb3c
00000080: 67a8 8b3c f999 3c3c 17a4 e2bc 1980 353d
00000090: e4ce 47bc 4dfd a83b 1c80 263c dfec f33c
000000a0: 9b3a 923c e7f0 2d3d 20a2 9fbb c21e ad3c
000000b0: 723b e23c d15a e6ba 46f2 933d f5eb 623d
000000c0: 1f7d 263d 15e4 a3bc 410e 053d 4097 2f3d
000000d0: 1a7c 353c c84b e93c 47f0 183d 6a1c ec3b
000000e0: f391 91bc 33dc 07bd 9c40 873b c770 d73b
000000f0: 7309 42bd 76f1 36bc 19ff 8a3c a2a8 a439
00000100: 7c46 20bd 31d8 0f3b 9ab3 1d3b 4822 4abd
00000110: 321d c8ba 7867 373c 7a05 4fbd bac8 dfba
00000120: 3b0e 26bc a2aa 28bc 721e 0a3d 58e8 1dbc
00000130: 70d8 ba3c c963 ccbc 702c b23b b3eb 9ebc
00000140: 08b6 253c ddb6 74bc 345d 3abc 24be cdbb
00000150: 341c 2c3b 7501 6e3c fe37 9b3a 71b3 ca3c
00000160: 2525 243c 69bd 2a3c 8a37 afba ad4f 0a3d
00000170: 5fc1 163d b318 d23c 93a0 a93c d6ba 0f3c
00000180: 4bac 923c 22ad 98bc c78f 133c 35af 073d
00000190: d5d0 0f3d 4c37 90bc 1cb3 e6bc ae6e 41bb
000001a0: 8949 27bb 5950 a6bc 3344 f7bc e58e e0bc
000001b0: 05f9 74bd 32ce 5abc 6998 20bb a828 10bd
000001c0: aa04 0abd 3b9f 5339 9e78 4cbc a389 c9bc
000001d0: fd27 0d3d e958 163d 2d8f 7e3c 58bb b6bb
000001e0: f1f5 ec3b 439d c53b 80e6 843c 4ad6 a3bc
000001f0: 825d 6b3b 9454 d63c cbbf 07ba 3134 443c
00000200: 092d 823d 913a 89bc 5d9a c63c 3d33 c73c
00000210: 92f8 533d 664f 003d d01f b03b 8685 033d
00000220: e54c 873d 404d 89bc 124e a7bc 11d3 bebb
00000230: 4ebd ab3d fed4 efbb b517 31bd b6c9 ebbc
00000240: 02f0 143d 122f 893b 06f8 8fbd fdc5 f73c
00000250: e85e a63d aaac 143b 2c08 0e3c 55d6 4b3d
00000260: 90ef 1a3d 8df9 5d3c 885a 4b3d 0e07 843c
00000270: e61a 163d 3b04 173d 4696 0ebc 8b0f 703c
00000280: 7254 f9b9 9ca1 d33b a680 2e3c 8994 243c
00000290: 8ab2 89bc 15e5 c43c 4ee7 513c 3321 6a3d
000002a0: 3857 e13b 7104 a93a e660 8ebb 325c 153d
000002b0: 3144 053d cd4c cdbc 63ad 293d afa8 fcbc
000002c0: 36be 14bd ff5e f4bc 9641 e93c e7ff 32bd
000002d0: 19a3 8dbc 81d1 19ba 6def 32bc 94a8 e43c
000002e0: 045d fbbc 6edb bdbb 9021 1339 3098 4a3d
000002f0: b5eb 373d 434b 813d 8a7f 1f3d 96b8 163d
00000300: 2ee3 8f3d bb5e 983d 32f3 873d ab6d 823d
00000310: 28a5 b13d 8323 3b3d 17cf 243d acdf 703d
00000320: c09d 4f3c 8dd8 fe3c 90c2 513c c094 19bd
00000330: 04c1 4abc 41ef 763c 2b9d 6838 4a04 00bd
00000340: c983 77bd 8252 723b 5ceb 3dbc e8d3 e0bc
00000350: 77f7 29bd eeee 55bd 9974 38bd 2677 c6bc
00000360: 9b6c 163d 5276 873c b8f9 983d 5de1 0ebc
00000370: 9a9b 3dbd 40f9 153d b39b 8f3c baf0 033a
00000380: c133 98ba b8b9 063c 49a9 87bc 4d54 35bd
00000390: 0211 36bd a9bf 213b 6b98 d73c 004d 313b
000003a0: b3ae 8e3c 34e5 dabc 0a1d 9abc 0dcd 733b
000003b0: 5a62 033d ae79 2a3c 46da 793c ec78 453d
000003c0: 86f9 57bc 4c0a bf3c 89f5 c03c 17af 943d
000003d0: f8c1 4d3d e06e 0a3d cbe5 be3c d2d0 d23c
000003e0: 2284 663d 60f5 383d db51 4c3c 20b5 c6bc
000003f0: 136b b7bc 2f83 85bc 578a 30bd 2f1a 7d3d

bias f4 [32]
-0.029432723 0.025956789 -0.15237015 -0.07334201 0.02116333 -0.0016942627 0.028564282 0.014342087
-0.18144116 -0.09447207 -0.26761985 -0.08577972 0.12490259 -0.060839172 -0.17425165 -0.0642147
-0.057314564 0.004138349 -0.14972821 -0.17525066 -0.1320349 0.016026337 -0.069257654 0.057962164
-0.04534247 -0.05348594 -0.0641471 -0.1328761 -0.16707022 -0.041323572 -0.1333292 -0.14986135
00000000: e51c f1bc 55a3 d43c ec06 1cbe 5634 96bd
00000010: b85e ad3c 0612 deba a4ff e93c 13fb 6a3c
00000020: b6cb 39be 937a c1bd 7805 89be 47ad afbd
00000030: eecc ff3d 7f32 79bd 066f 32be ff82 83bd
00000040: adc2 6abd fd9a 873b 5a52 19be e974 33be
00000050: 2834 07be aa49 833c f5d6 8dbd bc69 6d3d
00000060: 07b9 39bd 1314 5bbd 8e5f 83bd ac10 08be
00000070: 7514 2bbe e842 29bd 7387 08be 4175 19be

weight f4 [64, 32, 5, 5]
-0.046300285 0.013353378 0.020888766 0.012893364 0.032640513 -0.0013305439 0.018213123 -0.023628248
-0.03395895 -0.011522249 -0.026755298 0.0004784315 0.024401413 -0.016576562 0.006250966 -0.029888125
0.019477341 -0.028708663 0.02933965 -0.0061502764 0.026329877 0.04857588 -0.0050055347 -0.01810966
-0.034060538 0.008898226 -0.06996899 0.03611297 0.023809157 0.00066819333 0.019196207 -0.0018640647
-0.0035094863 0.004584818 -0.023812214 -0.014581219 0.0006943534 0.023840077 0.0073535866 -0.04399558
0.01880177 -0.022706747 -0.015601524 0.025055913 -0.008648854 -0.032099433 -0.0038833926 -0.033389695
0.050257772 0.018564984 -0.026966373 -0.00022851945 0.013025316 -0.052266087 0.00032589864 -0.064916
-0.07509142 -0.0037375009 0.007820024 -0.02160888 -0.04419826 -0.020758273 -0.0050687427 0.042194247
0.03614284 -0.07810596 0.04077624 0.023980608 0.035828024 0.04143139 -0.009436579 0.01071012
0.060092263 0.057802226 0.080892295 -0.040739868 -0.010634755 -0.0071648974 -0.024891315 0.040166102
0.009311995 -0.02682549 0.015615605 0.0578788 0.009865158 0.00031724013 0.011830415 -0.009303965
-0.054456513 -0.051090095 0.022746826 -0.009645559 0.0068204966 -0.033792578 -0.06055584 0.003467863
-0.034186788 -0.03990556 -0.017882977 -0.042884745 0.00025214526 0.0014015073 0.008023285 0.0140294805
-0.033574283 -0.03818465 0.052545656 0.0481649 -0.0010431731 0.025500638 -0.034347985 -0.017640106
0.0033021702 0.03921156 0.0068779206 -0.008502058 -0.0076131136 -0.008550038 -0.00980793 -0.035024427
-0.020299021 -0.02060202 -0.022986136 -0.040732924 -0.005451527 -0.008346102 0.027071914 -0.044764746
-0.025613734 0.027205084 -0.028126847 0.00027087328 -0.059911337 -0.01804043 -0.0234758 -0.033169962
0.011106538 -0.032136653 -0.030878995 -0.044772934 0.00013236795 0.012379995 -0.03787309 -0.044420473
-0.03211804 -0.017354697 -0.035958067 -0.038043056 -0.02167414 -0.0008506947 -0.02624155 0.017034957
0.00278002 0.004181378 0.0020745131 -0.043239318 0.023868788 0.03861544 0.0042945184 -0.02235155
-0.04123312 -7.0694725e-05 -0.029414363 -0.006576272 -0.032585267 -0.029110951 0.022397662 0.019296609
0.008589053 0.042894144 0.036148533 -0.0039939685 0.00024240825 -0.019153759 -0.010207312 -0.011400893
-0.014157288 0.02373647 -0.013932576 -0.017989442 0.035946395 0.043965675 0.030279307 0.018240377
0.03162572 0.00232585 0.033363655 0.012556895 0.0066531124 -0.019090883 -0.0004959626 0.048908
0.04335284 0.039737605 -0.0019486484 -0.03346446 0.011760286 0.042565193 0.009633127 -0.014731681
0.014652742 0.010222791 -0.02126421 -0.017953629 -0.00032859054 -0.020509483 -0.0063581816 -0.019684361
-0.018548617 0.02100208 -0.046993587 -0.027946232 -0.030667363 0.009949047 -0.023273716 -0.031412374
0.008198117 0.005157033 -0.010858198 0.029344013 -0.059738915 0.024608918 -0.009750501 -0.012492842
-0.014913337 -0.00046415778 -0.038006753 -0.004753312 0.002620347 -0.004290308 -0.016102774 0.0115121845
-0.011724215 -0.051070027 -0.003161379 0.029549176 -0.038385812 -0.02210994 -0.04593273 -0.0019785182
0.010267207 -0.056014962 0.016124623 -0.012576869 -0.015180034 -0.0008288683 -0.048917636 0.0032944875
0.00072258594 -0.06885757 -0.024582654 -0.056956038 -0.03431987 0.026715875 0.008989081 -0.033646427
00000000: 5ea5 3dbd 20c8 5a3c eb1e ab3c b03e 533c
00000010: 0fb2 053d a565 aeba b033 953c 0790 c1bc
00000020: 8a18 0bbd d1c7 3cbc ed2d dbbc fdd5 fa39
00000030: 79e5 c73c 92cb 87bc e7d4 cc3b f1d7 f4bc
00000040: f28e 9f3c 6e2e ebbc b559 f03c 4288 c9bb
00000050: c1b1 d73c 80f7 463d 7805 a4bb b65a 94bc
00000060: 1083 0bbd ddc9 113c e74b 8fbd 32eb 133d
00000070: 6c0b c33c b229 2f3a 5d41 9d3c a253 f4ba
00000080: 69ff 65bb 3e3c 963b d511 c3bc 11e6 6ebc
00000090: 4505 363a 444c c33c 5bf6 f03b b634 34bd
000000a0: 2b06 9a3c 8003 babc 899d 7fbc 0f42 cd3c
000000b0: ecb3 0dbc b27a 03bd 8480 7ebb a2c3 08bd
000000c0: 18db 4d3d 9815 983c 95e8 dcbc b99e 6fb9
000000d0: 2368 553c f714 56bd 60dd aa39 aef2 84bd
000000e0: 88c9 99bd dcf0 74bb 8f1f 003c 1b05 b1bc
000000f0: 3c09 35bd 410d aabc b217 a6bb e0d3 2c3d
00000100: 840a 143d 04f6 9fbd fd04 273d fb72 c43c
00000110: 68c0 123d f6b3 293d e29b 1abc 8079 2f3c
00000120: 4e23 763d 07c2 6c3d dcaa a53d d9de 26bd
00000130: 653d 2ebc 84c7 eabb dfe8 cbbc 3685 243d
00000140: 5691 183c 21c1 dbbc 98d8 7f3c 5212 6d3d
00000150: 79a1 213c 4053 a639 5bd4 413c a86f 18bc
00000160: cb0d 5fbd d943 51bd 8d57 ba3c 6808 1ebc
00000170: 797e df3b 166a 0abd 6709 78bd 1645 633b
00000180: 7207 0cbd 0374 23bd 527f 92bc eaa7 2fbd
00000190: 5d32 8439 c8b2 b73a 1974 033c e8db 653c
000001a0: 3085 09bd 8267 1cbd 1d3a 573d 8f48 453d
000001b0: 15bb 88ba b7e6 d03c 79b0 0cbd fc81 90bc
000001c0: 3969 583b 4d9c 203d 2e60 e13b 374c 0bbc
000001d0: 6d77 f9bb 7515 0cbc 71b1 20bc c675 0fbd
000001e0: 224a a6bc 91c5 a8bc 6c4d bcbc 91d7 26bd
000001f0: b9a2 b2bb 17be 08bc ebc5 dd3c 3d5b 37bd
00000200: e5d3 d1bc 32dd de3c 466a e6bc ff03 8e39
00000210: 9765 75bd 86c9 93bc 5250 c0bc 3add 07bd
00000220: 32f8 353c b9a1 03bd f2f5 fcbc d363 37bd
00000230: 40cc 0a39 76d5 4a3c d020 1bbd 3ef2 35bd
00000240: 358e 03bd 702b 8ebc c448 13bd 09d3 1bbd
00000250: f78d b1bc 2801 5fba 85f8 d6bc e58c 8b3c
00000260: ff30 363b f103 893b 8ef4 073b b61b 31bd
00000270: 7a88 c33c 392b 1e3d 08b9 8c3b 991a b7bc
00000280: 0fe4 28bd f141 94b8 64f6 f0bc c57d d7bb
00000290: 2178 05bd 177a eebc 4d7b b73c ec13 9e3c
000002a0: 19b9 0c3c c5b1 2f3d 7c10 143d d6df 82bb
000002b0: f82e 7e39 58e8 9cbc 923c 27bc d0ca 3abc
000002c0: f8f3 67bc fc72 c23c 7645 64bc 985e 93bc
000002d0: 873c 133d 5a15 343d 4f0c f83c d86c 953c
000002e0: f989 013d 4a6d 183b 54a8 083d 6fbb 4d3c
000002f0: 5a02 da3b 7c64 9cbc 7d03 02ba c153 483d
00000300: bf92 313d e6c3 223d ca69 ffba 0812 09bd
00000310: 37ae 403c d758 2e3d 43d4 1d3c 265d 71bc
00000320: 0e12 703c 7e7d 273c 4832 aebc 7d13 93bc
00000330: ad46 acb9 8103 a8bc 4b58 d0bb 1941 a1bc
00000340: 45f3 97bc 8e0c ac3c 597c 40bd 7fef e4bc
00000350: 1f3a fbbc 5401 233c 85a8 bebc 43aa 00bd
00000360: 6551 063c 54fc a83b 95e6 31bc db62 f03c
00000370: cbb0 74bd a498 c93c 91c0 1fbc c7ae 4cbc
00000380: 1257 74bc 345a f3b9 f8ac 1bbd acc1 9bbb
00000390: 21ba 2b3b b695 8cbb f7e9 83bc 9a9d 3c3c
000003a0: ec16 40bc ce2e 51bd 232f 4fbb 1d11 f23c
000003b0: 713a 1dbd e81f b5bc f523 3cbd 07aa 01bb
000003c0: ca37 283c f26f 65bd c917 843c 360f 4ebc
000003d0: adb5 78bc 6948 59ba dc5d 48bd 54e8 573b
000003e0: ec6b 3d3a 3305 8dbd 9061 c9bc bc4a 69bd
000003f0: fe92 0cbd 40db da3c f046 133c d6d0 09bd

bias f4 [64]
-0.10834706 0.015211178 -0.075931974 -0.035039507 -0.16363835 -0.06635787 -0.07460671 -0.07032606
-0.014427191 0.003906318 -0.08597028 -0.05570176 -0.092474885 -0.07262048 0.02578535 -0.05286862
-0.06140498 -0.051264793 -0.052465647 -0.05041421 -0.03991938 -0.010187888 -0.017936513 -0.02542866
-0.019290391 -0.10736631 -0.042429708 -0.053317644 -0.08829391 -0.050834134 0.005775296 -0.065207414
-0.06084587 -0.0048461724 -0.089611635 -0.03991409 -0.047295343 -0.035099544 -0.0033663865 -0.067765936
-0.067828596 -0.1512388 -0.15050006 -0.06927052 -0.021222785 -0.08564355 -0.009292997 -0.08613486
-0.023769015 -0.10132884 -0.107448384 -0.160404 -0.09701353 -0.008431498 -0.072491065 -0.024843037
-0.0022072962 -0.09067419 -0.08419088 -0.06729676 -0.034110665 -0.089958444 -0.06704564 -0.054958344
00000000: 10e5 ddbd 4e38 793c 3982 9bbd 9685 0fbd
00000010: d090 27be a3e6 87bd 67cb 98bd 1c07 90bd
00000020: 0660 6cbc 9200 803b 3011 b0bd 8727 64bd
00000030: 7963 bdbd 0cba 94bd cc3b d33c c48c 58bd
00000040: ca83 7bbd 08fb 51bd 38e6 56bd 217f 4ebd
00000050: 8182 23bd 19eb 26bc 98ef 92bc c44f d0bc
00000060: e206 9ebc dee2 dbbd c6ca 2dbd 9a63 5abd
00000070: 70d3 b4bd 7437 50bd b23e bd3b 778b 85bd
00000080: 8539 79bd a4cc 9ebb 4e86 b7bd f57c 23bd
00000090: c3b8 41bd 8ac4 0fbd 989e 5cbb dec8 8abd
000000a0: b8e9 8abd 58de 1abe b01c 1abe b4dd 8dbd
000000b0: 68db adbc e365 afbd a841 18bc 7967 b0bd
000000c0: 3db7 c2bc 7f85 cfbd e60d dcbd f240 24be
000000d0: 08af c6bd 4424 0abc 3276 94bd a083 cbbc
000000e0: 49a8 10bb 64b3 b9bd 456c acbd e2d2 89bd
000000f0: a0b7 0bbd 223c b8bd 394f 89bd 001c 61bd

weight f4 [64, 1024]
-0.014204718 0.056824155 0.042114433 0.009187423 0.070563175 0.041703817 0.028509207 -0.0031445774
-0.00530859 -0.0084724985 0.038000017 0.010969044 -0.02297757 -0.011646718 -0.00035200524 -0.0031279738
-0.02288983 0.012860522 0.010131916 0.010306021 -0.04343851 -0.00384885 0.043149095 0.014843277
-0.013039109 -0.03256596 -0.04226323 -0.06195001 0.024833873 -0.026239181 0.0040665166 0.0048486204
0.016146136 0.016070187 -0.011107621 0.010513651 0.007319698 -0.038780455 0.00172109 0.0034445825
0.014492932 -0.021112088 0.03967119 0.011476954 0.034774773 0.013209107 -0.018356847 0.056540176
-0.012504291 -0.024556888 0.03047193 -0.014810684 0.033240575 0.008747791 -0.012796548 -0.00094886665
0.08224121 0.013465025 0.0009461846 0.031888172 0.05553228 0.027684955 0.057902027 0.062223345
-0.028936123 0.06310253 -0.016764633 0.016194167 0.041571178 0.01004717 -0.03298276 0.038182784
-0.002365496 -0.005964031 0.053337492 0.015136325 0.038158275 -0.032855306 0.0061042383 -0.040035695
-0.014272557 0.036385592 0.017261727 0.041221246 -0.026707407 0.023740139 0.014150938 0.019535428
0.025276596 0.011568954 -0.007936248 -0.022239102 -0.0130596915 0.01792302 0.000812832 0.023853255
-0.0040755956 0.032231994 0.04733348 0.0027034986 -0.024471242 -0.009038039 -0.029585833 -0.061502993
0.019231517 0.033461824 -0.015116859 0.045832638 0.009829455 0.067113936 -0.0057041678 0.028843975
0.02883609 0.004322564 0.011563246 -0.0019818256 -0.012700312 -0.03565153 -0.028712753 0.010015375
-0.013604074 -0.065311305 -0.0014381687 -0.018405251 -0.015360705 0.017775944 -0.022628872 0.036833808
0.011346877 -0.04139897 -0.055351447 -0.044517633 0.0684363 0.015676962 -0.018645797 -0.046093352
-0.010188309 0.008076354 -0.036998723 0.015734483 0.0040544793 -0.07622813 -0.038476754 0.033079576
0.007511718 -0.019391404 0.03238709 -0.031529587 0.00017777992 0.0005916532 -0.009876591 0.0016926166
0.032988373 -0.009443027 -0.03162839 -0.018476771 0.004890405 -0.0074109957 -0.0345645 -0.00508084
-0.024910407 -0.052105103 0.005820955 -0.038131427 -0.031640746 -0.004618448 0.034890033 0.003540516
0.017793747 0.011929083 0.028850693 -0.0026564484 0.0061366153 0.033523943 0.06483206 -0.022449134
0.03593604 -0.011114739 -0.009533072 0.029743366 -0.02267729 0.08417581 -0.024309251 0.048349317
0.010235966 0.028218037 -0.005774887 0.028286 0.025181284 0.00899857 0.047924504 0.027147148
0.017401952 0.05998277 0.009872407 0.0036819326 0.015384453 -0.00731649 0.030818634 -0.04234246
0.019835122 0.018424328 -0.0067752306 -0.024983747 0.034060504 -0.02591376 0.013563267 -0.037442237
-0.03399196 0.006868546 -0.005559915 0.05691506 -0.017342098 0.034635976 0.015763965 0.010871082
0.011867762 -0.004091507 -0.0397369 0.031722147 -0.009041414 -0.023789119 0.016835382 0.015642775
-0.028361613 0.0042132325 -0.030606302 -0.031938486 0.003368054 0.0021623955 -0.018978894 -0.03288991
0.048782878 0.02953951 -0.0010127753 -0.009548428 0.028246474 0.031257395 0.01017629 0.016695347
-0.004732823 0.0422353 0.002074422 0.0072416267 0.004568448 -0.004364577 -0.016079845 -0.005605298
0.008324004 -0.03476771 0.014445251 0.0030425622 0.035235424 0.07038854 0.08770615 0.025859922
00000000: e8ba 68bc 72c0 683d 2f80 2c3d d886 163c
00000010: 6d83 903d 9fd1 2a3d 248c e93c 4115 4ebb
00000020: aef3 adbb 3cd0 0abc e8a5 1b3d 81b7 333c
00000030: 753b bcbc e0d1 3ebc 588d b8b9 b1fe 4cbb
00000040: 7483 bbbc f0b4 523c 5600 263c 96da 283c
00000050: 94ec 31bd fd3c 7cbb 1bbd 303d 3731 733c
00000060: fda1 55bc e263 05bd 351c 2dbd 4bbf 7dbd
00000070: 6870 cb3c 8df3 d6bc 6a40 853b 2de1 9e3b
00000080: e744 843c a0a5 833c bdfc 35bc 7341 2c3c
00000090: 14da ef3b 41d8 1ebd 3396 e13a 81be 613b
000000a0: c373 6d3c 42f3 acbc 427e 223d d609 3c3c
000000b0: fe6f 0e3d 036b 583c 1961 96bc ac96 673d
000000c0: ccde 4cbc 872b c9bc 45a0 f93c 83a8 72bc
000000d0: 4527 083d e552 0f3c 9da8 51bc 5dbd 78ba
000000e0: 146e a83d 699c 5c3c 6009 783a 2c9d 023d
000000f0: d175 633d 8fcb e23c ad2a 6d3d e8dd 7e3d
00000100: 730b edbc e63b 813d fc55 89bc a1a9 843c
00000110: 8a46 2a3d e39c 243c ee18 07bd 8d65 1c3d
00000120: 7006 1bbb eb6d c3bb 6a78 5a3d 59fe 773c
00000130: da4b 1c3d 4993 06bd 1006 c83b 78fc 23bd
00000140: 71d7 69bc 0f09 153d 7768 8d3c 9cd7 283d
00000150: 7ec9 dabc ae7a c23c 56d9 673c c308 a03c
00000160: dd10 cf3c b68b 3d3c 0907 02bc c72e b6bc
00000170: 51f8 55bc 4cd3 923c 3b14 553a e767 c33c
00000180: 938c 85bb b205 043d c0e0 413d 2e2d 313b
00000190: ea77 c8bc 4814 14bc fd5d f2bc 90ea 7bbd
000001a0: 6a8b 9d3c 440f 093d b4ac 77bc 01bb 3b3d
000001b0: b90b 213c 0873 893d 07ea babb 334a ec3c
000001c0: aa39 ec3c 4ca4 8d3b c573 3d3c 84e1 01bb
000001d0: f814 50bc 5707 12bd 0237 ebbc 8717 243c
000001e0: 9fe3 5ebc efc1 85bd ef80 bcba 9cc6 96bc
000001f0: 77ab 7bbc db9e 913c 2f60 b9bc 0cdf 163d
00000200: 40e8 393c f791 29bd 33b8 62bd 1f58 36bd
00000210: 5528 8c3d f96c 803c 12bf 98bc 62cc 3cbd
00000220: ddec 26bc af52 043c f98b 17bd 9ae5 803c
00000230: 70db 843b 7e1d 9cbd cd99 1dbd 737e 073d
00000240: dc24 f63b b9da 9ebc 53a8 043d 2b25 01bd
00000250: 6f6a 3a39 2d19 1b3a 6dd1 21bc cada dd3a
00000260: d11e 073d edb6 1abc c58c 01bd 995c 97bc
00000270: b13f a03b f0d7 f2bb 8193 0dbd 2d7d a6bb
00000280: e910 ccbc 296c 55bd b6bd be3b b32f 1cbd
00000290: ba99 01bd 5a56 97bb dae8 0e3d 0008 683b
000002a0: 31c4 913c 3372 433c 4a58 ec3c cf17 2ebb
000002b0: a915 c93b 6750 093d acc6 843d 3fe7 b7bc
000002c0: ab31 133d 981a 36bc 9a30 1cbc 5ca8 f33c
000002d0: b9c5 b9bc 5e64 ac3d 3224 c7bc ef09 463d
000002e0: c1b4 273c 8329 e73c 433b bdbb 0bb8 e73c
000002f0: fb48 ce3c bd6e 133c 7c4c 443d b263 de3c
00000300: 8a8e 8e3c 7eb0 753d e0bf 213c 944c 713b
00000310: 130f 7c3c 2bbf efbb 5c77 fc3c 4a6f 2dbd
00000320: 447d a23c 9eee 963c c102 debb b7aa ccbc
00000330: 0783 0b3d 1849 d4bc 7738 5e3c 085d 19bd
00000340: 273b 0bbd 8a11 e13b f32f b6bb c41f 693d
00000350: 0411 8ebc 74de 0d3d 6e23 813c 9f1c 323c
00000360: 0071 423c 0c12 86bb 29c3 22bd 15ef 013d
00000370: 7022 14bc 66e1 c2bc 5bea 893c 4725 803c
00000380: 9d56 e8bc 280f 8a3b 11ba fabc eed1 02bd
00000390: 92ba 5c3b fab6 0d3b a079 9bbc 92b7 06bd
000003a0: 8ed0 473d d8fc f13c 1abf 84ba 0271 1cbc
000003b0: 2665 e73c c107 003d 74ba 263c aec4 883c
000003c0: cc15 9bbb ecfe 2c3d 07f3 073b 2b4b ed3b
000003d0: ebb2 953b ba04 8fbb e1b9 83bc a6ac b7bb
000003e0: 6761 083c 9668 0ebd c6ab 6c3c b965 473b
000003f0: 0553 103d de27 903d 489f b33d 30d8 d33c

bias f4 [64]
-0.027132757 0.00017489077 -0.038790017 -0.020375377 0.010622354 0.021536056 -0.0017841117 -0.03304176
0.011853489 -0.05532659 0.0035622027 0.0024597321 0.004530059 0.04241186 -0.011583277 -0.0056437864
0.0204157 0.031948444 -0.07267154 -0.0044105994 -0.0026016529 -0.016035823 -0.011123108 0.05146296
0.015467769 0.047212742 0.018434254 0.036923543 0.053514335 0.032358564 -0.012461061 0.0075653223
-0.043080006 0.042732164 0.005932956 -0.008605431 -0.011405424 0.027613113 -0.048643418 -0.0056908117
-0.052504804 -0.014302827 -0.009205513 0.023399832 0.0036118955 -0.0038499672 0.047728445 -0.03509576
0.073688515 0.017249938 -0.007905429 -0.026588883 -0.042955175 0.0012105092 -0.0053873006 0.011669512
0.06483256 -0.018807113 -0.0071645784 0.021463674 -0.06359619 -0.0015770341 0.011447261 -0.055271532
00000000: 8445 debc e262 3739 48e2 1ebd 43ea a6bc
00000010: 6209 2e3c 626c b03c dbd8 e9ba cc56 07bd
00000020: 2335 423c 229e 62bd d873 693b 7533 213b
00000030: e470 943b 0fb8 2d3d c9c7 3dbc 83ef b8bb
00000040: d33e a73c 5fdc 023d d1d4 94bd ca86 90bb
00000050: 7e80 2abb 8f5d 83bc b23d 36bc d3ca 523d
00000060: 866c 7d3c 2662 413d 6f03 973c 243d 173d
00000070: d931 5b3d 6a8a 043d 7a29 4cbc 86e6 f73b
00000080: a974 30bd ec07 2f3d 3e69 c23b cbfd 0cbc
00000090: d1dd 3abc e534 e23c 523e 47bd fd79 babb
000000a0: 470f 57bd 6856 6abc b8d2 16bc 01b1 bf3c
000000b0: 8db5 6c3b bb4f 7cbb e77e 433d 92c0 0fbd
000000c0: 01ea 963d be4f 8d3c c685 01bc eed0 d9bc
000000d0: c4f1 2fbd f3a9 9e3a f487 b0bb 7b31 3f3c
000000e0: efc6 843d 6011 9abc d7c4 eabb 96d4 af3c
000000f0: b83e 82bd 7cb4 ceba 4b8d 3b3c 6764 62bd

weight f4 [10, 64]
0.08109429 0.048835732 0.14511979 -0.22954424 -0.19400823 0.18448952 -0.30139458 0.32857743
-0.10775138 0.020770231 -0.14014149 0.05722783 -0.002433814 -0.11499572 -0.0332176 -0.04708825
0.032777276 -0.28603497 0.03548974 0.054850534 -0.00078107073 -0.09470893 -0.035188075 0.06362139
-0.0048996527 -0.18426377 -0.12298618 0.17820895 -0.29089576 -0.1906192 -0.050789952 0.016535733
-0.09895089 0.12894876 -0.008219413 0.34720686 0.19496554 0.1285625 0.05737637 -0.34655276
0.19364378 -0.10390949 -0.159899 -0.15696825 0.080526434 0.09550505 -0.17149302 -0.13649808
-0.29686907 -0.017104203 0.15679756 0.19728392 -0.1824197 -0.10253791 -0.0014712812 0.028933477
-0.060059376 -0.0015742908 -0.06758738 -0.112173185 0.15774919 -0.27055484 0.122054674 0.2884596
0.24770808 -0.20599848 -0.2295569 0.24807993 -0.048805412 -0.13754176 -0.09976404 0.09809735
0.18536907 -0.13790284 -0.08790988 -0.12568407 0.013442197 -0.24010085 -0.14097843 -0.06494801
0.007526608 -0.25514716 0.06387381 0.1744945 -0.17123777 0.35292488 0.11927217 0.20613378
0.29246637 0.043787576 0.20865789 -0.15069686 -0.20416677 0.1511075 -0.044781577 0.05683125
-0.11156061 -0.2671681 -0.1168504 -0.33211157 0.09076794 0.24330355 -0.21506876 -0.21623868
-0.16259676 0.21008605 0.2575761 0.19413781 -0.26922762 0.0018129714 -0.0630966 0.047474876
-0.22059207 -0.071178585 0.012507212 -0.24672541 -0.14687382 0.32539743 0.22255301 0.27342695
-0.30730662 -0.16823502 0.30768338 -0.074308686 -0.056294378 -0.008673427 0.21611314 -0.22786912
-0.22306168 0.025152346 -0.024865888 -0.14204325 -0.23691058 0.33821872 0.083687365 0.18169619
-0.083133884 0.03516975 0.030506484 -0.013116821 -0.1688544 0.017671922 0.0808782 0.267671
-0.08497215 -0.10155308 0.24506268 -0.27842802 0.07679234 -0.013058622 0.004364742 -0.078259476
0.078756556 -0.18892081 -0.27368113 -0.2956645 0.0086911125 0.10224976 -0.026330095 0.03458518
-0.17237371 -0.084331654 -0.00104681 0.324474 -0.2159992 0.05168818 -0.008025689 0.27182263
0.25570467 -0.25401455 0.22771126 0.15793265 0.26488242 -0.031806264 -0.056561466 -0.1600167
0.017212775 -0.10616447 -0.042169258 -0.08666023 -0.1561425 -0.13827099 0.1630862 -0.2603804
0.26498437 -0.047300078 -0.14353795 -0.034294434 -0.11117825 0.20642304 0.102324 -0.14561811
0.22086215 0.043954626 0.18577735 0.09583337 0.1898056 0.055218868 0.25077876 -0.02212531
0.07681804 0.09991233 0.09113617 -0.15885873 0.12862483 0.11240124 0.11908438 -0.09008681
-0.14318706 0.054923292 0.06374996 0.23401378 -0.17264663 -0.2612178 0.016639952 -0.22004354
0.16427357 0.0039347447 -0.17000067 0.21403804 0.016608886 -0.016701434 -0.10077311 0.12354972
-0.15135366 0.116122626 -0.0961581 -0.19926085 -0.109332174 -0.09389875 0.018804064 -0.014096198
0.04165835 0.0038538119 -0.16833681 0.1124324 0.022573562 -0.003402495 -0.093492776 -0.16000625
0.08359725 0.10749147 -0.202334 -0.122035034 0.12264136 -0.05229532 0.05731846 -0.1928189
0.1313525 -0.16933379 -0.2165328 -0.13459046 -0.081273936 0.12520991 -0.085347176 0.029597076
00000000: c314 a63d fa07 483d 489a 143e a50d 6bbe
00000010: 18aa 46be d2ea 3c3e 6450 9abe 4d3b a83e
00000020: c1ac dcbd 5526 aa3c 4081 0fbe bb67 6a3d
00000030: a080 1fbb e082 ebbd 2e0f 08bd 9cdf 40bd
00000040: 7741 063d 2d73 92be b15d 113d f4aa 603d
00000050: c5c0 4cba c1f6 c1bd 5f21 10bd ee4b 823d
00000060: 448d a0bb a4af 3cbe 2ee0 fbbd 687c 363e
00000070: 4af0 94be ae31 43be 2009 50bd f275 873c
00000080: c4a6 cabd 250b 043e b8aa 06bc 19c5 b13e
00000090: 0ca5 473e e3a5 033e 7c03 6b3d 5d6f b1be
000000a0: 8e4a 463e 80ce d4bd 90bc 23be 49bc 20be
000000b0: 0beb a43d 2798 c33d de9b 2fbe 27c6 0bbe
000000c0: 39ff 97be 1d1e 8cbc 8a8f 203e cc04 4a3e
000000d0: 3bcc 3abe 65ff d1bd 01d8 c0ba e605 ed3c
000000e0: d200 76bd 6f58 ceba 416b 8abd 0ebb e5bd
000000f0: 0189 213e 2a86 8abe cdf7 f93d fab0 933e
00000100: 30a7 7d3e 44f1 52be f710 6bbe aa08 7e3e
00000110: 2fe8 47bd bfd7 0cbe 1751 ccbd 43e7 c83d
00000120: 64d1 3d3e 6736 0dbe 180a b4bd 53b3 00be
00000130: a93c 5c3c ffdc 75be a65c 10be 7603 85bd
00000140: c4a1 f63b a6a2 82be 46d0 823d b0ae 323e
00000150: f458 2fbe 92b2 b43e f844 f43d bc14 533e
00000160: 27be 953e 9a5a 333d 6aaa 553e 4750 1abe
00000170: 1811 51be edbb 1a3e e36c 37bd e3c7 683d
00000180: e479 e4bd 42ca 88be 434f efbd 870a aabe
00000190: 8be4 b93d 9124 793e fc3a 5cbe ac6d 5dbe
000001a0: c47f 26be cc20 573e 04e1 833e 10cc 463e
000001b0: 34d8 89be 3aa1 ed3a ca38 81bd 0475 423d
000001c0: e3e2 61be 14c6 91bd 0deb 4c3c 96a5 7cbe
000001d0: 1766 16be 7e9a a63e f0e4 633e 9efe 8b3e
000001e0: 4b57 9dbe cd45 2cbe ad88 9d3e 272f 98bd
000001f0: ef94 66bd fd1a 0ebc c34c 5d3e 8656 69be
00000200: 486a 64be 4b0c ce3c 8cb3 cbbc c973 11be
00000210: b098 72be 012b ad3e 4864 ab3d 910e 3a3e
00000220: 1942 aabd 280e 103d bce8 f93c efe7 56bc
00000230: 2be8 2cbe b5c4 903c 78a3 a53d 2c0c 893e
00000240: e105 aebd 10fb cfbd b6f1 7a3e 1e8e 8ebe
00000250: 4d45 9d3d d5f3 55bc 1c06 8f3b 8146 a0bd
00000260: 1e4b a13d 7574 41be ef1f 8cbe 5661 97be
00000270: 2b65 0e3c 5268 d13d 36b2 d7bc 31a9 0d3d
00000280: bc82 30be 13b6 acbd 1d35 89ba 7521 a63e
00000290: e52e 5dbe fcb6 533d 2e7e 03bc 562c 8b3e
000002a0: b9eb 823e 320e 82be 242d 693e 19b9 213e
000002b0: ab9e 873e 4947 02bd ffac 67bd 6bdb 23be
000002c0: ce01 8d3c c26c d9bd acb9 2cbd eb7a b1bd
000002d0: d2e3 1fbe e996 0dbe 1200 273e 9450 85be
000002e0: 08ac 873e babd 41bd 9dfb 12be 5278 0cbd
000002f0: 6cb1 e3bd 9060 533e 3f8f d13d ea1c 15be
00000300: b029 623e c409 343d 6b3c 3e3e 4944 c43d
00000310: 665c 423e 2e2d 623d 1366 803e 2340 b5bc
00000320: c752 9d3d d69e cc3d 9aa5 ba3d ddab 22be
00000330: 3ab6 033e 9f32 e63d 83e2 f33d 6f7f b8bd
00000340: a19f 12be 3ff7 603d 578f 823d 4fa1 6f3e
00000350: 47ca 30be 57be 85be 8250 883c 1853 61be
00000360: 5537 283e 08ef 803b a814 2ebe ca2c 5b3e
00000370: 5c0f 883c 72d1 88bc 2262 cebd a307 fd3d
00000380: 74fc 1abe b3d1 ed3d 8aee c4bd 090b 4cbe
00000390: 8ce9 dfbd fd4d c0bd fb0a 9a3c bdf3 66bc
000003a0: f2a1 2a3d 3c90 7c3b 7c60 2cbe f542 e63d
000003b0: 31ec b83c 65fc 5ebb 2479 bfbd aed8 23be
000003c0: 0935 ab3d 7d24 dc3d a530 4fbe 81ed f9bd
000003d0: 652b fb3d 9e33 56bd c3c6 6a3d 5172 45be
000003e0: 4581 063e d665 2dbe c6ba 5dbe 15d2 09be
000003f0: f372 a6bd 0737 003e 80ca aebd 9175 f23c

bias f4 [10]
-0.22595708 -0.071026325 0.108396016 0.09949491 0.17540376 -0.158917 0.14735821 0.066533536
-0.09528734 0.03129811
00000000: 4b61 67be 4076 91bd bbfe dd3d fdc3 cb3d
00000010: 0b9d 333e 23bb 22be 12e5 163e bc42 883d
00000020: 0226 c3bd 7232 003d
