Pytorch/model_data/CIFAR10_EPOCH0.pth (torch, 588827 bytes, 10 tensors)

weight f4 [32, 3, 5, 5]
0	0x3d2100b2	0.039307304
1	0x39ecc7df	0.00045162343
2	0xbd0ed93c	-0.03487514
3	0xbd96bc7c	-0.07360169
4	0x3d47fb5b	0.048823696
5	0xbdb5a4d9	-0.08869333
6	0xbd991908	-0.074754775
7	0x3dd58789	0.10426242
8	0xbcc19c85	-0.023634205
9	0x3c623710	0.013807073
10	0xbdcbf267	-0.09958344
11	0xbc6e2009	-0.014534005
12	0x3dd6baa6	0.10484819
13	0x3d907d6a	0.07055171
14	0xbdb2423e	-0.08704041
15	0x3d936854	0.071976334
16	0xbdb696fd	-0.089155175
17	0x3ccc9c12	0.024976764
18	0x3db309fb	0.08742138
19	0xbda29930	-0.079393744
20	0x3cb08507	0.021547807
21	0xbd240269	-0.04004136
22	0x3d8f8d46	0.07009368
23	0x3d394c2a	0.04523865
24	0xbddcc082	-0.107789055
25	0xbd858f0c	-0.06521425
26	0x3d974570	0.07386291
27	0x3dd8ce89	0.105862685
28	0xbca7ecd2	-0.020498667
29	0xbdb2d483	-0.0873194
30	0xbc8d5f14	-0.01725725
31	0x3de8a8c6	0.11360316
32	0xbdea09f8	-0.11427683
33	0x3d80b927	0.06285315
34	0xbda7d327	-0.08194571
35	0xbcad2804	-0.021137245
36	0xbcb4968c	-0.022044443
37	0x3b004ecc	0.0019578217
38	0x3d49a810	0.049232543
39	0x3dd4a812	0.10383619
40	0x3cc22b41	0.023702266
41	0xbddb1e0a	-0.10699089
42	0xbd888ff8	-0.06668085
43	0x3d87ca59	0.06630392
44	0x3d374637	0.044744696
45	0x3b93f5ab	0.00451537
46	0x3db79785	0.08964447
47	0x3dc77521	0.097391374
48	0x3d9e650a	0.077341154
49	0x3d251a90	0.040308535
50	0xbc766a9f	-0.015040069
51	0xbcce4c09	-0.02518274
52	0xbdd9b061	-0.10629345
53	0xbc247ce8	-0.010039546
54	0xbdd3daed	-0.10344491
55	0x3cb1e489	0.02171542
56	0x3d95371f	0.07285904
57	0xbcdc5d09	-0.026899831
58	0x3d8df76c	0.069319576
59	0xbd9661e3	-0.07342889
60	0x3d81f994	0.063464314
61	0x3d8d8f2d	0.06912074
62	0xbd233ecc	-0.03985481
63	0x3d588c0f	0.052867945
64	0xbd9bebd7	-0.07613342
65	0xbcc9bfb7	-0.02462755
66	0x3d1a165c	0.03761898
67	0x3db28523	0.087168
68	0xbda64480	-0.08118534
69	0xbde08cfe	-0.10964392
70	0x3d017606	0.031606697
71	0x3c7cecb6	0.015437296
72	0x3db15d70	0.086604
73	0x3db5f7f5	0.08885185
74	0x3db91d8b	0.09038838
75	0x3d45c290	0.048281252
76	0x3d411842	0.047142275
77	0x3d8c57f1	0.06852711
78	0x3d8fac48	0.07015282
79	0x3cce533a	0.02518617
80	0xbd82bc82	-0.06383611
81	0x3d69c44e	0.057071976
82	0x3ce8d5cc	0.028422259
83	0xbd916a3e	-0.07100342
84	0xbd8109f0	-0.063007236
85	0x3ddd4fe8	0.108062565
86	0xbde81eea	-0.113340214
87	0x3d373b4d	0.044734288
88	0xbdefbd9b	-0.11706086
89	0x3daaf3ef	0.08347308
90	0x3d0a8127	0.033814576
91	0x3c68847a	0.014191741
92	0xbd0a3007	-0.03373721
93	0x3dbb14a8	0.09134799
94	0xbd886924	-0.06660679
95	0x3d1cfc4b	0.038326543
96	0x3c9dcd8a	0.019263048
97	0xbcbef381	-0.023309471
98	0x3da5a159	0.08087415
99	0x3c680121	0.014160425
100	0x3d1efc5c	0.038814887
101	0x3d6b16ac	0.05739467
102	0x3c856b70	0.016286582
103	0x3d85ace9	0.065271206
104	0xbddc9ad8	-0.107717216
105	0x3da37905	0.07982067
106	0x3cad1b72	0.021131251
107	0x3d53b846	0.05168941
108	0xbdbcb911	-0.09214986
109	0xbdd833cb	-0.10556754
110	0xbd742898	-0.059609026
111	0xbdae5df9	-0.085140176
112	0xbb4c687b	-0.0031190205
113	0x3da03253	0.078220986
114	0xbdd6fe1a	-0.10497685
115	0x3c256b5e	0.010096399
116	0x3cf2fef3	0.029662585
117	0xbcad67bf	-0.021167634
118	0xbcd1eb6c	-0.025624953
119	0x3c37cb31	0.011217878
120	0xbbe6219b	-0.007023049
121	0x3d7028ca	0.05863265
122	0x3d71ea07	0.059061076
123	0x3a9932c3	0.0011688102
124	0xbcdd48a0	-0.02701217
125	0xbcc4ef8d	-0.024040008
126	0x3cb87912	0.022518668
127	0x3db2368e	0.08701812
128	0xbd9c9025	-0.07644681
129	0x3d851a50	0.06499159
130	0x3a74d178	0.00093390746
131	0xbcc189f7	-0.023625357
132	0xbd88825c	-0.06665489
133	0xbd91f3b2	-0.07126559
134	0x3ddd32e3	0.108007215
135	0x3cf459cf	0.02982798
136	0x3d3a369f	0.045462247
137	0x39fb84cb	0.0004797339
138	0x3d34d332	0.044146724
139	0x3d846d2f	0.064661376
140	0xbcc255b5	-0.023722509
141	0xbd2c75a9	-0.042104397
142	0x3d92c610	0.07166684
143	0x3cd256a4	0.02567608
144	0x3d106595	0.035253126
145	0xbd6298e3	-0.055321585
146	0xbda46020	-0.08026147
147	0x3d96bb88	0.073599875
148	0xbdcceed7	-0.100064926
149	0x3c992c01	0.01869774
150	0x3dad84f8	0.084726274
151	0x3d0b6e27	0.034040596
152	0xbdb148e2	-0.086564794
153	0x3c5a7fc0	0.013336122
154	0xbdca7b3c	-0.09886786
155	0xbc3e9598	-0.011632346
156	0x3da29ac1	0.07939673
157	0xbde2c721	-0.11073137
158	0xbdc16c8b	-0.09444531
159	0xbd8b4caf	-0.068017356
160	0xbdb86044	-0.09002736
161	0x3dab6313	0.08368506
162	0x3d1850f4	0.037186578
163	0xbd1fc966	-0.039010428
164	0xbadf3b52	-0.0017031229
165	0xbdee3806	-0.116317794
166	0xbd73278d	-0.05936389
167	0xbd9c8b48	-0.07643753
168	0xbce26ab0	-0.027638763
169	0xbdb30aed	-0.08742318
170	0x3dbbfa0e	0.091785535
171	0xbdc4f623	-0.09617259
172	0xbdb6eac4	-0.08931497
173	0xbd585d34	-0.05282326
174	0xbdad8e6d	-0.08474431
175	0xbd170db4	-0.036878303
176	0xbde4af25	-0.11166219
177	0x3d46f483	0.04857303
178	0x3d1f0758	0.038825363
179	0x3d07fcbf	0.03320002
180	0x3cda0c09	0.026617067
181	0xbce5e83e	-0.028064843
182	0x3cc419fa	0.023938168
183	0x3d12cc56	0.0358394
184	0xbdd15cce	-0.10222779
185	0xbc7e0ea3	-0.015506419
186	0xbd9ab7af	-0.07554566
187	0x3cb88044	0.0225221
188	0x3d73c39c	0.05951272
189	0xbd8eb8d2	-0.069688454
190	0xbde8a361	-0.11359287
191	0x3db9b311	0.09067357
192	0x3d76d3cb	0.060260575
193	0x3cbc3b6d	0.022977555
194	0xbd3f8045	-0.046753187
195	0x3d9d443b	0.076790296
196	0xbd46f9bd	-0.048578013
197	0xbde08d2a	-0.10964425
198	0xbd2e0f46	-0.042495035
199	0xbd74886a	-0.059700407
200	0xbdbb7642	-0.09153415
201	0xbb552e68	-0.003252888
202	0x3dc90ba0	0.098166704
203	0x3cee49b6	0.029087882
204	0x3dc7a637	0.097485
205	0xbd5f81a2	-0.054566987
206	0x3ce4a6c9	0.02791156
207	0x3dc97dd6	0.098384544
208	0xbd7f5b8c	-0.062343165
209	0x3e037fd7	0.12841736
210	0x3d6721c9	0.056428704
211	0x3d382ffe	0.044967644
212	0xbc526fc5	-0.012844031
213	0x3dff4aa4	0.124654084
214	0x3de8c1c1	0.113650806
215	0x3c2594af	0.01010625
216	0x3ddf20fc	0.10894963
217	0x3dfdb6bf	0.12388372
218	0x3d63a455	0.05557664
219	0x3d703b75	0.058650453
220	0x3daf2f8a	0.08553989
221	0x3d41b271	0.047289316
222	0xbd910c07	-0.07082372
223	0x3dd079eb	0.10179504
224	0x3dbfdb01	0.093679436
225	0x3dd4bddb	0.103877746
226	0x3d803f9c	0.062621325
227	0x3ce39350	0.027780205
228	0x3d05bcab	0.03265063
229	0xbcf9a5e3	-0.030474609
230	0x3d79b540	0.06096387
231	0xbc8ada4f	-0.0169498
232	0x3d9068db	0.070512496
233	0x3d67de2e	0.05660837
234	0x3d5eeee8	0.054427058
235	0x3db75c97	0.08953207
236	0xbd8372c0	-0.06418371
237	0x3bbd181e	0.0057706973
238	0xbd20ef6b	-0.039290827
239	0x3de6d2cd	0.11270676
240	0x3d6f668e	0.058447413
241	0x3d612b75	0.054973084
242	0x3d85d503	0.065347694
243	0x3dd43d03	0.103631996
244	0x3d07856a	0.033086218
245	0x3c1aefac	0.009456556
246	0xbd95fba8	-0.0732339
247	0xbda89401	-0.082313545
248	0x3dc553c7	0.0963512
249	0x39ce1382	0.00039305916
250	0x3c055f6b	0.008140425
251	0x3d6a2767	0.057166483
252	0xbd32232b	-0.04349057
253	0x3da646f1	0.08119
254	0xbd1275f4	-0.03575702
255	0xbc4204c8	-0.01184196

bias f4 [32]
0	0xbd7fe5a2	-0.062474854
1	0x3da081d0	0.0783726
2	0x3d83ff15	0.064451374
3	0x3dba5b43	0.09099438
4	0xbd92f993	-0.07176509
5	0x3df7eb95	0.121054806
6	0xbe2d3b43	-0.16917138
7	0xbd86b1aa	-0.065768555
8	0xbdc091a1	-0.094027765
9	0x3dccd3e1	0.1000135
10	0x3e057ee0	0.1303668
11	0x3a8732cb	0.001031482
12	0xbc20b1d9	-0.009808027
13	0x3d5085ac	0.05090873
14	0xbb59fe59	-0.0033263175
15	0xbb711692	-0.0036787135
16	0x3cafab5e	0.021444019
17	0xbe181b1f	-0.14854096
18	0xbd9c5470	-0.07633293
19	0x3bf5655d	0.00748889
20	0x3d221acf	0.039576348
21	0x3c4e7958	0.012602173
22	0x3dadb3e0	0.08481574
23	0xbc519a5f	-0.012793153
24	0xbdd20be9	-0.10256178
25	0xbcacffa0	-0.021117985
26	0xbd1119dd	-0.035425056
27	0x3d5ec720	0.05438912
28	0xbde0db26	-0.10979299
29	0x3d79d58b	0.060994666
30	0xbd891689	-0.06693751
31	0x3dbb3e0a	0.091426924

weight f4 [32, 32, 5, 5]
0	0x3b434ebe	0.0029801573
1	0xbbe92c61	-0.007115886
2	0xbb71447a	-0.0036814497
3	0xbc4795d4	-0.012181718
4	0xbce4cb11	-0.02792886
5	0x3ce0b15a	0.027428318
6	0xbc0508af	-0.008119746
7	0x3c9cbbd2	0.019132528
8	0x3c7c521d	0.015400437
9	0x3c81273f	0.015765784
10	0xbb047e7b	-0.002021699
11	0xbc96b78f	-0.018398074
12	0xbcf33529	-0.029688435
13	0x3b114474	0.0022166045
14	0x3d0ecca4	0.03486313
15	0xbca1306c	-0.01967641
16	0x3b22239d	0.0024740465
17	0xbcc77be9	-0.024351077
18	0xbc079cfa	-0.008277172
19	0xbc37ce75	-0.011218657
20	0x3cf32cd8	0.02968447
21	0x3cedd3c9	0.029031651
22	0x3d016a3a	0.031595446
23	0x3ce257f2	0.027629826
24	0x3c85692d	0.016285503
25	0xbceeee7d	-0.029166454
26	0x3ca88a5b	0.020573786
27	0xbc65b6fd	-0.014020679
28	0x3d02fa17	0.031976786
29	0x3b9037e4	0.004401194
30	0xbccf4185	-0.025299797
31	0x3c81aa21	0.015828194
32	0x3c09b658	0.008405291
33	0x3c11ca89	0.008898386
34	0xbcc107be	-0.023563262
35	0x3d10199a	0.035180666
36	0xbc86143d	-0.016367072
37	0x3c82711f	0.015923081
38	0x3c304317	0.010758183
39	0x3cdf161a	0.027232219
40	0x3c473df9	0.0121607715
41	0x3d114c51	0.03547317
42	0xbcb61c6b	-0.022230348
43	0xbb939d4c	-0.0045048352
44	0x3c969d9b	0.018385699
45	0xbc01def5	-0.007926692
46	0x3ce233d9	0.027612614
47	0x3cc50a92	0.024052892
48	0x3cff6327	0.03117521
49	0xbce1fcc1	-0.027586343
50	0x3cc50ae6	0.024053048
51	0x3cf12240	0.029435277
52	0xbc4e70a0	-0.012600094
53	0x3bc682db	0.0060580797
54	0x3cc039f0	0.023465127
55	0x3ce079b5	0.027401784
56	0x3c28ec17	0.010310194
57	0xbc8e6a42	-0.017384652
58	0x3ceb0cb7	0.028692586
59	0x3cfa0794	0.030521192
60	0xbccf9590	-0.025339872
61	0x3b26af43	0.0025434054
62	0x3d0875e9	0.033315573
63	0x3d07c092	0.033142634
64	0xbbca884b	-0.006180798
65	0x3ce12227	0.027482105
66	0x3c7e0395	0.015503784
67	0xbcf2fe97	-0.029662414
68	0x3c8d7664	0.017268367
69	0x3c94cd22	0.018164221
70	0xbc80a243	-0.015702372
71	0x3d03e0ab	0.032196682
72	0x3b93aeba	0.004506913
73	0x3b309f2f	0.002695035
74	0x3d0cc42e	0.03436678
75	0x3c514859	0.012773597
76	0x3d0cc74f	0.034369763
77	0xbb63abf1	-0.0034739936
78	0x3cb2cca8	0.021826103
79	0xbb2a98c2	-0.0026030992
80	0x3d0934cf	0.033497628
81	0x3b8fe420	0.0043912083
82	0x3c469be4	0.012122128
83	0x3c68aeaf	0.014201804
84	0x3cb0c77a	0.021579493
85	0x3c0156ce	0.007894231
86	0x3a760ddc	0.00093862205
87	0x3d1e774c	0.03868799
88	0x3c832332	0.016007993
89	0x3b7ceb07	0.0038592236
90	0xbc7baf39	-0.015361601
91	0x3cf43e61	0.0298149
92	0x3cdedf3c	0.027206056
93	0x3bd03c1f	0.0063548232
94	0x3b8ffae9	0.0043939245
95	0x3bce57c7	0.006297085
96	0x3ce72d2f	0.028219787
97	0xbc8c8f0d	-0.017158056
98	0x3bc304c4	0.005951496
99	0x3cf960c3	0.030441647
100	0x3c3b5686	0.011434203
101	0xbce10d30	-0.027472109
102	0xbd0dd6b4	-0.034628585
103	0xbc1c6284	-0.009544972
104	0xbc96b2f0	-0.01839587
105	0xbc8257d7	-0.015911026
106	0xbb7523ce	-0.0037405374
107	0x3b99c279	0.0046923724
108	0xbd1cd9a9	-0.038293514
109	0x3b594822	0.0033154567
110	0x3aa1020b	0.0012283934
111	0xbc946662	-0.018115226
112	0xbcbc19d5	-0.022961536
113	0x3bcb012d	0.0061952085
114	0x3bbc0887	0.005738321
115	0xbd056c7b	-0.03257416
116	0x3c99a702	0.018756393
117	0x3c861eca	0.016372103
118	0x3b49a68e	0.003076944
119	0xbc873831	-0.016506286
120	0x3b3e0356	0.0028993688
121	0x3c713b1a	0.014723564
122	0x3cd8c3db	0.026460579
123	0xbca7766f	-0.020442216
124	0xbb3f0eee	-0.0029153186
125	0xbad68612	-0.001636686
126	0xbc76d431	-0.015065239
127	0x3c69b2e5	0.014263843
128	0x3cd8929e	0.0264371
129	0xbd1a56e7	-0.037680533
130	0x3b997576	0.004683192
131	0xba278a70	-0.0006391173
132	0x3cb5d64e	0.022196915
133	0x3c228ea2	0.009921702
134	0xbc0dbef5	-0.008651485
135	0xbd04f8e8	-0.032463938
136	0x3c91be05	0.017790804
137	0xbc92cadf	-0.017919002
138	0xbc61339e	-0.013745217
139	0xbca12e61	-0.019675435
140	0x3cc6693d	0.024220103
141	0xbc1aaa3b	-0.00944
142	0xbd1b3acb	-0.037897866
143	0xbd1d3ed1	-0.038389985
144	0x3c201328	0.009770192
145	0xbb009154	-0.0019617872
146	0xbd07b93f	-0.03313565
147	0xbb390a31	-0.0028234834
148	0x3ce2660f	0.027636556
149	0xbce329bd	-0.027729863
150	0xbab953fc	-0.0014139409
151	0x3ce7d7c3	0.028301125
152	0xbab998f0	-0.0014159959
153	0xbcb9f0db	-0.022697857
154	0x3cb4bb15	0.022061864
155	0x3c2ed9b8	0.010672025
156	0x3d1019a9	0.03518072
157	0x3d06d3e1	0.032916907
158	0xbc48e103	-0.012260678
159	0x3c7b6596	0.015344044
160	0x3caaa71c	0.020831637
161	0x3cf04c23	0.02933318
162	0x3c667e8a	0.014068255
163	0x3cc1c5d6	0.023653906
164	0x3bd63b6e	0.0065378463
165	0x3cb508aa	0.022098858
166	0xbcb7d710	-0.022441417
167	0x3c4ea8d9	0.012613499
168	0xbc74066f	-0.014894112
169	0xbc48bfd5	-0.012252768
170	0xbbe27505	-0.0069109225
171	0x3d0c13a7	0.03419843
172	0x3cf8e9c9	0.030384915
173	0xbcc7f325	-0.024407933
174	0x3d1914e8	0.037373453
175	0xbc4cd64b	-0.012502263
176	0xbcc0f4a8	-0.023554161
177	0xbc3f0371	-0.011658535
178	0x3d15a5f4	0.03653522
179	0xbd021065	-0.031753916
180	0xbb539dce	-0.0032290104
181	0x3c2a7105	0.0104029225
182	0x3b7a2564	0.003816926
183	0x3cc92788	0.024554983
184	0xbcecfa1b	-0.028927853
185	0x3a6ac501	0.00089557475
186	0xbc7d02f8	-0.015442602
187	0x3cd07a35	0.025448898
188	0x3c55a08e	0.0130387675
189	0x3d1573b1	0.036487285
190	0x3cada909	0.021198766
191	0xbc907b98	-0.01763706
192	0x3c5c90b7	0.013462237
193	0x3d09a148	0.033601075
194	0x3cc5e6c7	0.024157895
195	0x3cf635bb	0.030054918
196	0x3d1a0f8e	0.03761249
197	0x3c849500	0.01618433
198	0x3cffaaee	0.031209435
199	0x3d1a0157	0.037598934
200	0x3bcb5e8d	0.0062063397
201	0x3cc066be	0.023486491
202	0xb957aa09	-0.00020567341
203	0xbd107b3a	-0.035273768
204	0xbc4d01a4	-0.012512598
205	0x3c64dcbc	0.013968643
206	0x3c3ab035	0.01139455
207	0xbc2da784	-0.010599021
208	0xbd12e39f	-0.035861608
209	0x3c3d56ad	0.01155631
210	0x3cac334a	0.02102055
211	0x3cf2060a	0.029543895
212	0x3bc0cd5b	0.0058838553
213	0xbce5b0ab	-0.028038343
214	0xbcd2238e	-0.02565172
215	0xbc454c0a	-0.012042055
216	0x3cc9b3b4	0.024621822
217	0xbcf09f78	-0.029372916
218	0x3d07d225	0.033159394
219	0xbcf8cd42	-0.030371312
220	0xbd115eb3	-0.035490703
221	0x3d0c62f5	0.03427406
222	0x3bf02eec	0.0073298123
223	0x3a0c9ef8	0.00053642644
224	0x3ab4bec9	0.0013789769
225	0x3cf2c5c6	0.029635321
226	0x3b4f1a0d	0.003160122
227	0xbcca93c6	-0.024728667
228	0xbcc566ea	-0.024096925
229	0x3cdfe7aa	0.027332146
230	0x3ce741a8	0.02822955
231	0x3bb15aed	0.0054124505
232	0x3ca4f3e1	0.020135822
233	0xbc845627	-0.016154362
234	0xbc6779ff	-0.014128207
235	0xbc5e898f	-0.013582601
236	0x3cf1d7c6	0.029521834
237	0x3b946bbe	0.0045294454
238	0x3ac2b0bb	0.0014853695
239	0x3ce38ab1	0.027776094
240	0xbd0e32cc	-0.034716412
241	0xbbf495df	-0.007464155
242	0xbcfb4dc4	-0.03067673
243	0x3c973ebb	0.01846253
244	0x3c817cdc	0.015806608
245	0x3c676bb0	0.014124796
246	0xbc7916d0	-0.015203193
247	0xbc4e7047	-0.012600011
248	0x3d05cbea	0.03266517
249	0x3ca4dbd2	0.02012435
250	0xbba516d5	-0.005038122
251	0xbc5a69f0	-0.0133309215
252	0xbc78e113	-0.015190381
253	0xbb1510af	-0.002274554
254	0xbd0b5c88	-0.03402379
255	0x3cfeb3ef	0.031091658

bias f4 [32]
0	0x3cd435d9	0.025904583
1	0x3c8cf51a	0.017206717
2	0xbd55e6ef	-0.05222219
3	0xbc7ce843	-0.015436235
4	0x3b03b7c3	0.0020098544
5	0xbc15a872	-0.009134399
6	0x3cc46c76	0.0239775
7	0x3bacd242	0.005274088
8	0xbcca0dfa	-0.024664868
9	0x3ce3c6f8	0.027804837
10	0xbd0dbe7a	-0.03460548
11	0xbc3d116e	-0.0115398
12	0x3cf2cd94	0.029639043
13	0xbbab360b	-0.0052249483
14	0xbca68122	-0.020325247
15	0x3c1d888c	0.009615075
16	0x3d289413	0.04115684
17	0x3ca304bb	0.019899717
18	0xbcca0848	-0.024662152
19	0xbce7198c	-0.028210424
20	0x3c85b63f	0.016322253
21	0x3c58ca4d	0.013231826
22	0xbc920dfe	-0.017828938
23	0x3ccd3d43	0.025053626
24	0xbbe537dd	-0.006995185
25	0xba8dabd1	-0.0010808652
26	0x3c096672	0.008386241
27	0x3bd40efb	0.0064715124
28	0xbb77ed3d	-0.0037830614
29	0xbbf19d6c	-0.0073735025
30	0xbb8f9268	-0.0043814667
31	0x3c82becd	0.015960122

weight f4 [64, 32, 5, 5]
0	0x3b873364	0.0041259993
1	0x3d108f7b	0.035293084
2	0x3b8b79f3	0.004256481
3	0xbbad3812	-0.005286225
4	0x3c2ac2a7	0.010422385
5	0x3b087408	0.0020821113
6	0x3c9324aa	0.017961819
7	0xbb84f065	-0.0040569776
8	0xbc9b68fd	-0.01897096
9	0x3c2282fa	0.009918923
10	0xbc49e738	-0.012323193
11	0x3c034f66	0.0080145355
12	0x3c988757	0.018619223
13	0xbccddd15	-0.025129834
14	0x3ca15a5b	0.019696405
15	0xbc1ebb5b	-0.009688224
16	0x3c9b2bb6	0.018941741
17	0xbcfa83fa	-0.03058051
18	0x3a8fdd2d	0.001097595
19	0xbcbbd241	-0.022927405
20	0x3d028785	0.031867523
21	0x3d07e5aa	0.03317801
22	0xbc196a8d	-0.009363783
23	0xbbba03b2	-0.00567671
24	0xbc7b417c	-0.015335437
25	0x3ce96b80	0.028493643
26	0xbd0ce3df	-0.034397002
27	0x3cd6b087	0.026207222
28	0xbc1e7267	-0.00967083
29	0xbc78066d	-0.015138251
30	0x3ccfb4a2	0.025354687
31	0xbbcfe18c	-0.006344026
32	0x3b77e099	0.003782308
33	0x3cb67985	0.022274742
34	0xbc9bd74f	-0.019023566
35	0x3c95fafa	0.018308152
36	0x3c3cc6c3	0.011521998
37	0x3c956c5c	0.018240146
38	0x3b42e755	0.0029739935
39	0xbb053405	-0.0020325196
40	0x3cf67aa2	0.030087773
41	0xbcc21a85	-0.023694286
42	0xbcc07423	-0.023492878
43	0xbc344459	-0.0110026235
44	0xbca42116	-0.020035308
45	0xbd00e031	-0.031463806
46	0x3b4a0c26	0.0030829995
47	0xbd02b142	-0.031907327
48	0x3d063a17	0.032770243
49	0x3cf7d89b	0.030254653
50	0x3c1b73b8	0.009488039
51	0x3cb94ac6	0.022618663
52	0x3d0427a6	0.032264374
53	0xbcadf73c	-0.021236055
54	0x3ce2c627	0.027682377
55	0xbd001149	-0.031266484
56	0xbd099c92	-0.033596583
57	0x3c1c4045	0.009536807
58	0x3b8792f0	0.0041373894
59	0xbc910a9c	-0.017705254
60	0xbab8075a	-0.0014040277
61	0x3bad18fa	0.0052825185
62	0x3adaf5ad	0.0016705297
63	0x3d1fcda1	0.039014462
64	0x3cd5633d	0.026048297
65	0xbcdb214d	-0.026749277
66	0x3d078cc0	0.033093214
67	0x3d0ec05a	0.03485141
68	0x3cf43c2c	0.029813848
69	0x3c8892ad	0.016671503
70	0x3ce0562d	0.027384842
71	0x3cc4c9e1	0.024022045
72	0x3d1c8ec7	0.0382221
73	0x3d2502a9	0.04028574
74	0x3c9f1afe	0.01942205
75	0xbccadb68	-0.024762824
76	0xbb77c8a4	-0.00378088
77	0xb7991efc	-1.825345e-05
78	0xbc9b3b0b	-0.018949052
79	0x3cd033df	0.025415359
80	0x3c0a00ff	0.008423089
81	0xbd0447b3	-0.03229494
82	0x3b57d557	0.0032933557
83	0x3c893cb7	0.016752584
84	0xbc1f6bff	-0.009730338
85	0x3bd5008b	0.006500309
86	0x3c8233d2	0.01589385
87	0x3bb57711	0.0055378755
88	0xbd0707e8	-0.032966524
89	0xbcad0f18	-0.021125361
90	0x3c2c43bb	0.010514195
91	0x3c7adf80	0.015312076
92	0x3d04ddac	0.032437965
93	0xbccc7933	-0.024960136
94	0xbca76e5c	-0.020438366
95	0x3c15f41a	0.009152437
96	0xbc40bd4d	-0.011763883
97	0xbcdfe17c	-0.027329199
98	0x3c3deff9	0.0115928585
99	0xbc6cd9a3	-0.0144561855
100	0x3b575711	0.0032858292
101	0x3bc1db6b	0.0059160492
102	0x3caf40f8	0.021393284
103	0x3ce3a55b	0.027788809
104	0xbc742b8e	-0.014902962
105	0xbc1fb2ba	-0.009747202
106	0x3cf6dcdb	0.030134609
107	0x3c2c1973	0.010504114
108	0xbd0278e9	-0.03185359
109	0x3ba21be1	0.004947171
110	0xbc804a55	-0.015660444
111	0xbcce8aeb	-0.025212726
112	0x3b5dc8fa	0.0033841715
113	0x3cf1d99e	0.029522713
114	0x3c818b35	0.01581345
115	0xbc1d3f9c	-0.009597685
116	0xbb6f273d	-0.0036491894
117	0x3c4ceaaa	0.01250712
118	0x38a59945	7.896362e-05
119	0xbb280eab	-0.0025643508
120	0xbc9113d5	-0.017709652
121	0x3b9e558f	0.0048319767
122	0x3c031035	0.0079994695
123	0xbc8dfe52	-0.017333183
124	0xbb21afd5	-0.0024671454
125	0xbbed5688	-0.0072429813
126	0x3cb497f6	0.022045117
127	0xbcb487bf	-0.022037385
128	0xbcfb1555	-0.03064982
129	0x3c931479	0.017954098
130	0xbc45029c	-0.012024548
131	0xbbdd2e6f	-0.00674992
132	0xbcfc702a	-0.030815203
133	0x3c08571a	0.008321548
134	0xbb8bb8a8	-0.004263956
135	0xbd06dc71	-0.032925073
136	0x3c9999d4	0.018750109
137	0xbcff7a2d	-0.031186188
138	0xbc2ed12b	-0.010669987
139	0xbcbda859	-0.023151563
140	0x3bc78456	0.0060887737
141	0x3cebe010	0.028793365
142	0xbba20753	-0.004944721
143	0xbc9e8bac	-0.01935371
144	0xbbc883b4	-0.006119216
145	0xbce5c576	-0.028048258
146	0xbd10855a	-0.035283424
147	0xbcdf1d31	-0.0272356
148	0xbcb23266	-0.021752547
149	0x3c40403f	0.011734067
150	0x3bfef4a5	0.0077806287
151	0x3c36048f	0.011109485
152	0x3c80a237	0.01570235
153	0xbc0acc82	-0.00847161
154	0x3c67b67a	0.014142627
155	0xbc954b06	-0.01822425
156	0x3c8eb5b3	0.017420625
157	0x3cc6ef3c	0.024283998
158	0xbc367cc1	-0.011138142
159	0xbc920478	-0.017824396
160	0xbc0b0bd0	-0.008486703
161	0x3b993a92	0.0046761716
162	0xbca6b01d	-0.02034765
163	0x3b92282d	0.0044603557
164	0x3b4526cf	0.0030082946
165	0xbc53492b	-0.012895863
166	0xbb0563a0	-0.002035357
167	0x3c7d1054	0.015445787
168	0xbc61be71	-0.013778315
169	0x3d05ec6b	0.03269617
170	0x3d08ea55	0.0334266
171	0xbc4b0b01	-0.01239276
172	0x3c3e3fbf	0.011611878
173	0xbcf0ee93	-0.029410636
174	0xbce5169c	-0.027964883
175	0xbc0225a9	-0.007943549
176	0xb860a434	-5.3558688e-05
177	0x3c5942af	0.0132605275
178	0xbc77bde0	-0.015120953
179	0xbbf1267c	-0.007359324
180	0x3cad64c8	0.02116622
181	0xbace435e	-0.001573663
182	0xbc0fa82f	-0.008768125
183	0x3c3360fb	0.010948415
184	0x3bcc1a21	0.0062287007
185	0x3c58dfdb	0.013236965
186	0x3c4ce51b	0.012505795
187	0xbc5ffda4	-0.0136713125
188	0x3be076fe	0.0068501225
189	0xbc6e1ffc	-0.014533993
190	0xba83f5fc	-0.0010067816
191	0x3c95a239	0.01826583
192	0x3cb0196c	0.021496497
193	0x3cb3d03f	0.021949885
194	0xbc19d8f9	-0.009390109
195	0xbcf61a5b	-0.030041864
196	0xba32c9a0	-0.00068202056
197	0x3cb12f18	0.021628901
198	0x3c4ecf1d	0.012622622
199	0x3aedc601	0.0018140675
200	0x3cb4d7c1	0.022075536
201	0x3cd98c9a	0.026556302
202	0xbc4b8e10	-0.012424007
203	0xbb0cd986	-0.0021491959
204	0xbc9ba59f	-0.018999873
205	0xbb2ebcd8	-0.0026662853
206	0xbc8cbc7b	-0.017179718
207	0xbc1d8739	-0.009614759
208	0xbcebceff	-0.028785227
209	0x3c2d504a	0.010578224
210	0xbd0936e6	-0.03349962
211	0xbd03b6e3	-0.032156836
212	0xbce2624f	-0.027634768
213	0x3b730366	0.0037080883
214	0xbd0530a7	-0.0325171
215	0xbcdfe891	-0.027332576
216	0x3cb2e131	0.021835895
217	0x3b9f7090	0.0048657134
218	0xbce71342	-0.028207425
219	0x3cf364e1	0.029711189
220	0xbced4c55	-0.028967062
221	0x3c49af25	0.012309824
222	0x3c4a18f8	0.012335055
223	0xbbbc0ff1	-0.005739205
224	0xbcbdf2b1	-0.023187013
225	0x3b3620fd	0.0027790659
226	0xbd20d041	-0.039261106
227	0x3c89a4cf	0.01680222
228	0x3a8edd4e	0.0010899694
229	0xba987d5a	-0.0011634037
230	0xbd0f48f6	-0.03498169
231	0xbce65939	-0.028118717
232	0x3b9a240c	0.004704004
233	0xbd02dc65	-0.031948466
234	0xbc96460d	-0.01834395
235	0x3cab6607	0.020922674
236	0xbc27d6d6	-0.010244092
237	0x3caa6154	0.020798363
238	0xbc3eeff1	-0.011653886
239	0x3c5972ea	0.013272027
240	0x3d0067cb	0.031348985
241	0xbce862a8	-0.028367355
242	0x3cf3481f	0.029697476
243	0x3c9fa523	0.019487923
244	0xbcb00cd8	-0.0214905
245	0xbc65cefd	-0.014026401
246	0xbd102ba1	-0.035197858
247	0x3cb40beb	0.02197834
248	0x3c14dc26	0.009085691
249	0xbcfc6ef3	-0.030814623
250	0x3c6c764c	0.014432501
251	0xbc838d52	-0.016058598
252	0xbbaa9a5c	-0.0052063894
253	0x3d1c1734	0.038108066
254	0xbb24060b	-0.0025028016
255	0xbb684cf9	-0.003544627

bias f4 [64]
0	0xbceec4aa	-0.029146511
1	0x3d03f6e2	0.032217868
2	0x3b71bfca	0.0036887997
3	0x3c4766c1	0.0121704945
4	0xbca653c5	-0.020303616
5	0x3ca91e48	0.020644322
6	0xbbd3611c	-0.0064507853
7	0xbc594976	-0.013262143
8	0x3d378596	0.04480513
9	0x3d1d301f	0.03837597
10	0xbd196830	-0.037452877
11	0xb7406871	-1.1468409e-05
12	0xbd0c9732	-0.03432388
13	0x3cbfd8f8	0.023418888
14	0x3cd55e8e	0.026046064
15	0xbc58aee1	-0.013225288
16	0x3d1aba10	0.0377751
17	0xb8a4ddf3	-7.861471e-05
18	0x3a916d35	0.0011095168
19	0xbca26c4f	-0.019827036
20	0x3ccdc3d7	0.025117798
21	0x3d0b6202	0.034029014
22	0xbc00d088	-0.007862218
23	0x3cc6a45d	0.024248296
24	0xbbefce37	-0.007318284
25	0xbd22cf61	-0.039748553
26	0x3b7929a5	0.0038019207
27	0x3c6741cf	0.014114811
28	0xbc566739	-0.013086134
29	0x3c570e5c	0.013125982
30	0x3bbea184	0.005817594
31	0x3c07e6db	0.008294786
32	0xbd006b16	-0.031352125
33	0x3c765877	0.01503574
34	0xbc8c6703	-0.017138964
35	0x3cd719ba	0.026257385
36	0xbba5a535	-0.0050550946
37	0x3bc08fdc	0.0058765244
38	0x3d0a899a	0.033822633
39	0x3c35ceb7	0.011096648
40	0xbc900605	-0.017580995
41	0xbd5c4ea4	-0.053785935
42	0xbca78c30	-0.020452589
43	0xbc8f5446	-0.01749624
44	0x3c995ff1	0.018722506
45	0xbcff3ba8	-0.031156376
46	0x3c8b43f6	0.01700018
47	0xbbbff045	-0.0058575
48	0xbcb34c05	-0.021886835
49	0xbd0284ef	-0.031865057
50	0xbca9ea60	-0.020741642
51	0xbcee9383	-0.029123073
52	0xbce19d23	-0.027540749
53	0x3cc61033	0.024177646
54	0xbc81008e	-0.015747335
55	0xbcbc930e	-0.02301934
56	0x3d166ee8	0.036726862
57	0xbca1af7f	-0.019737003
58	0xbcc53b95	-0.024076262
59	0xbcc0e5eb	-0.023547133
60	0xbca9f463	-0.020746415
61	0xbccf2bf2	-0.02528951
62	0x39a67345	0.0003174787
63	0x3c3d435d	0.011551705

weight f4 [64, 1024]
0	0xbc56fcf8	-0.013121836
1	0x3c412f66	0.011791086
2	0xbbe39d43	-0.0069462373
3	0x3c8ebcf2	0.01742408
4	0x3cd0849a	0.025453854
5	0x3d07d4a3	0.03316177
6	0x39b6c3f6	0.00034859747
7	0xbc30f235	-0.010799934
8	0xbbc791c4	-0.0060903747
9	0xbc289dfe	-0.0102915745
10	0x3cac091e	0.021000441
11	0x3ba51b2a	0.0050386386
12	0xbcb167cd	-0.021655941
13	0xbadd4328	-0.0016880976
14	0xbbd03ba5	-0.0063547664
15	0xbb083f04	-0.0020789513
16	0xbc9dc983	-0.019261127
17	0xbc9f6e34	-0.019461729
18	0xbc8b5cd9	-0.017012047
19	0xbc065bc4	-0.00820059
20	0xbca7ee6a	-0.020499427
21	0xbce355fb	-0.02775096
22	0x3ba7b1bd	0.0051176236
23	0x3c041663	0.008061978
24	0xbc5a00cb	-0.013305853
25	0xbcce00c7	-0.025146855
26	0xbc005ab1	-0.0078341225
27	0xbd0319d7	-0.032007065
28	0x3d09ace6	0.033612154
29	0xbce36e98	-0.027762696
30	0xbbb7181c	-0.005587591
31	0xbb385f48	-0.0028132964
32	0x3c206293	0.009789127
33	0x3cf13a93	0.029446876
34	0xbc0584a0	-0.008149296
35	0x3c02d6ba	0.007985765
36	0x3b02e573	0.0019973188
37	0x3c0131a3	0.0078853695
38	0x3c50b5d1	0.012738661
39	0xbcb2c139	-0.021820651
40	0x3b95c0bc	0.004570095
41	0xbc91c95e	-0.017796215
42	0x3ccdb4dd	0.025110656
43	0xbbae47ee	-0.0053186333
44	0x3c6cffd5	0.014465292
45	0x3a01dca0	0.0004953835
46	0xbcd70a77	-0.026250107
47	0x3c7ee092	0.015556471
48	0xbc8790ad	-0.016548479
49	0xbcaf7693	-0.021418845
50	0x3c9c31bf	0.01906669
51	0xbbb72174	-0.0055887047
52	0x3cb255fc	0.021769516
53	0xb999a9b9	-0.00029308887
54	0xba4f0f88	-0.00078987377
55	0xbcd89acc	-0.026441
56	0x3c56e684	0.013116483
57	0x3ba22f7f	0.0049495096
58	0x3cc4afdc	0.024009638
59	0xbc4f2c93	-0.012644905
60	0xbb73f3a9	-0.003722409
61	0xbb9bf80e	-0.004759795
62	0x3b14c8f7	0.0022702792
63	0x3c0cfab7	0.008604697
64	0x3be326a3	0.006932096
65	0x3c9c664e	0.019091751
66	0xbc4742fb	-0.0121619655
67	0xbb07e6c9	-0.0020736924
68	0x3d0de1a2	0.03463901
69	0x3ab12a60	0.0013516657
70	0x3cbb8c12	0.02289394
71	0x3ca5af17	0.02022509
72	0xbbd9f9a9	-0.0066520763
73	0xbc2b1b00	-0.010443449
74	0x3cdf2cf1	0.02724311
75	0xbc86024e	-0.01635852
76	0x3bf5f746	0.007506284
77	0xbc855710	-0.016276866
78	0x3cb4e8ca	0.022083659
79	0xbc2bc2e1	-0.0104834745
80	0xbc3dbc90	-0.011580601
81	0x3c2d810a	0.010589847
82	0xbb427012	-0.002966885
83	0x3c9e17c4	0.019298442
84	0xbc6a2d85	-0.014293079
85	0x3d06e0ca	0.03292922
86	0xbc7b854e	-0.0153516065
87	0x3c0cbf12	0.008590477
88	0x3bded924	0.0068007875
89	0x3c45eb8a	0.012080083
90	0x3c5e7726	0.013578212
91	0xbcd3a111	-0.025833638
92	0xbcb0051d	-0.021486813
93	0xbc120a3a	-0.008913571
94	0x3c96e93e	0.018421765
95	0x3cd862e7	0.026414348
96	0x3bd54031	0.0065078964
97	0x3d05a6bd	0.032629717
98	0x3bb297ac	0.0054502096
99	0x3c982a68	0.018574908
100	0xbb886b62	-0.0041631917
101	0x3cdfcf24	0.027320452
102	0x3c96d545	0.018412242
103	0xbcd768c6	-0.026295077
104	0x3c8361e9	0.016037898
105	0x3ca7f520	0.020502627
106	0xbbd486ae	-0.0064857816
107	0x3d040df0	0.032239854
108	0xbba99800	-0.0051755905
109	0x3c48633b	0.01223069
110	0xbcd1cbc9	-0.025609868
111	0xbcc72c57	-0.024313135
112	0x3c932b5d	0.017965013
113	0x3c5393e7	0.012913681
114	0x3c823ac0	0.015897155
115	0x3c4c8946	0.0124839
116	0xbc1f278a	-0.009714017
117	0x3bc5a658	0.0060317926
118	0x3bafd18e	0.005365557
119	0x3cba7a97	0.022763534
120	0x3c7c3f5e	0.015395967
121	0xbc832b2e	-0.0160118
122	0xbbc1dfe0	-0.0059165806
123	0xbc118d0f	-0.008883729
124	0xbca7d2a3	-0.020486182
125	0x3cc3b1d3	0.023888504
126	0xbb70044a	-0.003662365
127	0x3ce23445	0.027612815
128	0x3cd03694	0.02541665
129	0xbbd19518	-0.006395947
130	0xbc423df6	-0.011855593
131	0xbc74dfbd	-0.0149459215
132	0x3c848d0f	0.016180543
133	0xbc3d32cd	-0.011547756
134	0x3c17acf1	0.009257541
135	0xbca84b88	-0.020543829
136	0x3ae64420	0.001756791
137	0x3c992e6f	0.0186989
138	0xbaa48d8e	-0.0012554394
139	0x3c84ba51	0.016202124
140	0xbc441b36	-0.011969378
141	0xbcc2f7c2	-0.02379978
142	0xbce77d46	-0.028257977
143	0x3ce8cad3	0.028417027
144	0x3d068f3c	0.032851443
145	0xbbca99e8	-0.006182898
146	0x3cfae737	0.03062783
147	0xbc9f8ab4	-0.019475318
148	0xbbdd5418	-0.0067544095
149	0x3bebb9cf	0.007193781
150	0x3bb169a7	0.005414206
151	0xbb88cdf2	-0.004174941
152	0x3cc91ee7	0.024550868
153	0x3c5fe173	0.013664591
154	0x3c66201e	0.014045743
155	0x3b87d39f	0.0041451002
156	0x3bebc34d	0.0071949125
157	0x3cc93262	0.024560157
158	0xbb90507c	-0.0044041257
159	0x3c322b62	0.010874601
160	0x3c44804c	0.011993479
161	0xbc550879	-0.013002508
162	0x3ba11e4b	0.0049169413
163	0x3af81a6d	0.0018928774
164	0xbc8810d6	-0.01660959
165	0x396298ef	0.00021610012
166	0x3cde996c	0.027172767
167	0x3c6d34c6	0.014477914
168	0xb9097fab	-0.00013112898
169	0x3a3f3628	0.00072941417
170	0xbaa8a574	-0.0012866692
171	0xbc135c1a	-0.008994127
172	0x3c4ab645	0.012372558
173	0xbc890668	-0.016726688
174	0x3cced349	0.025247233
175	0xbca14896	-0.019687932
176	0x3cc87dd8	0.02447407
177	0xbbd620ae	-0.0065346574
178	0xbcba19c1	-0.022717359
179	0x3c2b9102	0.010471584
180	0xbc14c108	-0.009079225
181	0x3cf51adf	0.02992004
182	0xbd080a23	-0.033212792
183	0x3c5d78bb	0.013517554
184	0x3bf4861c	0.007462276
185	0x3ca8ea7f	0.020619629
186	0x3c80114f	0.015633253
187	0x3c6bce43	0.014392438
188	0xbbf77a85	-0.0075524473
189	0x3bdc2aac	0.006718954
190	0x3ca4f4b8	0.020136222
191	0x3c4236cc	0.011853885
192	0x3c26ecf5	0.010188331
193	0x3d037969	0.032098208
194	0x3c6f7da9	0.014617362
195	0x3cb041f3	0.021515822
196	0xbaa07159	-0.0012240811
197	0x3a193c1e	0.0005845445
198	0x3cad53e9	0.021158176
199	0xbcd913e7	-0.026498748
200	0x3c9458ce	0.018108752
201	0x3cca7c92	0.024717603
202	0xbcb8d9cf	-0.022564797
203	0xbc8cd3a2	-0.017190758
204	0x3cbe56e4	0.023234792
205	0xbc6dd3b7	-0.014515809
206	0x3c81d33a	0.015847791
207	0xbd035b6f	-0.03206962
208	0xbc99e81e	-0.01878744
209	0xbc9d53f6	-0.019205075
210	0xbc8aca83	-0.016942268
211	0x3bebe2b3	0.0071986555
212	0xbc37fd43	-0.011229816
213	0x3d103729	0.035208855
214	0x3bcf2587	0.0063216123
215	0x3cf6d09f	0.030128775
216	0xbac182ba	-0.0014763691
217	0xbc8333de	-0.016015943
218	0x3c77fb18	0.015135549
219	0x3c15d717	0.00914552
220	0x3c85ee36	0.01634894
221	0x3b81a979	0.0039569703
222	0xbc170432	-0.009217309
223	0xbc73ef31	-0.014888571
224	0xbcd16f24	-0.025565691
225	0xbc1e7aac	-0.009672802
226	0xbc973a60	-0.018460453
227	0x3c381302	0.011235001
228	0x3cfd95d9	0.030955242
229	0x3cfdda47	0.030987872
230	0xbc01d086	-0.007923251
231	0xbcaab871	-0.020839902
232	0x3c1d615b	0.009605731
233	0x3d02117c	0.031754956
234	0x3bce44fd	0.006294845
235	0xbc89f8e8	-0.01684232
236	0xbc01f9be	-0.007933078
237	0x3ad0d96c	0.0015933937
238	0xbc0cc165	-0.008591031
239	0x3b4e8244	0.003151075
240	0x3c3b7227	0.01144079
241	0x3ba36175	0.004985983
242	0xba715fd9	-0.0009207703
243	0xbb833473	-0.004004055
244	0x3bcb9f61	0.006214068
245	0x3c3976b8	0.011319809
246	0xbca98d9e	-0.020697411
247	0xbb79a4bd	-0.0038092576
248	0xbc8f264b	-0.017474314
249	0xbb56a0c0	-0.0032749623
250	0x3c59324d	0.013256622
251	0x3cdb772a	0.02679022
252	0x3c77c3cc	0.015122365
253	0x3c770a0a	0.015078077
254	0x3cf87312	0.030328307
255	0xbc47889a	-0.012178564

bias f4 [64]
0	0x3cbd88fd	0.02313661
1	0x3a88e891	0.0010445287
2	0xbcc2be2c	-0.023772322
3	0x3be05d41	0.006847054
4	0x3cb98bc0	0.022649646
5	0x3bf459c1	0.0074569886
6	0xbc37ee79	-0.01122629
7	0xbcba54e4	-0.022745557
8	0x3c64b547	0.0139592355
9	0xbcc3bafe	-0.023892876
10	0xbbfac95a	-0.0076533975
11	0xbc53d539	-0.012929254
12	0xbc192672	-0.009347545
13	0x3cb5b315	0.02218012
14	0xbc246751	-0.010034398
15	0xbc60c6fc	-0.013719317
16	0x3c890938	0.016728029
17	0xbc5a0c26	-0.0133085605
18	0xbce3f6e7	-0.027827693
19	0x3c0bcb2e	0.0085323285
20	0x3ca72dcc	0.02040758
21	0x3bd28e38	0.006425645
22	0xbca7dd26	-0.020491194
23	0x3cd51a6e	0.02601358
24	0x3ce1eb0e	0.027577903
25	0x3cecf83f	0.028926967
26	0xbbc1aeb1	-0.0059107174
27	0x3bdfcbd7	0.0068297195
28	0x3ce483fb	0.027894964
29	0x3c300eab	0.010745685
30	0xbc8e7c91	-0.017393382
31	0xbc8ec53f	-0.017428039
32	0xbcf9f1e6	-0.030510854
33	0xbbe45ae9	-0.006968845
34	0xbc8383ca	-0.016054053
35	0xbc62ad3f	-0.01383525
36	0xbc9cb0da	-0.019127298
37	0x3c28d933	0.010305691
38	0xbccd03e0	-0.025026262
39	0x3c8865f6	0.016650181
40	0xbcdb87d7	-0.026798172
41	0xbc2524de	-0.010079591
42	0xbb76a152	-0.0037632775
43	0x3b0eb8b7	0.002177758
44	0x3cac2ad9	0.021016525
45	0x3cc85847	0.024456156
46	0x3c7bd0ba	0.0153695885
47	0xbc1e311f	-0.009655266
48	0x3d247534	0.040150836
49	0x3caefa03	0.02135945
50	0x3bc26261	0.005932138
51	0x3c6a8b04	0.0143153705
52	0xbca00b6f	-0.019536702
53	0xbba34e05	-0.004983666
54	0x3cb9b944	0.02267135
55	0x3c9547ae	0.018222656
56	0x3cd05d27	0.025435043
57	0xbc0884a1	-0.008332402
58	0xbcb72f68	-0.022361472
59	0x3c1ce277	0.009575478
60	0xbd1b42d6	-0.037905537
61	0xbc92a559	-0.01790111
62	0x3c3f18fa	0.01166367
63	0xbcf546dd	-0.029941017

weight f4 [10, 64]
0	0x3d1cabd5	0.03824981
1	0x3da90c8e	0.08254348
2	0x3d9a94c8	0.07547909
3	0xbdaca985	-0.08430771
4	0xbd16acf6	-0.036786042
5	0x3dbe5c95	0.09295002
6	0xbdecb78f	-0.115584485
7	0x3e0dc555	0.13844807
8	0xbdbd8adf	-0.09255003
9	0x3cc1ece6	0.023672532
10	0xbdb5bd7e	-0.088740334
11	0x3b138441	0.002250925
12	0xbbfb118f	-0.0076620053
13	0x3c065f28	0.008201398
14	0xbd2a3938	-0.041558474
15	0xbc1bed7e	-0.009517072
16	0x3c207b1c	0.009794977
17	0xbe185923	-0.14877753
18	0x3d4f7907	0.05065253
19	0x3c156740	0.009118855
20	0x3bdb9039	0.0067005423
21	0xbd8c6e4a	-0.068569735
22	0x3b26e062	0.0025463332
23	0xbc7be396	-0.015374085
24	0x3c2b0941	0.010439218
25	0xbdc1f1c1	-0.09469939
26	0xbdda0523	-0.10645511
27	0x3da9b3c7	0.08286243
28	0xbe002863	-0.12515406
29	0xbdd56e7d	-0.104214646
30	0xbd880cd4	-0.06643072
31	0x3d34405b	0.044006687
32	0x3c691ab9	0.014227563
33	0x3d3affbc	0.045654044
34	0xbd1e0f65	-0.0385889
35	0x3dfb0fdb	0.122588836
36	0x3db6a397	0.08917921
37	0x3cc96ced	0.024588073
38	0x3db11d8f	0.08648216
39	0xbdd809ae	-0.10548721
40	0x3defa9bf	0.117022984
41	0xbcd62d5e	-0.02614468
42	0xbdf33c46	-0.118767306
43	0xbdbce5df	-0.09223532
44	0x3daddc0a	0.08489235
45	0x3d101aee	0.035181932
46	0xbd8c8f84	-0.06863311
47	0xbda99ad0	-0.08281481
48	0xbdfb6866	-0.12275772
49	0x3b36ae27	0.00278748
50	0x3d5a3e64	0.053282157
51	0x3df5d1fc	0.12002942
52	0xbceed501	-0.029154303
53	0xbd9a541f	-0.07535576
54	0xbd2365d3	-0.03989203
55	0xbd455010	-0.048172057
56	0xbc3ead6e	-0.011638029
57	0x3d013401	0.031543735
58	0xbdb28334	-0.08716431
59	0xbd332602	-0.04373742
60	0x3dbc8890	0.09205735
61	0xbe0826e4	-0.13296086
62	0x3d0c4cbd	0.03425287
63	0x3e16f24f	0.14740871
64	0x3df04f97	0.117339306
65	0xbdbf5a2a	-0.09343369
66	0xbde39c75	-0.11113826
67	0x3df768ec	0.12080559
68	0xbd0e1045	-0.034683485
69	0xbd985ef0	-0.07439983
70	0x3c51ce14	0.0128054805
71	0x3db8e772	0.0902852
72	0x3dff7222	0.12472941
73	0xbd66d42b	-0.056354683
74	0xbcbc353c	-0.022974603
75	0xbdcbe367	-0.09955483
76	0x3c63d96a	0.013906816
77	0xbd8fb91d	-0.070177294
78	0xbdbef314	-0.09323707
79	0xbd8216f6	-0.06352036
80	0xbbbca72d	-0.0057572336
81	0xbdcc5c34	-0.09978524
82	0x3d21c2ec	0.039492533
83	0x3da57bef	0.08080279
84	0xbdd97193	-0.10617366
85	0x3ddd560f	0.1080743
86	0x3c256522	0.010094913
87	0x3db730d2	0.089448586
88	0x3df1688c	0.11787519
89	0xbb1f22e9	-0.0024282283
90	0x3d319041	0.043350462
91	0xbd97a97f	-0.07405376
92	0xbdbfea27	-0.09370833
93	0x3d7714e4	0.060322657
94	0xbd8a0b88	-0.06740481
95	0x3d42a142	0.04751707
96	0xbd39ce04	-0.045362487
97	0xbe0754dd	-0.13215967
98	0xbd32980d	-0.04360204
99	0xbe17d515	-0.14827378
100	0x3d13827c	0.03601311
101	0x3dfbe22c	0.12298998
102	0xbda8d434	-0.082435995
103	0xbdf3f5cd	-0.11912117
104	0xbd6010dc	-0.05470358
105	0x3db7c788	0.089736044
106	0x3df421cf	0.11920511
107	0x3db664d9	0.08905954
108	0xbda2178a	-0.07914646
109	0x3ca1d323	0.019753998
110	0xbcd8a5d5	-0.026446262
111	0x3c856ecb	0.016288182
112	0xbda58da3	-0.08083656
113	0xbd267837	-0.04064199
114	0xbbb0dfcd	-0.005397773
115	0xbdfc0191	-0.12304986
116	0xbc9bae2c	-0.01900395
117	0x3e005ae8	0.12534678
118	0x3de8bd06	0.11364178
119	0x3dafd19e	0.08584903
120	0xbe0873a2	-0.1332536
121	0xbd6ceaca	-0.0578411
122	0x3da4a22e	0.08038746
123	0xbcd90ce0	-0.026495397
124	0xbd37e06d	-0.044891763
125	0x3c5da1bb	0.013527329
126	0x3db16601	0.08662034
127	0xbdafd070	-0.08584678
128	0xbdeac424	-0.11463192
129	0x3c959bb6	0.018262725
130	0xbced3950	-0.028957993
131	0xbd0d3ec7	-0.034483697
132	0xbded61e9	-0.115909405
133	0x3e0ddbab	0.13853328
134	0x3cb313f3	0.021860098
135	0x3d9816f0	0.0742625
136	0xbd1d45e3	-0.038396727
137	0x3b791fe3	0.003801339
138	0x3c61b810	0.013776794
139	0xbcab7c0c	-0.020933174
140	0xbde02e14	-0.10946289
141	0x3d02f5d2	0.031972714
142	0xbb114a1a	-0.0022169412
143	0x3df76d37	0.12081378
144	0xbd6b95f3	-0.05751605
145	0xbd4de267	-0.050264742
146	0x3ddd1f09	0.10796935
147	0xbddba14e	-0.10724126
148	0xbc3dfa81	-0.011595369
149	0x3cf5ed70	0.030020446
150	0xbbf67a7a	-0.0075219246
151	0x3c123c25	0.008925472
152	0x3d2dca71	0.04242939
153	0xbd900cdb	-0.07033702
154	0xbdd31507	-0.10306745
155	0xbdf4274e	-0.11921559
156	0x3cb104d9	0.021608757
157	0x3d591a6b	0.05300371
158	0xbcd32b06	-0.025777351
159	0x3da71baf	0.08159577
160	0xbdc4bb0e	-0.0960599
161	0xbd28f390	-0.041247904
162	0xbc9ab90c	-0.018887065
163	0x3e054b59	0.13017024
164	0xbd4f4e28	-0.050611645
165	0x3cdb5ce2	0.026777688
166	0x3c525bc9	0.012839266
167	0x3d94b9bc	0.072619885
168	0x3dcba67b	0.09943863
169	0xbdd1cf6e	-0.10244642
170	0x3dc44362	0.09583165
171	0x3ddde80e	0.108352765
172	0x3df66696	0.120312855
173	0xbd2c2bc7	-0.042033937
174	0x3ca0f3ac	0.019647442
175	0xbdc21ea1	-0.09478498
176	0xbc06fd6a	-0.00823913
177	0xbd854924	-0.06508091
178	0xbd52ef19	-0.051497553
179	0xbd671e39	-0.056425307
180	0xbd9cbc84	-0.07653144
181	0xbd954b3b	-0.0728974
182	0x3d10a6b1	0.03531522
183	0xbdfd0b50	-0.12355673
184	0x3d9016cf	0.070356004
185	0xbc3fb6cd	-0.011701298
186	0xbc8202f1	-0.015870543
187	0xbc85524e	-0.016274597
188	0xbd506b30	-0.050883472
189	0x3df3b12e	0.11899029
190	0x3d814777	0.06312459
191	0xbdbf4535	-0.09339372
192	0x3dd0ee9e	0.102017626
193	0x3caa1130	0.020760149
194	0x3dbef1a4	0.09323433
195	0x3ca3e126	0.02000482
196	0x3dec08b2	0.11525096
197	0x3da8689a	0.08223076
198	0x3dc44e02	0.09585191
199	0x3d03bd11	0.03216273
200	0x3c41a2e0	0.011818618
201	0x3d86d85d	0.06584237
202	0x3d0f44bd	0.034977663
203	0xbd9e3ce7	-0.0772646
204	0x3d80466d	0.06263433
205	0x3da5ca21	0.08095194
206	0x3d2971f0	0.041368425
207	0xbc4bbd4e	-0.0124352705
208	0xbdcccbd5	-0.099998154
209	0xbc8dabfe	-0.017293926
210	0x3cdfa601	0.027300837
211	0x3dc53dd0	0.096309304
212	0xbdc1e1cf	-0.09466898
213	0xbe068bd7	-0.13139282
214	0x3c678d56	0.014132818
215	0xbdea00e9	-0.11425955
216	0x3dfd7104	0.12375072
217	0xbbc1193d	-0.005892901
218	0xbdf141b6	-0.117801115
219	0x3dbb9cf1	0.091607936
220	0x3bd88ba8	0.006608445
221	0x3cca750a	0.024714012
222	0xbda5b73d	-0.080915906
223	0x3dc7002b	0.09716829
224	0xbdf7e412	-0.12104048
225	0x3d970c52	0.07375397
226	0xbd50387c	-0.050835118
227	0xbd41f734	-0.047354892
228	0xbd529f36	-0.051421367
229	0xbbc41dc4	-0.0059849937
230	0xbaf128c9	-0.0018398996
231	0x3bf413a9	0.0074486327
232	0x3c1b2769	0.009469845
233	0xbd11ba14	-0.03557785
234	0xbdc082ba	-0.09399934
235	0x3daf2aee	0.0855311
236	0x3cdd2171	0.026993485
237	0xbca01cd4	-0.019544996
238	0xbcd6890c	-0.026188396
239	0xbe036441	-0.12831213
240	0x3d008d3c	0.03138469
241	0x3d0feacf	0.03513604
242	0xbe0378f5	-0.1283911
243	0xbd8d5140	-0.06900263
244	0x3d3ca43f	0.046055075
245	0xbc586754	-0.013208229
246	0xbbdc31ad	-0.006719789
247	0xbe06d789	-0.13168158
248	0x3dad48f6	0.08461182
249	0xbe040360	-0.12891912
250	0xbe09e497	-0.13466106
251	0xbdee3b27	-0.11632376
252	0xbda83605	-0.082134284
253	0x3d9f05f9	0.07764811
254	0x3cb704ac	0.022341095
255	0x3ca45916	0.02006201

bias f4 [10]
0	0xbe2a9287	-0.16657458
1	0xbcfa2944	-0.030537255
2	0x3dfb910b	0.12283524
3	0x3da29766	0.07939033
4	0x3d8fe014	0.070251614
5	0xbd9581a0	-0.07300115
6	0x3d251dbb	0.040311556
7	0x3dea8368	0.11450845
8	0xbdff8918	-0.124773204
9	0x3d37dde0	0.04488933
