Pytorch/model_data/CIFAR10_EPOCH8.pth (torch, 588827 bytes, 10 tensors)

weight f4 [32, 3, 5, 5]
000000 14 20 8b bc fb 31 54 bd f5 f0 b1 bd 3f 24 14 be
       -0.01698307 -0.051805478 -0.08688537 -0.14466952
000010 a6 35 0b bd 66 1c 17 be ae 23 f4 bd d2 b2 a0 3d
       -0.03398671 -0.14756927 -0.11920868 0.07846607
000020 5c 2b 72 bd da 40 81 bd 6b af 0b be bd b1 29 bd
       -0.059123382 -0.063111976 -0.13641135 -0.04142927
000030 94 99 f0 3d 15 49 ab 3d 2a 66 08 be 0f ee a8 3d
       0.11748043 0.08363549 -0.13320222 0.08248531
000040 75 1d 9d bd c5 a6 9a 3d 01 1d 0b 3e 90 88 be bd
       -0.07671634 0.0755134 0.13585283 -0.09303391
000050 a4 4f 6f 3d 89 04 d6 3a bf a7 14 3e e0 5d f0 3d
       0.05842556 0.0016328256 0.14517115 0.11736655
000060 d5 13 b5 bd 72 17 d1 bd 46 20 33 3d 30 7e a1 3d
       -0.08841673 -0.1020955 0.04373195 0.078853965
000070 c8 33 8c bd a7 40 1b be fa 04 64 bd 1a 83 bb 3d
       -0.06845814 -0.15161382 -0.05566881 0.09155865
000080 cd 78 ee bd e7 85 4d 3d 1d 11 0e be 49 3f 22 bd
       -0.11644135 0.050176527 -0.13873716 -0.039611135
000090 b5 76 f5 bc fb c8 0b 3d 0c 68 ab 3d c8 3c a3 3d
       -0.02996383 0.034127217 0.08369455 0.079705775
0000a0 ce e4 25 3d 78 d2 b3 bd 1f 0f e9 bb b2 a2 01 3e
       0.04050141 -0.08780378 -0.0071123983 0.1265972
0000b0 27 5a 38 3d 7f 95 0f 3d bf 34 00 3e d4 5a 2d 3e
       0.04500785 0.03505468 0.12520121 0.1692918
0000c0 39 bf 18 3e ad 4d 7b 3d 49 5d 51 bd 0b b7 6f bd
       0.14916696 0.061353374 -0.051114354 -0.058524173
0000d0 a4 e3 0c be 8c d4 6f bd 21 04 28 be 02 1e 45 bc
       -0.13758713 -0.05855231 -0.16407825 -0.01203108
0000e0 c5 b3 4d 3d e9 8c 0e bd 67 34 59 3d 36 a1 01 be
       0.05022027 -0.03480235 0.05302849 -0.12659153
0000f0 b1 be 41 3d 04 c3 72 3d 07 ae 8e bc c7 9f 9c 3d
       0.047300998 0.059268013 -0.017416967 0.076476626
000100 30 ba cf bd 7c 18 21 bc 12 2e 54 3d 6b be 09 3e
       -0.10142934 -0.009832498 0.05180175 0.13451545
000110 09 0a 0e bd da 47 e6 bd 6b 24 78 3d 8c ce 3e 3d
       -0.03467754 -0.11244173 0.060581606 0.046583697
000120 5a 37 19 3e a4 1f 1b 3e 58 4f e4 3d 52 9f b2 3d
       0.14962521 0.15148789 0.11147946 0.08721794
000130 87 2f bc 3d eb cc fb 3d bd 75 9c 3d 04 4b 0c 3c
       0.091887526 0.122949444 0.07639644 0.008562807
000140 6d 19 17 bd a5 fb 8c 3d 81 b9 18 3d 35 f9 e4 bd
       -0.036889482 0.06883935 0.037286285 -0.11180345
000150 0d 02 d7 bd 3d c5 f0 3d 31 71 03 be a9 30 3e 3d
       -0.10498438 0.1175637 -0.12836148 0.046433125
000160 02 c8 0a be 72 f9 86 3d 19 22 42 3d d0 9d a2 3c
       -0.1355286 0.06590547 0.0473958 0.019850641
000170 a4 42 c2 3b 37 c8 e8 3d 96 f3 71 bd 00 a9 54 3d
       0.0059283543 0.11366313 -0.059070192 0.051918983
000180 da 4d 05 3d 4f ca 85 3c 6c 6c ce 3d 9e 24 98 3c
       0.03254495 0.01633182 0.100792736 0.018572148
000190 24 ce 66 3d 9d b8 a0 3d a1 13 29 3d 0a a3 1e 3d
       0.056348935 0.07847712 0.041278485 0.038729705
0001a0 7c 31 20 be 9d 92 a2 3d 6f 1f 29 3b b6 83 da 3c
       -0.15643877 0.079381205 0.002580609 0.026674133
0001b0 0d 62 2a be 37 3d 38 be 62 f0 ad bd d5 b3 0a be
       -0.16638966 -0.17992102 -0.08493115 -0.13545163
0001c0 88 17 12 bd d6 b2 df 3c 55 d0 1e be 28 30 51 bc
       -0.035666972 0.027306955 -0.1550916 -0.012767829
0001d0 d3 e6 d0 39 0a 1c 69 bc 12 5b 12 bd 87 56 5f bc
       0.0003984483 -0.014227876 -0.035731383 -0.01363147
0001e0 8a b7 d4 bc f3 60 26 3d 9a 3d 89 3d 42 b0 40 bc
       -0.025966424 0.0406198 0.06701203 -0.011760773
0001f0 b1 c9 5f bd 67 96 5f 39 71 25 5b 3d aa b8 f9 3d
       -0.054635707 0.00021322966 0.053502504 0.12193425
000200 63 28 ae bd 5f 11 22 3d c8 8f 4f 3c b0 cb ca bc
       -0.08503797 0.039567348 0.012668557 -0.024755329
000210 75 dd 95 bd 76 72 f3 bd 2f 1c 82 3d 61 13 ab 3c
       -0.0731763 -0.11887066 0.06353032 0.020883264
000220 d6 a2 91 3c a6 47 2b bc 77 b4 a0 3c 9e 7a 2c 3d
       0.017777842 -0.010454094 0.019617302 0.042109124
000230 7b 6f e7 bc ab 5e 45 bd 4f dd ca 3d 56 a3 1f 3d
       -0.0282514 -0.048185986 0.099054925 0.03897413
000240 19 17 11 3d 19 f1 61 bd 56 b3 9a bd 01 ac ce 3d
       0.03542242 -0.05516157 -0.07553737 0.10091401
000250 4d 9f ba bd 7d ab 76 3c e2 0c bd 3d 20 e5 98 3c
       -0.091124155 0.015055534 0.09230973 0.018663943
000260 50 de f9 bd 9d 8a b6 bc e1 db ef bd 34 a1 5c bc
       -0.12200606 -0.022282893 -0.117118604 -0.013466168
000270 ec 09 2d 3d 25 71 28 be e7 94 1a be 5a b7 df bd
       0.04224579 -0.16449411 -0.15095864 -0.109236434
000280 bc 6e bb bd 4f 5f 75 3d ad ce a6 3c fa 56 59 bd
       -0.0915198 0.059905346 0.020362223 -0.053061463
000290 a2 1b 0f bc 39 b0 14 be f1 a4 c6 bd 7c ca d8 bd
       -0.0087346155 -0.14520349 -0.09699429 -0.10585496
0002a0 10 f5 83 bd c1 71 d9 bd 0c 82 c8 3c c4 3c 32 be
       -0.06443226 -0.106174 0.024476074 -0.17405993
0002b0 dd ac 28 be 59 b7 11 be 66 fc 0e be 5d 54 0a bd
       -0.16472192 -0.14230098 -0.1396347 -0.03377186
0002c0 eb e6 fb bd 0a 90 04 3d d2 42 f3 3c d5 3b 26 3d
       -0.122999035 0.03236393 0.029694948 0.040584404
0002d0 f8 7d 1c 3d d1 2f 32 bd 6d 60 ba 3b e8 81 ab 3c
       0.03820607 -0.043502633 0.0056877644 0.020935968
0002e0 dd b4 d8 bd ca 0f c6 3c 10 22 4a bd 4b 8d 83 3d
       -0.10581372 0.02417745 -0.04934889 0.06423434
0002f0 d7 ec db 3d 8e 26 b5 bc 9d 09 b8 bd ea 5b ef 3d
       0.10738533 -0.02211311 -0.089862086 0.11687453
000300 86 57 cb 3d f4 c4 59 3d aa f3 fe bb ac cd 3e 3d
       0.09928803 0.053166345 -0.007780512 0.046582863
000310 72 d9 a9 bd 45 90 0f be ae f7 b4 bd c1 5e 9e bd
       -0.082934275 -0.14019878 -0.08836304 -0.077329166
000320 48 09 bc bd f5 54 d4 bb f1 40 ce 3d 65 79 27 3d
       -0.09181458 -0.006479854 0.1007098 0.040887255
000330 55 0c f7 3d 4f 2f 10 bd 89 65 05 3d 3d 25 e2 3d
       0.12062899 -0.035201367 0.032567535 0.11042259
000340 2b a8 37 bd d4 68 1b 3e bb ba f6 3d 51 96 d7 3d
       -0.04483811 0.15176708 0.12047335 0.105267175
000350 ed 78 8f 3d 2f 91 5b 3e d6 1d 4a 3e 7e c1 85 3d
       0.07005487 0.21442102 0.19737944 0.06531046
000360 5d 26 34 3e 90 b9 57 3e 70 b9 07 3e a7 ce 0b 3e
       0.1759276 0.2106688 0.13254333 0.1365305
000370 39 df ab 3d cf d5 47 3d 05 56 72 bd 9e 9f c5 3d
       0.08392186 0.04878789 -0.059164066 0.09649585
000380 86 82 de 3d f3 3b 8d 3d 76 26 dc 3c bd 38 3c bc
       0.10864739 0.068962 0.026873808 -0.011488137
000390 d7 2f ea 3c 9b da 95 bd f4 3e 3d 3d 60 67 34 bd
       0.028587265 -0.07317086 0.046202615 -0.0440439
0003a0 0e 09 7d 3d 04 c4 a4 3d 67 27 45 3d 68 e8 a0 3d
       0.061776213 0.080451995 0.04813328 0.07856828
0003b0 da f4 b2 bd 56 6f ba ba 73 68 af bc 0f 6e 05 3e
       -0.08738108 -0.0014223855 -0.02141211 0.13030265
0003c0 f1 cf 4a 3d dd aa 4d 3d fd 04 7e 3d c6 6f 0e 3e
       0.049514715 0.050211776 0.062016476 0.13909826
0003d0 7b 94 84 3d 4e b3 f4 bc f2 6b e2 bd cb 4e ca bd
       0.06473633 -0.029870655 -0.11055745 -0.0987831
0003e0 c3 26 02 3e e1 40 2e bc ec 2d 6d bc 14 07 0b 3d
       0.12710099 -0.0106355855 -0.014476281 0.033942297
0003f0 39 dc 8c bd 60 28 c3 3d 31 7a 69 bd 35 5c 08 bd
       -0.06877942 0.09529185 -0.057001296 -0.03329106

bias f4 [32]
000000 f8 94 0b be 09 51 1a 3c 54 63 50 3d f2 09 63 bd
       -0.13631046 0.009418734 0.050875977 -0.055429406
000010 b2 dd b8 bc 12 dc 86 3e 05 37 9c be 3f 49 a5 be
       -0.02256665 0.26339775 -0.30510727 -0.32282445
000020 12 19 b4 bd 46 f1 65 ba 51 87 3a 3e 2c 2b 13 bd
       -0.08793844 -0.0008771609 0.18215682 -0.035929844
000030 fb 09 6f bd 4f d7 d1 bd 95 07 86 bc 57 bd c5 bd
       -0.058359127 -0.10246145 -0.016361037 -0.09655254
000040 d4 71 4c 3c ef d5 ac be ec 9f 2a bd 2a 2b af bd
       0.012478311 -0.33756968 -0.04165642 -0.08553155
000050 22 84 43 3c 20 77 9a 3d dc 09 b5 3d 1d 0e 03 3e
       0.011933358 0.075422525 0.08839771 0.12798353
000060 99 fd 88 be ee 85 34 3d 7f 01 f8 bd b3 ba 88 3e
       -0.2675598 0.044073038 -0.1210966 0.2670494
000070 bc 0f 74 be 04 0d 62 3d 75 54 c3 bd 6d df 93 3d
       -0.23834127 0.055188194 -0.09537593 0.072203495

weight f4 [32, 32, 5, 5]
000000 a2 92 23 bb 4d 4c e8 bb 21 88 18 b9 a3 d1 45 bb
       -0.0024959226 -0.007089174 -0.00014546562 -0.0030184768
000010 cc 32 d3 bc 25 38 1c 3d ab 0d f5 3b 95 08 1c 3d
       -0.025781058 0.03813948 0.007478436 0.038094122
000020 37 e6 0e 3d a8 58 e9 3c fb 1a be 3c fd 90 d2 3b
       0.03488752 0.028484657 0.023206225 0.0064259754
000030 00 80 3c bc 4a 7b 8f 3c 71 47 37 3d 93 a0 5d bc
       -0.011505127 0.017514843 0.044745866 -0.013527053
000040 5a 03 88 bb bb a0 23 bd c4 89 bd bc 67 6f bd bc
       -0.00415079 -0.039948206 -0.02313698 -0.02312441
000050 02 3d d7 3c a2 b5 d0 3c cd 62 f9 3c 6f 6c ee 3c
       0.026274208 0.025477234 0.03044262 0.02910444
000060 20 6f 38 3c cb aa 11 bd 43 14 8d 3c 1f e3 99 bc
       0.011256963 -0.03556327 0.017221576 -0.018785058
000070 a1 01 d1 3c a0 21 be bb 13 31 b7 bc 0e 15 9e 3c
       0.025513472 -0.0058023483 -0.022362268 0.019297149
000080 4d 6e 15 3c 99 87 0b 3c 74 60 d9 bc cc 7f 1e 3d
       0.009120536 0.008516216 -0.02653525 0.038696095
000090 c7 3b 65 bc 0c d8 7c 3c 8d ec 35 3c ab 88 d2 3c
       -0.013991303 0.015432369 0.011103761 0.025699934
0000a0 69 38 85 3c 3b b0 28 3d 83 ae 7f bc 34 fc 8e 3b
       0.01626225 0.04118369 -0.015605572 0.004363561
0000b0 16 d1 c6 3c 9c 09 b6 3a 74 0b 39 3d 30 92 20 3d
       0.024269622 0.0013888362 0.04517694 0.039201915
0000c0 29 2b 2b 3d 33 d4 c0 bc 91 7a e8 3c 58 a5 1f 3d
       0.041789208 -0.023538684 0.028378757 0.038976043
0000d0 01 67 c0 3a 92 7d a4 3c eb 93 0d 3d 5e 40 9f 3c
       0.0014679135 0.020079408 0.034564894 0.019439872
0000e0 69 fa f8 3b 9a 53 94 bc 8e 75 e0 3c 17 19 e7 3c
       0.0075982106 -0.01810627 0.027399804 0.028210206
0000f0 12 4f 16 bd 23 7b 83 bb 90 2c e1 3c 38 ab dd 3c
       -0.0366965 -0.004012482 0.02748707 0.027059183
000100 d3 23 4f bc ad 57 87 3c 3e e5 1b 3c 7d 4d 1d bd
       -0.0126428185 0.0165213 0.009515105 -0.038403977
000110 df a0 d3 3b 67 d5 22 3c dd 9f 01 bd f2 2e 86 3c
       0.0064583863 0.009938574 -0.031646598 0.016379807
000120 e6 fd 37 bc 78 e4 42 bc 41 80 bb 3c f3 d3 44 bb
       -0.011229968 -0.0118952915 0.022888305 -0.0030033558
000130 3b 78 aa 3c 75 1a 91 bc 49 b6 b0 3b 73 a3 a9 bc
       0.020809283 -0.017712811 0.005392824 -0.020707821
000140 f5 2e 80 3c b7 48 42 bc b5 7d 0a bb 8f ff 03 bb
       0.01564739 -0.011858157 -0.0021132056 -0.0020141338
000150 0f cf d8 3a 72 86 89 3b 0d a7 45 3a 27 66 2b 3d
       0.00165412 0.0041969353 0.0007539846 0.041845467
000160 dc 97 a0 3c 42 86 a2 3b 13 ce 01 bc 00 4d 17 3d
       0.019603662 0.0049598524 -0.007922667 0.036938667
000170 93 d7 1e 3d 2e 5e a9 3c f9 6f 97 3c b8 61 0a 3c
       0.038779806 0.020674791 0.01848601 0.0084461495
000180 a8 9d cd 3c 12 5f 9c bc 73 88 51 3b 76 9f fd 3c
       0.02509959 -0.019088302 0.00319722 0.030959826
000190 d8 37 b5 3c 07 be 9a bc b4 16 eb bc 51 f8 39 bb
       0.022121355 -0.01888944 -0.02869735 -0.0028376768
0001a0 53 1d 07 bc 8f 96 82 bc 0c 5d f6 bb c2 09 4e 39
       -0.0082467375 -0.015940933 -0.0075184163 0.00019649326
0001b0 44 b9 2d bd ba 1d d7 3a 01 8a 34 bb 4a f8 ca bc
       -0.04241301 0.0016412057 -0.0027548077 -0.024776597
0001c0 8a 8f de bc 95 c7 5e 3b 5f cd 32 3b 61 e1 e1 bc
       -0.027168054 0.0033993472 0.0027283055 -0.02757329
0001d0 ba ec ba 3c f6 c9 ba 3c fe 14 20 3c dd 44 2b bc
       0.022817958 0.02280138 0.00977063 -0.01045343
0001e0 ef 5e 01 3c 29 6d 58 3c ff 26 bc 3c 69 1c b5 bc
       0.007896169 0.01320962 0.022967814 -0.022108274
0001f0 31 b3 0e ba f9 ee 58 3c fd 62 72 ba 4b d1 db 3c
       -0.0005443572 0.013240569 -0.0009246318 0.026833197
000200 ad c8 1b 3d 12 88 ca bc 0d 95 b2 3c cd 62 7e 3c
       0.038033176 -0.024723087 0.021799589 0.015526486
000210 ea 93 0e 3d 6b c4 4c 3c fe a1 34 ba ee 60 7e bc
       0.03480903 0.012498002 -0.0006890594 -0.0155260395
000220 1b c2 c3 3c 74 ae b5 bc a5 24 ce bc 88 23 cc bc
       0.023896268 -0.022177912 -0.025163958 -0.024919286
000230 98 46 09 3d 70 98 8b bc aa 20 37 bd e7 df 26 bd
       0.03351459 -0.017040461 -0.044708885 -0.040740874
000240 f7 c7 65 3c 99 62 1b 38 cc 98 20 bd 8a 8d a2 3b
       0.014024726 3.7046706e-05 -0.03920822 0.0049607204
000250 ee d5 29 3d 25 5d 1a bc 37 73 b3 3b d3 e1 1b 3d
       0.041463785 -0.009421621 0.005476381 0.03805716
000260 b1 9e 66 3c d4 68 ad bb a2 11 1e 3d 9d 8a 13 3c
       0.014075921 -0.0052920375 0.038591035 0.009005216
000270 41 de 09 3d e1 96 11 3d 87 af 0b bc 33 85 99 3c
       0.033659223 0.03554428 -0.008525736 0.018740272
000280 d9 0e 19 3c d8 cb b5 3c 8e 0c 67 3c 89 29 c4 3c
       0.009341919 0.022191927 0.014102114 0.023945587
000290 ed b4 99 3b d4 6e bb 3c fa ad 4f bc 51 75 db 3c
       0.0046907575 0.022879995 -0.012675757 0.02678934
0002a0 7b 17 39 bb ab 36 af bb 1d 4f b0 bb 98 7b 0d 3d
       -0.0028242755 -0.005347093 -0.005380525 0.034541696
0002b0 15 11 e2 3c 6e d0 ed bc da bd 09 3d 31 ee ed bc
       0.027596036 -0.029030051 0.033628322 -0.029044243
0002c0 f5 f6 1a bd 38 03 ce bc a3 ca d5 3c 71 6c 2e bd
       -0.037833173 -0.02514802 0.026097601 -0.042583887
0002d0 36 1c 96 bc 11 6a c2 ba 64 75 93 bb e4 d9 a5 3c
       -0.018323999 -0.0014832636 -0.004500078 0.0202455
0002e0 2a aa 10 bd 2d 71 0c bb 5f 96 12 bc 9e b6 1a 3d
       -0.03531853 -0.0021429763 -0.008946984 0.037771814
0002f0 b7 d0 d1 3c 4b af 2f 3d 8b 1c 16 3d 7c d9 d8 3b
       0.025612218 0.04289178 0.036648314 0.006617723
000300 d7 79 1d 3d 40 0b 66 3d 76 97 1f 3d 78 ef 48 3d
       0.038446274 0.056163073 0.038962804 0.0490565
000310 da 56 72 3d a7 ca 01 3d 07 a8 30 3d da 2f 3a 3d
       0.05916486 0.031687405 0.043128993 0.04545579
000320 21 9b 54 3c 7d fc f5 3c 3c 22 72 3b 87 1b 0b bd
       0.012976439 0.030027622 0.0036946675 -0.0339618
000330 bc c0 19 bc 32 20 81 3c 7e 2d ee 3b e1 5c 9f bc
       -0.00938433 0.015762422 0.0072686067 -0.019453468
000340 bb fd 34 bd f9 37 b4 3b 4a d0 c2 3b b6 a9 22 3c
       -0.04418729 0.0054998365 0.00594524 0.009928158
000350 91 78 14 bc 34 a6 18 bd 88 d4 08 bd 70 ef 52 bc
       -0.009061948 -0.03726788 -0.03340581 -0.012874469
000360 29 ce 03 3d e4 fa 49 bc c3 d6 5f 3d cc 75 37 bc
       0.03217903 -0.012327883 0.054648172 -0.011197519
000370 b2 4b f9 bc 07 2e 29 3d 59 41 48 3c 80 99 41 3b
       -0.030431602 0.04130366 0.012222611 0.0029540956
000380 8b 1e a9 3b ad 3c b8 3c 5b df f7 ba 7a bb 03 bd
       0.0051611117 0.02248987 -0.001891117 -0.032161213
000390 93 ec 04 bd d0 75 95 3c 28 d8 d8 3c bb be 18 3b
       -0.032452177 0.018244654 0.026470259 0.0023307044
0003a0 39 92 65 3c e8 80 c3 bc 84 76 ac bc 0d 66 48 bc
       0.014011913 -0.023865178 -0.021052606 -0.012231362
0003b0 1b 58 f8 3c 66 16 cc 3b 3d 3a 5a 3b 83 69 e9 3c
       0.03031545 0.006228256 0.0033298873 0.028492695
0003c0 5d 63 c2 bc 5f 1e 28 3c d8 6c e8 bb 15 16 33 3d
       -0.02372902 0.010261147 -0.0070930533 0.04372223
0003d0 b5 37 11 3d f2 f0 f9 3c dd 82 d6 3b ea 66 16 3c
       0.035453517 0.0305104 0.006546362 0.00917981
0003e0 80 83 50 3d 56 0d 15 3d 17 9a ae bb aa f8 6d bc
       0.05090666 0.03638967 -0.0053284275 -0.014524618
0003f0 5b e3 8c bc 52 f2 03 bc 68 0d 28 bd db d5 4c 3d
       -0.017198255 -0.008053379 -0.04102841 0.050008636

bias f4 [32]
000000 2e 58 8f bc 63 20 57 3c 66 23 af bd a7 ce 75 bd
       -0.017498102 0.01313028 -0.085516736 -0.060011532
000010 31 da 8d 3c 79 f5 fc bc 94 c8 37 bb 8f 02 42 3d
       0.017315956 -0.03087877 -0.0028043138 0.04736572
000020 65 a0 89 bd 9d 54 d4 3b 72 44 16 be ac 77 79 bc
       -0.06720046 0.0064798133 -0.14674547 -0.015226286
000030 64 4a ef 3d a7 91 34 bd 0d a3 bd bd 6f 8c 43 3b
       0.11684111 -0.044084217 -0.09259615 0.0029838344
000040 d3 ce 8e 3b c3 0b 13 3d 3f eb c5 bd f3 c4 62 bd
       0.0043581515 0.03589989 -0.0966401 -0.055363607
000050 28 05 f0 bc 04 c9 db 3b 64 fe 10 3c cd 70 bd 3b
       -0.029299334 0.0067073125 0.008849714 0.005781269
000060 30 cc 04 bd d2 a5 87 bc 7a c9 0d bd 44 55 2d bd
       -0.03242129 -0.016558561 -0.03461597 -0.042317644
000070 e8 a7 0e bd dc eb 83 bb e2 54 81 bd 85 58 38 bd
       -0.034828097 -0.0040259194 -0.06315018 -0.045006294

weight f4 [64, 32, 5, 5]
000000 96 8a 0c bc 78 3a 0c 3d ba 23 30 3c 14 f4 5e 3a
       -0.008577963 0.034235448 0.010750705 0.00085049984
000010 56 91 21 3c 12 a9 09 bb 81 8f af 3c 0a e2 ca ba
       0.009861311 -0.0021005315 0.021430733 -0.0015478742
000020 e2 e9 92 bc 72 86 92 3a 26 7c 8c bc 84 96 21 3c
       -0.01793379 0.0011178984 -0.017149042 0.009862546
000030 42 14 97 3c 09 13 d0 bc 36 9d 72 3c cb 16 86 bc
       0.018442277 -0.025399702 0.01480799 -0.01636829
000040 be 2e a4 3c 05 9c 12 bd f4 8c 81 3b 75 08 c3 bc
       0.02004182 -0.035793323 0.0039535705 -0.023807744
000050 8e 6a 01 3d d5 89 29 3d 10 a1 01 bb 61 bd 8f ba
       0.03159576 0.041391212 -0.0019779839 -0.0010966473
000060 c2 2f 8d bc ff 92 a9 3c 60 f2 29 bd 3e 3f bc 3c
       -0.017234687 0.020699976 -0.041490912 0.022979375
000070 7d 16 bb bb 78 bf 4c bc ac 5c 95 3c 07 71 b1 bb
       -0.005709468 -0.012496822 0.018232666 -0.0054150852
000080 a2 aa 93 3b c5 3c a9 3c 8b cd a1 bc 82 4b 28 3c
       0.004506425 0.02065886 -0.01975133 0.010271909
000090 65 05 e5 3b 03 f7 2c 3c 49 11 ea b9 c4 c7 04 bc
       0.0069891685 0.010556939 -0.00044644836 -0.008104268
0000a0 07 69 e1 3c a5 16 9f bc 0d d4 aa bc 60 9f 18 bc
       0.027515901 -0.019419977 -0.020853067 -0.009315342
0000b0 09 40 b5 bc 30 c2 df bc 19 a7 37 3c a9 52 ce bc
       -0.02212526 -0.027314276 0.011209273 -0.0251859
0000c0 78 a4 25 3d 4e 17 14 3d ab ba 80 ba c3 2a 82 3c
       0.040440053 0.036155038 -0.0009821256 0.015889531
0000d0 49 56 07 3d 81 e0 d0 bc 10 1a 24 3b d8 a5 2c bd
       0.033041272 -0.025497677 0.0025039949 -0.04215035
0000e0 86 4b 21 bd 91 7f 66 3c 17 c9 36 3c 69 9b d7 bc
       -0.039378665 0.0140685 0.011156342 -0.026319223
0000f0 33 70 a6 bc 4b f7 51 ba f6 b9 04 3b 07 b8 0f 3d
       -0.020317173 -0.0008009567 0.0020252443 0.03508761
000100 0d e9 84 3c 1e d7 30 bd 00 9d cb 3c 9e f7 cf 3c
       0.016224409 -0.0431739 0.024855137 0.025386628
000110 04 66 17 3d 59 20 c4 3c f1 c3 25 3c 80 69 63 3c
       0.036962524 0.023941206 0.010117517 0.013880134
000120 3d b8 30 3d 03 69 64 3d 8f 34 ee 3c 28 68 bc bc
       0.043144453 0.05576421 0.029077796 -0.022998884
000130 7e 1a de 39 04 e3 21 3c 2a a7 3b bc 37 ff f1 3c
       0.00042362878 0.009880785 -0.011453429 0.029540641
000140 1d 61 0c 3c 40 ca 2c bd d9 e3 3d ba c4 ca c1 3c
       0.0085680755 -0.042185068 -0.000724373 0.023656256
000150 9e 33 09 bc a5 a0 ff 39 c5 4d 20 bb b0 13 1c bc
       -0.008374123 0.0004875708 -0.0024460417 -0.009526178
000160 a1 62 21 bd 11 3b 05 bd db b4 1d 3c a7 b4 f3 3a
       -0.0394007 -0.032527033 0.009625639 0.0018593267
000170 bf 02 b8 3c 5f d4 ba bc 1e 96 c6 bc 0e cf 1f 3c
       0.022462247 -0.022806345 -0.024241503 0.0097539555
000180 ae d5 a9 bc df 56 0a bd cc eb 24 3c c4 84 d1 bc
       -0.020731773 -0.033774253 0.010065984 -0.025576003
000190 c7 70 03 3b b0 6a eb 3b 2f 8d e1 3c 99 b2 09 3d
       0.0020056234 0.007184349 0.027533142 0.03361759
0001a0 16 be 54 bc 53 e5 4b bc ea a7 03 3d b6 ed 9c 3c
       -0.012984773 -0.012444812 0.032142557 0.019156318
0001b0 54 02 c4 bc 2a c0 10 3c f6 22 8e bc 04 6b 02 bd
       -0.023926891 0.008834878 -0.017350655 -0.03184034
0001c0 e6 6f 03 bb a8 81 01 3d be 4d 45 3c f7 2f 30 bc
       -0.002005571 0.03161779 0.012042461 -0.010753623
0001d0 7f c6 68 bc e4 e0 a5 3b 4b 10 44 ba 96 e7 16 bc
       -0.014207481 0.0050622094 -0.00074792345 -0.009210488
0001e0 87 66 a0 bc c6 26 ad bb 30 04 5b bb 70 80 d2 bc
       -0.019580139 -0.005284163 -0.0033419244 -0.02569601
0001f0 33 c8 22 bc aa eb 28 bc a9 93 95 3c 8e 39 ae bc
       -0.0099354265 -0.010310093 0.018258886 -0.021267679
000200 b0 dc fd bc c6 8b ab 3c 19 9f 7a bc 68 1b 1d bc
       -0.030989021 0.020940673 -0.015296721 -0.009589054
000210 38 d9 09 bd 1d fd 7f 3b fa d4 c7 bb a6 ca 05 bd
       -0.03365442 0.003906078 -0.006098387 -0.032663964
000220 ca da 8e 3c 77 06 f9 bc 26 ea 1c bc 0d 62 b4 bc
       0.017438311 -0.03039859 -0.00957731 -0.02201941
000230 5c 90 07 3c 8f 47 ce 3c 28 64 10 bc 67 2b be bc
       0.008274164 0.025180606 -0.008812942 -0.023214055
000240 3f c9 2f bc df 47 a5 bc 8c 49 17 bd e8 eb e7 bc
       -0.010729133 -0.020175872 -0.036935374 -0.028310731
000250 49 57 c6 bc 22 42 0a 3c 77 e0 0f bb f3 b7 43 3c
       -0.024211543 0.008438619 -0.002195386 0.011945712
000260 7b 92 a0 3c 67 de ab bb 56 19 92 3b 67 8e e2 bc
       0.019601097 -0.0052450183 0.0044585867 -0.027655793
000270 df 4e 96 3c b3 07 f1 3c b4 55 91 bb b4 a9 a1 bc
       0.018348156 0.029422617 -0.0044352654 -0.019734241
000280 27 ce b1 bc 66 16 4c 3a a9 40 d5 bc af db c4 ba
       -0.021704746 0.000778532 -0.026031809 -0.0015019084
000290 88 a4 2d bc 1f af c9 bc fd 59 49 bc 99 8f ab 3b
       -0.010598309 -0.024619637 -0.012289521 0.005235624
0002a0 6d ba 58 bc cc f8 09 3d 30 b9 d2 3c 42 59 1e bc
       -0.013228041 0.033684537 0.02572307 -0.009664835
0002b0 8c 19 47 3c 57 3f d5 bc b1 1c ef bc 14 01 98 bb
       0.012152087 -0.02603118 -0.029188486 -0.0046388004
0002c0 f1 80 dd bb 82 36 f8 3b cc 60 a0 bc 53 04 44 bc
       -0.006759756 0.007574857 -0.019577406 -0.011963922
0002d0 c1 d6 c8 3c 42 6d 06 3b 15 b4 b8 ba 43 f2 65 3c
       0.024516465 0.00205119 -0.0014091755 0.0140348105
0002e0 e7 93 31 3c 00 4e 36 3c 85 d9 e9 3b ee 45 0a bc
       0.010838485 0.011126995 0.007136526 -0.008439524
0002f0 5a 80 f2 3b ea 34 5e bc 27 e7 57 3a 70 9f 99 3c
       0.0074005546 -0.01356242 0.00082360435 0.018752784
000300 e8 d4 f3 3c 70 6a c5 3c b9 5f 1a bc e4 fd d2 bc
       0.029764608 0.024098605 -0.009422236 -0.02575583
000310 89 ff 8c 3b b5 cb 07 3d 35 97 6f 3c f7 ed a4 3a
       0.004302923 0.033153255 0.014623453 0.0012583126
000320 11 d4 a2 3c 5d 79 11 3d f4 d7 58 bc 58 5d f6 ba
       0.019876512 0.03551613 -0.013235081 -0.0018796129
000330 40 45 94 bc 88 04 9b bb 66 e6 ac bb b0 f2 2d bc
       -0.018099427 -0.004730765 -0.005276489 -0.010616943
000340 cc 44 a8 bc f9 9b 61 3c 13 c1 02 bd 4b 08 94 bc
       -0.020540617 0.013770097 -0.03192241 -0.01807036
000350 77 e6 07 bd c3 64 d0 3b 4c 82 02 bd 46 a4 ea bc
       -0.033178773 0.006359668 -0.031862542 -0.028642785
000360 da 38 06 3d 9f 66 d1 3a 1c 27 85 bc 82 fc 17 3d
       0.03276906 0.0015976018 -0.016254 0.037106045
000370 18 85 0b bd e8 d6 b4 3c fc 23 04 3c ec 17 0f 3b
       -0.034062475 0.022075132 0.00806522 0.0021834327
000380 c1 0b 92 bc 09 63 7d 3c eb 30 1e bd 58 1d b0 3c
       -0.01782787 0.015465506 -0.03862087 0.021498367
000390 d6 7c bf 37 36 99 4e bb 53 45 ab bc 76 e2 ce bc
       2.2827106e-05 -0.0031524426 -0.02090708 -0.02525447
0003a0 66 5d f0 3b 87 ed 16 bd 47 e1 75 bc 20 a3 f5 3c
       0.0073353527 -0.036847617 -0.015007324 0.02998501
0003b0 55 ac a4 bc d6 47 f0 3c 6e c0 39 bc 76 a3 84 3c
       -0.020101706 0.029331129 -0.011337383 0.016191225
0003c0 2d e5 1c 3d 1e fc 16 bd da 10 09 3d bb 37 2b 3c
       0.038304497 -0.03686153 0.033463337 0.010450299
0003d0 20 5d f8 bc 78 f2 db bb 26 70 36 bd 33 39 ac 3c
       -0.030317843 -0.006712254 -0.044540547 0.021023368
0003e0 63 f6 06 bb f1 77 3b bd 47 e0 0a 3c 35 af ae bc
       -0.0020593635 -0.045768682 0.008476323 -0.02132378
0003f0 ef 5f d5 ba 39 2c 33 3d ae f8 6a bc 75 e7 01 bc
       -0.0016279201 0.043743346 -0.014341516 -0.007928719

bias f4 [64]
000000 e8 0d 44 bd 46 43 4a 3d 22 d2 02 bd 51 1a 20 bb
       -0.047864825 0.049380563 -0.03193868 -0.0024429748
000010 68 4f d1 bd 43 0f 65 bc 08 04 0f bd 04 ad 26 bd
       -0.10220224 -0.013980689 -0.034915954 -0.040692344
000020 f3 27 db 3c 76 07 cd 3c e7 16 46 bd 20 bb c2 bb
       0.026752448 0.025027972 -0.048361685 -0.005942717
000030 e2 18 70 bd 70 b7 93 bc 95 1b 28 3d a6 f6 94 bc
       -0.05861748 -0.018031806 0.04104193 -0.018184017
000040 de 0d 47 bc fa cb 3f bc 8a 09 86 bc bc ed b0 bc
       -0.012149302 -0.011706347 -0.01636197 -0.021597736
000050 3e f6 65 3b b3 ae bb 3c 98 7d 1a bc 8a 6f 1c 3c
       0.0035089399 0.022910452 -0.009429358 0.009548077
000060 d5 e0 5f ba 60 be 97 bd b8 19 76 bc 0b 6c 9b bc
       -0.00085402775 -0.07409358 -0.01502078 -0.018972417
000070 bf 28 3b bd 42 07 2b bb df f1 6b 3c b1 3e cf bc
       -0.045693155 -0.0026096855 0.014400928 -0.025298448
000080 39 a0 08 bd 2d ac 88 3c 0a 56 4f bd a9 0c 25 bc
       -0.033355925 0.016683662 -0.050619163 -0.010073819
000090 54 93 83 bc c4 54 aa 3b 2f 32 a2 3c 6b 42 76 bc
       -0.016061462 0.005198093 0.01979932 -0.015030484
0000a0 82 8a 2f bd a2 da e9 bd 2b d3 90 bd 0d 13 21 bd
       -0.0428567 -0.11418654 -0.07071527 -0.03932481
0000b0 b1 dc d9 3b c5 f7 9a bd 9c 5f c3 3b de ad 08 bd
       0.006648623 -0.075667895 0.0059623253 -0.033368938
0000c0 92 2d 79 bc f0 e5 55 bd ea 41 61 bd a0 71 a6 bd
       -0.015208619 -0.05222124 -0.0549945 -0.08127141
0000d0 91 3c 5d bd 52 91 12 3c ba 10 10 bd 69 f1 be bc
       -0.05401284 0.00894578 -0.0351722 -0.023308473
0000e0 12 f7 a5 3c eb f3 43 bd bf d8 c9 bc 4a e4 0f bd
       0.020259414 -0.04784004 -0.024639485 -0.035129823
0000f0 a1 ed 96 bc f4 26 29 bd d4 5d 94 bc a6 bb 18 bc
       -0.018423857 -0.041296914 -0.018111147 -0.009322083

weight f4 [64, 1024]
000000 c8 f7 10 bc 9a 75 27 3d 62 79 5d 3c 9c c5 92 3c
       -0.008848138 0.040883638 0.013517709 0.017916493
000010 d8 3d 3c 3d 1d 1d 34 3d 44 27 d6 3b 74 66 80 bc
       0.045957416 0.043973077 0.0065354425 -0.015673853
000020 ac 28 06 3c 6c 6d cd bb 42 eb 08 3d dc 1a e2 b7
       0.008188408 -0.0062691476 0.033427484 -2.6953807e-05
000030 00 0b 80 bc 8c 48 48 bb 76 12 fd ba d2 35 95 bb
       -0.015630245 -0.003056082 -0.001930787 -0.004553535
000040 f8 3d d5 bc 98 17 44 bc d3 95 e2 bb 1f 4b 06 bc
       -0.026030526 -0.011968516 -0.006914833 -0.008196621
000050 9e 80 f8 bc f2 84 14 bc 9b a0 db 3c 56 f7 f8 3b
       -0.030334767 -0.0090649 0.026809981 0.007597844
000060 fc f8 3e bc 34 d6 19 bd ef ec 9b bc 33 cf 28 bd
       -0.011656042 -0.037557796 -0.019033877 -0.041213226
000070 a5 ee 03 3d cb 7f af bc 01 58 1d ba 5e bb 0a 3b
       0.03221001 -0.021423241 -0.00060021883 0.0021168808
000080 88 da 01 3c d2 7f df 3c dd e7 91 bc 8b c5 80 bc
       0.007925637 0.02728263 -0.017810756 -0.015719196
000090 ab 20 3c 3c 6c 74 84 bc d7 51 aa 3b 55 5d 58 bc
       0.011482398 -0.016168796 0.0051977444 -0.013205846
0000a0 d3 84 19 3c d5 45 85 bc 7e 8e 27 3d 1d a9 88 bb
       0.009370047 -0.01626865 0.040907376 -0.0041705505
0000b0 92 1b 38 3c 8c 7c 01 3b cb f2 8c bc b0 d9 ad 3c
       0.011237042 0.0019758074 -0.017205616 0.021221966
0000c0 2a ba a5 bc e7 ab bb bc 5c 56 ce 3c 87 21 8f bc
       -0.020230372 -0.022909118 0.025187664 -0.017472042
0000d0 9d af d6 3c 9d 70 ff 3b b0 2b 4f 3b c2 c1 42 bc
       0.026206786 0.007795407 0.0031611733 -0.011887016
0000e0 e7 74 42 3d 84 d5 8a bb a5 53 7c 3c 77 ae b9 3c
       0.047474768 -0.004236879 0.015400802 0.0226662
0000f0 a3 98 0e 3d 66 8c b6 3c 1a 42 10 3d e2 66 23 3d
       0.034813534 0.022283744 0.03521929 0.03989304
000100 db b6 33 bb 79 04 48 3d cc 05 2d bc bd 92 9b 3c
       -0.0027422223 0.04883239 -0.010560464 0.018990869
000110 a8 59 10 3d 5b 85 e3 3c 16 23 17 3c e9 a9 37 3d
       0.035241753 0.02777355 0.009224674 0.044839773
000120 15 e0 c2 bc 53 fa 66 ba 3d 76 2a 3d d2 a3 26 3b
       -0.023788491 -0.0008811105 0.041616667 0.0025427234
000130 af f4 b1 3b 10 b3 de bc 08 81 11 3c 8a f0 ed bc
       0.00543078 -0.027184993 0.008880861 -0.029045362
000140 68 b8 16 bc 75 65 b3 3c c0 20 3e 3c ba 87 f3 3c
       -0.009199239 0.021898964 0.011604488 0.029727805
000150 ff fb 93 bc 55 ec 0c 3d f3 b1 e8 3b d7 a9 6c 3c
       -0.018064497 0.03440507 0.0071012913 0.01444479
000160 da ae cb 3b 74 62 71 3c c8 1d 36 3c 01 11 d7 bc
       0.0062159123 0.014732946 0.011115499 -0.026253225
000170 a8 76 8f bc 10 29 f2 bb f2 e0 47 3c d3 ad dd 3c
       -0.017512634 -0.007390149 0.012199627 0.027060425
000180 35 6e 58 3b c1 6a 01 3d 75 c0 e0 3b f9 35 8c 3b
       0.0033024673 0.03159595 0.00685888 0.004278895
000190 09 b3 86 bc 3b 50 51 3c 96 80 04 bd c2 64 4a bd
       -0.016442792 0.012775476 -0.03234919 -0.049412496
0001a0 d9 fe 98 3c 36 74 06 3d fd 65 a6 bb 85 0b 25 3d
       0.018676208 0.03282567 -0.005078076 0.04029419
0001b0 82 c7 5d bb 17 01 16 3d b2 73 9e 3b 84 e4 07 3b
       -0.003384084 0.036622133 0.0048355693 0.002073557
0001c0 c0 cd 02 3c a6 84 a8 3b 0a 41 22 3c cd 1a 3c 39
       0.007983625 0.005142766 0.009903202 0.00017939061
0001d0 92 d3 62 bc d5 9c 4f bc f7 10 de bb 51 7f b8 3c
       -0.013844388 -0.012671669 -0.0067769247 0.022521647
0001e0 57 ec 3e 3c 96 e3 97 bc 3b 58 b3 ba 58 67 e8 bb
       0.0116530275 -0.018541139 -0.0013682911 -0.0070923977
0001f0 63 55 a1 bc 0e e4 0e 3d 22 a2 7e bb 54 a1 82 3c
       -0.019694036 0.03488546 -0.0038853963 0.015946068
000200 f3 10 8f 3c b4 63 cc bc 03 dd c2 bc ae fc bd bc
       0.017464137 -0.024949886 -0.023787027 -0.023191776
000210 b9 cf 0a 3d fd a7 a8 3a aa d4 af 3a 06 be 35 bd
       0.033889506 0.0012867447 0.0013414819 -0.044370674
000220 7a b3 4c 3a e0 14 92 3c 72 5a 92 bc 36 e5 e0 3c
       0.00078087265 0.01783222 -0.017865393 0.027453046
000230 21 79 b0 bb 57 4c 0d bd 28 13 aa bc 79 43 22 3d
       -0.0053855334 -0.03449663 -0.020761088 0.03961513
000240 ec 83 df 3c 4d 5e ed bb e3 bd b7 3c 65 8c a3 bc
       0.027284585 -0.0072439075 0.022429412 -0.019964406
000250 57 8b f2 3a 4d 28 41 3b fc 4d 85 3c 85 e2 48 3c
       0.0018504661 0.0029473484 0.016272537 0.012261038
000260 b0 97 8e 3c 0c b9 03 bb a7 54 cb 3b 6d ed 33 bc
       0.017406315 -0.002009931 0.0062051597 -0.0109819
000270 5e d7 86 3b 85 8b 6c 3c 4a 28 82 bc b9 8c 75 3a
       0.0041150292 0.014437561 -0.015888352 0.00093669776
000280 2e 9d 16 bc 0a be 1f bd 88 3b b8 bb e3 76 84 bc
       -0.009192748 -0.038999595 -0.005622331 -0.01616997
000290 63 93 d7 bc 12 1f 04 3b 83 49 f1 3c f0 e1 6b ba
       -0.026315397 0.002016012 0.029453998 -0.0008998206
0002a0 74 fe 87 3c e4 f6 b3 3c fc 21 0e 3d ad 8f 9e 3a
       0.016600825 0.021968313 0.03470038 0.0012097262
0002b0 57 33 4b 3c a9 fd bb 3a e9 94 2f 3d 73 89 a8 bc
       0.012402377 0.0014342564 0.04286662 -0.020573353
0002c0 c5 fa b6 3c 6d 4d 84 bc a8 4b ad bc 7c cd 33 3c
       0.022336373 -0.0161502 -0.02115424 0.010974284
0002d0 d3 b8 62 bc 89 99 67 3d 96 82 c6 bc 93 b8 d2 3c
       -0.013838011 0.056542907 -0.02423219 0.025722777
0002e0 d1 5d 9c 3b c5 e4 a1 3c cb 69 bb bb b5 b0 c9 3c
       0.004771926 0.019762406 -0.0057193986 0.024620393
0002f0 35 bf fa 3b 5d 09 7c 3c c4 62 15 3d 40 ff a8 3c
       0.007652188 0.015383092 0.036471143 0.020629525
000300 e4 22 61 3c 00 31 35 3d 5b 26 90 3c 04 75 14 3c
       0.013741229 0.044236183 0.017596414 0.009061102
000310 62 09 20 3c f1 87 00 3c 13 ea 03 3d 9e ee 13 bd
       0.009767862 0.007844911 0.032205652 -0.036116235
000320 0f 1d 9f 3c a4 a1 f3 3c e3 09 80 bc 27 ec b1 bc
       0.019423036 0.029740162 -0.015629714 -0.021719052
000330 82 e4 c8 3c db 65 9d bc 60 40 c9 3c c4 e0 06 bd
       0.024523024 -0.019213608 0.02456683 -0.032929197
000340 4d 38 01 bd bc ad 2c 3c 26 2d a1 3b 34 25 0d 3d
       -0.031547833 0.010539468 0.004918712 0.034459308
000350 75 2b 88 bc 6c 21 4a 3d ca d2 8c 3c f5 59 98 3c
       -0.016622284 0.04934828 0.017190356 0.018597582
000360 b9 ac df 3b 06 b6 0b bd e0 d6 a3 bc f1 be 67 3c
       0.00682601 -0.034109138 -0.019999921 0.014144645
000370 df 26 a1 3c 1f f4 78 bc 22 a4 69 bc c8 f2 0e 3c
       0.019671855 -0.015194922 -0.014260324 0.008724876
000380 36 16 12 bd 14 be 58 bc 2b 8a f7 bc b7 60 ed 38
       -0.035665713 -0.013228912 -0.03021725 0.00011319055
000390 bc c5 71 3c c9 52 08 3c d3 a0 09 bc 85 0e bd bc
       0.014756616 0.008320519 -0.00840016 -0.023078213
0003a0 b7 61 9e 3c e2 24 b5 3c 53 d3 94 bc 88 89 3e bc
       0.019333703 0.022112314 -0.018167173 -0.01162947
0003b0 4f 54 d2 3b 87 c4 90 3c d6 64 8f 3b 89 46 8f 3c
       0.006418742 0.017671837 0.0043760343 0.017489688
0003c0 f3 95 8c 3a b0 b4 5e 3c 20 e7 18 ba 5e af 8f bb
       0.0010725841 0.013592884 -0.000583278 -0.004384919
0003d0 6d d1 26 bb 9d 2c d6 3b f4 aa e3 bc 6e 76 5c bb
       -0.0025454417 0.00653608 -0.027791478 -0.0033639926
0003e0 8e c3 ac bc d1 0e 82 bc cc d3 79 3c b6 db 64 3c
       -0.021089341 -0.015876206 0.01524825 0.013968399
0003f0 53 1a df 3c fe 37 41 3d 75 10 5e 3d a1 ed 91 bb
       0.027234232 0.04717254 0.054214913 -0.0044533764

bias f4 [64]
000000 5d 17 f9 bb 7e ff 15 3a ed 6f 10 bd 66 ca cc bb
       -0.007601662 0.000572197 -0.03526299 -0.0062497137
000010 c6 f9 a8 3c a2 84 8d 3c 99 18 c5 3b 4d 08 04 bd
       0.020626914 0.017275158 0.006014895 -0.03223448
000020 c9 b8 73 3c d1 c9 2d bd 5b f2 4f 3b 7b bc 8f ba
       0.014875599 -0.042428795 0.0031730148 -0.0010966206
000030 f1 2a 1e ba e0 14 0e 3d 50 b1 3c bc 91 f3 f3 bb
       -0.00060336204 0.034687877 -0.011516884 -0.007444807
000040 39 65 bf 3c a2 24 91 3c 1b 8a 70 bd f8 5a d7 ba
       0.023363696 0.017717663 -0.058725458 -0.0016430309
000050 5b c3 55 39 e3 b0 06 bc d4 01 4f bc fd 4f 25 3d
       0.00020386039 -0.008220884 -0.012634713 0.040359486
000060 3f c2 e4 3c 46 55 3c 3d ca 46 87 3c 10 e4 af 3c
       0.027924655 0.04597976 0.016513247 0.021471053
000070 19 98 38 3d d6 b9 f1 3c 73 75 94 bc 06 69 a9 39
       0.045066927 0.029507559 -0.01812241 0.0003231244
000080 6a ea 22 bd 36 56 ba 3c e4 66 d7 bb 2d 7e ad bc
       -0.039774336 0.022746187 -0.006573545 -0.02117833
000090 0c 4d 91 bc 7c 2c 8d 3c d5 d8 34 bd 7e 64 c0 3b
       -0.017736934 0.017233126 -0.0441521 0.0058713546
0000a0 3b 5e 3a bd 57 c0 42 bc a3 bc 18 bc 8e ae c8 3c
       -0.04550002 -0.011886678 -0.009322318 0.024497297
0000b0 a5 23 18 3b 12 8c 37 3b d1 ff 24 3d ab 4c e7 bc
       0.0023214605 0.0028007072 0.040283028 -0.0282348
0000c0 e0 0b 81 3d 67 75 a3 3c eb fd 37 bc 11 b3 ba bc
       0.06301093 0.019953443 -0.011229972 -0.022790464
0000d0 47 56 0e bd 54 f8 78 3b 18 07 04 3c fc 4e 57 3c
       -0.03475025 0.0037989812 0.008058332 0.01314139
0000e0 4c c3 56 3d d2 d0 b3 bc 2e fd 3a bc 19 23 74 3c
       0.052432343 -0.02195016 -0.011412902 0.014900946
0000f0 bb 7a 61 bd e0 cf 11 bb bf 65 09 3c 6d e5 44 bd
       -0.055048686 -0.0022249147 0.008386075 -0.04807036

weight f4 [10, 64]
000000 1a 14 35 3d 36 43 92 3d 35 cd b4 3d 6a 1c 29 be
       0.044208623 0.07141726 0.08828203 -0.16514745
000010 f2 37 ed bd 02 51 29 3e 71 81 4e be 75 17 60 3e
       -0.11582936 0.16534808 -0.20166565 0.21883948
000020 b1 b5 ae bd af dd 89 3c 7c 0c f4 bd 2c c6 36 3d
       -0.08530749 0.01682934 -0.11916444 0.044622585
000030 6d 45 3e 3c c5 be 94 bd 55 95 da bc ed 81 bd bc
       0.011613232 -0.07262949 -0.026682535 -0.023133243
000040 f6 1f 10 3d 3e 5b 46 be 6f 64 bc 3c c9 67 01 3d
       0.03518673 -0.19370744 0.02299711 0.031593118
000050 21 b9 66 bd ea 8c a1 bd ca 8b 16 bc 44 80 17 3d
       -0.056328896 -0.07888205 -0.009188602 0.036987558
000060 9d 0c 7e 3c c7 c5 ed bd 51 ed e0 bd e9 98 04 3e
       0.015505937 -0.11609989 -0.109827645 0.12948956
000070 a1 4b 58 be ef c3 f6 bd 3e d6 2c bd ce 4b 01 3d
       -0.211226 -0.1204909 -0.042196505 0.031566434
000080 b3 1e 9e bd d9 51 ce 3d 58 d8 e9 bb c9 16 6e 3e
       -0.07720699 0.10074205 -0.007136386 0.2325088
000090 ab 5b 1c 3e 7a 22 c0 3d c9 32 61 3d f3 f4 80 be
       0.15269344 0.09381576 0.054980073 -0.2518688
0000a0 f2 b5 0b 3e 1d 92 94 bd 40 4f 13 be 3e ca b7 bd
       0.13643625 -0.072544314 -0.143857 -0.089741215
0000b0 1c a1 7f 3d b0 5c 3a 3d bd 77 fd bd 3f 3b 0c be
       0.062409505 0.04549855 -0.12376354 -0.13694476
0000c0 ad 57 4c be d6 35 a5 bc 54 93 f9 3d 4d 1a 06 3e
       -0.1995532 -0.020167273 0.12186304 0.1309597
0000d0 0a ea 07 be 58 98 88 bd 7c 97 1d bd aa ef 45 bc
       -0.13272873 -0.06669682 -0.038474545 -0.012081066
0000e0 54 b5 2b bd 09 59 ad bc ec 49 8e bd 3a 8c a9 bd
       -0.041920975 -0.02116062 -0.06947693 -0.08278699
0000f0 09 60 e7 3d 59 b1 5f be 49 32 b6 3d 4d 2e 36 3e
       0.11297614 -0.21844997 0.0889631 0.177911
000100 64 27 4d 3e c2 57 27 be d2 06 29 be bf 89 44 3e
       0.20034558 -0.1634207 -0.16506508 0.19193171
000110 09 f5 db bc db 5d cf bd 7d 9d 9f bd 1c d3 c7 3d
       -0.02685024 -0.101253234 -0.077937104 0.09757063
000120 47 dc 15 3e cc 66 d0 bd 67 cb bf bd 56 d7 f6 bd
       0.1463481 -0.10175857 -0.09364968 -0.12052791
000130 f7 6f 62 3c 3b ae 3a be 79 62 f4 bd 8f 39 4d bd
       0.01382064 -0.18230526 -0.11932845 -0.05010372
000140 37 9e 51 3c ef 7a 4c be 8c f5 38 3d b2 37 0d 3e
       0.012794069 -0.1996877 0.045156047 0.13790777
000150 86 cb 0f be b2 65 80 3e de b3 c2 3d b1 9b 29 3e
       -0.14042482 0.25077587 0.09506963 0.16563298
000160 3c 43 57 3e 42 72 dd 3c d3 c2 0a 3e 28 f1 e0 bd
       0.21021742 0.027032021 0.13550882 -0.10983497
000170 e6 d3 19 be be b5 d7 3d 81 95 ac bc 6e 2f 72 3d
       -0.15022239 0.105327114 -0.021067383 0.059127264
000180 ef 06 af bd 27 6e 5b be bc 53 d6 bd 60 37 7d be
       -0.08546244 -0.21428739 -0.1046519 -0.24728155
000190 7b 37 a7 3d 64 c9 4f 3e 28 d5 19 be 3e f4 48 be
       0.08164879 0.20291668 -0.15022719 -0.19624421
0001a0 6f ba f4 bd cc ce 1e 3e d1 ed 45 3e be 5f 1a 3e
       -0.11949622 0.15508574 0.19329001 0.15075585
0001b0 21 54 40 be 7e 19 53 3c 0a 52 18 bd 3a 21 91 3c
       -0.18782093 0.012884496 -0.037187614 0.017716039
0001c0 65 b6 28 be 54 19 62 bd c3 7f 70 3c 2f 98 36 be
       -0.16475828 -0.055199936 0.014678898 -0.17831491
0001d0 29 bd fd bd 91 d1 76 3e 21 23 19 3e 2a ec 3e 3e
       -0.12389595 0.2410338 0.14954807 0.18644777
0001e0 03 39 83 be 18 f9 e1 bd e9 a8 78 3e 1b 74 4b bd
       -0.25629434 -0.11033839 0.24283184 -0.049671274
0001f0 cc 8a 5f bd e3 57 ef bb ff 30 3b 3e 65 8b 29 be
       -0.054575726 -0.007304178 0.1828041 -0.16557081
000200 3c 8d 15 be b1 f9 b5 3c 9d ae da bc 82 ce ac bd
       -0.14604658 0.022213789 -0.02669459 -0.08437826
000210 b6 4f 34 be e8 19 6c 3e 05 c1 53 3d 24 05 e6 3d
       -0.17608532 0.23056757 0.05169775 0.11231449
000220 7b ee 7f bd 2e 1f 0d 3d 7a 1c c2 3c bc 0b 8c bc
       -0.062483292 0.034453563 0.02369522 -0.01709544
000230 85 06 0a be 15 ed 86 3d 96 b9 1d 3d 54 26 2a 3e
       -0.1347905 0.065881886 0.038507067 0.16616184
000240 df d8 bd bd 87 68 86 bd f7 58 3b 3e 84 cf 2b be
       -0.092698805 -0.06562906 0.18295656 -0.1677838
000250 74 33 4c 3d 47 dc 17 3b 67 c6 c7 bc e8 41 6e bd
       0.049853757 0.0023172067 -0.024386598 -0.05816832
000260 6f 6c 8a 3d 1c ac fb bd dc 0d 47 be 3d 29 3e be
       0.06758963 -0.12288687 -0.1943888 -0.18570419
000270 4c 15 03 3d ab c5 86 3d 65 a1 dc bc 66 51 59 3d
       0.032002732 0.06580671 -0.026932428 0.053056143
000280 bd 91 f5 bd e0 93 76 bd ef a3 73 3c fd ea 5e 3e
       -0.11990688 -0.06019962 0.014870628 0.21769328
000290 36 5d 01 be 30 cd 9a 3c 49 93 2e 3d 8f 3f 32 3e
       -0.12633213 0.01889667 0.04262093 0.17407058
0002a0 04 53 32 3e d5 a0 2a be 46 bb 14 3e 8b cc d9 3d
       0.1741448 -0.16662915 0.14524564 0.106347166
0002b0 dc c2 4d 3e ad 4c 33 bd 6c 2d b2 bc 5b 01 f2 bd
       0.20093864 -0.043774296 -0.021750174 -0.11816665
0002c0 20 c4 03 bb 9b 49 b5 bd 78 23 17 bd dc 04 8b bd
       -0.0020105913 -0.0885193 -0.03689906 -0.06788036
0002d0 2e 3e a1 bd f4 ac f0 bd 72 7c da 3d d8 86 39 be
       -0.07873188 -0.11751738 0.10668267 -0.18117845
0002e0 98 08 35 3e ba 6b e5 bb f2 4e cf bd 09 60 0d bd
       0.1767906 -0.0070013674 -0.101224795 -0.034515414
0002f0 b0 33 a4 bd 2f 30 1e 3e 3b b4 a0 3d e1 fb be bd
       -0.08017671 0.15448068 0.07846876 -0.09325386
000300 10 b0 f8 3d f0 b2 01 3d 22 bf da 3d 8c d2 37 3d
       0.12142956 0.03166479 0.10680987 0.044878528
000310 e0 28 e6 3d 11 dd 82 3d 3b e8 40 3e 7d 74 52 3c
       0.11238265 0.06389821 0.18838589 0.012845156
000320 6a ca ef 3c a8 53 64 3d d4 df bd 3d 74 ab 01 be
       0.029271323 0.055743843 0.092712075 -0.1266306
000330 f7 69 88 3d a2 14 c5 3d 92 63 6f 3d 3f aa 5d bd
       0.06660836 0.09623076 0.058444567 -0.054117437
000340 b4 40 eb bd 81 79 07 3d 07 54 33 3d 05 ba 1c 3e
       -0.114869505 0.03307486 0.043781307 0.15305336
000350 fd a3 c8 bd 42 0f 50 be b2 0a 04 3c 03 fb 22 be
       -0.09796903 -0.2031832 0.008059191 -0.15916066
000360 9d 25 d8 3d 93 0d 02 bd c4 7b fb bd 46 6a 09 3e
       0.10554049 -0.031751227 -0.12279466 0.13419446
000370 92 2f 82 3c 79 dd 57 bc 08 1a c9 bd 64 ed d1 3d
       0.015891824 -0.013175362 -0.09819418 0.10250357
000380 17 4b f0 bd 2d 5a ca 3d 76 5e 89 bd 4c 98 e0 bd
       -0.11733072 0.09880481 -0.0670747 -0.10966548
000390 0e b0 a7 bd 50 ca 5e bd e7 4b 58 bc 6f 53 24 3c
       -0.08187877 -0.05439216 -0.01320169 0.010029658
0003a0 3c 83 80 3c 4d 3b e9 bc 0e 15 dd bd e3 7c c1 3d
       0.015687577 -0.02847066 -0.107950315 0.094476484
0003b0 03 e3 a5 3c 20 1a 4f bc b7 cf 6f bd bd df 08 be
       0.02024985 -0.012640506 -0.0585477 -0.133666
0003c0 be 99 26 3d 04 6f 99 3d 78 4c 36 be 94 c6 c5 bd
       0.040673964 0.07491878 -0.17802608 -0.096570164
0003d0 0b 2f b6 3d 23 c6 2d bd fc d0 2f 3d a2 73 33 be
       0.088956915 -0.042425286 0.042923912 -0.17524579
0003e0 4a 88 16 3e e4 77 0b be c9 dc 42 be 4a 02 fb bd
       0.14700428 -0.13619953 -0.19029535 -0.12256296
0003f0 f2 67 52 bd 48 db fa 3d 57 85 3d bd a1 08 8c 3c
       -0.05136866 0.12248856 -0.04626974 0.017093958

bias f4 [10]
000000 dd 5c 6c be e4 dc 50 bd f7 60 eb 3d 19 aa e2 3d
       -0.230823 -0.050991908 0.11493104 0.110676
000010 f9 ac 12 3e 7c 12 10 be b3 10 ea 3d 2d 6d 9c 3d
       0.14323796 -0.14069551 0.114289664 0.07638011
000020 47 b6 ac bd e1 bf c9 3c
       -0.08433204 0.024627628
