Pytorch/model_data/CIFAR10_EPOCH17.pth (torch, 588839 bytes, 10 tensors)

weight f4 [32, 3, 5, 5]
0	0xbcc4bb97	-0.024015231
1	0xbd4642b4	-0.048403457
2	0xbd58c45a	-0.05292163
3	0xbe044d17	-0.12920032
4	0xbd30adea	-0.043134607
5	0xbe287346	-0.16450223
6	0xbe0951eb	-0.13410155
7	0x3dd295da	0.10282488
8	0xbd4f3ea3	-0.050596844
9	0xbddd17ad	-0.107955314
10	0xbe18f98c	-0.14938945
11	0xbd864d1e	-0.06557678
12	0x3e135a15	0.14389832
13	0x3dcdac19	0.10042591
14	0xbe3e93c0	-0.1861105
15	0x3d9313cc	0.0718151
16	0xbdd49a59	-0.10381002
17	0x3dc93914	0.0982534
18	0x3e1ab255	0.15107091
19	0xbe155111	-0.14581706
20	0x3d4e384c	0.050346658
21	0xbcb878e3	-0.02251858
22	0x3e2809c2	0.16409972
23	0x3e0647dc	0.1311335
24	0xbe02a8c6	-0.12759694
25	0xbde6cbd3	-0.11269345
26	0x3d34a2dd	0.04410063
27	0x3de39e7f	0.11114215
28	0xbd74951d	-0.059712518
29	0xbe34d0df	-0.17657803
30	0xbd88e379	-0.06684012
31	0x3dae1898	0.08500785
32	0xbdaa148f	-0.083047025
33	0x3d80d249	0.06290109
34	0xbe40e5e2	-0.18837693
35	0xbd29a138	-0.041413516
36	0xbd1cf312	-0.038317747
37	0x3d9b0787	0.07569795
38	0x3de7eed9	0.113248535
39	0x3d0bf431	0.034168426
40	0x3d2d5957	0.04232153
41	0xbdc97bb1	-0.098380454
42	0x3d0b95f0	0.03407854
43	0x3e2284ca	0.15870968
44	0x3bb8175b	0.0056180186
45	0x3d077458	0.03306994
46	0x3de3f8ee	0.11131464
47	0x3e4ee7da	0.20205632
48	0x3e336f86	0.17523012
49	0x3d019cef	0.031643804
50	0xbd854fdb	-0.06509372
51	0xbd891bd3	-0.0669476
52	0xbdf6650e	-0.120309934
53	0xbd7c734e	-0.0616334
54	0xbe46a5e4	-0.1939922
55	0xbca1fc25	-0.019773552
56	0x3d23b9f6	0.039972268
57	0xbc77e82d	-0.015131039
58	0x3d63458c	0.055486247
59	0xbe3528c6	-0.17691335
60	0x3d620d81	0.05518866
61	0x3d607d9c	0.05480729
62	0x3c8380aa	0.016052563
63	0x3dc914ac	0.09818396
64	0xbe11ee60	-0.14251089
65	0xba1014aa	-0.0005496243
66	0x3d39acdf	0.04533088
67	0x3e2d1f6e	0.1690652
68	0xbc385dfd	-0.011252877
69	0xbe16b21f	-0.14716385
70	0x3d75a2a4	0.05996956
71	0x3d05e485	0.032688636
72	0x3e32c07b	0.17456238
73	0x3e2cc877	0.16873346
74	0x3daede1a	0.08538456
75	0x3d990549	0.07471711
76	0x3dd76c79	0.105187364
77	0x3e23dc16	0.16001925
78	0x3d8baaf5	0.06819717
79	0xbd0b9f08	-0.03408721
80	0xbc2a3498	-0.010388516
81	0x3d9ae1f8	0.07562631
82	0x3c98fc59	0.018675016
83	0xbe2d71ae	-0.16937897
84	0xbe08dce7	-0.13365518
85	0x3e030b59	0.12797298
86	0xbe283f33	-0.16430359
87	0x3c4d2438	0.012520842
88	0xbe1c6f89	-0.15276922
89	0x3dbe704d	0.092987634
90	0x3cd70a8a	0.026250143
91	0xbc91a542	-0.017778996
92	0x3c5099ee	0.012732012
93	0x3e05eec8	0.13079369
94	0xbd34bbf0	-0.044124544
95	0x3cddef6f	0.02709171
96	0x3cb62df0	0.022238702
97	0x3cfb659f	0.030688105
98	0x3dbb936e	0.09158979
99	0xbac79f47	-0.0015229963
100	0x3d877843	0.06614735
101	0x3de180d6	0.11010902
102	0x3db98176	0.09057896
103	0x3d20c528	0.039250523
104	0xbe4486f5	-0.19192107
105	0x3df2dd6c	0.11858639
106	0x3ca81354	0.020517029
107	0x3c8ee713	0.01744417
108	0xbe5bff54	-0.21484119
109	0xbe4da2c9	-0.20081629
110	0xbd8ebe44	-0.06969884
111	0xbe29d3b7	-0.16584669
112	0xbd7c6436	-0.061619006
113	0x3c91bf86	0.01779152
114	0xbdfe68a9	-0.12422306
115	0xbcdaac14	-0.026693381
116	0xbcd3c120	-0.025848925
117	0x3bc35a0b	0.0059616617
118	0xbc068caf	-0.0082122525
119	0x3beec01c	0.007286085
120	0xbd213676	-0.03935858
121	0x3d3f63bc	0.046725973
122	0x3dc8a497	0.09797018
123	0xbc065791	-0.008199588
124	0xbd83d856	-0.06437747
125	0x3991e7ed	0.00027829353
126	0x3d9b8f1a	0.07595654
127	0x3e28fd08	0.16502774
128	0xbd9c6eed	-0.07638345
129	0x3ccb2ed1	0.024802597
130	0x3d313b73	0.043269586
131	0xbc27a799	-0.0102328295
132	0xbda205d2	-0.079112664
133	0xbe199cc5	-0.15001209
134	0x3d8aa335	0.067694105
135	0x3d005225	0.03132834
136	0xbc416eed	-0.011806232
137	0xbd0224d4	-0.031773403
138	0x3cbcc3b5	0.02304254
139	0x3db8d505	0.09025005
140	0xbd41eaa5	-0.047342915
141	0xbd9ba5f1	-0.0760001
142	0x3df3396c	0.11876187
143	0x3d8fe399	0.07025833
144	0x3d85d7da	0.06535311
145	0xbd994f9c	-0.074858874
146	0xbd950406	-0.07276158
147	0x3e05c86d	0.13064738
148	0xbdae18ec	-0.08500847
149	0x3c524394	0.012833495
150	0x3df5d2f0	0.12003124
151	0x3cf0822f	0.029358951
152	0xbdeef62f	-0.116680495
153	0xbcd09b8e	-0.0254648
154	0xbdf546f9	-0.119764276
155	0xbc9a8bbf	-0.018865464
156	0x3c9acbb8	0.018895969
157	0xbe4c194c	-0.19931525
158	0xbe41e923	-0.18936591
159	0xbe09ef55	-0.13470204
160	0xbe0c9b49	-0.13731112
161	0x3d0dda6f	0.034632143
162	0xbb9cee91	-0.0047891815
163	0xbda39cbf	-0.07988881
164	0xbd4506be	-0.048102133
165	0xbe382b6f	-0.17985319
166	0xbdc54143	-0.09631588
167	0xbdf37768	-0.11888009
168	0xbdc005a1	-0.09376074
169	0xbe15b332	-0.14619139
170	0x3d015e0c	0.03158383
171	0xbe4f39cc	-0.20236892
172	0xbe6b94eb	-0.23006026
173	0xbe401ebc	-0.18761724
174	0xbe2423c3	-0.16029267
175	0xbc9e088b	-0.019291183
176	0xbdf4b363	-0.11948278
177	0x3d5415bf	0.05177855
178	0x3d3d607f	0.046234604
179	0x3d545759	0.051841114
180	0x3d2e5e0d	0.042570163
181	0xbd49c7ea	-0.04926292
182	0x3c00a87f	0.007852673
183	0x3cc4d8bb	0.024029126
184	0xbdc9d9c7	-0.09855991
185	0x3c29839a	0.010346318
186	0xbd004465	-0.031315226
187	0x3dc742d2	0.09729542
188	0x3e0f1607	0.13973247
189	0xbc602e7e	-0.01368296
190	0xbda81b3f	-0.08208322
191	0x3e32481e	0.17410323
192	0x3e1ef91e	0.15524718
193	0x3db890e6	0.09012012
194	0x3bb2830b	0.0054477504
195	0x3dadb37b	0.08481499
196	0xbd913917	-0.07090967
197	0xbe20353e	-0.1564531
198	0xbdb17cac	-0.086663574
199	0xbd791661	-0.060812358
200	0xbdef5a0e	-0.116870984
201	0xbcfce1e5	-0.030869434
202	0x3dd808bb	0.1054854
203	0x3d3c3ace	0.045954518
204	0x3df30579	0.11866278
205	0xbd80ffef	-0.062988155
206	0x3bd75bd8	0.006572228
207	0x3dd758a3	0.10514953
208	0xbd3eeaaa	-0.04661051
209	0x3e1b6311	0.1517451
210	0x3db2e1bb	0.08734461
211	0x3de6de22	0.11272837
212	0x3dd35c88	0.10320383
213	0x3e7fc0fa	0.24975958
214	0x3e53130e	0.20612738
215	0x3d5d1cb7	0.053982463
216	0x3e62fdcf	0.22167133
217	0x3e889e2c	0.26683176
218	0x3e30cf8d	0.17266674
219	0x3e17bb62	0.14817575
220	0x3dc16755	0.09443537
221	0x3d292807	0.04129794
222	0xbdab8cf7	-0.08376496
223	0x3db42645	0.08796362
224	0x3ddefb72	0.10887803
225	0x3d9c66e2	0.07636811
226	0x3c7a84bf	0.015290438
227	0xbd1a3084	-0.037643924
228	0x3d20879e	0.039191835
229	0xbdcb9304	-0.099401504
230	0x3d6a0e85	0.057142753
231	0xbd868163	-0.06567647
232	0x3d4637c0	0.04839301
233	0x3dbb8038	0.09155315
234	0x3cd1f7af	0.0256308
235	0x3dafcd50	0.08584082
236	0xbddf4a90	-0.109028935
237	0xbc8d9d02	-0.017286781
238	0xbcd8acb2	-0.026449535
239	0x3e008940	0.12552357
240	0x3d5ec16e	0.054383688
241	0x3d28c878	0.041206807
242	0x3d1a2755	0.037635166
243	0x3e23899f	0.15970467
244	0x3da573da	0.080787376
245	0xbcf94e73	-0.030432915
246	0xbe045f84	-0.12927061
247	0xbdea0c07	-0.11428075
248	0x3e287540	0.16450977
249	0xbce2849d	-0.027651126
250	0x3bacb580	0.00527066
251	0x3d06e8aa	0.03293673
252	0xbdb0013b	-0.08593985
253	0x3df49975	0.11943332
254	0xbd873da6	-0.066035554
255	0xbc913c7e	-0.01772904

bias f4 [32]
0	0xbe250caf	-0.1611812
1	0xbcaf18c0	-0.021374106
2	0x3d2ccaa2	0.042185433
3	0xbdc58cd4	-0.096460015
4	0xbc824c7c	-0.015905611
5	0x3e4ab020	0.19793749
6	0xbeace677	-0.3376958
7	0xbec30e0e	-0.3809666
8	0xbdc0ec1b	-0.094200335
9	0xbc8a5d6c	-0.01689025
10	0x3e0a45e9	0.13503231
11	0xbd8e8b03	-0.06960108
12	0xbd90a385	-0.07062439
13	0xbdc8a929	-0.0979789
14	0xbc2aac71	-0.01041709
15	0xbdc1d14b	-0.094637476
16	0xbab0867c	-0.0013467814
17	0xbeb6355f	-0.35587594
18	0xbd10eb59	-0.035380695
19	0xbdb1ce32	-0.08681907
20	0xbb33b08a	-0.0027418458
21	0x3d968490	0.07349503
22	0x3d9a81b9	0.07544274
23	0x3e162281	0.146616
24	0xbe9b0682	-0.30278403
25	0x3c1118d7	0.00885602
26	0xbe259946	-0.1617175
27	0x3e8bb588	0.27286935
28	0xbe87489e	-0.2642259
29	0x3d21d18d	0.039506484
30	0xbdca5724	-0.09879902
31	0x3dc4bb58	0.096060455

weight f4 [32, 32, 5, 5]
0	0xb82504b1	-3.9343435e-05
1	0xbc34237c	-0.010994788
2	0xbc8ebc33	-0.017423725
3	0xbc082154	-0.008308727
4	0xbce58276	-0.02801631
5	0x3d12f8cc	0.035881802
6	0x3c0c6e35	0.008571197
7	0x3d1590a1	0.036514882
8	0x3d12bbd0	0.035823643
9	0x3cdf8e12	0.027289424
10	0x3ccd7cb9	0.025083886
11	0x3c41ca34	0.011827994
12	0xbc980aab	-0.018559774
13	0x3bef63ad	0.0073055835
14	0x3d107572	0.035268255
15	0xbb860ac6	-0.0040906398
16	0xbc4db71d	-0.012555865
17	0xbd685069	-0.05671731
18	0xbd002379	-0.03128383
19	0xbcc2b61b	-0.023768475
20	0x3d03fe8b	0.032225173
21	0x3cd06ecc	0.025443457
22	0x3cde6a7e	0.027150389
23	0x3cec4b41	0.028844478
24	0x3c16ab08	0.00919605
25	0xbd1eab23	-0.038737427
26	0x3c37b473	0.011212456
27	0xbca9fe5d	-0.020751173
28	0x3cd09c47	0.025465144
29	0xbc3034fe	-0.010754822
30	0xbcaedfd9	-0.021346973
31	0x3cc3d019	0.02390294
32	0x3c6df87f	0.014524578
33	0x3c1f67cf	0.00972934
34	0xbcd06c27	-0.025442196
35	0x3d3712c4	0.04469563
36	0xbc39c362	-0.011338087
37	0x3c285fa4	0.010276709
38	0x3c5167be	0.012781082
39	0x3cece50c	0.028917812
40	0x3c8ea83c	0.017414205
41	0x3d2d57bb	0.042319994
42	0xbc16af40	-0.009197056
43	0x3c874885	0.016514072
44	0x3cf1b828	0.029506758
45	0x3ab7edcc	0.0014032661
46	0x3d7bb4ba	0.06145165
47	0x3d499049	0.049209867
48	0x3d303adc	0.043024883
49	0xbcb7ae9e	-0.022422131
50	0x3cfd15aa	0.03089412
51	0x3d2cb24b	0.04216222
52	0x3be9ef21	0.007139102
53	0x3ccfff4f	0.025390295
54	0x3d18f34e	0.03734141
55	0x3c49c3e7	0.012314773
56	0xbbdb5543	-0.0066935136
57	0xbce4163e	-0.027842637
58	0x3c7f001a	0.015563989
59	0x3c91d7b4	0.01780305
60	0xbd450878	-0.04810378
61	0xbc417b65	-0.011809205
62	0x3c9e3e21	0.019316735
63	0x3c3fc9de	0.011705844
64	0xbce40a8b	-0.027837059
65	0x3bcca434	0.0062451605
66	0x3bc99fe6	0.0061530946
67	0xbd337ecc	-0.043822095
68	0x3a1b3f66	0.0005922228
69	0x3c20a379	0.0098046
70	0xbd2e3c71	-0.04253811
71	0x3bcf4cb9	0.0063262847
72	0xbc4898f9	-0.012243503
73	0xbc10b763	-0.008832785
74	0x3d024d90	0.03181225
75	0xbb957f6d	-0.0045623095
76	0x3cbc19c4	0.022961505
77	0xbca9a357	-0.02070777
78	0x3bf89faf	0.007587395
79	0xbcb0681f	-0.021534024
80	0x3c856be3	0.016286796
81	0xbc47bc5a	-0.012190903
82	0xbbb17e96	-0.0054167015
83	0xbb7ba0cb	-0.00383954
84	0x3ab34302	0.0013676586
85	0x3c58fefe	0.013244389
86	0x3b95c3d8	0.0045704655
87	0x3d0cc23b	0.03436492
88	0x3c678b58	0.014132343
89	0x3bf612d1	0.0075095673
90	0xba196b77	-0.00058525003
91	0x3d1b12bf	0.037859675
92	0x3d199a5e	0.03750073
93	0x3cc5d76e	0.024150576
94	0x3cab535e	0.020913776
95	0x3c4fe05a	0.012687767
96	0x3cbc5174	0.022988059
97	0xbc8df2cb	-0.017327687
98	0x3c0e2fbf	0.008678376
99	0x3d09f9dc	0.03368555
100	0x3cdce28e	0.026963498
101	0xbc975f50	-0.018478066
102	0xbcf17c96	-0.029478353
103	0xbb68cc8d	-0.0035522312
104	0xbbcc0ffd	-0.006227492
105	0xbca51466	-0.020151328
106	0xbcaeed66	-0.021353435
107	0xbc8acf65	-0.016944597
108	0xbd59866c	-0.05310671
109	0xbbd91de5	-0.006625878
110	0xbba71fea	-0.00510024
111	0xbd0039b7	-0.03130504
112	0xbd029635	-0.03188153
113	0xba9b1637	-0.0011832182
114	0xbbf46a47	-0.0074589583
115	0xbcce080c	-0.025150321
116	0x3cfc9a83	0.030835396
117	0x3cefe0a3	0.02928192
118	0x3c3a9ff9	0.0113906795
119	0xbc43baef	-0.011946424
120	0x3c264977	0.010149351
121	0x3c003238	0.007824473
122	0x3c8b9dca	0.017043013
123	0xbcb548aa	-0.022129375
124	0x3a53e173	0.0008082606
125	0x3c937f7b	0.018005123
126	0xb8c3e2b5	-9.340552e-05
127	0x3ca9fa21	0.020749154
128	0x3d5da9ce	0.054117016
129	0xbcafb18a	-0.021446962
130	0x3ccbff1b	0.024901917
131	0x3cba98ed	0.022777999
132	0x3d412f33	0.047164153
133	0x3cc26cd5	0.023733536
134	0x3aa0c593	0.0012265913
135	0x3c81b6e9	0.015834289
136	0x3d49d979	0.049279664
137	0xbca01ed1	-0.019545944
138	0xbcdcad68	-0.026938155
139	0xbc82e5d1	-0.015978726
140	0x3d851e2c	0.064998955
141	0xbc2b801c	-0.010467555
142	0xbd49bd6c	-0.049252912
143	0xbd1d4cf4	-0.038403466
144	0x3ce053b6	0.027383666
145	0x3b76e423	0.0037672601
146	0xbd654c91	-0.055981223
147	0x3c85f9fd	0.016354555
148	0x3d834732	0.06410064
149	0x3ae42652	0.001740644
150	0x3c16b316	0.009197971
151	0x3d3c3aa2	0.045954354
152	0x3d0297c0	0.031883
153	0x3c17adbf	0.009257733
154	0x3d4c4ef4	0.049879983
155	0x3c64aa03	0.01395655
156	0x3d0ace4a	0.03388814
157	0x3d17ebe5	0.0370902
158	0xbbd4d714	-0.006495366
159	0x3c9f844c	0.019472264
160	0x3b1a808b	0.0023575153
161	0x3c39ac19	0.011332535
162	0x3c466ace	0.012110425
163	0x3c8de81f	0.017322598
164	0xbb8c1ea4	-0.0042761136
165	0x3caaa91f	0.020832596
166	0x3a53d024	0.00080800266
167	0x3d3e8907	0.0465174
168	0x3bbae01d	0.005702986
169	0x387dfe2d	6.055662e-05
170	0xbbdd4c61	-0.00675349
171	0x3d135f2f	0.035979446
172	0x3d0cac8b	0.034344237
173	0xbcc52493	-0.024065292
174	0x3d1f7652	0.0389312
175	0xbcef20d2	-0.029190455
176	0xbd11841e	-0.035526387
177	0xbcce8d63	-0.025213903
178	0x3cee1d60	0.029066741
179	0xbd192ae5	-0.037394423
180	0xbc8c8d27	-0.01715715
181	0xbacfda59	-0.0015857919
182	0xbbbc7587	-0.005751315
183	0x3cd09b16	0.025464576
184	0xbceddbd2	-0.029035483
185	0xbb4186b5	-0.0029529755
186	0xbaee7091	-0.0018191506
187	0x3d4989a6	0.049203537
188	0x3d29b095	0.041428167
189	0x3d6a03ce	0.057132535
190	0x3d2512a5	0.040300984
191	0x3cdbe35e	0.026841816
192	0x3d7b84ad	0.061405826
193	0x3d9591bb	0.073031865
194	0x3d67d2e7	0.056597617
195	0x3d72b983	0.05925895
196	0x3d9edc80	0.07756901
197	0x3d2f3c7f	0.042782303
198	0x3d3e87d4	0.046516255
199	0x3d61fe0b	0.055173915
200	0x3c19abfd	0.009379384
201	0x3cf0719e	0.029351052
202	0x3be41619	0.006960642
203	0xbd0f6845	-0.03501155
204	0xbc28dab6	-0.010306051
205	0x3c8908b5	0.016727785
206	0x3af0e14d	0.0018377692
207	0xbcf124a7	-0.029436423
208	0xbd67c6c3	-0.05658604
209	0x3ad3b618	0.0016152291
210	0xba749f81	-0.0009331629
211	0xbc2f90fa	-0.010715717
212	0xbcd9151c	-0.026499324
213	0xbd3f4d76	-0.046704732
214	0xbd249195	-0.0401779
215	0xbc9d077b	-0.019168606
216	0x3d10d752	0.035361595
217	0x3ba4f7bf	0.0050344164
218	0x3d8a773c	0.067610234
219	0xbc094af5	-0.008379688
220	0xbd1b6f03	-0.037947666
221	0x3d231741	0.0398171
222	0x3c790e48	0.015201159
223	0xba305c80	-0.0006727651
224	0xbab11658	-0.0013510687
225	0x3c48654a	0.01223118
226	0xbc35b126	-0.011089599
227	0xbd180ae1	-0.03711975
228	0xbd15da8f	-0.036585387
229	0x3c4b35f9	0.012403005
230	0x3cd3e20f	0.02586463
231	0x3b5acdfe	0.003338694
232	0x3c8a182a	0.016857225
233	0xbcca852e	-0.024721708
234	0xbc8e9b20	-0.017407954
235	0xb9def755	-0.00042527416
236	0x3d095f6e	0.033538274
237	0x3c3d130e	0.0115401875
238	0x3c7f2add	0.015574184
239	0x3d324328	0.043521076
240	0xbc782940	-0.0151465535
241	0x3cb0cf8f	0.021583347
242	0x3c7cbff7	0.015426627
243	0x3d895d1d	0.06707213
244	0x3d546143	0.05185057
245	0x3d0d71d2	0.034532376
246	0x3c8f6fe6	0.017509412
247	0x3ca92a56	0.02065007
248	0x3d6d70c2	0.057968862
249	0x3d365786	0.044517063
250	0x3b8eae8e	0.0043543046
251	0xbc90028a	-0.017579336
252	0xbca435e4	-0.020045228
253	0xbc210712	-0.009828346
254	0xbd2a3071	-0.041550104
255	0x3d6a7c8d	0.057247687

bias f4 [32]
0	0xbcd80cb3	-0.026373243
1	0x3cc98713	0.024600541
2	0xbdf5b7fa	-0.11997981
3	0xbd98fd5e	-0.07470201
4	0x3ca997d1	0.020702275
5	0xbbf3f9e9	-0.007445563
6	0x3cb01953	0.02149645
7	0x3cc4f578	0.02404283
8	0xbe116ecc	-0.14202422
9	0xbd407359	-0.046985004
10	0xbe6426b4	-0.22280389
11	0xbd5db861	-0.054130916
12	0x3e04c6dc	0.12966484
13	0xbd6234aa	-0.055226006
14	0xbe165930	-0.1468246
15	0xbcfd597c	-0.030926459
16	0xbd273bf8	-0.040828675
17	0x3c98fbe9	0.018674808
18	0xbe093ef0	-0.13402915
19	0xbdf55087	-0.1197825
20	0xbdcfd780	-0.10148525
21	0x3c8b6b21	0.017018856
22	0xbd1d56f5	-0.038413007
23	0x3d1b78af	0.03795689
24	0xbce96fa3	-0.028495615
25	0xbd078cd8	-0.033093303
26	0xbd1e62ab	-0.038668316
27	0xbdd259d4	-0.102710396
28	0xbdf3520a	-0.11880882
29	0xbcd2a263	-0.025712198
30	0xbdd83558	-0.105570495
31	0xbde6d65b	-0.11271354

weight f4 [64, 32, 5, 5]
0	0xbd005882	-0.031334408
1	0x3ccdbc5c	0.02511423
2	0x3c994f24	0.018714495
3	0x3c983df1	0.018584223
4	0x3d051efe	0.03250026
5	0x3a295bfb	0.00064605445
6	0x3c92e052	0.01792923
7	0xbc65e55f	-0.014031737
8	0xbcdce60e	-0.026965167
9	0xbbfc8b15	-0.0077070096
10	0xbc904d25	-0.01761491
11	0x3bb9b4f7	0.0056673246
12	0x3ca7c11b	0.020477822
13	0xbca6059d	-0.020266348
14	0x3c0772e5	0.008267139
15	0xbccca60f	-0.024981527
16	0x3c4ebfad	0.012618941
17	0xbd0b32e7	-0.03398409
18	0x3c8964c1	0.016771676
19	0xbc4b9c22	-0.012427362
20	0x3ce6147e	0.028085943
21	0x3d37c367	0.044864085
22	0xbb54f7d3	-0.0032496348
23	0xbc63c6f1	-0.013902412
24	0xbcea7b54	-0.02862326
25	0x3c63d0ea	0.013904789
26	0xbd6e45e3	-0.058172118
27	0x3ce358a1	0.027752222
28	0x3c73fb8b	0.0148915155
29	0xbb65fe34	-0.0035094144
30	0x3c98d5f2	0.018656705
31	0xbc2dc448	-0.010605879
32	0xbb728543	-0.00370057
33	0x3c218fb1	0.009860919
34	0xbc9c9fd0	-0.019119173
35	0xbb1d126c	-0.002396728
36	0xbad35afd	-0.0016125139
37	0x3c608ff6	0.013706198
38	0x3b8e35c3	0.004339905
39	0xbcb45ca4	-0.02201683
40	0x3c9da265	0.019242475
41	0xbcb0647d	-0.021532292
42	0xbc8c216f	-0.017105786
43	0x3c126bae	0.008936806
44	0xbc11be61	-0.0088954875
45	0xbcf13ca0	-0.029447854
46	0x3b8012cb	0.0039084903
47	0xbd007042	-0.031357057
48	0x3d4679ef	0.04845613
49	0x3cf349b0	0.029698223
50	0xbc979b04	-0.018506534
51	0x3c0501f8	0.008118145
52	0x3cb09362	0.021554653
53	0xbd358762	-0.044318564
54	0xbba635ae	-0.005072317
55	0xbd6f2a54	-0.058389977
56	0xbd699a2b	-0.05703179
57	0x3af9e932	0.001906669
58	0x3bbb548b	0.0057168654
59	0xbcd924db	-0.026506832
60	0xbd1d3d23	-0.038388383
61	0xbc470506	-0.012147194
62	0xbbe54f81	-0.006998003
63	0x3d0386d7	0.032111015
64	0x3cca5991	0.024700912
65	0xbd882e64	-0.06649473
66	0x3cc9ba9a	0.024625111
67	0x3c91ad4c	0.01778283
68	0x3d1af4b9	0.037831042
69	0x3d1a3f04	0.037657753
70	0xbc333e40	-0.0109401345
71	0x3c4bfe74	0.012450803
72	0x3d5ca595	0.05386885
73	0x3d77d4aa	0.060505547
74	0x3d70ef21	0.0588218
75	0xbd1a25ec	-0.03763382
76	0xbbe25c3b	-0.0069079674
77	0xba1e2321	-0.00060324563
78	0xbc92b784	-0.017909773
79	0x3d0fcca7	0.03510728
80	0x3c17e7eb	0.009271602
81	0xbd163388	-0.036670238
82	0x3bd65694	0.0065410826
83	0x3d3e3fb4	0.04644747
84	0x3bcae370	0.0061916634
85	0xbab7a6a4	-0.0014011455
86	0xbb3ec5c0	-0.0029109567
87	0xbc942a5f	-0.01808661
88	0xbd461f61	-0.04836977
89	0xbd41b786	-0.047294162
90	0x3c9be78d	0.01903131
91	0xb6b2c520	-5.3277618e-06
92	0x3c91886b	0.017765244
93	0xbcad0c17	-0.021123929
94	0xbd28d6f0	-0.041220605
95	0x3bd86879	0.006604251
96	0xbd027dda	-0.031858303
97	0xbd384753	-0.044989895
98	0xbb8e95f4	-0.004351372
99	0xbd20b82d	-0.039238144
100	0xba93da5c	-0.0011280286
101	0x3ac6bc22	0.0015162269
102	0x3c8fea17	0.017567677
103	0x3cac109f	0.02100402
104	0xbcd5dde2	-0.026106779
105	0xbccf185b	-0.025280168
106	0x3d3ba934	0.04581566
107	0x3d1ed628	0.038778454
108	0xbc0d36e4	-0.008619044
109	0x3cbac8b3	0.022800779
110	0xbc9766c1	-0.018481614
111	0xbcd25862	-0.02567691
112	0xba2a2fee	-0.00064921274
113	0x3d0a6f9c	0.033797845
114	0x3b2c1ab7	0.002626104
115	0xbc1a226a	-0.009407619
116	0xbc6aa21f	-0.014320879
117	0xbb88260f	-0.0041549276
118	0xbbaf2229	-0.0053446484
119	0xbc9e4333	-0.019319152
120	0xbca6396d	-0.020291055
121	0xbc2e99f5	-0.010656823
122	0xbc8437cc	-0.016139887
123	0xbd0abe88	-0.03387311
124	0xbb90bee8	-0.004417289
125	0xbc567926	-0.0130904075
126	0x3ca3f576	0.020014506
127	0xbd09f93c	-0.033684954
128	0xbce74979	-0.028233277
129	0x3cfba287	0.030717148
130	0xbcb9cdee	-0.022681203
131	0xbbe354b9	-0.00693759
132	0xbd514db3	-0.05109949
133	0xbc37e19a	-0.011223221
134	0xbc944c06	-0.018102657
135	0xbd0ac499	-0.033878896
136	0x3c859b6d	0.016309464
137	0xbcfd14ec	-0.030893765
138	0xbc9fcbbc	-0.019506328
139	0xbce69b83	-0.028150326
140	0x3b9bc7db	0.0047540492
141	0x3c99707b	0.018730393
142	0xbccce273	-0.025010323
143	0xbd0588f6	-0.03260132
144	0xbca9c8ce	-0.020725634
145	0xbc851729	-0.016246395
146	0xbd11c361	-0.03558672
147	0xbd00ab0b	-0.03141312
148	0xbc9e7626	-0.019343447
149	0x3bec743b	0.007216004
150	0xbcdf45df	-0.027254997
151	0x3beb2edc	0.007177217
152	0x3c2746fa	0.010209793
153	0xbb5f1b67	-0.0034043433
154	0x3acbc363	0.0015545901
155	0xbd1611a9	-0.036637936
156	0x3ca2e479	0.019884335
157	0x3d05c2ed	0.0326566
158	0x3b9ab122	0.004720823
159	0xbcaa2abd	-0.020772332
160	0xbd1444cc	-0.036198422
161	0xbbc97440	-0.0061478913
162	0xbd098a7b	-0.03357933
163	0xbbec8e43	-0.0072191074
164	0xbcd5c5ca	-0.02609529
165	0xbd0459e6	-0.032312296
166	0xbbb81553	-0.0056177764
167	0x3c5762a4	0.013146076
168	0x3b87157e	0.004122435
169	0x3d2a184f	0.04152709
170	0x3ceb18c6	0.028698336
171	0xbaff9538	-0.0019499427
172	0x3c2b1a8d	0.010443342
173	0xbca4db25	-0.020124028
174	0xbc8bb5ec	-0.01705452
175	0xbc0ee01f	-0.008720427
176	0xbc463045	-0.012096469
177	0x3c7a7bb5	0.015288283
178	0xbcac07c0	-0.02099979
179	0xbcbefcef	-0.023313968
180	0x3cfb7a3d	0.030697936
181	0x3cddd41f	0.027078686
182	0x3ca283e5	0.019838283
183	0x3c99e418	0.018785521
184	0x3c9cb462	0.019128982
185	0x3b3e2a0b	0.0029016759
186	0x3cbb81bf	0.022889016
187	0x3c0f56a1	0.008748681
188	0x3c06dd30	0.008231446
189	0xbc9ab557	-0.018885298
190	0x3b117619	0.0022195636
191	0x3d0a820b	0.033815425
192	0x3d228a9f	0.03968298
193	0x3cef243d	0.029192084
194	0xbc774108	-0.015091188
195	0xbce78910	-0.028263599
196	0x3bb5167e	0.005526363
197	0x3d080739	0.033210013
198	0x3bca4fdf	0.006174072
199	0xbc8255dc	-0.015910082
200	0x3c93b0c9	0.018028634
201	0x3cd0f9ee	0.0255098
202	0xbc755cac	-0.014975708
203	0xbbba93a1	-0.0056938683
204	0xbbbd188d	-0.005770749
205	0xbc59667f	-0.013269066
206	0xbc3926fd	-0.011300799
207	0xbc2d5ee6	-0.010581708
208	0xbc8fadd1	-0.017538937
209	0x3cc60c67	0.024175836
210	0xbd2d547b	-0.042316895
211	0xbcbac28a	-0.022797842
212	0xbcfbdb13	-0.030744111
213	0x3b614b2e	0.0034377086
214	0xbc996e2d	-0.018729294
215	0xbd1684d1	-0.036747757
216	0x3cc1e4c6	0.023668658
217	0x3bf88321	0.007583991
218	0xbc44c204	-0.012009148
219	0x3d2ab1f1	0.041673604
220	0xbd6b3ad6	-0.057429157
221	0x3cd959c3	0.02653206
222	0xbb1e57b4	-0.0024161162
223	0xbc291ce8	-0.010321833
224	0xbc82990f	-0.015942125
225	0x3bf5a51b	0.0074964887
226	0xbd0d5d3c	-0.034512743
227	0x3a955023	0.001139168
228	0xbc387368	-0.011257984
229	0x3832476d	4.2505028e-05
230	0xbc604dd0	-0.013690427
231	0xbb1c52b2	-0.0023853001
232	0xbc717139	-0.014736467
233	0xbd33e1c1	-0.043916468
234	0xbbfa2949	-0.007634316
235	0x3d055ca2	0.032559045
236	0xbcef473b	-0.02920877
237	0xbc1798ec	-0.009252768
238	0xbd043ae5	-0.03228273
239	0x3beb2788	0.0071763434
240	0x3cf88265	0.030335614
241	0xbd34b326	-0.04411616
242	0x3c298580	0.01034677
243	0x3b0182ff	0.0019761918
244	0xbc7496b5	-0.0149285095
245	0xbb2ca59d	-0.002634383
246	0xbd5dc697	-0.05414447
247	0xbac0286b	-0.0014660483
248	0xb9863afa	-0.00025602413
249	0xbd57b72c	-0.05266492
250	0xbc685855	-0.014181216
251	0xbd47bdac	-0.04876487
252	0xbca4f3de	-0.020135816
253	0x3d218d12	0.039441176
254	0xbb8842b7	-0.0041583437
255	0xbcae461f	-0.02127367

bias f4 [64]
0	0xbdabe582	-0.083933845
1	0x3cf87224	0.030327864
2	0xbd5f43d2	-0.054508038
3	0xbc5b1aeb	-0.013373117
4	0xbe163767	-0.14669572
5	0xbd3120a6	-0.043244027
6	0xbd78463d	-0.06061386
7	0xbd66d81a	-0.056358434
8	0x3a5252d0	0.0008023204
9	0x3c4c9963	0.012487742
10	0xbd9273a8	-0.07150966
11	0xbd16963b	-0.036764365
12	0xbdacd978	-0.08439916
13	0xbd5bcbfe	-0.05366134
14	0x3d27930b	0.040911715
15	0xbd155b6e	-0.036464147
16	0xbd3ec6a3	-0.046576153
17	0xbd1af999	-0.03783569
18	0xbd1faa7e	-0.038980953
19	0xbd215e56	-0.039396606
20	0xbcc5c4c8	-0.024141684
21	0x3bdc2c12	0.006719121
22	0xbc55bad9	-0.013045036
23	0xbc319c6a	-0.010840515
24	0xbc39017f	-0.011291861
25	0xbdc6276e	-0.09675489
26	0xbcfed32a	-0.03110655
27	0xbd2de54d	-0.042455006
28	0xbd9283fe	-0.07154082
29	0xbcfe7daf	-0.03106579
30	0x3be6e8dd	0.0070468024
31	0xbd39d70d	-0.045371104
32	0xbd506168	-0.050874144
33	0x3b52094c	0.0032048998
34	0xbd95dbe9	-0.07317335
35	0xbd02fac8	-0.031977445
36	0xbd19a0df	-0.037506934
37	0xbcad0ece	-0.021125223
38	0x3b5c126f	0.0033580323
39	0xbd384686	-0.04498913
40	0xbd645c8a	-0.055752315
41	0xbe0c8156	-0.13721213
42	0xbe00d87f	-0.12582587
43	0xbd699fca	-0.057037152
44	0xbc01439d	-0.007889655
45	0xbda31dfb	-0.07964703
46	0xbb42b7a6	-0.0029711514
47	0xbd87bf4a	-0.06628282
48	0xbcbf359d	-0.023340994
49	0xbda72f54	-0.08163324
50	0xbdae200f	-0.085022084
51	0xbe0931a4	-0.13397843
52	0xbdab4c46	-0.083641574
53	0x39f9e3e8	0.00047662784
54	0xbd82b7b3	-0.06382694
55	0xbcc567ab	-0.024097284
56	0x38224676	3.868943e-05
57	0xbd94059b	-0.07227632
58	0xbd79e596	-0.061009966
59	0xbd660a19	-0.056161974
60	0xbcce8577	-0.025210125
61	0xbd91ae7c	-0.071133584
62	0xbd3e593b	-0.046471816
63	0xbd239a54	-0.0399421

weight f4 [64, 1024]
0	0xbbebdb12	-0.007197746
1	0x3d468f7a	0.048476674
2	0x3d020110	0.031739295
3	0x3c3f1a97	0.011664054
4	0x3d6be409	0.05759052
5	0x3d331a25	0.043726105
6	0x3ce0e26e	0.02745172
7	0xbb9b0a46	-0.0047314493
8	0x3a8802fd	0.0010376867
9	0xbc19e937	-0.009393982
10	0x3d24e598	0.04025802
11	0x3b549d20	0.0032442287
12	0xbc8f33a7	-0.017480684
13	0xbc1fffc3	-0.009765568
14	0xbaf75bb1	-0.0018871931
15	0xbb3d5778	-0.0028891247
16	0xbcd8e8cf	-0.0264782
17	0x3b345da6	0.002752164
18	0x3b8d2455	0.0043073096
19	0x3a9fa471	0.0012179745
20	0xbd3026bf	-0.0430057
21	0xbc05ce5b	-0.008166875
22	0x3d1b6450	0.037937462
23	0x3c6feb82	0.014643552
24	0xbc5e4676	-0.013566604
25	0xbd299d94	-0.041410044
26	0xbd075073	-0.033035707
27	0xbd497cf7	-0.04919144
28	0x3cdbd7bb	0.026836267
29	0xbcb1da99	-0.02171068
30	0xba908cac	-0.0011028252
31	0x3b02dd2b	0.0019968252
32	0x3c40b6a1	0.011762292
33	0x3cbcf0aa	0.023063976
34	0xbc656113	-0.014000195
35	0x3b4956b3	0.0030721843
36	0x3c36b5c4	0.011151735
37	0xbcf98473	-0.030458665
38	0x3a144870	0.0005656546
39	0x3ade0b7e	0.0016940681
40	0x3c881a50	0.01661411
41	0xbc599cb6	-0.013281992
42	0x3d32db26	0.043666027
43	0x3bd97fc1	0.006637544
44	0x3cb43058	0.021995708
45	0x3c17e2fa	0.009270424
46	0xbc1f1fd9	-0.009712183
47	0x3d20dedd	0.03927504
48	0xbc571437	-0.013127378
49	0xbcad0730	-0.021121591
50	0x3cfebac7	0.031094922
51	0xbc52b48f	-0.012860431
52	0x3cf1f038	0.02953349
53	0x3b98784e	0.0046530133
54	0xbc1cec6e	-0.009577854
55	0xbbc11c90	-0.0058932975
56	0x3d90554b	0.07047518
57	0x391d0bbc	0.00014977058
58	0xba80175a	-0.0009772584
59	0x3d0bb0ba	0.034104086
60	0x3d557921	0.05211747
61	0x3cd43e99	0.025908755
62	0x3d355f0c	0.044280097
63	0x3d4f48e3	0.05060662
64	0xbc9902ed	-0.018678153
65	0x3d73e8bd	0.05954813
66	0xbc33a45d	-0.01096448
67	0x3cb3f507	0.021967424
68	0x3d0742de	0.033022754
69	0x3ca4eede	0.020133432
70	0xbc2a6564	-0.01040015
71	0x3d374b6f	0.044749673
72	0xbc3ab907	-0.011396653
73	0x3b097332	0.0020973203
74	0x3d423209	0.047411
75	0x3c1b8230	0.009491488
76	0x3cadcedf	0.021216808
77	0xbcfd52e0	-0.030923307
78	0x3bc6f289	0.006071393
79	0xbd1b5946	-0.037926935
80	0xbbc4baaa	-0.0060036974
81	0x3d0527af	0.03250855
82	0x3c7f8629	0.015595951
83	0x3d09073f	0.033454176
84	0xbcd87a16	-0.026425403
85	0x3cba024a	0.02270617
86	0x3c42ed10	0.01189734
87	0x3c5df6f9	0.013547652
88	0x3c7e3f79	0.015518063
89	0x3c273887	0.010206348
90	0x3b3fc1d8	0.0029259827
91	0xbccbfe4f	-0.024901537
92	0xbc859680	-0.016307116
93	0x3b8cac2d	0.004292986
94	0x3c464778	0.012102
95	0x3ccd46bf	0.025058148
96	0xbbbc9fc0	-0.0057563484
97	0x3d05f401	0.032703403
98	0x3d0f1209	0.03492931
99	0x3c07f483	0.008298042
100	0xbcc473f1	-0.023981066
101	0xbad462ce	-0.0016203762
102	0xbd10f29e	-0.035387628
103	0xbd69e394	-0.0571018
104	0x3c6fd039	0.0146370465
105	0x3d079faa	0.033111252
106	0xbc668e7f	-0.01407206
107	0x3d37ad4e	0.04484301
108	0x3b150657	0.0022739375
109	0x3d5f9dea	0.054593958
110	0xb8ea6a79	-0.000111778216
111	0x3cae9f16	0.021316092
112	0x3c94c318	0.018159434
113	0x3bcc52db	0.006235463
114	0x3c346443	0.011010232
115	0xbb74bd17	-0.0037344152
116	0xbc8b99c8	-0.017041102
117	0xbce0d701	-0.027446272
118	0xbcc2d66e	-0.023783889
119	0x3c0aaf79	0.0084646875
120	0xbbacd861	-0.005274818
121	0xbd50e564	-0.051000014
122	0x3b43adf6	0.0029858327
123	0xbc4e5f19	-0.012595915
124	0xbcaf62e1	-0.021409454
125	0x3cde9805	0.027172098
126	0xbc6d13cf	-0.014470055
127	0x3cc1a8bd	0.023640031
128	0x3c6a3789	0.014295467
129	0xbd2a5b7d	-0.041591156
130	0xbd4a297c	-0.04935597
131	0xbd194f85	-0.03742935
132	0x3d740877	0.059578385
133	0x3ba88114	0.0051423404
134	0xbc6efdc8	-0.014586873
135	0xbd4adf81	-0.049529556
136	0xbb83c2a2	-0.004021005
137	0x3ba5c9ff	0.00505948
138	0xbce6d5e5	-0.028178165
139	0x3cd8316e	0.026390757
140	0x3a62305a	0.0008628421
141	0xbd61273b	-0.054969054
142	0xbcc049ce	-0.023472693
143	0x3d2feeca	0.042952336
144	0x3ca7021b	0.020386746
145	0xbcaff955	-0.021481195
146	0x3ce17cac	0.027525268
147	0xbcd26423	-0.025682515
148	0x3b0146e9	0.0019726104
149	0xba280b7f	-0.00064104045
150	0x3b6e2e67	0.0036343576
151	0x3bd928d2	0.0066271806
152	0x3cca2b76	0.024678927
153	0xbb8dae3a	-0.004323748
154	0xbc6a0b7d	-0.014284966
155	0xbcac7b3a	-0.021054853
156	0x3b91362f	0.004431508
157	0x3b611b8a	0.003434869
158	0xbcebc42d	-0.028780067
159	0xbb0e1e93	-0.0021685704
160	0xbcbda234	-0.023148634
161	0xbd4ce763	-0.050025355
162	0xb9dbb108	-0.00041902834
163	0xbccbec08	-0.024892822
164	0xbcdbd51d	-0.026835019
165	0xbb7a38cc	-0.0038180826
166	0x3cfc4fda	0.030799795
167	0xbb906f2e	-0.004407785
168	0x3cb37612	0.021906886
169	0x3c804583	0.015658146
170	0x3d050577	0.032475915
171	0x3abd861e	0.0014459526
172	0x3c45fa6b	0.01208363
173	0x3cb0162d	0.02149495
174	0x3d831f19	0.06402416
175	0xbc9ab3bf	-0.018884538
176	0x3ce70adb	0.028203418
177	0xbc383d73	-0.011245119
178	0xbc837ed4	-0.016051687
179	0x3cb19b8c	0.021680616
180	0xbc8b9e51	-0.017043265
181	0x3da56f6d	0.080778934
182	0xbc996a9a	-0.01872759
183	0x3d160567	0.036626246
184	0x3bf29175	0.0074025937
185	0x3cdf354a	0.02724709
186	0xbc072101	-0.008247615
187	0x3ccc0f39	0.024909602
188	0x3ca4f2fa	0.020135392
189	0x3c41eab5	0.011835744
190	0x3d46bb82	0.048518665
191	0x3cbb4b8d	0.022863174
192	0x3c74209d	0.014900354
193	0x3d61ce2f	0.055128273
194	0x3c93762e	0.018000688
195	0x3bf794a1	0.0075555597
196	0x3c75ab7f	0.014994501
197	0xba9bc5e8	-0.0011884542
198	0x3d0cf6aa	0.034414925
199	0xbd0ab685	-0.03386547
200	0x3c96312b	0.018333992
201	0x3ccc32c0	0.024926543
202	0xbc52976a	-0.012853483
203	0xbcbbc3ac	-0.022920452
204	0x3cf1a256	0.029496353
205	0xbcc470a7	-0.023979498
206	0x3c92f363	0.017938321
207	0xbd0f42b1	-0.03497571
208	0xbd11d5cc	-0.035604283
209	0x3bd3a840	0.006459266
210	0xbb311113	-0.0027018234
211	0x3d6a0bc2	0.05714012
212	0xbcc4bb96	-0.02401523
213	0x3d338f91	0.043838087
214	0x3c502b0e	0.012705578
215	0x3c6945f0	0.014237866
216	0x3b81a93c	0.003956942
217	0xbc879f87	-0.01655556
218	0xbd06c6ef	-0.03290456
219	0x3cb43798	0.021999165
220	0x3b987332	0.004652404
221	0xbca0989b	-0.019604018
222	0x3b193e90	0.0023383237
223	0x3c5cb269	0.013470271
224	0xbd0bf170	-0.0341658
225	0xbb226647	-0.00247802
226	0xbd00e8f1	-0.03147215
227	0xbc75a6db	-0.014993395
228	0x3b96f6fb	0.004607079
229	0xba941450	-0.0011297558
230	0xbc67a81c	-0.0141392015
231	0xbcbe1aa3	-0.02320606
232	0x3d27e576	0.040990315
233	0x3c8840ea	0.016632516
234	0xbc52c4ae	-0.012864275
235	0xbc5b9d4b	-0.013404201
236	0x3ca67a97	0.020322127
237	0x3cc9df6d	0.02464267
238	0x3c5f3d78	0.013625495
239	0x3ca57c3b	0.02020084
240	0xbb9f449c	-0.004860474
241	0x3d0bc4d1	0.034123246
242	0x3b8d5a9c	0.00431378
243	0x3ac9398c	0.0015352233
244	0x3b99c46b	0.0046926043
245	0xbb047fba	-0.0020217733
246	0xbcb263a1	-0.021776022
247	0xbbb42206	-0.00549722
248	0xb7622650	-1.347957e-05
249	0xbcfc96fd	-0.030833716
250	0x3c851903	0.016247278
251	0x3be1f8e0	0.0068961233
252	0x3d075515	0.033040125
253	0x3d845e52	0.06463303
254	0x3da1ed32	0.079065695
255	0x3c508838	0.01272779

bias f4 [64]
0	0xbcb8d8e8	-0.022564366
1	0xba548a4b	-0.00081077655
2	0xbd266d50	-0.040631592
3	0xbc84670b	-0.016162416
4	0x3c37ba96	0.011213919
5	0x3c930c97	0.01795034
6	0x3a86fe87	0.0010299244
7	0xbd0132d2	-0.031542607
8	0x3c73ad13	0.014872807
9	0xbd5952f6	-0.053057633
10	0x3b83c32b	0.0040210686
11	0x3b2f990b	0.0026794102
12	0x3b740368	0.0037233476
13	0x3d247484	0.04015018
14	0xbc677cc6	-0.014128869
15	0xbc2077bc	-0.009794172
16	0x3cb3b1ef	0.021935431
17	0x3cd81bf1	0.026380511
18	0xbd8f15ee	-0.06986605
19	0xbb9894f1	-0.004656427
20	0xbb119ade	-0.0022217552
21	0xbc3cede1	-0.011531324
22	0xbc431c1b	-0.011908556
23	0x3d50298b	0.05082087
24	0x3c9a5662	0.018840019
25	0x3d410d45	0.047131795
26	0x3cb73b43	0.022367125
27	0x3cf7f84c	0.030269764
28	0x3d480171	0.0488295
29	0x3d05aa59	0.03263316
30	0xbc846233	-0.016160106
31	0x3b752eb2	0.0037411866
32	0xbd25abac	-0.040446922
33	0x3d15bc3e	0.036556475
34	0x3b320145	0.0027161401
35	0xbc52e389	-0.012871631
36	0xbc5a0863	-0.013307664
37	0x3cd69ec1	0.026198747
38	0xbd4c7540	-0.049916506
39	0xbb8c5bf4	-0.0042834226
40	0xbd4de627	-0.05026832
41	0xbc4ad2a0	-0.0123793185
42	0xbbe69457	-0.0070367265
43	0x3cbb5853	0.022869265
44	0x3abe3240	0.0014510825
45	0xba91f443	-0.0011135418
46	0x3d3b6802	0.045753486
47	0xbd019fc6	-0.031646512
48	0x3d911c6f	0.070855014
49	0x3c8a4631	0.016879173
50	0xbc18d165	-0.009327267
51	0xbcd87f07	-0.026427759
52	0xbd1d448d	-0.038395453
53	0x3b359610	0.0027707852
54	0x3b01974c	0.0019774018
55	0x3c69d6df	0.014272421
56	0x3d7a391d	0.061089624
57	0xbcaa615e	-0.020798381
58	0xbc144770	-0.009050235
59	0x3ca0937c	0.019601576
60	0xbd74bbec	-0.05974953
61	0xbb44452e	-0.002994846
62	0x3c1f7e94	0.009734768
63	0xbd590cb8	-0.052990645

weight f4 [10, 64]
0	0x3d89dda8	0.06731731
1	0x3d61c7d3	0.055122208
2	0x3e095c28	0.13414061
3	0xbe55ea11	-0.2089007
4	0xbe2dea30	-0.16983867
5	0x3e33ca73	0.17557697
6	0xbe896555	-0.26835123
7	0x3e92ce89	0.286732
8	0xbdd6795b	-0.104723655
9	0x3c441377	0.011967531
10	0xbe04cb99	-0.12968291
11	0x3d491267	0.049089815
12	0x3bfe73b9	0.00776526
13	0xbdd750b1	-0.105134375
14	0xbd015d80	-0.03158331
15	0xbd204f59	-0.03913817
16	0x3cee18a5	0.029064486
17	0xbe7b0f93	-0.2451766
18	0x3ce7edfd	0.028311724
19	0x3d4b9b97	0.04970893
20	0xbc5391b1	-0.0129131535
21	0xbdbb8975	-0.09157077
22	0xbcd3681d	-0.025806481
23	0x3d59a5c9	0.05313662
24	0x3b0e6bd4	0.002173175
25	0xbe29037f	-0.1650524
26	0xbdfbd411	-0.12296308
27	0x3e2ff1eb	0.17182128
28	0xbe833c79	-0.25632074
29	0xbe2da6ec	-0.16958207
30	0xbd396288	-0.045259982
31	0x3cb6231d	0.02223354
32	0xbdcc7bd0	-0.09984553
33	0x3dfef6cb	0.12449416
34	0xbba639cc	-0.005072808
35	0x3e9e5d5d	0.30930606
36	0x3e3b9150	0.18317151
37	0x3dfd36b6	0.12363951
38	0x3d66fc44	0.056392923
39	0xbea03a65	-0.31294551
40	0x3e2c409a	0.16821519
41	0xbdbb76a4	-0.09153488
42	0xbe1d586f	-0.15365766
43	0xbe11dd60	-0.14244604
44	0x3da924b1	0.082589515
45	0x3d9fa916	0.077959225
46	0xbe202aac	-0.15641278
47	0xbe06ec4d	-0.13176079
48	0xbe8277ff	-0.25482175
49	0xbcaa6370	-0.020799369
50	0x3e158018	0.14599645
51	0x3e305106	0.17218408
52	0xbe2f4fbf	-0.17120264
53	0xbdc2406d	-0.094849445
54	0xbc50d8ff	-0.012747048
55	0x3c88c2c9	0.016694443
56	0xbd5ca1ff	-0.05386543
57	0xbbf4234e	-0.0074504977
58	0xbd8383c1	-0.064216144
59	0xbdd191c6	-0.10232882
60	0x3e0b474e	0.1360142
61	0xbe7b20b9	-0.24524201
62	0x3ddfd3be	0.109290585
63	0x3e7d4d56	0.24736533
64	0x3e6b22d7	0.22962509
65	0xbe44b3d5	-0.19209225
66	0xbe5340ed	-0.20630236
67	0x3e64e8c7	0.22354423
68	0xbd0cccda	-0.03437505
69	0xbe05277c	-0.13003343
70	0xbdbef591	-0.09324182
71	0x3db98dd0	0.09060252
72	0x3e30f5d6	0.17281279
73	0xbdf55003	-0.11978152
74	0xbdb8637c	-0.0900335
75	0xbe0097c6	-0.12557897
76	0x3c9ae8ec	0.018909894
77	0xbe55403d	-0.20825286
78	0xbe04bb3d	-0.1296205
79	0xbd6ed3d2	-0.058307476
80	0x3c53301b	0.012889887
81	0xbe685c0f	-0.22691368
82	0x3d427064	0.047470465
83	0x3e24ac9e	0.16081473
84	0xbe1e3a0d	-0.15451832
85	0x3e9fa5d1	0.31181195
86	0x3de23061	0.11044384
87	0x3e4846e7	0.19558297
88	0x3e85c755	0.2612864
89	0x3d283dea	0.04107467
90	0x3e388a79	0.18021573
91	0xbe0881b8	-0.13330734
92	0xbe3e846b	-0.18605201
93	0x3e057291	0.13031985
94	0xbd180625	-0.037115235
95	0x3d61557b	0.05501316
96	0xbdc856a3	-0.0978215
97	0xbe787f4f	-0.24267314
98	0xbde1e6d3	-0.11030354
99	0xbe9a4758	-0.30132556
100	0x3db48b21	0.08815599
101	0x3e6b3031	0.22967602
102	0xbe402a99	-0.1876625
103	0xbe4fe10c	-0.20300692
104	0xbe198cf9	-0.14995183
105	0x3e451308	0.19245541
106	0x3e6b4efc	0.22979349
107	0x3e38f656	0.1806272
108	0xbe752865	-0.2394119
109	0x3b644cd5	0.0034835835
110	0xbd4427db	-0.04788957
111	0x3d16ef7a	0.036849476
112	0xbe4ab875	-0.19796927
113	0xbd8db00e	-0.069183454
114	0x3c7a9746	0.015294855
115	0xbe5d6a7f	-0.21622656
116	0xbe066c87	-0.13127337
117	0x3e967433	0.29385528
118	0x3e3d1421	0.1846471
119	0x3e7590f7	0.23981081
120	0xbe931e2c	-0.28733957
121	0xbe0f4aeb	-0.13993423
122	0x3e8f8d52	0.28037506
123	0xbd81ce7e	-0.063382134
124	0xbd816adb	-0.06319209
125	0xbc622785	-0.0138033675
126	0x3e4e2f7d	0.20135303
127	0xbe5067c3	-0.20352082
128	0xbe4e23d9	-0.20130862
129	0x3cbe2833	0.023212528
130	0xbcbaa0df	-0.022781787
131	0xbe0480d9	-0.12939776
132	0xbe5fbae3	-0.21848635
133	0x3e9c769e	0.30559248
134	0x3d872767	0.06599312
135	0x3e2a92e8	0.16657603
136	0xbd9b945f	-0.07596659
137	0x3cff534e	0.031167652
138	0x3ceec2a4	0.029145546
139	0xbc5bedd7	-0.013423405
140	0xbe25b388	-0.16181767
141	0x3d1921a9	0.037385616
142	0x3d88538e	0.06656562
143	0x3e7a3b19	0.24436606
144	0xbdc23510	-0.09482777
145	0xbdc5a838	-0.09651226
146	0x3e671bbf	0.22569178
147	0xbe750423	-0.2392736
148	0x3d962c24	0.07332638
149	0xbc361488	-0.0111132935
150	0xbb27737f	-0.0025551019
151	0xbd980706	-0.074232146
152	0x3d85f9a9	0.065417595
153	0xbe31b245	-0.1735316
154	0xbe81b9dd	-0.25337115
155	0xbe894ca2	-0.2681628
156	0x3cab422e	0.02090558
157	0x3db047f4	0.08607474
158	0xbcc69019	-0.024238633
159	0x3d286598	0.041112512
160	0xbe1f8b20	-0.15580416
161	0xbd9a5b95	-0.07536999
162	0x3c423604	0.011853699
163	0x3e998129	0.29981354
164	0xbe40ca32	-0.18827131
165	0x3d33a761	0.043860797
166	0x3c2411b7	0.010013989
167	0x3e730acc	0.23734587
168	0x3e744c49	0.23857225
169	0xbe6647f4	-0.22488385
170	0x3e5e8ff4	0.21734601
171	0x3e126c16	0.14299044
172	0x3e81989b	0.2531174
173	0xbd1f6095	-0.038910467
174	0xbd53ddfb	-0.05172537
175	0xbe124d2d	-0.14287253
176	0x3c0cef26	0.008601939
177	0xbdcd29d6	-0.10017745
178	0xbd10a776	-0.035315953
179	0xbda5cfcd	-0.080962755
180	0xbe0a3f60	-0.13500738
181	0xbe0c56ae	-0.1370494
182	0x3e1be937	0.15225683
183	0xbe77fa86	-0.24216661
184	0x3e81ea75	0.2537419
185	0xbcc0aece	-0.023520853
186	0xbe0bcf9b	-0.13653414
187	0xbd09be6d	-0.03362887
188	0xbdd18930	-0.102312446
189	0x3e4576e5	0.19283636
190	0x3dd26d69	0.102747746
191	0xbe032844	-0.12808329
192	0x3e3e157f	0.18562888
193	0x3d188c74	0.03724332
194	0x3e226b79	0.1586131
195	0x3daa896a	0.08326991
196	0x3e28ef51	0.16497542
197	0x3d5f8541	0.05457044
198	0x3e6be5f2	0.23036936
199	0xbc1675e4	-0.009183381
200	0x3d82246f	0.063546054
201	0x3db4b520	0.08823609
202	0x3dccf880	0.10008335
203	0xbe12bfbd	-0.14330955
204	0x3dde2ed3	0.10848775
205	0x3dd788dd	0.105241515
206	0x3dcd06e5	0.10011081
207	0xbda48276	-0.08032696
208	0xbe009c11	-0.12559535
209	0x3d30b9ff	0.04314613
210	0x3d6964c4	0.056980863
211	0x3e48e2c7	0.19617759
212	0xbe17bc6a	-0.14817968
213	0xbe74ee6f	-0.2391908
214	0x3c435b25	0.011923586
215	0xbe487477	-0.19575678
216	0x3e1e3768	0.15450823
217	0x3b948c9f	0.004533365
218	0xbe1302da	-0.14356557
219	0x3e3af44e	0.18257257
220	0x3c46cae9	0.0121333385
221	0xbc525c78	-0.012839429
222	0xbdd1302a	-0.10214265
223	0x3df27f0b	0.11840638
224	0xbe060ba6	-0.13090381
225	0x3dcc4164	0.0997341
226	0xbdb68421	-0.0891192
227	0xbe32439a	-0.174086
228	0xbdb86085	-0.09002785
229	0xbda404f3	-0.080087565
230	0x3c43cd52	0.011950808
231	0xbc83b70d	-0.016078496
232	0x3d1229ae	0.03568428
233	0xbbf28883	-0.0074015274
234	0xbe171a75	-0.14756186
235	0x3de3a090	0.11114609
236	0x3c6a3787	0.014295465
237	0xbc223da0	-0.009902388
238	0xbda82f31	-0.08212126
239	0xbe20ad1b	-0.15691034
240	0x3d91ace8	0.071130574
241	0x3dccda82	0.100026146
242	0xbe411a6c	-0.18857735
243	0xbdf614bb	-0.12015673
244	0x3ddcc9ac	0.10780653
245	0xbd3d6b91	-0.04624516
246	0x3d49b271	0.04924244
247	0xbe3ee913	-0.18643598
248	0x3e037577	0.12837778
249	0xbe2864c6	-0.16444692
250	0xbe4f8b74	-0.20268041
251	0xbe02e25a	-0.12781659
252	0xbd92fee7	-0.07177525
253	0x3df870b0	0.121308684
254	0xbd8a4685	-0.06751732
255	0x3cf3277d	0.029681915

bias f4 [10]
0	0xbe67db32	-0.2264221
1	0xbd7895d1	-0.06068975
2	0x3dde2ba8	0.108481705
3	0x3dc1fa14	0.09471527
4	0x3e25f767	0.16207658
5	0xbe1b228e	-0.151499
6	0x3e147060	0.14495993
7	0x3d90a2db	0.07062312
8	0xbdb9dd9f	-0.09075474
9	0x3cd369f9	0.025807368
