Pytorch/model_data/CIFAR10_EPOCH22.pth (torch, 588839 bytes, 10 tensors)

weight f4 [32, 3, 5, 5]
-0.018131169 -0.04572368 -0.043244038 -0.121693686 -0.04150508 -0.16102965 -0.14058416 0.11035876
-0.044965953 -0.1197395 -0.14214559 -0.07571863 0.15118676 0.10846133 -0.20119877 0.07604025
-0.11834994 0.101401955 0.15316457 -0.16625874 0.051979996 -0.039272245 0.15980862 0.1295487
-0.14445864 -0.11067787 0.04279016 0.118848056 -0.055226613 -0.18328045 -0.063000955 0.079997435
-0.072825715 0.06928298 -0.20515491 -0.032387145 -0.044154715 0.08782391 0.12478264 0.018076465
0.049856268 -0.10655014 0.04566789 0.16783291 -0.011843068 0.03730847 0.10086173 0.20711611
0.18118787 0.018405953 -0.0641084 -0.07062376 -0.11724434 -0.061819486 -0.20297737 -0.013390672
0.035638005 -0.008143922 0.05843966 -0.19439135 0.07060607 0.05442207 0.028632112 0.108364426
-0.15712993 0.0130805485 0.043491755 0.18319541 -0.0028694135 -0.16247882 0.0667684 0.02568488
0.18088512 0.17358518 0.07383743 0.057455216 0.11263451 0.17457812 0.06488418 -0.05372946
0.00216347 0.08899646 0.0010696831 -0.19863887 -0.13555585 0.1395232 -0.17469941 -0.013530231
-0.15503393 0.12222467 0.01600288 -0.035880603 0.011639991 0.1479113 -0.034465685 0.016005678
0.023745157 0.0379407 0.09006943 -0.013936622 0.058984984 0.12567583 0.10984251 0.041278128
-0.2043631 0.13580139 0.0376894 0.0036688587 -0.23807126 -0.19613513 -0.058688138 -0.1764885
-0.085342735 0.01965845 -0.092808105 -0.036667727 -0.041292015 0.009209856 0.013371905 0.019220365
-0.047124133 0.053758323 0.1117296 -0.00346096 -0.072210945 -0.009527547 0.08585532 0.17841609
-0.07415074 0.016578047 0.057874016 0.005001101 -0.09228254 -0.1670497 0.078454554 0.041663803
-0.021765996 -0.05378466 0.028177915 0.122326955 -0.058782715 -0.09235992 0.12121386 0.09026087
0.07430113 -0.08555465 -0.06795759 0.14342922 -0.08183336 0.0035425664 0.14881505 0.048721872
-0.102883585 -0.018763445 -0.1151154 -0.008158729 0.015452579 -0.21161301 -0.20329769 -0.14338239
-0.1507114 0.024674982 -0.019571086 -0.095250815 -0.06357004 -0.19981182 -0.10303578 -0.13266923
-0.11086981 -0.16105282 0.032217525 -0.20946854 -0.25176737 -0.20009314 -0.15999566 -0.007160493
-0.11203938 0.06806638 0.059315395 0.058824025 0.04448867 -0.05483697 0.0070436485 0.024826538
-0.098341264 -0.0019488442 -0.03202022 0.10180837 0.14487253 -0.015241229 -0.09351719 0.18537845
0.16853371 0.099987015 0.009986867 0.08767223 -0.06991558 -0.16372786 -0.08395018 -0.05002246
-0.12194073 -0.03465764 0.11688001 0.053789735 0.1168118 -0.07311951 -0.0044431547 0.10514603
-0.046909396 0.14579855 0.072293416 0.11480924 0.116516866 0.26177976 0.20557012 0.042158518
0.23804274 0.29184943 0.19293356 0.15707941 0.09179817 0.041812968 -0.08615639 0.09235784
0.11519151 0.079327114 0.013906499 -0.046802234 0.04102685 -0.11181923 0.062424906 -0.06927065
0.04461249 0.093315415 0.011716934 0.088613056 -0.11244048 -0.019801589 -0.027613774 0.121339865
0.05621839 0.04109012 0.031312384 0.17165284 0.08731845 -0.027459418 -0.12832324 -0.11566877
0.1782352 -0.03934913 0.014925299 0.03686256 -0.09135103 0.12804423 -0.06944683 -0.009905747
00000000: d187 94bc c148 3bbd a920 31bd 8a3a f9bd
00000010: 3b01 2abd f5e4 24be 4bf5 0fbe c603 e23d
00000020: 382e 38bd fc39 f5bd 9d8e 11be 5e12 9bbd
00000030: b4d0 1a3e f920 de3d 0d07 4ebe feba 9b3d
00000040: 7461 f2bd d4ab cf3d 2cd7 1c3e bb3f 2abe
00000050: fae8 543d efdb 20bd dfa4 233e 6aa8 043e
00000060: f7ec 13be 14ab e2bd bc44 2f3d 9c66 f33d
00000070: 4d35 62bd dfad 3bbe a506 81bd b2d5 a33d
00000080: a625 95bd 3ce4 8d3d 2114 52be 62a8 04bd
00000090: 93db 34bd 06dd b33d 0a8e ff3d 1815 943c
000000a0: 1636 4c3d f636 dabd 410e 3b3d 64dc 2b3e
000000b0: 6d09 42bc c4d0 183d 9890 ce3d 3f16 543e
000000c0: 5089 393e 15c8 963c 444b 83bd 31a3 90bd
000000d0: cd1d f0bd 6e36 7dbd 4dd9 4fbe 8d64 5bbc
000000e0: 28f9 113d 166e 05bc 6d5e 6f3d 870e 47be
000000f0: ea99 903d ade9 5e3d e48d ea3c 2bee dd3d
00000100: abe6 20be cc4f 563c 6924 323d 9497 3b3e
00000110: c50c 3cbb d960 26be dfbd 883d 1969 d23c
00000120: f339 393e 50c0 313e 1438 973d 2956 6b3d
00000130: ecac e63d 9bc4 323e ffe1 843d 6c13 5cbd
00000140: 01c9 0d3b c743 b63d 9c34 8c3a fd67 4bbe
00000150: 27cf 0abe 2bdf 0e3e 67e4 32be e7ad 5dbc
00000160: 37c1 1ebe ee50 fa3d 7918 833c 8af7 12bd
00000170: a9b5 3e3c 0f76 173e e42b 0dbd 571e 833c
00000180: 3485 c23c b567 1b3d 5276 b83d 6e56 64bc
00000190: 3d9a 713d 2ab1 003e 1cf5 e03d 4113 293d
000001a0: 8f44 51be 850f 0b3e 3360 1a3d 3c71 703b
000001b0: f4c8 73be a6d7 48be f962 70bd 67b9 34be
000001c0: 2cc8 aebd c20a a13c 2d12 bebd e630 16bd
000001d0: d121 29bd f0e4 163c d615 5b3c 0774 9d3c
000001e0: 3c05 41bd b031 5c3d 7dd2 e43d 46d1 62bb
000001f0: 55e3 93bd 6e19 1cbc ead4 af3d b5b2 363e
00000200: 58dc 97bd afce 873c 4e0d 6d3d 47e0 a33b
00000210: a1fe bcbd 140f 2bbe c8ac a03d aaa7 2a3d
00000220: 9a4e b2bc 4e4d 5cbd 5fd5 e63c 8e86 fa3d
00000230: 25c6 70bd 3327 bdbd f93e f83d b1da b83d
00000240: 312b 983d 4737 afbd 592d 8bbd 1cdf 123e
00000250: 4098 a7bd 672a 683b f962 183e 9690 473d
00000260: a1b4 d2bd ccb5 99bc 9fc1 ebbd 31ac 05bc
00000270: d02c 7d3c 15b1 58be 452d 50be d5d2 12be
00000280: 1754 1abe 3023 ca3c 8b53 a0bc dc12 c3bd
00000290: 0231 82bd 789b 4cbe 6c04 d3bd 71da 07be
000002a0: b60f e3bd 08eb 24be 86f6 033d ec7e 56be
000002b0: a7e7 80be 37e5 4cbe e7d5 23be 92a2 eabb
000002c0: e774 e5bd 6366 8b3d b3f4 723d 76f1 703d
000002d0: c039 363d bb9c 60bd 68ce e63b 0661 cb3c
000002e0: 2567 c9bd 5c70 ffba a227 03bd e880 d03d
000002f0: 7759 143e 59b6 79bc f185 bfbd d9d3 3d3e
00000300: 1a94 2c3e fec5 cc3d f59f 233c 808d b33d
00000310: e62f 8fbd 47a8 27be 12ee abbd 5ae4 4cbd
00000320: 10bc f9bd 2bf5 0dbd c95e ef3d a052 5c3d
00000330: 063b ef3d afbf 95bd e297 91bb cd56 d73d
00000340: 1124 40bd 374c 153e 920e 943d 1b21 eb3d
00000350: 65a0 ee3d ff07 863e f980 523e 69ae 2c3d
00000360: 7ac1 733e 4a6d 953e 6090 453e 6dd9 203e
00000370: ae00 bc3d 1344 2b3d c372 b0bd 1b26 bd3d
00000380: 87e9 eb3d 4176 a23d 16d8 633c b3b3 3fbd
00000390: c50b 283d 7b01 e5bd 42b1 7f3d c5dd 8dbd
000003a0: 96bb 363d 271c bf3d 62f8 3f3c c37a b53d
000003b0: 3247 e6bd f136 a2bc 4836 e2bc 0981 f83d
000003c0: 4145 663d 1d4e 283d 6a41 003d c3c5 2f3e
000003d0: 04d4 b23d 93f2 e0bc 2b67 03be c0e3 ecbd
000003e0: 4a83 363e 8e2c 21bd 3e89 743c 32fd 163d
000003f0: 4016 bbbd 071e 033e 243a 8ebd b74b 22bc

bias f4 [32]
-0.1760285 -0.03200453 0.036549766 -0.11605563 -0.017899057 0.17410572 -0.34626523 -0.39667067
-0.10411321 -0.016593112 0.10793158 -0.07391561 -0.089060895 -0.10193476 -0.013710415 -0.0905715
0.0017197697 -0.36207017 -0.03505532 -0.07537239 -0.0077574896 0.062355407 0.065361135 0.14716576
-0.31273457 -0.0044653295 -0.17446409 0.27751997 -0.27459213 0.041285157 -0.103346504 0.0996144
00000000: d140 34be 2f17 03bd 35b5 153d 93ae edbd
00000010: 0ba1 92bc c548 323e ad49 b1be 6b18 cbbe
00000020: 4f39 d5bd 47ee 87bc 3b0b dd3d 1161 97bd
00000030: 8f65 b6bd 2cc3 d0bd a6a1 60bc 8d7d b9bd
00000040: e569 e13a 4361 b9be 2b96 0fbd d75c 9abd
00000050: 8a32 febb 6268 7f3d 0fdc 853d 9fb2 163e
00000060: bf1e a0be e651 92bb b7a6 32be 1917 8e3e
00000070: 5797 8cbe a01a 293d 55a7 d3bd a202 cc3d

weight f4 [32, 32, 5, 5]
-0.002467627 -0.01892079 -0.030898647 -0.012502116 -0.031911243 0.035271995 0.0054576197 0.02909862
0.032616902 0.021268988 0.025852224 0.0076447907 -0.024157196 0.0032567335 0.03702212 -0.0013075635
-0.01878692 -0.061393376 -0.037561156 -0.021353116 0.03238206 0.025264816 0.025965739 0.023135584
0.0064648325 -0.03716782 0.009988066 -0.018406698 0.028359776 -0.012198013 -0.02247635 0.023630109
0.016430527 0.011016061 -0.026895784 0.045080997 -0.012198415 0.0066610505 0.011299291 0.030068034
0.018288054 0.042591207 -0.005989804 0.020066842 0.028634958 -0.00046569516 0.06957531 0.053493798
0.04168939 -0.020424696 0.03187746 0.04248467 0.009743036 0.02773695 0.03731186 0.008764947
-0.014269403 -0.03152024 0.0074853217 0.009703095 -0.04753767 -0.011499452 0.017655598 0.0032591713
-0.036075465 0.002426804 0.0030623502 -0.04778491 -0.001187913 0.011305635 -0.048671894 0.00014343148
-0.011306 -0.009481481 0.03383511 -0.008130659 0.023638424 -0.023419186 0.006171881 -0.02063099
0.0121092275 -0.013541972 -0.009266037 -0.0056524365 0.0017439862 0.014030459 0.0030895206 0.027900234
0.0115898065 0.0094924895 -0.0006366368 0.035936322 0.036946263 0.02597611 0.021024328 0.010874341
0.020330328 -0.018242007 0.009370401 0.033466328 0.0321651 -0.018038595 -0.029122375 -0.00333903
-0.004440775 -0.02053528 -0.027845921 -0.024745047 -0.05846084 -0.011722084 -0.0035427604 -0.03416892
-0.032763146 -0.0005199733 -0.011513794 -0.025199132 0.03344141 0.034713823 0.014464729 -0.00761027
0.008785621 0.006252329 0.016195618 -0.020247763 0.0029122203 0.02395433 0.00057831604 0.015562547
0.060613886 -0.018560497 0.024920683 0.025722684 0.051412072 0.029009348 0.0032331492 0.026916796
0.06268416 -0.017146057 -0.022196935 -0.0086368555 0.07772565 -0.0063044485 -0.04557899 -0.030286593
0.033730946 0.004859989 -0.065088235 0.025896749 0.07710997 0.002608306 0.008790897 0.048717905
0.03672806 0.0131847225 0.050588593 0.015704062 0.035785858 0.037458975 -0.0078090695 0.016357915
0.00038269372 0.007914579 0.0112906275 0.012177579 -0.013369586 0.022813171 0.009367933 0.054673925
0.0072961506 0.0019749983 -0.0058703097 0.035415143 0.033320278 -0.024459103 0.04131584 -0.030036999
-0.03626586 -0.02817284 0.029155197 -0.040965654 -0.01688501 -0.0015364198 -0.009234134 0.02709337
-0.029794458 -0.0043846243 -0.000979508 0.049508166 0.04413959 0.061775092 0.039578088 0.03413951
0.0679484 0.07483239 0.064052075 0.062061284 0.08452515 0.04569406 0.04234628 0.058379993
0.011107054 0.030606976 0.010411535 -0.03664566 -0.011897847 0.014780478 -6.562378e-05 -0.03171812
-0.060360886 0.0019573304 -0.008713403 -0.023141235 -0.03708034 -0.051044993 -0.044461858 -0.022329785
0.03653607 0.013283297 0.072861634 -0.008400542 -0.042760387 0.036701694 0.01626052 0.00010318069
-0.0012600954 0.009422224 -0.014740868 -0.04160992 -0.04164302 0.0060618278 0.025904734 0.002902673
0.01741504 -0.026056122 -0.018514134 0.0027140076 0.032297447 0.010748906 0.015977997 0.047340143
-0.012922573 0.023051988 0.021645516 0.07158881 0.05147408 0.03431452 0.021927033 0.024500733
0.057399977 0.04523856 0.010388271 -0.022065386 -0.021515094 -0.014291777 -0.042317737 0.06089212
00000000: e9b7 21bb c6ff 9abc 291f fdbc add5 4cbc
00000010: 5db5 02bd 5e79 103d d5d5 b23b 3b60 ee3c
00000020: 4d99 053d 4d3c ae3c 0bc8 d33c 2781 fa3b
00000030: 50e5 c5bc ec6e 553b 82a4 173d 8d62 abba
00000040: 07e7 99bc 9f77 7bbd bad9 19bd bbec aebc
00000050: 0da3 043d 29f8 ce3c 1ab6 d43c d686 bd3c
00000060: f2d6 d33b 493d 18bd fca4 233c a5c9 96bc
00000070: c352 e83c 2dda 47bc 5320 b8bc ee93 c13c
00000080: 5099 863c b57c 343c 8c54 dcbc daa6 383d
00000090: dcdb 47bc f144 da3b a920 393c 3d51 f63c
000000a0: d4d0 953c 1e74 2e3d 1e46 c4bb 3863 a43c
000000b0: dc93 ea3c 8c28 f4b9 807d 8e3d 501c 5b3d
000000c0: 7ec2 2a3d b151 a7bc f191 023d 6804 2e3d
000000d0: 41a1 1f3c 9a38 e33c 52d4 183d da9a 0f3c
000000e0: 37ca 69bc 5e1b 01bd 6e47 f53b bbf9 1e3c
000000f0: dcb6 42bd 3368 3cbc 79a2 903c d297 553b
00000100: dec3 13bd 040b 1f3b b6b1 483b 1cba 43bd
00000110: bfb3 9bba 453b 393c 2e5c 47bd 1866 1639
00000120: cd3c 39bc 3758 1bbc af96 0a3d 7536 05bc
00000130: 5ea5 c13c 98d9 bfbc 7e3d ca3b 5202 a9bc
00000140: c865 463c 26df 5dbc 93d0 17bc 1338 b9bb
00000150: 7796 e43a 03e0 653c 8e79 4a3b 088f e43c
00000160: 2ce3 3d3c 6386 1b3c f9e3 26ba f731 133d
00000170: f754 173d dacb d43c 363b ac3c 4b2a 323c
00000180: ca8b a63c 4370 95bc 4f86 193c fd13 093d
00000190: 8dbf 033d adc5 93bc 0c92 eebc a1d3 5abb
000001a0: ec83 91bb 9b39 a8bc 211d e4bc 20b6 cabc
000001b0: a274 6fbd fc0d 40bc a82d 68bb b6f4 0bbd
000001c0: a632 06bd d14e 08ba 5aa4 3cbc 696e cebc
000001d0: dcf9 083d 1530 0e3d 79fd 6c3c 925f f9bb
000001e0: 91f1 0f3c 56e0 cc3b acac 843c a3de a5bc
000001f0: f3da 3e3b df3b c43c 229a 173a 0efa 7e3c
00000200: 4446 783d 2f0c 98bc 7626 cc3c 61b8 d23c
00000210: 7795 523d 03a5 ed3c 3ee3 533b 9d80 dc3c
00000220: 8e60 803d e375 8cbc 59d6 b5bc 9981 0dbc
00000230: a02e 9f3d 8c95 cebb 09b1 3abd 971b f8bc
00000240: 7629 0a3d 8b40 9f3b fb4c 85bd 6b25 d43c
00000250: d5eb 9d3d 1df0 2a3b b207 103c 6d8c 473d
00000260: 2a70 163d bc04 583c fc35 4f3d cea5 803c
00000270: 3194 123d 956e 193d 39e3 ffbb 0901 863c
00000280: 48a4 c839 26ac 013c 53fc 383c 7884 473c
00000290: 1c0c 5bbc b0e2 ba3c f57b 193c c4f1 5f3d
000002a0: 8c14 ef3b f96e 013b ba5b c0bb 780f 113d
000002b0: d87a 083d 755e c8bc cc3a 293d 2710 f6bc
000002c0: 838b 14bd baca e6bc e1d6 ee3c 9acb 27bd
000002d0: 6f52 8abc b261 c9ba c44a 17bc eaf2 dd3c
000002e0: 8213 f4bc e5ac 8fbb d662 80ba 13c9 4a3d
000002f0: b7cb 343d e107 7d3d a21c 223d dfd5 0b3d
00000300: 8828 8b3d b941 993d bc2d 833d f933 7e3d
00000310: 861b ad3d b229 3b3d 4b73 2d3d dc1f 6f3d
00000320: 5cfa 353c 7bbb fa3c 2595 2a3c c219 16bd
00000330: 30ef 42bc d129 723c 809f 89b8 dcea 01bd
00000340: fa3c 77bd 8e46 003b a9c2 0ebc b092 bdbc
00000350: 8ee1 17bd 8e14 51bd a31d 36bd f4ec b6bc
00000360: d9a6 153d 30a2 593c 7b38 953d 6da2 09bc
00000370: 8425 2fbd 8454 163d c834 853c b662 d838
00000380: c929 a5ba ac5f 1a3c ae83 71bc 2a6f 2abd
00000390: df91 2abd 4ca2 c63b 2a36 d43c c63a 3e3b
000003a0: fca9 8e3c a673 d5bc f4aa 97bc 7edd 313b
000003b0: 544a 043d 2e1c 303c 4ae4 823c bde7 413d
000003c0: 33b9 53bc 86d7 bc3c f051 b13c 279d 923d
000003d0: 7cd6 523d 628d 0c3d 52a0 b33c c3b5 c83c
000003e0: 3d1c 6b3d 114c 393d 9133 2a3c 78c2 b4bc
000003f0: 6c40 b0bc 0f28 6abc 5d55 2dbd 046a 793d

bias f4 [32]
-0.028039848 0.026035588 -0.14346075 -0.07285835 0.021474326 -0.0023987025 0.026987467 0.01751129
-0.1723035 -0.0821078 -0.25637004 -0.07555348 0.12570733 -0.058915325 -0.16720232 -0.05425526
-0.053835057 0.007931056 -0.14537075 -0.16050015 -0.124182634 0.017074255 -0.060256537 0.053702828
-0.04023341 -0.04623536 -0.056804877 -0.12622716 -0.15500657 -0.037034076 -0.12575577 -0.14013427
00000000: d3b3 e5bc 9648 d53c 60e7 12be c236 95bd
00000010: edea af3c 8d33 1dbb d214 dd3c d673 8f3c
00000020: 5470 30be 2228 a8bd ef42 83be c8bb 9abd
00000030: 6cb9 003e 3251 71bd 1637 2bbe c33a 5ebd
00000040: 2682 5cbd 43f1 013c 12dc 14be 275a 24be
00000050: 7753 febd 4fdf 8b3c 8fcf 76bd 7ff7 5b3d
00000060: cacb 24bd 4a61 3dbd 3bac 68bd b141 01be
00000070: 0bba 1ebe 0bb1 17bd 1fc6 00be 5c7f 0fbe

weight f4 [64, 32, 5, 5]
-0.043537363 0.016633518 0.020399235 0.0147787705 0.033105075 0.0006792463 0.018673835 -0.020597382
-0.030302374 -0.010241125 -0.023524467 0.0031304823 0.02310696 -0.018836444 0.006406654 -0.029028118
0.01555215 -0.029618753 0.026234047 -0.0065848934 0.025444532 0.047065057 -0.0037711223 -0.017094556
-0.033206932 0.009273644 -0.067749664 0.032317247 0.021861898 -0.0025618833 0.01917888 -0.0052838293
-0.0028823807 0.00663033 -0.021623798 -0.011030047 -0.000356634 0.020318583 0.00702028 -0.03624485
0.018142533 -0.021921046 -0.016069025 0.020680472 -0.008234899 -0.031901892 -0.0016072025 -0.03230895
0.051048476 0.023042496 -0.025153523 0.0026160101 0.016553508 -0.0491688 0.00019417416 -0.06308633
-0.06965548 -0.0021624188 0.008058417 -0.02202913 -0.041417502 -0.017433273 -0.0038393177 0.04034464
0.03315565 -0.07365005 0.035527825 0.02097841 0.037048914 0.040894922 -0.010617531 0.010012463
0.05898137 0.059885394 0.07438378 -0.040315766 -0.0092394585 -0.0055090073 -0.02344293 0.038078934
0.008435409 -0.030608062 0.012444503 0.054815423 0.010287244 -0.0007382786 0.006714924 -0.011614943
-0.052600622 -0.0500161 0.021411823 -0.0059395414 0.010096996 -0.02994148 -0.05563508 0.002965975
-0.033442635 -0.041496366 -0.01489694 -0.041980993 0.0005462862 0.0010209756 0.01011357 0.013801619
-0.03319524 -0.035615727 0.04991419 0.0459114 -0.0026023714 0.025857981 -0.028259525 -0.020566769
0.0018456405 0.03732936 0.005574537 -0.009498231 -0.010073359 -0.007584164 -0.0065971944 -0.03014313
-0.019661795 -0.016437788 -0.02090936 -0.038962588 -0.0052412595 -0.01152231 0.02482211 -0.041023377
-0.027152715 0.029054679 -0.02646305 -0.0009878828 -0.05710464 -0.017439075 -0.022347005 -0.034447554
0.012537048 -0.031695537 -0.028445084 -0.03997581 0.0012660644 0.013818253 -0.035067588 -0.041346777
-0.02869728 -0.017693592 -0.036326077 -0.036637332 -0.020862453 0.002118449 -0.027189057 0.015031821
0.007215531 0.0022630538 0.0025006041 -0.041772846 0.021965265 0.036639128 0.0045404835 -0.022082219
-0.038669605 -0.001812598 -0.029436642 -0.005950926 -0.03123062 -0.03041638 0.012501126 0.016787017
0.0069756038 0.04223557 0.033761773 -0.0028846103 0.0039429325 -0.020113196 -0.011918532 -0.012095836
-0.014707022 0.021556383 -0.018266428 -0.021544153 0.033898767 0.03888959 0.029597217 0.018134702
0.027604813 0.0009396975 0.02938436 0.012524721 0.007855862 -0.018379724 0.0016568501 0.044889186
0.04447376 0.037064146 -0.007429092 -0.031929478 0.009133485 0.03972372 0.00870202 -0.01434912
0.01572582 0.014094158 -0.020627243 -0.011981583 -0.0018834538 -0.017549489 -0.008300075 -0.017267719
-0.016467964 0.021763258 -0.0449775 -0.025702892 -0.032702416 0.009207671 -0.020540334 -0.032758053
0.013170596 0.0034894268 -0.010125675 0.033612445 -0.06138723 0.026299316 -0.008921899 -0.011445938
-0.014634007 0.0013913899 -0.035154954 -0.0033345232 -0.0042696265 -0.0014006895 -0.016844463 0.008478323
-0.012454586 -0.049820818 -0.0033635662 0.029613817 -0.037790578 -0.017836623 -0.04353207 -0.0010308904
0.015666155 -0.053366162 0.013111675 -0.009666754 -0.014387781 -0.0014022081 -0.0520365 -0.00062276225
0.0004922565 -0.06461903 -0.022919036 -0.054725774 -0.031192843 0.03179203 0.0053058914 -0.03096097
00000000: 3c54 32bd 0443 883c 4c1c a73c a822 723c
00000010: 3099 073d 730f 323a dff9 983c d7bb a8bc
00000020: af3c f8bc 64ca 27bc 62b6 c0bc c728 4d3b
00000030: cf4a bd3c e34e 9abc e9ee d13b 60cc edbc
00000040: 72ce 7e3c 07a3 f2bc c9e8 d63c 17c6 d7bb
00000050: 0d71 d03c 4ac7 403d ef24 77bb e209 8cbc
00000060: fe03 08bd 7bf0 173c 56c0 8abd 175f 043d
00000070: b917 b33c 45e5 27bb 071d 9d3c f923 adbb
00000080: 53e6 3cbb 3d43 d93b 6424 b1bc 5fb7 34bc
00000090: 9bfa bab9 2873 a63c 610a e63b 7b75 14bd
000000a0: a69f 943c c493 b3bc 30a3 83bc 186a a93c
000000b0: abeb 06bc 8fab 02bd c4a8 d2ba 6456 04bd
000000c0: 3518 513d 9ec3 bc3c c30e cebc 5e71 2b3b
000000d0: 399b 873c 3965 49bd 3b9b 4b39 6833 81bd
000000e0: 88a7 8ebd 5eb7 0dbb 7307 043c 6f76 b4bc
000000f0: 66a5 29bd 39d0 8ebc 109d 7bbb 6c40 253d
00000100: 38ce 073d d6d5 96bd a085 113d eada ab3c
00000110: 9ac0 173d 6f81 273d 27f5 2dbc 500b 243c
00000120: 7396 713d 634a 753d 8656 983d 2522 25bd
00000130: 1961 17bc e784 b4bb 630b c0bc a8f8 1b3d
00000140: ab34 0a3c c2bd fabc 07e4 4b3c 2386 603d
00000150: d48b 283c 0a89 41ba dd08 dc3b 9a4c 3ebc
00000160: c073 57bd afdd 4cbd d967 af3c 7ca0 c2bb
00000170: df6d 253c d647 f5bc 9ce1 63bd ce60 423b
00000180: 25fb 08bd 18f8 29bd 4c12 74bc 43f4 2bbd
00000190: a534 0f3a 42d2 853a 63b3 253c 3020 623c
000001a0: bbf7 07bd cce1 11bd d272 4c3d 980d 3c3d
000001b0: 8c8c 2abb 1ed4 d33c 8580 e7bc a47b a8bc
000001c0: 6be9 f13a ace6 183d 9baa b63b 789e 1bbc
000001d0: bb0a 25bc 9484 f8bb 472d d8bb baee f6bc
000001e0: c611 a1bc 8aa8 86bc 1b4a abbc 3c97 1fbd
000001f0: dfbe abbb 12c8 3cbc bd57 cb3c 2108 28bd
00000200: 5f6f debc 1404 ee3c 0ac9 d8bc d97b 81ba
00000210: 8ee6 69bd 64dc 8ebc 1111 b7bc e118 0dbd
00000220: 3168 4d3c 2ed3 01bd aa05 e9bc adbd 23bd
00000230: 12f2 a53a f465 623c 08a3 0fbd 3d5b 29bd
00000240: 8f16 ebbc 27f2 90bc a7ca 14bd 0711 16bd
00000250: bce7 aabc add5 0a3b 96bb debc 0748 763c
00000260: 4370 ec3b be4f 143b 2de1 233b 011a 2bbd
00000270: 80f0 b33c e912 163d 56c8 943b c5e5 b4bc
00000280: 0564 1ebd b294 edba 1d25 f1bc fcff c2bb
00000290: 5bd7 ffbc c62b f9bc 86d1 4c3c ed84 893c
000002a0: 9b93 e43b 34ff 2c3d c949 0a3d bb0b 3dbb
000002b0: b733 813b 6ec4 a4bc f245 43bc 9d2d 46bc
000002c0: b9f5 70bc 0397 b03c 7aa3 95bc 5d7d b0bc
000002d0: 6fd9 0a3d b14a 1f3d dd75 f23c 3a8f 943c
000002e0: 7d23 e23c 0856 763a 78b7 f03c 7d34 4d3c
000002f0: e0b5 003c 1391 96bc aa2a d93a b9dd 373d
00000300: 1e2a 363d 93d0 173d be6f f3bb 7cc8 02bd
00000310: 9da4 153c 57b5 223d eb92 0e3c 9218 6bbc
00000320: 6fd3 803c 2feb 663c 77fa a8bc 674e 44bc
00000330: 39de f6ba f2c3 8fbc 0afd 07bc 0875 8dbc
00000340: d3e7 86bc dc48 b23c 543a 38bd df8e d2bc
00000350: f8f2 05bd c5db 163c 3444 a8bc 4f2d 06bd
00000360: 7cc9 573c deae 643b 29e6 25bc 34ad 093d
00000370: 2d71 7bbd aa71 d73c 282d 12bc be87 3bbc
00000380: 79c3 6fbc 4c5f b63a a4fe 0fbd 0488 5abb
00000390: 39e8 8bbb 5797 b7ba 66fd 89bc aae8 0a3c
000003a0: 520e 4cbc ea10 4cbd 476f 5cbb ad98 f23c
000003b0: 4bca 1abd 1c1e 92bc af4e 32bd f11e 87ba
000003c0: 4f56 803c 7a96 5abd 5ad2 563c 4e61 1ebc
000003d0: baba 6bbc 4cca b7ba 3a24 55bd de40 23ba
000003e0: c60a 013a fb56 84bd b4c0 bbbc 2228 60bd
000003f0: 2288 ffbc 5c38 023d 0bdd ad3b dca1 fdbc

bias f4 [64]
-0.101128675 0.018964648 -0.07044125 -0.028831497 -0.15929316 -0.059705578 -0.07023603 -0.06579517
-0.010212989 0.006377423 -0.08143905 -0.05041043 -0.0907113 -0.06810251 0.030439787 -0.04840743
-0.057835918 -0.047880773 -0.04897196 -0.04719634 -0.035109337 -0.0058031604 -0.016228296 -0.0219036
-0.016866347 -0.10403713 -0.039116215 -0.051049132 -0.08396549 -0.045419738 0.006050793 -0.060055055
-0.057868402 -0.0033191869 -0.0851911 -0.03738245 -0.044485386 -0.03142557 -0.0013253067 -0.061308566
-0.06460194 -0.14776573 -0.1440047 -0.06538625 -0.01734442 -0.08410467 -0.007134454 -0.08072567
-0.02355488 -0.09621215 -0.1013155 -0.15326113 -0.09365897 -0.0059641823 -0.070018835 -0.024383577
-0.0015287781 -0.08543254 -0.07813963 -0.063875176 -0.03128225 -0.08484439 -0.061270736 -0.05070097
00000000: 8d1c cfbd c05b 9b3c 8143 90bd 0830 ecbc
00000010: bf1d 23be d68d 74bd e8d7 8fbd 9ebf 86bd
00000020: 6154 27bc b4f9 d03b 84c9 a6bd 2b7b 4ebd
00000030: d9c6 b9bd 5479 8bbd dc5c f93c df46 46bd
00000040: 5be5 6cbd a11e 44bd d296 48bd f350 41bd
00000050: cfce 0fbd 7028 bebb 34f1 84bc 2e6f b3bc
00000060: 4b2b 8abc 6b11 d5bd 5338 20bd e518 51bd
00000070: 19f6 abbd 0c0a 3abd bb45 c63b 4afc 75bd
00000080: 6b07 6dbd b786 59bb ac78 aebd 571e 19bd
00000090: 4f36 36bd 19b8 00bd eab5 adba b11e 7bbd
000000a0: 064e 84bd e64f 17be f875 13be 3ae9 85bd
000000b0: e315 8ebc 123f acbd 23c8 e9bb 8053 a5bd
000000c0: 2af6 c0bc e00a c5bd 807e cfbd 7cf0 1cbe
000000d0: 46d0 bfbd 306f c3bb 0966 8fbd 11c0 c7bc
000000e0: 4861 c8ba 41f7 aebd ac07 a0bd fdd0 82bd
000000f0: d121 00bd e5c2 adbd 06f7 7abd d2ab 4fbd

weight f4 [64, 1024]
-0.0119599495 0.05469845 0.040019218 0.009876828 0.06740422 0.04281889 0.029406494 -0.0026438567
-0.003618434 -0.010016763 0.038602974 0.007727369 -0.021061886 -0.0117060635 -0.0009674353 -0.0025656377
-0.024338683 0.010102012 0.008567796 0.007970401 -0.04373171 -0.004689707 0.041864067 0.014954295
-0.0129351 -0.035732176 -0.039756045 -0.05853856 0.024608998 -0.025620256 0.0019022332 0.0039500464
0.014220313 0.017868388 -0.0113136405 0.008169033 0.0076730335 -0.036253627 0.0016248538 0.0032445183
0.0154421935 -0.017307727 0.04149177 0.010019959 0.031011904 0.012586084 -0.015130269 0.051857147
-0.013053824 -0.023211671 0.031281617 -0.013986262 0.032546405 0.008295006 -0.012223389 -0.0023471408
0.079299465 0.010043224 0.0006903148 0.032099072 0.054575868 0.027464295 0.05389182 0.058787204
-0.025938248 0.06212788 -0.015172928 0.017092472 0.03933417 0.012669728 -0.027904825 0.039403867
-0.0041355537 -0.0036546418 0.051833026 0.013910969 0.032921445 -0.032902293 0.0064916345 -0.03881592
-0.011363812 0.036368996 0.017473267 0.039456256 -0.02681805 0.023132656 0.013656224 0.017580286
0.02237903 0.011584085 -0.005706865 -0.022636084 -0.014032174 0.0132214045 0.004578858 0.023630124
-0.004560724 0.033109866 0.04488347 0.004420221 -0.024886696 -0.0064294427 -0.03081674 -0.060417723
0.018250525 0.033611402 -0.014498983 0.04593424 0.0077124815 0.06314465 -0.0041255206 0.027816407
0.026237627 0.005970922 0.010630489 -0.002819405 -0.014358301 -0.033958346 -0.028628465 0.008164533
-0.012535724 -0.06290392 -0.0008236273 -0.017338596 -0.017997228 0.020407237 -0.021247055 0.033493813
0.012267878 -0.042152777 -0.054667123 -0.042870462 0.06643244 0.011609105 -0.017441675 -0.047542825
-0.008022693 0.006673658 -0.034819014 0.019323116 0.0031791974 -0.07037696 -0.03366075 0.036622256
0.0120531125 -0.021305325 0.030231267 -0.030451281 0.0008689889 -0.00068158045 -0.006283334 0.0029666391
0.030116012 -0.0076848287 -0.028270492 -0.020234006 0.0050266394 -0.0043219184 -0.033646267 -0.0036761418
-0.025208918 -0.051030513 0.0039241714 -0.03405826 -0.029905844 -0.004517806 0.03387429 0.0008363346
0.019481767 0.013192103 0.029562688 -0.0017527436 0.007773636 0.030157275 0.065108694 -0.021673452
0.033861104 -0.01042038 -0.0109338425 0.027761007 -0.021554645 0.083696984 -0.02121809 0.04544735
0.009855281 0.028066197 -0.006101915 0.026845947 0.024386708 0.009147406 0.048149887 0.025395572
0.016810259 0.058830928 0.012520334 0.005196251 0.015529279 -0.0059810774 0.031996403 -0.03936987
0.01927973 0.0206703 -0.008719194 -0.024669265 0.032770082 -0.025334066 0.015201861 -0.037056983
-0.034205638 0.007357596 -0.004732218 0.057007793 -0.019108983 0.0374825 0.014786124 0.01236705
0.009805039 -0.007032054 -0.037607055 0.029541563 -0.0043816348 -0.021865426 0.012469853 0.015511399
-0.03048556 0.002415966 -0.030475747 -0.027079523 0.0032446175 0.0011100355 -0.016681127 -0.030988293
0.04706053 0.025078181 -0.0035601237 -0.011610972 0.0266507 0.028929535 0.010684434 0.017472057
-0.0050044092 0.04055955 0.0026062618 0.0049648043 0.004880264 -0.004497425 -0.017754672 -0.005483709
0.0064262482 -0.03480776 0.014922546 0.0035387215 0.03461356 0.06872652 0.085935496 0.022432342
00000000: aaf3 43bc 7b0b 603d 31eb 233d 6bd2 213c
00000010: 390b 8a3d dc62 2f3d e3e5 f03c 8e44 2dbb
00000020: 4023 6dbb 591d 24bc 271e 1e3d df35 fd3b
00000030: fa89 acbc caca 3fbc 7c9b 7dba 4224 28bb
00000040: eb61 c7bc e982 253c f15f 0c3c 4996 023c
00000050: 0620 33bd 1dac 99bb a879 2b3d dc02 753c
00000060: beed 53bc e75b 12bd 3cd7 22bd 21c6 6fbd
00000070: cf98 c93c 92e1 d1bc 5b54 f93a 646f 813b
00000080: 51fc 683c ba60 923c d95c 39bc 68d7 053c
00000090: 126e fb3b af7e 14bd 0cf9 d43a fca1 543b
000000a0: 4101 7d3c efc8 8dbc 46f3 293d c12a 243c
000000b0: ad0c fe3c dd35 4e3c f3e4 77bc 2968 543d
000000c0: b5df 55bc 6726 bebc 2721 003d a226 65bc
000000d0: 614f 053d c7e7 073c 9c44 48bc 7dd2 19bb
000000e0: c267 a23d 568c 243c 3ef6 343a 517a 033d
000000f0: f28a 5f3d cdfc e03c abbd 5c3d daca 703d
00000100: 737c d4bc ce79 7e3d df97 78bc 8305 8c3c
00000110: de1c 213d b194 4f3c a998 e4bc f365 213d
00000120: 8a83 87bb b782 6fbb de4e 543d d5ea 633c
00000130: a3d8 063d 8ec4 06bd c7b7 d43b 71fd 1ebd
00000140: 482f 3abc a8f7 143d 1924 8f3c e29c 213d
00000150: 87b1 dbbc b280 bd3c 5bbe 5f3c 8804 903c
00000160: 3a54 b73c 2dcb 3d3c a700 bbbb 4f6f b9bc
00000170: 34e7 65bc 979e 583c 3f0a 963b f693 c13c
00000180: 2072 95bb 369e 073d bbd7 373d 80d7 903b
00000190: 2fdf cbbc 13ae d2bb 6373 fcbc 9378 77bd
000001a0: 2082 953c 1cac 093d 248d 6dbc 8b25 3c3d
000001b0: fcb8 fc3b fb51 813d 602f 87bb 3cdf e33c
000001c0: 4bf0 d63c b9a7 c33b 812b 2e3c c4c5 38bb
000001d0: 143f 6bbc e817 0bbd 3e86 eabc 89c4 053c
000001e0: a362 4dbc c5d3 80bd b1e8 57ba ac09 8ebc
000001f0: ec6e 93bc 142d a73c 4e0e aebc cf30 093d
00000200: 36ff 483c 64a8 2cbd a2ea 5fbd f098 2fbd
00000210: bb0d 883d 1e34 3e3c d8e1 8ebc 44bc 42bd
00000220: 9d71 03bc b3ae da3b 629e 0ebd 834b 9e3c
00000230: 155a 503b cc21 90bd dbdf 09bd 3801 163d
00000240: 6b7a 453c 8188 aebc 90a7 f73c f774 f9bc
00000250: dccc 633a 17ac 32ba 6de4 cdbb f26b 423b
00000260: dbb5 f63c 04d1 fbbb 8597 e7bc c9c1 a5bc
00000270: 82b6 a43b e19e 8dbb abd0 09bd 6deb 70bb
00000280: ef82 cebc 5f05 51bd 5696 803b ad80 0bbd
00000290: 1afd f4bc 1b0a 94bb c4bf 0a3d 773d 5b3a
000002a0: 3a98 9f3c b123 583c 732d f23c 51bc e5ba
000002b0: fcb9 fe3b 640c f73c b557 853d 868c b1bc
000002c0: f1b1 0a3d 3eba 2abc dc23 33bc 0d6b e33c
000002d0: 5e93 b0bc 5369 ab3d 8fd1 adbc 0027 3a3d
000002e0: 0b78 213c 15eb e53c 93f2 c7bb 08ec db3c
000002f0: a2c6 c73c 00df 153c d138 453d 600a d03c
00000300: abb5 893c b3f8 703d 1622 4d3c 5045 aa3b
00000310: 846e 7e3c eafc c3bb a90e 033d 4d42 21bd
00000320: 86f0 9d3c c354 a93c f3da 0ebc 3317 cabc
00000330: ec39 063d 6389 cfbc 3a11 793c 10c9 17bd
00000340: 361b 0cbd fd17 f13b b910 9bbb 0181 693d
00000350: 718a 9cbc 4087 193d 8041 723c 2b9f 4a3c
00000360: 50a5 203c 256d e6bb db09 1abd 2601 f23c
00000370: d193 8fbb 1f1f b3bc 5b4e 4c3c 8623 7e3c
00000380: dabc f9bc 2f55 1e3b 46a8 f9bc e0d5 ddbc
00000390: a6a3 543b 9c7e 913a dca6 88bc 29db fdbc
000003a0: 8bc2 403d c270 cd3c f750 69bb f23b 3ebc
000003b0: 9252 da3c a2fd ec3c c40d 2f3c 8f21 8f3c
000003c0: 07fc a3bb c521 263d d1cd 2a3b ccaf a23b
000003d0: 9fea 9f3b 235f 93bb 3f72 91bc afb0 b3bb
000003e0: 4793 d23b 9592 0ebd b27d 743c e5e9 673b
000003f0: f3c6 0d3d 7dc0 8c3d f3fe af3d 08c4 b73c

bias f4 [64]
-0.02602205 -5.5085136e-05 -0.039129216 -0.019484129 0.010796169 0.02072106 -0.0012390098 -0.032570377
0.012560269 -0.054879613 0.0036080438 0.0026711947 0.004328144 0.04176397 -0.012278003 -0.006659679
0.020845687 0.030557033 -0.07211139 -0.0044591236 -0.0026092143 -0.015020006 -0.011249595 0.051439747
0.016185986 0.04715589 0.019504633 0.0354652 0.052284904 0.032384716 -0.013344701 0.0066946144
-0.04246652 0.041376937 0.0051140306 -0.009502577 -0.011697844 0.027328122 -0.048974674 -0.0056580077
-0.051953394 -0.013847923 -0.008743209 0.023184396 0.0030604082 -0.0031903558 0.047287498 -0.034332365
0.07295556 0.017177753 -0.008194352 -0.026496567 -0.04202374 0.0015650415 -0.0037297888 0.012361937
0.063908376 -0.019311894 -0.007554946 0.02101534 -0.062595144 -0.0020468151 0.011079204 -0.054574512
00000000: 322c d5bc 370b 67b8 f545 20bd 2e9d 9fbc
00000010: 6ae2 303c 36bf a93c 4566 a2ba 8468 05bd
00000020: 96c9 4d3c 72c9 60bd ee74 6c3b 360f 2f3b
00000030: 1ad3 8d3b b210 2b3d ad29 49bc 7039 dabb
00000040: 93c4 aa3c be52 fa3c 23af 93bd d71d 92bb
00000050: 5aff 2abb 7916 76bc 3950 38bc 7cb2 523d
00000060: 7998 843c 8926 413d 2ec8 9f3c f543 113d
00000070: b228 563d d6a5 043d bca3 5abc 7f5e db3b
00000080: 60f1 2dbd dd7a 293d 9993 a73b b2b0 1bbc
00000090: 50a8 3fbc 3adf df3c ab99 48bd cf66 b9bb
000000a0: 15cd 54bd 66e2 62bc ad3f 0fbc 34ed bd3c
000000b0: 2191 483b 4a15 51bb 89b0 413d 18a0 0cbd
000000c0: ba69 953d 5cb8 8c3c 9a41 06bc 540f d9bc
000000d0: 1621 2cbd 1422 cd3a 796f 74bb b989 4a3c
000000e0: 65e2 823d fa33 9ebc 7b8f f7bb 5d28 ac3c
000000f0: e231 80bd dc23 06bb 8d85 353c 8689 5fbd

weight f4 [10, 64]
0.076860964 0.05012078 0.1416999 -0.22353935 -0.18872748 0.18196386 -0.29146478 0.31701604
-0.10729631 0.01741686 -0.13677 0.05385302 0.00075106305 -0.11198313 -0.03309872 -0.045910835
0.030858912 -0.27536526 0.033814754 0.053416982 -0.0027869365 -0.094339535 -0.03386335 0.06075092
-0.0030290314 -0.17978778 -0.12292119 0.17646699 -0.28047565 -0.1852931 -0.049178805 0.018236827
-0.09914982 0.1269848 -0.0075119697 0.3365905 0.19128957 0.12731187 0.056452837 -0.3367388
0.1859102 -0.101043195 -0.15799809 -0.1534059 0.08093937 0.09121707 -0.16776793 -0.13387461
-0.2855041 -0.017683532 0.15316053 0.18979368 -0.17901163 -0.101229206 -0.0032238604 0.024802886
-0.057046954 -0.0034956664 -0.06656752 -0.10921625 0.15196653 -0.26156023 0.118504494 0.27765393
0.24247868 -0.20198557 -0.22268637 0.24083652 -0.044160932 -0.13555199 -0.09799527 0.09605448
0.18256058 -0.13251443 -0.088052 -0.12444939 0.014610811 -0.23097442 -0.13791122 -0.06223277
0.008957707 -0.24718381 0.05975878 0.17018972 -0.16671379 0.34133536 0.117525294 0.20366712
0.28406954 0.043801837 0.20174931 -0.14706922 -0.19866681 0.14587553 -0.043095842 0.056667574
-0.106441356 -0.2607325 -0.1152988 -0.3243064 0.09036199 0.23888382 -0.20719849 -0.2122761
-0.15945913 0.2054909 0.25043902 0.19064802 -0.26160917 0.0015228456 -0.057918396 0.04478455
-0.21416777 -0.070956 0.012620289 -0.23855779 -0.14289303 0.3163613 0.21117397 0.26421463
-0.30165485 -0.15939042 0.30037037 -0.07135565 -0.058748443 -0.009460786 0.21181813 -0.22096126
-0.2178699 0.024320263 -0.025001157 -0.13938847 -0.2312533 0.3295406 0.07777576 0.17756099
-0.08044739 0.03532794 0.02986563 -0.01318061 -0.166897 0.023278523 0.07764245 0.26203308
-0.08714819 -0.10033691 0.2392203 -0.26822487 0.07595956 -0.012892445 0.003077224 -0.07618505
0.0745752 -0.18393695 -0.26874363 -0.28984812 0.011472177 0.09843327 -0.025716152 0.036275968
-0.16766818 -0.08281436 0.0020880175 0.31836239 -0.2084622 0.050626565 -0.0040935474 0.26220757
0.25216478 -0.2459254 0.22501051 0.15473853 0.26235354 -0.033950977 -0.055180784 -0.15544316
0.015996449 -0.10493668 -0.039844964 -0.08490135 -0.15091892 -0.13678946 0.15907215 -0.2553229
0.2618713 -0.040840678 -0.14219865 -0.033775017 -0.10946146 0.20208113 0.10358624 -0.14124459
0.21329357 0.042973086 0.17892984 0.09353749 0.18410982 0.053963855 0.24464476 -0.018308876
0.07309362 0.09727971 0.09343886 -0.1530294 0.12330174 0.10976097 0.11364408 -0.0880338
-0.13751662 0.052198965 0.061827227 0.223539 -0.16721466 -0.2546048 0.015340488 -0.21361718
0.16253245 0.0049084905 -0.1621946 0.20651603 0.015899166 -0.015123275 -0.101587735 0.122474745
-0.14520112 0.110923804 -0.09433955 -0.19405116 -0.10346916 -0.09000168 0.017793514 -0.015227541
0.040627945 0.002386862 -0.1632419 0.11151107 0.021224868 -0.0058624274 -0.089700945 -0.15919165
0.08002184 0.10594543 -0.19823053 -0.12111801 0.11900746 -0.05117338 0.05477088 -0.19018061
0.1296746 -0.16750199 -0.21237057 -0.13187142 -0.079389654 0.12394707 -0.08021165 0.030046878
00000000: 4869 9d3d 724b 4d3d c719 113e 80e7 64be
00000010: c741 41be bc54 3a3e df3a 95be ed4f a23e
00000020: 2bbe dbbd cead 8e3c 6f0d 0cbe fc94 5c3d
00000030: fde2 443a 6957 e5bd 8692 07bd 000d 3cbd
00000040: d4cb fc3c adfc 8cbe 5781 0a3d c4cb 5a3d
00000050: 09a5 36bb 1635 c1bd 4cb4 0abd f5d5 783d
00000060: b782 46bb 4a1a 38be 1bbe fbbd c3b3 343e
00000070: 819a 8fbe 79bd 3dbe b76f 49bd 6665 953c
00000080: 100f cbbd 4e08 023e f826 f6bb 9755 ac3e
00000090: 6ae1 433e 0b5e 023e 173b 673d 0769 acbe
000000a0: 3e5f 3e3e bcef cebd 40ca 21be 7016 1dbe
000000b0: 8ac3 a53d 04d0 ba3d 5bcb 2bbe 6d16 09be
000000c0: 982d 92be 0edd 90bc 1dd6 1c3e 4659 423e
000000d0: d34e 37be 4251 cfbd 6747 53bb 6c2f cb3c
000000e0: 11aa 69bd 8d17 65bb 8d54 88bd c5ac dfbd
000000f0: 1d9d 1b3e 39eb 85be 7cb2 f23d a828 8e3e
00000100: 554c 783e 4ed5 4ebe e507 64be d99d 763e
00000110: 18e2 34bd 24ce 0abe beb1 c8bd 36b8 c43d
00000120: 29f1 3a3e ddb1 07be 9b54 b4bd 52df febd
00000130: 2f62 6f3c 8f84 6cbe 9938 0dbe cae7 7ebd
00000140: 59c3 123c c11d 7dbe 9fc5 743d 3746 2e3e
00000150: 05b7 2abe 82c3 ae3e 1ab1 f03d 1d8e 503e
00000160: 9071 913e 8e69 333d 5f97 4e3e 5099 16be
00000170: 506f 4bbe 6560 153e 4485 30bd 421c 683d
00000180: edfd d9bd bb7e 85be c721 ecbd 7d0b a6be
00000190: b50f b93d f69d 743e d72b 54be e85e 59be
000001a0: 4149 23be 356c 523e 8b39 803e 3c39 433e
000001b0: a3f1 85be 389a c73a d73b 6dbd 0170 373d
000001c0: cc4e 5bbe 6151 91bd 54c5 4e3c 7e48 74be
000001d0: 8d52 12be 1cfa a13e fd3d 583e 2447 873e
000001e0: 8172 9abe 3e37 23be 25ca 993e e922 92bd
000001f0: 35a2 70bd 6a01 1bbc dae6 583e ab43 62be
00000200: 4919 5fbe 4a3b c73c 3acf ccbc dabb 0ebe
00000210: aacd 6cbe 8cb9 a83e e648 9f3d 8cd2 353e
00000220: 9ac1 a4bd 08b4 103d c4a8 f43c 7cf3 57bc
00000230: 0ce7 2abe 9ab2 be3c 0103 9f3d 3329 863e
00000240: c07a b2bd 707d cdbd 2bf6 743e c554 89be
00000250: b090 9b3d d53a 53bc 40ab 493b e806 9cbd
00000260: e2ba 983d f859 3cbe c498 89be f966 94be
00000270: ccf5 3b3c 6297 c93d aeaa d2bc 1c96 143d
00000280: 35b1 2bbe 939a a9bd 1fd7 083b 6500 a33e
00000290: 1d77 55be cd5d 4f3d 2a23 86bb 1240 863e
000002a0: be1b 813e ded3 7bbe 2869 663e c773 1e3e
000002b0: 3453 863e 2e10 0bbd 3f05 62bd 7e2c 1fbe
000002c0: fc0a 833c 0be9 d6bd 7934 23bd c2e0 adbd
000002d0: 7d8a 1abe 8912 0cbe cfe3 223e afb9 82be
000002e0: ff13 863e 8e48 27bd 869c 11be ac57 0abd
000002f0: 542d e0bd 5bee 4e3e 0625 d43d 6ca2 10be
00000300: a169 5a3e 8c04 303d 6239 373e 9590 bf3d
00000310: 4987 3c3e 3409 5d3d 2884 7a3e 7ffc 95bc
00000320: 1cb2 953d 963a c73d df5c bf3d bdb3 1cbe
00000330: 9f85 fc3d 5cca e03d 3abe e83d 114b b4bd
00000340: 28d1 0cbe 95ce 553d 8c3e 7d3d 68e7 643e
00000350: 523a 2bbe 8f5b 82be ac56 7b3c 76be 5abe
00000360: e86e 263e 67d7 a03b 5716 26be f078 533e
00000370: f83e 823c 9dc7 77bc 3b0d d0bd 0ad4 fa3d
00000380: 9aaf 14be 052c e33d 1835 c1bd 59b5 46be
00000390: a4e7 d3bd cd52 b8bd b4c3 913c f07c 79bc
000003a0: 7d69 263d e66c 1c3b e228 27be ea5f e43d
000003b0: c6df ad3c 9b19 c0bb 21b5 b7bd 2303 23be
000003c0: 7ee2 a33d ebf9 d83d f2fc 4abe b80c f8bd
000003d0: 2fba f33d 2e9b 51bd 6e57 603d b5be 42be
000003e0: 6bc9 043e a485 2bbe ac77 59be 4d09 07be
000003f0: 0b97 a2bd f6d7 fd3d 0146 a4bd df24 f63c

bias f4 [10]
-0.22569683 -0.06872399 0.10811501 0.09821104 0.17234851 -0.15744956 0.14698586 0.0674217
-0.094137534 0.030223249
00000000: 121d 67be 2abf 8cbd 676b dd3d df22 c93d
00000010: 217c 303e 753a 21be 7683 163e 6314 8a3d
00000020: 2ecb c0bd bf96 f73c
